RL/Model_Repository/temp/TD3_Guest_alan_actor.pth (torch, 513791 bytes, 9 tensors)

layer_1.weight f4 [400, 13]
0	0x361284fe	2.1833107e-06
1	0x3a2f18f2	0.00066794374
2	0xb20e4d0f	-8.283009e-09
3	0x3c1b706e	0.009487255
4	0x30c57e92	1.436961e-09
5	0xb16831df	-3.3788792e-09
6	0xb0dd03c2	-1.6080934e-09
7	0xaeb360cb	-8.1571715e-11
8	0x3b90b9c1	0.004416675
9	0xb22b609b	-9.975476e-09
10	0x3b4e0102	0.0031433706
11	0xb6b477a1	-5.3783447e-06
12	0xb5da89cf	-1.6282373e-06
13	0xb509e0b2	-5.136345e-07
14	0xaf1e8b49	-1.44195e-10
15	0x32d1c7bd	2.4421633e-08
16	0x36a89a51	5.024755e-06
17	0xb23b6dfc	-1.090984e-08
18	0xad573f64	-1.2235411e-11
19	0x3093fb56	1.0767092e-09
20	0xad50fb16	-1.1879183e-11
21	0xb1c641c8	-5.770037e-09
22	0xb0307241	-6.419079e-10
23	0xaf3d2f81	-1.7206327e-10
24	0xb81df308	-3.7658057e-05
25	0xb673d728	-3.633506e-06
26	0x31796ca4	3.6296024e-09
27	0xb15b3cf0	-3.1903333e-09
28	0xb4b9c451	-3.4601774e-07
29	0xbcb71e19	-0.022353219
30	0x3beaa3e1	0.007160649
31	0xbad20a4d	-0.0016024798
32	0x36c213e2	5.783965e-06
33	0xb3ff2b33	-1.1882221e-07
34	0x2f30c414	1.6076768e-10
35	0xb17c91a7	-3.675362e-09
36	0x339f358f	7.413757e-08
37	0x38b56851	8.650183e-05
38	0xb4ebe4ff	-4.3938778e-07
39	0x3041cdab	7.050526e-10
40	0xb018f8f2	-5.565105e-10
41	0xb002d597	-4.7597254e-10
42	0xaf210817	-1.4645739e-10
43	0x3bbd361a	0.0057742717
44	0xad45e135	-1.12481595e-11
45	0xaf57df97	-1.9633571e-10
46	0xad39b0f9	-1.0555328e-11
47	0xaff56fb9	-4.4644624e-10
48	0xaf60e476	-2.0453847e-10
49	0xaf8f92a3	-2.611574e-10
50	0xbcbaeb89	-0.02281739
51	0xb67c6a5b	-3.7612833e-06
52	0xb64d1b60	-3.0563315e-06
53	0x39cf5a25	0.0003954928
54	0x30815dea	9.412677e-10
55	0x2f08eaa0	1.2452483e-10
56	0xad6a5a01	-1.3321345e-11
57	0xb0a29309	-1.1828841e-09
58	0x37a14616	1.9225332e-05
59	0xae3b7361	-4.2621354e-11
60	0xb20255b6	-7.586484e-09
61	0xaff35b5a	-4.4266352e-10
62	0xb1283f8e	-2.4483344e-09
63	0x362685ff	2.4813924e-06
64	0xb6a722b3	-4.9810274e-06
65	0x8000000f	-2.1e-44
66	0x3a29976f	0.0006469404
67	0x80000006	-8e-45
68	0x80000006	-8e-45
69	0x80000006	-8e-45
70	0x3bd9f1cf	0.0066511403
71	0x80000004	-6e-45
72	0x3c8d364b	0.017237803
73	0xba07fd00	-0.0005187541
74	0xbcbe4a14	-0.023228683
75	0xb79d3398	-1.8739884e-05
76	0xa11b97ee	-5.271712e-19
77	0x80000002	-3e-45
78	0x30b26549	1.2979992e-09
79	0x3a3784f4	0.00070007076
80	0xb088bd8a	-9.949173e-10
81	0xaff9fe1a	-4.5473386e-10
82	0xae9a8179	-7.026108e-11
83	0xaf04bf93	-1.2073391e-10
84	0xb0103c84	-5.247289e-10
85	0x2fb69f1e	3.3218667e-10
86	0xae39191a	-4.2086425e-11
87	0xb72e3e32	-1.0385689e-05
88	0xb098ee43	-1.1127174e-09
89	0xb6f65540	-7.3412957e-06
90	0xb679f5ff	-3.724708e-06
91	0x2eb5d189	8.268148e-11
92	0xae769a59	-5.6071012e-11
93	0xaf5e07f1	-2.0193604e-10
94	0xb0c9c114	-1.4679551e-09
95	0xad059244	-7.592652e-12
96	0x3c13daaf	0.009024306
97	0x303a6f76	6.78248e-10
98	0x2d82c099	1.486482e-11
99	0xbc95c665	-0.018283078
100	0xaeaac69c	-7.765985e-11
101	0x2eba44f5	8.47055e-11
102	0x34fcfcd9	4.712263e-07
103	0xb293c9ce	-1.7204822e-08
104	0xb32ed1b6	-4.0703263e-08
105	0xafba36df	-3.387219e-10
106	0xbac95fd6	-0.0015363644
107	0xaf96f35d	-2.745776e-10
108	0xbb74c57b	-0.0037349153
109	0xadce2ef9	-2.3440349e-11
110	0x3ccbb13c	0.024864785
111	0x30b48071	1.3133229e-09
112	0x2f42291d	1.7658804e-10
113	0xbc418f81	-0.011813999
114	0xb00bdd4f	-5.0882404e-10
115	0xb6f426d9	-7.276289e-06
116	0xb65617d0	-3.1902346e-06
117	0xbb8ad11b	-0.004236353
118	0xb1a50fce	-4.803929e-09
119	0xb100ecef	-1.8761133e-09
120	0xb42a0aac	-1.5836366e-07
121	0xaf587bce	-1.968907e-10
122	0xb3a0a9e1	-7.4814814e-08
123	0xb10c47ba	-2.0413453e-09
124	0xaf30e263	-1.6087535e-10
125	0xaf494d09	-1.8308212e-10
126	0x31e72684	6.7273636e-09
127	0xb81c9f37	-3.734158e-05
128	0x3a8634e2	0.0010239149
129	0x3813d308	3.524407e-05
130	0x3b1bf6ca	0.002379822
131	0x2e3afdf4	4.251706e-11
132	0xbabce089	-0.0014410178
133	0xace8ccba	-6.616566e-12
134	0x2aa75d51	2.972991e-13
135	0xa91a1aec	-3.421822e-14
136	0xba2fa95b	-0.0006700956
137	0xbcc23894	-0.02370862
138	0xab1c75d3	-5.558585e-13
139	0x2dd7c5d6	2.4530527e-11
140	0x2c523c55	2.9876286e-12
141	0xb9cd34fa	-0.00039140118
142	0xb3083775	-3.1715405e-08
143	0x31b93a85	5.3908615e-09
144	0xb255cf3a	-1.244535e-08
145	0xb08c2de9	-1.0199389e-09
146	0x329c4a19	1.8194486e-08
147	0x392e570e	0.00016626364
148	0x3c081325	0.008305346
149	0xb85ae1b2	-5.2185445e-05
150	0x3158998f	3.1519425e-09
151	0x30069c06	4.897064e-10
152	0x344bc1f2	1.8976405e-07
153	0xb424bd53	-1.5342566e-07
154	0x3c027a8a	0.007963786
155	0x39f8c1e7	0.00047446715
156	0x30e8c66d	1.6936618e-09
157	0x323a00d5	1.0826814e-08
158	0x321a0342	8.9647205e-09
159	0x30e9c61e	1.700929e-09
160	0x3c032aaa	0.008005777
161	0xb0897f4b	-1.0004241e-09
162	0xb46a9222	-2.1846111e-07
163	0xbb8fab0f	-0.0043844054
164	0xaf9c66fa	-2.8449404e-10
165	0xb4148efb	-1.383559e-07
166	0x2f5506a0	1.9374591e-10
167	0x3b093af1	0.0020939673
168	0x38e9c9df	0.00011147907
169	0x80000002	-3e-45
170	0x80000002	-3e-45
171	0xb5f60d54	-1.8332307e-06
172	0x00000002	3e-45
173	0x00000009	1.3e-44
174	0x80000002	-3e-45
175	0x80000001	-1e-45
176	0xb41464c0	-1.3820227e-07
177	0x00000003	4e-45
178	0x36f7c774	7.384393e-06
179	0xbc5abdf0	-0.013350949
180	0x0000000c	1.7e-44
181	0x00000002	3e-45
182	0xb04b340e	-7.3924944e-10
183	0x324cbba4	1.1917027e-08
184	0x315627e0	3.1163765e-09
185	0x31532bc3	3.0729417e-09
186	0x2ee4380c	1.03781955e-10
187	0xb20df06f	-8.2619485e-09
188	0x326e1d0c	1.3860028e-08
189	0xb2891557	-1.5958603e-08
190	0xb1468ef0	-2.8894043e-09
191	0x31792c8b	3.6259589e-09
192	0x319aefe0	4.5092605e-09
193	0x3b2567ad	0.0025238798
194	0x3913e4d0	0.00014104252
195	0xb064a64f	-8.3182256e-10
196	0x32f7a1cc	2.8828161e-08
197	0x339e4725	7.3703895e-08
198	0x30006cf1	4.6720944e-10
199	0xad8ef708	-1.6253235e-11
200	0xbc017b9a	-0.007903004
201	0x301250a0	5.3229066e-10
202	0x3a9b567b	0.0011851335
203	0x2cefa1a9	6.8107364e-12
204	0x33b75aa2	8.5380876e-08
205	0xaf067370	-1.222824e-10
206	0xb594a49a	-1.1074765e-06
207	0xbbc9c336	-0.006157304
208	0xb05b0762	-7.968223e-10
209	0x310aa48f	2.0175184e-09
210	0xb0b26919	-1.2981075e-09
211	0xb116d0f1	-2.1946642e-09
212	0xbb99b43b	-0.0046906746
213	0xaf02ab44	-1.1884277e-10
214	0x32950acf	1.7350798e-08
215	0x3c9560fd	0.018234724
216	0xb37c6d77	-5.877288e-08
217	0x31ac13fe	5.0081317e-09
218	0x302d3bb9	6.3021904e-10
219	0xb6c27b0b	-5.7959746e-06
220	0xb663b88b	-3.3933054e-06
221	0x31b26b4f	5.1926814e-09
222	0x309ce351	1.1415101e-09
223	0x3278c058	1.4479234e-08
224	0xbcc355ad	-0.023844564
225	0x2ef82e0c	1.1285914e-10
226	0x35571339	8.0121714e-07
227	0xb0cb9650	-1.4812915e-09
228	0x2eb6e736	8.317473e-11
229	0xbcb5dc10	-0.02219966
230	0xb974a86a	-0.00023332392
231	0x33eaa4c0	1.0926442e-07
232	0x37b971fd	2.2106798e-05
233	0x3a997835	0.0011708798
234	0x00000002	3e-45
235	0x80000006	-8e-45
236	0x335d7f11	5.157114e-08
237	0xb5a55081	-1.2316888e-06
238	0xbb09b13f	-0.0021010188
239	0xbc491b84	-0.012274627
240	0x00000002	3e-45
241	0x00000003	4e-45
242	0x80000001	-1e-45
243	0x80000002	-3e-45
244	0x80000010	-2.2e-44
245	0xabffa6ba	-1.8165116e-12
246	0x9620484f	-1.2947514e-25
247	0x80000004	-6e-45
248	0x00000005	7e-45
249	0x00000006	8e-45
250	0x00000007	1e-44
251	0xb21d2efc	-9.149286e-09
252	0x80000012	-2.5e-44
253	0x80000001	-1e-45
254	0x80000007	-1e-44
255	0xbc7a69db	-0.015284027

layer_1.bias f4 [400]
0	0xb0c15cb1	-1.4068943e-09
1	0xafc33023	-3.5504497e-10
2	0x39b1e050	0.00033927197
3	0x33ddccdf	1.032838e-07
4	0xb18f38cc	-4.168305e-09
5	0xbc6c39d4	-0.014418084
6	0xb1032a28	-1.9086972e-09
7	0xb0503ee4	-7.575933e-10
8	0xbc3cef79	-0.011531704
9	0x32aa0cf0	1.9796488e-08
10	0xad22b076	-9.247816e-12
11	0x33a59443	7.71038e-08
12	0x3cb7f71f	0.022456704
13	0xbbdd3bae	-0.006751499
14	0x31b18e37	5.167546e-09
15	0x3b337dc3	0.0027388192
16	0x3c9cdde8	0.019148782
17	0x30a6b487	1.2129399e-09
18	0xbbe9bbaf	-0.0071329693
19	0x00000004	6e-45
20	0x33478c2f	4.6460794e-08
21	0xb4d4b407	-3.9619064e-07
22	0x3c8314d1	0.016001137
23	0x337e9832	5.9277404e-08
24	0xb0d499b8	-1.546872e-09
25	0x00000002	3e-45
26	0x313bc7ca	2.7325648e-09
27	0xadc7a1dc	-2.269556e-11
28	0x3c3aef4c	0.011409592
29	0xb03a91fb	-6.7873857e-10
30	0xba3927ab	-0.0007063101
31	0x307babbb	9.155731e-10
32	0xafda02f5	-3.965607e-10
33	0x302a4a5d	6.1951316e-10
34	0xb09ac27d	-1.1260252e-09
35	0xafc0e29b	-3.508561e-10
36	0xb1619cdb	-3.2830971e-09
37	0xb01a56ff	-5.61485e-10
38	0xb0d10b81	-1.5210021e-09
39	0xad3c67df	-1.0709627e-11
40	0x3c43a3da	0.011940921
41	0x33bcf227	8.7984795e-08
42	0x30d84570	1.5735804e-09
43	0x309e2b13	1.1508255e-09
44	0xbb9f98fd	-0.0048705325
45	0xb3031f11	-3.052907e-08
46	0x3bb52fb4	0.0055293683
47	0xb0b93a67	-1.347712e-09
48	0x3119d1ff	2.23838e-09
49	0x80000001	-1e-45
50	0xaf62abeb	-2.0615658e-10
51	0xb0cc61d0	-1.4870754e-09
52	0xaf6aec93	-2.1366224e-10
53	0xb154f839	-3.0991159e-09
54	0x34ea8aee	4.368698e-07
55	0x161a3b35	1.2458703e-25
56	0x3385cd1a	6.230603e-08
57	0xb5012ce5	-4.8121575e-07
58	0xadefd8d1	-2.726744e-11
59	0xb4bd4156	-3.5251531e-07
60	0x3c6fba83	0.01463187
61	0xb3bf9ca4	-8.922623e-08
62	0xafda9b14	-3.976416e-10
63	0xbc932086	-0.017959844
64	0xb63301f4	-2.6674215e-06
65	0x317a92b1	3.6463172e-09
66	0xb0124cf3	-5.322384e-10
67	0xba510bb8	-0.00079744635
68	0xb4dcb81d	-4.1112153e-07
69	0xb2dc111e	-2.5619155e-08
70	0x334da5da	4.7881123e-08
71	0xb0d7d613	-1.5704152e-09
72	0x80000004	-6e-45
73	0xa8a5b2ed	-1.8396277e-14
74	0x321a3664	8.976347e-09
75	0xad44ccb0	-1.118676e-11
76	0x3210308f	8.392944e-09
77	0xba4787f1	-0.00076115044
78	0x2b2111b6	5.722327e-13
79	0x30e6e85e	1.6800745e-09
80	0x312d7527	2.5241407e-09
81	0xb1347090	-2.6257432e-09
82	0x3c6ac841	0.014329971
83	0x00000001	1e-45
84	0x3410377d	1.3431232e-07
85	0x84fce362	-5.9453733e-36
86	0x390ca6cb	0.00013413576
87	0x2f48f5ac	1.8277174e-10
88	0xb43a2b2d	-1.7338307e-07
89	0xb09c7b85	-1.13856e-09
90	0xb003fc31	-4.801591e-10
91	0x80000007	-1e-44
92	0x3b909709	0.004412536
93	0x31b01514	5.1246705e-09
94	0xb87e468f	-6.0624032e-05
95	0x30cdca54	1.4973218e-09
96	0xaed95dfd	-9.884713e-11
97	0xb0e9f129	-1.7021523e-09
98	0xa8443e81	-1.0893739e-14
99	0xb33f6996	-4.4566683e-08
100	0x33d0b968	9.71948e-08
101	0x00000005	7e-45
102	0x351df234	5.883951e-07
103	0xad038f5b	-7.478319e-12
104	0xad56fe60	-1.2220974e-11
105	0x3410c36c	1.3482139e-07
106	0x2fa24122	2.9513908e-10
107	0x37dfdcc1	2.6686468e-05
108	0xb473d653	-2.2709109e-07
109	0xb1aad156	-4.97145e-09
110	0x31649cc4	3.3267478e-09
111	0x31a75e84	4.871085e-09
112	0x34f7145c	4.602215e-07
113	0x32e352d8	2.6463951e-08
114	0xaf35b4f8	-1.6526147e-10
115	0x80000002	-3e-45
116	0x2e37a41d	4.1755144e-11
117	0xbc9201bd	-0.017823095
118	0xb0c345f3	-1.4207998e-09
119	0x2ea644d1	7.56103e-11
120	0x393ae708	0.00017824408
121	0xbcb40878	-0.021976694
122	0xb0aa3d91	-1.2386626e-09
123	0xaffe8cc8	-4.6302362e-10
124	0xb19fff06	-4.656502e-09
125	0xaf6b2391	-2.1385761e-10
126	0xb4001ac6	-1.1930669e-07
127	0xbc572234	-0.013130713
128	0x34c7ce95	3.7216947e-07
129	0x80000006	-8e-45
130	0x34b64bca	3.3955286e-07
131	0xbbcad1fc	-0.006189583
132	0x3c558bba	0.013033802
133	0xb104ffc7	-1.935392e-09
134	0x33221e5c	3.7746176e-08
135	0xaf37b1ed	-1.6706965e-10
136	0xba81d173	-0.000990434
137	0xb040fb0e	-7.0205963e-10
138	0xafeed25a	-4.3441412e-10
139	0xb4f95145	-4.6438996e-07
140	0xbab4a56f	-0.0013782213
141	0x318886fc	3.973467e-09
142	0xa8d71360	-2.3878198e-14
143	0xb1a0cca9	-4.67988e-09
144	0x31838bab	3.82848e-09
145	0xb0891afa	-9.975729e-10
146	0x3cc94557	0.024569197
147	0x00000000	0.0
148	0x382993a7	4.0430252e-05
149	0x33eee757	1.1124819e-07
150	0x34c558ce	3.6758723e-07
151	0xbcaae680	-0.020861864
152	0xa90bb329	-3.1019597e-14
153	0x2cc6f400	5.654588e-12
154	0x338c4478	6.5317124e-08
155	0xafb994cc	-3.375703e-10
156	0xb4a27e99	-3.0266963e-07
157	0xb010a4b7	-5.262097e-10
158	0xbb8679d2	-0.0041038776
159	0xb075e7f1	-8.946009e-10
160	0x3436b9f5	1.7017722e-07
161	0xb341bdac	-4.510882e-08
162	0x362fe01a	2.6207476e-06
163	0xb082bcba	-9.512384e-10
164	0xad28f0c1	-9.6031525e-12
165	0x3abf461f	0.0014593041
166	0xbbee14ef	-0.007265679
167	0x80000002	-3e-45
168	0x80000010	-2.2e-44
169	0x332553f1	3.84934e-08
170	0x3bc9ae24	0.0061547924
171	0xb23117ab	-1.03081375e-08
172	0xb057aad1	-7.845929e-10
173	0x3946709a	0.00018924699
174	0x37cf3ba0	2.4704088e-05
175	0xbc0ab850	-0.008466795
176	0xad6902b4	-1.3245117e-11
177	0x3352aec2	4.9053376e-08
178	0xb37456c4	-5.688959e-08
179	0x3344ecba	4.5850108e-08
180	0x3a8e05dc	0.0010835486
181	0x3bf6ea6a	0.0075352686
182	0x31bf22ce	5.5627885e-09
183	0xaf61f171	-2.0549408e-10
184	0x355b31bf	8.165625e-07
185	0x34850115	2.4773968e-07
186	0xb04c4383	-7.431071e-10
187	0x80000006	-8e-45
188	0xb1b5f1a5	-5.295265e-09
189	0xb1023912	-1.894993e-09
190	0x33b8e9c1	8.610687e-08
191	0xb0cd8344	-1.4953021e-09
192	0xaf7aecda	-2.2821514e-10
193	0xb0b4ef86	-1.31648e-09
194	0xb122bd60	-2.368175e-09
195	0xb3bffbe9	-8.939953e-08
196	0xb0388a2d	-6.713517e-10
197	0x32f50d13	2.85277e-08
198	0x32700ef0	1.3973235e-08
199	0xb1974bb9	-4.403287e-09
200	0xb48fc740	-2.67808e-07
201	0xb3a13712	-7.507164e-08
202	0xb0002b6c	-4.6627835e-10
203	0xb488ce88	-2.5482245e-07
204	0xafc5e73e	-3.59984e-10
205	0x80000000	-0.0
206	0xb2418f11	-1.1266608e-08
207	0xb47553fd	-2.2847958e-07
208	0xb10c83f5	-2.044769e-09
209	0x3b8f30ec	0.0043698456
210	0x31e3c7c3	6.62928e-09
211	0xb09fe389	-1.1633442e-09
212	0xb0d4bc3c	-1.547853e-09
213	0xb1c8fcec	-5.84952e-09
214	0x3ca78185	0.020447502
215	0xb473bac1	-2.2699079e-07
216	0xb4e2acd7	-4.2221538e-07
217	0xbc91cb44	-0.01779712
218	0xba0d67ce	-0.0005394191
219	0xb5aa1e69	-1.2674838e-06
220	0x3acb4f5d	0.0015511323
221	0x33f4f6a5	1.1407e-07
222	0xb1c6f749	-5.7906715e-09
223	0xb083c627	-9.587823e-10
224	0xb70bb076	-8.326131e-06
225	0xb00ff93e	-5.237729e-10
226	0x33d7a9d8	1.0042612e-07
227	0xba188b12	-0.0005819063
228	0x00000001	1e-45
229	0x31c3bb9f	5.696577e-09
230	0x048443f5	3.109546e-36
231	0xb00d5676	-5.141837e-10
232	0x3405ec44	1.2472543e-07
233	0x322d2124	1.0077461e-08
234	0xb206b4ee	-7.840965e-09
235	0xb9d9eedb	-0.00041567427
236	0xb029f065	-6.1823463e-10
237	0x3bcf2aa7	0.006322223
238	0xbc1d6fbc	-0.009609159
239	0xbc818db4	-0.01581464
240	0xbc4dc417	-0.0125589585
241	0xae547a2a	-4.8311723e-11
242	0x32faddad	2.9204637e-08
243	0x318ee138	4.1583483e-09
244	0x80000010	-2.2e-44
245	0x33b5694d	8.4476234e-08
246	0xb096e539	-1.0979085e-09
247	0xbc957699	-0.018245028
248	0x3753d456	1.2626018e-05
249	0x3cbe34f3	0.023218608
250	0xb41f5116	-1.4837528e-07
251	0x00000003	4e-45
252	0xaa0cf8d9	-1.2520834e-13
253	0xb0327cba	-6.493327e-10
254	0xb400ff5a	-1.2013825e-07
255	0x3c500a33	0.012697744

ln1.weight f4 [400]
0	0x3f3a791f	0.72841066
1	0x3f3a79b4	0.72841954
2	0x3f3a7777	0.7283854
3	0x3f3a7aa9	0.72843415
4	0x3f3a7847	0.7283978
5	0x3f3a794d	0.7284134
6	0x3f3a79af	0.72841924
7	0x3f3a7a03	0.72842425
8	0x3f3a7931	0.72841173
9	0x3f3a7b4d	0.7284439
10	0x3f3a7992	0.7284175
11	0x3f3a789a	0.72840273
12	0x3f3a77f1	0.72839266
13	0x3f3a7ab2	0.7284347
14	0x3f3a7bbe	0.72845066
15	0x3f3a78cc	0.7284057
16	0x3f3a77bd	0.72838956
17	0x3f3a7ae6	0.7284378
18	0x3f3a78ac	0.7284038
19	0x3f3a7886	0.72840154
20	0x3f3a77fa	0.7283932
21	0x3f3a793e	0.7284125
22	0x3f3a7817	0.7283949
23	0x3f3a74b2	0.7283431
24	0x3f3a7922	0.72841084
25	0x3f3a7a55	0.72842914
26	0x3f3a7898	0.7284026
27	0x3f3a78c8	0.7284055
28	0x3f3a7a76	0.7284311
29	0x3f3a78ac	0.7284038
30	0x3f3a79e4	0.7284224
31	0x3f3a790e	0.72840965
32	0x3f3a79ca	0.72842085
33	0x3f3a790e	0.72840965
34	0x3f3a7970	0.7284155
35	0x3f3a7831	0.7283965
36	0x3f3a798f	0.72841734
37	0x3f3a7879	0.72840077
38	0x3f3a7974	0.7284157
39	0x3f3a7ab3	0.72843474
40	0x3f3a7ac5	0.7284358
41	0x3f3a78fa	0.72840846
42	0x3f3a78ee	0.72840774
43	0x3f3a79be	0.72842014
44	0x3f3a780e	0.7283944
45	0x3f3a79cb	0.7284209
46	0x3f3a7c08	0.72845507
47	0x3f3a7754	0.7283833
48	0x3f3a7828	0.72839594
49	0x3f3a792b	0.7284114
50	0x3f3a7b89	0.7284475
51	0x3f3a7938	0.72841215
52	0x3f3a78e0	0.7284069
53	0x3f3a7970	0.7284155
54	0x3f3a7a3b	0.7284276
55	0x3f3a7afc	0.7284391
56	0x3f3a755d	0.7283533
57	0x3f3a7bf7	0.72845405
58	0x3f3a7b41	0.7284432
59	0x3f3a7aee	0.72843826
60	0x3f3a7c5c	0.7284601
61	0x3f3a79ba	0.7284199
62	0x3f3a78c7	0.7284054
63	0x3f3a77f1	0.72839266
64	0x3f3a7be2	0.7284528
65	0x3f3a78b0	0.72840405
66	0x3f3a7936	0.72841203
67	0x3f3a7933	0.72841185
68	0x3f3a78a5	0.7284034
69	0x3f3a76c3	0.72837466
70	0x3f3a78bd	0.7284048
71	0x3f3a78b4	0.7284043
72	0x3f3a7953	0.72841376
73	0x3f3a78cd	0.7284058
74	0x3f3a79e9	0.7284227
75	0x3f3a7bee	0.7284535
76	0x3f3a785e	0.72839916
77	0x3f3a7b34	0.72844243
78	0x3f3a78a2	0.7284032
79	0x3f3a7a3f	0.7284278
80	0x3f3a7816	0.72839487
81	0x3f3a7a15	0.7284253
82	0x3f3a7962	0.72841465
83	0x3f3a7886	0.72840154
84	0x3f3a782c	0.7283962
85	0x3f3a790f	0.7284097
86	0x3f3a7941	0.7284127
87	0x3f3a78b4	0.7284043
88	0x3f3a78c2	0.7284051
89	0x3f3a78cc	0.7284057
90	0x3f3a7906	0.7284092
91	0x3f3a7929	0.72841126
92	0x3f3a7971	0.72841555
93	0x3f3a7947	0.72841305
94	0x3f3a77cc	0.72839046
95	0x3f3a78ba	0.72840464
96	0x3f3a782a	0.72839606
97	0x3f3a78d1	0.728406
98	0x3f3a7697	0.72837204
99	0x3f3a7ae1	0.7284375
100	0x3f3a779a	0.7283875
101	0x3f3a797b	0.72841614
102	0x3f3a796a	0.72841513
103	0x3f3a786d	0.72840005
104	0x3f3a7a99	0.7284332
105	0x3f3a7c90	0.7284632
106	0x3f3a7abe	0.7284354
107	0x3f3a7ba0	0.72844887
108	0x3f3a7bae	0.7284497
109	0x3f3a7888	0.72840166
110	0x3f3a797f	0.7284164
111	0x3f3a798c	0.72841716
112	0x3f3a7909	0.72840935
113	0x3f3a7958	0.72841406
114	0x3f3a79e7	0.7284226
115	0x3f3a7a2b	0.72842664
116	0x3f3a79c4	0.7284205
117	0x3f3a7813	0.7283947
118	0x3f3a7948	0.7284131
119	0x3f3a79d8	0.7284217
120	0x3f3a78d3	0.72840613
121	0x3f3a79bf	0.7284202
122	0x3f3a7a0e	0.7284249
123	0x3f3a799e	0.72841823
124	0x3f3a76b6	0.7283739
125	0x3f3a7aaa	0.7284342
126	0x3f3a7a3f	0.7284278
127	0x3f3a7781	0.728386
128	0x3f3a7ac0	0.7284355
129	0x3f3a7a0d	0.72842485
130	0x3f3a7b03	0.7284395
131	0x3f3a791f	0.72841066
132	0x3f3a7c0c	0.7284553
133	0x3f3a7933	0.72841185
134	0x3f3a7882	0.7284013
135	0x3f3a79f5	0.7284234
136	0x3f3a7841	0.7283974
137	0x3f3a78ec	0.7284076
138	0x3f3a7c18	0.728456
139	0x3f3a7899	0.7284027
140	0x3f3a7678	0.7283702
141	0x3f3a7962	0.72841465
142	0x3f3a7878	0.7284007
143	0x3f3a7b98	0.7284484
144	0x3f3a7bf0	0.72845364
145	0x3f3a79bb	0.72841996
146	0x3f3a79d1	0.7284213
147	0x3f3a77ff	0.7283935
148	0x3f3a78c2	0.7284051
149	0x3f3a7c3a	0.72845805
150	0x3f3a796d	0.7284153
151	0x3f3a78df	0.72840685
152	0x3f3a7af0	0.7284384
153	0x3f3a781c	0.7283952
154	0x3f3a7b5f	0.728445
155	0x3f3a793b	0.72841233
156	0x3f3a794b	0.7284133
157	0x3f3a79d7	0.7284216
158	0x3f3a790b	0.72840947
159	0x3f3a79a3	0.7284185
160	0x3f3a7791	0.72838694
161	0x3f3a7a16	0.7284254
162	0x3f3a7b7c	0.7284467
163	0x3f3a7a0e	0.7284249
164	0x3f3a7557	0.72835296
165	0x3f3a7bbc	0.72845054
166	0x3f3a7af0	0.7284384
167	0x3f3a77bf	0.7283897
168	0x3f3a7a41	0.72842795
169	0x3f3a785b	0.728399
170	0x3f3a7874	0.72840047
171	0x3f3a7818	0.728395
172	0x3f3a781f	0.7283954
173	0x3f3a7897	0.72840255
174	0x3f3a79db	0.72842187
175	0x3f3a79e7	0.7284226
176	0x3f3a7847	0.7283978
177	0x3f3a7891	0.7284022
178	0x3f3a78fe	0.7284087
179	0x3f3a786c	0.7284
180	0x3f3a7980	0.72841644
181	0x3f3a75d7	0.7283606
182	0x3f3a7849	0.7283979
183	0x3f3a77b4	0.728389
184	0x3f3a7b27	0.72844166
185	0x3f3a78f7	0.7284083
186	0x3f3a77cc	0.72839046
187	0x3f3a7808	0.72839403
188	0x3f3a793a	0.7284123
189	0x3f3a7937	0.7284121
190	0x3f3a78e4	0.72840714
191	0x3f3a786b	0.72839993
192	0x3f3a78c4	0.72840524
193	0x3f3a7a00	0.7284241
194	0x3f3a7a2f	0.7284269
195	0x3f3a76ce	0.7283753
196	0x3f3a79d2	0.72842133
197	0x3f3a7912	0.7284099
198	0x3f3a78af	0.728404
199	0x3f3a79bc	0.72842
200	0x3f3a78c3	0.7284052
201	0x3f3a7948	0.7284131
202	0x3f3a7798	0.72838736
203	0x3f3a7914	0.72841
204	0x3f3a7754	0.7283833
205	0x3f3a79fd	0.7284239
206	0x3f3a7ac6	0.7284359
207	0x3f3a7a33	0.7284271
208	0x3f3a7726	0.72838056
209	0x3f3a78ec	0.7284076
210	0x3f3a7b39	0.7284427
211	0x3f3a786f	0.7284002
212	0x3f3a78e9	0.72840744
213	0x3f3a7853	0.7283985
214	0x3f3a79a0	0.72841835
215	0x3f3a7bc5	0.7284511
216	0x3f3a7dd3	0.7284824
217	0x3f3a7932	0.7284118
218	0x3f3a7b4c	0.72844386
219	0x3f3a7846	0.7283977
220	0x3f3a7d6b	0.7284762
221	0x3f3a78e1	0.72840697
222	0x3f3a7af4	0.7284386
223	0x3f3a78ed	0.7284077
224	0x3f3a79f1	0.7284232
225	0x3f3a76d9	0.728376
226	0x3f3a7d6f	0.72847646
227	0x3f3a78d3	0.72840613
228	0x3f3a78c7	0.7284054
229	0x3f3a79a9	0.7284189
230	0x3f3a7607	0.72836345
231	0x3f3a79ab	0.728419
232	0x3f3a79e6	0.7284225
233	0x3f3a7997	0.7284178
234	0x3f3a79ab	0.728419
235	0x3f3a7a26	0.72842634
236	0x3f3a7b14	0.7284405
237	0x3f3a796d	0.7284153
238	0x3f3a77ca	0.72839034
239	0x3f3a79e1	0.7284222
240	0x3f3a765e	0.72836864
241	0x3f3a7935	0.728412
242	0x3f3a7793	0.72838706
243	0x3f3a79c4	0.7284205
244	0x3f3a79c6	0.7284206
245	0x3f3a79de	0.72842205
246	0x3f3a799e	0.72841823
247	0x3f3a793d	0.72841245
248	0x3f3a75de	0.728361
249	0x3f3a79a7	0.72841877
250	0x3f3a7978	0.72841597
251	0x3f3a7923	0.7284109
252	0x3f3a75e4	0.72836137
253	0x3f3a7764	0.72838426
254	0x3f3a790f	0.7284097
255	0x3f3a7986	0.7284168

ln1.bias f4 [400]
0	0xb541533e	-7.2019236e-07
1	0xb5691cae	-8.6841e-07
2	0xb5a9739d	-1.2625129e-06
3	0xb5691222	-8.682565e-07
4	0xb566cc7a	-8.597923e-07
5	0xb5693207	-8.6872063e-07
6	0xb565f931	-8.567177e-07
7	0xb5664427	-8.578085e-07
8	0xb5691b7b	-8.6839253e-07
9	0xb560bea9	-8.372395e-07
10	0xb546aea5	-7.401489e-07
11	0x3620ed61	2.398003e-06
12	0xb4a3eb0a	-3.053213e-07
13	0xb56afba0	-8.7537956e-07
14	0xb3d8628d	-1.007621e-07
15	0xb5691f6e	-8.6845e-07
16	0xb56695ee	-8.5899853e-07
17	0x317a2856	3.6402716e-09
18	0xb5692004	-8.684585e-07
19	0xb56aaaa1	-8.742009e-07
20	0xb589ffeb	-1.0281777e-06
21	0xb56823d7	-8.647889e-07
22	0xb565e214	-8.5638135e-07
23	0x367bd2c5	3.7524599e-06
24	0xb569d0f7	-8.710335e-07
25	0xb5699955	-8.702239e-07
26	0xb5691991	-8.683647e-07
27	0xb5692237	-8.6849053e-07
28	0xb5684c35	-8.653763e-07
29	0xb56ca29d	-8.8153485e-07
30	0xb55b0d50	-8.160323e-07
31	0xb5486fa7	-7.466828e-07
32	0xb5693086	-8.6869875e-07
33	0xb5575c80	-8.0228347e-07
34	0xb565f453	-8.5664686e-07
35	0xb569162d	-8.6831534e-07
36	0xb56711b9	-8.6079996e-07
37	0xb565f174	-8.566051e-07
38	0xb568ae1e	-8.668011e-07
39	0xb5956904	-1.1131929e-06
40	0xb568847b	-8.661952e-07
41	0x369b8e29	4.6359096e-06
42	0xb565f33f	-8.566312e-07
43	0xb569214f	-8.6847734e-07
44	0x3555802a	7.9535187e-07
45	0xb56608fe	-8.569476e-07
46	0x36de062c	6.616834e-06
47	0xb569179e	-8.683363e-07
48	0xb567dc3d	-8.6374695e-07
49	0xb569252c	-8.6853356e-07
50	0xb5667fef	-8.5867845e-07
51	0xb5b23c0d	-1.327951e-06
52	0xb566f177	-8.6033054e-07
53	0xb56c27a7	-8.797455e-07
54	0x36dc501e	6.565838e-06
55	0xb56723cb	-8.610629e-07
56	0x3276c98e	1.4364913e-08
57	0xb5678408	-8.6246337e-07
58	0xb56ca04e	-8.8150125e-07
59	0xb56459a3	-8.506706e-07
60	0xb55a1bb2	-8.125163e-07
61	0xb566f729	-8.604134e-07
62	0xb55d0107	-8.233041e-07
63	0xb56c4070	-8.801062e-07
64	0xb5692004	-8.684585e-07
65	0xb55e3f7f	-8.2793844e-07
66	0xb5694e47	-8.691317e-07
67	0xb58e7a8a	-1.0615488e-06
68	0xb5662019	-8.5728385e-07
69	0xb565c1ab	-8.559097e-07
70	0xb565c929	-8.5601874e-07
71	0xb565ac67	-8.5560026e-07
72	0xb5692169	-8.684788e-07
73	0xb5694266	-8.6895886e-07
74	0x34e92e24	4.3433204e-07
75	0xb5698b11	-8.700163e-07
76	0xb5695eb6	-8.6937087e-07
77	0xb5692e23	-8.68664e-07
78	0xb5694d91	-8.691214e-07
79	0xb567c608	-8.634238e-07
80	0xb5658217	-8.5498453e-07
81	0xb56c315f	-8.7988695e-07
82	0xb5665882	-8.581047e-07
83	0xb56eb522	-8.892549e-07
84	0x37119841	8.678123e-06
85	0xb5a64f90	-1.239112e-06
86	0xb566eebf	-8.60291e-07
87	0xb5664d98	-8.579459e-07
88	0x378464ad	1.5782507e-05
89	0xb5693de2	-8.6889315e-07
90	0xb566681e	-8.583319e-07
91	0xb5692073	-8.6846484e-07
92	0xb5b50e8a	-1.3489782e-06
93	0xb5693acf	-8.688484e-07
94	0xb5aef7f6	-1.3036176e-06
95	0xb5699058	-8.700931e-07
96	0xb5697136	-8.696401e-07
97	0xb5660586	-8.5689715e-07
98	0xb5b25e09	-1.3289401e-06
99	0xb56db47e	-8.855203e-07
100	0x36814f48	3.853729e-06
101	0xb5691f89	-8.6845154e-07
102	0x378aa465	1.6527434e-05
103	0xb5691c97	-8.684087e-07
104	0xb567f21a	-8.640651e-07
105	0x370b6e14	8.310675e-06
106	0xb56922d9	-8.6849974e-07
107	0xb5685217	-8.654619e-07
108	0xb566fb44	-8.6047316e-07
109	0xb567b4de	-8.63174e-07
110	0xb565b8a4	-8.5577835e-07
111	0xb5665212	-8.5801105e-07
112	0xb55a04ff	-8.12186e-07
113	0xb568a335	-8.666423e-07
114	0xb5692086	-8.684659e-07
115	0xb569f5b5	-8.7156815e-07
116	0xb5ab4262	-1.2759813e-06
117	0xb5691858	-8.683469e-07
118	0xb565dfe5	-8.563496e-07
119	0xb5691ef5	-8.684431e-07
120	0xb566e828	-8.601951e-07
121	0xb5831656	-9.766761e-07
122	0xb5686233	-8.6569634e-07
123	0xb5671b90	-8.6094315e-07
124	0xb5488350	-7.469689e-07
125	0xb56921f3	-8.6848667e-07
126	0xb5695822	-8.6927514e-07
127	0xb56778d7	-8.623005e-07
128	0xb56c6e49	-8.8077337e-07
129	0xb56923d6	-8.685141e-07
130	0x3798aad0	1.8199353e-05
131	0xb55c9879	-8.2178263e-07
132	0xb56964ae	-8.694577e-07
133	0xb565dbe8	-8.5629154e-07
134	0x35f4ab2f	1.8229238e-06
135	0xb587f37e	-1.0129149e-06
136	0xb5b3f26e	-1.3407096e-06
137	0x360eeb9d	2.1296794e-06
138	0xb5657f3f	-8.5494315e-07
139	0x3627a054	2.4978262e-06
140	0xb5691a41	-8.683747e-07
141	0xb5697fd2	-8.6985267e-07
142	0xb5692005	-8.684586e-07
143	0xb5c0de2e	-1.4369778e-06
144	0xb56c427f	-8.8013616e-07
145	0xb567e41f	-8.6386166e-07
146	0xb5663f9e	-8.577425e-07
147	0xb5691e1e	-8.684309e-07
148	0x37ab03d4	2.0386571e-05
149	0x36e7e1b3	6.9106113e-06
150	0xb5691307	-8.682695e-07
151	0xb56924ad	-8.6852634e-07
152	0xb5692236	-8.684905e-07
153	0xb565cbaf	-8.5605546e-07
154	0xb569674f	-8.69496e-07
155	0xb569157d	-8.6830534e-07
156	0xb553bfb2	-7.888258e-07
157	0xb5672cb9	-8.6119286e-07
158	0xb5544591	-7.9077387e-07
159	0xb596e702	-1.1243103e-06
160	0xb5680c92	-8.6445027e-07
161	0xb566a689	-8.592402e-07
162	0xb565fb25	-8.567461e-07
163	0xb5680651	-8.6435927e-07
164	0xb570116c	-8.943232e-07
165	0xb5880192	-1.0133247e-06
166	0xb56c45a2	-8.801818e-07
167	0xb5691f08	-8.684442e-07
168	0xb5692295	-8.684959e-07
169	0xb56711fb	-8.608037e-07
170	0xb565e895	-8.56476e-07
171	0xb5691bd6	-8.683977e-07
172	0xb569953a	-8.701642e-07
173	0xb5699e9e	-8.703008e-07
174	0xb56b17f8	-8.75792e-07
175	0xb563f03d	-8.491368e-07
176	0xb56978b2	-8.69749e-07
177	0xb5692983	-8.685967e-07
178	0xb56636b0	-8.576126e-07
179	0xb5661c48	-8.572283e-07
180	0xb565bb3c	-8.558161e-07
181	0x371e9b54	9.453699e-06
182	0xb565d17b	-8.561398e-07
183	0xb5696600	-8.6947693e-07
184	0xb56c4648	-8.8019124e-07
185	0x364fd6a4	3.097034e-06
186	0xb565cdbd	-8.5608536e-07
187	0xb5691cb0	-8.684101e-07
188	0xb5bc57ea	-1.4032678e-06
189	0xb5653458	-8.538532e-07
190	0xb588dca9	-1.019701e-06
191	0xb566b243	-8.594108e-07
192	0xb56747b0	-8.6158525e-07
193	0xb55b788a	-8.1759265e-07
194	0xb5585f0f	-8.06046e-07
195	0xb568fd97	-8.6795757e-07
196	0xb5691dc8	-8.68426e-07
197	0x3524a851	6.1339694e-07
198	0xb565e337	-8.563979e-07
199	0xb543f28e	-7.2996124e-07
200	0xb583d4b9	-9.822171e-07
201	0x36c59313	5.888179e-06
202	0xb5657e15	-8.549262e-07
203	0xb5693dae	-8.688902e-07
204	0xb5691d4b	-8.684189e-07
205	0xb566f05e	-8.603146e-07
206	0x34eb06ec	4.3777197e-07
207	0xb5694a4e	-8.690739e-07
208	0xb5433e11	-7.273348e-07
209	0xb56679b7	-8.5858795e-07
210	0xb56942df	-8.6896574e-07
211	0xb56c7714	-8.809013e-07
212	0xb5667357	-8.584952e-07
213	0xb5691eba	-8.6843977e-07
214	0xb5697d24	-8.698137e-07
215	0xb565b466	-8.557166e-07
216	0xb5a59da2	-1.2339335e-06
217	0xb5ac0d1a	-1.2818812e-06
218	0x376d439f	1.4142045e-05
219	0xb568e625	-8.676164e-07
220	0x36ab11fe	5.0982917e-06
221	0x37791a64	1.4847701e-05
222	0xb5632a4d	-8.4625646e-07
223	0xb566a073	-8.591516e-07
224	0xb56ad4f6	-8.748169e-07
225	0xb5999d85	-1.1445233e-06
226	0x36bb9ed5	5.5915248e-06
227	0x37acd920	2.0605105e-05
228	0xb569cf44	-8.7100875e-07
229	0xb5664906	-8.578794e-07
230	0xb57aa601	-9.3373825e-07
231	0xb5667556	-8.5852423e-07
232	0xb5664143	-8.5776645e-07
233	0xb5658ece	-8.5516956e-07
234	0xb56611d6	-8.570763e-07
235	0xb56c2a2a	-8.797821e-07
236	0xb56944d1	-8.6899405e-07
237	0xb5abcf9c	-1.2800915e-06
238	0xb59fb4b4	-1.1899015e-06
239	0xb569201b	-8.6845984e-07
240	0xb5921eee	-1.0886849e-06
241	0xb569204c	-8.684626e-07
242	0x36c5f1e8	5.899219e-06
243	0xb4945d90	-2.7635224e-07
244	0xb54293d1	-7.2485733e-07
245	0xb49de237	-2.9408122e-07
246	0xb5b0c4a6	-1.3170254e-06
247	0xb568b2b7	-8.66868e-07
248	0xb5976d36	-1.1282161e-06
249	0xb593feb4	-1.1026482e-06
250	0x37792cb9	1.4851969e-05
251	0xb5691f7b	-8.6845074e-07
252	0xb58ed3f2	-1.0641509e-06
253	0xb5691d4d	-8.68419e-07
254	0xb565a996	-8.555593e-07
255	0xb568ea70	-8.6767886e-07

layer_2.weight f4 [300, 400]
0	0xb60296ba	-1.9459244e-06
1	0xb602e4a8	-1.9504605e-06
2	0xb5f1fbbf	-1.8029167e-06
3	0xb602e4d7	-1.9504712e-06
4	0xb602d5aa	-1.9495878e-06
5	0xb602e556	-1.9505e-06
6	0xb602d26f	-1.9493998e-06
7	0xb602cef5	-1.9491974e-06
8	0xb602e2d1	-1.9503534e-06
9	0xb5e7a40c	-1.7258585e-06
10	0xb60318f2	-1.9535041e-06
11	0xb57ee1e7	-9.4951105e-07
12	0xb5d6e7eb	-1.601174e-06
13	0xb602e4ef	-1.9504766e-06
14	0xb5d130f0	-1.5585956e-06
15	0xb602e502	-1.950481e-06
16	0xb602defa	-1.95013e-06
17	0x349dc951	2.9390006e-07
18	0xb602e4fb	-1.9504794e-06
19	0xb602e305	-1.9503652e-06
20	0xb6029991	-1.9460897e-06
21	0xb602e475	-1.950449e-06
22	0xb602c487	-1.9485904e-06
23	0xb5018932	-4.825589e-07
24	0xb602e2ad	-1.9503452e-06
25	0xb602e5f0	-1.950535e-06
26	0xb602e320	-1.9503714e-06
27	0xb602e501	-1.9504807e-06
28	0xb602e34f	-1.950382e-06
29	0xb602dd2e	-1.9500253e-06
30	0xb6011392	-1.923389e-06
31	0xb602b853	-1.94788e-06
32	0xb602e444	-1.9504378e-06
33	0xb60220a8	-1.9390518e-06
34	0xb602cbe7	-1.9490196e-06
35	0xb602e41a	-1.9504282e-06
36	0xb602c85e	-1.9488139e-06
37	0xb602cad7	-1.9489578e-06
38	0xb602e3be	-1.9504073e-06
39	0xb600811f	-1.9148645e-06
40	0xb602e34f	-1.950382e-06
41	0xb44bfa69	-1.8996947e-07
42	0xb602c7a3	-1.9487713e-06
43	0xb602e5ec	-1.9505342e-06
44	0xb5b44891	-1.3432165e-06
45	0xb602cb9b	-1.9490024e-06
46	0x350df8a4	5.2888413e-07
47	0xb602e3d6	-1.9504128e-06
48	0xb602e068	-1.9502131e-06
49	0xb602e53d	-1.9504944e-06
50	0xb602ce9e	-1.9491777e-06
51	0xb6039de3	-1.9612423e-06
52	0xb602d2e4	-1.9494264e-06
53	0xb602ae87	-1.9473098e-06
54	0x376d738e	1.41532055e-05
55	0xb602dfc0	-1.950175e-06
56	0xb5cde1a3	-1.5339359e-06
57	0xb602e4e4	-1.9504741e-06
58	0xb602e2fd	-1.9503634e-06
59	0xb602e67a	-1.9505665e-06
60	0xb6011d54	-1.923957e-06
61	0xb602d4ba	-1.9495333e-06
62	0xb6036d83	-1.9584265e-06
63	0xb602c11f	-1.948392e-06
64	0xb602e752	-1.9506156e-06
65	0xb6012562	-1.9244258e-06
66	0xb602e2fd	-1.9503634e-06
67	0xb6027e77	-1.9445122e-06
68	0xb602d030	-1.949269e-06
69	0xb602d0cd	-1.9493048e-06
70	0xb602d03b	-1.9492716e-06
71	0xb602cbc0	-1.9490108e-06
72	0xb602e569	-1.9505044e-06
73	0xb602e48d	-1.9504544e-06
74	0x35cc8a24	1.5239389e-06
75	0xb602e758	-1.950617e-06
76	0xb602e380	-1.9503932e-06
77	0xb602e6d0	-1.950586e-06
78	0xb602e4cc	-1.9504687e-06
79	0xb602b605	-1.947746e-06
80	0xb602c98b	-1.9488823e-06
81	0xb602e35c	-1.950385e-06
82	0xb602ca2f	-1.9489196e-06
83	0xb602e1a5	-1.9502852e-06
84	0x359c5932	1.1648865e-06
85	0xb603325c	-1.9549834e-06
86	0xb602d56d	-1.949574e-06
87	0xb602ca44	-1.9489244e-06
88	0x37f8f47f	2.9677756e-05
89	0xb602e3d1	-1.9504116e-06
90	0xb602ccfc	-1.9490826e-06
91	0xb602e548	-1.9504969e-06
92	0xb603aef0	-1.9622348e-06
93	0xb602e3b4	-1.950405e-06
94	0xb6038a32	-1.9600961e-06
95	0xb602e372	-1.95039e-06
96	0xb602e468	-1.950446e-06
97	0xb602cc9f	-1.9490615e-06
98	0xb5ff315a	-1.9013344e-06
99	0xb602e3ab	-1.950403e-06
100	0xb4f1e896	-4.5058977e-07
101	0xb602e599	-1.9505153e-06
102	0x3804b840	3.164285e-05
103	0xb602e4f4	-1.9504778e-06
104	0xb602e5ab	-1.9505194e-06
105	0x358ca933	1.0480056e-06
106	0xb602e673	-1.9505649e-06
107	0xb602e5af	-1.9505203e-06
108	0xb602e792	-1.9506301e-06
109	0xb602e494	-1.950456e-06
110	0xb602c758	-1.9487543e-06
111	0xb602cc14	-1.9490299e-06
112	0xb601d9bc	-1.9349236e-06
113	0xb602c6da	-1.9487256e-06
114	0xb602e607	-1.9505403e-06
115	0xb602e4ef	-1.9504766e-06
116	0xb601d168	-1.9344388e-06
117	0xb602e478	-1.9504496e-06
118	0xb602c9ba	-1.948893e-06
119	0xb602e5ec	-1.9505342e-06
120	0xb602d8aa	-1.9497625e-06
121	0xb6029d70	-1.946315e-06
122	0xb602e51e	-1.9504873e-06
123	0xb602d49b	-1.9495262e-06
124	0xb58325d1	-9.771267e-07
125	0xb602e5ad	-1.9505198e-06
126	0xb602e56d	-1.9505053e-06
127	0xb601c2a5	-1.9335796e-06
128	0xb60288cb	-1.9451134e-06
129	0xb602e5f5	-1.9505362e-06
130	0x381764a2	3.6094927e-05
131	0xb601ca90	-1.9340405e-06
132	0xb602e650	-1.950557e-06
133	0xb602c9e9	-1.9489037e-06
134	0xb58f1397	-1.0660032e-06
135	0xb6015509	-1.9271995e-06
136	0xb5f2a937	-1.8079653e-06
137	0x36cddde0	6.1353057e-06
138	0xb602e719	-1.9506026e-06
139	0x36ee39a1	7.0996616e-06
140	0xb602e2bf	-1.9503493e-06
141	0xb602e384	-1.950394e-06
142	0xb602e4c3	-1.9504666e-06
143	0xb60023a4	-1.9094232e-06
144	0xb602e40e	-1.9504255e-06
145	0xb602e2cb	-1.950352e-06
146	0xb602ca50	-1.948927e-06
147	0xb602e467	-1.9504457e-06
148	0x382e7596	4.1594343e-05
149	0x35142198	5.518318e-07
150	0xb602e433	-1.950434e-06
151	0xb602e50b	-1.950483e-06
152	0xb602e69b	-1.950574e-06
153	0xb602d1bc	-1.949359e-06
154	0xb602e3ab	-1.950403e-06
155	0xb602e438	-1.950435e-06
156	0xb602741b	-1.9439092e-06
157	0xb602dd36	-1.9500271e-06
158	0xb60234a1	-1.9402144e-06
159	0xb60254fc	-1.9420977e-06
160	0xb602adbb	-1.9472634e-06
161	0xb602d056	-1.9492777e-06
162	0xb6018f67	-1.930597e-06
163	0xb601cb14	-1.9340705e-06
164	0xb6028146	-1.9446757e-06
165	0xb60200b3	-1.9371917e-06
166	0xb6029a60	-1.9461368e-06
167	0xb602e439	-1.9504353e-06
168	0xb602e619	-1.9505444e-06
169	0xb602e0dc	-1.9502395e-06
170	0xb602c8a4	-1.9488298e-06
171	0xb602e47a	-1.95045e-06
172	0xb602e3df	-1.9504148e-06
173	0xb602e3b3	-1.9504048e-06
174	0xb602e27c	-1.950334e-06
175	0xb6017da9	-1.9295642e-06
176	0xb602e49a	-1.9504573e-06
177	0xb602e5fc	-1.9505378e-06
178	0xb602ceb0	-1.9491818e-06
179	0xb602cda1	-1.9491201e-06
180	0xb602c866	-1.9488157e-06
181	0x3743ddca	1.1674545e-05
182	0xb602ca48	-1.9489253e-06
183	0xb602e429	-1.9504316e-06
184	0xb602b4b7	-1.94767e-06
185	0x3712c6ea	8.748591e-06
186	0xb602cc71	-1.949051e-06
187	0xb602e47b	-1.9504503e-06
188	0xb5f7d3f4	-1.846462e-06
189	0xb601a09c	-1.9315985e-06
190	0xb6029a49	-1.9461315e-06
191	0xb602e3ac	-1.9504032e-06
192	0xb602e542	-1.9504955e-06
193	0xb603b0a4	-1.962334e-06
194	0xb6023624	-1.9403024e-06
195	0xb602e1ea	-1.9503009e-06
196	0xb602e637	-1.9505512e-06
197	0x36035f56	1.9576014e-06
198	0xb602cc42	-1.9490403e-06
199	0xb60326da	-1.9543136e-06
200	0xb602996c	-1.9460813e-06
201	0x37525084	1.2535722e-05
202	0xb602c800	-1.9487925e-06
203	0xb602e3f9	-1.9504207e-06
204	0xb602e476	-1.9504491e-06
205	0xb602be8c	-1.9482422e-06
206	0x35cd9e11	1.5319694e-06
207	0xb602e343	-1.9503793e-06
208	0xb602525b	-1.9419447e-06
209	0xb602e060	-1.9502113e-06
210	0xb602e562	-1.9505028e-06
211	0xb602d604	-1.9496083e-06
212	0xb602d385	-1.949463e-06
213	0xb602e4a6	-1.95046e-06
214	0xb602e3e7	-1.9504166e-06
215	0xb602cab8	-1.9489507e-06
216	0xb5faadf7	-1.8677082e-06
217	0xb60183c8	-1.9299205e-06
218	0x37d6fecc	2.5629437e-05
219	0xb602e4ea	-1.9504755e-06
220	0x33b0e3eb	8.237097e-08
221	0x37e4b9b3	2.7266191e-05
222	0xb58d2dca	-1.0518645e-06
223	0xb602d945	-1.9497977e-06
224	0xb602e3be	-1.9504073e-06
225	0xb5efaac8	-1.7856592e-06
226	0x349d352c	2.9282216e-07
227	0x38309746	4.2102554e-05
228	0xb602e4fd	-1.9504798e-06
229	0xb602cbcd	-1.9490137e-06
230	0xb6028da3	-1.9453953e-06
231	0xb602cd68	-1.9491072e-06
232	0xb602cb34	-1.948979e-06
233	0xb602c7ec	-1.948788e-06
234	0xb602caf9	-1.9489655e-06
235	0xb602d82f	-1.9497345e-06
236	0xb602e46c	-1.9504469e-06
237	0xb601c9e4	-1.9340014e-06
238	0xb5fda578	-1.8898127e-06
239	0xb602e5cf	-1.9505276e-06
240	0xb5f71139	-1.8407947e-06
241	0xb602e54e	-1.9504982e-06
242	0x375275a8	1.2544369e-05
243	0xb5d78707	-1.6058046e-06
244	0xb602a01b	-1.9464703e-06
245	0xb5d70223	-1.601937e-06
246	0xb603a277	-1.9615088e-06
247	0xb602d3f2	-1.9494878e-06
248	0xb5ef9cbd	-1.7852504e-06
249	0xb600abae	-1.9173417e-06
250	0x37e55328	2.733765e-05
251	0xb602e552	-1.9504992e-06
252	0xb6024932	-1.9414115e-06
253	0xb602e3a8	-1.9504023e-06
254	0xb602cad7	-1.9489578e-06
255	0xb602e589	-1.9505117e-06

layer_2.bias f4 [300]
0	0x371a629e	9.202076e-06
1	0x3746cea2	1.184983e-05
2	0x360ca9cc	2.096046e-06
3	0x3971411a	0.00023007803
4	0x049b1ffc	3.6469698e-36
5	0x3758ffe6	1.2934184e-05
6	0x3a259873	0.0006316967
7	0x366d5bb9	3.5369142e-06
8	0x3749b82f	1.2023417e-05
9	0x8000001a	-3.6e-44
10	0x374d7d89	1.2248181e-05
11	0x373e44d0	1.1340904e-05
12	0x36266e92	2.4800288e-06
13	0xb72dc9a1	-1.0358549e-05
14	0x375a5a67	1.3014861e-05
15	0xb35899ba	-5.0431233e-08
16	0x374373ed	1.1649897e-05
17	0x39d0e57a	0.00039843825
18	0x375d162d	1.317779e-05
19	0x37086a30	8.130955e-06
20	0x373e1cdf	1.1331605e-05
21	0x3a1aefc8	0.0005910364
22	0x374713c7	1.1865929e-05
23	0x37363c4f	1.0862087e-05
24	0x3754ed36	1.2691415e-05
25	0x373a70d5	1.1112735e-05
26	0x374525eb	1.17509435e-05
27	0x374fe34b	1.2391082e-05
28	0x374aa0f8	1.2077617e-05
29	0x36bd38bb	5.639243e-06
30	0x80000003	-4e-45
31	0x80000000	-0.0
32	0x80000005	-7e-45
33	0x374cb7e3	1.2202162e-05
34	0x364aa8a3	3.0198505e-06
35	0x3733f214	1.0725595e-05
36	0x80000002	-3e-45
37	0x3741b4ac	1.1545762e-05
38	0xb0f1915e	-1.7576374e-09
39	0x8000016f	-5.14e-43
40	0x36b3075d	5.335473e-06
41	0x0c11951d	1.1215266e-31
42	0x3750608e	1.2420247e-05
43	0x37043fbe	7.882654e-06
44	0x37497d1a	1.2009661e-05
45	0x80000002	-3e-45
46	0x00000001	1e-45
47	0x365ea1d9	3.3174786e-06
48	0x80000003	-4e-45
49	0x375a959f	1.3028649e-05
50	0x37469035	1.18352955e-05
51	0x37406d2f	1.1469513e-05
52	0x373be507	1.1199393e-05
53	0x372894c8	1.0048221e-05
54	0x3a24125c	0.0006258839
55	0x36afeb93	5.242831e-06
56	0x3752b7fe	1.2559814e-05
57	0x39ea60ea	0.00044704165
58	0x00000001	1e-45
59	0x37451b1b	1.1748426e-05
60	0xb10d27f9	-2.0540922e-09
61	0x39ce0165	0.0003929242
62	0x3a215911	0.00061549345
63	0x3a1222d3	0.0005574647
64	0x374af123	1.2096282e-05
65	0x000076d0	4.2622e-41
66	0x3734ad59	1.0769197e-05
67	0x365e7e21	3.3153995e-06
68	0x37417454	1.1530781e-05
69	0x80000006	-8e-45
70	0x374429e9	1.1692268e-05
71	0x36e5d018	6.848957e-06
72	0x373f0df7	1.1387739e-05
73	0x80a119f9	-1.4794832e-38
74	0x39f7af9e	0.00047242356
75	0x372fceff	1.0479008e-05
76	0xa4334608	-3.8873757e-17
77	0xa5ca110c	-3.5052966e-16
78	0x373236df	1.0622402e-05
79	0x374853d0	1.1940443e-05
80	0x374ea708	1.2317447e-05
81	0x39c7649c	0.00038031198
82	0x373b7104	1.1172382e-05
83	0x39e7fa5c	0.00044246286
84	0x3743c0af	1.1667768e-05
85	0x3706fe5a	8.046243e-06
86	0x374430e5	1.16938945e-05
87	0x371460e7	8.844049e-06
88	0x37242f44	9.786167e-06
89	0x3748bcda	1.1964899e-05
90	0x374e3437	1.2290714e-05
91	0x363a016c	2.7716987e-06
92	0x3745ab1d	1.1781955e-05
93	0x373ee999	1.1379271e-05
94	0x375a5ce1	1.3015438e-05
95	0x39eccd7c	0.00045166526
96	0x3a24f07c	0.00062919385
97	0x36c44a86	5.849931e-06
98	0x00000006	8e-45
99	0x00000002	3e-45
100	0x374e730f	1.2305346e-05
101	0x80000164	-4.99e-43
102	0x398209b0	0.0002480275
103	0x39b29be3	0.0003406695
104	0x364ee3d6	3.082901e-06
105	0x399dcc87	0.00030097758
106	0x37403f46	1.1458824e-05
107	0x394d0bf9	0.00019554784
108	0x8001981d	-1.46403e-40
109	0x374a2b77	1.2050258e-05
110	0x37545c8c	1.2657732e-05
111	0x3741b286	1.1545262e-05
112	0x801e068b	-2.757412e-39
113	0x374c2264	1.2167355e-05
114	0x3747f7e5	1.1919042e-05
115	0x37443ff4	1.1697401e-05
116	0x80000005	-7e-45
117	0x374a17c7	1.2045674e-05
118	0x3739d21c	1.1075779e-05
119	0x3a1334a2	0.0005615448
120	0x35fb815d	1.8738607e-06
121	0x3654e18b	3.1721745e-06
122	0x374089b8	1.1476157e-05
123	0x80000002	-3e-45
124	0x370e35d8	8.476396e-06
125	0x375af3e4	1.3050598e-05
126	0x36d9dfcf	6.4931587e-06
127	0x374ae050	1.2092365e-05
128	0x374bdb83	1.2150852e-05
129	0x90b0627c	-6.95715e-29
130	0x3a31db8d	0.000678473
131	0x80000007	-1e-44
132	0x898118de	-3.1079005e-33
133	0x06c38ee3	7.35608e-35
134	0x00000006	8e-45
135	0x374fd4b3	1.2387684e-05
136	0x3759ba6f	1.2977615e-05
137	0x3743f0d9	1.1678982e-05
138	0x3838bd57	4.4045355e-05
139	0x373a5b3c	1.1107706e-05
140	0x3737969c	1.09427165e-05
141	0x373ccedd	1.1253837e-05
142	0x374e459a	1.2294762e-05
143	0x80000212	-7.43e-43
144	0x00000006	8e-45
145	0x373a2b1d	1.1096502e-05
146	0x375a3f5d	1.30085655e-05
147	0x374c70ae	1.2185583e-05
148	0x80000005	-7e-45
149	0x3680d504	3.8394955e-06
150	0x3a0cbf8a	0.0005369118
151	0x37425328	1.1582662e-05
152	0x35efdd56	1.7871305e-06
153	0x000134be	1.10756e-40
154	0xaf987bb4	-2.7736535e-10
155	0x8028b65a	-3.738835e-39
156	0x811d3340	-2.8873116e-38
157	0x3745e685	1.1795787e-05
158	0x374fd1e3	1.23870295e-05
159	0x373629f9	1.0857818e-05
160	0x3744c78d	1.1728972e-05
161	0x3746adbb	1.1842169e-05
162	0x374c0b41	1.2161968e-05
163	0x375af43d	1.3050679e-05
164	0x374b13ff	1.2104399e-05
165	0x370fd9d8	8.574185e-06
166	0x373585ff	1.0819639e-05
167	0x3742bc6f	1.1607174e-05
168	0x00000001	1e-45
169	0x800229bf	-1.98647e-40
170	0x374d3ca0	1.22330675e-05
171	0x0317fe1b	4.466661e-37
172	0x391ac8f6	0.00014761448
173	0x8168803b	-4.270367e-38
174	0x80000006	-8e-45
175	0x37380f21	1.0970777e-05
176	0x3741d51f	1.1553318e-05
177	0x36368462	2.719717e-06
178	0x36e08c62	6.692063e-06
179	0x37363dd5	1.0862442e-05
180	0x374579ae	1.1770446e-05
181	0xa97d59ec	-5.625528e-14
182	0x00000008	1.1e-44
183	0x3758f407	1.293142e-05
184	0x3a20c369	0.0006132634
185	0x3963465e	0.00021674621
186	0x3758bb57	1.2918222e-05
187	0x8a8fae6c	-1.383601e-32
188	0x374fd9cd	1.2388872e-05
189	0x3730e5b4	1.0543899e-05
190	0x030a6868	4.0674408e-37
191	0x3745a63f	1.1780822e-05
192	0x00000006	8e-45
193	0xacfeb4c4	-7.239183e-12
194	0x364eb644	3.0802485e-06
195	0x375accd4	1.3041503e-05
196	0x374f2eff	1.2349104e-05
197	0x3731b5a1	1.0592311e-05
198	0x37109900	8.618692e-06
199	0x3630ee6b	2.6364821e-06
200	0x374315f2	1.1628015e-05
201	0x37246468	9.798539e-06
202	0x3742dd9f	1.1614901e-05
203	0x37561cd2	1.2762104e-05
204	0x80000003	-4e-45
205	0x3744cfbe	1.1730879e-05
206	0x00000004	6e-45
207	0x36bde3e3	5.6591684e-06
208	0x80000005	-7e-45
209	0x3a081498	0.0005191057
210	0x00000005	7e-45
211	0x80000006	-8e-45
212	0x3747a5f1	1.1899961e-05
213	0x37512106	1.246506e-05
214	0x8003dbf9	-3.54418e-40
215	0x35c82eb8	1.4914758e-06
216	0x372dfcce	1.0370464e-05
217	0xb4742574	-2.2737896e-07
218	0x37431308	1.1627337e-05
219	0x3a02d9d6	0.00049915665
220	0x373fb314	1.1426182e-05
221	0x36e06c73	6.6883454e-06
222	0x3749b9df	1.202381e-05
223	0x364e1a10	3.0711562e-06
224	0x3748c031	1.1965677e-05
225	0x372f136f	1.0435338e-05
226	0x374dff97	1.2278461e-05
227	0x36481946	2.9817033e-06
228	0x374a365a	1.2052793e-05
229	0x3749b00e	1.20215245e-05
230	0x3737fe29	1.0966826e-05
231	0x373b6d17	1.1171468e-05
232	0x365fb31a	3.333384e-06
233	0x37493b9a	1.1994411e-05
234	0x375ad62c	1.3043678e-05
235	0x958756e0	-5.466313e-26
236	0x00000000	0.0
237	0x3745f3aa	1.17988475e-05
238	0x372f7f43	1.0460443e-05
239	0x3609e30b	2.0546747e-06
240	0x37462599	1.1810474e-05
241	0x00000fb4	5.633e-42
242	0x374d85f4	1.2250141e-05
243	0x368b1fa1	4.146205e-06
244	0x00000001	1e-45
245	0x37371fbc	1.0915039e-05
246	0x372f3c24	1.0444815e-05
247	0x3759a100	1.2971694e-05
248	0x974001da	-6.2040883e-25
249	0x373e78da	1.135302e-05
250	0x374bc11b	1.2144704e-05
251	0x3a1d4c86	0.00060004776
252	0x80bad12b	-1.7156438e-38
253	0x375217c7	1.25225115e-05
254	0x37412a0e	1.1513488e-05
255	0x372aae18	1.0173324e-05

ln2.weight f4 [300]
0	0x3f3a7998	0.7284179
1	0x3f3a791d	0.72841054
2	0x3f3a7c63	0.7284605
3	0x3f3a79ea	0.72842276
4	0x3f3a7a1f	0.7284259
5	0x3f3a789d	0.7284029
6	0x3f3a87a9	0.7286325
7	0x3f3a7b32	0.7284423
8	0x3f3a7a87	0.7284321
9	0x3f3a7b3f	0.7284431
10	0x3f3a7aa7	0.728434
11	0x3f3a7bce	0.7284516
12	0x3f3a79ab	0.728419
13	0x3f3a7b96	0.7284483
14	0x3f3a7b76	0.72844636
15	0x3f3a7b8d	0.72844774
16	0x3f3a7baf	0.72844976
17	0x3f3a82d0	0.72855854
18	0x3f3a77de	0.7283915
19	0x3f3a792b	0.7284114
20	0x3f3a793b	0.72841233
21	0x3f3a896c	0.7286594
22	0x3f3a7c5a	0.72845995
23	0x3f3a7bcf	0.72845167
24	0x3f3a7b85	0.72844726
25	0x3f3a7759	0.7283836
26	0x3f3a7768	0.7283845
27	0x3f3a7a1e	0.72842586
28	0x3f3a767c	0.7283704
29	0x3f3a78aa	0.7284037
30	0x3f3a7aaa	0.7284342
31	0x3f3a78a2	0.7284032
32	0x3f3a7bf5	0.72845393
33	0x3f3a78b5	0.72840434
34	0x3f3a7804	0.7283938
35	0x3f3a7bdf	0.7284526
36	0x3f3a7a33	0.7284271
37	0x3f3a77b9	0.7283893
38	0x3f3a7a23	0.72842616
39	0x3f3a7dfc	0.72848487
40	0x3f3a7c87	0.72846264
41	0x3f3a785d	0.7283991
42	0x3f3a78d6	0.7284063
43	0x3f3a7bda	0.7284523
44	0x3f3a79b5	0.7284196
45	0x3f3a78fd	0.72840863
46	0x3f3a7843	0.72839755
47	0x3f3a78b2	0.72840416
48	0x3f3a793e	0.7284125
49	0x3f3a7b24	0.7284415
50	0x3f3a7a09	0.7284246
51	0x3f3a7b0b	0.72844
52	0x3f3a7b71	0.72844607
53	0x3f3a7971	0.72841555
54	0x3f3a85ad	0.72860223
55	0x3f3a7926	0.7284111
56	0x3f3a7479	0.72833973
57	0x3f3a8563	0.7285978
58	0x3f3a7abc	0.7284353
59	0x3f3a75ad	0.7283581
60	0x3f3a7a27	0.7284264
61	0x3f3a841c	0.7285783
62	0x3f3a8a3c	0.7286718
63	0x3f3a84fc	0.7285917
64	0x3f3a78a5	0.7284034
65	0x3f3a7be6	0.72845304
66	0x3f3a7c14	0.7284558
67	0x3f3a7886	0.72840154
68	0x3f3a7bbe	0.72845066
69	0x3f3a77f0	0.7283926
70	0x3f3a7a07	0.7284245
71	0x3f3a7963	0.7284147
72	0x3f3a7a9d	0.72843343
73	0x3f3a79f7	0.72842354
74	0x3f3a834a	0.7285658
75	0x3f3a7a19	0.72842556
76	0x3f3a7895	0.72840244
77	0x3f3a7c77	0.7284617
78	0x3f3a796e	0.72841537
79	0x3f3a79a8	0.7284188
80	0x3f3a78aa	0.7284037
81	0x3f3a7d5d	0.7284754
82	0x3f3a784f	0.72839826
83	0x3f3a82f4	0.7285607
84	0x3f3a78c5	0.7284053
85	0x3f3a7867	0.7283997
86	0x3f3a795d	0.72841436
87	0x3f3a7999	0.72841793
88	0x3f3a7960	0.72841454
89	0x3f3a7962	0.72841465
90	0x3f3a7983	0.7284166
91	0x3f3a7ae7	0.72843784
92	0x3f3a7a2c	0.7284267
93	0x3f3a7a3c	0.72842765
94	0x3f3a7956	0.72841394
95	0x3f3a821a	0.7285477
96	0x3f3a867d	0.7286146
97	0x3f3a7a54	0.7284291
98	0x3f3a7cb4	0.7284653
99	0x3f3a7b20	0.72844124
100	0x3f3a7bdf	0.7284526
101	0x3f3a78a2	0.7284032
102	0x3f3a7aef	0.7284383
103	0x3f3a7d2d	0.72847253
104	0x3f3a79ab	0.728419
105	0x3f3a80d4	0.72852826
106	0x3f3a77bc	0.7283895
107	0x3f3a7ab1	0.7284346
108	0x3f3a77c1	0.7283898
109	0x3f3a7b15	0.7284406
110	0x3f3a7ba9	0.7284494
111	0x3f3a7945	0.7284129
112	0x3f3a77e9	0.7283922
113	0x3f3a78c3	0.7284052
114	0x3f3a796d	0.7284153
115	0x3f3a7884	0.7284014
116	0x3f3a8048	0.7285199
117	0x3f3a77e4	0.7283919
118	0x3f3a78fc	0.7284086
119	0x3f3a8528	0.7285943
120	0x3f3a7777	0.7283854
121	0x3f3a79b4	0.72841954
122	0x3f3a7986	0.7284168
123	0x3f3a7900	0.7284088
124	0x3f3a78f6	0.7284082
125	0x3f3a7a8a	0.7284323
126	0x3f3a78d6	0.7284063
127	0x3f3a7b05	0.7284396
128	0x3f3a78ae	0.7284039
129	0x3f3a7bce	0.7284516
130	0x3f3a8980	0.7286606
131	0x3f3a7bff	0.72845453
132	0x3f3a78a6	0.72840345
133	0x3f3a7b62	0.7284452
134	0x3f3a7847	0.7283978
135	0x3f3a7806	0.7283939
136	0x3f3a7ba2	0.728449
137	0x3f3a77fd	0.7283934
138	0x3f3a79a1	0.7284184
139	0x3f3a7801	0.7283936
140	0x3f3a7985	0.72841674
141	0x3f3a7960	0.72841454
142	0x3f3a7a33	0.7284271
143	0x3f3a76ad	0.72837335
144	0x3f3a7921	0.7284108
145	0x3f3a7b69	0.7284456
146	0x3f3a792b	0.7284114
147	0x3f3a7957	0.728414
148	0x3f3a7a29	0.7284265
149	0x3f3a7b22	0.72844136
150	0x3f3a847e	0.7285842
151	0x3f3a798d	0.7284172
152	0x3f3a7a4e	0.7284287
153	0x3f3a7c7f	0.72846216
154	0x3f3a7c9a	0.72846377
155	0x3f3a7968	0.728415
156	0x3f3a7b20	0.72844124
157	0x3f3a781a	0.7283951
158	0x3f3a7a99	0.7284332
159	0x3f3a7b9e	0.72844875
160	0x3f3a7793	0.72838706
161	0x3f3a778d	0.7283867
162	0x3f3a7acc	0.72843623
163	0x3f3a783d	0.7283972
164	0x3f3a7a46	0.72842824
165	0x3f3a7769	0.72838455
166	0x3f3a79dd	0.728422
167	0x3f3a7953	0.72841376
168	0x3f3a7b50	0.7284441
169	0x3f3a7a82	0.7284318
170	0x3f3a7ba7	0.7284493
171	0x3f3a79cf	0.72842115
172	0x3f3a7c4a	0.728459
173	0x3f3a7b47	0.72844356
174	0x3f3a7868	0.72839975
175	0x3f3a7be5	0.728453
176	0x3f3a7a17	0.72842544
177	0x3f3a7ae6	0.7284378
178	0x3f3a78c8	0.7284055
179	0x3f3a7931	0.72841173
180	0x3f3a7afd	0.72843915
181	0x3f3a7a83	0.7284319
182	0x3f3a7b12	0.7284404
183	0x3f3a7891	0.7284022
184	0x3f3a8496	0.7285856
185	0x3f3a795c	0.7284143
186	0x3f3a7774	0.7283852
187	0x3f3a79df	0.7284221
188	0x3f3a7b62	0.7284452
189	0x3f3a78f0	0.72840786
190	0x3f3a79c4	0.7284205
191	0x3f3a7ab9	0.7284351
192	0x3f3a76ba	0.7283741
193	0x3f3a7225	0.7283042
194	0x3f3a7941	0.7284127
195	0x3f3a78ab	0.72840375
196	0x3f3a7754	0.7283833
197	0x3f3a7afc	0.7284391
198	0x3f3a77f7	0.728393
199	0x3f3a79aa	0.72841895
200	0x3f3a7a2d	0.72842675
201	0x3f3a798f	0.72841734
202	0x3f3a7abf	0.72843546
203	0x3f3a79e5	0.72842246
204	0x3f3a7991	0.72841746
205	0x3f3a7952	0.7284137
206	0x3f3a7b21	0.7284413
207	0x3f3a7ae7	0.72843784
208	0x3f3a7d86	0.72847784
209	0x3f3a81f9	0.7285457
210	0x3f3a7ab6	0.7284349
211	0x3f3a7def	0.7284841
212	0x3f3a7a55	0.72842914
213	0x3f3a758f	0.7283563
214	0x3f3a7cdc	0.7284677
215	0x3f3a7807	0.728394
216	0x3f3a788e	0.728402
217	0x3f3a7927	0.72841114
218	0x3f3a7cf8	0.7284694
219	0x3f3a7f71	0.7285071
220	0x3f3a7a36	0.7284273
221	0x3f3a77fd	0.7283934
222	0x3f3a7988	0.7284169
223	0x3f3a78f8	0.72840834
224	0x3f3a780b	0.7283942
225	0x3f3a7b7a	0.7284466
226	0x3f3a7482	0.72834027
227	0x3f3a7a56	0.7284292
228	0x3f3a7a6b	0.72843045
229	0x3f3a7863	0.72839946
230	0x3f3a77e4	0.7283919
231	0x3f3a78cf	0.7284059
232	0x3f3a7795	0.7283872
233	0x3f3a7cf1	0.72846895
234	0x3f3a79e7	0.7284226
235	0x3f3a79a4	0.7284186
236	0x3f3a7ec4	0.7284968
237	0x3f3a7960	0.72841454
238	0x3f3a7868	0.72839975
239	0x3f3a7bca	0.7284514
240	0x3f3a7a1f	0.7284259
241	0x3f3a7a9f	0.72843355
242	0x3f3a7814	0.72839475
243	0x3f3a78e7	0.7284073
244	0x3f3a79a0	0.72841835
245	0x3f3a799f	0.7284183
246	0x3f3a7b64	0.7284453
247	0x3f3a7a77	0.72843117
248	0x3f3a7c0c	0.7284553
249	0x3f3a7ca4	0.72846437
250	0x3f3a7a8c	0.7284324
251	0x3f3a875d	0.728628
252	0x3f3a7bb8	0.7284503
253	0x3f3a77d7	0.7283911
254	0x3f3a79f3	0.7284233
255	0x3f3a796d	0.7284153
