RL/Model_Repository/temp/TD3_Guest_judy_actor.pth (torch, 516991 bytes, 9 tensors)

layer_1.weight f4 [400, 15]
000000 17 d4 ee 3d 3e 50 08 3e 5b eb b6 ba 54 4b 1f 3e
       0.11661547 0.1331186 -0.001395564 0.15556079
000010 67 f0 2a ba b8 08 59 39 7a ef 45 bd c9 8a 94 3d
       -0.0006520808 0.0002069798 -0.048324086 0.07253034
000020 b5 aa 15 3e 97 ef de bd d3 76 12 3e 47 1c 6f 38
       0.14615901 -0.10885542 0.1430314 5.7008376e-05
000030 8b 98 e1 3d 7c dc 94 b2 69 2a 42 3d 8e 1f 00 b3
       0.110154234 -1.7329732e-08 0.047403727 -2.983102e-08
000040 ff 18 f2 3d be ec 1b 34 b9 b2 32 bd 69 f9 46 3b
       0.11821174 1.4521626e-07 -0.043627474 0.0030361062
000050 31 e1 2c bd e6 2f f8 ac 32 4f f4 bc bc 02 bb 3d
       -0.042206947 -7.0539017e-12 -0.02982292 0.09131381
000060 aa a0 fb bd f7 23 2d bd ea 9d ce bb 39 92 9b bd
       -0.122865036 -0.042270627 -0.006305446 -0.07596249
000070 9e 81 2f 30 6d 47 31 be 1d 44 1b 3e c7 59 0d be
       6.3848826e-10 -0.17312403 0.15162702 -0.13803779
000080 a6 af f2 3d ab e3 93 36 b4 e2 57 bc 8d fa a3 3d
       0.118499085 4.4074454e-06 -0.013176609 0.08006773
000090 db fc 48 35 37 9d 02 3e 8d 5c 53 2d 1c a4 3c bc
       7.487376e-07 0.12755285 1.2014512e-11 -0.011513736
0000a0 2b 8f 94 3b 36 7a 9e bb ad 8c 07 3d 70 99 18 3e
       0.0045336685 -0.004836346 0.033093143 0.14902282
0000b0 40 36 91 3d 3b aa 16 bd d5 85 8f 3d d6 37 c3 37
       0.070904255 -0.03678344 0.07007948 2.3271812e-05
0000c0 50 53 5a 3d bb b7 9f bd b8 da 31 be 54 09 d1 bc
       0.05330211 -0.07798716 -0.17368591 -0.025517143
0000d0 a9 1b f0 bd 3b dd 05 3e d7 04 e9 3b fd 76 01 3d
       -0.11724026 0.13072674 0.0071111727 0.031607617
0000e0 81 2f 3f 3c 3e 4b a8 ad 21 dd f6 3d 44 34 d3 bd
       0.011669041 -1.9132803e-11 0.12053896 -0.10312703
0000f0 04 00 00 00 b1 c7 c4 bd 21 f3 28 3c 0a 5f 8a bc
       6e-45 -0.096084006 0.010311873 -0.016891021
000100 c3 a6 23 3c 74 9b ae b9 74 27 08 3e 29 43 97 bd
       0.00998849 -0.00033303688 0.132963 -0.07385857
000110 93 1e 99 bd 38 23 99 bd 58 50 1a 3e 2e cb 71 3c
       -0.07476535 -0.074774206 0.15069711 0.0147579145
000120 c5 a5 2a 3e e3 16 07 be 17 5e 32 be 99 03 f8 bd
       0.16664799 -0.13192324 -0.17418705 -0.12110061
000130 c6 c1 bf bd d9 49 f2 3c 68 ad a0 3c f5 8c 08 3e
       -0.09363131 0.029576229 0.019613937 0.13335021
000140 08 bc 62 bd 91 5b c4 bd be a6 70 3d d9 c8 f0 bc
       -0.0553551 -0.095877774 0.058752768 -0.029392647
000150 9a 6a 9e 3d 3c 68 d0 ba fb e9 8c 3d 70 3b f5 bd
       0.077351764 -0.0015900205 0.06880566 -0.119742274
000160 d9 8f 57 bd c7 91 12 3c 9d 35 d6 39 97 5b 47 bb
       -0.05262742 0.008945889 0.00040857206 -0.0030419582
000170 4a f4 98 3d 0c 63 c3 3d be 98 da bd b7 e5 73 bd
       0.074684694 0.09540376 -0.106736645 -0.059545245
000180 16 87 1e 3e 61 c5 7e bc 3b cd 9a bc 2c 0a 2c be
       0.15481219 -0.0155499885 -0.01889669 -0.16800755
000190 e3 39 8d bd ed ea 27 3b 22 01 12 b1 c4 f5 da bd
       -0.06895807 0.0025622204 -2.124644e-09 -0.10691407
0001a0 02 00 00 80 6a 0e c5 bd b6 12 0d be 79 43 82 bd
       -3e-45 -0.0962189 -0.13776669 -0.06360526
0001b0 30 06 14 be be 7b ad bd 18 62 34 3e e9 af 8d 38
       -0.14455485 -0.084708676 0.17615545 6.75617e-05
0001c0 e0 6b 28 3c 20 f4 22 be 76 a7 b7 bd b1 93 70 bc
       0.010279626 -0.15913439 -0.089674875 -0.01468365
0001d0 1a 43 5d 35 f1 3e 15 be 81 cc 10 bd d7 42 9a bd
       8.242656e-07 -0.14574791 -0.03535128 -0.0753228
0001e0 08 40 06 ac a1 51 b8 bc d0 7b 02 ad 6f 46 c2 bd
       -1.907809e-12 -0.022499861 -7.417136e-12 -0.094860904
0001f0 89 bf c6 bd bc 98 92 bd c2 0c 87 bc d8 94 fb bd
       -0.09704501 -0.07158038 -0.016485576 -0.12284249
000200 d6 80 0a 3e dc ba 26 b9 c5 2e 10 3e ac eb 31 3c
       0.1352571 -0.00015900604 0.14080341 0.010859411
000210 b7 a8 0c be 04 8c c9 3d e1 4c ac bb e1 b8 cb bc
       -0.13736235 0.09841159 -0.005258188 -0.02486843
000220 6d 54 08 be 8b f6 32 be 5c e8 df 3b 9a 9d 24 ba
       -0.13313456 -0.17476861 0.0068331193 -0.0006279588
000230 17 3f d6 3c 7a e5 05 be bf 74 e3 3d 7d 27 df bd
       0.02615313 -0.1307582 0.11106252 -0.10896204
000240 95 db 32 b7 da ff b4 39 66 90 62 3d 09 72 02 3e
       -1.0660752e-05 0.000345229 0.05531349 0.12738813
000250 20 32 1d 3e 08 80 fd bd e3 ee 32 3b 1c 1b 10 bd
       0.15351152 -0.12377936 0.0027303032 -0.035182104
000260 9c d6 18 aa 51 92 e6 bd 61 47 1d 3e e4 19 df bd
       -1.357477e-13 -0.112583764 0.1535926 -0.1089361
000270 1c 79 74 3d ba c3 95 3c 07 a3 58 3c 22 99 7a bd
       0.05968581 0.018281806 0.0132224625 -0.061181195
000280 79 c8 1c 3e 97 4b 31 3a 09 14 3f 30 0b 9e 15 be
       0.15310849 0.0006763278 6.9513867e-10 -0.1461107
000290 ba e0 04 3d a3 04 7c b4 90 65 2a bd 9b ce 0f 3e
       0.03244088 -2.3471016e-07 -0.041600764 0.14043657
0002a0 09 33 53 3a d1 8f 83 bd a4 ab 58 bd 57 d0 35 ae
       0.0008056616 -0.06423915 -0.052898064 -4.1339678e-11
0002b0 23 17 86 3d d4 0c 4b bb ee 2d 8c bd de 47 87 bc
       0.06547382 -0.0030982988 -0.06844698 -0.016513761
0002c0 fc d7 e5 bd 4b 4a 9e 3c dc f4 f3 3d 5c 37 25 be
       -0.112228364 0.019322535 0.119119376 -0.16134399
0002d0 99 0e a7 3a f5 e5 62 3d f5 ba 00 38 e5 72 9d bc
       0.0012745439 0.055395085 3.0691695e-05 -0.019219825
0002e0 73 26 68 3d 7a a9 6b 3d 3a 72 bb 3c cd 69 84 b7
       0.056677293 0.057534672 0.022881616 -1.5784894e-05
0002f0 85 ba 85 bb ea 07 0c 2e 10 9c 94 b7 89 53 0d bc
       -0.0040810728 3.1839344e-11 -1.7715647e-05 -0.008625873
000300 42 bc ae 3d 48 9b 10 3e 5d 35 c4 30 48 14 5e ba
       0.08532001 0.14121735 1.4276044e-09 -0.000847165
000310 3d dd e2 a1 f6 ee ed 9f 37 b8 ec 3a af f7 c4 3b
       -1.5372917e-18 -1.0076873e-19 0.0018060271 0.0060109715
000320 4a 9a 1c be 1e 18 b3 bc 63 73 0b 3e 9a a7 d6 3c
       -0.15293232 -0.021862086 0.13618235 0.026202966
000330 1d 92 6c 9f a9 64 9c bd 94 e0 a0 bd eb 5b 19 be
       -5.0095806e-20 -0.07636387 -0.07855335 -0.1497647
000340 52 19 5f bc 1c 60 67 3c 5e ee ad 3d 1b cb 2d 3d
       -0.013616877 0.014122035 0.084927306 0.042430025
000350 42 4a 16 be c4 9d 9b bd df ec 8f b5 dc f9 2b 3e
       -0.14676765 -0.07598451 -1.0723269e-06 0.16794533
000360 58 1d 97 33 80 dd 61 bb ec 02 01 3d 48 76 c7 bc
       7.036823e-08 -0.00344643 0.031496927 -0.024348393
000370 80 d1 b2 bd f5 03 dd 3d ac 26 27 bd fc c8 43 b9
       -0.08731365 0.1079177 -0.040808365 -0.00018671522
000380 69 21 33 be c0 03 be 3d 5e 46 eb 3d c5 53 ab 3c
       -0.17493214 0.09278059 0.11488031 0.020913968
000390 ce 4e cc bd 91 14 31 be 12 b4 03 be 24 23 e5 3d
       -0.09975968 -0.17293002 -0.1286166 0.11188343
0003a0 1e 6c 3f 3d ff 49 0b 3e 7b 0b 6a 3d e6 a1 3b 3b
       0.046733968 0.13602446 0.057139855 0.0028630435
0003b0 05 00 00 00 b2 c0 ec bd 5d 3e 0f be 8e a5 23 be
       7e-45 -0.11560191 -0.13988633 -0.15981123
0003c0 6e 1b fa 3c 56 ea 49 bd 64 33 50 b9 c3 a4 8e bd
       0.030530658 -0.049295746 -0.0001985557 -0.069650196
0003d0 e0 28 0e b8 e2 a9 cf bd 59 f2 b5 bd b7 0f 6d 3c
       -3.3893506e-05 -0.101398245 -0.08884115 0.014469079
0003e0 54 41 0b bc 12 ac a3 3d e5 5f 4c bc 82 e7 de bd
       -0.008499462 0.07991804 -0.012474035 -0.10884
0003f0 b9 c2 90 b7 11 e6 43 bd 8f 5c 22 bc 79 fa 27 be
       -1.7256812e-05 -0.04782683 -0.009909763 -0.16404141

layer_1.bias f4 [400]
000000 c7 ec 8e bd 0d 3f 60 ba a6 af 1a 3e fe 7f cf bd
       -0.069787554 -0.0008554317 0.15106067 -0.101318344
000010 82 b7 ec bd cd 30 04 be 2d b2 23 3e 9a c7 12 b0
       -0.11558439 -0.12909241 0.15985937 -5.339814e-10
000020 b1 73 8a bb 3c 16 81 3d 13 55 96 bd 8e ce 83 bb
       -0.0042252173 0.06303069 -0.07340445 -0.004022426
000030 df c3 1e 3e 30 a8 72 3d 49 98 f4 bd 71 98 ad bb
       0.15504406 0.059242427 -0.119431086 -0.0052977134
000040 d5 57 5f 24 a1 0e a6 3c 75 3e 2c bd b1 cc cd 3d
       4.8429814e-17 0.020270647 -0.04205175 0.100488074
000050 7e 48 33 ab 30 47 11 be da ba 91 3b 43 dd 2c be
       -6.369418e-13 -0.14187312 0.0044473233 -0.1688128
000060 f4 6b 96 2b e0 9f 31 be 26 e0 db bb 6f 39 a8 ba
       1.0688104e-12 -0.17346144 -0.00671007 -0.0012834499
000070 47 02 1a be e0 c7 d0 bb 42 43 2e 0c 86 9b 88 bd
       -0.15039931 -0.006371483 1.3424712e-31 -0.06670289
000080 db df 18 33 82 2c 6e 3d 9f a1 ea 2f 6e ad 2f be
       3.5593853e-08 0.058147915 4.267919e-10 -0.17156002
000090 eb 2c ff ad 03 6c 34 bd a2 e5 da 3b 19 2b 01 be
       -2.9010091e-11 -0.04404832 0.0066802064 -0.12614097
0000a0 dd 79 c9 bd b0 3b 74 8e 5f 36 8f 3d ea a7 8e bb
       -0.09837697 -3.010406e-30 0.06992792 -0.004353513
0000b0 c0 3d 72 af c3 44 dd a4 80 0e f8 bd fb 0f 40 93
       -2.203171e-10 -9.595996e-17 -0.12112141 -2.4241686e-27
0000c0 3c 2e 59 ae 41 d4 80 36 c2 6b 20 3d 28 d7 0c 3c
       -4.9381152e-11 3.839407e-06 0.039165266 0.008596219
0000d0 40 bf 85 3d f6 d9 a7 b8 22 d6 11 bd 6d 4b 0d 3e
       0.06530619 -8.003779e-05 -0.035604604 0.13798304
0000e0 d0 bb ff 3d 8f 1e 7f 3d d6 48 dc 3d b4 c1 48 3d
       0.12486994 0.062285002 0.1075608 0.049012855
0000f0 3d 4c 16 3e 7a a5 12 3e 8d ee 03 be e3 78 25 be
       0.1467752 0.14320937 -0.12883969 -0.16159396
000100 80 15 65 bd 0f da ee 3d a9 37 1b 3e 52 fd 8a 2d
       -0.055928707 0.11662685 0.15157951 1.580128e-11
000110 4b e3 e1 bd 0a b7 35 bd 50 e0 3a 3d ed a4 22 3e
       -0.11029681 -0.044364013 0.045624077 0.15883227
000120 b3 fc dd 38 91 1c b8 bd 5c 25 27 3e cc c5 14 3e
       0.0001058517 -0.089898236 0.16322845 0.14528579
000130 5e 15 18 bd b7 4a 7a bd 31 58 8e 3d 2d 4b d9 bd
       -0.037129752 -0.06110641 0.06950415 -0.10610042
000140 17 88 09 3e f3 4e 5a b9 af 8d e5 24 22 42 74 bd
       0.1343082 -0.00020819511 9.955294e-17 -0.05963338
000150 cc 83 31 be d5 6e 7a 3a 2f b9 9d bc 21 12 94 bd
       -0.17335433 0.00095532584 -0.019253341 -0.0723002
000160 94 9f ff 3d da 7a 48 38 2e 68 92 bb 29 39 20 be
       0.12481609 4.779813e-05 -0.0044679856 -0.15646805
000170 13 5f 88 bd 51 08 5d bc 81 1a 07 3d 9e 6c 1d be
       -0.06658759 -0.013490752 0.03298426 -0.15373465
000180 f7 a8 8f 3d b3 f4 1c 3e ba f9 2b 3c aa a0 32 be
       0.07014649 0.1532772 0.010496551 -0.17444101
000190 53 56 c3 30 37 9d ef bc 5f 5f 3f 3c 03 00 00 00
       1.4212652e-09 -0.02924977 0.011680453 4e-45
0001a0 da 47 48 3d 6b 0a 82 ae f8 d3 e6 37 ba 63 e6 3c
       0.048896648 -5.913566e-11 2.7516842e-05 0.028123725
0001b0 5c ab e2 bd 00 df 9b 36 95 26 18 3e 00 d0 cc 3d
       -0.110678405 4.6453206e-06 0.14858468 0.1000061
0001c0 f1 11 6e ac f5 8e 86 b7 be cd 00 3d 2a 1a 15 be
       -3.3831794e-12 -1.6040614e-05 0.03144621 -0.14560762
0001d0 00 a6 15 bc 7a fd 11 3e a4 ff 42 30 75 c2 96 ad
       -0.009133816 0.1425685 7.0940076e-10 -1.7139382e-11
0001e0 a6 76 fa bd c6 42 b3 bd 44 04 6d 32 c6 37 e8 bd
       -0.12229662 -0.087529704 1.37961855e-08 -0.11338763
0001f0 f1 86 ee bb 37 86 4b bd ac 76 28 3c 54 69 dd 34
       -0.00727927 -0.049688544 0.0102822 4.1241094e-07
000200 98 80 2b be c7 fe 67 3c 24 2a c6 9e fd 9e 43 bd
       -0.16748273 0.014159865 -2.0981494e-20 -0.047759045
000210 1f 7f e0 3d 29 73 b8 bd 21 9c 1d be d6 7d 32 af
       0.109617464 -0.0900634 -0.1539159 -1.6233712e-10
000220 0d b1 7c bd e3 32 f4 bc 9f d9 13 be 1c 97 20 bb
       -0.061692286 -0.02980942 -0.14438485 -0.002450413
000230 12 45 fe 3d 3e 5b 1c be 2d 8c c1 bd 03 53 28 ba
       0.12415518 -0.15269181 -0.094505645 -0.0006421061
000240 d5 ae fc bd 93 c7 6f 38 ab 3a 2a b9 c9 ad ea 3d
       -0.12338034 5.716791e-05 -0.00016234319 0.11458928
000250 e1 e0 32 be 5d 05 15 ae 1d 36 1a 3d c3 41 4d 30
       -0.17468597 -3.388344e-11 0.037649263 7.467202e-10
000260 16 2c a3 bb d7 49 24 3e a4 d9 f4 bd 0b 9e 22 3e
       -0.0049796207 0.16043793 -0.11955574 0.15880601
000270 5b d4 a2 3b cf a2 3b 3d a7 3d d0 3d 54 cc 23 25
       0.0049691624 0.045809563 0.10168009 1.4207225e-16
000280 45 43 87 28 b7 dc 69 b9 65 51 1c be 26 ea 07 3d
       1.5017184e-14 -0.00022302834 -0.15265425 0.033182286
000290 9d 45 e6 3d 8d 09 05 3d fc d8 4f b5 7d 33 19 be
       0.112437464 0.03247981 -7.7429263e-07 -0.14961047
0002a0 d0 8f a9 a2 cc 53 69 3b 98 31 f8 bd a9 93 0d 3e
       -4.595981e-18 0.0035602925 -0.12118834 0.13825859
0002b0 fb 2f 5e ad 96 6d a6 3b 62 d5 15 3e 9c d0 13 3d
       -1.2629893e-11 0.0050789816 0.1463218 0.036087617
0002c0 0d cd 7b bd f8 a4 b2 3c 49 e5 94 3d 27 a2 51 3d
       -0.06147485 0.021807179 0.07270295 0.05118003
0002d0 04 8e 35 bd c1 c7 25 2e 6d 2f d7 bd 9d 78 5b ae
       -0.04432489 3.7694074e-11 -0.105070926 -4.990196e-11
0002e0 d8 97 ca bd 22 b9 8c 3d 52 dc 2e 3e a2 46 2c be
       -0.09892243 0.06871249 0.17076233 -0.1682382
0002f0 0a 0d 33 bd 44 81 09 bd 95 d0 cd bd 6a 0a 1d 3e
       -0.043713607 -0.033570543 -0.100495495 0.15336004
000300 18 e6 f2 bd 73 00 69 bd 34 80 08 be 07 00 00 00
       -0.11860293 -0.056885194 -0.13330156 1e-44
000310 6c 4e e2 bd 02 3a c0 bd c7 05 33 3e 88 be 1f 3d
       -0.11050114 -0.09386064 0.17482673 0.039000064
000320 25 aa 0a 3d 85 68 d2 3d 80 b3 35 37 62 2e 1a 36
       0.03385367 0.10273842 1.0830234e-05 2.2974787e-06
000330 69 e7 e7 bd a5 1c c8 3b f4 71 f7 bd 06 95 25 2c
       -0.11323435 0.0061069303 -0.12082282 2.3530635e-12
000340 4a 9a 79 bd d5 4d 8a bd f6 a5 93 bd 88 42 43 bd
       -0.060938157 -0.067531265 -0.07209389 -0.04767087
000350 68 46 98 bd 9d 63 80 bd 1c 07 ab bc 24 05 1e be
       -0.07435304 -0.06269 -0.020877413 -0.15431648
000360 28 ac 00 3e 39 70 7a 3c aa 17 33 be 48 5b 34 be
       0.12565672 0.015285545 -0.17489496 -0.17612946
000370 db 35 56 bd f4 2b d0 3c 39 6f 1e 3e 84 bb 45 b5
       -0.052297454 0.025411583 0.15472116 -7.366109e-07
000380 5f 6a 98 3d ba 55 79 bd 8a 71 a5 b9 af ec 2b b5
       0.07442164 -0.06087277 -0.00031555846 -6.4046884e-07
000390 0e 9a 2d be 03 00 00 80 7c 3b 85 3b 5c b8 9f 3d
       -0.16953298 -4e-45 0.004065929 0.07798836
0003a0 85 92 f3 bd 81 65 15 bc 02 00 00 80 61 f1 3b 2d
       -0.11893181 -0.009118439 -3e-45 1.0683316e-11
0003b0 36 1d cd 36 c1 a9 e3 bd c4 cb f4 3d 95 67 1b be
       6.1128767e-06 -0.11116362 0.11952928 -0.15176232
0003c0 6c d4 8e bc 99 0e 51 3d b9 93 25 bb ce 17 41 bd
       -0.017435275 0.051039312 -0.0025265052 -0.047141843
0003d0 ab f9 30 be c1 f2 c7 3d 02 00 00 80 e8 3b 42 3d
       -0.17282741 0.097630985 -3e-45 0.047420412
0003e0 aa e6 c2 35 be 18 e4 bd 3c e5 98 bc 67 5f d4 3d
       1.4521258e-06 -0.11137532 -0.018663995 0.10369759
0003f0 9c b1 48 bd 06 e5 2c bd 96 21 81 3d 91 25 13 bd
       -0.048997506 -0.0422106 0.06305234 -0.035924498

ln1.weight f4 [400]
000000 1c 6e 6a 3f 98 6d 6a 3f 41 6e 6a 3f 5f 6c 6a 3f
       0.91574264 0.91573477 0.91574484 0.9157161
000010 44 6e 6a 3f 53 6d 6a 3f 8c 6d 6a 3f d8 6d 6a 3f
       0.915745 0.91573066 0.91573405 0.9157386
000020 52 6d 6a 3f c7 6c 6a 3f 8e 6d 6a 3f 0b 6e 6a 3f
       0.9157306 0.9157223 0.9157342 0.9157416
000030 db 6f 6a 3f 27 6d 6a 3f 5e 6d 6a 3f 6f 6d 6a 3f
       0.9157693 0.91572803 0.9157313 0.9157323
000040 d4 6d 6a 3f ca 6d 6a 3f ae 6d 6a 3f bc 6d 6a 3f
       0.91573834 0.91573775 0.9157361 0.9157369
000050 30 6d 6a 3f 75 6d 6a 3f 61 6d 6a 3f 9c 6d 6a 3f
       0.91572857 0.9157327 0.9157315 0.915735
000060 d6 6d 6a 3f a2 6d 6a 3f 61 6e 6a 3f 27 6e 6a 3f
       0.91573846 0.91573536 0.91574675 0.9157433
000070 d4 6c 6a 3f 7b 6e 6a 3f 77 6e 6a 3f 35 6d 6a 3f
       0.9157231 0.9157483 0.91574806 0.91572887
000080 06 6e 6a 3f b7 6d 6a 3f bc 6e 6a 3f 46 6c 6a 3f
       0.9157413 0.9157366 0.9157522 0.9157146
000090 bb 6e 6a 3f a5 6d 6a 3f ff 6d 6a 3f 1a 6c 6a 3f
       0.9157521 0.91573554 0.9157409 0.915712
0000a0 35 6e 6a 3f 0d 6e 6a 3f bb 6d 6a 3f 11 6a 6a 3f
       0.9157441 0.91574174 0.91573685 0.91568094
0000b0 84 6d 6a 3f f4 6d 6a 3f 81 6d 6a 3f 77 6d 6a 3f
       0.9157336 0.91574025 0.9157334 0.9157328
0000c0 c3 6b 6a 3f c0 6b 6a 3f 97 6d 6a 3f 7d 6d 6a 3f
       0.9157068 0.91570663 0.9157347 0.91573316
0000d0 8d 6d 6a 3f e8 6c 6a 3f b6 6d 6a 3f d1 6c 6a 3f
       0.9157341 0.9157243 0.91573656 0.9157229
0000e0 26 6e 6a 3f 31 6e 6a 3f 1b 6d 6a 3f a2 6d 6a 3f
       0.91574323 0.9157439 0.9157273 0.91573536
0000f0 a7 6b 6a 3f 19 6e 6a 3f f7 6d 6a 3f a0 6d 6a 3f
       0.91570514 0.91574246 0.91574043 0.91573524
000100 f1 6e 6a 3f 82 6d 6a 3f 52 6d 6a 3f 3c 6d 6a 3f
       0.91575533 0.91573346 0.9157306 0.9157293
000110 4d 6e 6a 3f 18 6e 6a 3f 51 6b 6a 3f 12 6e 6a 3f
       0.91574556 0.9157424 0.9157 0.91574204
000120 04 6f 6a 3f c3 6d 6a 3f 0a 6d 6a 3f 65 6d 6a 3f
       0.91575646 0.91573733 0.9157263 0.9157317
000130 35 6e 6a 3f 22 6e 6a 3f 9c 6d 6a 3f af 6d 6a 3f
       0.9157441 0.915743 0.915735 0.91573614
000140 99 6c 6a 3f 22 6d 6a 3f 61 6e 6a 3f 1b 6d 6a 3f
       0.91571957 0.91572773 0.91574675 0.9157273
000150 22 6e 6a 3f 5b 6d 6a 3f 53 6d 6a 3f a1 6d 6a 3f
       0.915743 0.91573113 0.91573066 0.9157353
000160 36 6d 6a 3f 92 6d 6a 3f 68 6d 6a 3f 50 6d 6a 3f
       0.9157289 0.9157344 0.9157319 0.9157305
000170 58 6a 6a 3f 2e 6d 6a 3f 6a 6d 6a 3f 7d 6c 6a 3f
       0.9156852 0.91572845 0.915732 0.9157179
000180 b5 6d 6a 3f ef 6e 6a 3f 89 6d 6a 3f ed 6c 6a 3f
       0.9157365 0.9157552 0.9157339 0.9157246
000190 f4 6d 6a 3f 74 6d 6a 3f 63 6e 6a 3f 47 6d 6a 3f
       0.91574025 0.9157326 0.91574687 0.91572994
0001a0 d7 6d 6a 3f 2c 6d 6a 3f 42 6d 6a 3f d3 70 6a 3f
       0.9157385 0.91572833 0.91572964 0.91578406
0001b0 a1 6d 6a 3f dd 6d 6a 3f e8 6c 6a 3f 12 6f 6a 3f
       0.9157353 0.9157389 0.9157243 0.9157573
0001c0 17 6b 6a 3f b9 6c 6a 3f da 6d 6a 3f 7d 6e 6a 3f
       0.91569656 0.9157215 0.9157387 0.9157484
0001d0 46 6d 6a 3f 7b 6d 6a 3f 6b 6d 6a 3f 9a 6c 6a 3f
       0.9157299 0.91573304 0.9157321 0.9157196
0001e0 22 6e 6a 3f 82 6e 6a 3f a8 6d 6a 3f ad 6d 6a 3f
       0.915743 0.9157487 0.9157357 0.915736
0001f0 90 6d 6a 3f 3e 6e 6a 3f ed 6e 6a 3f cd 6d 6a 3f
       0.9157343 0.91574466 0.9157551 0.9157379
000200 72 6d 6a 3f 89 6a 6a 3f 4a 6d 6a 3f 90 6e 6a 3f
       0.9157325 0.9156881 0.9157301 0.91574955
000210 d1 6d 6a 3f a1 6d 6a 3f b1 6d 6a 3f 81 6d 6a 3f
       0.91573817 0.9157353 0.91573626 0.9157334
000220 ca 6d 6a 3f f7 6d 6a 3f d7 6d 6a 3f 6c 6d 6a 3f
       0.91573775 0.91574043 0.9157385 0.91573215
000230 1f 6e 6a 3f a3 6c 6a 3f 80 6d 6a 3f 17 6e 6a 3f
       0.9157428 0.91572016 0.91573334 0.91574234
000240 83 6d 6a 3f 9c 6d 6a 3f ef 6d 6a 3f 06 6d 6a 3f
       0.9157335 0.915735 0.91573995 0.91572607
000250 8a 6d 6a 3f 67 6d 6a 3f 6d 6d 6a 3f af 6d 6a 3f
       0.91573393 0.91573185 0.9157322 0.91573614
000260 55 6d 6a 3f 6b 6f 6a 3f 76 6d 6a 3f 78 6d 6a 3f
       0.9157308 0.9157626 0.91573274 0.91573286
000270 aa 6d 6a 3f 83 6b 6a 3f 51 6e 6a 3f 98 6d 6a 3f
       0.91573584 0.915703 0.9157458 0.91573477
000280 63 6e 6a 3f d0 6d 6a 3f 26 6d 6a 3f c4 6e 6a 3f
       0.91574687 0.9157381 0.915728 0.91575265
000290 e9 6c 6a 3f f8 6e 6a 3f 2b 6d 6a 3f 60 6e 6a 3f
       0.91572434 0.91575575 0.9157283 0.9157467
0002a0 74 6d 6a 3f b5 6c 6a 3f 72 6d 6a 3f b6 6d 6a 3f
       0.9157326 0.91572124 0.9157325 0.91573656
0002b0 a3 6e 6a 3f 21 6e 6a 3f 5b 6d 6a 3f b9 6c 6a 3f
       0.9157507 0.91574293 0.91573113 0.9157215
0002c0 fe 6d 6a 3f 70 6d 6a 3f c0 6d 6a 3f 4b 6e 6a 3f
       0.91574085 0.9157324 0.91573715 0.91574544
0002d0 29 6e 6a 3f 16 6d 6a 3f c9 6d 6a 3f f8 6d 6a 3f
       0.9157434 0.915727 0.9157377 0.9157405
0002e0 7d 6d 6a 3f c1 6d 6a 3f 77 6d 6a 3f 64 6d 6a 3f
       0.91573316 0.9157372 0.9157328 0.91573167
0002f0 61 6e 6a 3f 26 6f 6a 3f 8c 6d 6a 3f b7 6d 6a 3f
       0.91574675 0.9157585 0.91573405 0.9157366
000300 4d 6d 6a 3f 79 6d 6a 3f e9 6d 6a 3f 36 6d 6a 3f
       0.9157303 0.9157329 0.9157396 0.9157289
000310 95 6c 6a 3f 55 6d 6a 3f 19 6c 6a 3f 9f 6d 6a 3f
       0.91571933 0.9157308 0.91571194 0.9157352
000320 5c 6d 6a 3f 78 6d 6a 3f 11 6e 6a 3f a9 6d 6a 3f
       0.9157312 0.91573286 0.915742 0.9157358
000330 59 6d 6a 3f 67 6e 6a 3f 75 6d 6a 3f 59 6d 6a 3f
       0.915731 0.9157471 0.9157327 0.915731
000340 e8 6d 6a 3f a4 6d 6a 3f fe 6c 6a 3f 25 6e 6a 3f
       0.91573954 0.9157355 0.9157256 0.9157432
000350 11 6d 6a 3f 83 6e 6a 3f 9c 6d 6a 3f 5b 6d 6a 3f
       0.9157267 0.9157488 0.915735 0.91573113
000360 9b 6d 6a 3f 02 6f 6a 3f d2 6c 6a 3f 4f 6d 6a 3f
       0.91573495 0.91575634 0.91572297 0.9157304
000370 90 6d 6a 3f f9 6d 6a 3f 6b 6d 6a 3f 2e 6e 6a 3f
       0.9157343 0.91574055 0.9157321 0.9157437
000380 91 6e 6a 3f d9 6d 6a 3f 4e 6d 6a 3f 7f 6d 6a 3f
       0.9157496 0.91573864 0.91573036 0.9157333
000390 b1 6e 6a 3f 44 6d 6a 3f 4f 6e 6a 3f 71 6e 6a 3f
       0.9157515 0.91572976 0.9157457 0.9157477
0003a0 14 6e 6a 3f 8f 6d 6a 3f c0 6d 6a 3f 48 6d 6a 3f
       0.91574216 0.91573423 0.91573715 0.91573
0003b0 8e 6d 6a 3f 0e 6d 6a 3f b7 6d 6a 3f 3f 6d 6a 3f
       0.9157342 0.91572654 0.9157366 0.91572946
0003c0 a4 6d 6a 3f 47 6d 6a 3f 44 6d 6a 3f ee 6c 6a 3f
       0.9157355 0.91572994 0.91572976 0.91572464
0003d0 65 6d 6a 3f 25 6e 6a 3f 80 6d 6a 3f 4a 6d 6a 3f
       0.9157317 0.9157432 0.91573334 0.9157301
0003e0 09 6e 6a 3f 9e 6d 6a 3f 01 6d 6a 3f 8b 6d 6a 3f
       0.9157415 0.9157351 0.91572577 0.915734
0003f0 3b 6e 6a 3f 88 6d 6a 3f 73 6d 6a 3f 25 6d 6a 3f
       0.9157445 0.9157338 0.91573256 0.9157279

ln1.bias f4 [400]
000000 6b 26 72 b3 0a 0c 00 b2 87 26 20 34 47 d6 75 34
       -5.6379957e-08 -7.453318e-09 1.4915177e-07 2.2895357e-07
000010 84 d8 bd b3 72 ca 78 b3 22 59 6e b3 7d 46 e9 32
       -8.840382e-08 -5.7926123e-08 -5.549476e-08 2.7156824e-08
000020 7a de 4f 34 70 46 b4 34 a4 54 cb 32 95 dc 94 b3
       1.9359314e-07 3.3578863e-07 2.36708e-08 -6.931911e-08
000030 60 cb a3 33 25 59 31 b3 60 f4 66 b2 4d dd 45 32
       7.627273e-08 -4.12921e-08 -1.34433265e-08 1.1517227e-08
000040 02 c0 a2 b2 b4 ed 23 b3 36 f1 27 b3 88 23 f9 32
       -1.8946597e-08 -3.8167585e-08 -3.9102098e-08 2.9003573e-08
000050 7c 27 88 30 24 f2 a4 b3 51 e1 9d 32 97 44 ca b2
       9.906524e-10 -7.68089e-08 1.8379668e-08 -2.3547086e-08
000060 15 51 de 31 f7 08 ef 33 b3 4e a8 b2 8a b6 64 b3
       6.4702683e-09 1.11309355e-07 -1.9593562e-08 -5.3251405e-08
000070 d5 df 98 33 98 da b3 33 a2 1a c5 b3 2e 47 05 b3
       7.1187664e-08 8.375099e-08 -9.178372e-08 -3.1031213e-08
000080 54 80 45 b3 9f 8a 53 b3 49 53 6e 33 66 d7 b0 b3
       -4.598435e-08 -4.925334e-08 5.548944e-08 -8.2348194e-08
000090 b5 71 b2 31 f4 82 0a 32 ef 24 15 34 35 ca 6c 33
       5.193409e-09 8.0624325e-09 1.3890143e-07 5.5131938e-08
0000a0 d0 01 ac 34 a2 92 94 32 de 4a 82 33 b7 18 f2 b2
       3.2038815e-07 1.7296149e-08 6.067215e-08 -2.8183747e-08
0000b0 bc eb 30 33 82 44 cb b3 a7 9a 33 b3 0f 59 eb b2
       4.1192592e-08 -9.4653856e-08 -4.181734e-08 -2.73981e-08
0000c0 3e a5 08 33 80 a2 90 b2 b4 71 3b b3 f1 f0 dc 32
       3.1815254e-08 -1.6837703e-08 -4.3642743e-08 2.5720938e-08
0000d0 78 4a 60 b3 c4 63 87 34 e5 f6 be 31 8b fa 7d b2
       -5.2221793e-08 2.5218299e-07 5.5577964e-09 -1.4783505e-08
0000e0 77 c2 05 b3 19 b1 b2 b3 f8 88 1e 34 b2 d8 ad b3
       -3.114334e-08 -8.320985e-08 1.4764726e-07 -8.095357e-08
0000f0 ba 9a 30 32 ad 95 f0 32 57 94 a7 b3 f5 90 5d 32
       1.0279729e-08 2.8007742e-08 -7.8035264e-08 1.28968525e-08
000100 54 df 8d b3 51 e1 a0 af 7f 7d 04 b3 9a 44 f7 b2
       -6.606447e-08 -2.9263927e-10 -3.0847783e-08 -2.878578e-08
000110 31 47 34 b3 3e 34 9a b3 66 1e c8 34 a1 f4 53 b3
       -4.1974264e-08 -7.1806866e-08 3.727502e-07 -4.9349755e-08
000120 63 be 16 b2 1c 92 88 b3 c6 45 a1 b3 7b 36 d5 b3
       -8.774438e-09 -6.359571e-08 -7.5098384e-08 -9.9284954e-08
000130 2e 9d 04 b3 06 63 db b2 58 49 4c b3 5c 89 59 b3
       -3.08766e-08 -2.5539986e-08 -4.7564157e-08 -5.0649177e-08
000140 1d 58 89 34 e2 19 38 b3 da b5 de 32 f3 3a 72 b2
       2.558235e-07 -4.286438e-08 2.5926898e-08 -1.4099657e-08
000150 20 ea 30 b3 f3 ef 4e b3 b2 6f 8f b3 c3 3d dd b2
       -4.119113e-08 -4.8181345e-08 -6.679274e-08 -2.5755872e-08
000160 80 bb d5 33 ab 9f f5 b2 c1 db 21 b3 14 34 16 34
       9.9526915e-08 -2.8594362e-08 -3.76856e-08 1.3988785e-07
000170 0a 67 00 b3 02 ef 77 b3 16 87 a1 b3 8a 71 85 b2
       -2.9896036e-08 -5.7726545e-08 -7.521719e-08 -1.553487e-08
000180 39 8a c0 34 15 c2 8c 33 5a d2 b7 32 69 f3 0b 32
       3.5863357e-07 6.554561e-08 2.139966e-08 8.14621e-09
000190 b4 83 ae 33 29 54 5e b3 8e 06 47 b3 27 31 8f b3
       8.126463e-08 -5.1764946e-08 -4.633926e-08 -6.667897e-08
0001a0 13 9d c2 b2 9a 04 a1 b3 57 aa de b3 f3 03 17 34
       -2.2656002e-08 -7.497984e-08 -1.0368665e-07 1.4064408e-07
0001b0 5f 43 dd 31 7a 6d bf b3 22 60 41 b3 75 e3 7b 33
       6.4396057e-09 -8.914044e-08 -4.5023747e-08 5.8647363e-08
0001c0 0c 20 79 34 b1 03 50 32 b3 07 dc b3 01 c0 d0 31
       2.320159e-07 1.2108033e-08 -1.0245949e-07 6.075425e-09
0001d0 97 16 54 b3 9c 97 ef b2 cf 61 e6 b2 02 bf 5c 33
       -4.9380642e-08 -2.7892206e-08 -2.6820002e-08 5.1396462e-08
0001e0 6d bd 39 34 5a 96 27 b3 cd 3c e8 32 0d 7a 9f 32
       1.729838e-07 -3.901946e-08 2.7036004e-08 1.8565538e-08
0001f0 ee 9e 69 b3 30 7b 8b 33 b8 d0 2d b3 f3 08 51 34
       -5.4394086e-08 6.4950996e-08 -4.046953e-08 1.9467898e-07
000200 7d 50 51 31 e5 b3 2c 34 84 b9 b0 31 23 ca d0 b2
       3.0459255e-09 1.6084194e-07 5.143365e-09 -2.4306308e-08
000210 66 5a c0 31 94 68 92 b2 88 50 b2 32 52 f9 7e b2
       5.5982126e-09 -1.7044194e-08 2.0758549e-08 -1.4841435e-08
000220 78 e2 39 b3 0c 54 15 b1 69 ad b2 b2 89 92 b8 32
       -4.327964e-08 -2.1730129e-09 -2.0800785e-08 2.1487056e-08
000230 b0 ca 9e b2 c7 5b d3 33 cd 87 d7 33 73 2b 7a b2
       -1.8485792e-08 9.8421474e-08 1.003642e-07 -1.4561794e-08
000240 f5 70 fa b2 ff 05 24 b3 36 6d 9a 32 21 e5 c8 32
       -2.9155197e-08 -3.818968e-08 1.7977623e-08 2.338726e-08
000250 62 3c 02 b3 87 73 13 b2 fb d6 ca 32 6e b7 99 31
       -3.03229e-08 -8.582794e-09 2.3613657e-08 4.4737396e-09
000260 60 54 e8 32 23 46 85 b2 94 af 5a 33 98 a1 5b 30
       2.7046724e-08 -1.5515132e-08 5.0916768e-08 7.9901374e-10
000270 26 a1 8e 33 e6 cc b1 b3 6a 12 21 b3 f7 ef 99 32
       6.641703e-08 -8.2794756e-08 -3.750248e-08 1.7920668e-08
000280 f1 5e 80 b2 48 41 57 b2 b7 74 1a b2 07 34 7c 33
       -1.4944336e-08 -1.252949e-08 -8.990518e-09 5.872064e-08
000290 e7 e1 ab ae bd 42 f2 32 d6 44 14 b3 a7 c7 de b3
       -7.816308e-11 2.8202857e-08 -3.452154e-08 -1.0373997e-07
0002a0 d6 55 05 b3 3d 8c cc b3 b9 e3 bf b3 a8 3a 8b b3
       -3.1044543e-08 -9.5249995e-08 -8.935553e-08 -6.4833614e-08
0002b0 80 3f a8 b2 be 88 67 b3 e0 ff ab b3 76 5b a9 b3
       -1.958665e-08 -5.3908245e-08 -8.0093514e-08 -7.8863124e-08
0002c0 94 96 e1 b1 8a dc bb 32 6e 3a c2 32 13 a0 c0 b3
       -6.5654806e-09 2.1869955e-08 2.2611143e-08 -8.969814e-08
0002d0 f5 56 02 34 6b 43 79 b2 6f 9b 00 33 35 86 f0 33
       1.2138828e-07 -1.4509037e-08 2.994369e-08 1.1200283e-07
0002e0 c0 2f 01 b3 d9 f9 35 b3 b0 c0 5e b3 99 0c 42 b3
       -3.007858e-08 -4.236958e-08 -5.186365e-08 -4.5180602e-08
0002f0 d1 7c db 32 f6 5f b1 b2 6d a1 a8 b3 96 6c 98 b3
       2.5551715e-08 -2.064915e-08 -7.852473e-08 -7.097803e-08
000300 94 0c ae b3 cb 29 d0 33 67 e8 4b 33 c2 74 db 32
       -8.104794e-08 9.693357e-08 4.747599e-08 2.554805e-08
000310 11 03 d6 32 4f f2 44 b2 84 e3 a9 32 1e a3 8f b3
       2.4914273e-08 -1.1463796e-08 1.9777652e-08 -6.688627e-08
000320 ae 74 c7 b2 69 a1 e6 b2 04 b9 05 b3 88 9e c0 b3
       -2.3219709e-08 -2.6848925e-08 -3.1134746e-08 -8.9695334e-08
000330 18 f5 b0 b3 58 0c 7e b2 04 a9 a9 b3 e2 e6 e8 ad
       -8.240221e-08 -1.47875525e-08 -7.9004195e-08 -2.6477879e-11
000340 a5 4f 86 b2 f1 67 ca b3 f2 bc c5 33 50 a1 37 b1
       -1.5635871e-08 -9.425265e-08 9.207896e-08 -2.67217e-09
000350 97 cc 0b b3 3c b6 af 33 9b 57 80 32 bb 67 3d b3
       -3.2549533e-08 8.182221e-08 1.4941e-08 -4.4099334e-08
000360 1a da 9a 32 6c 5a b8 b3 3c 44 53 32 ee ed a2 b3
       1.802714e-08 -8.584615e-08 1.2297331e-08 -7.586992e-08
000370 c1 b6 00 b1 cf ed 6a 34 a1 39 c9 32 5c 8c 57 33
       -1.8730335e-09 2.1879463e-07 2.3425686e-08 5.0186244e-08
000380 61 fd 06 b3 c5 e7 e2 b1 2d f5 82 b3 bb ba cc 32
       -3.1429753e-08 -6.603815e-09 -6.098194e-08 2.383364e-08
000390 be 75 9a 30 ab ea b7 b3 f6 cc 37 33 41 10 3e b3
       1.1238439e-09 -8.5642874e-08 4.279442e-08 -4.4252605e-08
0003a0 eb cd db b2 8d df 00 b3 3e 8e c2 b2 73 25 08 34
       -2.5588596e-08 -3.000564e-08 -2.2649257e-08 1.2679611e-07
0003b0 a0 34 81 b3 27 87 92 b2 fe e7 6e 34 7e 68 ca b3
       -6.016603e-08 -1.7058097e-08 2.2249876e-07 -9.425365e-08
0003c0 e4 68 1a b3 14 23 cc b3 98 5b b2 b3 01 fd c2 34
       -3.5951317e-08 -9.505871e-08 -8.305432e-08 3.63194e-07
0003d0 af a2 f7 32 f4 9f 23 b3 72 ea 3e b3 71 d2 82 32
       2.8828564e-08 -3.809687e-08 -4.445105e-08 1.522969e-08
0003e0 39 34 6b b3 21 78 56 32 f2 f1 8c 33 80 0d ef 33
       -5.4762697e-08 1.2483754e-08 6.5632676e-08 1.11317604e-07
0003f0 f0 cb c8 b3 4b 03 2e b3 8d 16 af b3 f6 64 33 b3
       -9.350322e-08 -4.0515527e-08 -8.1531745e-08 -4.176851e-08

layer_2.weight f4 [300, 400]
000000 22 e5 3d 35 4c 96 dd 35 96 9f db b6 21 da 2f b6
       7.074142e-07 1.6509525e-06 -6.545287e-06 -2.6204e-06
000010 6b 89 0f 35 c4 32 cb 34 63 d3 f8 35 32 27 36 35
       5.347162e-07 3.7848633e-07 1.8538962e-06 6.785732e-07
000020 f9 00 01 b6 96 ab 86 b6 a8 4d cd 34 ee 14 42 b6
       -1.9223064e-06 -4.0134864e-06 3.8240728e-07 -2.8920435e-06
000030 f1 71 ea b6 1d 14 bd 35 da ad d4 34 aa 6f 08 36
       -6.987008e-06 1.4087451e-06 3.961457e-07 2.0330576e-06
000040 f8 a0 02 35 99 90 31 35 1a 24 8e 35 1b ee 9f 35
       4.8663014e-07 6.6148056e-07 1.0590331e-06 1.1915721e-06
000050 54 54 19 b7 4f f9 cb 34 9a 41 ef 34 68 cf b7 35
       -9.139145e-06 3.7993092e-07 4.456495e-07 1.3694926e-06
000060 ee c0 1b 36 ba e9 08 b6 da 93 2f 35 18 70 cc 34
       2.32091e-06 -2.0401626e-06 6.540773e-07 3.807952e-07
000070 cf a8 ba b5 c5 8c 40 b6 55 71 81 35 77 03 30 38
       -1.390721e-06 -2.8692168e-06 9.644233e-07 4.1964897e-05
000080 00 78 85 35 86 9c e9 34 33 28 ab b5 52 a4 89 36
       9.944197e-07 4.3513518e-07 -1.2752192e-06 4.1020476e-06
000090 de 05 ef 38 78 dd fa 35 c8 1a 82 b6 28 6a a5 b6
       0.00011397501 1.8690907e-06 -3.8774197e-06 -4.9297414e-06
0000a0 d6 76 df b6 53 3e 20 38 79 90 ad b5 77 41 8d 34
       -6.659752e-06 3.8205017e-05 -1.2931552e-06 2.6310929e-07
0000b0 ac e1 88 b3 9d 3c 41 35 02 11 2c 36 48 d5 03 b8
       -6.374043e-08 7.1986307e-07 2.5639897e-06 -3.1431468e-05
0000c0 f4 51 26 b5 13 4b a1 34 e8 61 12 b7 df f5 7a 35
       -6.1959076e-07 3.004321e-07 -8.725074e-06 9.3490047e-07
0000d0 b8 ad dd 35 50 45 ee b6 d8 49 64 35 3c c7 4b 34
       1.6516342e-06 -7.1010218e-06 8.5044076e-07 1.897833e-07
0000e0 a4 cf 13 38 e9 91 2c b8 1d e4 d7 35 b9 b1 85 35
       3.524091e-05 -4.1143885e-05 1.6085138e-06 9.960996e-07
0000f0 52 f0 39 36 fb e7 b2 35 81 bc d8 34 04 1a 63 b6
       2.7707033e-06 1.3329549e-06 4.037029e-07 -3.384078e-06
000100 f2 7f c5 35 db 84 1d 33 3c f0 ab 35 f0 dd 42 b5
       1.4714881e-06 3.6675242e-08 1.281041e-06 -7.2593593e-07
000110 58 26 e7 35 5c 49 c6 31 35 d4 ef 37 ec ed d1 36
       1.7222001e-06 5.7708984e-09 2.8589837e-05 6.256383e-06
000120 39 a1 13 35 f9 c6 e7 35 e5 6a 83 35 fb 14 1e 35
       5.499638e-07 1.726875e-06 9.791371e-07 5.889012e-07
000130 82 b5 ad 35 fc 40 d7 34 41 3c cd 34 9a 8c f1 35
       1.294233e-06 4.0094153e-07 3.8228066e-07 1.799682e-06
000140 df 87 56 b6 43 ee 9b 38 5d 66 c5 35 bd 63 ad 35
       -3.1967572e-06 7.435356e-05 1.4707435e-06 1.2918532e-06
000150 4f 0a ae b4 3d cd 8c 35 2f bc 81 35 c5 13 03 35
       -3.2417526e-07 1.0490545e-06 9.666018e-07 4.883007e-07
000160 28 98 6f b6 e2 6a 8c 36 87 bb 9a 37 e5 a4 9b b6
       -3.5702342e-06 4.184768e-06 1.8445555e-05 -4.638556e-06
000170 18 bc 37 b8 03 1a f4 35 85 14 e6 34 d9 11 5d 37
       -4.3805776e-05 1.8186987e-06 4.2855768e-07 1.3176782e-05
000180 00 a1 08 b7 16 07 21 b6 a3 32 21 35 31 65 c8 b5
       -8.143717e-06 -2.3994994e-06 6.005086e-07 -1.4930612e-06
000190 b1 37 cc b5 96 f2 6e 37 87 5a b3 b6 99 e9 71 35
       -1.5215393e-06 1.4242387e-05 -5.3451545e-06 9.0119426e-07
0001a0 15 52 b4 b7 8e 4a 29 36 8c 87 e4 b8 dc 72 28 b7
       -2.1495895e-05 2.522636e-06 -0.00010897135 -1.0040323e-05
0001b0 55 0f 58 35 12 09 0f 35 55 08 b3 b4 c0 81 e7 38
       8.048858e-07 5.328485e-07 -3.334741e-07 0.00011039106
0001c0 6d 67 d2 b6 1e 41 06 36 a9 6e bf 35 2f b7 aa 35
       -6.270528e-06 2.000546e-06 1.4262815e-06 1.27193e-06
0001d0 b3 11 8e b6 83 9e cc b5 c3 c7 8e 35 08 df 98 b6
       -4.2339902e-06 -1.5245317e-06 1.0637963e-06 -4.5559173e-06
0001e0 23 41 83 b6 f1 c7 12 36 40 60 ae 38 23 63 cf 34
       -3.911687e-06 2.1872077e-06 8.3148945e-05 3.8628886e-07
0001f0 66 0a 6a 35 5a 5b 4d b6 f9 16 12 35 78 e8 71 b6
       8.7186925e-07 -3.0600554e-06 5.442267e-07 -3.6047113e-06
000200 4a 5d 53 37 93 65 a0 b6 9c ec 4c 35 f8 2a 36 34
       1.2598301e-05 -4.7801964e-06 7.6340234e-07 1.6965703e-07
000210 6b 4a 1e 35 4d ad d7 34 54 29 cb 34 7e 53 a4 34
       5.896788e-07 4.0172964e-07 3.7841767e-07 3.060813e-07
000220 f8 8f 0c 36 8d 73 2f 34 a0 9a 94 35 d3 58 41 37
       2.0945427e-06 1.6340182e-07 1.1071861e-06 1.1524377e-05
000230 aa 62 84 35 b8 8a 39 b6 ab e9 a5 b5 b7 8f c8 35
       9.863481e-07 -2.7647893e-06 -1.2361464e-06 1.4942988e-06
000240 02 24 d6 35 3f c4 cd 34 c4 d5 0c 36 a8 5e 40 35
       1.5954722e-06 3.8327013e-07 2.0986054e-06 7.1663317e-07
000250 72 cc 9b b7 31 7f 17 b7 ee d9 9d 35 e8 4f 6f 35
       -1.8572642e-05 -9.029915e-06 1.1760837e-06 8.9150717e-07
000260 c0 65 20 36 20 ce c6 b5 94 a2 93 b6 b6 fa f7 34
       2.3901084e-06 -1.481214e-06 -4.399868e-06 4.618975e-07
000270 8c 5e 24 b6 ad fb e9 34 1c a3 1b 35 c2 43 87 b4
       -2.4492938e-06 4.358275e-07 5.7979355e-07 -2.519501e-07
000280 59 2b cb 34 ff b5 7c 35 68 e4 a5 37 83 18 b4 b6
       3.7843236e-07 9.4142155e-07 1.9775893e-05 -5.3672716e-06
000290 35 a8 5d b0 ee 98 b3 b5 4c df e8 36 fe ef 0d 39
       -8.063837e-10 -1.3381048e-06 6.940134e-06 0.00013536212
0002a0 a1 20 42 35 b1 f3 10 35 a3 45 2f 35 66 c4 23 36
       7.2318113e-07 5.39988e-07 6.5293915e-07 2.4403212e-06
0002b0 de 23 86 35 d4 2d db 35 76 13 7b 35 fa cf e2 37
       9.994217e-07 1.6330109e-06 9.3533106e-07 2.7038146e-05
0002c0 65 1b f5 35 67 03 4e 36 b4 36 85 35 bb f9 b8 35
       1.8261895e-06 3.0698372e-06 9.925193e-07 1.3781749e-06
0002d0 4f b5 01 b7 14 25 0f 35 3e ac 34 b4 ea 9e b0 b5
       -7.731213e-06 5.3325607e-07 -1.6826468e-07 -1.3159272e-06
0002e0 4c b9 5c 35 ee 6c cb 34 fd d1 60 35 91 f8 bf 35
       8.222603e-07 3.7890953e-07 8.3752076e-07 1.4302951e-06
0002f0 8d b8 6e b6 86 be 35 b6 73 b9 ba b7 f9 d5 44 35
       -3.5572186e-06 -2.7082e-06 -2.2259284e-05 7.332706e-07
000300 e0 8f e8 37 a2 52 6f b5 3e 56 36 38 d7 f0 80 35
       2.7723552e-05 -8.9154685e-07 4.34725e-05 9.606837e-07
000310 42 78 b1 b5 ca cc 10 35 b1 8c a5 b5 da c6 b6 35
       -1.3222527e-06 5.394219e-07 -1.2334405e-06 1.361793e-06
000320 ff f5 6a 38 08 ff 9c 35 53 e1 03 35 fe 29 93 35
       5.601905e-05 1.169713e-06 4.912919e-07 1.0964575e-06
000330 0f a8 0b 36 f1 4b d1 37 2f a9 c8 35 47 d4 9d 35
       2.0810437e-06 2.4950104e-05 1.49504e-06 1.1759192e-06
000340 22 69 64 35 f9 35 8f 36 45 48 cc b5 cc b0 5a 33
       8.508961e-07 4.2680153e-06 -1.5220218e-06 5.0917876e-08
000350 2a 76 33 b5 c8 da a2 b5 c9 3d de 34 73 74 2f 36
       -6.685465e-07 -1.2133614e-06 4.1395677e-07 2.6144814e-06
000360 7f c2 35 34 a5 a8 01 36 22 ff da b6 d6 eb da 34
       1.6927696e-07 1.9320662e-06 -6.5266076e-06 4.0777257e-07
000370 1f 0b 76 b8 5a 01 af b6 fe 3e 0c 36 d8 ff 4d b6
       -5.8661328e-05 -5.2155638e-06 2.0898292e-06 -3.06963e-06
000380 b0 33 fc 34 09 19 2e 36 81 5b 09 36 8a c3 1a b5
       4.6976265e-07 2.5942593e-06 2.0467853e-06 -5.765402e-07
000390 42 57 8b 35 bd b8 da 35 d9 04 1c b6 20 2f 17 35
       1.0381702e-06 1.6296032e-06 -2.3248633e-06 5.632046e-07
0003a0 89 91 37 36 d7 f6 cc b5 7c f3 56 35 67 b2 f6 b6
       2.7353838e-06 -1.5271024e-06 8.007553e-07 -7.35214e-06
0003b0 78 fa 55 37 88 0f 85 b5 e9 07 1d b7 9e 5a cb 34
       1.2754106e-05 -9.913792e-07 -9.359771e-06 3.787763e-07
0003c0 65 c7 7a b4 91 7b eb 34 3b d1 9c b8 37 12 c3 b6
       -2.3355604e-07 4.3862067e-07 -7.477632e-05 -5.8135734e-06
0003d0 9a e7 bf 35 d6 70 21 b6 3b da 08 35 d3 9e 8e 35
       1.4298014e-06 -2.4056549e-06 5.0981515e-07 1.0626048e-06
0003e0 59 0f e8 35 93 dd d0 34 ed 57 e1 b4 01 eb 58 b6
       1.7289814e-06 3.8904236e-07 -4.197349e-07 -3.2323298e-06
0003f0 bd 71 cf 34 20 b2 57 b6 c7 c3 fa 34 7d 04 c3 35
       3.863951e-07 -3.214118e-06 4.6708575e-07 1.4529938e-06

layer_2.bias f4 [300]
000000 c3 4c 03 b6 6c 3b 45 a5 91 ea 66 b4 84 8c 41 b5
       -1.9565202e-06 -1.7107159e-16 -2.1505754e-07 -7.210258e-07
000010 96 b6 95 36 a8 6d af 04 20 91 8d 36 37 c8 36 37
       4.461802e-06 4.1243006e-36 4.2190222e-06 1.08946615e-05
000020 d9 01 a7 b5 2f 16 b4 b7 c8 70 b7 38 aa 32 28 35
       -1.2443007e-06 -2.1468002e-05 8.747127e-05 6.2658603e-07
000030 88 f4 41 36 2c 40 1c 39 01 00 00 80 e0 18 55 b5
       2.8901577e-06 0.00014901225 -1e-45 -7.938488e-07
000040 1a 0f c1 0d b2 71 3a 36 6a 91 b9 37 71 ac 0b 32
       1.1898179e-30 2.778234e-06 2.2121432e-05 8.1300735e-09
000050 53 fa 12 36 3a a6 79 38 0a 33 77 37 8a 33 83 38
       2.1901403e-06 5.9521037e-05 1.4734231e-05 6.256167e-05
000060 29 49 c1 a4 da 9d 81 14 22 a7 81 36 5c ce 94 b5
       -8.3824346e-17 1.3087933e-26 3.8639564e-06 -1.1086918e-06
000070 24 00 e4 ad 2b 89 46 36 58 bc 34 b6 7e ae b1 36
       -2.5920661e-11 2.9584141e-06 -2.693172e-06 5.2953246e-06
000080 3e 9a f8 b5 fc 7f 98 38 8b 18 a6 37 ff 16 e4 36
       -1.852233e-06 7.271764e-05 1.980017e-05 6.7976066e-06
000090 02 00 00 80 aa 04 0c a8 bd 18 63 28 5b c0 66 ab
       -3e-45 -7.7725725e-15 1.2606396e-14 -8.197936e-13
0000a0 53 97 c6 b5 e3 9f 37 39 80 84 01 b6 30 1a 76 b0
       -1.4796191e-06 0.00017511802 -1.9299623e-06 -8.9531493e-10
0000b0 3e b1 92 36 a0 f1 50 35 f1 cb af 2f 38 ab 94 b8
       4.371773e-06 7.783765e-07 3.1977224e-10 -7.089082e-05
0000c0 a8 91 d1 36 8b 12 63 38 d5 2e d9 36 9d 71 be 38
       6.245642e-06 5.4138287e-05 6.472556e-06 9.081068e-05
0000d0 9a 41 fc 32 37 9b 19 b6 81 cd ad 37 04 83 d6 b4
       2.9366493e-08 -2.2889124e-06 2.0718902e-05 -3.9955933e-07
0000e0 cd 51 70 b6 d4 3a 3a 39 53 cf ad a7 84 fe 55 37
       -3.5810401e-06 0.00017760257 -4.8241927e-15 1.2755048e-05
0000f0 93 bb 4b 39 19 5f 21 b6 96 74 37 38 e2 84 f6 36
       0.00019429465 -2.4046224e-06 4.373918e-05 7.346841e-06
000100 2a 16 0d 37 cf b6 58 36 93 d0 de 34 20 72 99 38
       8.409415e-06 3.2292917e-06 4.150248e-07 7.316866e-05
000110 0e d6 bf 36 d2 10 3e 39 21 66 77 35 29 55 f4 37
       5.717163e-06 0.00018126078 9.216329e-07 2.9126722e-05
000120 2f 86 4f 38 4f dd 98 38 1b 18 8c 37 c3 f9 e3 b5
       4.9477614e-05 7.289147e-05 1.6700526e-05 -1.6985508e-06
000130 01 00 00 80 37 89 1e 36 d3 62 c8 37 42 31 7d b1
       -1e-45 2.3623704e-06 2.3887877e-05 -3.6844345e-09
000140 55 b7 d5 9f 2c d0 a1 b1 25 40 69 b2 90 22 f8 28
       -9.0512306e-20 -4.709383e-09 -1.357697e-08 2.754852e-14
000150 3d bb 38 ae 8d 02 10 39 4a 45 08 39 61 53 e1 ab
       -4.2003057e-11 0.0001373386 0.00012995783 -1.6010354e-12
000160 47 25 40 37 34 9e f7 37 53 72 a2 35 7b ba 6c 38
       1.1452771e-05 2.9518364e-05 1.2103213e-06 5.6440458e-05
000170 72 c0 27 35 72 9f 65 35 03 00 00 80 3b 90 81 2c
       6.249239e-07 8.554117e-07 -4e-45 3.6824133e-12
000180 7f fb a6 37 61 85 fb 37 b4 9b 57 36 16 f6 3d b5
       1.9905854e-05 2.9983641e-05 3.2128128e-06 -7.076609e-07
000190 ba 1a c5 37 d7 11 d0 97 a4 32 01 b4 a9 44 6a 37
       2.3496676e-05 -1.3446188e-24 -1.2032484e-07 1.3963473e-05
0001a0 73 67 0d 38 38 af 08 35 42 d3 a1 ab cb a9 0e b6
       3.3713364e-05 5.0918925e-07 -1.1498374e-12 -2.1258481e-06
0001b0 d8 06 ec 38 5e 81 14 38 84 c9 1e b5 d6 5c f2 b1
       0.00011254632 3.5406432e-05 -5.915283e-07 -7.053681e-09
0001c0 9b a0 95 b3 93 4b ef 8d 01 00 00 00 48 33 69 37
       -6.967567e-08 -1.4747706e-30 1e-45 1.3899822e-05
0001d0 18 42 64 a8 df 8e 6b a7 ab 35 bf 35 ed 00 6d b0
       -1.2670874e-14 -3.2690252e-15 1.4246228e-06 -8.6221413e-10
0001e0 d2 51 a0 8a ac aa 7d 38 09 d4 f6 b3 ef 63 f6 37
       -1.5438217e-32 6.047885e-05 -1.14938366e-07 2.937202e-05
0001f0 ea ad 9b 38 50 cd b5 37 bb 71 d0 b5 73 00 0d b5
       7.42337e-05 2.1672487e-05 -1.5530308e-06 -5.2527247e-07
000200 f1 87 73 36 ca 29 a5 38 49 b3 88 b5 bb cb c2 2a
       3.628895e-06 7.875597e-05 -1.0184968e-06 3.460269e-13
000210 72 f9 02 38 21 02 89 38 25 50 ac 37 77 ea ca 37
       3.122673e-05 6.5330656e-05 2.0541318e-05 2.4189458e-05
000220 af 0e db 35 5a 7e 70 37 73 aa 1f b2 7d a4 10 b6
       1.6321045e-06 1.4334533e-05 -9.293774e-09 -2.1553417e-06
000230 ce f3 a7 9c 91 17 e5 b5 68 f0 69 38 fc 7e f5 b5
       -1.1114155e-21 -1.7068688e-06 5.5775425e-05 -1.829088e-06
000240 73 47 fb b6 2f 3c 80 b6 5c 0c 47 28 27 01 1b 33
       -7.4887007e-06 -3.8217036e-06 1.1049399e-14 3.6089798e-08
000250 b1 c3 03 38 6c 72 7b b6 69 fd a5 37 90 6c 5d b4
       3.1415086e-05 -3.7468517e-06 1.9787536e-05 -2.0621724e-07
000260 cc eb 03 37 a5 2f 82 ac b3 4a 2f 37 45 a6 30 b6
       7.863109e-06 -3.700112e-12 1.0448205e-05 -2.6322825e-06
000270 f6 01 10 38 28 ff 18 34 02 00 00 00 18 a2 c1 b8
       3.43341e-05 1.4248928e-07 3e-45 -9.2331495e-05
000280 a5 4f 72 36 7e 82 df b4 d8 f9 fa 37 16 b9 b9 38
       3.610717e-06 -4.1631932e-07 2.9918665e-05 8.8559624e-05
000290 26 2b ef ac 19 56 3e 38 18 ee 1d b8 94 d7 9f 37
       -6.797579e-12 4.5379715e-05 -3.765346e-05 1.9054663e-05
0002a0 fa 8a e5 b5 13 36 a3 b7 1b 4f 2e b6 8a 40 a7 b8
       -1.7102277e-06 -1.9456294e-05 -2.5974066e-06 -7.975202e-05
0002b0 c8 61 25 38 65 f0 02 b4 ae 58 13 a8 60 07 ad 36
       3.943013e-05 -1.2194648e-07 -8.1793686e-15 5.1566603e-06
0002c0 d8 92 72 38 7e c7 d6 34 25 a4 4e 38 e6 23 bc b5
       5.7834055e-05 4.0005756e-07 4.92671e-05 -1.4017539e-06
0002d0 d1 1f f7 b5 8c 80 0e b8 7d 88 a8 38 14 0a 2b 38
       -1.8412194e-06 -3.3975157e-05 8.036287e-05 4.0778963e-05
0002e0 80 c6 c2 38 fc 66 f3 38 fc 8b c6 b6 61 e0 5f 38
       9.2876144e-05 0.00011606325 -5.917156e-06 5.3376312e-05
0002f0 4e 8e 45 b6 a3 47 47 39 8c d8 5a 28 b9 fc 20 37
       -2.943812e-06 0.00019004806 1.2148387e-14 9.595585e-06
000300 5f cc 21 b6 a2 9b 84 38 81 04 ac b4 a7 4a b0 38
       -2.410983e-06 6.323239e-05 -3.2040774e-07 8.406239e-05
000310 d8 42 15 36 50 fd 08 37 4f 1b a2 34 5e 84 3d 28
       2.2241638e-06 8.165211e-06 3.019472e-07 1.052031e-14
000320 ef 81 89 32 02 00 00 80 6e b8 9d 37 47 1b a2 38
       1.6007986e-08 -3e-45 1.880174e-05 7.729843e-05
000330 03 00 00 80 c0 ee 27 b1 43 1b 3f b2 d6 50 95 37
       -4e-45 -2.4437412e-09 -1.1123862e-08 1.7799826e-05
000340 d3 f1 80 38 2e 34 08 80 60 ff 07 37 44 07 cf b1
       6.148559e-05 -7.53403e-40 8.106086e-06 -6.025319e-09
000350 90 94 ed 36 da 5a c7 b2 b5 21 3d 38 d4 53 8f 13
       7.0804454e-06 -2.3207964e-08 4.5092504e-05 3.6180936e-27
000360 3f f0 09 39 24 db c4 b0 c0 f8 fc 83 3d 6d bc a7
       0.00013154837 -1.432316e-09 -1.4868339e-36 -5.229892e-15
000370 02 00 00 80 1e 56 ad b3 21 d1 79 b5 0d 4b a7 37
       -3e-45 -8.071605e-08 -9.306405e-07 1.99429e-05
000380 e2 62 dc 28 a2 08 92 38 a7 57 43 37 d6 db ea b5
       2.446779e-14 6.9634305e-05 1.1643314e-05 -1.7498339e-06
000390 ee e9 64 38 35 74 a1 36 10 fd 30 33 6e 37 85 33
       5.45773e-05 4.811702e-06 4.1208352e-08 6.203378e-08
0003a0 58 32 56 35 42 26 67 b4 76 65 b8 b3 b1 ee 13 a8
       7.979447e-07 -2.152747e-07 -8.586623e-08 -8.211897e-15
0003b0 57 f4 2f b2 92 31 dc 37 97 b9 09 b6 e4 0c 7c 35
       -1.0241897e-08 2.6249127e-05 -2.0522618e-06 9.3896074e-07
0003c0 46 27 20 37 31 dc 10 ae 3b 67 d7 36 2f 86 1f b1
       9.545887e-06 -3.293738e-11 6.419517e-06 -2.321382e-09
0003d0 a4 3a ae 37 ca ef 57 a8 8c fc b6 b5 b9 ec 58 b4
       2.0769723e-05 -1.19868935e-14 -1.3633558e-06 -2.0202687e-07
0003e0 79 3c 5a 93 ec 04 aa ab d0 a3 e2 35 42 58 57 b5
       -2.7545284e-27 -1.2080593e-12 1.6885988e-06 -8.0222173e-07
0003f0 4e 46 2d b5 eb 7f 6b 37 63 3c d9 38 0d 53 df a6
       -6.454983e-07 1.4036875e-05 0.00010358614 -1.5496244e-15
