RL/Model_Repository/temp/TD3_Guest_set_actor.pth (torch, 516991 bytes, 9 tensors)

layer_1.weight f4 [400, 15]
0	0x3e4a96f5	0.19784148
1	0x3e5be644	0.21474558
2	0xbd75f806	-0.060050987
3	0x3e735364	0.2376228
4	0xbd65563d	-0.055990446
5	0x3d5788dc	0.052620754
6	0xbe00b8be	-0.12570474
7	0x3e1b47c4	0.15164095
8	0x3e69a75c	0.22817749
9	0xbe41a649	-0.18911089
10	0x3e66629c	0.22498554
11	0x3d484a3f	0.04889893
12	0x3e43647d	0.19081302
13	0x3d10fa98	0.035395235
14	0x3dffe6fd	0.124952294
15	0xbd155238	-0.036455363
16	0x3e4bd1a2	0.19904187
17	0x3d1c51f8	0.03816411
18	0xbdf6dc64	-0.12053755
19	0x3d86c9bc	0.065814465
20	0xbdf3a230	-0.11896169
21	0xbcf80d30	-0.030279726
22	0xbdd6c5e4	-0.104869634
23	0x3e2f6474	0.17128164
24	0xbe50b4c0	-0.2038145
25	0xbdf3c73c	-0.11903235
26	0xbd95513c	-0.07290885
27	0xbe1ef94d	-0.15524788
28	0x3cc7a2d0	0.024369627
29	0xbe8291ac	-0.25501764
30	0x3e6e636c	0.23280114
31	0xbe60fc43	-0.2197123
32	0x3e4bbb24	0.19895607
33	0x3d2e7268	0.042589575
34	0xbdacc078	-0.08435148
35	0x3e22ecf6	0.15910706
36	0x3d24d1b8	0.040239066
37	0x3e559d8b	0.20860879
38	0x3ce32f1d	0.027732426
39	0xbda75099	-0.0816967
40	0x3d8d1104	0.06888011
41	0xbd90762d	-0.0705379
42	0x3dde6c10	0.10860455
43	0x3e6ba7c2	0.23013213
44	0x3e1867e7	0.14883386
45	0xbde72c4c	-0.11287746
46	0x3e18a054	0.1490491
47	0x3d3d3ab0	0.046198547
48	0x3e0644f6	0.13112244
49	0xbe212686	-0.15737352
50	0xbe82dd1f	-0.25559327
51	0xbdcc4dda	-0.099757865
52	0xbe4acc2a	-0.19804445
53	0x3e58f26a	0.21186224
54	0x3d984ef8	0.07436937
55	0x3ddb0854	0.10694948
56	0x3da73c74	0.081658274
57	0xbb932e80	-0.004491627
58	0x3e4eeb12	0.2020686
59	0xbe3bdb52	-0.18345383
60	0x3c852dc0	0.016257167
61	0xbe3475ee	-0.17623112
62	0x3da30dc8	0.07961613
63	0xbdb61b3a	-0.08891912
64	0x3da207c0	0.079116344
65	0xbd5c569c	-0.053793535
66	0x3e5b49a0	0.21414804
67	0xbe1cb534	-0.15303499
68	0xbe1daf5f	-0.1539893
69	0xbe1db1ce	-0.15399858
70	0x3e6dcf0c	0.23223513
71	0x3db03864	0.08604506
72	0x3e7e6a36	0.24845204
73	0xbe5a3310	-0.21308541
74	0xbe831fb6	-0.2561013
75	0xbe4eda85	-0.20200546
76	0xbe31db28	-0.17368758
77	0x3dd62e84	0.10458091
78	0x3dbd58f0	0.09245479
79	0x3e5bb15c	0.21454376
80	0xbe088a66	-0.13334045
81	0xbe343ddc	-0.17601722
82	0x3e0c4856	0.13699469
83	0xbdd5bd66	-0.104365155
84	0x3e2077d0	0.15670705
85	0xbd7af70c	-0.06127076
86	0x3e173f18	0.14770162
87	0xbe4d6d4e	-0.20061228
88	0xbe056d5d	-0.1303
89	0x3da1374c	0.07871875
90	0x3d5f94b8	0.05458519
91	0xbd86d1ea	-0.06583007
92	0x3e1d9922	0.15390447
93	0x3e33bd16	0.175526
94	0xbe3fbb92	-0.18723896
95	0xbe0d2706	-0.13784418
96	0x3e7218d8	0.2364229
97	0xbdb26e6e	-0.08712469
98	0xbdbb7716	-0.09153573
99	0xbe7fd3ec	-0.24983186
100	0xbe17695a	-0.14786282
101	0x3d841810	0.06449902
102	0xbd0b97fc	-0.03408049
103	0xbe3febce	-0.18742296
104	0x3bc67580	0.0060564876
105	0xbe346959	-0.17618312
106	0xbe601ec2	-0.21886733
107	0xbe116688	-0.14199269
108	0xbe6735c9	-0.22579111
109	0xbe281092	-0.16412571
110	0x3e8442dd	0.25832263
111	0x3d47c0c3	0.048767816
112	0x3da2f4c6	0.07956843
113	0xbe765606	-0.24056253
114	0xbe2d791d	-0.16940732
115	0xbdaf75f0	-0.08567417
116	0x3d268c2c	0.040661022
117	0xbe689e65	-0.22716673
118	0xbde36d7f	-0.11104869
119	0xbe1e12f3	-0.15436916
120	0x3a3b9200	0.00071552396
121	0xbdc4c3d4	-0.09607664
122	0xbc929270	-0.017892092
123	0xbe332990	-0.17496324
124	0xbe357adb	-0.17722647
125	0xbe1a3fb8	-0.1506337
126	0xbdb50100	-0.08838081
127	0xbe50aeb4	-0.20379144
128	0x3e5db014	0.216492
129	0xbd51e460	-0.051243186
130	0x3e637c34	0.22215348
131	0x3da4c30c	0.08045015
132	0xbe5fe3b3	-0.21864204
133	0x3e36f89a	0.17868271
134	0xbd917e84	-0.07104209
135	0xbdc9e6b3	-0.098584555
136	0xbe5b1169	-0.2139336
137	0xbe8339f4	-0.25630152
138	0x3d981729	0.074262924
139	0xbd64d2f2	-0.055865236
140	0x3dced5ba	0.10099359
141	0xbe58fab1	-0.21189381
142	0x3e444cb2	0.19169882
143	0xbe418c5f	-0.18901204
144	0xbd356a7c	-0.044291005
145	0x3d5eff8a	0.05444292
146	0x3e0908f0	0.13382316
147	0x3e557f64	0.20849377
148	0x3e713e5c	0.23558944
149	0xbe513ba0	-0.20432901
150	0x3d851458	0.06498021
151	0xbde37266	-0.11105804
152	0xbce7ca40	-0.028294683
153	0xbe45e5c4	-0.1932593
154	0x3e70d3ba	0.23518267
155	0xbe420da7	-0.1895052
156	0x3e0d4e7c	0.1379947
157	0x3db9d694	0.09074131
158	0x3dabd578	0.08390325
159	0xbe0ef1cc	-0.13959426
160	0x3e7052a6	0.23469028
161	0x3d686778	0.0567393
162	0x3d080c28	0.033214718
163	0xbe68fffc	-0.227539
164	0x3dddfb04	0.10838893
165	0xbd1ea8c0	-0.03873515
166	0xbdf2408c	-0.118287176
167	0x3e631a0c	0.22177905
168	0x3d6bc968	0.057565123
169	0xbe1248ac	-0.14285535
170	0xbe05d229	-0.13068451
171	0xbc4a05c0	-0.0123304725
172	0x3e13a0d8	0.14416826
173	0xbd871fc2	-0.06597854
174	0xbe16db86	-0.14732179
175	0xbdb514b0	-0.088418365
176	0xbe4585fa	-0.19289389
177	0x3dbc958c	0.09208211
178	0x3e4ca722	0.19985631
179	0xbe78e9a9	-0.24307884
180	0x3d742734	0.0596077
181	0x3e083799	0.13302459
182	0x3d3e4ca0	0.046459794
183	0xbdbd0d02	-0.09230997
184	0x3e097fa8	0.13427603
185	0x3e0a846c	0.13527077
186	0x3dc5b949	0.09654481
187	0xbd39e77b	-0.045386773
188	0xbd8cfa9f	-0.0688374
189	0x3ce0134b	0.02735295
190	0xbd3cbde6	-0.04607954
191	0xbd9e9b08	-0.077444136
192	0x3e28ea87	0.16495715
193	0x3e62cd02	0.22148517
194	0xbcd50ca9	-0.026007013
195	0xbd6cca18	-0.05780992
196	0x3b76eb80	0.003767699
197	0xbc7c95f0	-0.015416607
198	0x3d7e4138	0.062073916
199	0x3d942f64	0.072356015
200	0xbe70239f	-0.23451088
201	0xbdc324da	-0.09528513
202	0x3e5ea7c6	0.21743688
203	0x3dcdfe48	0.10058266
204	0xbc526810	-0.012842193
205	0xbe1f67da	-0.1556696
206	0xbe21c234	-0.15796739
207	0xbe6cd63d	-0.231286
208	0xbdac5db8	-0.08416313
209	0x3db29334	0.08719483
210	0x3e28472d	0.16433401
211	0x3df38707	0.11890989
212	0xbe6a0472	-0.22853258
213	0xbe1f4dc7	-0.15557013
214	0xbd289f17	-0.041167345
215	0x3e7f6747	0.24941741
216	0x3d18fa40	0.037348032
217	0xbd88f65e	-0.06687616
218	0x3dd9f44d	0.106423
219	0xbdc9e68f	-0.09858429
220	0xbe2b8a88	-0.16752064
221	0x3e40896d	0.18802424
222	0xbdf096b9	-0.11747498
223	0xbd556dd2	-0.052106686
224	0xbe83b3d4	-0.25723135
225	0x3e30f3c6	0.17280492
226	0x3e4850b8	0.19562042
227	0x3dc0b790	0.09410012
228	0xbe385b35	-0.18003543
229	0xbe8278a8	-0.25482678
230	0xbe56bc92	-0.20970371
231	0x3e4528f0	0.19253898
232	0x3dfde030	0.12396276
233	0x3e5e7d78	0.2172755
234	0x3e0a8248	0.13526261
235	0x3d85d53c	0.06534812
236	0xbb25b480	-0.0025284588
237	0xbe491312	-0.19636181
238	0xbe6286e0	-0.22121763
239	0xbe774d58	-0.24150598
240	0x3dd87790	0.1056968
241	0xbe01cf4f	-0.12676738
242	0xbd54d75c	-0.051963195
243	0xbe18293e	-0.14859483
244	0xbd40b76c	-0.047049925
245	0xbe3a1744	-0.18172938
246	0xbe2cc2a1	-0.1687112
247	0x3daf67e4	0.085647374
248	0xbd9d27a6	-0.07673578
249	0x3e23390e	0.15939733
250	0xbda9a412	-0.08283247
251	0xbe41f3b6	-0.18940625
252	0xbd3a9948	-0.045556337
253	0xbe002a45	-0.12516125
254	0xbda1c77e	-0.07899378
255	0xbe7b5476	-0.24543938

layer_1.bias f4 [400]
0	0xbe184b12	-0.14872387
1	0xbd6cfcbc	-0.057858214
2	0x3e6e2b28	0.2325865
3	0xbe3a0180	-0.18164635
4	0xbe490e5a	-0.19634381
5	0xbe573c0e	-0.21019003
6	0x3e775a2c	0.24155492
7	0xbd073970	-0.03301376
8	0xbd8cb0a6	-0.068696305
9	0x3e10fa97	0.14158092
10	0xbe1c37ca	-0.15255657
11	0xbd8bc032	-0.06823768
12	0x3e724d68	0.2366234
13	0x3e0cd222	0.13752034
14	0xbe4d200f	-0.2003176
15	0xbd9155a2	-0.07096411
16	0x3ccfb570	0.02535507
17	0x3dbf173e	0.09330605
18	0xbdf347b8	-0.11878914
19	0x3e3920aa	0.18078867
20	0x3b8402d3	0.004028657
21	0xbe649a3d	-0.22324462
22	0x3d8db1cc	0.06918678
23	0xbe805504	-0.25064862
24	0x3c93330a	0.017968673
25	0xbe82c123	-0.25537977
26	0xbd96d5be	-0.07364987
27	0xbd75c9b0	-0.060006797
28	0xbe6d84e7	-0.2319523
29	0xbd9591c8	-0.07303196
30	0x3c0e5b4e	0.008688761
31	0xbe14f909	-0.14548124
32	0x3d1615d0	0.036641896
33	0x3e0b9e2c	0.13634557
34	0x3cf9a220	0.030472815
35	0xbe81c4bf	-0.25345418
36	0xba608541	-0.0008564778
37	0xbdf7d345	-0.12100843
38	0x3d96ba2c	0.07359728
39	0xbe5421be	-0.20715997
40	0xbe36e443	-0.17860512
41	0xbc0c6f80	-0.008571506
42	0x3e18763e	0.14888856
43	0xbd8d54b3	-0.06900921
44	0xbc5eec4e	-0.013606144
45	0xbcd166d0	-0.02556172
46	0xbe4ee2e5	-0.20203741
47	0xbca758c0	-0.020428061
48	0xbbedfd6d	-0.0072628767
49	0x3d2f0d66	0.042737387
50	0x3decaca8	0.11556369
51	0x3d9d7ee5	0.07690219
52	0x3e13721e	0.14399001
53	0xbd499df4	-0.0492229
54	0xbde46ec2	-0.11153938
55	0x3e6091fe	0.21930692
56	0x3e52cf18	0.20586812
57	0x3e102ba5	0.14079149
58	0x3e409a4a	0.18808857
59	0x3e017e56	0.1264585
60	0x3e69b59d	0.22823186
61	0x3e65ff56	0.22460684
62	0xbe56f85e	-0.20993182
63	0xbe79286e	-0.24331829
64	0xbe092d1a	-0.13396111
65	0x3e4a2330	0.19739985
66	0x3e6eba92	0.23313358
67	0x3c8a1f05	0.016860494
68	0xbe437cea	-0.1909062
69	0xbdf887f8	-0.12135309
70	0x3dfb67f9	0.122756906
71	0x3e7641ac	0.2404849
72	0x3d4ceba4	0.050029412
73	0xbe2de2b7	-0.16981016
74	0x3e7ad9f6	0.24497208
75	0x3e682a58	0.22672403
76	0xbde7fa60	-0.11327052
77	0xbe0ed249	-0.13947405
78	0x3e1801ed	0.14844485
79	0xbe3f0f94	-0.18658286
80	0x3e5cb22e	0.21552345
81	0xbd557d70	-0.05212158
82	0xbb664d80	-0.0035141408
83	0xbe0d3fc7	-0.1379386
84	0xbe82b2c1	-0.25527003
85	0x3d6f45e8	0.058416277
86	0xbdbc55ed	-0.091960765
87	0xbe1b036b	-0.15138023
88	0x3e52c0c2	0.20581344
89	0x3d441cc0	0.04787898
90	0xbd8dc932	-0.069231406
91	0xbe73d1ac	-0.23810452
92	0xbe14d69a	-0.14534989
93	0xbdac9c6a	-0.08428271
94	0x3dde4a6c	0.108540386
95	0xbe710104	-0.23535544
96	0x3e18b2e2	0.14911988
97	0x3e707f92	0.23486164
98	0x3da39c30	0.07988775
99	0xbe83417b	-0.25635895
100	0x3d09f9e8	0.033685595
101	0xbdd57452	-0.10422577
102	0x3da74520	0.081674814
103	0xbc1e2130	-0.009651467
104	0x3e015d3a	0.1263322
105	0xbcac16e0	-0.021007001
106	0x3d3ec288	0.04657224
107	0x3dd2a5d1	0.10285533
108	0xbe43e3d5	-0.1912988
109	0x3d304b7c	0.043040738
110	0x3e6b9b6e	0.2300851
111	0x3e389df6	0.18029007
112	0x3c83c907	0.016087068
113	0xbd39fa20	-0.045404553
114	0x3ddaa600	0.10676193
115	0xbe688050	-0.22705197
116	0xbd9f4080	-0.07775974
117	0x3e655416	0.22395357
118	0x3d0823f1	0.0332374
119	0xbb5aea00	-0.0033403635
120	0xbe501c08	-0.20323193
121	0xbe2b5cb4	-0.16734582
122	0x3d1242a0	0.03570807
123	0xbe46c16e	-0.19409725
124	0xbd98e071	-0.07464684
125	0xbe023fa9	-0.12719597
126	0x3da2f604	0.0795708
127	0x3d219070	0.039444387
128	0xbe7f4859	-0.24929942
129	0x3dae9643	0.08524754
130	0xbcbebf34	-0.023284532
131	0xbe001348	-0.12507355
132	0x3e42c592	0.1902068
133	0xbe2e0fcc	-0.16998214
134	0xbe7129ec	-0.23551148
135	0x3ce67ce4	0.028135724
136	0xbe0f805f	-0.14013813
137	0xbdd6bd38	-0.10485309
138	0xbe6739fa	-0.2258071
139	0xbd836b0e	-0.064169034
140	0x3e521762	0.20516732
141	0xbe6fe3d6	-0.23426756
142	0xbe32cf60	-0.1746192
143	0xbd674e9d	-0.056471456
144	0xbe513f2b	-0.20434253
145	0x3d45f718	0.04833135
146	0xbd522954	-0.051308945
147	0x3e4802cb	0.19532315
148	0xbe83620a	-0.25660735
149	0x3c0dc8d3	0.008653837
150	0x3de93602	0.11387254
151	0x3d094a20	0.033517957
152	0xbd9001a4	-0.07031563
153	0x3e77f446	0.24214277
154	0xbe4d3b24	-0.20042092
155	0x3e764184	0.2404843
156	0x3d8ffbf8	0.07030481
157	0x3dfbc91d	0.12294219
158	0x3e3a6281	0.18201639
159	0x3cd282e0	0.025697172
160	0x3ce04880	0.02737832
161	0xbd5671ac	-0.0523545
162	0xbe6fd958	-0.23422754
163	0x3ddec118	0.108766735
164	0x3e45be6c	0.19310921
165	0x3ddd1930	0.1079582
166	0xbd2504cc	-0.040287778
167	0xbe6cad2f	-0.2311294
168	0xbb8b98f7	-0.004260178
169	0x3d898572	0.06714906
170	0xbe4ef216	-0.20209536
171	0x3e60d774	0.21957189
172	0xbbdecc80	-0.0067992806
173	0x3d906d0c	0.07052049
174	0x3e6941e5	0.22779043
175	0x3de58fa9	0.112090416
176	0xbe0f40f5	-0.13989623
177	0x3dc3014c	0.09521732
178	0x3e1b7622	0.15181783
179	0x3e03eb28	0.12882674
180	0xbdf86232	-0.12128104
181	0x3cd6e9c4	0.026234515
182	0xbe3df950	-0.18552136
183	0xbced6fa4	-0.028983898
184	0xbe377829	-0.17916931
185	0x3e17253c	0.14760298
186	0x3e815861	0.2526274
187	0xbe80093f	-0.25007054
188	0xbdf71a7d	-0.12065599
189	0xbddfa400	-0.109199524
190	0xbe3925f0	-0.18080878
191	0x3e709615	0.23494752
192	0xbe4c3df9	-0.19945516
193	0xbe0a3a60	-0.13498831
194	0xbe5ba45c	-0.21449417
195	0xba609000	-0.00085663795
196	0xbe43b400	-0.19111633
197	0xbe321995	-0.17392571
198	0x3e8374d3	0.25675067
199	0x3dec4ba0	0.11537862
200	0x3de0562c	0.10953936
201	0x3e3b822a	0.18311372
202	0x3d36bd50	0.044614136
203	0x3d2bb8ed	0.041924406
204	0xbe469550	-0.19392896
205	0x3d949ad1	0.072560914
206	0xbe4e8972	-0.20169619
207	0xba933f00	-0.0011233985
208	0xbe0eadbc	-0.13933462
209	0xbe15dd3c	-0.14635175
210	0xbe1aceb5	-0.15117915
211	0xbe000053	-0.12500124
212	0xbe1d3f4f	-0.15356182
213	0xbe109837	-0.14120565
214	0xbdc098ff	-0.09404182
215	0xbe7194af	-0.23591875
216	0x3e53a27d	0.20667453
217	0x3db1b9af	0.086779945
218	0xbe837dd7	-0.25681946
219	0xbe8421f3	-0.2580715
220	0xbe05277b	-0.13003342
221	0x3dcc0f66	0.099638745
222	0x3e720291	0.23633792
223	0xbd24c621	-0.040228013
224	0x3e1d53f3	0.15364055
225	0xbe0e9ad8	-0.13926256
226	0xbd5b8e04	-0.053602234
227	0xbd23f394	-0.040027216
228	0xbe80b4d3	-0.25137958
229	0x3ab08f00	0.0013470352
230	0x3d8c00a9	0.068360634
231	0x3e2128e6	0.15738258
232	0xbe4c9357	-0.1997808
233	0xbd9f377c	-0.07774255
234	0x3c1f9720	0.009740621
235	0x3ce05fe0	0.027389467
236	0x3d325bd0	0.04354459
237	0xbe446503	-0.19179158
238	0x3e4d3374	0.20039159
239	0xbe6ee81d	-0.23330732
240	0xbdb7933c	-0.089636296
241	0x3e03c160	0.12866735
242	0xbd83e154	-0.06439462
243	0xbdfed744	-0.124434024
244	0xbe826b06	-0.25472277
245	0x3e3619e4	0.17783314
246	0xbbbd8461	-0.005783603
247	0x3dff6cab	0.12471899
248	0x3d28bf43	0.041198026
249	0xbe449fe6	-0.19201621
250	0xbdbad886	-0.0912333
251	0x3e3c85c2	0.184104
252	0xbe0179f1	-0.12644173
253	0xbdf3a411	-0.118965276
254	0x3e10f94f	0.14157604
255	0xbde52ce7	-0.11190205

ln1.weight f4 [400]
0	0x3f7fdf9d	0.9995058
1	0x3f7fee13	0.9997265
2	0x3f7fe22a	0.99954474
3	0x3f7fdfd0	0.99950886
4	0x3f7fedb8	0.99972105
5	0x3f8013bd	1.0006024
6	0x3f7fddd0	0.99947834
7	0x3f8005fe	1.0001829
8	0x3f7ff16b	0.9997775
9	0x3f800f9c	1.0004764
10	0x3f800ff9	1.0004874
11	0x3f801198	1.0005369
12	0x3f7fe493	0.9995815
13	0x3f7fe98a	0.9996573
14	0x3f7fe8e8	0.9996476
15	0x3f7fdaec	0.99943423
16	0x3f7fe03e	0.9995154
17	0x3f800e05	1.0004278
18	0x3f800ed9	1.0004531
19	0x3f800f7d	1.0004727
20	0x3f7fd8bc	0.99940085
21	0x3f7fea1a	0.99966586
22	0x3f800f0c	1.0004592
23	0x3f7ffb08	0.9999242
24	0x3f801074	1.0005021
25	0x3f7fdc66	0.99945676
26	0x3f7ffe15	0.99997073
27	0x3f801145	1.000527
28	0x3f800fd6	1.0004833
29	0x3f800eaf	1.0004481
30	0x3f7fda5c	0.99942565
31	0x3f7fe143	0.999531
32	0x3f7fe27a	0.9995495
33	0x3f7fd8f5	0.99940425
34	0x3f7fe045	0.99951583
35	0x3f7fe89f	0.99964327
36	0x3f800e3b	1.0004343
37	0x3f7ff442	0.9998208
38	0x3f801004	1.0004888
39	0x3f800936	1.0002811
40	0x3f800ede	1.0004537
41	0x3f7fd78c	0.99938273
42	0x3f800a43	1.0003132
43	0x3f7fe690	0.99961185
44	0x3f7fec10	0.9996958
45	0x3f800b76	1.0003498
46	0x3f7fe3db	0.99957055
47	0x3f7fe253	0.9995472
48	0x3f801f57	1.0009564
49	0x3f8000ea	1.0000279
50	0x3f7fe013	0.99951285
51	0x3f801b32	1.0008299
52	0x3f7fd982	0.99941266
53	0x3f800e30	1.000433
54	0x3f7fd3de	0.9993266
55	0x3f800db5	1.0004183
56	0x3f800cdd	1.0003926
57	0x3f7fe325	0.9995597
58	0x3f800b3d	1.000343
59	0x3f7fdf3a	0.9994999
60	0x3f7fe785	0.99962646
61	0x3f7fe7f1	0.9996329
62	0x3f7fe4ac	0.999583
63	0x3f800f05	1.0004584
64	0x3f7fe12c	0.9995296
65	0x3f7fdd2c	0.99946856
66	0x3f7fe500	0.999588
67	0x3f800ba4	1.0003552
68	0x3f800710	1.0002155
69	0x3f7fd558	0.9993491
70	0x3f7fdbaf	0.99944586
71	0x3f7fe154	0.999532
72	0x3f800e27	1.0004319
73	0x3f7ff5a1	0.99984175
74	0x3f7fe8af	0.9996442
75	0x3f800cf6	1.0003955
76	0x3f801615	1.0006739
77	0x3f7fe114	0.99952817
78	0x3f80046e	1.0001352
79	0x3f7fe4b8	0.9995837
80	0x3f8011ca	1.0005429
81	0x3f7fe5fd	0.9996031
82	0x3f7ff485	0.9998248
83	0x3f7fdb80	0.99944305
84	0x3f7fe30d	0.99955827
85	0x3f80145a	1.0006211
86	0x3f800d5d	1.0004078
87	0x3f801332	1.0005858
88	0x3f800ff0	1.0004864
89	0x3f7fe62c	0.9996059
90	0x3f7fe405	0.99957305
91	0x3f7fc8c3	0.99915713
92	0x3f800e8a	1.0004437
93	0x3f800d8b	1.0004133
94	0x3f800be1	1.0003625
95	0x3f7fdf11	0.9994975
96	0x3f800e36	1.0004337
97	0x3f7fe333	0.99956053
98	0x3f7fea23	0.9996664
99	0x3f7fea5f	0.99966997
100	0x3f800c53	1.0003761
101	0x3f7fded0	0.9994936
102	0x3f7ff93e	0.9998969
103	0x3f800ed2	1.0004523
104	0x3f80105f	1.0004996
105	0x3f800cfd	1.0003964
106	0x3f801017	1.000491
107	0x3f8013d2	1.0006049
108	0x3f800ecf	1.0004519
109	0x3f800c8d	1.000383
110	0x3f8013b4	1.0006013
111	0x3f800f26	1.0004623
112	0x3f801058	1.0004988
113	0x3f800762	1.0002253
114	0x3f800cb6	1.0003879
115	0x3f7fe31d	0.9995592
116	0x3f800eb2	1.0004485
117	0x3f7fddfc	0.99948096
118	0x3f7fe780	0.99962616
119	0x3f7fde60	0.9994869
120	0x3f801079	1.0005027
121	0x3f7fbceb	0.9989764
122	0x3f801bbb	1.0008463
123	0x3f7fd932	0.9994079
124	0x3f800def	1.0004252
125	0x3f8009c4	1.000298
126	0x3f7fd645	0.99936324
127	0x3f80192b	1.0007681
128	0x3f7fe1a6	0.9995369
129	0x3f800f31	1.0004636
130	0x3f7ff16e	0.9997777
131	0x3f800de2	1.0004237
132	0x3f7fe634	0.9996064
133	0x3f7ff89b	0.99988717
134	0x3f801d2a	1.00089
135	0x3f7fdc28	0.99945307
136	0x3f800495	1.0001398
137	0x3f80090a	1.0002759
138	0x3f801764	1.0007138
139	0x3f7fb734	0.9988892
140	0x3f800ff8	1.0004873
141	0x3f7ff5a9	0.9998422
142	0x3f7fe366	0.9995636
143	0x3f7fe06d	0.9995182
144	0x3f8015c8	1.0006647
145	0x3f7fe875	0.99964076
146	0x3f800876	1.0002582
147	0x3f7ffb70	0.9999304
148	0x3f7fe136	0.9995302
149	0x3f7fe767	0.99962467
150	0x3f80138b	1.0005964
151	0x3f8016c5	1.0006949
152	0x3f801613	1.0006737
153	0x3f7fe084	0.9995196
154	0x3f800323	1.0000957
155	0x3f8005db	1.0001787
156	0x3f800e7d	1.0004421
157	0x3f8018f9	1.0007621
158	0x3f800e37	1.0004338
159	0x3f7fedbb	0.9997212
160	0x3f7fed2a	0.9997126
161	0x3f7fee55	0.9997304
162	0x3f7ffa0a	0.99990904
163	0x3f800eb8	1.0004492
164	0x3f7febf2	0.999694
165	0x3f8011cd	1.0005432
166	0x3f801071	1.0005018
167	0x3f7fda56	0.9994253
168	0x3f801b1a	1.0008271
169	0x3f800f6e	1.0004709
170	0x3f7fe205	0.99954253
171	0x3f7fe788	0.99962664
172	0x3f7fe338	0.99956083
173	0x3f80105d	1.0004994
174	0x3f7fe067	0.99951786
175	0x3f8003bb	1.0001138
176	0x3f800dd0	1.0004215
177	0x3f7fe4b6	0.9995836
178	0x3f801365	1.0005919
179	0x3f800f7d	1.0004727
180	0x3f7fdf5b	0.9995019
181	0x3f7fd7ed	0.9993885
182	0x3f7fe1b4	0.9995377
183	0x3f800f87	1.0004739
184	0x3f800f0e	1.0004594
185	0x3f800e77	1.0004414
186	0x3f80092e	1.0002801
187	0x3f80113d	1.0005261
188	0x3f800f87	1.0004739
189	0x3f800f4a	1.0004666
190	0x3f7fe43f	0.9995765
191	0x3f800fc7	1.0004815
192	0x3f7fea0e	0.99966514
193	0x3f7ffa2e	0.9999112
194	0x3f801da3	1.0009044
195	0x3f80152c	1.0006461
196	0x3f80222d	1.001043
197	0x3f7fdfc4	0.99950814
198	0x3f7fe138	0.9995303
199	0x3f800a7d	1.0003201
200	0x3f8029ae	1.001272
201	0x3f7fe8e8	0.9996476
202	0x3f80101b	1.0004915
203	0x3f80128d	1.0005661
204	0x3f7fdebf	0.9994926
205	0x3f7fe1b2	0.9995376
206	0x3f8011bc	1.0005412
207	0x3f801117	1.0005215
208	0x3f801075	1.0005022
209	0x3f800d69	1.0004092
210	0x3f7febe6	0.9996933
211	0x3f7fd558	0.9993491
212	0x3f801407	1.0006112
213	0x3f800e52	1.000437
214	0x3f800da8	1.0004168
215	0x3f800ff1	1.0004865
216	0x3f802238	1.0010443
217	0x3f7fe338	0.99956083
218	0x3f7fe47e	0.99958026
219	0x3f8014c0	1.0006332
220	0x3f80145e	1.0006216
221	0x3f800f45	1.000466
222	0x3f80116e	1.0005319
223	0x3f7fdb49	0.9994398
224	0x3f800b00	1.0003357
225	0x3f80073c	1.0002208
226	0x3f800cd5	1.0003916
227	0x3f80169c	1.00069
228	0x3f800ad0	1.00033
229	0x3f7fdb53	0.9994404
230	0x3f7fe3c0	0.99956894
231	0x3f800f9f	1.0004767
232	0x3f7fe3f1	0.99957186
233	0x3f8005d7	1.0001782
234	0x3f801288	1.0005655
235	0x3f800def	1.0004252
236	0x3f800ac6	1.0003288
237	0x3f800d1d	1.0004002
238	0x3f7ff8bd	0.9998892
239	0x3f800fa2	1.0004771
240	0x3f800def	1.0004252
241	0x3f800222	1.0000651
242	0x3f7fe0e0	0.99952507
243	0x3f7fe48f	0.9995813
244	0x3f80127e	1.0005643
245	0x3f7fce88	0.99924517
246	0x3f800c57	1.0003766
247	0x3f7ff054	0.99976087
248	0x3f800b02	1.0003359
249	0x3f80085d	1.0002552
250	0x3f8003d4	1.0001168
251	0x3f80168f	1.0006884
252	0x3f7fdef5	0.9994958
253	0x3f7ff4cb	0.999829
254	0x3f7fea1f	0.99966615
255	0x3f7ff551	0.999837

ln1.bias f4 [400]
0	0x3a06bace	0.00051395304
1	0x39937e89	0.000281323
2	0xb9edcab2	-0.00045355182
3	0x3a013cb8	0.0004930007
4	0x39919f93	0.00027775447
5	0xba1ed100	-0.0006058365
6	0x3a08630e	0.00052027486
7	0x39388787	0.00017598095
8	0x396d13fc	0.00022609526
9	0x39f23fcb	0.00046205366
10	0xb9fbb8d5	-0.0004801216
11	0xba11ee1f	-0.0005566794
12	0xb9dc4fb5	-0.00042021056
13	0x39b6c47b	0.00034860134
14	0xb9bc2194	-0.00035883172
15	0x3a1414d1	0.0005648854
16	0x39fe1c95	0.0004846795
17	0x39de1003	0.0004235507
18	0xb9e648b6	-0.00043923192
19	0xb9f17f0b	-0.00046061756
20	0xba1f3ad8	-0.0006074137
21	0x39acb910	0.0003294428
22	0xb9eeb422	-0.00045529107
23	0xb8a14666	-7.690191e-05
24	0xba05c171	-0.00051023724
25	0xba0db15d	-0.00054051523
26	0x37b138b7	2.1126454e-05
27	0xba0dc548	-0.00054081203
28	0xb9ff6a95	-0.000487168
29	0xb9e3b729	-0.0004343328
30	0x3a1eba6f	0.00060550025
31	0xb9f9200d	-0.0004751686
32	0x39e84178	0.00044299266
33	0x3a1ce0d0	0.00059844274
34	0x39fe7db3	0.00048540308
35	0xb9bdd640	-0.00036208518
36	0xb9e004f1	-0.0004272829
37	0xb9395537	-0.0001767472
38	0xb9ffe267	-0.00048806073
39	0x3996d59d	0.00028769384
40	0xb9f5030b	-0.0004673231
41	0x3a236e1c	0.0006234364
42	0xb9a34430	-0.00031140586
43	0xb9ccd06a	-0.00039065193
44	0x399bfd80	0.00029752776
45	0x39ae4f88	0.00033247122
46	0xb9df718a	-0.00042618468
47	0x39ed6c65	0.00045284923
48	0x3a77d564	0.00094541
49	0x37c855a8	2.3881745e-05
50	0x39fcc92c	0.0004821507
51	0x3a5bba9f	0.0008381996
52	0x3a19974c	0.0005859032
53	0xb9e22fe2	-0.00043141755
54	0x3a2dc904	0.000662938
55	0x39dfa7e0	0.0004265895
56	0xb9c142be	-0.00036861555
57	0x39efd15b	0.00045741614
58	0xb9b1bf8c	-0.00033902784
59	0x3a03f859	0.000503426
60	0xb9c3b88f	-0.00037330805
61	0x39bfd741	0.00036590736
62	0x39d7e4c3	0.00041178436
63	0xb9ed3a48	-0.00045247586
64	0xb9f30248	-0.0004635027
65	0xba0c71b3	-0.00053575187
66	0x39d8ab9e	0.00041326595
67	0x39a93132	0.00032270845
68	0xb95eea22	-0.00021258791
69	0x3a2b9fa9	0.00065469235
70	0x3a11d742	0.0005563387
71	0xb9f61a0e	-0.0004694019
72	0x39db2f3a	0.00041806122
73	0x39263d1c	0.00015853759
74	0xb9c00e7c	-0.00036631885
75	0xb9bf8522	-0.0003652955
76	0xba2bbd19	-0.000655131
77	0x39f7f540	0.00047294237
78	0x39174999	0.000144279
79	0x39d96be8	0.00041469862
80	0xba0c5b53	-0.00053541845
81	0x39cf8adf	0.00039585584
82	0x3938bd33	0.0001761809
83	0x3a10be16	0.0005521489
84	0xb9e4ebc6	-0.00043663214
85	0xba1e7036	-0.00060439424
86	0x39d11af1	0.0003988366
87	0x3a13ea9a	0.00056425633
88	0xb9fd1e37	-0.00048278432
89	0x39d02788	0.00039702305
90	0x39e1ba5b	0.0004305419
91	0x3a5c4035	0.00084019016
92	0xb9edb4fb	-0.00045339004
93	0xb9dadf53	-0.0004174659
94	0xb9c89114	-0.00038255064
95	0xba045b42	-0.0005048999
96	0xb9e6ebc6	-0.00044044683
97	0x39e76bf0	0.00044140173
98	0xb9ae958d	-0.0003329929
99	0x39aa79ec	0.00032515766
100	0xb9c5d34d	-0.000377322
101	0xba053f58	-0.00050829863
102	0x3901616b	0.0001233869
103	0xb9ef77fa	-0.00045675022
104	0xba0617c8	-0.0005115238
105	0xb9cb832e	-0.00038816914
106	0xba01738a	-0.0004938176
107	0xba1d2220	-0.000599416
108	0xb9e52c3a	-0.00043711235
109	0xb9c076ee	-0.00036709703
110	0xba1efbc3	-0.0006064737
111	0xb9f005aa	-0.00045780587
112	0x3a017b23	0.0004939308
113	0xb94d95e2	-0.00019606159
114	0xb9cbabfc	-0.00038847316
115	0x39e54516	0.00043729757
116	0x39e99aec	0.0004455665
117	0x3a07caba	0.000518005
118	0x39c55045	0.00037634574
119	0x3a064021	0.000512125
120	0xba03dc54	-0.0005030085
121	0x3a861352	0.0010229147
122	0xba59724b	-0.0008294924
123	0xba1a9448	-0.00058967294
124	0x39d7f1a1	0.00041188023
125	0xb9a61f00	-0.00031685084
126	0x3a27e462	0.0006404576
127	0xba484b30	-0.00076405983
128	0x39f0ca55	0.00045927116
129	0x39f14684	0.0004601964
130	0xb9658dc7	-0.00021891958
131	0x39d44a2e	0.0004049106
132	0x39d09af7	0.0003978831
133	0x38dc9e9a	0.00010519959
134	0xba6903f3	-0.0008888833
135	0xba0d628d	-0.00053934084
136	0xb917c21f	-0.00014472798
137	0xb992ca81	-0.00027998167
138	0xba39c0f4	-0.0007085942
139	0xba942628	-0.0011302875
140	0x3a00e9f8	0.00049176766
141	0xb924c0e9	-0.00015712123
142	0xb9e74c37	-0.00044116538
143	0x39fe9a5d	0.00048561665
144	0xba2b99f7	-0.0006546075
145	0x39b853be	0.00035157608
146	0xb977338e	-0.00023574961
147	0x38a1bd77	7.712369e-05
148	0x39f238fe	0.000462003
149	0x39c4c5b1	0.00037531325
150	0x3a19e26f	0.0005870228
151	0xba33c315	-0.00068573776
152	0xba2e80c9	-0.0006656764
153	0x39fc16c8	0.0004808216
154	0xb8dff722	-0.00010679501
155	0xb95f17fd	-0.00021275874
156	0x39f420f2	0.00046563853
157	0xba48e3a3	-0.0007663315
158	0xb9dc3ffb	-0.0004200934
159	0x399473ed	0.0002831513
160	0x399a831b	0.0002947085
161	0x398b9a1c	0.00026626966
162	0xb8da8a20	-0.00010420778
163	0xb9e747e6	-0.00044113322
164	0x399f16fe	0.00030343974
165	0xba111ad7	-0.00055353105
166	0xba05630d	-0.0005088307
167	0x3a1813f8	0.00058013154
168	0x3a5cf2a1	0.00084284885
169	0x39f6ce8d	0.0004707467
170	0x39ee2572	0.00045422796
171	0x39c3b96f	0.00037331457
172	0x39e5d53a	0.0004383715
173	0xba03d9ea	-0.0005029725
174	0x39ff2d1f	0.00048671008
175	0x38fc33e5	0.000120259625
176	0x39d53384	0.00040664908
177	0x39d59c61	0.00040743037
178	0xba1782d7	-0.00057796895
179	0x39f71eb7	0.00047134396
180	0x3a03a489	0.0005021771
181	0x3a221485	0.0006182867
182	0x39f2ff8d	0.00046348237
183	0x39f7f66b	0.00047295107
184	0xb9f48188	-0.00046635815
185	0xb9f0396b	-0.00045819147
186	0xb9898c87	-0.00026235377
187	0xba0d9f1e	-0.00054024335
188	0xb9f39174	-0.00046456943
189	0x39f894d4	0.00047413132
190	0xb9e0a02c	-0.00042843947
191	0x3a01d306	0.00049524044
192	0xb9ac8408	-0.00032904767
193	0x38b5067c	8.6319604e-05
194	0x3a69a559	0.00089128833
195	0xba26cdc2	-0.0006363058
196	0xba88f26e	-0.0010448226
197	0x3a01f753	0.00049578137
198	0x39f80b97	0.0004731088
199	0xb9948351	-0.00028326598
200	0xbaa4be92	-0.0012569001
201	0x39b86d4d	0.0003517665
202	0xba01ecc2	-0.0004956239
203	0x3a16ee8a	0.0005757591
204	0x3a0536b2	0.00050816976
205	0x39f4ce8b	0.00046693193
206	0x39f56ca2	0.0004681098
207	0xba086c1b	-0.0005204097
208	0xba04bee0	-0.0005063843
209	0xb9d36bf0	-0.00040325476
210	0xb9a1b4b6	-0.00030842953
211	0xba2af23e	-0.0006521082
212	0xba1b72bf	-0.0005929879
213	0xb9f1be81	-0.00046109039
214	0x39db40c2	0.00041819183
215	0xb9fff92d	-0.0004882304
216	0x3a884d3e	0.0010398997
217	0x39e3ce4a	0.0004345051
218	0x39ddf869	0.00042337485
219	0xba23942a	-0.00062400347
220	0xba24a50d	-0.0006280698
221	0x39fc0f60	0.0004807664
222	0x3a0cc172	0.0005369402
223	0xba122b70	-0.00055759307
224	0x39b2ac72	0.00034079287
225	0x396b4975	0.00022438711
226	0xb9c0851f	-0.00036720277
227	0xba2fe4ee	-0.00067098334
228	0xb9b54da5	-0.0003458086
229	0x3a120471	0.000557012
230	0x39dfc07a	0.0004267728
231	0x39f865db	0.00047378134
232	0xb9df7faf	-0.00042629006
233	0xb92e0ed3	-0.00016599456
234	0xba17d4e3	-0.00057919155
235	0xb9dca006	-0.00042080897
236	0xb9b48e29	-0.00034438193
237	0x39de4e75	0.00042401595
238	0xb8c99ca4	-9.6136035e-05
239	0x39f11c80	0.00045988336
240	0xb9d467f2	-0.00040513236
241	0xb8a1eeda	-7.721568e-05
242	0x39fa122e	0.0004769726
243	0xb9dd6c8f	-0.00042233287
244	0xba102a45	-0.0005499463
245	0x3a460042	0.0007553139
246	0x39bf8391	0.00036528383
247	0x3971f997	0.0002307653
248	0x39b28ac7	0.00034054203
249	0xb9917ae8	-0.00027748127
250	0x38ed22ae	0.000113075
251	0xba354a3b	-0.0006915663
252	0x3a0273dd	0.00049763714
253	0xb92ceda6	-0.00016491729
254	0xb9b59aef	-0.00034638445
255	0xb93a126d	-0.00017745206

layer_2.weight f4 [300, 400]
0	0x3c89443e	0.016756173
1	0xbcf939b3	-0.030423021
2	0x3cf376f2	0.029719803
3	0xbc92faab	-0.017941793
4	0x3c5b00b6	0.013366869
5	0x3b5ff197	0.0034171098
6	0x3d143329	0.036181603
7	0xbc3eb6d8	-0.011640273
8	0xbca28f4b	-0.019843718
9	0xbc2af672	-0.010434734
10	0x3a730881	0.00092709815
11	0xbcbd6c8f	-0.023123054
12	0x3d0ad4c4	0.033894315
13	0xbcd7bbab	-0.026334604
14	0x3bf3b9c1	0.007437915
15	0xbd1b4e32	-0.03791637
16	0xbbbbf6ab	-0.005736192
17	0xbc3844db	-0.011246885
18	0xbc9ffe25	-0.019530365
19	0x3cd9fe82	0.026610617
20	0xbd38cca8	-0.04511705
21	0x3bbb52e2	0.0057166675
22	0xbb89c7cf	-0.0042047272
23	0xbcd8e90c	-0.026478313
24	0x3d214632	0.039373584
25	0x3cfd453e	0.030916806
26	0x3c7f4b4a	0.015581915
27	0x3abd71c9	0.0014453466
28	0x3ce6ea99	0.028188037
29	0xbcb00c39	-0.021490203
30	0xbd24d043	-0.040237676
31	0x3d4297ac	0.047507927
32	0xbc957623	-0.018244809
33	0x3c2c0fc0	0.010501802
34	0x3ac0c7fd	0.0014708039
35	0x3d2a8075	0.041626412
36	0x3d4da64c	0.05020742
37	0xbd0bb8aa	-0.034111656
38	0xb87e34e6	-6.0607585e-05
39	0xbd27f975	-0.041009385
40	0x3d063629	0.032766495
41	0x3d457967	0.04821148
42	0xbc98b251	-0.018639715
43	0x3c0cbe26	0.008590257
44	0xbc2ca993	-0.0105384765
45	0xbc4e3657	-0.012586198
46	0x3d20afc7	0.039230134
47	0xbd3c5991	-0.045983855
48	0xbbeffb63	-0.007323669
49	0xba31c6f1	-0.0006781659
50	0xbd32b14e	-0.043626122
51	0x3ca48533	0.020083046
52	0x3d0a8218	0.033815473
53	0xbd20bf94	-0.039245203
54	0x3ca259a9	0.019818144
55	0xbb73032c	-0.0037080748
56	0x3d41cf99	0.04731712
57	0xbd3f3032	-0.046676822
58	0x3d2fcf04	0.042922035
59	0xbc944c57	-0.018102808
60	0x3d2ab8a4	0.041679993
61	0xbccd11cf	-0.025032906
62	0x3c127d7a	0.008941049
63	0x3c46d84c	0.01213653
64	0x3cfa3e4e	0.030547287
65	0x3cbc236e	0.022966113
66	0x3ce8c7f5	0.02841566
67	0xbc345775	-0.0110071795
68	0xbd201881	-0.03908587
69	0x3a89fe04	0.0010527973
70	0x3d3cbaa0	0.046076417
71	0x3d2f3827	0.04277816
72	0xbcf4e22c	-0.029893003
73	0x3d0ed1c5	0.03486802
74	0x3cb46385	0.02202011
75	0xbc0c7de8	-0.00857494
76	0x3ce37374	0.027765013
77	0xbad3f9a9	-0.0016172427
78	0x3bb7fbb9	0.0056147245
79	0xbd044316	-0.03229054
80	0xbbba4722	-0.005684749
81	0x3d4a6aae	0.049418144
82	0x3d00cef6	0.031447373
83	0xbd23942c	-0.03993623
84	0xbb5887be	-0.0033039893
85	0x3d046420	0.03232205
86	0xbcb3289c	-0.02186995
87	0xbbdccd1f	-0.0067383195
88	0x3cd02e31	0.02541265
89	0x3d2e0f21	0.042494897
90	0x3d3bbedf	0.045836326
91	0xbd12091b	-0.035653215
92	0xbd3f0a70	-0.046640813
93	0x3d12ab79	0.03580806
94	0xbb5ed544	-0.0034001628
95	0x3d36f86f	0.04467052
96	0x3d134dfb	0.03596304
97	0xbc9c0984	-0.019047506
98	0x3c62fe71	0.013854609
99	0x3c8dac81	0.01729417
100	0xbc8ebb70	-0.017423362
101	0x3d36133e	0.044451945
102	0x3b95ebd9	0.0045752344
103	0xbc820037	-0.015869243
104	0xbd3920ce	-0.0451973
105	0x3d25d791	0.040488783
106	0xbd4924b8	-0.049107283
107	0x3d1dd45a	0.038532592
108	0xbc8b952e	-0.017038908
109	0xbc0e3477	-0.008679501
110	0x3becd061	0.007226989
111	0x3d4b41cf	0.049623307
112	0xbd08c1a3	-0.03338779
113	0xbd0f83a1	-0.03503764
114	0x3cfa1334	0.030526735
115	0xbcc3115e	-0.023811992
116	0xbc9a9e1f	-0.018874226
117	0x3cf0a858	0.029377148
118	0xbca5f0c1	-0.020256402
119	0x3cf7d73a	0.030253995
120	0xbc9be0b1	-0.01902804
121	0x3d1f776a	0.03893224
122	0x3d4df4df	0.050282355
123	0x3bd33170	0.0064451024
124	0xbc8c3c2b	-0.017118534
125	0x3cea47eb	0.028598746
126	0x3c6cb5c5	0.014447634
127	0x3a34d11a	0.00068976136
128	0x3d38a5dc	0.04508005
129	0xbb5c8b97	-0.0033652538
130	0x3c8c1ed7	0.01710455
131	0xbc7bba56	-0.01536425
132	0xbc0ce33b	-0.008599098
133	0xbadc2eb8	-0.0016798591
134	0x3b7b7657	0.0038370097
135	0x3caf43f1	0.021394702
136	0x3d1c6c09	0.038188968
137	0x3cfef854	0.031124271
138	0xbca860ae	-0.020553913
139	0x3d35a79e	0.044349305
140	0x3d086492	0.033299036
141	0x3c8fc903	0.017551905
142	0x3ba3ab66	0.0049947975
143	0xbce3f4ca	-0.027826685
144	0xbcf0984b	-0.029369494
145	0x3a3d8638	0.0007229778
146	0xbd166617	-0.036718454
147	0x3c938ce7	0.018011523
148	0xbd37f859	-0.044914577
149	0xbd34afb0	-0.04411286
150	0xbcbbde7e	-0.022933241
151	0x3cef8d3b	0.029242149
152	0x3d224b6e	0.039622717
153	0xbd2a3481	-0.041553978
154	0xbcfece2b	-0.031104168
155	0x3c3d7a5e	0.011564819
156	0xbc1d1ba8	-0.009589113
157	0xbd25e40f	-0.040500697
158	0x3c6b592a	0.01436452
159	0xbd28890c	-0.041146323
160	0x3b6c08b9	0.0036015941
161	0x3caad6e3	0.02085442
162	0x3d3af8e5	0.04564752
163	0xbd2cd906	-0.042199157
164	0x3d1adbbe	0.03780722
165	0x3bf378a1	0.0074301516
166	0x3d343f29	0.044005547
167	0x3d4b874f	0.049689587
168	0xbc541162	-0.0129435975
169	0xbc0756d2	-0.008260446
170	0xbc3e4b63	-0.011614653
171	0x3d230065	0.039795298
172	0xbcad812b	-0.021179756
173	0x3d09300b	0.033493083
174	0x3cac500d	0.021034265
175	0x3d3ea131	0.046540443
176	0x3d0f19d9	0.03493676
177	0x3d2824df	0.041050788
178	0xbd26667f	-0.04062509
179	0xbcdb7721	-0.026790204
180	0xbd0f6117	-0.0350047
181	0x3ccf395b	0.025295904
182	0x3c2e63af	0.010643884
183	0x3c983f80	0.018584967
184	0x3c9d9b55	0.019239107
185	0x3b29aabf	0.0025889126
186	0x3ca02dd4	0.019553103
187	0xbcda3927	-0.02663858
188	0x3d0705d6	0.03296455
189	0xbd324129	-0.043519173
190	0xbd3e1be4	-0.046413317
191	0x3c873432	0.01650438
192	0x3d3e5682	0.04646922
193	0xbc91fa30	-0.017819494
194	0x3d3ef89c	0.04662381
195	0xbc8d860b	-0.01727583
196	0xbd19ae5d	-0.0375198
197	0xbbef4284	-0.0073016305
198	0x3ce66569	0.028124528
199	0xbcd15444	-0.025552876
200	0x3d41fed2	0.047362156
201	0xbcb34e05	-0.021887789
202	0xbcb16e64	-0.021659084
203	0xbcae7905	-0.021297941
204	0xbd1a0ccf	-0.03760987
205	0x3d40f96c	0.047112867
206	0xbcec0b1c	-0.028813891
207	0xbcb46985	-0.022022972
208	0xbc707901	-0.014677287
209	0x3d2e560f	0.04256254
210	0x3cbb378b	0.022853633
211	0x3c92f334	0.017938234
212	0xbc4f9032	-0.012668656
213	0x3cd2dfb0	0.025741428
214	0x3c0cdad5	0.0085970955
215	0x3d251c05	0.040309925
216	0x3c2e09a0	0.010622412
217	0x3d183e9d	0.037169088
218	0x3d0f45a3	0.03497852
219	0x3c16e691	0.009210245
220	0xbd42512a	-0.047440685
221	0x3c1eeeaa	0.009700457
222	0xbd1c7704	-0.03819944
223	0x3c050420	0.008118659
224	0xbbc6fbc0	-0.0060724914
225	0x3d2103bf	0.039310213
226	0xbd110fa2	-0.0354153
227	0xbd294749	-0.04132775
228	0x3cba6ee1	0.02275795
229	0x3d092809	0.033485446
230	0xbc2a9f2b	-0.010413925
231	0x3c55f94b	0.013059924
232	0x3d226e72	0.03965611
233	0x3bb275bd	0.0054461644
234	0xbc5d38ae	-0.013502283
235	0x3cf0b45c	0.029382877
236	0x3d3a8392	0.04553563
237	0xbc12ccf7	-0.00896
238	0x3d09079d	0.033454526
239	0x3b724b46	0.0036971136
240	0xbc23c93d	-0.009996709
241	0xbb7f03d0	-0.0038912185
242	0xbd44e166	-0.04806652
243	0x3cc0a2a7	0.023515059
244	0xbcdb05f4	-0.026736237
245	0xbd2c7c6d	-0.04211085
246	0xbbf2a42f	-0.007404826
247	0xbca30742	-0.019900922
248	0xbd044a73	-0.032297563
249	0xbc24b89f	-0.010053783
250	0xbbbc6c1e	-0.0057501933
251	0x3c805cfb	0.015669337
252	0x3bf0081f	0.007325187
253	0xbbea63e9	-0.0071530235
254	0x3c2caf94	0.010539908
255	0xbd0672cb	-0.03282432

layer_2.bias f4 [300]
0	0xbccceea6	-0.02501614
1	0x3cb54049	0.02212538
2	0x3b0b0b20	0.0021216348
3	0x3d22013d	0.039551962
4	0xbd18d449	-0.037311826
5	0x3c2b1dcd	0.010444117
6	0xbd2c681a	-0.042091466
7	0xbd28d050	-0.041214287
8	0x3cc8d00a	0.024513263
9	0xbd3df8c8	-0.046379834
10	0x3d2b5a1c	0.041833982
11	0x3c52c674	0.012864698
12	0x3ceab3bb	0.028650155
13	0xbc72fea8	-0.014831223
14	0xbc3909c2	-0.01129383
15	0xba24ac00	-0.00062817335
16	0x3ca5b221	0.02022654
17	0x3b5a0c86	0.0033271625
18	0xbcdc28df	-0.026874958
19	0x3c4c7d98	0.012481116
20	0xbaca27c0	-0.0015423223
21	0x3c90d282	0.017678503
22	0xbd19a6ca	-0.037512578
23	0x3cf958d9	0.030437874
24	0x3caa4f2e	0.020789709
25	0x3bae9bdc	0.0053286385
26	0x3cb1ed2f	0.021719543
27	0xbd05f005	-0.032699604
28	0xbc9d4548	-0.019198075
29	0xbce62ff3	-0.028099036
30	0x3cc79450	0.024362713
31	0xbd328590	-0.043584406
32	0x3ca41f09	0.02003433
33	0x3d49acb4	0.04923697
34	0xbcdf710c	-0.027275585
35	0x3c4e4aab	0.012591044
36	0xbc61f177	-0.01379048
37	0xbc7170e0	-0.014736384
38	0xbce27f83	-0.027648693
39	0xbceb4db4	-0.028723575
40	0x3d2d5b23	0.042323243
41	0xbd0f1613	-0.03493316
42	0xbd099d81	-0.033597473
43	0x3cd9308f	0.026512412
44	0xbc17663d	-0.009240684
45	0x3b049df2	0.0020235744
46	0x3d05be13	0.032651972
47	0xbd4a7ebb	-0.049437266
48	0xbcc26bca	-0.023733038
49	0x3c9bfd17	0.019041581
50	0x3c9bccc6	0.019018542
51	0x3d4b5331	0.049639884
52	0xbc19e0c0	-0.0093919635
53	0xbd2dbbf2	-0.042415567
54	0xbc903466	-0.01760311
55	0xbd2148dc	-0.039376125
56	0xbd2e903b	-0.042618018
57	0xbd040fb1	-0.032241527
58	0xbc4da9a2	-0.012552651
59	0x3cea5696	0.02860574
60	0xbd006e44	-0.031355157
61	0xbd292cce	-0.041302495
62	0x3ca769c2	0.020436171
63	0x3d316eef	0.043318685
64	0x3d369b73	0.04458184
65	0xbcdac967	-0.026707364
66	0xbbf74368	-0.0075458772
67	0x3821d800	3.8586557e-05
68	0xbd01a378	-0.031650037
69	0x3d2f2630	0.042761028
70	0x3c0b0778	0.008485667
71	0xbcefa9f7	-0.02925585
72	0xbd2b948d	-0.041889716
73	0x3cdf2abc	0.027242057
74	0x3d397e45	0.045286436
75	0x3bb8d870	0.0056410357
76	0xbb94547e	-0.004526674
77	0xbb5c5430	-0.0033619516
78	0x3cf01b35	0.029309848
79	0xbd0ae5d6	-0.033910595
80	0x3ca6748e	0.02031925
81	0x3d027250	0.0318473
82	0xbcf96c7c	-0.030447237
83	0xbc982c78	-0.018575892
84	0xbcb1ba40	-0.021695256
85	0xbcf130fa	-0.0294423
86	0x3d254909	0.040352855
87	0xbcea5964	-0.028607078
88	0xbbf5af1b	-0.007497681
89	0x3d42383f	0.04741692
90	0x3bb06b30	0.0053838715
91	0x3d45b506	0.04826834
92	0x3c11fc94	0.008910317
93	0x3d26c641	0.040716413
94	0x3a6bd115	0.0008995694
95	0x3cec454e	0.02884164
96	0x3cffd744	0.031230576
97	0xbcb22c64	-0.021749683
98	0xbd3b7b58	-0.045771927
99	0xbd264d58	-0.040601104
100	0x3d3d0da5	0.04615559
101	0xbc8d107b	-0.017219773
102	0xbc963ad2	-0.018338595
103	0xbcac91a9	-0.02106555
104	0x3cb379f2	0.021908734
105	0x3d2118d7	0.03933033
106	0x3cf6c91a	0.03012519
107	0x3d0f3e70	0.034971654
108	0x3d3f4361	0.046695117
109	0xbc9d3655	-0.019190947
110	0xbc2ac754	-0.0104235
111	0x3d027941	0.031853918
112	0xbc9ea51d	-0.019365842
113	0xbc9912a0	-0.018685639
114	0xbc39a2dd	-0.011330334
115	0x3cadb17e	0.021202799
116	0xbcdfba70	-0.02731058
117	0x3c6a1d2c	0.014289182
118	0x398367d9	0.0002506364
119	0xbcd737bf	-0.026271699
120	0xbc9c9940	-0.019116044
121	0x3cead652	0.028666649
122	0xbd10cfec	-0.03535454
123	0x3d3c7990	0.04601437
124	0xbc1efa88	-0.009703286
125	0x3d3b81e9	0.04577819
126	0x3ca0575e	0.01957291
127	0xbd177d0e	-0.036984496
128	0xbb7288b0	-0.0037007742
129	0x3c6263ac	0.013817709
130	0x3c88222e	0.01661786
131	0x3c319792	0.01083936
132	0x3ca894a6	0.020578694
133	0x3cba9f73	0.02278111
134	0xbb2ccfe9	-0.0026369041
135	0x3c67c114	0.0141451545
136	0x3bf6641d	0.0075192587
137	0x3d32857d	0.043584336
138	0xbd10c478	-0.035343617
139	0x3d19e350	0.037570298
140	0x3c9b7b92	0.018979821
141	0x3ba0a6d0	0.004902698
142	0x3cc3d424	0.023904867
143	0xbb8f8221	-0.0043795262
144	0xbd31338f	-0.04326206
145	0x3d1f0f01	0.03883267
146	0x3c34716c	0.01101337
147	0x3d217c40	0.039425135
148	0x3d387c13	0.0450402
149	0xbd313426	-0.043262623
150	0x3cae8e76	0.021308165
151	0x3d2571ec	0.040391847
152	0xbcf43eb5	-0.029815057
153	0x3ca8c9a2	0.020603959
154	0xbd23ea9e	-0.04001867
155	0x3cd1b2d8	0.025597975
156	0xbd31cf8f	-0.043410834
157	0x3cedd21a	0.029030848
158	0x3b65bfe0	0.0035056993
159	0xbd4cb7df	-0.04998004
160	0x3d2e9ec1	0.04263187
161	0xbc0ebce8	-0.008712031
162	0x3d18d900	0.037316322
163	0xbd059634	-0.032613948
164	0x3cad6c19	0.021169709
165	0x3d3736ee	0.04473012
166	0xbd4252e3	-0.04744233
167	0x3d3b5067	0.045730975
168	0x3c7b55bf	0.015340268
169	0xbd39fc1a	-0.04540644
170	0xbd20c022	-0.039245732
171	0xbd4a7dfa	-0.049436547
172	0x3cb65295	0.022256175
173	0x3c8a1052	0.016853485
174	0xbcbe4987	-0.02322842
175	0x3cece055	0.028915564
176	0xbd19072a	-0.037360348
177	0x3d227f4a	0.039672174
178	0xbb3d32d6	-0.0028869412
179	0x3c9cc602	0.019137386
180	0xbcce4188	-0.025177732
181	0xbd3f110a	-0.04664711
182	0x3d4b46b9	0.049627993
183	0x3d403159	0.04692206
184	0xbc0e3360	-0.008679241
185	0x3c96876e	0.018375125
186	0xbd2bdd2a	-0.041958965
187	0x3ce0dfea	0.02745052
188	0xbd398922	-0.045296796
189	0xbd236fc3	-0.039901506
190	0x3c322ea3	0.010875377
191	0x3ca70e36	0.020392518
192	0xbcb8aec7	-0.022544278
193	0x3d46caa3	0.048533093
194	0xbc630be9	-0.01385782
195	0x3c371334	0.011174012
196	0x3cb5ab08	0.02217628
197	0x3caecb83	0.021337276
198	0xbcf478da	-0.029842783
199	0xbbcbe210	-0.006222017
200	0x3d154df9	0.036451314
201	0x3a893ca0	0.0010470338
202	0x3d3c621b	0.045992
203	0x3cae629a	0.021287251
204	0x3b718d20	0.0036857799
205	0x3ce38499	0.027773188
206	0x3cf6ebd0	0.030141741
207	0xbcc1d8c0	-0.023662925
208	0x3d4101ce	0.04712086
209	0xbc90d8f6	-0.01768158
210	0xbc268a28	-0.010164775
211	0xbcf08002	-0.029357914
212	0xbc756861	-0.014978499
213	0xbd0b568d	-0.034018088
214	0xbcafabc0	-0.021444201
215	0xbc80f2d6	-0.015740793
216	0x39f1b0ba	0.00046098774
217	0x3cdcf276	0.026971083
218	0x3c95c6ce	0.018283274
219	0xbcd9a1f4	-0.026566483
220	0x3c56a2d2	0.013100343
221	0xbd12c13e	-0.03582882
222	0xbca322d1	-0.019914063
223	0x3cac578e	0.021037843
224	0x3c944df3	0.018103575
225	0x3c8abbae	0.016935196
226	0x3c9aafaa	0.018882591
227	0xbc5a6034	-0.013328601
228	0x3d36513d	0.04451107
229	0xbd30ea93	-0.043192457
230	0x3d1db93d	0.038506735
231	0x3c9c60aa	0.019089062
232	0xbcb07a73	-0.021542763
233	0xbc294a80	-0.010332704
234	0x3b86f3a8	0.0041184016
235	0xbc9d762a	-0.019221384
236	0x3d0caa5b	0.03434215
237	0x3ccf3626	0.025294375
238	0xbd0e358d	-0.03471904
239	0x3c157820	0.009122878
240	0x3d33b408	0.043872863
241	0x3cb37a62	0.021908943
242	0x3d23feed	0.040038038
243	0x3ce9598d	0.028485084
244	0x3d3c4a71	0.04596943
245	0x3c11f5fa	0.008908743
246	0xbc263712	-0.010144966
247	0x3d1dbb64	0.038508788
248	0xbca45e77	-0.020064576
249	0xbcf0af6d	-0.029380525
250	0xbce300d7	-0.027710361
251	0x3d13fb9d	0.03612863
252	0xbd004220	-0.03131306
253	0xbd1b8fa3	-0.03797878
254	0xbcd98c86	-0.026556265
255	0xbcddb3d7	-0.027063293

ln2.weight f4 [300]
0	0x3f7feee8	0.99973917
1	0x3f7fea10	0.99966526
2	0x3f7fe1b3	0.99953765
3	0x3f800ff2	1.0004866
4	0x3f7ff036	0.9997591
5	0x3f800f9a	1.0004761
6	0x3f7fe406	0.9995731
7	0x3f800f42	1.0004656
8	0x3f800f3c	1.0004649
9	0x3f800f46	1.0004661
10	0x3f8001b4	1.000052
11	0x3f800f52	1.0004675
12	0x3f7ff8fe	0.99989307
13	0x3f7fe17f	0.99953455
14	0x3f8010c4	1.0005116
15	0x3f800f57	1.0004681
16	0x3f801193	1.0005363
17	0x3f8000ac	1.0000205
18	0x3f8019b2	1.0007842
19	0x3f7fe709	0.99961907
20	0x3f7fe18d	0.9995354
21	0x3f7fe18a	0.9995352
22	0x3f800f48	1.0004663
23	0x3f80175e	1.0007131
24	0x3f802286	1.0010536
25	0x3f80109b	1.0005068
26	0x3f7fe7fb	0.9996335
27	0x3f800f3d	1.000465
28	0x3f8023c5	1.0010916
29	0x3f800f6e	1.0004709
30	0x3f7ff845	0.99988204
31	0x3f800f4f	1.0004672
32	0x3f801c36	1.0008609
33	0x3f8015da	1.0006669
34	0x3f800c4a	1.000375
35	0x3f801f0f	1.0009478
36	0x3f7ff1fb	0.9997861
37	0x3f800ef6	1.0004566
38	0x3f7fe20e	0.9995431
39	0x3f7fee8b	0.9997336
40	0x3f800f3b	1.0004648
41	0x3f7fee7a	0.9997326
42	0x3f8017b7	1.0007237
43	0x3f8000fb	1.0000299
44	0x3f7ff782	0.9998704
45	0x3f7fe399	0.9995666
46	0x3f7ff5d3	0.99984473
47	0x3f801f6c	1.0009589
48	0x3f800f4a	1.0004666
49	0x3f8017cd	1.0007263
50	0x3f800f3f	1.0004653
51	0x3f8010e0	1.000515
52	0x3f80102b	1.0004934
53	0x3f7fe568	0.9995942
54	0x3f800d9e	1.0004156
55	0x3f7fe991	0.9996577
56	0x3f7fe18d	0.9995354
57	0x3f800b60	1.0003471
58	0x3f7ffda7	0.9999642
59	0x3f80102b	1.0004934
60	0x3f7ff5e2	0.9998456
61	0x3f7fed08	0.99971056
62	0x3f7ffcad	0.9999493
63	0x3f800f8f	1.0004748
64	0x3f801de1	1.0009118
65	0x3f800f3f	1.0004653
66	0x3f800f46	1.0004661
67	0x3f7fe17e	0.9995345
68	0x3f800f3c	1.0004649
69	0x3f801115	1.0005213
70	0x3f800f42	1.0004656
71	0x3f800f4d	1.000467
72	0x3f7fe181	0.99953467
73	0x3f80151b	1.0006441
74	0x3f800f5e	1.000469
75	0x3f800f3c	1.0004649
76	0x3f800084	1.0000157
77	0x3f7fe1dc	0.9995401
78	0x3f8013f8	1.0006094
79	0x3f7fe192	0.9995357
80	0x3f800f3f	1.0004653
81	0x3f7fe4fe	0.9995879
82	0x3f80107d	1.0005032
83	0x3f800fa9	1.0004779
84	0x3f7fe1c1	0.9995385
85	0x3f7fe181	0.99953467
86	0x3f801054	1.0004983
87	0x3f800461	1.0001336
88	0x3f80113b	1.0005258
89	0x3f800f3a	1.0004647
90	0x3f800f46	1.0004661
91	0x3f7ff627	0.99984974
92	0x3f800f41	1.0004655
93	0x3f7fe1c1	0.9995385
94	0x3f8011f7	1.0005482
95	0x3f7fe1a6	0.9995369
96	0x3f7ff338	0.999805
97	0x3f8010ca	1.0005124
98	0x3f800fbf	1.0004805
99	0x3f801f83	1.0009617
100	0x3f7fe18a	0.9995352
101	0x3f8010ab	1.0005087
102	0x3f80223a	1.0010445
103	0x3f801856	1.0007427
104	0x3f800f58	1.0004683
105	0x3f7fe18b	0.99953526
106	0x3f800f3a	1.0004647
107	0x3f8010b1	1.0005094
108	0x3f7fe17e	0.9995345
109	0x3f7fea40	0.9996681
110	0x3f800fb3	1.0004791
111	0x3f7fe204	0.9995425
112	0x3f7fec77	0.9997019
113	0x3f800f43	1.0004658
114	0x3f8000d7	1.0000256
115	0x3f800f41	1.0004655
116	0x3f7fe183	0.9995348
117	0x3f7fe192	0.9995357
118	0x3f7fe5d7	0.9996008
119	0x3f7ff116	0.9997724
120	0x3f800f3b	1.0004648
121	0x3f7fe17f	0.99953455
122	0x3f7ff9c9	0.99990517
123	0x3f801125	1.0005232
124	0x3f7fe187	0.999535
125	0x3f7fe195	0.99953586
126	0x3f7feaf3	0.9996788
127	0x3f800f7c	1.0004725
128	0x3f7fe41b	0.99957436
129	0x3f7fe18a	0.9995352
130	0x3f800f3a	1.0004647
131	0x3f80163a	1.0006783
132	0x3f7fe1be	0.9995383
133	0x3f8017d5	1.0007273
134	0x3f7ff010	0.9997568
135	0x3f800c6c	1.0003791
136	0x3f7fe7ea	0.9996325
137	0x3f7fe1be	0.9995383
138	0x3f800f3c	1.0004649
139	0x3f80053f	1.0001601
140	0x3f800f3c	1.0004649
141	0x3f800f3a	1.0004647
142	0x3f80114e	1.0005281
143	0x3f7fea52	0.9996692
144	0x3f800f3e	1.0004652
145	0x3f800f3b	1.0004648
146	0x3f800fce	1.0004823
147	0x3f801e61	1.0009271
148	0x3f7fe198	0.99953604
149	0x3f7fe4f5	0.99958736
150	0x3f801803	1.0007328
151	0x3f801ab7	1.0008153
152	0x3f7fe3a9	0.99956757
153	0x3f7feec5	0.9997371
154	0x3f7fe43f	0.9995765
155	0x3f7fef4f	0.9997453
156	0x3f800f4a	1.0004666
157	0x3f800f4a	1.0004666
158	0x3f7fe17f	0.99953455
159	0x3f7fe963	0.99965495
160	0x3f800f4a	1.0004666
161	0x3f800f44	1.0004659
162	0x3f800ffb	1.0004877
163	0x3f7febbc	0.9996908
164	0x3f8013f0	1.0006084
165	0x3f801cb9	1.0008765
166	0x3f7fe192	0.9995357
167	0x3f7fe18e	0.99953544
168	0x3f7fe37f	0.99956506
169	0x3f800f4c	1.0004668
170	0x3f800f3b	1.0004648
171	0x3f800fbe	1.0004804
172	0x3f801088	1.0005045
173	0x3f7fe192	0.9995357
174	0x3f7fee94	0.99973416
175	0x3f80145e	1.0006216
176	0x3f7ffc9e	0.9999484
177	0x3f8010be	1.0005109
178	0x3f80127d	1.0005642
179	0x3f800fb2	1.000479
180	0x3f801a75	1.0008074
181	0x3f800f3b	1.0004648
182	0x3f800f3d	1.000465
183	0x3f7fe19f	0.99953645
184	0x3f7fe17f	0.99953455
185	0x3f7fe17f	0.99953455
186	0x3f800f3b	1.0004648
187	0x3f7fe18d	0.9995354
188	0x3f800f41	1.0004655
189	0x3f80252a	1.0011342
190	0x3f801093	1.0005058
191	0x3f7fe1af	0.9995374
192	0x3f800645	1.0001913
193	0x3f7fe1f6	0.99954164
194	0x3f7fe9ce	0.9996613
195	0x3f7fe17e	0.9995345
196	0x3f800f44	1.0004659
197	0x3f7fe3f8	0.9995723
198	0x3f800b73	1.0003494
199	0x3f800f4a	1.0004666
200	0x3f800f40	1.0004654
201	0x3f800f3f	1.0004653
202	0x3f800fe5	1.0004851
203	0x3f7fe183	0.9995348
204	0x3f7fe195	0.99953586
205	0x3f801051	1.0004979
206	0x3f800eba	1.0004494
207	0x3f800f4e	1.0004671
208	0x3f7fe520	0.9995899
209	0x3f800f3a	1.0004647
210	0x3f7fe1ae	0.99953735
211	0x3f7ffd09	0.99995476
212	0x3f7ffc62	0.9999448
213	0x3f800ff2	1.0004866
214	0x3f7fe190	0.99953556
215	0x3f7fe198	0.99953604
216	0x3f8011ca	1.0005429
217	0x3f7fe670	0.99960995
218	0x3f7fe1fc	0.999542
219	0x3f801582	1.0006564
220	0x3f7fe395	0.9995664
221	0x3f7fe190	0.99953556
222	0x3f7fef24	0.99974275
223	0x3f7fe1a7	0.99953693
224	0x3f7fee9d	0.9997347
225	0x3f7fe187	0.999535
226	0x3f7fe1d2	0.9995395
227	0x3f800f3b	1.0004648
228	0x3f801008	1.0004892
229	0x3f800b88	1.0003519
230	0x3f800f4a	1.0004666
231	0x3f801b9a	1.0008423
232	0x3f7fe1fe	0.9995421
233	0x3f800f4a	1.0004666
234	0x3f800f42	1.0004656
235	0x3f800f3b	1.0004648
236	0x3f7fe2d3	0.9995548
237	0x3f7fe188	0.9995351
238	0x3f800f3b	1.0004648
239	0x3f7fe1a1	0.9995366
240	0x3f7fe61e	0.99960506
241	0x3f7fe18b	0.99953526
242	0x3f800f4f	1.0004672
243	0x3f801427	1.000615
244	0x3f7fe1e8	0.9995408
245	0x3f801698	1.0006895
246	0x3f8017c5	1.0007254
247	0x3f801812	1.0007346
248	0x3f801395	1.0005976
249	0x3f800f56	1.000468
250	0x3f80006d	1.000013
251	0x3f800f3b	1.0004648
252	0x3f800f4c	1.0004668
253	0x3f7fe88a	0.999642
254	0x3f8016b6	1.0006931
255	0x3f7fe7a8	0.99962854
