RL/Model_Repository/temp/TD3_Guest_tst_actor.pth (torch, 516991 bytes, 9 tensors)

layer_1.weight f4 [400, 15]
00000000: 6495 473e aee3 583e 1bfe 80bd 0053 703e
00000010: 9e93 6dbd 91b6 4c3d 843f 02be 22d1 193e
00000020: 212b 673e 8a83 43be e944 653e e9b0 423d
00000030: 19bc 413e 135e 0a3d dce0 013e 2a96 24bd
00000040: 99ff 473e 1d10 0d3d 0081 febd 27b7 7e3d
00000050: 6fa2 fbbd 7c7a 0abd ce32 debd 5188 2b3e
00000060: fe44 54be d0a7 f9bd d76a 9cbd c3a2 22be
00000070: 9e11 b23c 4b5e 83be c89b 6a3e 52c5 64be
00000080: 7bf2 473e 7247 1f3d 8d85 b2bd b460 1f3e
00000090: 7d53 173d 7a37 523e 6972 c83c a073 adbd
000000a0: 8347 893d d5b4 94bd fee4 d73d f8c9 693e
000000b0: e34b 173e 6590 eabd 4aee 163e f179 363d
000000c0: 1094 043e ac09 23be 77db 83be 1491 cfbd
000000d0: 3faf 4cbe 2518 573e 3418 953d 0f14 d83d
000000e0: 8e9f a33d e82e cbbb 7ae0 4d3e 2c69 3bbe
000000f0: 14d3 833c 93a0 34be 20b8 a23d 406f b6bd
00000100: 0b11 a23d 1475 5cbd db3a 5b3e 77b0 1cbe
00000110: f1ae 1dbe d7c1 1dbe 40b6 6d3e 7a1f b03d
00000120: 4c4e 7e3e 1033 5abe b61f 83be 40b1 4bbe
00000130: b8b0 2ebe 6d81 dc3d 69ab c33d dc77 5e3e
00000140: 3085 05be f580 31be 3c0e 0f3e d7de cfbd
00000150: cd34 233e cc16 71bd 58c1 193e 6caa 4abe
00000160: 56fe 03be 73f3 a53d 3b4f 603d d774 86bd
00000170: b1c7 1d3e 42eb 333e 6d01 3fbe 79c7 0cbe
00000180: 24ca 723e b9f9 b0bd ef89 babd ee22 7fbe
00000190: 92c0 16be f21d 863d b0ed 08bd 9d0f 42be
000001a0: c262 313b 929a 34be f94f 60be c297 11be
000001b0: fc66 67be cc59 28be 6925 843e 38c0 473d
000001c0: c4f3 a23d 0299 76be eda5 2dbe e202 b0bd
000001d0: 1860 253d baa5 68be 88d7 e3bd 0e49 1ebe
000001e0: 30ef a73a 7b96 c3bd 56f2 8dbc c495 32be
000001f0: 1283 35be d7be 19be 8c54 b5bd dfb7 50be
00000200: e7ea 5d3e 2986 52bd 9cdc 623e 3c08 a43d
00000210: 45fc 5fbe 4579 353e 350a 92bd 15e9 cdbd
00000220: fa12 5dbe c23a 84be e812 943d 15f6 6abd
00000230: eb40 cb3d 3712 5abe 3850 433e 815b 43be
00000240: 45f3 3abd 02b3 5a3d 3a92 073e 8467 543e
00000250: cb54 6f3e 2eba 52be 260f 883d e719 e0bd
00000260: 6014 dcbc 046f 44be b0df 703e ab7b 41be
00000270: 365a 0d3e 14ef b93d 4f77 ac3d 0cf1 0ebe
00000280: 1f19 703e d6d0 673d 88f6 073d ca6e 66be
00000290: 3536 e43d 4697 15bd 2cb5 edbd f75e 653e
000002a0: b0dc 743d e6ce 10be 1edd 03be fa87 31bc
000002b0: a019 153e b166 83bd ef57 15be 0530 b3bd
000002c0: 7146 44be 7a95 bf3d 7b09 4e3e 9571 77be
000002d0: 573c 7c3d 333d 0a3e d864 463d f603 b9bd
000002e0: fa2b 0a3e 13fb 0b3e 966c c63d 482d 39bd
000002f0: d46a 8abd 7345 e53c 2c38 3cbd 7b52 9ebd
00000300: 1a5a 293e 8569 633e 73cf cfbc 77fc 5ebd
00000310: c336 ea3b 2e6a 45bc af06 863d 327d 993d
00000320: 10e6 6cbe db2d bebd 2a4d 613e 364b d43d
00000330: 5c2d 2bbc 6322 1dbe 7afc 1ebe 2b4b 6abe
00000340: 9ee3 a9bd 0923 b83d 9a95 283e 3c24 f43d
00000350: 02b6 69be 64ff 1ebe 78e7 26bd 56c3 7f3e
00000360: c0fc 183d 04f1 88bd e0c4 da3d 2868 c9bd
00000370: b021 2bbe a2fa 403e 3e71 f0bd 9802 54bd
00000380: cf82 83be e289 303e ebe6 473e c3e3 bf3d
00000390: e7c4 38be aea3 82be 771a 57be f8ce 443e
000003a0: 2834 fd3d f823 5e3e 1625 0a3e a639 853d
000003b0: 8bf8 39bb 9f78 49be e086 62be 584d 77be
000003c0: 9077 d83d 4fcf 01be 5cd7 54bd 3e29 18be
000003d0: 6cb7 40bd 4417 3abe a1c2 2cbe e467 af3d
000003e0: a627 9dbd 0e39 233e 12a4 a9bd b6f3 41be
000003f0: 4899 3abd 452a 00be 7ec7 a1bd 732b 7cbe
0.19490582 0.21180603 -0.06298467 0.23469162 -0.058002107 0.049978796 -0.12719542 0.15021184
0.22575046 -0.19093147 0.22389568 0.047531996 0.1891941 0.033781122 0.12683433 -0.04018227
0.19531097 0.034439195 -0.124269485 0.062186386 -0.12286841 -0.033808216 -0.10849534 0.1675122
-0.20729443 -0.12190211 -0.076375656 -0.15882401 0.021736916 -0.25657877 0.22910988 -0.22340897
0.19526093 0.038886495 -0.08716879 0.15564233 0.036944855 0.20528975 0.024468618 -0.08469319
0.06703093 -0.072610535 0.10541724 0.22830951 0.14775042 -0.11453322 0.14739338 0.044549886
0.12947106 -0.15921658 -0.25753376 -0.10135093 -0.19988726 0.21005304 0.07280007 0.10550701
0.07989417 -0.00620066 0.20105162 -0.18301839 0.01609186 -0.17639379 0.07945275 -0.08907938
0.07913407 -0.053822592 0.2140917 -0.15301691 -0.15398766 -0.15405975 0.23214054 0.08599754
0.24834555 -0.21308541 -0.2561013 -0.19891834 -0.170596 0.107668735 0.09554178 0.2172541
-0.13039088 -0.1733435 0.13970274 -0.10149925 0.1593811 -0.05885963 0.15015161 -0.19791573
-0.1288999 0.08103075 0.05476306 -0.06565254 0.15408207 0.17570212 -0.18652888 -0.13747968
0.23709923 -0.08641381 -0.0910834 -0.24915668 -0.14721897 0.0654868 -0.0334298 -0.18951268
0.002706692 -0.17637089 -0.21905507 -0.14218047 -0.22597879 -0.16440505 0.25809792 0.0487673
0.07956651 -0.24081805 -0.16957827 -0.085943 0.040374845 -0.2271947 -0.11125094 -0.15457556
0.0012812372 -0.09550186 -0.017327469 -0.17439944 -0.1772578 -0.15014206 -0.08854017 -0.20382641
0.2167164 -0.051397476 0.22154468 0.08009383 -0.21873577 0.17722042 -0.07130853 -0.100542225
-0.2158927 -0.2582608 0.072301686 -0.05736359 0.099244915 -0.21296011 0.1907357 -0.19077875
-0.045642156 0.05339337 0.13239375 0.20742613 0.2337219 -0.20578834 0.06643514 -0.109424405
-0.026865184 -0.19182974 0.2352283 -0.18894832 0.13803944 0.09078804 0.08421194 -0.1395914
0.23447083 0.056595646 0.033194095 -0.225032 0.11143152 -0.03652122 -0.116068214 0.22399507
0.059780777 -0.14141425 -0.12877318 -0.010835642 0.14560556 -0.06416071 -0.14584325 -0.087493934
-0.19167496 0.09354682 0.20120804 -0.24164422 0.061580982 0.13499908 0.048436016 -0.090339586
0.13493338 0.13669996 0.0968868 -0.0452092 -0.06758657 0.027987218 -0.045952007 -0.07730576
0.16538277 0.22208221 -0.025367474 -0.054439988 0.0071476414 -0.012049241 0.065442435 0.07494582
-0.23134637 -0.0928609 0.22002092 0.10365908 -0.010447826 -0.15345149 -0.15526 -0.22880237
-0.08295368 0.089910574 0.16463318 0.11920974 -0.22823337 -0.15527111 -0.04074809 0.24976858
0.037350416 -0.06686595 0.10682082 -0.09834319 -0.1671207 0.18845609 -0.11740349 -0.051760286
-0.25685737 0.17240098 0.19521682 0.09369614 -0.18043862 -0.25515503 -0.2100619 0.19219577
0.12363464 0.21693408 0.1349071 0.06505136 -0.0028376903 -0.1967492 -0.22121763 -0.24150598
0.1056968 -0.12676738 -0.051963195 -0.14859483 -0.047049925 -0.18172938 -0.1687112 0.085647374
-0.07673578 0.15939733 -0.08283247 -0.18940625 -0.045556337 -0.12516125 -0.07899378 -0.2462595

layer_1.bias f4 [400]
00000000: 02d3 19be 3920 7bbd 2ce5 6a3e ec9a 3bbe
00000010: db24 49be 237f 54be 3902 783e c43f 07bd
00000020: 0003 8dbd 6ee8 0f3e 683c 1cbe 32c8 88bd
00000030: bab4 723e a732 0f3e a419 4dbe 7819 92bd
00000040: 70b5 cf3c 43e8 bd3d b847 f3bd 80b9 383e
00000050: 654a 0f3b 3d9a 64be ccb1 8d3d 6d8a 7dbe
00000060: b0e5 943c 5240 82be cb3a 9cbd b0c9 75bd
00000070: 01a7 6fbe cfd0 92bd e416 1d3c 56b1 11be
00000080: 9b9f 083d 3be5 0b3e a154 f63c d70e 81be
00000090: 0280 dfb9 a6d0 f7bd 93e8 933d b7b6 55be
000000a0: 0bb9 37be 5d20 28bc 5bb7 1a3e ef9c 8abd
000000b0: 0031 2dbc 8879 d1bc 7c8a 4ebe 3f46 a7bc
000000c0: ca67 f0bb a570 2e3d 50e0 ec3d 22bd a03d
000000d0: 77f0 143e b388 4cbd 3a18 e4bd e88f 5d3e
000000e0: c4ca 543e f3d0 0f3e 08cb 403e a40e 013e
000000f0: fb73 6b3e d6ee 653e 5ef8 56be e9ba 7bbe
00000100: ccd2 08be a8bf 4b3e 7c43 6b3e 9f41 9a3c
00000110: 7ddc 3ebe 629d f4bd c59f f73d 6d35 763e
00000120: 5dda 443d 3786 2cbe f518 7a3e f127 683e
00000130: 38df e1bd c712 0fbe 55c3 173e 940f 3fbe
00000140: 9e81 593e b3b3 56bd 4c81 01bb 0860 10be
00000150: 2f55 81be 552d 6e3d 2fd6 bcbd 57af 1abe
00000160: 6531 533e ba67 453d cfa7 90bd 9dcf 72be
00000170: 3d3e 13be d196 b3bd 935a dd3d 5305 6ebe
00000180: 93ea 173e 92eb 6f3e fb44 a43d 1127 83be
00000190: 7415 0a3d f4da d8bd 1dc1 a73d 3021 1ebc
000001a0: b360 013e ed90 a4bc 256c 4c3d c1ee d33d
000001b0: 4ded 43be 758c 3d3d c186 693e 5424 393e
000001c0: 4a78 713c 78e9 3dbd 0965 db3d c545 67be
000001d0: 5076 a5bd f4c4 653e 6c0d 033d 70e9 c6bb
000001e0: c4f9 50be 0096 2abe 920f 133d 6ce9 43be
000001f0: da67 9fbd 0e17 01be a89a a13d 4409 1c3d
00000200: c69f 7dbe 499f ab3d 70b4 bebc 4e36 00be
00000210: 2e82 423e cc0f 2ebe 9cfb 72be 5d8a d43c
00000220: 5eb4 0fbe e09e d5bd 498a 65be 306b 83bd
00000230: 9fa2 503e 8e28 70be 8f7d 32be 96da 68bd
00000240: a74b 52be 3307 453d cdd1 51bd bcb3 463e
00000250: 9ddf 81be 30d8 dd3b 28d8 e73d 5787 153d
00000260: 0f00 8fbd befe 773e 74af 4fbe 294e 783e
00000270: 1920 8f3d 44b9 f93d 96df 3d3e 078b d13c
00000280: 45a6 e03c 1af4 60bd cdda 71be e7f7 e23d
00000290: 7892 433e 42fe de3d d884 24bd 7c8e 6cbe
000002a0: 98ef 8ebb 955e 873d cbd0 4fbe fea7 613e
000002b0: b91e f6bb 2d5e 903d 0538 6c3e 4e8a e73d
000002c0: 1844 0fbe 6ba5 c73d 1a00 1a3e f229 043e
000002d0: 4592 fbbd 5bad c73c 5958 3dbe 6afe e5bc
000002e0: 5f91 33be 7b7a 173e da19 813e 3191 7fbe
000002f0: f8ca f4bd 3eb8 e2bd a696 35be 712e 703e
00000300: cd78 4dbe a959 0bbe ac54 5abe a34e 56ba
00000310: 96e1 42be 9519 32be 289b 823e 55e8 eb3d
00000320: f022 dc3d f1a0 3b3e 94de 3f3d fc74 293d
00000330: b612 44be 7830 943d 7696 50be 3321 73ba
00000340: 8133 0ebe 3cdd 15be 6ad4 18be c1c7 febd
00000350: 7aea 1dbe 682f 0fbe e0cf bfbd c57e 71be
00000360: 0e6f 553e 10f7 b43d af8d 83be bcd6 83be
00000370: 7b27 05be 4910 ce3d 3318 723e 228e 20bd
00000380: 78c4 1d3e c150 0ebe 8303 57bd 94f3 23bd
00000390: 304f 80be f648 a53a a84c 893d fc35 213e
000003a0: 2c6d 4cbe c7a6 9cbd 2097 1f3c abc5 d23c
000003b0: 8366 343d 9af9 46be eafe 4b3e 57eb 6ebe
000003c0: 6734 b8bd e140 033e 6479 83bd 9573 01be
000003d0: 2eef 82be f297 363e db69 0bbc 1c9a fe3d
000003e0: 630f 283d 595c 44be 0f2b b9bd cc2b 3b3e
000003f0: f179 01be 6aca f0bd be4c 143e 8c72 e3bd
-0.150219 -0.061310027 0.22938985 -0.18320817 -0.19642965 -0.20751624 0.24219598 -0.033019796
-0.06885338 0.14053509 -0.15257418 -0.06678809 0.23701754 0.13984166 -0.20029312 -0.07133764
0.02535507 0.09272816 -0.11878914 0.18039513 0.002186441 -0.22324462 0.06918678 -0.24759836
0.01817593 -0.25439698 -0.07628401 -0.060006797 -0.2340355 -0.07168733 0.009587977 -0.14227805
0.033355337 0.13661663 0.030069651 -0.25206634 -0.00042629248 -0.121003434 0.072220944 -0.20870481
-0.17941682 -0.010261622 0.15109007 -0.06768214 -0.010570765 -0.025570646 -0.20170015 -0.020419238
-0.0073365914 0.042587895 0.11566222 0.07848574 0.14544855 -0.049935054 -0.11137433 0.21636927
0.20780474 0.14044552 0.1882745 0.12603241 0.22993462 0.2245439 -0.20993182 -0.2458302
-0.13361663 0.1989733 0.22974962 0.018830119 -0.18638797 -0.11944081 0.120910205 0.24043818
0.04805981 -0.16848074 0.24423583 0.22671486 -0.11028904 -0.13972007 0.14820607 -0.18658286
0.21240851 -0.05241747 -0.0019760905 -0.14099133 -0.25260302 0.0581487 -0.0922054 -0.1510595
0.20624311 0.048194624 -0.07063257 -0.2371201 -0.14379211 -0.08769 0.10808291 -0.23244219
0.14835577 0.23429707 0.080209695 -0.25615743 0.033711866 -0.10588637 0.0819113 -0.009651467
0.12634544 -0.020088637 0.049907822 0.10348273 -0.19133492 0.04627653 0.22805311 0.18080264
0.014738152 -0.04636523 0.1071263 -0.22585209 -0.08079207 0.22438413 0.031995222 -0.0060703084
-0.20407778 -0.16658783 0.03590352 -0.19132012 -0.0778348 -0.12606451 0.078908265 0.038094774
-0.2476798 0.083799906 -0.023279399 -0.12520716 0.18994972 -0.16998214 -0.23728794 0.025944883
-0.14033648 -0.104306936 -0.22416033 -0.06416929 0.20374535 -0.2345297 -0.1743071 -0.056849085
-0.20536672 0.04810257 -0.051225472 0.194045 -0.25365916 0.0067701563 0.113205254 0.036506023
-0.06982433 0.2421827 -0.20281774 0.24248566 0.06988544 0.1219354 0.18542323 0.025578989
0.027423033 -0.054920293 -0.23618622 0.1108244 0.19098842 0.108883396 -0.040165752 -0.23101228
-0.004362058 0.06609837 -0.20294492 0.2203674 -0.0075109866 0.070492126 0.23068245 0.113056764
-0.1399082 0.09748348 0.15039101 0.12906626 -0.12283758 0.024374655 -0.18490733 -0.028075416
-0.17535923 0.14792816 0.25215036 -0.2495773 -0.11952776 -0.11070298 -0.17733249 0.23455216
-0.20065613 -0.13608421 -0.21321362 -0.000817517 -0.19031367 -0.17392571 0.25509 0.11518923
0.10748851 0.18323113 0.046843126 0.04137133 -0.19147763 0.07235807 -0.20369896 -0.00092746614
-0.13886835 -0.14635175 -0.1492478 -0.12440444 -0.15421477 -0.13982928 -0.09365821 -0.23583515
0.20843145 0.08836186 -0.25694034 -0.25749767 -0.13003342 0.100617 0.23642044 -0.03919805
0.15406978 -0.13897993 -0.052493583 -0.040027216 -0.25060415 0.0012610245 0.06704074 0.1574325
-0.19963521 -0.07648998 0.009740621 0.025729021 0.044043075 -0.19431153 0.19921461 -0.23331963
-0.0899437 0.12817718 -0.06419638 -0.12641747 -0.25573105 0.178314 -0.008509125 0.12431738
0.0410303 -0.19175853 -0.09041416 0.18278426 -0.12644173 -0.117573574 0.144824 -0.111058325

ln1.weight f4 [400]
00000000: c484 803f a3d0 7f3f 0528 7f3f c781 7f3f
00000010: d611 803f fb22 803f 4a43 803f c45b 7f3f
00000020: 34fd 7f3f bfbe 7f3f c6bd 7f3f 0231 803f
00000030: aac7 7f3f be05 803f b5ca 7f3f e83c 803f
00000040: c21d 803f 4812 803f bd06 803f a80a 803f
00000050: f008 803f 740c 803f b92a 7f3f 188a 7f3f
00000060: 6715 803f 1335 803f 4413 803f 5c1e 803f
00000070: d70a 7f3f 8324 803f 2d23 803f d70d 803f
00000080: 993c 803f d475 7f3f effa 7f3f dc18 803f
00000090: bef5 7f3f 8d30 803f 1e2c 803f 6afc 7f3f
000000a0: 99ef 7f3f 8114 803f 7d04 803f c1fd 7f3f
000000b0: 0e8c 803f d80c 803f 3e22 803f 5f06 803f
000000c0: 0515 803f 0739 803f 5ec5 7f3f 7e17 803f
000000d0: d407 803f 976f 7f3f 35e6 7f3f 1c2c 803f
000000e0: 272f 803f c26d 7f3f 8525 803f 1126 803f
000000f0: af21 803f 024a 803f 9f19 803f 0b93 7f3f
00000100: ab08 803f 6650 803f f455 803f 4938 803f
00000110: b6b6 7f3f be06 803f ef77 7f3f 72b7 7f3f
00000120: feaa 7f3f f557 803f ebe1 7f3f 8d0c 803f
00000130: dafd 7f3f 7533 803f 4464 7f3f 4593 7f3f
00000140: e6ed 7e3f 0a52 803f 5ef6 7f3f e140 803f
00000150: f725 803f 2217 803f c90a 803f 2e2f 803f
00000160: 8fc4 7f3f 29eb 7f3f 4e93 7f3f 0232 803f
00000170: 07f5 7f3f def9 7f3f fe7a 803f 5910 803f
00000180: 89c5 7f3f 6304 803f 95d1 7f3f 4c1a 803f
00000190: 3b25 803f 8077 803f 291e 803f 3c07 803f
000001a0: 2ddc 7f3f 7127 803f 8703 803f 14f2 7f3f
000001b0: 0c28 803f 0305 803f 88ed 7f3f 39ef 7f3f
000001c0: a8d1 7f3f e22c 803f d50f 803f 0fc9 7f3f
000001d0: 3c7b 7f3f 5525 803f d632 803f 8ca1 7f3f
000001e0: 2edf 7f3f b009 803f ac8f 803f 9f04 803f
000001f0: 2144 803f 9e0c 803f e31f 803f a68b 7f3f
00000200: ecd8 7f3f 32e4 7f3f 9666 7f3f ddf1 7f3f
00000210: 49ee 7f3f ccab 7f3f 8c32 803f ccec 7f3f
00000220: 0d21 803f 00b2 7f3f 9633 803f 4ea0 7f3f
00000230: 45fc 7f3f 500d 803f 3610 803f c528 803f
00000240: 0f5c 803f e61b 803f b581 7f3f 35ce 7f3f
00000250: b270 803f 3500 803f 8895 7f3f e001 803f
00000260: 337c 7f3f 710f 803f 4d98 7f3f f39e 7f3f
00000270: c967 7f3f 5aec 7f3f 1e04 803f 781e 803f
00000280: 6d14 803f fc1a 803f 454d 803f c02a 803f
00000290: c38b 7f3f 4cee 7f3f 80d1 7f3f d320 803f
000002a0: 9203 803f 95e5 7f3f 3802 803f 6f3d 803f
000002b0: c7fd 7f3f 431c 803f a200 803f b918 803f
000002c0: 5514 803f 4cb9 7f3f f827 803f 0073 7f3f
000002d0: 16d2 7f3f a6bb 7f3f 5e12 803f 2b0d 803f
000002e0: 69cf 7f3f 9559 803f e828 803f 2773 803f
000002f0: 0b07 803f 641f 803f 5d53 7f3f e9fb 7f3f
00000300: ac8e 7f3f fb29 803f 0627 803f 5315 803f
00000310: 550e 803f 1cf3 7f3f fed0 7f3f 723f 7f3f
00000320: 2ade 7f3f 2efe 7f3f f529 803f 783b 803f
00000330: 3a1d 803f c30e 803f 97f4 7e3f 9803 803f
00000340: 0cda 7f3f 40e8 7f3f 4751 803f 6910 803f
00000350: 9fc1 7f3f ab1c 803f 67c6 7f3f 8e08 803f
00000360: f438 7f3f 8703 803f 0afc 7f3f 56fc 7f3f
00000370: 485b 803f 3808 803f c0cb 7f3f e20c 803f
00000380: 35f6 7f3f aa1f 803f d32e 803f 8918 803f
00000390: 4522 803f 7412 803f 42d2 7f3f 702c 803f
000003a0: 14b1 7f3f 292c 803f 59e7 7f3f 15a0 7f3f
000003b0: adc9 7f3f 6e4b 7f3f cb66 7f3f 505e 7f3f
000003c0: 18cc 7f3f 5a19 803f 94cb 7e3f ca40 7f3f
000003d0: 8569 803f 57ec 7f3f dc1c 803f d813 803f
000003e0: 4011 803f 9027 803f f41d 803f c053 7f3f
000003f0: 4342 803f 7a4a 803f b7f5 7f3f 451f 803f
1.0040517 0.9992773 0.9967044 0.998074 1.0005443 1.0010675 1.0020535 0.997494
0.9999573 0.9990043 0.99898946 1.0014956 0.9991404 1.0001752 0.9991868 1.0018587
1.0009081 1.0005579 1.0002056 1.0003252 1.0002728 1.00038 0.99674565 0.9982009
1.0006531 1.0016197 1.0005879 1.0009265 0.99625915 1.0011142 1.0010735 1.0004224
1.0018493 0.99789166 0.9999227 1.0007586 0.9998435 1.0014817 1.0013463 0.9999453
0.9997497 1.0006257 1.000137 0.9999657 1.0042741 1.000392 1.001045 1.0001944
1.0006415 1.0017403 0.99910533 1.0007169 1.0002389 0.9977965 0.99960643 1.0013461
1.001439 0.9977685 1.001145 1.0011617 1.001028 1.0022585 1.0007819 0.99833745
1.0002645 1.0024536 1.0026231 1.0017177 0.9988817 1.0002058 0.9979238 0.9988929
0.9987029 1.0026842 0.999541 1.000383 0.9999672 1.0015703 0.9976237 0.9983409
0.99581754 1.0025036 0.999853 1.00198 1.0011586 1.000706 1.0003291 1.0014398
0.999093 0.999682 0.99834144 1.0015261 0.9998326 0.9999064 1.0037534 1.0004989
0.9991079 1.0001339 0.9992917 1.0008025 1.0011362 1.0036469 1.0009204 1.0002208
0.99945337 1.0012037 1.0001076 0.99978757 1.0012221 1.000153 0.9997182 0.999744
0.99929285 1.0013697 1.0004832 0.99916166 0.99797416 1.0011393 1.0015514 0.99855876
0.9994992 1.0002956 1.0043845 1.000141 1.0020791 1.000385 1.0009731 0.9982246
0.9994037 0.99957573 0.9976591 0.9997843 0.9997297 0.99871516 1.0015426 0.999707
1.0010086 0.9988098 1.0015743 0.9985398 0.9999431 1.0004063 1.0004947 1.0012442
1.0028094 1.0008514 0.9980729 0.9992402 1.0034392 1.0000063 0.9983754 1.0000572
0.9979889 1.0004712 0.9984177 0.9985191 0.9976774 0.9997002 1.0001256 1.0009298
1.0006233 1.0008235 1.0023581 1.0013046 0.99822634 0.9997299 0.99929047 1.0010017
1.000109 0.9995969 1.0000677 1.0018748 0.9999661 1.0008625 1.0000193 1.0007545
1.0006205 0.99892116 1.0012197 0.9978485 0.9992994 0.99895704 1.0005605 1.0004019
0.9992586 1.0027338 1.0012484 1.0035142 1.0002149 1.000958 0.9973658 0.9999376
0.99827075 1.0012811 1.0011909 1.0006508 1.0004374 0.9998033 0.9992827 0.99706185
0.9994837 0.9999722 1.0012804 1.0018148 1.0008919 1.0004505 0.99591964 1.0001097
0.9994209 0.9996376 1.0024804 1.0005008 0.9990482 1.0008749 0.9991211 1.0002611
0.9969628 1.0001076 0.99993956 0.9999441 1.0027857 1.0002508 0.9992027 1.0003932
0.9998506 1.0009663 1.001429 1.0007488 1.0010458 1.0005631 0.999302 1.0013561
0.99879575 1.0013477 0.99962384 0.9985364 0.9991711 0.9972447 0.99766225 0.99753284
0.999208 1.0007737 0.99529386 0.99708235 1.0032202 0.9997 1.0008807 1.0006056
1.0005264 1.0012074 1.0009141 0.9973717 1.0020221 1.0022728 0.99984306 1.0009543

ln1.bias f4 [400]
00000000: cb85 0139 93d2 343a 5e70 5abb 9c62 c3b9
00000010: e6bd edb9 87f5 08b8 dc0d 18bb 0157 193b
00000020: 59bd 8cba 82f8 e1ba 6eb1 823b 3028 18b9
00000030: d3ab 9e38 ff77 ff3a 5428 363a 1f04 e6ba
00000040: 6559 43ba b54e 02ba b8ba 03b9 0005 9cb9
00000050: aad7 25ba 1bf8 c7b9 a095 543b ba4f 053b
00000060: 9837 3bba 868b 59ba d0e6 10ba 2033 54ba
00000070: 6434 14ba c4fa 093a 0852 b93a c179 8eb9
00000080: 4000 dfba 0f75 153b 7e57 35b9 0e62 db3a
00000090: a85b 9339 a9b6 b7ba 29ac edba 55a6 aaba
000000a0: f48d 45b9 75ff 6bba a588 443a 99b1 9a3a
000000b0: 05dc 6eb9 3e9a b4b9 f9be 923a b6ac 16b9
000000c0: 66e2 413a 5089 883a 1746 743a c30b 15ba
000000d0: 334f b2ba 9bae 57ba 8dca f539 3e24 90ba
000000e0: 061c 103a ab16 193b ee58 cb3a 8f7b 9fba
000000f0: aa1d e93a 15c7 11bb c9ae 2eba 9e92 63bb
00000100: 5b8d 09ba e898 0b39 7b32 35bb 6197 103b
00000110: e6e1 813a 3c97 f4b8 ea2a 15ba 0dfe 893a
00000120: 0be5 c5ba ff36 9139 4f7e 193b 879c 0dba
00000130: e14b b438 a2e4 b4ba b89b 063b 545e ca3a
00000140: 731b 98ba 71b0 15bb d2d4 fcba e53d 28bb
00000150: 2d3f 51b9 e9e3 f838 5ef9 a4ba 0058 a5ba
00000160: cd7e a2b9 6d3b 4b3a 7b13 86ba b2fb d13a
00000170: 74f7 053b 1680 51b5 6ca8 6dba 78e8 0b3a
00000180: 0e01 a539 8c86 e438 9373 713a d917 bc3a
00000190: d475 b239 b865 70bb ab62 523a 6154 9ab9
000001a0: 8f42 7f3a 2e55 bd3a ae97 06b9 bd95 a039
000001b0: 8ce0 d8ba de40 89b9 0dfe b9ba 3135 1939
000001c0: 22d7 b6ba 5895 a139 b871 ddb9 d235 1d39
000001d0: 2602 e6ba 8da2 933a 795d 61ba ef6f 49ba
000001e0: d60f 16bb 8580 b138 8106 92bb 9403 b63a
000001f0: 86dd 0abb f603 1439 bfc0 38ba 8c15 a3ba
00000200: e46a a03a 9c6a f9ba 1670 123b 2b38 5738
00000210: 6c0b cbb9 aa05 a13a 7bc1 14bb e412 3fba
00000220: d392 6dba de15 343a 95d9 a8ba 7181 ab3a
00000230: 4a7b 61ba c7dc 4f3a dbc0 df39 d132 a3ba
00000240: 5649 b1b9 7f6e 74ba 4490 de3a 918f 063b
00000250: 6ad3 81ba 376d 15bb c555 113a bedf 7f3a
00000260: 9aae f23a 8698 86ba f2ea c9ba 8488 d33a
00000270: 4ba2 b5ba a456 783a 159e 1539 1c98 49ba
00000280: 1662 05ba 45ca 87ba a4bb 78ba d78c 8d3a
00000290: b3b7 9dba 208b 483a 978c 243a 6d29 e0ba
000002a0: 3362 7fba 584e 0a3b 2047 abb8 975a edba
000002b0: 77e4 20ba a7bf 7eb9 0a02 1339 cf2b d93a
000002c0: da2c 20ba 9293 933a ec77 d9ba bd8f 1c3b
000002d0: d29c 85ba b0be e0ba 76f7 b139 fa13 bc3a
000002e0: ed37 193a 6a79 3bbb 3863 a8ba f77e 25ba
000002f0: f088 313a 41d0 c7ba c00d 343b 5533 4a3a
00000300: ce6e e13a 20af 1b3a 7b20 313a cdfe 1fba
00000310: 2d85 0039 d61f 0539 bbca 53ba abe1 193b
00000320: 77a4 d4ba 3b83 0839 a2c0 e8b9 4034 71b9
00000330: fd19 17ba 55f7 89b8 fd43 863a 3c77 7db9
00000340: 14c8 e939 66fe 3f39 41f3 a739 6cd0 42b8
00000350: c7a4 f839 2bd9 663a 1fc3 783a 3f16 ccb9
00000360: fe5f 803b 9ac3 fdb9 e453 2ebb 9fb7 7b38
00000370: 0489 2abb 747e d9b9 1b14 6a3a bd36 0d3a
00000380: aa2c 88ba e2bd 7eba c7c5 8939 6dec 43ba
00000390: 9ce8 993a 20dd 17ba cd5c 84ba bd59 97ba
000003a0: 1e07 923a 6985 153b 613a a639 45cb 2a38
000003b0: 3003 303a 169f 30bb c5a3 b4b9 4b5f 1b3b
000003c0: 7ae8 b839 cf01 9639 667b 9a3b a6f6 dab9
000003d0: 5c32 33bb b005 0b3a 5880 54ba e1c3 b5ba
000003e0: 8171 f3b9 e4ae 7b39 0d86 713a 2964 5fba
000003f0: baa2 01bb 1284 163b 1306 1039 31aa 1739
0.0001235224 0.0006897833 -0.0033331136 -0.00037266768 -0.00045345648 -3.2653592e-05 -0.002320162 0.0023397806
-0.0010737582 -0.0017240199 0.0039884364 -0.0001451082 7.566032e-05 0.0019490718 0.00069487584 -0.0017548836
-0.00074519805 -0.00049708347 -0.00012562692 -0.00029758364 -0.0006326387 -0.0003814109 0.0032437816 0.002034171
-0.0007141768 -0.00082986837 -0.0005527558 -0.00080947764 -0.0005653559 0.0005263502 0.0014138827 -0.00027175064
-0.0017013624 0.0022805368 -0.00017294099 0.0016737597 0.00028106314 -0.0014016229 -0.0018132973 -0.0013019542
-0.00018840266 -0.00090026046 0.0007497168 0.0011802196 -0.00022779412 -0.00034447195 0.001119583 -0.00014369455
0.0007396102 0.0010416899 0.00093183055 -0.00056856516 -0.0013603925 -0.00082276174 0.00046880954 -0.0010997129
0.000549734 0.0023359458 0.0015514174 -0.0012167561 0.001778533 -0.0022243906 -0.0006663618 -0.0034724842
-0.0005247199 0.00013313035 -0.0027648497 0.0022062885 0.0009909242 -0.00011662996 -0.00056902936 0.0010527984
-0.0015098167 0.0002769753 0.0023421233 -0.00054020475 8.5972024e-05 -0.0013801048 0.0020539593 0.0015439489
-0.001160486 -0.0022840763 -0.00192895 -0.0025671658 -0.00019955328 0.00011868013 -0.0012586524 -0.0012614727
-0.00030993522 0.00077526906 -0.0010229194 0.0016020446 0.0020441683 -7.8044957e-07 -0.00090659293 0.000533707
0.00031472038 0.000108969485 0.00092106423 0.0014350369 0.00034038594 -0.0036681723 0.0008025567 -0.00029436036
0.0009737396 0.0014444941 -0.00012835741 0.00030629142 -0.0016546412 -0.00026179006 -0.0014190093 0.00014611032
-0.0013949613 0.00030819583 -0.00042237132 0.00014992736 -0.0017548248 0.0011263654 -0.00085969974 -0.0007684221
-0.0022897623 8.463956e-05 -0.0044563417 0.0013886564 -0.0021189167 0.00014115855 -0.00070477644 -0.0012442335
0.0012238887 -0.0019028964 0.002234464 5.1312305e-05 -0.00038727687 0.0012285013 -0.002269833 -0.00072888867
-0.0009062711 0.00068697135 -0.0012882227 0.0013084841 -0.00086014403 0.0007929322 0.00042677563 -0.0012451058
-0.0003381471 -0.00093243265 0.001698025 0.002053235 -0.0009904925 -0.0022800693 0.00055440917 0.0009760818
0.001851517 -0.0010268844 -0.0015405102 0.0016138707 -0.0013857571 0.00094733597 0.00014268637 -0.00076902076
-0.00050881633 -0.0010359964 -0.000948841 0.001079942 -0.0012032896 0.0007650126 0.0006277053 -0.001710219
-0.0009742111 0.0021103825 -8.1671635e-05 -0.0018108663 -0.00061375595 -0.00024294724 0.00014019772 0.0016568842
-0.0006110199 0.0011259189 -0.0016591526 0.0023889386 -0.0010193831 -0.0017146673 0.00033944444 0.0014349215
0.00058448204 -0.0028606304 -0.0012846952 -0.000631317 0.00067724194 -0.001524456 0.0027474016 0.00077133375
0.001719916 0.00059388764 0.0006756854 -0.0006103337 0.00012256643 0.00012695728 -0.00080792204 0.0023480456
-0.0016223331 0.00013018858 -0.0004439401 -0.00023003016 -0.00057640654 -6.578738e-05 0.0010243651 -0.00024172378
0.00044590293 0.0001830995 0.0003203396 -4.6447312e-05 0.00047425015 0.0008806164 0.00094895245 -0.00038926487
0.003917693 -0.00048401655 -0.0026600296 6.0014074e-05 -0.002602161 -0.0004148368 0.00089293875 0.000538688
-0.0010389287 -0.0009717626 0.00026278032 -0.000747389 0.0011742297 -0.0005793143 -0.0010098458 -0.001154713
0.0011141037 0.0022815114 0.00031705483 4.0720468e-05 0.0006714342 -0.0026950291 -0.00034454293 0.0023707922
0.00035268423 0.00028611577 0.0047144173 -0.00041763968 -0.002734325 0.00053032767 -0.0008106283 -0.001386758
-0.0004643314 0.00024002377 0.00092133955 -0.00085217 -0.001978083 0.0022966904 0.00013735173 0.00014463883

layer_2.weight f4 [300, 400]
00000000: e338 683c f630 fdbc e1e5 f63c 5656 8dbc
00000010: 88f8 513c ca8d 3b3b 605a 123d 5143 38bc
00000020: 0faf a1bc f1dd 12bc 5c87 c639 ea26 b5bc
00000030: 38e4 0d3d 7cd4 dcbc 2d57 003c be7f 1dbd
00000040: a11b cebb eedf 31bc c187 a4bc 60ab d53c
00000050: 4259 37bd bd29 a93b 40e2 9bbb 3eaa dabc
00000060: cdf9 1e3d 5127 033d d219 773c c5ae 693a
00000070: 5790 f23c 6ac9 a9bc 44fe 26bd 1f2f 443d
00000080: f792 99bc 27d9 233c 0a18 623a 030d 2b3d
00000090: 4865 4f3d 181e 0abd 5192 e3b9 308e 25bd
000000a0: 7c76 043d 8735 433d e0db 8cbc 5220 fd3b
000000b0: 3de1 14bc bdb3 47bc b7d5 223d dfb0 3ebd
000000c0: ec90 e4bb 5db3 24ba b3de 34bd 2f1f a93c
000000d0: 0fa4 083d f70c 1fbd 85b0 9d3c 39b7 54bb
000000e0: 5aa5 483d 5d94 3fbd d849 2d3d 2c78 98bc
000000f0: dba9 2b3d cab1 d0bc bb69 093c 9884 413c
00000100: 9174 f63c 0261 ca3c 0bd3 e43c a11d 2ebc
00000110: 1258 22bd a98c 0f3a 145d 3e3d 59be 313d
00000120: 0a15 f2bc 8160 0a3d 8028 b43c b05c 10bc
00000130: c5b6 df3c 3b0d 0cbb 6661 c43b 5986 06bd
00000140: a525 b1bb ec94 503d b58b f63c 28e0 25bd
00000150: dc32 90ba c09d 013d 7582 a9bc 1b17 cfbb
00000160: 05a4 d63c f365 2c3d 132d 363d 1851 14bd
00000170: b44c 43bd e068 103d 4612 82bb 3496 383d
00000180: e0d5 113d cf25 a1bc ecd0 693c e8bd 883c
00000190: 1938 92bc a986 3a3d 98aa 883b 567e 86bc
000001a0: b6fb 3abd f3e1 223d b763 4bbd 3453 1d3d
000001b0: eaff 8fbc d505 16bc 54fe 0b3c cfd6 4b3d
000001c0: 9fba 03bd 62e4 19bd 97fd f53c c345 c9bc
000001d0: 1ec1 96bc 67a7 eb3c 1e47 acbc 34a3 f73c
000001e0: 5efd 9dbc 503d 1a3d ae9b 4b3d 7e0b df3b
000001f0: 8e96 85bc 93c3 ed3c 39c2 413c d1a3 8d3a
00000200: 4180 403d 40cb 0ebb 8455 8f3c 21dc 76bc
00000210: b38e 12bc 5d74 12bb ed74 563b 4700 b23c
00000220: 7117 1a3d 6579 fb3c e939 adbc 9141 373d
00000230: 8687 093d 7335 933c 0276 af3b 6ba6 e7bc
00000240: 5509 f6bc 0516 5739 7fa5 18bd 54dd 8a3c
00000250: 8838 3abd 5f44 35bd d82a bbbc 716e f73c
00000260: a40e 203d 5a21 31bd b093 01bd 3592 333c
00000270: 82eb 0dbc d73c 2abd 9f54 623c 1394 2abd
00000280: 7707 473b e63c a83c 2199 3c3d d331 27bd
00000290: 0328 233d 7873 e73b 1100 323d 4dc5 4a3d
000002a0: e4ac 54bc 0426 ffbb 2275 44bc 6931 213d
000002b0: 0f82 b9bc 69eb 073d c4f1 a83c b12e 3a3d
000002c0: 1dbc 103d 263b 263d 36f2 27bd c1af d7bc
000002d0: 9fb3 11bd b0f4 dc3c dfab 233c f30a a13c
000002e0: 031c 993c 934e 073b bd10 9d3c 2b10 e3bc
000002f0: 4c20 093d 38da 38bd 3928 3cbd 70e2 8b3c
00000300: def3 3f3d d02f 97bc 2d72 463d efff 91bc
00000310: 3e9e 13bd cab7 00bc 2f8a f03c f449 d5bc
00000320: 5872 403d 8c26 b7bc fdf0 a6bc 1921 aabc
00000330: b7bd 1bbd d3e2 393d e965 e9bc 0d70 b8bc
00000340: 0738 79bc 9716 2c3d aea9 cb3c 39a4 9a3c
00000350: 416d 48bc 7ff6 da3c 92a7 143c 0fdd 223d
00000360: baff 483c 86a1 113d 394b 0f3d 0bb7 0e3c
00000370: 2796 44bd 680b 383c 9149 1abd 1bcd 193c
00000380: 862d babb 84aa 223d 1cbc 13bd 6885 2bbd
00000390: 75fb a93c 94e6 063d 7991 34bc a163 5c3c
000003a0: 5217 243d d628 9f3b 8035 66bc 1ea9 f53c
000003b0: ca72 383d cb1b 0dbc a87f 0e3d 0c25 863b
000003c0: 0c60 0dbc f189 91bb 1b4a 47bd 87e6 c63c
000003d0: 179a dfbc ce78 2ebd 51bd e5bb 303b b5bc
000003e0: a75e 02bd 8cb1 49bc ad7a b0bb ddc1 853c
000003f0: 0df2 dd3b de2b ddbb 2a99 343c 4b88 f4bc
0.014173719 -0.030907135 0.030138912 -0.017253082 0.012815602 0.0028618448 0.03573072 -0.011246518
-0.019736795 -0.008964048 0.00037866354 -0.022113282 0.034641474 -0.02695679 0.007833284 -0.038451903
-0.0062899147 -0.010856612 -0.020084264 0.026082695 -0.044762857 0.0051624463 -0.0047571957 -0.026692506
0.038812447 0.032019917 0.01508184 0.00089142873 0.029609842 -0.020725925 -0.04076983 0.0478965
-0.018746836 0.010000504 0.0008624798 0.041760456 0.0506337 -0.033720106 -0.00043405828 -0.040418804
0.032339558 0.04765847 -0.017194688 0.0077248 -0.009086904 -0.012188849 0.039754596 -0.046555396
-0.006975284 -0.0006282831 -0.044157695 0.020644752 0.033359583 -0.038830724 0.01924921 -0.0032457842
0.048985817 -0.04677235 0.04230675 -0.01861199 0.041910034 -0.025475401 0.0083870245 0.011811398
0.03008488 0.02470446 0.027932664 -0.010627181 -0.03963477 0.0005475977 0.046475485 0.04339442
-0.029551048 0.03378344 0.021991968 -0.008811161 0.027308831 -0.002137019 0.005993056 -0.032842968
-0.005406099 0.050923273 0.030095914 -0.040496975 -0.0011001485 0.031644583 -0.02069209 -0.006319893
0.026201257 0.042089414 0.04447658 -0.03621015 -0.04768057 0.035256267 -0.0039694635 0.04506512
0.035604358 -0.019671349 0.014271002 0.016692117 -0.017849015 0.04553858 0.004170727 -0.016417664
-0.045650207 0.039766263 -0.049655642 0.038409427 -0.017578084 -0.009156664 0.008544523 0.049765404
-0.032160398 -0.03757132 0.030028148 -0.024569398 -0.018402632 0.028766347 -0.021030005 0.030229189
-0.019285854 0.03765613 0.049709015 0.00680679 -0.016307142 0.029023921 0.011826091 0.0010806267
0.046997312 -0.0021788627 0.017496832 -0.015067131 -0.008945155 -0.002234719 0.0032723502 0.021728648
0.03762001 0.030697534 -0.021145778 0.044740263 0.03357651 0.017969823 0.005354644 -0.028277596
-0.030033747 0.000205122 -0.037267204 0.01695124 -0.04546407 -0.044254657 -0.022847578 0.03020403
0.039076462 -0.043244697 -0.031634986 0.010960151 -0.0086621065 -0.041561928 0.013814121 -0.04164512
0.003036944 0.020536851 0.046044473 -0.040819 0.03983308 0.0070633255 0.043457095 0.049504567
-0.012980673 -0.0077865142 -0.011990817 0.03935376 -0.022645025 0.03318349 0.020623095 0.045454685
0.03533565 0.040583752 -0.041002475 -0.026328923 -0.03557169 0.026972145 0.009989708 0.019658541
0.018690115 0.00206462 0.01917302 -0.02771767 0.033478066 -0.045129985 -0.045936797 0.017075747
0.04686343 -0.018455416 0.04844873 -0.017822234 -0.036039583 -0.007856319 0.029362766 -0.02603624
0.046984047 -0.022357248 -0.020378584 -0.020767735 -0.038022723 0.045382332 -0.028490977 -0.022514367
-0.015211112 0.04201373 0.024861183 0.018877136 -0.012233079 0.026728867 0.009073155 0.0397616
0.012268001 0.03555443 0.034983847 0.008710633 -0.04799476 0.011233188 -0.037667815 0.00938728
-0.0056816963 0.039713398 -0.036068067 -0.041875273 0.020749787 0.03293474 -0.0110210115 0.013451488
0.040061302 0.004857163 -0.014050841 0.029987868 0.045031346 -0.008612583 0.03478971 0.004093772
-0.008628856 -0.0044414927 -0.048654657 0.024279846 -0.027295155 -0.042595677 -0.0070110937 -0.02212295
-0.03182855 -0.012310397 -0.005385718 0.016327793 0.0067732395 -0.006749614 0.011022845 -0.029850146

layer_2.bias f4 [300]
00000000: 1708 c9bc 0ceb ca3c 2058 413a 3783 243d
00000010: c82d 1fbd 4c11 3b3c fb1e 2bbd 177d 28bd
00000020: 15a9 ce3c 8847 37bd b423 203d dc42 603c
00000030: 2564 f03c 29ac 8abc 16ea 3ebc f91c 37ba
00000040: c005 933c 1550 b93b b90e e8bc ac3f 8b3c
00000050: 0f0f 5bbb fef0 843c e0a9 18bd f726 f53c
00000060: 66c9 9f3c 2a6b 733b 82cd ba3c 6c61 03bd
00000070: 0861 a9bc 6bae dbbc 35bb cf3c 0919 32bd
00000080: 9f2f ab3c cdea 463d 5796 e9bc 5e69 573c
00000090: 855d 55bc 063a 6ebc 6be1 e2bc 7c8a ddbc
000000a0: c42b 2e3d 6db0 18bd 767e 04bd 60bd d93c
000000b0: ba63 05bc 146a 383b 13be 053d 0f7e 48bd
000000c0: 729d c0bc 90df 943c a5c2 b83c 7985 453d
000000d0: 5fd9 15bc 04e4 2abd 31d5 a6bc cd76 19bd
000000e0: 3356 2fbd 20d6 03bd 4355 45bc 2f99 e73c
000000f0: b4af 03bd 14a7 2bbd a730 943c 92f7 363d
00000100: 811b 343d f409 dfbc 8876 d7bb 5e11 58ba
00000110: b9a5 f5bc 13ef 283d 7807 0b3c 75f4 f7bc
00000120: ddbd 2dbd 2af6 d13c ee37 3d3d e41c c53b
00000130: 4437 abbb d778 d4bb 7d2d f33c 48fd 0bbd
00000140: 0b35 b63c 4b9e 043d 6f3c fcbc 5d02 9cbc
00000150: c06a b2bc b69d f7bc 9b1a 213d cd56 dbbc
00000160: c666 1ebc 57fe 463d c131 bb3b 88c9 493d
00000170: a565 073c 64a4 1e3d 5241 4bba 5c7e ed3c
00000180: bf81 003d 168a c2bc 7290 41bd cece 26bd
00000190: a535 3e3d 763d 9bbc f90e a1bc fa77 acbc
000001a0: 2626 b13c e6db 1d3d 5d17 fa3c 2a0a 113d
000001b0: 386a 3b3d 71ca a3bc 0d0f 04bc dfa3 023d
000001c0: f7e1 93bc 4b5a 88bc f36a 4fbc 67bd ac3c
000001d0: a48d e0bc 2c1d 6a3c 6145 0e3a 613c c0bc
000001e0: 00cb 99bc 8024 e43c 6e3e 0fbd f312 3c3d
000001f0: f90f 3cbc ab65 383d ab10 a73c 0e7d 17bd
00000200: 2286 ccbb e786 413c 3fb0 913c 23f8 1b3c
00000210: ae6f 953c c621 b53c 8161 bfbb 8627 383c
00000220: f770 093c 4897 2a3d 4566 0fbd 0c91 1d3d
00000230: e984 9d3c b95c ad3b d0ee bb3c edb7 44bb
00000240: b751 28bd cc06 213d 7a2d 573c 96bc 293d
00000250: 5cc4 343d 2bbb 2ebd 631a b63c 1130 223d
00000260: 5b7b f3bc 8542 973c 7673 21bd a16d d23c
00000270: c6d6 33bd ed61 fa3c 26f1 0d3b 410a 4abd
00000280: c19e 2e3d 9c2f 0ebc 03e9 153d f7b2 0bbd
00000290: eb79 a73c 06f7 2e3d 6861 44bd 15fc 3c3d
000002a0: 841a 843c 2161 32bd 7724 1dbd a052 47bd
000002b0: f66b a83c 33b7 883c ccfe aebc 952b de3c
000002c0: 75ac 18bd d72d 1f3d cb5b 74bb 27a8 9d3c
000002d0: 6d3d c7bc 460d 3fbd f4aa 523d ad97 403d
000002e0: 3207 0ebc 106b 8f3c 49ef 28bd 54f8 d33c
000002f0: ebc5 3abd 3a64 27bd 9ff4 0f3c 1932 a33c
00000300: a87d b8bc 399b 463d a35a 52bc 3413 373c
00000310: 3379 ac3c 456a c53c 83cf f7bc 5235 adbb
00000320: 1654 193d 0b44 d83a 9e5e 3b3d 5b0f b53c
00000330: 208d 713b f9cc d73c 4ab8 fd3c 5c1a c9bc
00000340: 5737 443d 5b6b 84bc 689c 4cbc 3d89 eebc
00000350: 933e 87bc db3b 08bd 0f00 bdbc d6f2 80bc
00000360: cefb bc39 a9ce e93c cec6 953c 8abb debc
00000370: d8e5 753c e04b 14bd be40 94bc b78c 9a3c
00000380: 1d62 9f3c c74c 6b3c b80c 873c 468e 56bc
00000390: 9c91 353d 3e88 32bd 688d 1f3d 350a 9e3c
000003a0: 1b8e babc 59d4 0ebc 5f00 8e3b 51d9 9abc
000003b0: ce3d 033d 86f3 ca3c ab52 09bd 2078 153c
000003c0: 726c 353d 8b01 a93c 05ca 253d e80d dd3c
000003d0: 9c89 3a3d 1411 083c ee93 17bc 4f1b 173d
000003e0: 307d a7bc 58db dfbc b1ea d6bc be76 193d
000003f0: ad0f 01bd ee01 19bd 9617 e1bc bb43 dbbc
-0.02453999 0.024770282 0.00073754974 0.0401642 -0.03886202 0.011417698 -0.041777592 -0.04113492
0.025227109 -0.044745952 0.03909655 0.0136878155 0.029344628 -0.016927795 -0.01165249 -0.0006985213
0.017947078 0.0056552985 -0.028327333 0.016998135 -0.0033425724 0.016228195 -0.03727138 0.029925806
0.019505214 0.0037142732 0.022803072 -0.03207533 -0.02067615 -0.026816567 0.025357822 -0.043480907
0.020896731 0.048563767 -0.02851407 0.01314768 -0.013022785 -0.014540201 -0.027695378 -0.027043574
0.042522207 -0.037277628 -0.032347165 0.026579559 -0.008141452 0.00281394 0.032651972 -0.048948344
-0.023512576 0.01817301 0.022553751 0.048222993 -0.009146064 -0.04172136 -0.02036533 -0.037466813
-0.042806815 -0.032186627 -0.012044254 0.028271286 -0.032149985 -0.041907385 0.018089605 0.044669695
0.043971542 -0.027226426 -0.0065754093 -0.0008242334 -0.02998625 0.041243624 0.008485667 -0.030267933
-0.042417396 0.025630075 0.046195917 0.006015407 -0.005225094 -0.006484132 0.029684776 -0.034177095
0.02224209 0.032377522 -0.030790536 -0.019044096 -0.021779418 -0.03022657 0.039332014 -0.026774788
-0.009668058 0.0485824 0.0057127182 0.04926446 0.00826398 0.038730994 -0.0007753569 0.028990917
0.031373736 -0.023747485 -0.047256894 -0.040724568 0.04643788 -0.018950205 -0.01966046 -0.021053303
0.021624636 0.03853979 0.030528719 0.035410084 0.045755595 -0.019993993 -0.008060229 0.03189456
-0.018052084 -0.016644618 -0.012659776 0.021086408 -0.02741129 0.014289182 0.00054272084 -0.02346629
-0.018773556 0.027849436 -0.034971647 0.04591651 -0.011478418 0.045018833 0.02039369 -0.036984496
-0.006241576 0.011811948 0.017784236 0.00951961 0.01824173 0.022110831 -0.005840481 0.011239892
0.008388749 0.04164818 -0.03500964 0.038468406 0.019228416 0.0052905944 0.022941023 -0.0030016855
-0.041093554 0.039313123 0.013133401 0.041439615 0.044132575 -0.042658966 0.022229379 0.03959662
-0.029721906 0.018464336 -0.039416753 0.02568704 -0.043905996 0.030564273 0.0021658628 -0.049326185
0.04263187 -0.008678343 0.03659917 -0.03410622 0.020443877 0.04271605 -0.047944456 0.04613884
0.016125925 -0.04354966 -0.038364854 -0.04866278 0.020559292 0.016688919 -0.021361731 0.02712039
-0.037273843 0.038862076 -0.0037286158 0.01924522 -0.024321282 -0.046643518 0.051432565 0.04701965
-0.008668708 0.017507106 -0.041243825 0.025875248 -0.045598906 -0.040867068 0.00878635 0.01992135
-0.022520855 0.048487876 -0.012838992 0.011174012 0.021053886 0.024098525 -0.030250316 -0.0052858973
0.037433706 0.001649977 0.04574453 0.022102049 0.0036857799 0.026342856 0.030971665 -0.024548702
0.04790434 -0.016164472 -0.012488462 -0.029118175 -0.01650933 -0.033260208 -0.023071317 -0.015740793
0.00036045763 0.028540926 0.018283274 -0.027189035 0.015008412 -0.036205173 -0.018097278 0.018865926
0.019455964 0.014361567 0.016485557 -0.013095444 0.044328317 -0.043586962 0.038953215 0.019291976
-0.02277284 -0.00871762 0.0043335403 -0.018902453 0.032041363 0.024774324 -0.033526104 0.009122878
0.044292875 0.020630619 0.040475864 0.02698417 0.04554139 0.008304853 -0.009251578 0.036891278
-0.020445436 -0.027326271 -0.026234956 0.037466757 -0.03150909 -0.037355356 -0.027477067 -0.026765695

ln2.weight f4 [300]
00000000: 7b13 803f 7d3e 803f f00d 803f 0904 803f
00000010: 0b26 803f 7f3b 803f 6203 803f 2834 803f
00000020: e32a 803f 0328 803f 0418 803f d614 803f
00000030: 673e 803f 8615 803f 1a20 803f 95c9 7f3f
00000040: a9c3 7f3f 8ce5 7f3f a99b 7f3f f54d 803f
00000050: 71db 7f3f 510d 803f 9215 803f 02ea 7f3f
00000060: f020 803f 540a 803f 3808 803f 7725 803f
00000070: 9036 803f d213 803f 9b2c 803f 222c 803f
00000080: bb55 803f 3c39 803f b450 803f d121 803f
00000090: 0ce1 7f3f ae78 803f df24 803f 0a25 803f
000000a0: b21d 803f f417 803f 6444 803f df4a 803f
000000b0: db6e 803f 3c6b 803f aa3b 803f 6dc5 7f3f
000000c0: 3a25 803f aa17 803f ac33 803f 7646 803f
000000d0: 7b36 803f 68d6 7f3f 74c5 7f3f 2531 803f
000000e0: f81f 803f 5808 803f 40fb 7f3f c4af 7f3f
000000f0: 8c0e 803f 3720 803f 06ce 7f3f da09 803f
00000100: 2721 803f 74b5 7f3f 0c29 803f 9bf7 7f3f
00000110: 18d5 7f3f d50e 803f 2cc6 7f3f 621b 803f
00000120: 5145 803f f046 803f 9383 7f3f 1b24 803f
00000130: 2d1e 803f eb23 803f 0853 803f a420 803f
00000140: 9b18 803f 38c8 7f3f 28ce 7f3f f18d 803f
00000150: ed21 803f ee15 803f 1eef 7f3f b704 803f
00000160: c001 803f 992e 803f e15f 803f 5310 803f
00000170: fb0a 803f f431 803f 3206 803f 2289 803f
00000180: 3976 803f 9007 803f c10c 803f 1e0e 803f
00000190: 6e40 803f 6a06 803f 6250 803f dac6 7f3f
000001a0: 4f45 803f 6643 803f 6bb7 7f3f 1538 803f
000001b0: fefb 7f3f 3ffd 7f3f b169 803f 430a 803f
000001c0: 550e 803f ae3a 803f 6037 803f 3ef1 7f3f
000001d0: ae1f 803f 3520 803f ef0f 803f f8a6 803f
000001e0: fdca 7f3f 1129 803f d90a 803f a12f 803f
000001f0: 5f11 803f 3742 803f 4bc3 7f3f a5ce 7f3f
00000200: d016 803f 8204 803f 1716 803f c51d 803f
00000210: a4f7 7f3f 326f 803f 72c9 7f3f d713 803f
00000220: 6e26 803f b243 803f 1fd6 7f3f 7d27 803f
00000230: 4e1b 803f 861c 803f fc19 803f 9f21 803f
00000240: ea3c 803f 0f23 803f 2d21 803f 1e2a 803f
00000250: 930e 803f 66d1 7f3f e633 803f b91f 803f
00000260: ec10 803f 925c 803f e11a 803f 1b12 803f
00000270: 924d 803f 3027 803f c30f 803f f53a 803f
00000280: 56c7 7f3f 7dc5 7f3f 111b 803f ee1a 803f
00000290: f973 803f f902 803f f11d 803f 0822 803f
000002a0: 4b2d 803f 9234 803f d98d 803f 4905 803f
000002b0: 7711 803f ae55 803f 2124 803f 96df 7f3f
000002c0: 6923 803f 7720 803f ee1d 803f c4d4 7f3f
000002d0: 37f3 7f3f 9c25 803f 322d 803f 261f 803f
000002e0: 1d3c 803f d220 803f 611d 803f 7813 803f
000002f0: feec 7f3f 7319 803f b4f6 7f3f b81e 803f
00000300: 960c 803f 4568 803f ce13 803f 901f 803f
00000310: 5df6 7f3f 1c20 803f 189f 803f e328 803f
00000320: cf26 803f 6f14 803f f71f 803f 690d 803f
00000330: 5720 803f 1d07 803f d900 803f 0123 803f
00000340: 5ec8 7f3f a820 803f 7540 803f da04 803f
00000350: 47b6 7f3f d619 803f 8a07 803f 6520 803f
00000360: 7e10 803f de20 803f 1b24 803f 6f21 803f
00000370: 9876 7f3f 2afa 7f3f e8de 7f3f 763b 803f
00000380: ca0b 803f 7be7 7f3f 9817 803f 3623 803f
00000390: 8968 803f 0297 803f 7603 803f fac8 7f3f
000003a0: f2ce 7f3f 062d 803f 7dc6 7f3f 4229 803f
000003b0: ff87 803f f017 803f 4de2 7f3f cc20 803f
000003c0: f7c4 7f3f f127 803f a828 803f 8f33 803f
000003d0: 6009 803f 7821 803f 222e 803f 8d86 803f
000003e0: c220 803f b125 803f 863d 803f fa35 803f
000003f0: 1dca 7f3f 8f35 803f 8804 803f 422b 803f
1.0005945 1.001907 1.0004253 1.0001231 1.001161 1.0018157 1.0001032 1.0015917
1.0013088 1.0012211 1.0007329 1.0006359 1.0019044 1.0006568 1.0009797 0.99916965
0.9990793 0.99959636 0.99846894 1.0023791 0.99944216 1.0004064 1.0006583 0.9996644
1.0010052 1.0003152 1.0002508 1.0011433 1.0016651 1.0006049 1.0013613 1.0013468
1.0026163 1.0017467 1.0024629 1.001032 0.9995277 1.0036829 1.0011252 1.0011303
1.0009062 1.000731 1.0020871 1.0022849 1.003383 1.0032725 1.0018208 0.9991062
1.0011361 1.0007222 1.0015769 1.0021503 1.0016626 0.9993653 0.99910665 1.0014998
1.0009756 1.0002546 0.9999275 0.9987757 1.0004439 1.0009831 0.9992374 1.0003006
1.0010117 0.9988625 1.0012527 0.9998719 0.9993453 1.0004526 0.9991176 1.0008357
1.0021154 1.0021648 0.9981014 1.0011019 1.0009209 1.0010961 1.0025339 1.0009961
1.0007509 0.99914885 0.99923944 1.0043317 1.0010353 1.0006692 0.9997424 1.0001439
1.0000534 1.001422 1.002926 1.0004982 1.0003351 1.0015244 1.0001891 1.004185
1.0036079 1.0002308 1.0003892 1.0004308 1.0019662 1.0001957 1.0024531 0.999128
1.0021151 1.0020568 0.9988925 1.0017115 0.99993885 0.999958 1.0032254 1.0003132
1.0004374 1.0017908 1.0016899 0.9997748 1.0009668 1.0009829 1.0004863 1.0050955
0.9991911 1.0012532 1.000331 1.0014535 1.0005301 1.0020207 0.9990737 0.9992469
1.0006962 1.0001376 1.0006741 1.0009085 0.99987245 1.0033934 0.99916756 1.0006055
1.0011728 1.0020659 0.999361 1.0012051 1.0008333 1.0008705 1.000793 1.001026
1.001859 1.0010699 1.0010124 1.0012853 1.0004448 0.9992889 1.0015838 1.0009681
1.0005164 1.002825 1.0008203 1.0005525 1.0023673 1.0011959 1.000481 1.0017992
0.9991354 0.9991072 1.000826 1.0008218 1.0035392 1.0000907 1.0009137 1.0010386
1.0013822 1.0016043 1.0043288 1.0001613 1.000533 1.0026147 1.0011026 0.9995054
1.0010806 1.0009907 1.0009134 0.9993403 0.9998049 1.0011477 1.0013793 1.0009506
1.0018345 1.0010016 1.0008966 1.0005941 0.99970996 1.0007766 0.99985814 1.0009375
1.0003841 1.003182 1.0006044 1.0009632 0.99985296 1.0009799 1.0048552 1.0012478
1.0011843 1.0006236 1.0009755 1.0004092 1.0009869 1.0002171 1.0000259 1.0010682
0.9991511 1.0009966 1.0019671 1.000148 0.9988751 1.0007885 1.0002301 1.0009886
1.0005033 1.001003 1.0011019 1.0010203 0.99790335 0.99991095 0.999495 1.0018146
1.0003598 0.99962586 1.00072 1.0010746 1.0031902 1.0046084 1.0001056 0.9991604
0.9992515 1.001374 0.99912244 1.0012591 1.0041503 1.0007305 0.9995468 1.0010009
0.9990992 1.0012189 1.0012407 1.0015734 1.0002861 1.0010214 1.0014079 1.0041062
1.0009997 1.0011503 1.0018775 1.0016472 0.99917775 1.0016345 1.0001383 1.0013201

ln2.bias f4 [300]
00000000: 615c 813a 8e41 803a 07dd 8eba f987 823a
00000010: e36c 99ba 2af4 673a f1b8 c83a 4e58 893a
00000020: e99e 7e3a a80d 7b3a 435c 81ba 95d7 6f3a
00000030: 22b5 753a d17a 81ba 4202 87ba 0af7 6c3a
00000040: b809 84ba c3d6 863a 55f1 80ba f29c 763a
00000050: 3737 85ba eb13 82ba eb18 803a b559 81ba
00000060: 4053 77ba 0616 86ba 01f2 8c3a e304 803a
00000070: f27a 80ba 02de 6a3a eb1d 803a 49f1 8c3a
00000080: 5445 833a fc1b 79ba 1a79 9bba 9dc9 803a
00000090: 14d4 1b3a c152 7eba e0b0 9aba faf9 803a
000000a0: 0818 823a 7882 81ba 6290 7f3a fa0f 83ba
000000b0: a5cc 793a f07c 813a 4a40 dfba a507 7b3a
000000c0: 9a6f 7b3a b7f5 84ba 4991 7f3a 1f73 80ba
000000d0: ea37 443a 47c0 4d3a f9a2 74ba ca59 7f3a
000000e0: cac5 86ba 931b 80ba 52a8 7bba 1cec 793a
000000f0: 74e7 7fba 27a8 87ba 03c3 84ba 201c 573a
00000100: 0a07 87ba 127a 7c3a 035b 7c3a 91fd 7fba
00000110: 1dc8 843a fc0b 7fba ab97 793a 1a17 7d3a
00000120: cf11 86ba 76c6 83ba cf32 823a b669 7e3a
00000130: 4f58 8eba 9901 7fba 9e1e 8d3a 3ae3 87ba
00000140: 05bc 823a 9822 723a e5c3 7cba d76c 7fba
00000150: e398 8eba 5d27 7fba 8359 81ba 04d2 813a
00000160: be77 88ba c3a0 803a 97c4 873a c21c 833a
00000170: 3f9d 813a 7280 70ba a70b 87ba 604b 7dba
00000180: b2bd 81ba 96eb 83ba 63bd 7b3a 6cd7 803a
00000190: 77f1 83ba 5f04 86ba 2e35 7dba b427 813a
000001a0: 0ff4 893a 9087 84ba 2565 7f3a b850 843a
000001b0: 0940 83ba d368 823a 9ce9 643a fd3f 6fba
000001c0: 4564 bc3a 69dc 7e3a 6878 82ba 87e0 833a
000001d0: ac8a 85ba a59f 87ba 4a74 813a 65ba 063a
000001e0: fb94 7e3a ca6c 82ba 70f6 7eba 9f96 79ba
000001f0: 51d1 81ba 6e93 85ba 1992 7e3a 4e8e 573a
00000200: 72c8 94ba 9b4b 82ba 2114 823a c773 87ba
00000210: 7c8d 85ba beb8 7fba 9fa5 6eba 3487 63ba
00000220: e722 7a3a e8cc 81ba 8ed2 7c3a 4163 803a
00000230: f3ef 803a a5f0 813a a480 85ba 4ddb 7f3a
00000240: 6722 7f3a 0254 803a e403 853a 683a 783a
00000250: 2caa 7aba b487 4b3a 7816 7c3a 3f20 87ba
00000260: 2a8b 803a 6a05 8cba 139a 7e3a bc46 813a
00000270: dff3 843a b24b 793a b179 85ba f676 803a
00000280: 1dfc 743a 9e24 783a fbf3 84ba 8810 7cba
00000290: 6333 83ba 9b2c 7fba 8e6e 87ba a90c 87ba
000002a0: 12ad 853a 05cb 7c3a 8842 813a ad63 5f3a
000002b0: 7d72 82ba fec9 81ba a476 7f3a 5658 85ba
000002c0: 8ae6 7eba bafd 92ba 6e23 85ba c5f4 3b3a
000002d0: 6301 863a 2b9c 803a 27f8 803a d474 7fba
000002e0: ff98 7fba 724d 7fba 118d 7f3a 06c9 81ba
000002f0: 9d76 833a 7300 80ba 0b03 7bba bb1c 8cba
00000300: ba9e 813a 7fcb 78ba b173 813a 3200 85ba
00000310: 84cb 823a 04ff 833a a7c2 5eba 2c4c 7d3a
00000320: 58c0 803a 2d14 7b3a e6ec 85ba 6fa0 81ba
00000330: 5a05 88ba 31e7 78ba 0abc 7bba 4fc5 7a3a
00000340: 5711 7f3a df33 803a 6b90 78ba aa25 80ba
00000350: 7015 84ba af2b 853a 60cb 82ba e750 88ba
00000360: 01b1 80ba a63a 833a 2360 97ba 3ac9 89ba
00000370: abe7 813a bc3b 82ba bb24 533a 0d9f 7cba
00000380: 671e 933a ef80 7bba 7a07 84ba fa91 803a
00000390: d726 9e3a b439 6fba aac0 833a d970 723a
000003a0: 1885 91ba 1fa0 7a3a 6e47 793a 516d 853a
000003b0: 77c1 70ba 0fd4 85ba 5feb 7f3a 83b3 89ba
000003c0: a021 7a3a 26ca 80ba 6d61 7a3a 760e 8bba
000003d0: 8215 6fba 7dc7 86ba d2f4 853a e434 78ba
000003e0: c48f 89ba 2032 773a 2d94 813a 4683 7e3a
000003f0: 603d 743a 1683 8b3a d599 7dba a15e 803a
0.000986945 0.0009785162 -0.0010899612 0.0009958736 -0.0011705424 0.0008848334 0.0015313906 0.0010478587
0.00097130105 0.0009576925 -0.0009869415 0.00091492507 0.0009372999 -0.0009878521 -0.0010300355 0.0009039497
-0.0010073697 0.0010287393 -0.0009837548 0.0009407542 -0.001016355 -0.0009924149 0.0009773051 -0.0009868654
-0.00094347075 -0.0010229952 0.0010753275 0.0009767081 -0.0009802266 0.00089594733 0.0009774541 0.0010753061
0.0010015168 -0.0009502766 -0.0011861653 0.000982571 0.0005944383 -0.00097016623 -0.001180198 0.0009840124
0.0009925375 -0.0009880802 0.0009748993 -0.0009999268 0.00095290906 0.0009879153 -0.001703271 0.0009576029
0.000959152 -0.001014403 0.0009749127 -0.0009799934 0.00074851385 0.0007848781 -0.0009332146 0.00097408576
-0.0010282334 -0.0009773843 -0.0009599972 0.0009533779 -0.0009761967 -0.0010349796 -0.0010128919 0.000820579
-0.001030178 0.0009631227 0.0009626599 -0.00097652624 0.0010130439 -0.0009729264 0.00095211965 0.00096546265
-0.0010228696 -0.0010053653 0.0009933355 0.0009705083 -0.0010860058 -0.0009727716 0.0010766571 -0.0010367401
0.0009974247 0.0009236722 -0.00096422277 -0.00097436964 -0.0010879304 -0.00097333436 -0.0009868596 0.0009904508
-0.0010411663 0.0009813536 0.0010358271 0.0010003077 0.0009888782 -0.0009174413 -0.0010303155 -0.0009662416
-0.0009898453 -0.0010064717 0.0009603111 0.0009829826 -0.0010066469 -0.0010224691 -0.00096591085 0.0009853751
0.0010525006 -0.0010111202 0.000974255 0.0010094857 -0.0010013591 0.0009949453 0.000873232 -0.00091266615
0.0014373144 0.0009722175 -0.0009954097 0.0010061421 -0.0010188422 -0.001034726 0.0009876576 0.0005139469
0.0009711531 -0.0009950635 -0.0009726053 -0.00095210405 -0.00099043 -0.0010191032 0.00097111013 0.0008222804
-0.0011351241 -0.0009940745 0.0009924212 -0.0010334187 -0.001018926 -0.0009755007 -0.0009103659 -0.00086795096
0.0009541944 -0.0009902986 0.0009644412 0.0009795205 0.0009837135 0.0009913637 -0.0010185433 0.00097601564
0.00097326044 0.0009790661 0.0010148254 0.00094691524 -0.0009562101 0.0007764057 0.0009616385 -0.0010309293
0.0009807099 -0.0010682766 0.000971229 0.0009863 0.001014348 0.00095098757 -0.0010183362 0.0009801078
0.0009345429 0.00094659056 -0.0010143513 -0.00096155005 -0.0010009821 -0.0009734125 -0.001033263 -0.0010303456
0.0010198674 0.00096432894 0.0009861747 0.0008521628 -0.0009952333 -0.0009902117 0.0009745157 -0.0010173421
-0.0009723684 -0.0011214532 -0.0010157654 0.00071699574 0.0010223802 0.0009812167 0.000983958 -0.0009744887
-0.0009750276 -0.0009739018 0.00097484986 -0.0009901829 0.0010029856 -0.0009765759 -0.00095753436 -0.0010689715
0.0009889223 -0.00094907725 0.0009876398 -0.0010147153 0.0009978865 0.0010070507 -0.00084976334 0.00096625346
0.0009822948 0.00095778966 -0.0010217696 -0.0009889732 -0.0010377571 -0.00094948994 -0.000960291 0.00095661444
0.0009730062 0.0009781084 -0.0009481969 -0.000977685 -0.001007719 0.0010160113 -0.0009978823 -0.0010400087
-0.0009818376 0.0010011985 -0.0011549037 -0.0010512241 0.0009910961 -0.0009936015 0.00080544845 -0.00096367375
0.001122427 -0.0009594103 -0.0010073029 0.0009809129 0.0012066019 -0.0009125725 0.0010051925 0.0009248383
-0.0011102287 0.0009560603 0.000950924 0.0010179674 -0.0009184102 -0.0010210293 0.0009762551 -0.0010505769
0.00095417537 -0.000982587 0.0009551261 -0.0010609168 -0.00091203314 -0.0010282841 0.0010220057 -0.00094683305
-0.0010495116 0.00094297715 0.0009886079 0.00097088923 0.0009317007 0.0010643925 -0.0009674107 0.0009793827
