RL/Model_Repository/temp/TD3_Guest_maybe_actor.pth (torch, 510303 bytes, 5 tensors)

layer_1.weight f4 [400, 15]
0.23889764 0.25579053 -0.018551026 0.27896908 -0.023152156 0.07496071 -0.083426565 0.18511309
0.2589518 -0.14732087 0.2557851 0.07879853 0.2328398 0.05671424 0.14630227 -0.06324116
0.17253633 0.010749936 -0.14762308 0.052463997 -0.124934 -0.060643364 -0.11828088 0.16006722
-0.23409392 -0.13930073 -0.08659301 -0.18487176 -0.0018495033 -0.25076267 0.27356258 -0.17880882
0.24012293 0.08372897 -0.049188647 0.18621936 0.08115034 0.24330378 0.059327535 -0.04022529
0.10099605 -0.040570565 0.14904973 0.25634935 0.15615676 -0.06875179 0.19305822 0.09061128
0.17541122 -0.11973166 -0.22844134 -0.054042775 -0.16034985 0.24761403 0.12004205 0.14656
0.11324573 0.040989887 0.22026633 -0.16894472 0.03230127 -0.16071159 0.09692976 -0.07228504
0.0829178 -0.05247406 0.23998995 -0.14920716 -0.15104267 -0.12846614 0.24014147 0.08999931
0.2716525 -0.18322532 -0.25610754 -0.2251057 -0.1969692 0.08129541 0.06919323 0.20067516
-0.14120097 -0.19778745 0.12308278 -0.11562019 0.13475126 -0.07867342 0.1360567 -0.22233641
-0.14394668 0.06170623 0.08454997 -0.035970468 0.18409349 0.20559703 -0.16445494 -0.12357008
0.26780286 -0.06429079 -0.07069341 -0.2184489 -0.120626986 0.087610744 -0.0029933346 -0.15146025
-0.016513903 -0.19653477 -0.23872901 -0.16349494 -0.24668334 -0.1703862 0.25591025 0.020794539
0.073547035 -0.24553704 -0.19733804 -0.097413674 0.034172762 -0.2532837 -0.1418569 -0.15457511
0.04466021 -0.052252837 0.026364993 -0.13084248 -0.14000656 -0.124175556 -0.042813912 -0.16651702
0.2518872 -0.005772114 0.26088527 0.1122174 -0.17330304 0.19874698 -0.056563467 -0.055085406
-0.17056106 -0.21248522 0.11794924 -0.018896442 0.12769884 -0.16619799 0.22925197 -0.15416445
0.0010770872 0.093037724 0.16539887 0.2538894 0.2554899 -0.19021599 0.04052095 -0.13574652
-0.052836884 -0.21782924 0.21817845 -0.20000853 0.11595709 0.0736973 0.06939285 -0.16172865
0.21492124 0.042368323 0.011090235 -0.2454503 0.08991371 -0.013830914 -0.09347618 0.24685144
0.082506515 -0.12652619 -0.12148256 0.013183648 0.16054563 -0.051098105 -0.12186354 -0.066492505
-0.17797767 0.117338635 0.20664166 -0.24908245 0.07773107 0.15099691 0.06466805 -0.07418144
0.14564162 0.14099514 0.11615871 -0.034454502 -0.058796864 0.047485545 -0.024517212 -0.0618217
0.18417224 0.21512449 -0.02255112 -0.08661621 -0.025123116 -0.044598725 0.03302458 0.055476688
-0.24562737 -0.12437466 0.20051196 0.08634897 -0.04204866 -0.17553654 -0.16563782 -0.25994626
-0.08259646 0.08650392 0.14092885 0.095906645 -0.25285733 -0.17941156 -0.04972651 0.24622172
0.007970598 -0.075895116 0.099557936 -0.12758411 -0.18267234 0.17918625 -0.14552695 -0.08286668
-0.25686675 0.19857433 0.22106588 0.12060071 -0.1539173 -0.24317947 -0.20474939 0.22259761
0.1356681 0.22691433 0.16522226 0.08392044 0.009451082 -0.16720754 -0.19004099 -0.24151102
0.1341109 -0.098551065 -0.02311095 -0.11997061 -0.030003177 -0.1731465 -0.13787308 0.102756046
-0.061939534 0.19018348 -0.059410505 -0.17200704 -0.015202036 -0.09364192 -0.07898254 -0.21746735
00000000: 95a1 743e faf6 823e 52f8 97bc 09d5 8e3e
00000010: 97a9 bdbc 0085 993d 8cdb aabd 498e 3d3e
00000020: 5595 843e 48db 16be 44f6 823e 2061 a13d
00000030: 8e6d 6e3e 314d 683d 43d0 153e 9584 81bd
00000040: 5dad 303e 8020 303c 812a 17be 7de4 563d
00000050: 66dd ffbd 2d65 78bd 3f3d f2bd a9e8 233e
00000060: 51b6 6fbe daa4 0ebe ad57 b1bd 064f 3dbe
00000070: 086b f2ba f763 80be 6510 8c3e a919 37be
00000080: c9e2 753e 187a ab3d 097a 49bd 4ab0 3e3e
00000090: 2632 a63d a024 793e 6e01 733d 46c3 24bd
000000a0: 04d7 ce3d 522d 26bd 7ea0 183e 3940 833e
000000b0: 8fe7 1f3e bdcd 8cbd 0eb1 453e 6892 b93d
000000c0: 009f 333e df35 f5bd 87ec 69be f55b 5dbd
000000d0: c032 24be 888e 7d3e 9bd8 f53d d313 163e
000000e0: 61ed e73d 03e5 273d 7f8d 613e d8ff 2cbe
000000f0: 564e 043d 9491 24be 1c83 c63d 2e0a 94bd
00000100: cfd0 a93d 0aef 56bd edbf 753e c3c9 18be
00000110: eeaa 1abe a18c 03be a5e7 753e 8f51 b83d
00000120: 0916 8b3e 6b9f 3bbe 8720 83be 1c82 66be
00000130: 4bb2 49be 357e a63d 2eb5 8d3d ca7d 4d3e
00000140: fd96 10be cb88 4abe d312 fc3d 47ca ecbd
00000150: 3cfc 093e 881f a1bd 7352 0b3e 28ac 63be
00000160: c266 13be acbf 7c3d 8928 ad3d c555 13bd
00000170: 0183 3c3e 0788 523e e066 28be 4f12 fdbd
00000180: 751d 893e e4aa 83bd b5c7 90bd 12b1 5fbe
00000190: 480b f7bd 436d b33d d22b 44bb 6518 1bbe
000001a0: 2a48 87bc 6940 49be 6175 74be 386b 27be
000001b0: 8f9a 7cbe b879 2ebe ab06 833e 4f59 aa3c
000001c0: d49f 963d 106e 7bbe fc12 4abe d280 c7bd
000001d0: bdf8 0b3d 67ae 81be ef42 11be f048 1ebe
000001e0: a0ed 363d 1207 56bd 66fb d73c 92fb 05be
000001f0: e15d 0fbe c14f febd a45d 2fbd 7083 2abe
00000200: 5cf7 803e 0024 bdbb c192 853e 3cd2 e53d
00000210: 5a76 31be 5484 4b3e 18af 67bd 3ca1 61bd
00000220: 8fa7 2ebe ba95 59be 5f8f f13d b6cc 9abc
00000230: 7cc3 023e ce2f 2abe 07c1 6a3e 49dd 1dbe
00000240: 0d2d 8d3a 908a be3d 525e 293e cbfd 813e
00000250: 92cf 823e fbc7 42be 4cf9 253d 2301 0bbe
00000260: 7d6b 58bd a10e 5fbe 2c6a 5f3e 09cf 4cbe
00000270: e97a ed3d 9cee 963d d71d 8e3d 329c 25be
00000280: 5014 5c3e 688a 2d3d d1b3 353c 5357 7bbe
00000290: ae24 b83d 0f9b 62bc 7170 bfbd a0c6 7c3e
000002a0: 2df9 a83d 1590 01be d9cb f8bd 3a00 583c
000002b0: 1366 243e 3f4c 51bd 9793 f9bd 392d 88bd
000002c0: c73f 36be 3d4f f03d df99 533e 780f 7fbe
000002d0: 7831 9f3d ef9e 1a3e af70 843d 70ec 97bd
000002e0: 1423 153e 0861 103e 9ee4 ed3d 2a20 0dbd
000002f0: fbd4 70bd 3480 423d 52d8 c8bc c038 7dbd
00000300: a697 3c3e 9849 5c3e 20bd b8bc d763 b1bd
00000310: fece cdbc 27ad 36bd c844 073d 863b 633d
00000320: be85 7bbe 24b8 febd 0253 4d3e bbd7 b03d
00000330: 373b 2cbd dabf 33be f69c 29be ad17 85be
00000340: 5528 a9bd f828 b13d a74f 103e b46a c43d
00000350: 8476 81be aab7 37be 06ae 4bbd 8c21 7c3e
00000360: 1c97 023c e66e 9bbd 08e5 cb3d 69a5 02be
00000370: 750e 3bbe 9a7c 373e 0405 15be 02b6 a9bd
00000380: 0a84 83be 1257 4b3e 185f 623e 81fd f63d
00000390: 7f9c 1dbe 0a04 79be d3a9 51be a1f0 633e
000003a0: 94ec 0a3e 3b5c 683e 0630 293e 7bde ab3d
000003b0: b6d8 1a3c 7438 2bbe 1b9a 42be aa4e 77be
000003c0: 5e54 093e 24d5 c9bd 2d53 bdbc 27b3 f5bd
000003d0: 39c9 f5bc 514d 31be 9a2e 0dbe c371 d23d
000003e0: 4fb4 7dbd 75bf 423e 6e58 73bd 9d22 30be
000003f0: f611 79bc 56c7 bfbd 99c1 a1bd c3af 5ebe

layer_1.bias f4 [400]
-0.10651728 -0.088844225 0.27278697 -0.13569935 -0.1679829 -0.2318783 0.27341437 -0.06266373
-0.022860127 0.18752487 -0.1742077 -0.042449273 0.25647056 0.10823683 -0.23073858 -0.040161412
0.056586675 0.12455263 -0.13320357 0.15991606 0.029454283 -0.25085858 0.038214594 -0.2882664
-0.011632398 -0.22127981 -0.10501707 -0.029219609 -0.19474955 -0.04737879 -0.025747241 -0.17502417
0.002512139 0.1057138 0.068967015 -0.28217617 0.03263243 -0.10299268 0.1157872 -0.16410428
-0.15940887 -0.04170192 0.17466184 -0.10941577 0.0122180395 0.0034321814 -0.23305827 0.010845358
0.012150086 0.013388109 0.094326355 0.10242924 0.12660167 -0.0032643352 -0.14282978 0.2570061
0.23143241 0.108987466 0.2066292 0.15740465 0.24711569 0.25590378 -0.23771507 -0.20190808
-0.11694756 0.23181471 0.26129162 0.046901084 -0.22227131 -0.09570182 0.16871601 0.20957214
0.09109936 -0.19775204 0.21500508 0.195328 -0.08829094 -0.108307265 0.12166372 -0.1560849
0.2614867 -0.014533481 0.02860177 -0.16751587 -0.22985232 0.10164586 -0.054423507 -0.12667258
0.24044272 0.02151638 -0.03709075 -0.19977193 -0.17550315 -0.05368722 0.087082 -0.25662652
0.18000999 0.27586767 0.04908026 -0.24138892 0.073747374 -0.066523224 0.111357175 -0.040074054
0.10503969 -0.0036417802 0.016832696 0.13447693 -0.15707429 0.011605288 0.26780045 0.22624186
0.0620248 -0.08549778 0.07609691 -0.2097164 -0.037571143 0.24028072 0.07160044 0.04263148
-0.17289875 -0.20029625 0.065044746 -0.21532838 -0.04515778 -0.087204255 0.10846515 0.0739141
-0.21192786 0.13120447 -0.054584708 -0.08375701 0.22004822 -0.14018677 -0.2673841 0.07070104
-0.17023686 -0.07243285 -0.26090088 -0.09541525 0.24630834 -0.20362675 -0.15289588 -0.025220174
-0.23496413 0.0781633 -0.08134488 0.16591626 -0.2872405 0.03893828 0.075301155 0.060056746
-0.09197947 0.27126196 -0.17019875 0.2002994 0.104584806 0.09302798 0.1570113 0.056292128
0.058427293 -0.014643659 -0.25958693 0.1340197 0.23087223 0.13168854 -0.07116026 -0.19912583
-0.033152234 0.04589386 -0.16466095 0.18653081 0.0357605 0.039772935 0.1962185 0.12588015
-0.109561555 0.06393164 0.17747617 0.0987333 -0.07880015 0.07212671 -0.15336919 0.0052600657
-0.20863684 0.11709426 0.28375143 -0.28681344 -0.08670978 -0.067900226 -0.21243572 0.20557705
-0.22057725 -0.09345236 -0.16868657 -0.017226843 -0.15364026 -0.1439818 0.29451355 0.08965147
0.14027353 0.15397947 0.008745608 0.0204008 -0.16861735 0.103080556 -0.24382237 -0.03238095
-0.17066962 -0.17764111 -0.11351293 -0.08413504 -0.107678436 -0.11607517 -0.12152931 -0.2655044
0.23225239 0.056573823 -0.2108725 -0.2880645 -0.10609841 0.12672082 0.2080798 -0.0063638804
0.119135715 -0.110110454 -0.0833979 -0.06782438 -0.23671949 0.025559228 0.10959442 0.18801352
-0.17469749 -0.036642876 -0.02140447 0.05368976 0.01224159 -0.16192666 0.23484455 -0.26304802
-0.044011448 0.107576 -0.095763326 -0.09303832 -0.29015186 0.14654198 0.0249989 0.14238852
0.071963035 -0.1647309 -0.07267203 0.20988934 -0.09518475 -0.08879023 0.109963425 -0.079074994
00000000: bb25 dabd f6f3 b5bd bcaa 8b3e c5f4 0abe
00000010: b603 2cbe 8171 6dbe f8fc 8b3e d755 80bd
00000020: 2945 bbbc 8506 403e 8163 32be 4adf 2dbd
00000030: 1c50 833e 45ab dd3d bc46 6cbe 4b80 24bd
00000040: 6ec7 673d 7315 ff3d 8466 08be 09c1 233e
00000050: 1c4a f13c 8970 80be e886 1c3d a797 93be
00000060: d095 3ebc 2d97 62be 3113 d7bd f65d efbc
00000070: 6d6c 47be 4310 42bd e1eb d2bc 8939 33be
00000080: b3a2 243b 7a80 d83d 943e 8d3d 6579 90be
00000090: 95a9 053d d4ed d2bd d721 ed3d f40a 28be
000000a0: 143c 23be a2cf 2abd 8eda 323e 6015 e0bd
000000b0: 2c2e 483c 73ee 603b d4a6 6ebe bab0 313c
000000c0: 2811 473c cd59 5b3c 2d2e c13d 6cc6 d13d
000000d0: dea3 013e 75ee 55bb f841 12be 4e96 833e
000000e0: 9efc 6c3e d234 df3d 9b96 533e af2e 213e
000000f0: e50b 7d3e d205 833e 946b 73be fec0 4ebe
00000100: 3482 efbd d660 6d3e 04c8 853e 5a1b 403d
00000110: 179b 63be 51ff c3bd e4c3 2c3e 149a 563e
00000120: 4d92 ba3d 837f 4abe 4b2a 5c3e 1004 483e
00000130: e1d1 b4bd 33d0 ddbd d42a f93d b8d4 1fbe
00000140: 96e1 853e d61d 6ebc 424e ea3c 4889 2bbe
00000150: 685e 6bbe b42b d03d 2feb 5ebd 75b6 01be
00000160: 9e36 763e 1f43 b03c 78ec 17bd 0391 4cbe
00000170: 19b7 33be 21e7 5bbd 0c58 b23d 8d64 83be
00000180: 8a54 383e 873e 8d3e 6208 493d a82e 77be
00000190: dd08 973d 543d 88bd 3b0f e43d b124 24bd
000001a0: 0d1f d73d efaa 6ebb b9e4 893c 52b4 093e
000001b0: 15d8 20be 1b24 3e3c 241d 893e f2ab 673e
000001c0: b70d 7e3d 7619 afbd b2d8 9b3d e5bf 56be
000001d0: 33e4 19bd 260c 763e 40a3 923d 599e 2e3d
000001e0: 5f0c 31be 761a 4dbe 2e36 853d 0b7f 5cbe
000001f0: 5df7 38bd 2598 b2bd fa22 de3d 4760 973d
00000200: 9e03 59be 775a 063e 3794 5fbd cc88 abbd
00000210: 5254 613e 1f8d 0fbe 92e6 88be b5cb 903d
00000220: 9252 2ebe ad57 94bd cd94 85be 1269 c3bd
00000230: 4138 7c3e 8883 50be bd90 1cbe 8a9a cebc
00000240: 709a 70be 1514 a03d 2598 a6bd f4e5 293e
00000250: 3011 93be bf7d 1f3d 7e37 9a3d 10fe 753d
00000260: bb5f bcbd d9e2 8a3e 9548 2ebe 491b 4d3e
00000270: 8f30 d63d 7485 be3d 92c7 203e 9392 663d
00000280: 7551 6f3d f5eb 6fbc 94e8 84be 763c 093e
00000290: c569 6c3e 5cd9 063e 78bc 91bd a4e7 4bbe
000002a0: a3ca 07bd 33fb 3b3d e19c 28be ef01 3f3e
000002b0: 9a79 123d f2e8 223d 81ed 483e bae6 003e
000002c0: cf61 e0bd 97ee 823d 50bc 353e af34 ca3d
000002d0: f961 a1bd 2bb7 933d d00c 1dbe a15c ac3b
000002e0: e5a4 55be 1ecf ef3d de47 913e 36d9 92be
000002f0: e694 b1bd 460f 8bbd c088 59be ca82 523e
00000300: 01df 61be f363 bfbd 2cbc 2cbe 4f1f 8dbc
00000310: df53 1dbe f76f 13be 7bca 963e 319b b73d
00000320: dda3 0f3e cbac 1d3e bd49 0f3c 941f a73c
00000330: 07aa 2cbe e61b d33d 92ac 79be e3a1 04bd
00000340: 04c4 2ebe 8de7 35be 7879 e8bd fe4e acbd
00000350: 8386 dcbd d2b8 edbd 5ce4 f8bd 31f0 87be
00000360: 92d3 6d3e f4b9 673d f6ee 57be 317d 93be
00000370: 204a d9bd 1ac3 013e df12 553e 1988 d0bb
00000380: 6dfd f33d 9781 e1bd 85cc aabd 82e7 8abd
00000390: 9866 72be 9661 d13c 0a73 e03d 9e86 403e
000003a0: e6e3 32be d716 16bd 6d58 afbc cbe9 5b3d
000003b0: f390 483c 1ad0 25be 177b 703e 3bae 86be
000003c0: 5945 34bd ce50 dc3d 901f c4bd e08a bebd
000003d0: c98e 94be 1a0f 163e 7eca cc3c 4cce 113e
000003e0: 5b61 933d 38af 28be 13d5 94bd 3bed 563e
000003f0: 39f0 c2bd a7d7 b5bd 8134 e13d 12f2 a1bd

layer_2.weight f4 [300, 400]
0.006157418 0.0033271075 0.015339311 -0.02680839 0.04364017 0.016311904 0.045829818 0.019537512
-0.032483615 -0.020185137 0.011520566 -0.031542893 0.019547556 -0.025915712 0.03845689 -0.007873076
0.024028337 0.017122164 0.010807316 0.026666157 -0.056117315 0.036168396 0.026033174 -0.02521062
0.06758253 0.0209777 0.04966951 0.031589657 0.021286476 -0.032202244 -0.028734565 0.06187373
-0.04321095 -0.015842723 -0.0127982395 0.043524105 0.03805059 -0.0028200338 -0.01443585 -0.053732347
0.019093197 0.06409451 -0.029249923 0.009609462 -0.019784153 0.018700955 0.05414879 -0.017658846
-0.020076629 0.000370965 -0.015347326 0.00900702 0.034950804 -0.051034093 0.04928654 -0.0321278
0.035042316 -0.07223231 0.028253846 -0.04270996 0.029723968 -0.0557364 0.039259233 -0.0012944438
0.031397812 0.011107774 0.0144114345 -0.023853492 -0.009678104 -0.009033405 0.033957575 0.071957566
-0.041235358 0.034507968 0.021691754 -0.03924959 0.049173366 0.028616222 0.027968682 -0.0025966025
-0.021405607 0.024921227 0.030055992 -0.0054555563 0.005681235 0.018708894 -0.030746553 0.020811351
0.01280422 0.072537385 0.033929437 -0.04972908 -0.046074945 0.058784105 0.0027249753 0.058582194
0.021108996 -0.033557814 0.044751175 0.0048117656 -0.03277442 0.031978305 -0.010130304 0.014106037
-0.04142887 0.028896302 -0.047287814 0.023678398 -0.048910502 -0.02931465 -0.027782992 0.03430111
-0.04535473 -0.03368435 0.06056985 -0.0213033 -0.032500073 0.015253334 -0.032602806 0.017023854
-0.031756274 0.038772576 0.079931445 0.015782865 -0.04115715 0.017587245 0.008563313 -0.009309224
0.03826135 -0.015098424 0.047768947 -0.026706848 0.0029682452 0.028148439 0.014072176 0.009338462
0.068520874 0.01737082 -0.008640552 0.07454504 0.021152893 0.0045916922 -0.00786442 0.0019712392
-0.025876416 0.030705271 -0.008201856 0.016506035 -0.024589071 -0.057473645 -0.022014333 -0.0025820802
0.05645658 -0.042906474 -0.044765186 -0.0067047384 -0.02227737 -0.042054858 0.039979707 -0.011628806
0.030305812 0.012003779 0.06147701 -0.05396493 0.022365386 -0.007000654 0.07323024 0.036029983
-0.0129208695 -0.0025235447 -0.009951954 0.040539436 -0.03400138 0.010180005 -0.004209141 0.047138263
0.0662085 0.01726866 -0.054853797 -0.053970702 -0.049040727 0.010774518 -0.003291731 0.0057330187
0.046789967 0.030995904 -0.0044187913 -0.02567927 0.024012072 -0.05292044 -0.015563579 0.0026230346
0.06841235 -0.031137753 0.038097374 0.012444511 -0.04722253 0.023168674 0.014927745 -0.0061920905
0.03288889 0.0075637237 -0.047274478 -0.015133116 -0.020370401 0.04830225 -0.022740819 0.004106251
0.015047738 0.072368585 0.016851434 0.0055975555 -0.024218874 0.017579764 0.039575554 0.07073746
-0.0060575367 0.036348958 0.022374466 0.038782742 -0.018300213 0.0014383652 -0.067822166 -0.0014792341
-0.0010430106 0.070664056 -0.033476587 -0.015454754 0.013103151 0.0636215 -0.024566824 0.043742307
0.066414475 -0.007732864 0.016827151 0.020034311 0.075501874 -0.021200575 0.022633508 0.035085037
-0.023906274 0.00092373375 -0.022558754 0.010969594 -0.0050870483 -0.07036885 0.017508421 -0.020277457
-0.027255116 -0.02042094 -0.017712139 0.004757713 0.037262987 -0.020013021 -0.01601417 -0.046319135
00000000: 2ac4 c93b 9a0b 5a3b bc51 7b3c 459d dbbc
00000010: 09c0 323d 8ba0 853c 0cb8 3b3d 220d a03c
00000020: 8a0d 05bd 4d5b a5bc c2c0 3c3c 1f33 01bd
00000030: 3222 a03c 304d d4bc f984 1d3d 13fe 00bc
00000040: 13d7 c43c c843 8c3c 2b11 313c fc72 da3c
00000050: 45db 65bd 5025 143d 8643 d53c 8186 cebc
00000060: b668 8a3d 6dd9 ab3c 4272 4b3d 2864 013d
00000070: fa60 ae3c 80e6 03bd c064 ebbc 4f6f 7d3d
00000080: f7fd 30bd 99c8 81bc b5af 51bc 5546 323d
00000090: efda 1b3d 51d0 38bb 5884 6cbc 7316 5cbd
000000a0: 5669 9c3c fc43 833d 899d efbc 0171 1d3c
000000b0: 6012 a2bc bf32 993c 1fcb 5d3d 49a9 90bc
000000c0: be77 a4bc 147e c239 5a73 7bbc 2e92 133c
000000d0: 9328 0f3d 2009 51bd afe0 493d 7198 03bd
000000e0: 8888 0f3d 89ee 93bd 9c74 e73c a4f0 2ebd
000000f0: ae7f f33c da4b 64bd 4ace 203d 54aa a9ba
00000100: fe9a 003d 62fd 353c f01d 6c3c 6668 c3bc
00000110: e990 1ebc d900 14bc 1917 0b3d 7d5e 933d
00000120: 68e6 28bd 3a58 0d3d e8b2 b13c 2ec4 20bd
00000130: 036a 493d 916c ea3c 941e e53c c32b 2abb
00000140: d05a afbc 9a27 cc3c fc37 f63c 86c4 b2bb
00000150: a729 ba3b 6543 993c 32e0 fbbc 917c aa3c
00000160: cbc8 513c 7b8e 943d 98f9 0a3d b8b0 4bbd
00000170: 15b9 3cbd 9ac7 703d 8095 323b e2f3 6f3d
00000180: c6ec ac3c eb73 09bd 024d 373d 04ac 9d3b
00000190: 783e 06bd affb 023d 93f9 25bc 021d 673c
000001a0: 52b1 29bd f0b7 ec3c deb0 41bd 33f9 c13c
000001b0: 6156 48bd 4725 f0bc 2899 e3bc 527f 0c3d
000001c0: e2c5 39bd 9af8 09bd 1718 783d 4284 aebc
000001d0: cc1e 05bd 1fe9 793c 858a 05bd 9c75 8b3c
000001e0: de12 02bd fecf 1e3d 19b3 a33d 114b 813c
000001f0: 6694 28bd 2013 903c 234d 0c3c b785 18bc
00000200: efb7 1c3d 615f 77bc 5fa9 433d 52c8 dabc
00000210: e486 423b 8e97 e63c fc8e 663c 5900 193c
00000220: ac54 8c3d 404d 8e3c 1a91 0dbc 12ab 983d
00000230: d548 ad3c e875 963b c5d9 00bc e82f 013b
00000240: c7fa d3bc 9f89 fb3c 1461 06bc aa37 873c
00000250: 056f c9bc 7c69 6bbd 6757 b4bc 1e38 29bb
00000260: 043f 673d b3be 2fbd b35b 37bd 6cb3 dbbb
00000270: 087f b6bc b741 2cbd c3c1 233d bf86 3ebc
00000280: e543 f83c 80ab 443c 51cf 7b3d 550a 5dbd
00000290: 9d37 b73c be65 e5bb bcf9 953d 2d94 133d
000002a0: 0eb2 53bc 0e62 25bb 850d 23bc ae0c 263d
000002b0: 0845 0bbd 09ca 263c d5ec 89bb 0d14 413d
000002c0: 5298 873d 0177 8d3c 60ae 60bd 6210 5dbd
000002d0: eede 48bd 9b87 303c 15ba 57bb 0cdc bb3b
000002e0: d6a6 3f3d 1feb fd3c 82cb 90bb 555d d2bc
000002f0: f7b4 c43c 1ac3 58bd 62fe 7ebc 38e7 2b3b
00000300: c61b 8c3d 9a14 ffbc fe0b 1c3d 10e4 4b3c
00000310: 696c 41bd 3bcc bd3c 8093 743c 05e7 cabb
00000320: 80b6 063d 1dd9 f73b e2a2 41bd e4f0 77bc
00000330: d4df a6bc 95d8 453d f44a babc bb8d 863b
00000340: ca8a 763c fb35 943d 050c 8a3c b36b b73b
00000350: a966 c6bc 7003 903c fa19 223d cdde 903d
00000360: 4d7e c6bb a5e2 143d a84a b73c a7da 1e3d
00000370: 54ea 95bc 8787 bc3a 59e6 8abd dce2 c1ba
00000380: a1b5 88ba 51b8 903d bf1e 09bd f035 7dbc
00000390: 99ae 563c fd4b 823d 5d40 c9bc 222b 333d
000003a0: 5004 883d f763 fdbb 18d9 893c ff1e a43c
000003b0: baa0 9a3d d4ac adbc e869 b93c 54b5 0f3d
000003c0: 17d7 c3bc b926 723a 23cd b8bc d0b9 333c
000003d0: 41b1 a6bb 8b1d 90bd d26d 8f3c e91c a6bc
000003e0: 1f46 dfbc d149 a7bc 0c19 91bc 97e6 9b3b
000003f0: 13a1 183d 59f2 a3bc 2630 83bc 22b9 3dbd

layer_2.bias f4 [300]
-0.068097025 -0.009103022 0.046033468 0.00932006 0.005768466 0.03827378 -0.0016526184 -0.08458665
-0.0130041065 -0.07792892 0.08535818 -0.022723613 -0.0077644954 0.028752627 0.019827327 -0.032008477
0.063896984 -0.028600845 0.016167099 -0.016985007 0.04221777 0.061604116 -0.07464573 0.062063903
0.06334097 0.04897592 -0.012763947 -0.06457315 0.023872577 -0.06404933 -0.0071347817 -0.085774004
-0.015162088 0.09194623 0.016112894 -0.022583079 -0.04577831 0.028555024 0.015557153 -0.07143322
-0.0012348254 0.008189199 -0.065085 0.057303913 -0.051655933 -0.04099438 0.0029101102 -0.08640312
-0.06092257 0.05032439 -0.012372431 0.09278952 0.015269041 -0.073028944 0.026494803 -0.07044476
-0.011080594 -0.0073597115 -0.036807682 0.05326928 0.011713639 -0.010867998 0.06397149 0.013577115
0.07574312 -0.058440726 -0.039174102 0.043621182 -0.07505064 0.085928485 -0.02102811 -0.06636065
0.0020648597 0.05510081 0.009617003 -0.031742945 0.026300179 0.03945785 -0.012249008 0.009846286
-0.010940517 0.0010180924 -0.0052663055 0.024703413 0.007866038 0.014078136 0.06519763 -0.07168679
0.022617472 0.013532484 -0.037814558 0.0055800593 -0.028496716 0.08380077 0.044010505 0.071970366
0.07423126 0.02120286 -0.022296814 -0.082966246 0.07173822 0.027940225 0.012851265 -0.057125036
-0.018023567 0.06495641 -0.00019387144 -0.00847813 0.09067013 0.00027870873 -0.041037183 0.05416762
-0.041583467 -0.061809577 0.032063797 -0.0162108 0.0041579846 0.041364286 -0.04267826 -0.056840595
-0.050759673 0.0726187 -0.010611373 0.07104365 0.03423356 0.077234425 -0.019235222 -0.06669877
0.03779912 0.0573334 -0.02701815 0.054145675 0.06366014 0.06585444 0.039911732 0.056925982
-0.029124297 0.08664817 -0.067005254 0.0060612103 -0.024483915 -0.038671993 0.0554207 -0.0413855
-0.086667694 0.001303589 -0.018656796 0.009756953 0.088358045 -0.07355468 -0.015640602 0.07154505
-0.066518076 0.061377008 -0.07663566 -0.017441414 -0.086378776 -0.005167565 0.038751163 -0.08136124
0.0111977225 -0.040316537 0.06868489 0.010580488 0.064172514 0.087812185 -0.015725851 0.08918099
-0.02774118 -0.07695746 -0.069721095 -0.046631955 0.06580998 0.042280294 -0.060234528 0.07184838
0.0057827155 0.070526436 0.02317118 -0.0033907106 -0.06821839 -0.0901734 0.014427176 0.0784827
0.034857146 0.06191637 -0.07375134 0.071351424 -0.08863044 0.0033222567 0.0540182 0.04843734
-0.06561296 0.09087634 -0.056531243 0.042974822 -0.015199956 -0.00796765 0.012562787 -0.049132902
0.0061994465 -0.03438472 0.0714337 0.047622874 0.035316464 0.052930772 0.05587104 -0.060804322
0.06669205 -0.049437564 0.033016264 -0.0045318683 0.028012784 -0.063540295 0.021998283 0.0157798
0.025710093 -0.0020410616 -0.009803453 0.0044879946 -0.029724253 0.007596127 -0.050527435 0.06428645
0.023383968 0.060446516 0.061802015 -0.05086473 0.0146432575 -0.07733669 0.008333808 -0.017735671
0.021734452 -0.04050456 -0.027486706 -0.06276159 0.07488467 0.057219848 -0.072235085 0.040585883
0.012234923 0.06580353 0.003170618 0.059690885 0.08856374 0.036185585 -0.053292394 0.081141256
0.020061508 -0.06612792 -0.070777856 0.0035609861 -0.06279114 -0.07658491 0.016562529 -0.06397088
00000000: 7476 8bbd d724 15bc 978d 3c3d 2ab3 183c
00000010: 6605 bd3b f8c4 1c3d ac9c d8ba c43b adbd
00000020: 2d0f 55bc 3399 9fbd 45d0 ae3d df26 babc
00000030: 4f6d febb a18a eb3c eb6c a23c 521b 03bd
00000040: 6cdc 823d 524c eabc dd70 843c 2424 8bbc
00000050: 8aec 2c3d 9954 7c3d dcdf 98bd b836 7e3d
00000060: e9b8 813d f99a 483d e01f 51bc ed3e 84bd
00000070: 6c90 c33c 4c2c 83bd e3ca e9bb 48aa afbd
00000080: 686a 78bc 4e4e bc3d 30ff 833c 2600 b9bc
00000090: 0a82 3bbd 3aec e93c 6ee3 7e3c 944b 92bd
000000a0: ddd9 a1ba fd2b 063c 494b 85bd 82b7 6a3d
000000b0: 2c95 53bd b9e9 27bd 8cb7 3e3b 1ef4 b0bd
000000c0: f289 79bd f320 4e3d bdb5 4abc 6f08 be3d
000000d0: 002b 7a3c 3390 95bd a10b d93c 5845 90bd
000000e0: 618b 35bc bc29 f1bb a7c3 16bd e330 5a3d
000000f0: 90ea 3f3c b00f 32bc 7c03 833d 8c72 5e3c
00000100: 351f 9b3d 8b5f 6fbd 0675 20bd 20ac 323d
00000110: 26b4 99bd 46fb af3d 2543 acbc 18e8 87bd
00000120: 9952 073b 63b1 613d a290 1d3c e404 02bd
00000130: 7973 d73c 8e9e 213d 10b0 48bc 5152 213c
00000140: db3f 33bc 8371 853a f990 acbb d05e ca3c
00000150: 8ee0 003c fba7 663c 5686 853d 86d0 92bd
00000160: 4748 b93c 5ab7 5d3c 70e3 1abd eed8 b63b
00000170: f271 e9bc bd9f ab3d 5c44 343d 3365 933d
00000180: 8f06 983d 9fb1 ad3c cfa7 b6bc 35ea a9bd
00000190: 7deb 923d e6e2 e43c 1d8e 523c f1fb 69bd
000001a0: 29a6 93bc de07 853d f849 4bb9 dbe7 0abc
000001b0: 43b1 b93d a71f 9239 9b16 28bd dede 5d3d
000001c0: 6d53 2abd 0a2c 7dbd 5455 033d 83cc 84bc
000001d0: b43f 883b 996d 293d 66cf 2ebd afd1 68bd
000001e0: 60e9 4fbd 1db9 943d 53db 2dbc 557f 913d
000001f0: 7d38 0c3d 152d 9e3d 2f93 9dbc 5d99 88bd
00000200: 40d3 1a3d 6dd6 6a3d 2b55 ddbc dbc7 5d3d
00000210: 3f60 823d b1de 863d 7c7a 233d 382b 693d
00000220: 1496 eebc 9974 b13d 0d3a 89bd 1e9d c63b
00000230: 7e92 c8bc 8666 1ebd d100 633d d883 29bd
00000240: d57e b1bd 30dd aa3a 23d6 98bc a1db 1f3c
00000250: 10f5 b43d d6a3 96bd b820 80bc 3686 923d
00000260: a13a 88bd 7566 7b3d 28f3 9cbd 4ce1 8ebc
00000270: 5be7 b0bd ad54 a9bb 8ab9 1e3d b9a0 a6bd
00000280: a776 373c f422 25bd aaaa 8c3d c859 2d3c
00000290: e16c 833d e0d6 b33d 80d3 80bc 86a4 b63d
000002a0: 7941 e3bc df9b 9dbd efc9 8ebd 2601 3fbd
000002b0: 62c7 863d 1a2e 2d3d 7bb8 76bd 3e25 933d
000002c0: ef7c bd3b 2a70 903d 7dd1 bd3c af36 5ebb
000002d0: 15b6 8bbd d5ac b8bd f65f 6c3c 8abb a03d
000002e0: 5ec6 0e3d 059c 7d3d f10a 97bd b220 923d
000002f0: e083 b5bd 38ba 593b 3042 5d3d 3b66 463d
00000300: 1660 86bd 601d ba3d 4e8d 67bd 5e06 303d
00000310: 3c09 79bc bf8a 02bc 26d4 4d3c 953f 49bd
00000320: ba24 cb3b fed6 0cbd d54b 923d 3410 433d
00000330: ffa7 103d f0cd 583d 08d9 643d f40d 79bd
00000340: d795 883d 0b7f 4abd 103c 073d 1180 94bb
00000350: 117b e53c 6a21 82bd be35 b43c a444 813c
00000360: f99d d23c 55c3 05bb aa9e 20bc 0710 933b
00000370: 4780 f3bc efe8 f83b dbf5 4ebd 9da8 833d
00000380: bc8f bf3c c496 773d 1c24 7d3d 8957 50bd
00000390: 46ea 6f3c b362 9ebd 868a 083c 664a 91bc
000003a0: 730c b23c 1ce8 25bd cd2b e1bc 2689 80bd
000003b0: 225d 993d 5c5f 6a3d fdef 93bd 623d 263d
000003c0: fd74 483c 00c4 863d 25ca 4f3b 6e7e 743d
000003d0: e860 b53d 5637 143d 2049 5abd 632d a63d
000003e0: 0858 a43c 136e 87bd fbf3 90bd 6f5f 693b
000003f0: a498 80bd 8dd8 9cbd 24ae 873c 2a03 83bd

layer_3.weight f4 [1, 300]
0.040535767 0.085168436 -0.04401195 0.051467292 -0.032113522 -0.033121318 -0.02554109 0.020982238
0.037887014 0.058250397 -0.049558017 0.017866058 -0.013337978 -0.076855555 0.0031294464 0.045069203
-0.084908456 0.046458956 -0.061885066 0.014928022 -0.06320289 -0.06615611 0.026514303 -0.08776675
-0.033271946 -0.076935254 0.010665131 0.012678592 -0.06911666 0.045554228 0.014874084 0.025975555
0.043628413 -0.043734938 -0.03181367 0.019733785 0.04067848 -0.04018977 -0.029067466 0.045860585
0.048177276 -0.0795111 0.08198547 -0.041391637 0.018338205 0.029663563 0.03462447 0.04212108
0.022774365 -0.01735051 0.03746832 -0.06546699 0.0048500244 -0.023478484 -0.02935236 0.07440296
0.0010837944 -0.03458487 0.019176994 0.0020352185 -0.06988204 0.012028854 -0.06561282 0.008125744
-0.0031738013 0.06834356 -0.006363147 -0.08555329 0.03495072 -0.06436824 0.031095006 0.021206431
-0.0699576 -0.01751348 0.0230116 0.035265896 -0.013047782 -0.030508058 0.0091687655 -0.048690196
0.03569844 0.053574562 0.0061639273 -0.0419843 0.026071398 -0.065516256 -0.030611135 0.04974763
0.0078586275 0.08204566 0.023129046 0.03442762 0.031746637 -0.030702593 -0.066725455 -0.037693836
-0.06055756 -0.041869283 0.014108587 0.020997163 -0.00039967924 -0.073344365 -0.05479969 0.015327103
0.0060732174 -0.020627566 0.056969486 0.050772153 -0.079120256 -0.00020573782 0.035181146 0.023436604
0.010350879 0.051699776 -0.06740538 0.038579322 -0.010319298 -0.003275535 0.029332865 0.0029039755
0.09026951 -0.07620221 -0.007998508 0.019558389 -0.06308816 0.0058159246 0.05061314 0.011033425
-0.024164492 -0.06520318 0.08290855 -0.04262439 -0.039432 -0.069312595 -0.032019988 -0.024413515
0.027509307 -0.036434915 0.07498529 0.017827999 0.045353543 0.050299976 -0.077202134 0.04611105
0.050993316 0.06738826 0.0056810747 0.019496206 -0.05192792 0.03973799 0.04033969 0.0005772545
0.017038427 -0.02486086 0.025658816 0.041459776 0.011232463 0.021431467 -0.08592497 0.085310936
0.05641583 0.06038298 -0.018338582 -0.05819741 -0.061076544 -0.07284096 -0.06048425 -0.061599374
0.049682457 0.051271647 0.053083252 0.022012964 -0.061460506 -0.0059025222 0.04487096 -0.053558905
-0.047293972 0.02378252 -0.012557432 0.013792736 0.037137147 0.04428172 0.05914956 -0.05208659
-0.072105736 -0.069566615 0.08336957 -0.062441114 0.021904824 -0.06236395 -0.062385865 0.021364858
0.044013977 -0.033838555 0.016363073 -0.020743858 0.017425163 0.0068382313 -0.030099789 0.03311932
0.034953017 0.04374882 -0.016327783 -0.017528953 0.0012727499 0.007143579 -0.0019217767 0.007823169
0.004548086 0.09046892 -0.039965827 -0.022422384 -0.056218117 0.005038968 -0.05072454 0.008338545
-0.04554743 0.007563661 0.033516925 0.012795676 0.041854467 -0.03588752 0.041771717 -0.03946131
0.01607882 -0.059556577 -0.03479372 0.043586083 0.00521146 0.034071848 0.023339672 0.044860452
-0.03976171 0.023816604 0.06341067 0.042660013 -0.0255041 -0.07272417 0.05007271 0.012393107
0.03228792 -0.063232854 0.021415431 0.007095939 -0.029699998 0.0017376805 0.039470796 -0.03469195
-0.050222207 0.027156424 0.041874725 0.017583795 0.053615227 0.03149397 -0.04146767 0.049706805
00000000: d508 263d ca6c ae3d e045 34bd 5ecf 523d
00000010: 7889 03bd 38aa 07bd 8c3b d1bc f1e2 ab3c
00000020: 6a2f 1b3d f897 6e3d 59fd 4abd d75b 923c
00000030: 8987 5abc 7266 9dbd 6617 4d3b 7c9a 383d
00000040: 7ce4 adbd bf4b 3e3d 327b 7dbd aa94 743c
00000050: 8470 81bd db7c 87bd 8634 d93c 0ebf b3bd
00000060: 2a48 08bd 3b90 9dbd cdbc 2e3c deb9 4f3c
00000070: 098d 8dbd 1297 3a3d 6eb2 733c b0ca d43c
00000080: b5b3 323d 6823 33bd 0d4f 02bd bfa8 a13c
00000090: 7a9e 263d 079e 24bd e51e eebc 4fd8 3b3d
000000a0: 8955 453d b7d6 a2bd 00e8 a73d 478a 29bd
000000b0: 013a 963c 0001 f33c 63d2 0d3d 2787 2c3d
000000c0: 4e91 ba3c a822 8ebc 6278 193d 8f13 86bd
000000d0: f4ec 9e3b f355 c0bc 5c74 f0bc 9460 983d
000000e0: 1b0e 8e3a dda8 0dbd 1219 9d3c 4d61 053b
000000f0: 511e 8fbd ac14 453c 0460 86bd d721 053c
00000100: 8dff 4fbb b5f7 8b3d f281 d0bb 9036 afbd
00000110: 7c28 0f3d 7fd3 83bd f4ba fe3c 1cb9 ad3c
00000120: ee45 8fbd 6e78 8fbc d382 bc3c f972 103d
00000130: 5dc6 55bc 09ec f9bc 9738 163c 5f6f 47bd
00000140: 8738 123d 0071 5b3d c5fa c93b bbf7 2bbd
00000150: af93 d53c 632d 86bd 34c4 fabc 2cc4 4b3d
00000160: 79c1 003c 8e07 a83d 2079 bd3c fa03 0d3d
00000170: c308 023d 0184 fbbc 5ba7 88bd da64 1abd
00000180: 340b 78bd 207f 2bbd b427 673c 3e02 ac3c
00000190: 0a8c d1b9 9235 96bd a475 60bd 881e 7b3c
000001a0: d701 c73b 24fb a8bc d658 693d 76f6 4f3d
000001b0: cd09 a2bd 53bb 57b9 1b1a 103d 1ffe bf3c
000001c0: bc96 293c 25c3 533d d50b 8abd 5a05 1e3d
000001d0: 4612 29bc 5caa 56bb 7a4b f03c a050 3e3b
000001e0: 39df b83d e70f 9cbd 2d0c 03bc ea38 a03c
000001f0: 5d34 81bd 8393 be3b b94f 4f3d 8ac5 343c
00000200: 9df4 c5bc 3f89 85bd f5cb a93d ea96 2ebd
00000210: 7383 21bd c3f3 8dbd 6427 03bd dafe c7bc
00000220: 335b e13c c73c 15bd e391 993d 060c 923c
00000230: a3c4 393d 5907 4e3d 271c 9ebd f1de 3c3d
00000240: 5ede 503d db02 8a3d 4f28 ba3b 82b6 9f3c
00000250: 5fb2 54bd 4dc4 223d 3b3b 253d e552 173a
00000260: 2c94 8b3c 01a9 cbbc 7032 d23c bad1 293d
00000270: 5d08 383c 0b91 af3c 6ef9 afbd 80b7 ae3d
00000280: 4914 673d 2554 773d cb3a 96bc 6860 6ebd
00000290: 662b 7abd a42d 95bd 55be 77bd a04f 7cbd
000002a0: d57f 4b3d 3802 523d d36d 593d 8854 b43c
000002b0: 03be 7bbd f269 c1bb 9dca 373d 9560 5bbd
000002c0: 53b7 41bd 8fd3 c23c b0bd 4dbc eefa 613c
000002d0: 1f1d 183d c060 353d cf46 723d c058 55bd
000002e0: 2cac 93bd f178 8ebd aabd aa3d 41c2 7fbd
000002f0: bf71 b33c 5771 7fbd 5288 7fbd 5b05 af3c
00000300: 0048 343d 4c9a 0abd da0b 863c 06ef a9bc
00000310: 37bf 8e3c 3e13 e03b d593 f6bc 20a8 073d
00000320: e52a 0f3d f631 333d d8c1 85bc e198 8fbc
00000330: 66d2 a63a af14 ea3b 20e4 fbba c02c 003c
00000340: 1c08 953b c547 b93d 35b3 23bd 26af b7bc
00000350: f844 66bd ed1d a53b 89c4 4fbd 659e 083c
00000360: f18f 3abd 96d8 f73b 0b49 093d f4a4 513c
00000370: 976f 2b3d cbfe 12bd d218 2b3d 2fa2 21bd
00000380: bbb7 833c 99f1 73bd dc83 0ebd 5287 323d
00000390: e5c4 aa3b ec8e 0b3d d732 bf3c 98bf 373d
000003a0: 2ddd 22bd 0a1b c33c 74dd 813d 44bc 2e3d
000003b0: f9ed d0bc 69f0 94bd 0b19 4d3d 750c 4b3c
000003c0: 5740 043d 3a80 81bd 6a6f af3c 0d85 e83b
000003d0: 694d f3bc e2c2 e33a 21ac 213d 2519 0ebd
000003e0: cdb5 4dbd 2677 de3c d584 2b3d e40b 903c
000003f0: a49b 5b3d d2ff 003d 01da 29bd 5d99 4b3d
