RL/Model_Repository/temp/TD3_Guest_curt_actor.pth (torch, 512191 bytes, 9 tensors)

layer_1.weight f4 [400, 12]
0	0x3c10a092	0.008827345
1	0x3caf103d	0.021370048
2	0xb765da6a	-1.3700317e-05
3	0x3d2c2522	0.0420276
4	0xb52344d7	-6.0822407e-07
5	0xb5c8a62f	-1.4949527e-06
6	0x3799b173	1.8321653e-05
7	0xb46fb42d	-2.2324157e-07
8	0x3d07548e	0.033039622
9	0xbb90d4f4	-0.0044199172
10	0x3cf74c68	0.0301878
11	0x381872f3	3.634668e-05
12	0x3b9baada	0.0047505917
13	0xb6b2abc6	-5.3248104e-06
14	0xb6dc9f91	-6.575087e-06
15	0xb6c791c4	-5.9476315e-06
16	0x3c20fdb3	0.009826112
17	0xb59fb965	-1.190038e-06
18	0xb6dad6d0	-6.5219137e-06
19	0xb52dd183	-6.47524e-07
20	0xb5910c3e	-1.0806905e-06
21	0xb707abf6	-8.086665e-06
22	0xb55c77cd	-8.213072e-07
23	0x39100159	0.00013733412
24	0xbc576808	-0.013147362
25	0x370c29cd	8.354383e-06
26	0x372f8ce2	1.0463615e-05
27	0x36fab94c	7.472152e-06
28	0x34dc70bd	4.106022e-07
29	0xbd73b522	-0.059498914
30	0x3d1c6e09	0.038190875
31	0xbcd1efe0	-0.025627077
32	0x3c24a173	0.010048258
33	0xb5fe7553	-1.895862e-06
34	0xb4af6cd4	-3.2675473e-07
35	0xb712afaa	-8.743178e-06
36	0xb73954f3	-1.1046638e-05
37	0x3c89c8cc	0.01681938
38	0xb73bbf32	-1.1190585e-05
39	0xb7003f03	-7.644066e-06
40	0xb5bdaccc	-1.4131888e-06
41	0xb5c8e7f7	-1.4968672e-06
42	0xb6169438	-2.2438016e-06
43	0x3d12587d	0.03572892
44	0xb59b791f	-1.1583651e-06
45	0xb64bcda2	-3.0369051e-06
46	0xb4c1321f	-3.598552e-07
47	0xb599503f	-1.1422743e-06
48	0xb3ce9373	-9.6194434e-08
49	0xb4cef73b	-3.8550374e-07
50	0xbd75671e	-0.059912793
51	0xb42245b3	-1.5112782e-07
52	0xbc16cc39	-0.009203964
53	0x3c9e84f4	0.019350506
54	0xb5264e37	-6.1953637e-07
55	0xb336745c	-4.2481005e-08
56	0xb3132289	-3.4257514e-08
57	0x35d7c3db	1.607575e-06
58	0x3c46424c	0.012100767
59	0xbb0c28b0	-0.0021386556
60	0x36668de8	3.435527e-06
61	0xba2205d5	-0.00061806786
62	0x365df97c	3.3076785e-06
63	0x36572bb0	3.2062926e-06
64	0x33e94b4c	1.08636044e-07
65	0x35148216	5.5323596e-07
66	0x3cad7855	0.021175543
67	0x3423fbaf	1.527212e-07
68	0x33bbd0a6	8.745819e-08
69	0xb43df08e	-1.768951e-07
70	0x3d189b28	0.037257344
71	0x3561d6b1	8.413145e-07
72	0x3d591164	0.0529951
73	0xbca65a95	-0.020306865
74	0xbd780341	-0.06054998
75	0xbc41cdce	-0.011828853
76	0xb9b1bb3b	-0.00033899568
77	0xb1c33a30	-5.681862e-09
78	0xae7e36ef	-5.7801704e-11
79	0x3cb087ac	0.021549068
80	0xb39c3015	-7.273062e-08
81	0xba163745	-0.00057302817
82	0x1f8d9c71	5.9974633e-20
83	0xb4355666	-1.688837e-07
84	0x376866ff	1.3852258e-05
85	0x3741f8a8	1.1561591e-05
86	0x3766cab2	1.3756262e-05
87	0xbc2d3758	-0.010572277
88	0x352983fe	6.314948e-07
89	0x3502b5e2	4.869345e-07
90	0x35529a9e	7.8456094e-07
91	0x3533a721	6.69259e-07
92	0x35833cf0	9.777996e-07
93	0x3a21ce58	0.000617241
94	0xbb59131b	-0.003312296
95	0x36179725	2.258873e-06
96	0x3d290ff7	0.04127499
97	0xb314d05b	-3.4648433e-08
98	0xb29c801c	-1.8219048e-08
99	0xbd5e86d7	-0.054327812
100	0xb29e2a70	-1.841292e-08
101	0x331d9695	3.6691365e-08
102	0x342e5db3	1.62391e-07
103	0xbb6b4023	-0.0035896383
104	0x352a1f11	6.337514e-07
105	0xba256269	-0.0006308915
106	0xbccff6bc	-0.025386207
107	0xb3bd04de	-8.801884e-08
108	0xbd0133af	-0.03154343
109	0xb7c60246	-2.3604498e-05
110	0x3d803183	0.062594436
111	0xb73ec14c	-1.1369888e-05
112	0xb50014c1	-4.7713917e-07
113	0xbd3a59f3	-0.04549594
114	0xb8eadb0b	-0.000111987894
115	0xb502e45e	-4.876109e-07
116	0xb545e1a8	-7.371659e-07
117	0xbd05bd3e	-0.03265118
118	0xb480e797	-2.4010362e-07
119	0xb72f1594	-1.0435837e-05
120	0xb4ae7ec1	-3.250225e-07
121	0xb48fa95d	-2.6759054e-07
122	0x33b92df9	8.623096e-08
123	0xb9f21e13	-0.00046180244
124	0xba458acc	-0.0007535636
125	0xb38586a6	-6.2177875e-08
126	0xb530d668	-6.587711e-07
127	0xbc57121f	-0.013126879
128	0x3cbdee59	0.023184942
129	0xb4d59f6f	-3.9790345e-07
130	0x3ce63db7	0.0281056
131	0x80000002	-3e-45
132	0xbccd3ddc	-0.02505391
133	0x3a82b953	0.0009973444
134	0x374d36c3	1.2231702e-05
135	0x3723803d	9.745415e-06
136	0xbcaefeaf	-0.021361677
137	0xbd7a9799	-0.06117973
138	0xb70c7c93	-8.373655e-06
139	0x3511c8a2	5.430867e-07
140	0xb35b5bf9	-5.107356e-08
141	0xbc9ec5ce	-0.01938143
142	0x3bb5e0df	0.0055504884
143	0xbb941232	-0.0045187706
144	0xb71ea07f	-9.454902e-06
145	0xb70e0ebe	-8.467292e-06
146	0xb7086dea	-8.131823e-06
147	0x3c883c3f	0.01663029
148	0x3d24570d	0.04012208
149	0xbc62478c	-0.013811003
150	0xb6bd3ca1	-5.639697e-06
151	0xb53ae7bc	-6.962762e-07
152	0xb6208cf7	-2.392391e-06
153	0xbbd0eb2f	-0.0063756923
154	0x3d24540c	0.040119216
155	0xbb936cb1	-0.004499041
156	0x374eb260	1.2320088e-05
157	0x374613c7	1.1806324e-05
158	0x3732f80c	1.066738e-05
159	0x374c4b84	1.217693e-05
160	0x3d224b74	0.03962274
161	0x35c9f091	1.5045681e-06
162	0x3589c852	1.0265596e-06
163	0xbd070d81	-0.032971863
164	0x358ea407	1.0627563e-06
165	0x36418e92	2.8842228e-06
166	0x367041a7	3.5801002e-06
167	0x3ce25288	0.027627245
168	0xb5b05317	-1.3137204e-06
169	0xb561e9cb	-8.4159245e-07
170	0xb574f3be	-9.1251775e-07
171	0xb6042a89	-1.9694291e-06
172	0xb3dcae01	-1.02761994e-07
173	0xb404c78c	-1.2366053e-07
174	0xb5a3184a	-1.2151515e-06
175	0xb3fcd7ca	-1.1773916e-07
176	0xbbca5e03	-0.006175758
177	0xb5d38ce5	-1.5761731e-06
178	0x3c2c6cdd	0.010524002
179	0xbd433a13	-0.047662806
180	0xb5acff3c	-1.2889282e-06
181	0xb5326f09	-6.6471745e-07
182	0xb622e143	-2.4271e-06
183	0xb54d6fde	-7.653124e-07
184	0xb38cf2d5	-6.563429e-08
185	0xb39579ad	-6.960486e-08
186	0xb5950521	-1.1102858e-06
187	0xb573a365	-9.0762325e-07
188	0xb4a3d6f8	-3.0517526e-07
189	0xb670fba3	-3.5909259e-06
190	0xb697fb17	-4.5293814e-06
191	0xb5e67523	-1.7170427e-06
192	0x38110ecb	3.458447e-05
193	0x3ce61669	0.028086858
194	0x37952591	1.7779677e-05
195	0x3786e7be	1.6081958e-05
196	0x35f860a7	1.8505569e-06
197	0x3602578e	1.9422473e-06
198	0x37aafdf2	2.0383832e-05
199	0x35c29c16	1.4499553e-06
200	0xbd217fc2	-0.03942848
201	0x37cdb406	2.4521734e-05
202	0x3cc613ff	0.024179457
203	0x3816e33b	3.597441e-05
204	0x37f9f861	2.9798774e-05
205	0x37f654f0	2.9365037e-05
206	0x37f2cea4	2.8944873e-05
207	0xbd153375	-0.036426026
208	0x35d6a181	1.5991246e-06
209	0x360fd328	2.143157e-06
210	0x3782badf	1.5584226e-05
211	0x35dd3b51	1.6483046e-06
212	0xbd09a1d8	-0.03360161
213	0x35526c2c	7.8388507e-07
214	0xb50de3ee	-5.2858275e-07
215	0x3d5e3ff2	0.0542602
216	0xb601d2d6	-1.934522e-06
217	0xb477d70b	-2.30819e-07
218	0xb4d24b94	-3.9170538e-07
219	0xb4ba6e60	-3.4725508e-07
220	0xb83d2164	-4.509221e-05
221	0x3b840fdf	0.0040302123
222	0xb532d246	-6.6616155e-07
223	0x341bf2a4	1.4523772e-07
224	0xbd7b36cb	-0.06133155
225	0x39956e9f	0.00028501914
226	0x3c00c263	0.007858845
227	0x332b0782	3.982087e-08
228	0xbaa6ca33	-0.0012725055
229	0xbd72ec12	-0.059307165
230	0xbc903e82	-0.017607931
231	0x3bc485ee	0.005997411
232	0xb19344c6	-4.2860817e-09
233	0x3cc36816	0.023853343
234	0xb3b52542	-8.4352465e-08
235	0xb149e418	-2.9379006e-09
236	0xb3f6279b	-1.1462472e-07
237	0xbc05db18	-0.008169912
238	0xbcdf735a	-0.027276684
239	0xbd3d1319	-0.04616079
240	0x00000002	3e-45
241	0x0000147e	7.351e-42
242	0x00000003	4e-45
243	0xaed47c70	-9.6627484e-11
244	0x80000001	-1e-45
245	0xbadc0cba	-0.0016788461
246	0xb8a69bc3	-7.94451e-05
247	0x00000004	6e-45
248	0x00000001	1e-45
249	0x35976df4	1.1282377e-06
250	0x00000001	1e-45
251	0xbb91cd91	-0.0044495543
252	0x9d864e9e	-3.5550793e-21
253	0x9d665034	-3.048171e-21
254	0x800000ae	-2.44e-43
255	0xbd4e4511	-0.050358836

layer_1.bias f4 [400]
0	0x38125d19	3.4895816e-05
1	0xb754fab7	-1.2694559e-05
2	0xb73b6e32	-1.1171725e-05
3	0xb6a00640	-4.769099e-06
4	0x3b8b3e69	0.004249383
5	0x361e247f	2.3565078e-06
6	0xb4989bd9	-2.84256e-07
7	0x3cd09b67	0.025464727
8	0xb3cbb961	-9.4866444e-08
9	0x3b98d57e	0.004664122
10	0xbcc28a2e	-0.02374753
11	0x3d2901e9	0.041261587
12	0xb7632367	-1.3538497e-05
13	0x3689d90f	4.108187e-06
14	0xb62566ea	-2.464682e-06
15	0xb6837d1d	-3.9186693e-06
16	0x3d025ec0	0.031828642
17	0x35b5968a	1.3529364e-06
18	0xb5bf6175	-1.4258973e-06
19	0x3d12352f	0.03569525
20	0xb3dcfa66	-1.02900955e-07
21	0x3a57e4c6	0.0008235689
22	0x3d5afec1	0.05346561
23	0x39ee79a0	0.00045485515
24	0xb71187a1	-8.674252e-06
25	0xb703a3e1	-7.8463645e-06
26	0xbd1a722c	-0.03770654
27	0xa5882ad1	-2.3621253e-16
28	0xb6cc70e4	-6.092816e-06
29	0xb91f7f90	-0.00015210942
30	0xb664c923	-3.4091725e-06
31	0x3733b63e	1.0711663e-05
32	0xb7590ca7	-1.2937154e-05
33	0x80000001	-1e-45
34	0x3d5a7ca1	0.05334151
35	0xaa739480	-2.1634257e-13
36	0x3cce7808	0.02520372
37	0x3d311350	0.04323131
38	0x36fb787b	7.4944087e-06
39	0xbd51775b	-0.051139217
40	0x3d3b2aff	0.0456953
41	0xb7145f38	-8.843657e-06
42	0x3d526329	0.051364098
43	0xb797b25e	-1.8083661e-05
44	0xb7505f28	-1.2419921e-05
45	0xb72e792a	-1.0399419e-05
46	0xb648e708	-2.99368e-06
47	0x3c3ae291	0.011406557
48	0xbd200b71	-0.03907341
49	0xb6e6e4a2	-6.8811505e-06
50	0xb806aec6	-3.211086e-05
51	0x3c109d7a	0.008826608
52	0xb72b163d	-1.0197572e-05
53	0x376c2c52	1.4077015e-05
54	0x3750efae	1.2453571e-05
55	0x3d1861b6	0.03720256
56	0xb7c27495	-2.318089e-05
57	0x38129f71	3.4957604e-05
58	0x35ae4378	1.2983646e-06
59	0xb613d794	-2.203019e-06
60	0xb3f232e7	-1.1278262e-07
61	0x37a0c90b	1.9167104e-05
62	0xb70c7088	-8.370851e-06
63	0xb7019a8c	-7.724982e-06
64	0x3c961d9e	0.01832467
65	0x378bb0ef	1.6652482e-05
66	0x396badd7	0.00022476107
67	0xb63c10ac	-2.8023887e-06
68	0xbd17e94b	-0.03708772
69	0x34230466	1.5182158e-07
70	0xb813461f	-3.5112836e-05
71	0x3cbe4cb5	0.023229936
72	0x36e7e281	6.910705e-06
73	0x3717e29b	9.053062e-06
74	0xbb4fea4b	-0.0031725343
75	0xbd4ace56	-0.049513184
76	0x3807e9b3	3.2404158e-05
77	0x3c95b25c	0.018273525
78	0x302e527e	6.341806e-10
79	0xb659e1f4	-3.2467042e-06
80	0xb54bcd77	-7.5922384e-07
81	0x383928b6	4.4145352e-05
82	0x81790564	-4.5737945e-38
83	0xbc8f142b	-0.017465672
84	0xbd1fa43e	-0.038974993
85	0xb084e369	-9.668898e-10
86	0x35e4a4f0	1.7035327e-06
87	0x37aeb793	2.08279e-05
88	0xb7b7a16c	-2.1890468e-05
89	0xb78b6efd	-1.6621774e-05
90	0x365c3555	3.2813598e-06
91	0x3834b0d8	4.3080043e-05
92	0xb78b24c8	-1.6587219e-05
93	0xb6d49f18	-6.3366133e-06
94	0x389c72a9	7.460017e-05
95	0xb7cefcb8	-2.4674795e-05
96	0x36e88b07	6.9303237e-06
97	0x3c92cfa5	0.017921278
98	0x00000003	4e-45
99	0xb76ee8c8	-1.4240104e-05
100	0x352f29d5	6.5253454e-07
101	0xb8d81598	-0.00010303705
102	0x37f6b801	2.9411169e-05
103	0xb7012668	-7.697941e-06
104	0xb38ebd57	-6.646831e-08
105	0x35880245	1.013345e-06
106	0x3c82b463	0.015955156
107	0x362737dc	2.4917454e-06
108	0x80000009	-1.3e-44
109	0x381cff67	3.743116e-05
110	0x80000004	-6e-45
111	0x3cd939a6	0.026516747
112	0xb587a5d5	-1.0106547e-06
113	0x99c18c28	-2.0012341e-23
114	0x3861d162	5.3839183e-05
115	0xbc9e43d3	-0.01931945
116	0xba30d68f	-0.0006745839
117	0xbce15d2d	-0.02751025
118	0x3afab233	0.0019126594
119	0xb7aca26d	-2.0579633e-05
120	0x0000000b	1.5e-44
121	0xbd156a01	-0.036478046
122	0xb70f5194	-8.542458e-06
123	0x3cd7ff24	0.026366778
124	0x385a36bb	5.2026222e-05
125	0x37b6303a	2.1718548e-05
126	0x3830178c	4.19836e-05
127	0x3c2e6f35	0.010646631
128	0x3c319704	0.010839228
129	0xbbab5892	-0.0052290643
130	0x35b5b49c	1.3538115e-06
131	0xbc9f7f01	-0.01946974
132	0xba674030	-0.00088215154
133	0x3c20ff74	0.00982653
134	0xbc73b53a	-0.014874751
135	0x067f5bf2	4.802772e-35
136	0x00000006	8e-45
137	0x3d63460a	0.055486716
138	0xbd629e20	-0.05532658
139	0xb81c2606	-3.722871e-05
140	0x00000007	1e-44
141	0x3c299872	0.010351287
142	0xb617891e	-2.2580566e-06
143	0x366dcd12	3.5435119e-06
144	0x384fde39	4.9559607e-05
145	0x38299660	4.0432788e-05
146	0x3ba0feff	0.0049132104
147	0xb68fa1fc	-4.2805896e-06
148	0xb5ad6cd3	-1.2921176e-06
149	0x80000001	-1e-45
150	0x32a11729	1.8753399e-08
151	0x38394703	4.4173572e-05
152	0xb58e7aaa	-1.0615524e-06
153	0x3d03e9f1	0.032205526
154	0x97bf8bb5	-1.2378353e-24
155	0x38684199	5.5374203e-05
156	0x3d219d68	0.039456755
157	0xb2b8053c	-2.14228e-08
158	0x366c3da2	3.5202615e-06
159	0xb3298054	-3.9465093e-08
160	0xb7500f74	-1.2401364e-05
161	0xb66bfade	-3.5163753e-06
162	0xb527eff1	-6.256151e-07
163	0x3833487f	4.2744443e-05
164	0xb6b3b2a8	-5.355414e-06
165	0xb234702d	-1.0502885e-08
166	0xbc9776b1	-0.018489214
167	0x3d48868f	0.04895645
168	0xb60fdcab	-2.1437106e-06
169	0xb4984b31	-2.8366915e-07
170	0xbb954c42	-0.00455621
171	0x3d556b31	0.05210418
172	0xb654928c	-3.1675763e-06
173	0xb7a8c800	-2.0120293e-05
174	0xbcec6591	-0.028857024
175	0x3cf48abe	0.029851314
176	0x381912fb	3.649572e-05
177	0x3632bca7	2.6633877e-06
178	0xbcb0f989	-0.021603363
179	0xb7fe687f	-3.032782e-05
180	0xba01df5f	-0.00049542444
181	0x80001f82	-1.1303e-41
182	0xbd4bf46b	-0.049793642
183	0xbd11b4de	-0.03557288
184	0xbd55e0ea	-0.052216448
185	0x3d23c4fe	0.03998279
186	0x3d211ff0	0.0393371
187	0xbcd8fa1a	-0.026486445
188	0x3c28c3f6	0.010300627
189	0xb7db7448	-2.6160982e-05
190	0xbd36dda2	-0.04464496
191	0x00000006	8e-45
192	0xb3c18915	-9.012198e-08
193	0xb7eca5cf	-2.8210603e-05
194	0xb74c6535	-1.2182912e-05
195	0x3d549c9d	0.05190717
196	0xbce83b9c	-0.028348736
197	0x38a8bee1	8.046418e-05
198	0xb5a3b665	-1.219753e-06
199	0xb5bcc0fb	-1.4063256e-06
200	0x3a999d7e	0.001171991
201	0xbb2d7445	-0.0026467007
202	0x3761f559	1.34681695e-05
203	0x36ffb321	7.6204456e-06
204	0x376a06db	1.3949083e-05
205	0xb702949f	-7.783207e-06
206	0xb370467b	-5.5943456e-08
207	0x3d563085	0.052292366
208	0xb677e4db	-3.693908e-06
209	0xbd713a4b	-0.058893483
210	0x3d427e74	0.047483876
211	0xb6a3b34a	-4.8786505e-06
212	0xb782520d	-1.5535416e-05
213	0x37cbd4f7	2.4298655e-05
214	0xb528ab6d	-6.2834334e-07
215	0x3c3b1bb5	0.01142018
216	0x38676a78	5.517385e-05
217	0x378f58e3	1.708832e-05
218	0xb77baabc	-1.5000518e-05
219	0xb7b0c1a4	-2.1071006e-05
220	0x3d6b848b	0.05749945
221	0x3a84d52e	0.0010134333
222	0xb96271a4	-0.00021595374
223	0x35b9ab57	1.383344e-06
224	0x3837bc87	4.380618e-05
225	0x3c0d5af3	0.008627641
226	0x38ba3cf1	8.8805224e-05
227	0x00000002	3e-45
228	0x385efbc8	5.3163414e-05
229	0x37cc4c11	2.4354116e-05
230	0xba855857	-0.0010173422
231	0x3ca1b377	0.019738896
232	0x3c546315	0.012963076
233	0xb80f29e2	-3.4132863e-05
234	0xbcde4c1f	-0.027135907
235	0x3c41b702	0.011823418
236	0xbd0bf05f	-0.034164783
237	0xb57496e4	-9.111666e-07
238	0xbd654b13	-0.0559798
239	0x3796c892	1.7974791e-05
240	0xb3e24743	-1.05369075e-07
241	0x3d409212	0.047014304
242	0xb52aee85	-6.3677027e-07
243	0x3cef77de	0.029231962
244	0xb732bb4d	-1.0653236e-05
245	0x3d5dbce7	0.05413523
246	0x3979927f	0.00023801065
247	0x3b9d610e	0.0048028296
248	0x3cfdce53	0.030982172
249	0x00000009	1.3e-44
250	0x34ec7cc8	4.4049216e-07
251	0xb7385073	-1.0985986e-05
252	0x3d014a61	0.031565074
253	0xb6ebc250	-7.0261667e-06
254	0xbc4ef797	-0.012632272
255	0xbc408c4a	-0.0117521975

ln1.weight f4 [400]
0	0x3f432a9e	0.76236904
1	0x3f43272b	0.7623164
2	0x3f432a3b	0.76236314
3	0x3f432c4f	0.76239485
4	0x3f432ab4	0.76237035
5	0x3f432af8	0.7623744
6	0x3f4328e4	0.7623427
7	0x3f432dce	0.7624177
8	0x3f432b53	0.7623798
9	0x3f432c15	0.7623914
10	0x3f432ae8	0.76237345
11	0x3f432b1a	0.7623764
12	0x3f432aeb	0.7623736
13	0x3f432a58	0.76236486
14	0x3f4329fe	0.7623595
15	0x3f432abd	0.7623709
16	0x3f432db1	0.76241595
17	0x3f432bb2	0.7623855
18	0x3f432a0d	0.7623604
19	0x3f4328ca	0.76234114
20	0x3f432d0a	0.762406
21	0x3f432adf	0.7623729
22	0x3f432ec0	0.7624321
23	0x3f4329bc	0.76235557
24	0x3f432d52	0.7624103
25	0x3f432bd0	0.7623873
26	0x3f43296d	0.76235086
27	0x3f43289c	0.7623384
28	0x3f432d0c	0.7624061
29	0x3f432a72	0.7623664
30	0x3f432b07	0.7623753
31	0x3f432c47	0.76239437
32	0x3f432ce2	0.7624036
33	0x3f432cd3	0.7624027
34	0x3f432a63	0.7623655
35	0x3f432bab	0.7623851
36	0x3f432850	0.76233387
37	0x3f4326f9	0.7623134
38	0x3f432a3f	0.7623634
39	0x3f432b10	0.76237583
40	0x3f432cfc	0.76240516
41	0x3f4327c2	0.7623254
42	0x3f432cdd	0.7624033
43	0x3f432a33	0.76236266
44	0x3f432bbc	0.7623861
45	0x3f432aea	0.76237357
46	0x3f432ab9	0.76237065
47	0x3f432b4a	0.7623793
48	0x3f432952	0.76234925
49	0x3f432946	0.76234853
50	0x3f432ab1	0.76237017
51	0x3f432b4d	0.76237947
52	0x3f432d1d	0.7624071
53	0x3f432c3d	0.7623938
54	0x3f432b3b	0.7623784
55	0x3f432b33	0.7623779
56	0x3f432a2a	0.7623621
57	0x3f432ae5	0.76237327
58	0x3f432aa3	0.76236933
59	0x3f432a9d	0.762369
60	0x3f432ac5	0.76237136
61	0x3f432bbc	0.7623861
62	0x3f432b19	0.76237637
63	0x3f432ab2	0.7623702
64	0x3f432c07	0.76239055
65	0x3f432857	0.7623343
66	0x3f4329f3	0.76235884
67	0x3f432a8c	0.76236796
68	0x3f432ac8	0.76237154
69	0x3f432a94	0.76236844
70	0x3f432af3	0.7623741
71	0x3f4329e7	0.7623581
72	0x3f432ba8	0.7623849
73	0x3f4327a1	0.76232344
74	0x3f432a36	0.76236284
75	0x3f432d05	0.7624057
76	0x3f432a6a	0.76236594
77	0x3f432a3c	0.7623632
78	0x3f4329d3	0.76235694
79	0x3f432db8	0.76241636
80	0x3f432aee	0.7623738
81	0x3f432b63	0.7623808
82	0x3f432a59	0.7623649
83	0x3f432b37	0.76237816
84	0x3f432aa5	0.76236945
85	0x3f4329ff	0.76235956
86	0x3f432ae9	0.7623735
87	0x3f432ca0	0.7623997
88	0x3f432abc	0.7623708
89	0x3f432bcd	0.7623871
90	0x3f432be8	0.7623887
91	0x3f432e69	0.7624269
92	0x3f432a24	0.76236176
93	0x3f432a58	0.76236486
94	0x3f4327a3	0.76232356
95	0x3f432a2e	0.76236236
96	0x3f432dab	0.7624156
97	0x3f432c66	0.7623962
98	0x3f432ae2	0.7623731
99	0x3f432b1e	0.76237667
100	0x3f432ba9	0.76238495
101	0x3f432b1e	0.76237667
102	0x3f432dc1	0.7624169
103	0x3f432a4d	0.7623642
104	0x3f432c93	0.7623989
105	0x3f432ccf	0.7624025
106	0x3f432aa2	0.7623693
107	0x3f432ad6	0.7623724
108	0x3f432a25	0.7623618
109	0x3f432ac9	0.7623716
110	0x3f432ad6	0.7623724
111	0x3f432b4f	0.7623796
112	0x3f432b07	0.7623753
113	0x3f432c5f	0.7623958
114	0x3f432c3a	0.7623936
115	0x3f432b29	0.7623773
116	0x3f432855	0.76233417
117	0x3f432aa8	0.76236963
118	0x3f432d02	0.7624055
119	0x3f432b04	0.7623751
120	0x3f432b6a	0.7623812
121	0x3f432ac0	0.76237106
122	0x3f432c86	0.7623981
123	0x3f432baf	0.7623853
124	0x3f432a91	0.76236826
125	0x3f432b73	0.76238173
126	0x3f43347a	0.7625195
127	0x3f432d3d	0.76240903
128	0x3f4329a7	0.7623543
129	0x3f432afe	0.76237476
130	0x3f432b23	0.76237696
131	0x3f432c59	0.76239544
132	0x3f432ca4	0.7623999
133	0x3f432a91	0.76236826
134	0x3f432b40	0.7623787
135	0x3f432ab8	0.7623706
136	0x3f432b15	0.7623761
137	0x3f432b6f	0.7623815
138	0x3f432b87	0.7623829
139	0x3f432ae3	0.76237315
140	0x3f432a30	0.7623625
141	0x3f43298e	0.7623528
142	0x3f4325aa	0.76229346
143	0x3f432b7a	0.76238215
144	0x3f432b7a	0.76238215
145	0x3f432992	0.76235306
146	0x3f432b01	0.76237494
147	0x3f432b6e	0.76238143
148	0x3f432aff	0.7623748
149	0x3f432a99	0.76236874
150	0x3f432a1c	0.7623613
151	0x3f432d09	0.76240593
152	0x3f4329e8	0.7623582
153	0x3f4326b9	0.7623096
154	0x3f432d08	0.7624059
155	0x3f4325b2	0.76229393
156	0x3f432aef	0.76237386
157	0x3f432ae8	0.76237345
158	0x3f432941	0.76234823
159	0x3f432a73	0.7623665
160	0x3f4327d1	0.7623263
161	0x3f4329f7	0.7623591
162	0x3f4329de	0.7623576
163	0x3f432ac4	0.7623713
164	0x3f4329e8	0.7623582
165	0x3f432aaf	0.76237005
166	0x3f432aad	0.76236993
167	0x3f4329a8	0.7623544
168	0x3f432927	0.7623467
169	0x3f432ca5	0.7624
170	0x3f4329cc	0.7623565
171	0x3f432b99	0.762384
172	0x3f43297c	0.76235175
173	0x3f432b16	0.7623762
174	0x3f432b80	0.7623825
175	0x3f4329da	0.76235735
176	0x3f43298d	0.76235276
177	0x3f432d25	0.7624076
178	0x3f432c29	0.7623926
179	0x3f43292d	0.76234704
180	0x3f432c80	0.76239777
181	0x3f43289b	0.76233834
182	0x3f432a6a	0.76236594
183	0x3f432cac	0.7624004
184	0x3f432914	0.76234555
185	0x3f432c5b	0.76239556
186	0x3f432ce9	0.762404
187	0x3f432c98	0.7623992
188	0x3f432a73	0.7623665
189	0x3f432b40	0.7623787
190	0x3f4329a0	0.7623539
191	0x3f432a6d	0.7623661
192	0x3f4329cf	0.7623567
193	0x3f432ae7	0.7623734
194	0x3f432d09	0.76240593
195	0x3f432ada	0.7623726
196	0x3f432aa4	0.7623694
197	0x3f432e97	0.76242965
198	0x3f432a43	0.7623636
199	0x3f432b19	0.76237637
200	0x3f432aff	0.7623748
201	0x3f432d03	0.7624056
202	0x3f43281f	0.76233095
203	0x3f432b3b	0.7623784
204	0x3f432857	0.7623343
205	0x3f432a83	0.7623674
206	0x3f432ade	0.76237285
207	0x3f432aa9	0.7623697
208	0x3f432a01	0.7623597
209	0x3f432ad9	0.76237255
210	0x3f4326a9	0.76230866
211	0x3f432a80	0.76236725
212	0x3f432b64	0.76238084
213	0x3f432f61	0.7624417
214	0x3f4328b9	0.7623401
215	0x3f432a42	0.76236355
216	0x3f432dc7	0.76241726
217	0x3f43297b	0.7623517
218	0x3f432a96	0.76236856
219	0x3f432c16	0.76239145
220	0x3f432ae3	0.76237315
221	0x3f432ad2	0.76237214
222	0x3f432dc1	0.7624169
223	0x3f432a88	0.7623677
224	0x3f4329fc	0.7623594
225	0x3f432a74	0.76236653
226	0x3f432646	0.76230276
227	0x3f432b34	0.762378
228	0x3f432aa9	0.7623697
229	0x3f432efc	0.7624357
230	0x3f4329bd	0.7623556
231	0x3f432ce4	0.7624037
232	0x3f432a54	0.7623646
233	0x3f432afc	0.76237464
234	0x3f432972	0.76235116
235	0x3f432caa	0.76240027
236	0x3f4329c1	0.76235586
237	0x3f432935	0.7623475
238	0x3f432be1	0.7623883
239	0x3f432b40	0.7623787
240	0x3f432aad	0.76236993
241	0x3f4329c6	0.76235616
242	0x3f432c17	0.7623915
243	0x3f432dc0	0.76241684
244	0x3f432a85	0.76236755
245	0x3f4326b3	0.76230925
246	0x3f432dee	0.7624196
247	0x3f43298a	0.7623526
248	0x3f432cac	0.7624004
249	0x3f432cc8	0.76240206
250	0x3f432d03	0.7624056
251	0x3f432a56	0.76236475
252	0x3f43220f	0.76223844
253	0x3f432c63	0.76239604
254	0x3f432a9f	0.7623691
255	0x3f432aef	0.76237386

ln1.bias f4 [400]
0	0x36aa3b19	5.0732747e-06
1	0xb62eb9e0	-2.6036214e-06
2	0xb3ca98df	-9.434165e-08
3	0xb5ad47b7	-1.2910376e-06
4	0xb6865874	-4.0038085e-06
5	0x33eaf8c3	1.09417236e-07
6	0xb686d615	-4.0184336e-06
7	0x361577b1	2.22724e-06
8	0xb686c873	-4.0168466e-06
9	0xb65cf9e1	-3.2928003e-06
10	0xb6867cc5	-4.0080363e-06
11	0x343ceec3	1.7595725e-07
12	0xb64f718a	-3.0911492e-06
13	0x366e4b0e	3.5508451e-06
14	0xb6852013	-3.967443e-06
15	0xb686ca8e	-4.0170917e-06
16	0x36fcc6c7	7.533326e-06
17	0x36a7530f	4.986657e-06
18	0xb6864a60	-4.0021696e-06
19	0xb686c5c7	-4.0165355e-06
20	0xb686cc5c	-4.0173018e-06
21	0xb686cbce	-4.017237e-06
22	0x3796a2e1	1.795724e-05
23	0xb64e852e	-3.0773913e-06
24	0xb5fa4b2c	-1.8648329e-06
25	0xb676df38	-3.6786787e-06
26	0xb686cc01	-4.0172604e-06
27	0xb686c9b7	-4.016994e-06
28	0xb67a3146	-3.7281584e-06
29	0x34c2de34	3.629699e-07
30	0xb6831e98	-3.907666e-06
31	0x369018f6	4.2944403e-06
32	0xb6183d67	-2.2685506e-06
33	0xb686cc42	-4.01729e-06
34	0x375e085b	1.3234177e-05
35	0xb686cba1	-4.0172167e-06
36	0x36b3fa65	5.3637655e-06
37	0x3784aff9	1.581757e-05
38	0x35840327	9.835684e-07
39	0xb58f2f2a	-1.0668057e-06
40	0x37abb512	2.0469106e-05
41	0xb5c44b35	-1.4625026e-06
42	0x36ae9593	5.203017e-06
43	0xb686cacd	-4.0171203e-06
44	0x348eaab6	2.657377e-07
45	0xb61ef37a	-2.3685557e-06
46	0xb5769c5a	-9.186966e-07
47	0xb6746c8d	-3.6422018e-06
48	0xb686ca0f	-4.017034e-06
49	0xb6808b56	-3.830918e-06
50	0xb451b84c	-1.9531689e-07
51	0x3624b83a	2.4545138e-06
52	0xb5e56f6b	-1.7094256e-06
53	0xb67b13a4	-3.7413347e-06
54	0x3658ed7b	3.232474e-06
55	0xb5c35884	-1.4554394e-06
56	0xb54d6f30	-7.653025e-07
57	0x36e69e85	6.8729883e-06
58	0x361112bd	2.161759e-06
59	0xb6832194	-3.9080132e-06
60	0xb686b6d5	-4.0147956e-06
61	0x36e49960	6.8127847e-06
62	0xb672e02a	-3.619129e-06
63	0xb67e2908	-3.7872833e-06
64	0x37033dad	7.8225685e-06
65	0x36c0526b	5.7316406e-06
66	0xb6870386	-4.0237237e-06
67	0xb6863d45	-4.000644e-06
68	0xb686cb00	-4.0171435e-06
69	0xb686cad2	-4.0171226e-06
70	0xb619c935	-2.2915895e-06
71	0x36a9507b	5.0459616e-06
72	0x32f01d70	2.7953064e-08
73	0x36942cb8	4.4159497e-06
74	0xb686c80d	-4.0168e-06
75	0xb63a9881	-2.7804929e-06
76	0x3698a8c9	4.549602e-06
77	0x37814021	1.540786e-05
78	0xb686ca61	-4.017071e-06
79	0xb684cf7c	-3.958061e-06
80	0xb686ab40	-4.0134473e-06
81	0x372b0c4e	1.0195259e-05
82	0xb686caca	-4.017119e-06
83	0xb686cb63	-4.0171885e-06
84	0xb686cae8	-4.0171326e-06
85	0xb686caa1	-4.0171003e-06
86	0x359846a2	1.1345439e-06
87	0x36b60fdd	5.4258694e-06
88	0xb5faf4f8	-1.8697747e-06
89	0xb5ee85f0	-1.7771363e-06
90	0xb6843608	-3.9401966e-06
91	0x374637c8	1.1814707e-05
92	0xb5fb38f7	-1.8717536e-06
93	0x366dd52c	3.5439834e-06
94	0x3742e052	1.161553e-05
95	0xb6224491	-2.4179792e-06
96	0x35fc2c49	1.8788352e-06
97	0x36921959	4.35409e-06
98	0xb686cb40	-4.0171726e-06
99	0xb65fd965	-3.335613e-06
100	0x36140661	2.2057432e-06
101	0x3679b6e2	3.7210343e-06
102	0x368c05f9	4.1730204e-06
103	0xb5dd446a	-1.6485694e-06
104	0xb686d04b	-4.0177597e-06
105	0xb68516d1	-3.966365e-06
106	0xb5ee4a30	-1.7753973e-06
107	0x368b5807	4.1527705e-06
108	0xb686cabe	-4.0171135e-06
109	0x36e71193	6.8863824e-06
110	0xb686cb14	-4.0171526e-06
111	0x379775d5	1.8055473e-05
112	0xb686c2ea	-4.016202e-06
113	0xb686cbfd	-4.0172586e-06
114	0x3706e78e	8.040935e-06
115	0xb686cb65	-4.0171894e-06
116	0xb686abaa	-4.0134955e-06
117	0xb686cad9	-4.017126e-06
118	0xb6489f3a	-2.9895004e-06
119	0xb60cb5c9	-2.0967439e-06
120	0xb686cb75	-4.0171967e-06
121	0xb686ce4f	-4.0175287e-06
122	0xb5a46c22	-1.2250423e-06
123	0x368bd3b8	4.16717e-06
124	0x375086b2	1.2429127e-05
125	0x36c850e3	5.969881e-06
126	0x3749abc3	1.2020525e-05
127	0x359d703e	1.1730078e-06
128	0x3539d030	6.9220823e-07
129	0xb68662df	-4.0050213e-06
130	0x349dbad7	2.9379473e-07
131	0xb686cbff	-4.0172595e-06
132	0xb686a610	-4.0128434e-06
133	0xb6851932	-3.966642e-06
134	0xb6061251	-1.9978218e-06
135	0xb686cb2c	-4.0171635e-06
136	0xb686cb4a	-4.017177e-06
137	0x3728676f	1.0037663e-05
138	0xb686cb5e	-4.0171863e-06
139	0xb686cb1e	-4.017157e-06
140	0xb686cd50	-4.0174127e-06
141	0x36c0b3f0	5.7429934e-06
142	0xb57d7180	-9.441501e-07
143	0xb686cb8b	-4.0172067e-06
144	0xb53bedf6	-7.000921e-07
145	0x373c88f2	1.1237558e-05
146	0x36329622	2.6611456e-06
147	0xb67fc0b2	-3.8110124e-06
148	0xb686c9e0	-4.0170125e-06
149	0xb686cad5	-4.017124e-06
150	0xb686cbca	-4.0172354e-06
151	0x36dffec8	6.6755783e-06
152	0xb686ca8d	-4.017091e-06
153	0x36b50edf	5.3959516e-06
154	0xb686cc3d	-4.0172877e-06
155	0x3741d4dd	1.15532575e-05
156	0x36884aa1	4.061804e-06
157	0xb686cd35	-4.0174004e-06
158	0x340692a7	1.2533074e-07
159	0xb686cc4d	-4.017295e-06
160	0xb1d69d38	-6.2460934e-09
161	0xb686b523	-4.0145983e-06
162	0xb686fc20	-4.0228624e-06
163	0x36ec9dbc	7.051711e-06
164	0x3503f8ee	4.9163543e-07
165	0xb686caf1	-4.0171367e-06
166	0xb686cafb	-4.0171412e-06
167	0xb6050557	-1.9821653e-06
168	0xb5b8c904	-1.3767572e-06
169	0xb686a4e0	-4.012705e-06
170	0xb6864ec8	-4.0026825e-06
171	0x36e3cbe1	6.788862e-06
172	0xb4405c39	-1.7914944e-07
173	0xb5d7421d	-1.603799e-06
174	0xb686cb6e	-4.0171935e-06
175	0x3705b23f	7.968919e-06
176	0x3710ffad	8.642598e-06
177	0xb4cf1f60	-3.8579583e-07
178	0xb6869d56	-4.0118275e-06
179	0x33224b44	3.7787018e-08
180	0xb686cc53	-4.0172977e-06
181	0xb686c986	-4.0169716e-06
182	0xb686cad1	-4.017122e-06
183	0xb6261e80	-2.475368e-06
184	0xb686c9d7	-4.0170085e-06
185	0x36d232f1	6.264418e-06
186	0x36d2525f	6.268077e-06
187	0xb686cc11	-4.0172677e-06
188	0xb681a9d3	-3.8642697e-06
189	0xb5f5fb03	-1.8326976e-06
190	0xb686ca2d	-4.0170476e-06
191	0xb686cab7	-4.0171103e-06
192	0xb686d7bf	-4.0186274e-06
193	0x341bcc04	1.450972e-07
194	0xb589a06a	-1.0253982e-06
195	0x377fbfcc	1.5243841e-05
196	0xb686cafc	-4.0171417e-06
197	0x376aeed3	1.40030925e-05
198	0xb6860f8a	-3.99532e-06
199	0xb686c8e7	-4.0168993e-06
200	0xb686b1f6	-4.0142286e-06
201	0xb5e40c91	-1.6990981e-06
202	0x362c2017	2.5648676e-06
203	0x3588f4ba	1.0204014e-06
204	0xb619d252	-2.29212e-06
205	0xb6719438	-3.5998073e-06
206	0xb686caf7	-4.0171394e-06
207	0x374e4ed4	1.229691e-05
208	0xb685e120	-3.989917e-06
209	0xb6862aaa	-3.998478e-06
210	0x379d8f94	1.8782717e-05
211	0xb505f2e9	-4.989984e-07
212	0xb676d478	-3.678053e-06
213	0x36d52586	6.352263e-06
214	0xb686b859	-4.014972e-06
215	0x36d23402	6.264542e-06
216	0xb60e1c23	-2.1176027e-06
217	0x35b64e1c	1.358279e-06
218	0xb6797a62	-3.7175128e-06
219	0xb6069c5c	-2.005857e-06
220	0x374f8133	1.2368243e-05
221	0xb686ceb9	-4.017577e-06
222	0xb686ccc9	-4.0173513e-06
223	0x35f26aa9	1.8061447e-06
224	0x36f984db	7.4362447e-06
225	0xb681f440	-3.872934e-06
226	0x3782a427	1.5573647e-05
227	0xb686cb37	-4.0171685e-06
228	0x374be754	1.2153603e-05
229	0x368984ab	4.0983628e-06
230	0xb5cf68b3	-1.5453173e-06
231	0xb61ea6d0	-2.3640932e-06
232	0xb685cafa	-3.9873385e-06
233	0x3586133f	9.989379e-07
234	0xb683f21c	-3.9322895e-06
235	0x350f2f24	5.334025e-07
236	0xb686ca87	-4.0170885e-06
237	0xb54b4a13	-7.5731185e-07
238	0xb686cb99	-4.017213e-06
239	0x35fef9d2	1.8997182e-06
240	0xb686ca21	-4.017042e-06
241	0x3761b15d	1.3452341e-05
242	0xb686ad35	-4.013675e-06
243	0x36bc5e6d	5.613829e-06
244	0xb6194be6	-2.2842955e-06
245	0x37af8a25	2.0925954e-05
246	0x3747b055	1.190238e-05
247	0xb685b3a5	-3.9846223e-06
248	0x36caa258	6.0389684e-06
249	0xb686cca9	-4.017337e-06
250	0xb686cb3f	-4.017172e-06
251	0xb60dc840	-2.1127198e-06
252	0x372db3e0	1.0353484e-05
253	0xb67f0264	-3.7999353e-06
254	0xb6864793	-4.0018435e-06
255	0xb6234152	-2.4326914e-06

layer_2.weight f4 [300, 400]
0	0x351f133c	5.9260105e-07
1	0xb6af7e0f	-5.2300816e-06
2	0x35052bdc	4.9610185e-07
3	0x3694d55e	4.435583e-06
4	0xb646f6df	-2.9647997e-06
5	0xb52eeac3	-6.5161674e-07
6	0xb644abe6	-2.9306334e-06
7	0x36896dd0	4.095702e-06
8	0xb643db21	-2.9184814e-06
9	0xb66a9631	-3.495614e-06
10	0xb64500d1	-2.9355763e-06
11	0x342345c5	1.520594e-07
12	0xb66e8302	-3.554102e-06
13	0x3660f8b1	3.3523359e-06
14	0xb64b748e	-3.03172e-06
15	0xb6442657	-2.9228593e-06
16	0xb612ecc3	-2.1893509e-06
17	0x366fba07	3.5722057e-06
18	0xb64b7af4	-3.0320925e-06
19	0xb6447f34	-2.9280318e-06
20	0xb64452ea	-2.9254538e-06
21	0xb6448c73	-2.9288028e-06
22	0xb734f892	-1.0786711e-05
23	0xb6696032	-3.4775699e-06
24	0xb6b28137	-5.319856e-06
25	0xb6679d5a	-3.4513273e-06
26	0xb645a879	-2.9453352e-06
27	0xb6446fb5	-2.9271298e-06
28	0xb65fcebe	-3.334993e-06
29	0xb5aa7974	-1.2701335e-06
30	0xb64d14f5	-3.055958e-06
31	0x363e97ff	2.840068e-06
32	0xb68d470c	-4.2103984e-06
33	0xb64473d1	-2.927369e-06
34	0xb6d149a3	-6.237258e-06
35	0xb644778c	-2.9275861e-06
36	0xb4fdf6a5	-4.730438e-07
37	0xb7122ca1	-8.712669e-06
38	0xb6175b53	-2.255391e-06
39	0x35e906dd	1.736185e-06
40	0xb760bbd5	-1.33951735e-05
41	0x36a01ac9	4.77149e-06
42	0x368db1d1	4.222828e-06
43	0xb64481b6	-2.9281778e-06
44	0xb3db184a	-1.02024e-07
45	0xb69cebdd	-4.6766204e-06
46	0xb68e0b91	-4.2332763e-06
47	0xb6648680	-3.4052937e-06
48	0xb6447baa	-2.9278258e-06
49	0xb6533743	-3.1473617e-06
50	0xb4df3747	-4.1577206e-07
51	0x3618cbc4	2.2768372e-06
52	0xb6b097a6	-5.262863e-06
53	0xb644abcb	-2.9306273e-06
54	0x36022efb	1.9398856e-06
55	0xb667fd48	-3.4569111e-06
56	0x3610bbdf	2.1567027e-06
57	0xb522f77d	-6.0709846e-07
58	0x36567a9b	3.195985e-06
59	0xb6482ea3	-2.9829469e-06
60	0xb646f0bf	-2.9644432e-06
61	0xb5ca44f9	-1.5070246e-06
62	0xb6709d9b	-3.5854525e-06
63	0xb655a8eb	-3.1837797e-06
64	0xb61118ad	-2.1621047e-06
65	0x35847c23	9.870895e-07
66	0xb6457cee	-2.9428006e-06
67	0xb6464c15	-2.9548585e-06
68	0xb6447f9e	-2.928056e-06
69	0xb6445bba	-2.9259668e-06
70	0xb652f65e	-3.1435843e-06
71	0x361e71f6	2.3610169e-06
72	0xb53c770e	-7.0208705e-07
73	0x36180527	2.2652764e-06
74	0xb6447c7a	-2.927873e-06
75	0xb68c323d	-4.1781736e-06
76	0x35917307	1.0836819e-06
77	0xb70dc2c1	-8.4496e-06
78	0xb6446339	-2.926403e-06
79	0xb64a923d	-3.0185467e-06
80	0xb64580fb	-2.9430364e-06
81	0xb690d253	-4.3160194e-06
82	0xb643c9b7	-2.9174678e-06
83	0xb644778b	-2.927586e-06
84	0xb64462ab	-2.9263708e-06
85	0xb6447a81	-2.9277583e-06
86	0xb517fea9	-5.662246e-07
87	0x35f5b102	1.8305439e-06
88	0xb6966259	-4.4817975e-06
89	0x36ac6231	5.1374304e-06
90	0xb647a82d	-2.9751202e-06
91	0xb6b42d23	-5.3696726e-06
92	0xb665cdb5	-3.4243396e-06
93	0x369a0a9c	4.5907927e-06
94	0xb69beb55	-4.646756e-06
95	0xb68ef592	-4.260518e-06
96	0x36af1296	5.21757e-06
97	0x36064f21	2.0013615e-06
98	0xb6448458	-2.928331e-06
99	0xb67da2ce	-3.7794703e-06
100	0x36aa5fec	5.0775616e-06
101	0x362c1cbf	2.564673e-06
102	0x362288bf	2.4219478e-06
103	0x34939706	2.7490768e-07
104	0xb6447bb8	-2.927829e-06
105	0xb64743d8	-2.96928e-06
106	0xb686db87	-4.0190675e-06
107	0x363e3796	2.8344562e-06
108	0xb6447c48	-2.9278617e-06
109	0xb5a3d7fd	-1.2207307e-06
110	0xb64478ef	-2.9276669e-06
111	0xb737ebd6	-1.096256e-05
112	0xb6461744	-2.9517842e-06
113	0xb644764e	-2.9275138e-06
114	0xb60fcf5a	-2.1429355e-06
115	0xb644749a	-2.9274147e-06
116	0xb64489cd	-2.9286487e-06
117	0xb643a10f	-2.9151013e-06
118	0xb694e232	-4.4370763e-06
119	0xb6aef453	-5.214047e-06
120	0xb6443a2b	-2.9240134e-06
121	0xb64379cb	-2.9128157e-06
122	0x36133cbd	2.1940061e-06
123	0x3608278a	2.0288594e-06
124	0xb6be73e4	-5.6759327e-06
125	0xb4659ff5	-2.1385479e-07
126	0xb6c4a2ef	-5.860223e-06
127	0x3634d3c6	2.6945359e-06
128	0x359173f8	1.0837093e-06
129	0xb6455635	-2.9405467e-06
130	0xb4d43481	-3.952628e-07
131	0xb643fbdc	-2.9203866e-06
132	0xb644334b	-2.9236132e-06
133	0xb68884db	-4.0685823e-06
134	0xb673db72	-3.6337556e-06
135	0xb64471f1	-2.9272599e-06
136	0xb6442c26	-2.9231974e-06
137	0xb649d725	-3.0076565e-06
138	0xb6446ed8	-2.9270795e-06
139	0xb6448078	-2.9281055e-06
140	0xb6451173	-2.9365444e-06
141	0xb4a3760e	-3.0447012e-07
142	0x36055f9e	1.98742e-06
143	0xb6447b22	-2.9277949e-06
144	0x35085380	5.0785457e-07
145	0xb69cdb91	-4.674723e-06
146	0x35e3c797	1.6970906e-06
147	0xb655c0a4	-3.1851605e-06
148	0xb6444a3a	-2.9249481e-06
149	0xb6446458	-2.9264684e-06
150	0xb6448169	-2.9281603e-06
151	0xb5094cb0	-5.114807e-07
152	0xb6447ea2	-2.9279986e-06
153	0x35045940	4.930371e-07
154	0xb6447180	-2.9272342e-06
155	0xb6aba9fc	-5.115986e-06
156	0x3690fc94	4.3209384e-06
157	0xb6457d57	-2.9428245e-06
158	0xb4d1b7d8	-3.9063048e-07
159	0xb6447d37	-2.927916e-06
160	0x36008cd3	1.9155457e-06
161	0xb647f3e2	-2.979527e-06
162	0xb644f840	-2.9350776e-06
163	0xb5865b4b	-1.0010348e-06
164	0x34aa1c3f	3.168552e-07
165	0xb6442334	-2.9226767e-06
166	0xb643f67b	-2.9200735e-06
167	0xb683fa67	-3.933255e-06
168	0x361a1c2c	2.2964186e-06
169	0xb64a0383	-3.010239e-06
170	0xb645a290	-2.9449911e-06
171	0x348cdad4	2.623625e-07
172	0x359020fc	1.0738436e-06
173	0xb6ae4e1c	-5.194697e-06
174	0xb644456a	-2.924668e-06
175	0xb624d92e	-2.456432e-06
176	0xb64e7b33	-3.0768103e-06
177	0xb47c5df3	-2.3503507e-07
178	0xb644ca42	-2.9324005e-06
179	0xb58f396a	-1.067104e-06
180	0xb6449356	-2.9292037e-06
181	0xb643f02d	-2.9197065e-06
182	0xb64479a6	-2.9277085e-06
183	0xb6830bbe	-3.905471e-06
184	0xb6447c04	-2.9278463e-06
185	0x355b1906	8.162027e-07
186	0x361afc5d	2.3094683e-06
187	0xb6447588	-2.9274688e-06
188	0xb654adca	-3.169162e-06
189	0xb69dc632	-4.7020376e-06
190	0xb64457fe	-2.9257494e-06
191	0xb6447162	-2.9272273e-06
192	0xb6448137	-2.928149e-06
193	0xb56b06d0	-8.7554236e-07
194	0xb28985d9	-1.6009766e-08
195	0xb70a34bf	-8.237722e-06
196	0xb6446089	-2.9262467e-06
197	0xb6e6ec3e	-6.8820364e-06
198	0xb645891c	-2.9435096e-06
199	0xb6447fce	-2.9280668e-06
200	0xb65c39e5	-3.2816254e-06
201	0xb67d07b0	-3.7704413e-06
202	0x35bc2cb2	1.40201e-06
203	0x3603048c	1.9523168e-06
204	0xb6aab4b8	-5.0874332e-06
205	0xb6867d4c	-4.0080977e-06
206	0xb6447953	-2.9276896e-06
207	0xb6b0d8c8	-5.2704454e-06
208	0xb65ade4c	-3.2613925e-06
209	0xb649423c	-2.9989887e-06
210	0xb745e335	-1.1795016e-05
211	0x3615aea5	2.2304387e-06
212	0xb64a3547	-3.0131357e-06
213	0xb5325076	-6.6427253e-07
214	0xb64394fd	-2.9143987e-06
215	0xb5a054ff	-1.1945666e-06
216	0xb6e1cd6c	-6.729437e-06
217	0xb669c3ec	-3.4833747e-06
218	0xb64bfc5d	-3.0396252e-06
219	0xb6c8ea20	-5.98772e-06
220	0xb6b28e84	-5.3214044e-06
221	0xb6454d0b	-2.9400132e-06
222	0xb64473d3	-2.9273695e-06
223	0x36d1d4b0	6.2534455e-06
224	0xb5384d21	-6.865758e-07
225	0xb65b91de	-3.271845e-06
226	0xb706ef02	-8.042671e-06
227	0xb6443212	-2.923542e-06
228	0xb6b90f15	-5.5151854e-06
229	0x35b29bac	1.330734e-06
230	0xb69e1c86	-4.7120875e-06
231	0xb6733886	-3.6242723e-06
232	0xb6461d23	-2.952126e-06
233	0x363d2195	2.8182742e-06
234	0xb64973ee	-3.0018814e-06
235	0xb53e29cb	-7.084133e-07
236	0xb644649c	-2.9264838e-06
237	0xb4de5d1f	-4.1418477e-07
238	0xb643e258	-2.9189014e-06
239	0x368afe14	4.142299e-06
240	0xb643d04e	-2.9178514e-06
241	0xb6e3f9cf	-6.7942087e-06
242	0xb645eb34	-2.9492194e-06
243	0x348deb8d	2.6434682e-07
244	0xb6a82fbb	-5.0123467e-06
245	0xb76830a3	-1.3839602e-05
246	0xb6b48a8c	-5.380547e-06
247	0xb651a7ed	-3.1241173e-06
248	0xb4b1716b	-3.3051342e-07
249	0xb6438115	-2.91324e-06
250	0xb644ac7d	-2.9306677e-06
251	0xb687117e	-4.02535e-06
252	0xb68ca158	-4.191108e-06
253	0xb65b3ff8	-3.2670778e-06
254	0xb6479936	-2.9742491e-06
255	0xb676106e	-3.666642e-06

layer_2.bias f4 [300]
0	0xb59b3669	-1.1564235e-06
1	0x39cda620	0.0003922442
2	0xb6240183	-2.4438784e-06
3	0xb637fed7	-2.7417461e-06
4	0xb6fd9280	-7.5570424e-06
5	0xb6368d47	-2.7202348e-06
6	0xb6d0c889	-6.2222284e-06
7	0xb6dd7475	-6.5998706e-06
8	0xb7139094	-8.795545e-06
9	0xb72f8991	-1.04628425e-05
10	0xb6f548f7	-7.310063e-06
11	0xb6774c3e	-3.6850247e-06
12	0xb7153379	-8.8930765e-06
13	0xb62d6376	-2.5836903e-06
14	0xb73578af	-1.08165395e-05
15	0x38476077	4.7535137e-05
16	0xb66d9dc5	-3.5407586e-06
17	0xb72e89af	-1.0403265e-05
18	0x39ef8b00	0.00045689195
19	0xb70c2130	-8.352377e-06
20	0xb6b529d3	-5.3990893e-06
21	0xb629ad43	-2.5283814e-06
22	0xb6c655dc	-5.910855e-06
23	0xb6ab2c84	-5.1013794e-06
24	0xb6ab6006	-5.1073757e-06
25	0xb5946cac	-1.1058487e-06
26	0xb62b9174	-2.556565e-06
27	0xb6b16f74	-5.287986e-06
28	0xb6d3ce5a	-6.3123125e-06
29	0xb7169f7e	-8.977831e-06
30	0xb71d7b66	-9.38666e-06
31	0xb7359949	-1.082413e-05
32	0xb5c4b109	-1.4654662e-06
33	0xb70f143e	-8.528177e-06
34	0xb62a1be1	-2.5348202e-06
35	0xb720a330	-9.574738e-06
36	0xb591a6e4	-1.0851913e-06
37	0xb6d4afc3	-6.3385537e-06
38	0xb6823a04	-3.881056e-06
39	0xb59c0202	-1.162349e-06
40	0xb7082e69	-8.117037e-06
41	0xb6fd7fa9	-7.554849e-06
42	0xb734edd8	-1.0784213e-05
43	0x39cb7308	0.00038804882
44	0xb6aba5b6	-5.1154884e-06
45	0xb7152bc5	-8.891283e-06
46	0xb6d10f59	-6.230472e-06
47	0xb712ea06	-8.756766e-06
48	0xb6fa5f07	-7.4616432e-06
49	0xb7358e3c	-1.0821557e-05
50	0x39b1107c	0.00033772353
51	0xb6409a74	-2.8700133e-06
52	0xb734f952	-1.07868855e-05
53	0x3a0799af	0.0005172742
54	0xb62d0398	-2.57811e-06
55	0xb70f2152	-8.531222e-06
56	0xb725ec33	-9.889761e-06
57	0xb6b205e0	-5.3054973e-06
58	0xb6e96c2a	-6.956533e-06
59	0x39d50b22	0.0004063482
60	0xb6c5610e	-5.882356e-06
61	0xb6967e64	-4.485062e-06
62	0xb70d2aa3	-8.414182e-06
63	0xb71b9711	-9.273893e-06
64	0xb6fd804f	-7.5549247e-06
65	0xb63d088c	-2.816817e-06
66	0x39852e61	0.00025402292
67	0xb7126f9d	-8.728265e-06
68	0xb7350d96	-1.0791604e-05
69	0x340f7e09	1.3363764e-07
70	0xb734dac0	-1.0779768e-05
71	0xb734a1d6	-1.0766516e-05
72	0xb62db484	-2.5884083e-06
73	0xb7138aab	-8.794169e-06
74	0xb7358d86	-1.0821392e-05
75	0xb6fd7691	-7.5537905e-06
76	0xb6fa813b	-7.465625e-06
77	0xb680069f	-3.815468e-06
78	0xb71da36b	-9.395978e-06
79	0x343026b1	1.6405353e-07
80	0x39fe6035	0.00048518335
81	0xb73c3fb5	-1.1220506e-05
82	0xb681d397	-3.869132e-06
83	0xb6dc27b6	-6.561134e-06
84	0x34254e51	1.5395314e-07
85	0xb59bd3c2	-1.161003e-06
86	0x348c82ab	2.6172106e-07
87	0xb638307f	-2.7446365e-06
88	0xb70c6d1a	-8.3700525e-06
89	0x39cca603	0.000390336
90	0xb6fd9c8c	-7.558212e-06
91	0xb6a6d8a5	-4.9724063e-06
92	0xb629afd6	-2.5285312e-06
93	0xb6d30bb3	-6.289652e-06
94	0xb7136fe3	-8.787933e-06
95	0x39dd6959	0.00042230895
96	0xb7152aba	-8.89104e-06
97	0xb73add78	-1.1138029e-05
98	0xb734914f	-1.0762668e-05
99	0x39ed88ea	0.00045306172
100	0xb7352db0	-1.0799078e-05
101	0xb713aabe	-8.801637e-06
102	0x39887129	0.00026024252
103	0xb6375f5f	-2.7324638e-06
104	0xb71e04b0	-9.418625e-06
105	0xb70aeda4	-8.280771e-06
106	0xb710db94	-8.634193e-06
107	0xb634bd97	-2.6932446e-06
108	0xb6d0c755	-6.2220884e-06
109	0xb69660ea	-4.4816306e-06
110	0xb7253a4e	-9.8483415e-06
111	0xb7357b8d	-1.0817207e-05
112	0x3a377326	0.00069980545
113	0xb71526e5	-8.890148e-06
114	0xb6836395	-3.915697e-06
115	0xb735120d	-1.07926435e-05
116	0xb63523c9	-2.6991931e-06
117	0x348afb24	2.5887232e-07
118	0xb6ad9d39	-5.174105e-06
119	0xb592da80	-1.094144e-06
120	0xb734f972	-1.0786915e-05
121	0xb63750fb	-2.7316262e-06
122	0xb73c63e7	-1.12289335e-05
123	0xb59c787d	-1.1657972e-06
124	0xb72503f6	-9.835689e-06
125	0x3406e667	1.2563542e-07
126	0x39ab8c3c	0.00032720144
127	0xb6fd8f10	-7.5566422e-06
128	0xb7137309	-8.7886665e-06
129	0x39e690a1	0.00043976775
130	0xb7152815	-8.890424e-06
131	0xb63747bf	-2.7310887e-06
132	0xb62e1a47	-2.5943316e-06
133	0xb7087a77	-8.134745e-06
134	0x39d41ab1	0.00040455678
135	0x38fcc367	0.00012052693
136	0xb67fb101	-3.810099e-06
137	0x348b6aeb	2.596856e-07
138	0xb6377ef8	-2.734303e-06
139	0xb7215484	-9.616026e-06
140	0xb7250d9b	-9.837934e-06
141	0xb5a564d0	-1.2322798e-06
142	0xb710d251	-8.632037e-06
143	0xb724152b	-9.78009e-06
144	0xb5c41432	-1.4609016e-06
145	0x39ead8a2	0.00044793362
146	0x3a1bc30e	0.0005941846
147	0xb715296e	-8.890738e-06
148	0xb708658d	-8.129876e-06
149	0x3a27475b	0.0006381177
150	0xb637a4b9	-2.7365006e-06
151	0xb70f06fb	-8.5250895e-06
152	0xb637efdd	-2.7408744e-06
153	0xb734971f	-1.0764022e-05
154	0xb6e97056	-6.9570187e-06
155	0xb7355acf	-1.0809584e-05
156	0x398ce3ce	0.0002687261
157	0xb6ad9ee8	-5.174301e-06
158	0xb6843b15	-3.9407846e-06
159	0xb70f2786	-8.5326665e-06
160	0xb72e920f	-1.0405215e-05
161	0xb6dc2e5c	-6.561908e-06
162	0xb6c406b0	-5.8420337e-06
163	0xb62de293	-2.5910892e-06
164	0xb73550ff	-1.0807299e-05
165	0xb72501ac	-9.835156e-06
166	0x348a113a	2.5717037e-07
167	0xb710c433	-8.62875e-06
168	0xb73c45bf	-1.1221912e-05
169	0xb7252374	-9.843021e-06
170	0xb6287fd1	-2.510835e-06
171	0xb6834ca1	-3.913025e-06
172	0xb68327dd	-3.908745e-06
173	0xb7081290	-8.110554e-06
174	0xb7139699	-8.7969465e-06
175	0xb6c3de61	-5.837341e-06
176	0xb6d0dff7	-6.224956e-06
177	0xb7251252	-9.839032e-06
178	0xb3c2bdff	-9.068389e-08
179	0xb70de52c	-8.457613e-06
180	0xb7343bd4	-1.0742766e-05
181	0xb6d0c6a2	-6.222007e-06
182	0xb7382abb	-1.0977204e-05
183	0x3a28a81a	0.00064337405
184	0xb6ad8c3e	-5.172128e-06
185	0xb734f604	-1.0786116e-05
186	0xb70f003e	-8.523521e-06
187	0xb673c0c4	-3.6322026e-06
188	0xb701e169	-7.741482e-06
189	0xb62c5f77	-2.5685565e-06
190	0x3a0b0dbc	0.0005304476
191	0xb70f315a	-8.534955e-06
192	0xb62a4841	-2.5374031e-06
193	0x348aa058	2.5821168e-07
194	0xb710a84d	-8.622254e-06
195	0xb7250738	-9.836447e-06
196	0x39e93950	0.00044483924
197	0xb713cb68	-8.809242e-06
198	0xb73c6e28	-1.1231321e-05
199	0xb6366ec4	-2.7184587e-06
200	0xb6403978	-2.864368e-06
201	0xb6ad9342	-5.172945e-06
202	0xb70f2268	-8.531475e-06
203	0xb683292a	-3.9088964e-06
204	0xb6837667	-3.917888e-06
205	0xb72515bf	-9.8398295e-06
206	0xb646a55f	-2.9600558e-06
207	0x3a0867f3	0.0005203478
208	0xb7318bdc	-1.0582586e-05
209	0xb64001c8	-2.8611266e-06
210	0x3956e76a	0.00020494839
211	0xb71d7de9	-9.387245e-06
212	0xb59b3daa	-1.1566347e-06
213	0x39fd66ec	0.00048332603
214	0xb721766a	-9.623918e-06
215	0xb73557ea	-1.080891e-05
216	0xb72e7e5e	-1.040063e-05
217	0xb7244ec2	-9.793499e-06
218	0xb6489795	-2.9890555e-06
219	0xb6ab88e3	-5.112133e-06
220	0xb5997553	-1.1433534e-06
221	0x398f108d	0.00027287417
222	0xb7252058	-9.842297e-06
223	0xb733b577	-1.0711482e-05
224	0x39fe0326	0.00048449
225	0xb6381604	-2.7430951e-06
226	0xb70f76e7	-8.551148e-06
227	0xb629da78	-2.5310128e-06
228	0xb721f501	-9.653392e-06
229	0x39e06ce2	0.00042805733
230	0xb7253a21	-9.848301e-06
231	0xb70825f6	-8.11507e-06
232	0xb59bcd3c	-1.1608131e-06
233	0xb73575a3	-1.081583e-05
234	0xb724f42a	-9.832011e-06
235	0xb7085793	-8.126622e-06
236	0x39c05ae8	0.00036688824
237	0xb68209cf	-3.875444e-06
238	0xb6fd6eb5	-7.5528756e-06
239	0xb7139f8b	-8.799029e-06
240	0xb7385df2	-1.0989128e-05
241	0xb629d551	-2.530713e-06
242	0xb61e2844	-2.3567272e-06
243	0x398e92fb	0.0002719386
244	0xb710e17e	-8.63557e-06
245	0xb7239255	-9.749628e-06
246	0xb6ab9c88	-5.1144198e-06
247	0xb730595c	-1.0511223e-05
248	0x3975da94	0.00023446447
249	0xb6d0fed6	-6.22855e-06
250	0x342d0a17	1.6115551e-07
251	0xb71502fc	-8.881787e-06
252	0xb6a6e005	-4.973265e-06
253	0xb710cc05	-8.630571e-06
254	0xb68461dd	-3.9452993e-06
255	0xb707f256	-8.10305e-06

ln2.weight f4 [300]
0	0x3f432ae0	0.762373
1	0x3f432d54	0.7624104
2	0x3f432ae5	0.76237327
3	0x3f432c97	0.76239914
4	0x3f432a8f	0.76236814
5	0x3f432ad9	0.76237255
6	0x3f432a25	0.7623618
7	0x3f432a14	0.7623608
8	0x3f432b86	0.76238286
9	0x3f432b3b	0.7623784
10	0x3f432a47	0.76236385
11	0x3f432c8e	0.7623986
12	0x3f432a25	0.7623618
13	0x3f432995	0.76235324
14	0x3f432a3b	0.76236314
15	0x3f432d29	0.76240784
16	0x3f432a2a	0.7623621
17	0x3f432a1e	0.7623614
18	0x3f4329da	0.76235735
19	0x3f432b25	0.7623771
20	0x3f432acf	0.76237196
21	0x3f432a10	0.7623606
22	0x3f432c45	0.76239425
23	0x3f4329f1	0.7623587
24	0x3f4329c8	0.7623563
25	0x3f432a0f	0.7623605
26	0x3f432a5e	0.7623652
27	0x3f432931	0.7623473
28	0x3f432cc4	0.7624018
29	0x3f432a04	0.76235986
30	0x3f432a70	0.7623663
31	0x3f432c76	0.76239717
32	0x3f432ac6	0.7623714
33	0x3f432bda	0.7623879
34	0x3f432d0b	0.76240605
35	0x3f432cc1	0.76240164
36	0x3f4328d8	0.762342
37	0x3f432dca	0.76241744
38	0x3f432c5b	0.76239556
39	0x3f432c55	0.7623952
40	0x3f432a32	0.7623626
41	0x3f432b7c	0.76238227
42	0x3f432c7d	0.7623976
43	0x3f432959	0.76234967
44	0x3f432ae6	0.7623733
45	0x3f432bc7	0.76238674
46	0x3f432af1	0.762374
47	0x3f432c41	0.762394
48	0x3f432921	0.7623463
49	0x3f432bdc	0.762388
50	0x3f432d60	0.7624111
51	0x3f432d26	0.76240766
52	0x3f432be2	0.76238835
53	0x3f432835	0.76233226
54	0x3f432d03	0.7624056
55	0x3f4329af	0.7623548
56	0x3f432cf6	0.7624048
57	0x3f4329ae	0.76235473
58	0x3f432cf1	0.7624045
59	0x3f43298f	0.7623529
60	0x3f4329cd	0.7623566
61	0x3f432ab9	0.76237065
62	0x3f432a0b	0.7623603
63	0x3f432aaa	0.76236975
64	0x3f432b9e	0.7623843
65	0x3f432b03	0.76237506
66	0x3f432902	0.7623445
67	0x3f432c0e	0.762391
68	0x3f432af1	0.762374
69	0x3f4329c2	0.7623559
70	0x3f432a94	0.76236844
71	0x3f432aec	0.7623737
72	0x3f432af6	0.7623743
73	0x3f432d77	0.7624125
74	0x3f432935	0.7623475
75	0x3f4329a2	0.762354
76	0x3f432a7b	0.76236695
77	0x3f4329d7	0.7623572
78	0x3f432a10	0.7623606
79	0x3f432994	0.7623532
80	0x3f432850	0.76233387
81	0x3f432a6e	0.7623662
82	0x3f432a05	0.7623599
83	0x3f432a55	0.7623647
84	0x3f432ac0	0.76237106
85	0x3f432dc5	0.76241714
86	0x3f432987	0.7623524
87	0x3f432926	0.7623466
88	0x3f4329d3	0.76235694
89	0x3f432802	0.7623292
90	0x3f432afd	0.7623747
91	0x3f4328d3	0.7623417
92	0x3f432b78	0.76238203
93	0x3f43299c	0.76235366
94	0x3f432cc9	0.7624021
95	0x3f432cff	0.76240534
96	0x3f432ad6	0.7623724
97	0x3f432bb2	0.7623855
98	0x3f4329c5	0.7623561
99	0x3f432891	0.76233774
100	0x3f432b69	0.76238114
101	0x3f432b10	0.76237583
102	0x3f4328e0	0.76234245
103	0x3f432979	0.7623516
104	0x3f432abc	0.7623708
105	0x3f432cea	0.7624041
106	0x3f432a9d	0.762369
107	0x3f432a7f	0.7623672
108	0x3f432a5b	0.76236504
109	0x3f432a88	0.7623677
110	0x3f432e37	0.76242393
111	0x3f432cce	0.7624024
112	0x3f432732	0.7623168
113	0x3f432ab9	0.76237065
114	0x3f432cb0	0.7624006
115	0x3f432a0c	0.76236033
116	0x3f432a8d	0.762368
117	0x3f432ac6	0.7623714
118	0x3f432ae6	0.7623733
119	0x3f432939	0.76234776
120	0x3f432939	0.76234776
121	0x3f4328d1	0.76234156
122	0x3f432acb	0.7623717
123	0x3f432d49	0.76240975
124	0x3f432d4d	0.76241
125	0x3f432b21	0.76237684
126	0x3f432835	0.76233226
127	0x3f432a46	0.7623638
128	0x3f432c9d	0.7623995
129	0x3f4328c5	0.76234084
130	0x3f432c13	0.76239127
131	0x3f432a59	0.7623649
132	0x3f4328e0	0.76234245
133	0x3f43298c	0.7623527
134	0x3f432a4a	0.76236403
135	0x3f432956	0.7623495
136	0x3f432c61	0.7623959
137	0x3f432a20	0.7623615
138	0x3f432a58	0.76236486
139	0x3f432b10	0.76237583
140	0x3f432c51	0.76239496
141	0x3f432b97	0.7623839
142	0x3f432b59	0.7623802
143	0x3f4328e7	0.7623429
144	0x3f432aa1	0.7623692
145	0x3f432855	0.76233417
146	0x3f432546	0.7622875
147	0x3f432afe	0.76237476
148	0x3f432c60	0.76239586
149	0x3f432739	0.76231724
150	0x3f432cab	0.7624003
151	0x3f4329a2	0.762354
152	0x3f43299f	0.76235384
153	0x3f432af2	0.76237404
154	0x3f432aa9	0.7623697
155	0x3f432a97	0.7623686
156	0x3f4329b2	0.76235497
157	0x3f432abc	0.7623708
158	0x3f432ce2	0.7624036
159	0x3f432b73	0.76238173
160	0x3f4329f8	0.76235914
161	0x3f432ad7	0.76237243
162	0x3f432c5d	0.7623957
163	0x3f432ca6	0.76240003
164	0x3f432a90	0.7623682
165	0x3f4329ed	0.7623585
166	0x3f432c21	0.7623921
167	0x3f432b0e	0.7623757
168	0x3f432b0c	0.7623756
169	0x3f432a92	0.7623683
170	0x3f432b8c	0.7623832
171	0x3f432af4	0.76237416
172	0x3f432ae2	0.7623731
173	0x3f432a0e	0.76236045
174	0x3f432cfa	0.76240504
175	0x3f432b10	0.76237583
176	0x3f4328fd	0.7623442
177	0x3f432bd0	0.7623873
178	0x3f4329ed	0.7623585
179	0x3f432abf	0.762371
180	0x3f432a8d	0.762368
181	0x3f432b62	0.7623807
182	0x3f432a7f	0.7623672
183	0x3f432510	0.7622843
184	0x3f432974	0.7623513
185	0x3f4328fa	0.762344
186	0x3f4329f5	0.76235896
187	0x3f432af3	0.7623741
188	0x3f432a72	0.7623664
189	0x3f432cda	0.76240313
190	0x3f4326d1	0.76231104
191	0x3f432b7b	0.7623822
192	0x3f432a3b	0.76236314
193	0x3f432938	0.7623477
194	0x3f432b13	0.762376
195	0x3f432ca3	0.76239985
196	0x3f432823	0.7623312
197	0x3f4329c1	0.76235586
198	0x3f432a46	0.7623638
199	0x3f432a28	0.762362
200	0x3f432cf7	0.76240486
201	0x3f432a40	0.76236343
202	0x3f432cdd	0.7624033
203	0x3f4329ba	0.76235545
204	0x3f432aae	0.76237
205	0x3f4329fe	0.7623595
206	0x3f432c2f	0.76239294
207	0x3f432882	0.76233685
208	0x3f432adc	0.76237273
209	0x3f432d03	0.7624056
210	0x3f4328b6	0.76233995
211	0x3f432a5f	0.7623653
212	0x3f432b1a	0.7623764
213	0x3f43280d	0.7623299
214	0x3f432abb	0.76237077
215	0x3f4328ed	0.7623432
216	0x3f4328e7	0.7623429
217	0x3f432ad6	0.7623724
218	0x3f432be0	0.7623882
219	0x3f432c7f	0.7623977
220	0x3f432d00	0.7624054
221	0x3f43289c	0.7623384
222	0x3f432b02	0.762375
223	0x3f432ca2	0.7623998
224	0x3f4326e1	0.762312
225	0x3f432d08	0.7624059
226	0x3f432adc	0.76237273
227	0x3f432be9	0.76238877
228	0x3f4329e8	0.7623582
229	0x3f432bee	0.76238906
230	0x3f432ac4	0.7623713
231	0x3f432a0e	0.76236045
232	0x3f432ce6	0.76240385
233	0x3f432d2c	0.762408
234	0x3f432ac7	0.7623715
235	0x3f4329f4	0.7623589
236	0x3f4328e4	0.7623427
237	0x3f432ae0	0.762373
238	0x3f4329e0	0.7623577
239	0x3f432c3d	0.7623938
240	0x3f432c76	0.76239717
241	0x3f4329de	0.7623576
242	0x3f432c76	0.76239717
243	0x3f432a2f	0.7623624
244	0x3f432a0d	0.7623604
245	0x3f4328db	0.76234215
246	0x3f4328d8	0.762342
247	0x3f432992	0.76235306
248	0x3f432914	0.76234555
249	0x3f432c7c	0.7623975
250	0x3f432a9e	0.76236904
251	0x3f432aca	0.76237166
252	0x3f4328f0	0.7623434
253	0x3f4329ce	0.76235664
254	0x3f432972	0.76235116
255	0x3f432b2c	0.7623775
