RL/Model_Repository/temp/TD3_Guest_jean_critic.pth (torch, 994447 bytes, 10 tensors)

layer_1.weight f4 [400, 7]
0	0xbcb4ceb3	-0.022071218
1	0x3cf83586	0.03029896
2	0x3e911300	0.28334808
3	0xbe86f319	-0.26357344
4	0x3e77bdcf	0.241935
5	0xbe21eacc	-0.15812224
6	0xbeaf9052	-0.34289795
7	0x3ddf1910	0.10893452
8	0xbd969066	-0.073517606
9	0xbe0b6673	-0.136133
10	0x3d87a0a7	0.06622439
11	0x3c7735e5	0.015088533
12	0x3e679e08	0.22618878
13	0x3f8f2cbd	1.1185528
14	0xbdd3da5c	-0.10344383
15	0xbdc7a478	-0.09748167
16	0x3dd7c334	0.10535279
17	0xbebd7641	-0.37004283
18	0x3e821737	0.25408337
19	0x3e68df92	0.22741535
20	0x3df5ed8c	0.12008199
21	0xbbec0686	-0.007202926
22	0xbdcf424f	-0.10120069
23	0xbdf50cde	-0.11965345
24	0x3dd23923	0.10264804
25	0xbeb03009	-0.34411648
26	0xbdaded77	-0.084925584
27	0xbd0ce620	-0.03439915
28	0xbe54f71b	-0.20797388
29	0xbe1ca984	-0.1529904
30	0xbeb96108	-0.3620684
31	0xbe8a815e	-0.27051824
32	0xbc0c5100	-0.008564234
33	0xbe5f2d95	-0.21794732
34	0x3e900dc1	0.28135493
35	0xbe254036	-0.16137776
36	0x3dc1c296	0.094609424
37	0x3e0ba391	0.13636614
38	0xbe54e895	-0.20791848
39	0x3e8d32b0	0.27577734
40	0x3ec4a383	0.38406
41	0x3ee87944	0.45405018
42	0xbe34721f	-0.17621659
43	0xbd39b0d0	-0.045334637
44	0x3bcb0fc0	0.006196946
45	0xbe58c1e5	-0.21167715
46	0xbe16e798	-0.14736784
47	0x3d5e3790	0.054252207
48	0xbd980ea0	-0.074246645
49	0xbd88bf49	-0.0667711
50	0x3de169eb	0.110065304
51	0x3d7d57fa	0.06185148
52	0xbe460818	-0.19339025
53	0xbd871622	-0.065960184
54	0x3c320ff1	0.010868059
55	0x40788e1f	3.8836744
56	0x3e5b439b	0.21412508
57	0xbe127231	-0.14301373
58	0xbe80d14d	-0.25159684
59	0x3e2e1244	0.16999155
60	0xbeb02444	-0.34402668
61	0xbebc36b9	-0.367605
62	0x3e9b7681	0.3036385
63	0xbe6452c7	-0.22297202
64	0x3dcd1ef4	0.100156695
65	0xbe6bd1d2	-0.23029259
66	0x3e9df30b	0.3084949
67	0xbe5dffa3	-0.21679549
68	0x3eb039a1	0.34418967
69	0x3cfa3d60	0.030546844
70	0xbd9d2986	-0.076739356
71	0x3d62101e	0.05519115
72	0x3e6977ee	0.22799656
73	0xbe8be39c	-0.2732209
74	0x3d173d5d	0.036923755
75	0x3debe752	0.1151873
76	0x4039f9bd	2.9058678
77	0x3e0507c6	0.12991247
78	0xbd74d080	-0.059769154
79	0xbe18944a	-0.14900318
80	0xbe3a0c4e	-0.18168756
81	0xbe805468	-0.25064397
82	0xbe8c7ebe	-0.27440447
83	0xbe9e67c4	-0.30938542
84	0x3e4151da	0.1887888
85	0xbe7bd068	-0.2459122
86	0xbe09e74a	-0.13467136
87	0x3e3b43da	0.18287602
88	0x3e57c11a	0.21069756
89	0xbe9a95c2	-0.3019238
90	0xbdc9194e	-0.098192796
91	0x3e8c5583	0.2740899
92	0x3dcd5a14	0.10026947
93	0xbe158788	-0.14602482
94	0xbeba8379	-0.3642843
95	0x3e2f1af2	0.17100123
96	0x3e77e532	0.24208525
97	0xbe72033a	-0.23634043
98	0xbdc67197	-0.09689634
99	0x3d37fab7	0.044916835
100	0x3e88e1a4	0.2673465
101	0xbe9c4250	-0.30519342
102	0x3e92ac13	0.28646907
103	0x3edda6ed	0.43291417
104	0x3f4a3b06	0.7899631
105	0xbe36005a	-0.17773572
106	0xbeb86375	-0.3601338
107	0x3dbdcf3c	0.092680424
108	0xbea492c3	-0.3214322
109	0xbdeb86b0	-0.11500299
110	0x3de6e918	0.11274928
111	0xbd9bdba0	-0.076102495
112	0xbddd2623	-0.107982896
113	0x3e717200	0.23578644
114	0x3a89a5d4	0.0010501691
115	0xbe336956	-0.17520651
116	0x3d1a5706	0.03768065
117	0xbd2b3156	-0.041795097
118	0x3fe9d8b5	1.8269259
119	0x3c5eb61d	0.013593224
120	0x3e95236e	0.29128593
121	0xbe4572f3	-0.19282131
122	0xbe116011	-0.14196803
123	0x3dfb3db1	0.12267626
124	0x3ea416b8	0.32048583
125	0x3f3557a5	0.7083686
126	0x3c7979c7	0.015226788
127	0x3e436ef8	0.190853
128	0xbe834835	-0.25641027
129	0xbd583b37	-0.052790847
130	0x3ddc40da	0.10754557
131	0xbea8af58	-0.32946277
132	0x3e947247	0.28993437
133	0x3e0ff4cb	0.14058225
134	0x3e108d93	0.14116506
135	0xbe9dd4a6	-0.308263
136	0xbdfab548	-0.12241608
137	0x3da64318	0.08118266
138	0xbe0d20cf	-0.13782047
139	0x3ea6b375	0.3255879
140	0x3e62f5f2	0.22164133
141	0x3ebe5627	0.37175104
142	0xbebdd95d	-0.37079898
143	0xbeb85375	-0.36001173
144	0xbe2e3eb1	-0.17016102
145	0x3e1a49c2	0.15067199
146	0x3d8f7fec	0.07006821
147	0x3d854156	0.065066025
148	0x3e09c3f0	0.1345365
149	0x3da7a466	0.081856534
150	0xbea81e11	-0.3283544
151	0xbc82b29d	-0.01595431
152	0x3e8affa1	0.27148154
153	0x3ee85662	0.45378405
154	0x3c8a3b08	0.016873851
155	0xbdc49c2b	-0.09600099
156	0x3e01d2d9	0.12678088
157	0xbdf416a3	-0.1191838
158	0xbe1dfa2b	-0.15427463
159	0x3e7b0892	0.24514988
160	0xbe59a519	-0.21254386
161	0x3e7eb6ca	0.24874416
162	0xbeae32d3	-0.3402315
163	0x3e2d2f7a	0.16912642
164	0xbe7e4b01	-0.24833299
165	0x3da14734	0.07874909
166	0x3d1c7590	0.038198054
167	0x3e5f4962	0.21805337
168	0x3ebb776d	0.36614552
169	0xbe00421a	-0.12525216
170	0xbebf734f	-0.3739266
171	0xbdfd238c	-0.12360296
172	0x3e7fb126	0.2496992
173	0x3e47f05e	0.19525287
174	0x3e56591a	0.20932427
175	0xbd9738cc	-0.0738388
176	0x3e696936	0.22794041
177	0xbe30ec31	-0.172776
178	0xbe83d5d0	-0.25749063
179	0x3eb195ad	0.34684506
180	0xbe1349cb	-0.14383619
181	0x3e336a52	0.17521027
182	0xbebe9f34	-0.37230837
183	0xbde88acc	-0.113545984
184	0xbdf36d2c	-0.11886057
185	0x3dd8c004	0.10583499
186	0x3e4d5cb6	0.20054898
187	0xbe065c7e	-0.1312122
188	0xbe4b73b1	-0.19868352
189	0xbe4abe0c	-0.1979906
190	0xbe2d4166	-0.16919479
191	0x3e8adabd	0.2712001
192	0xbd7cd8d0	-0.061730206
193	0xbda0e5d0	-0.07856333
194	0xbe7945ba	-0.24343005
195	0xbe5d6c83	-0.21623425
196	0xbeb69339	-0.35659197
197	0xbdaaa7d4	-0.08332792
198	0x3ddacfd8	0.10684174
199	0x3dc91434	0.098183066
200	0x3ea70f85	0.32629028
201	0x3ea98833	0.33111724
202	0x3d30a5c8	0.04312685
203	0x3e4584fa	0.19289008
204	0xbd418b98	-0.047252268
205	0x3d8b63e6	0.068061635
206	0xbebd8ded	-0.37022343
207	0x3f215ae8	0.63029337
208	0x3f6ca847	0.9244427
209	0x3d75740e	0.05992513
210	0xbeb18258	-0.34669757
211	0xbd83a93c	-0.06428763
212	0x3eaf05ab	0.34184012
213	0x3ce2a8f0	0.027668446
214	0xbe904ae8	-0.2818215
215	0x3e5cdf1a	0.21569481
216	0xbe1b4cbc	-0.1516599
217	0x3e1c2bb9	0.15251054
218	0xbddca103	-0.10772898
219	0x3e44cf6a	0.19219747
220	0xbec75f4f	-0.38939902
221	0x3e18e7a7	0.14932118
222	0xbf5e8eff	-0.86936945
223	0x3f92e7f8	1.1477041
224	0x3e107cfe	0.1411018
225	0xbe516db4	-0.20452005
226	0xbe6c6d7d	-0.23088641
227	0x3e7b1b9a	0.24522248
228	0x3d9f9a3d	0.077930905
229	0x3e91f060	0.28503704
230	0x3f847c2a	1.0350392
231	0xbd93e561	-0.07221485
232	0x3e075692	0.13216618
233	0xbeb48c8b	-0.35263476
234	0x3e0b7db8	0.13622177
235	0x3e7f4593	0.24928884
236	0xbecff1a7	-0.40614054
237	0xbf724e94	-0.9465115
238	0x3c708a6e	0.014681442
239	0xbe53077b	-0.20608322
240	0x3db4c9e0	0.08827567
241	0x3c676f6f	0.014125689
242	0xbeb5459d	-0.35404673
243	0x3dee199c	0.11625978
244	0xbe98c693	-0.29839
245	0xbe78fcf5	-0.24315245
246	0xbeb26898	-0.34845424
247	0x3e9ef652	0.31047302
248	0x3e296050	0.16540647
249	0x3f4b8fe8	0.7951646
250	0xbf61e7f0	-0.88244534
251	0x3f62f080	0.88648224
252	0x3df55af1	0.11980236
253	0x3dd07f6a	0.10180552
254	0xbe6f6e2d	-0.23381872
255	0xbdad3a82	-0.08458425

layer_1.bias f4 [400]
0	0xbfc23b5e	-1.5174367
1	0x3ecdd956	0.40204877
2	0x3e0dfa82	0.13865092
3	0x3e318b06	0.1733819
4	0x3eb33197	0.34998772
5	0x3f7f93d5	0.9983495
6	0x3d054d78	0.032544583
7	0x3e6a62ea	0.22889295
8	0x3fe31778	1.7741537
9	0xbe103bc6	-0.14085302
10	0xbddc3073	-0.107514285
11	0x3e0a842e	0.13526985
12	0x3fbec2a4	1.490315
13	0xbe7f46be	-0.2492933
14	0x3f97ccc7	1.1859368
15	0xbeb97fec	-0.3623041
16	0x3e71e720	0.23623323
17	0x3ec7843f	0.38968083
18	0x3f803adc	1.0017962
19	0xbebcb29f	-0.36855027
20	0x3e6b3aee	0.22971699
21	0x3f2a199d	0.6644533
22	0x3f72cb92	0.94841874
23	0x3e359ae6	0.1773487
24	0xbe22c14a	-0.15894046
25	0x3dce56bc	0.10075137
26	0x3e2ba9ae	0.16763946
27	0xbeba7497	-0.36417076
28	0xbea8d9e2	-0.3297873
29	0x3f92e499	1.1476012
30	0xbebdca1f	-0.3706827
31	0x3f94252f	1.1573848
32	0x3ea36646	0.31913966
33	0xbe513eba	-0.20434085
34	0xbe05bf6f	-0.13061307
35	0x3f3c0371	0.7344275
36	0xbf23a056	-0.6391653
37	0x3e4bdffa	0.19909659
38	0xbe4edce0	-0.20201445
39	0xbe8a1257	-0.26967117
40	0x3f0dc909	0.5538488
41	0x3d0ddec8	0.03463629
42	0x3d604a1d	0.05475818
43	0x3e57ef36	0.21087345
44	0xbf1fee15	-0.6247266
45	0x3fa0bd59	1.2557784
46	0xbeda3f62	-0.42626482
47	0x3eb7638b	0.35818133
48	0x3f467758	0.77525854
49	0x3f6ce1d6	0.925321
50	0x3fc4132c	1.5318351
51	0xbda8061c	-0.0820429
52	0xbda18a20	-0.078876734
53	0xbe9b4607	-0.30326864
54	0x3ecfdcaf	0.40598056
55	0xbdba0320	-0.09082627
56	0xbe597320	-0.21235323
57	0xbe374ebf	-0.17901133
58	0x3e186a82	0.1488438
59	0x3f1fa5d1	0.6236239
60	0x3e850ded	0.25987187
61	0x3e7e32ea	0.2482411
62	0x3c328a80	0.010897279
63	0xbe0263da	-0.12733403
64	0xbdb054d0	-0.08609927
65	0x3e8b0a59	0.27156332
66	0x3eff80f4	0.4990307
67	0xbe994354	-0.2993418
68	0x3be0f9c0	0.00686571
69	0xbe9712e7	-0.2950661
70	0x3edad959	0.42743948
71	0x3fc85eaf	1.5653895
72	0xbfdca6f6	-1.7238452
73	0xbe16b710	-0.1471827
74	0xbe80c50c	-0.25150335
75	0x3d5a8560	0.053349853
76	0xbe44d95d	-0.19223543
77	0xbea4b873	-0.32171974
78	0xbdca2758	-0.098707855
79	0x3fe6281b	1.7980989
80	0xbfc1e244	-1.5147176
81	0x3fddd33c	1.7330089
82	0xbdc0aff0	-0.094085574
83	0xbe49f501	-0.19722368
84	0xbe907edb	-0.28221783
85	0x3eb4d94d	0.35322037
86	0xbd674c88	-0.05646947
87	0x3f73a248	0.95169497
88	0xbe3afc9b	-0.18260424
89	0x3f2600e4	0.6484511
90	0xbeb5a43e	-0.3547687
91	0x3e870b9f	0.26376054
92	0x3fc58e89	1.5434123
93	0x3b0d0e80	0.0021523535
94	0x3f9134a7	1.1344193
95	0xbe762061	-0.24035789
96	0x3f1f298d	0.62172776
97	0xbdaaacdc	-0.083337516
98	0x3e3c0f27	0.18365155
99	0xbf32b596	-0.6980833
100	0xbe59587b	-0.21225159
101	0xbbab4080	-0.005226195
102	0x3dba2fd0	0.09091151
103	0xbdf16507	-0.117868476
104	0xbd97eafc	-0.074178666
105	0x3d8d5554	0.06901041
106	0xbf6caded	-0.9245289
107	0xbe8077ce	-0.25091404
108	0x3ebd5313	0.36977443
109	0xbeb7667c	-0.35820377
110	0x3dd8f0a4	0.105927736
111	0x3fc75d3c	1.5575328
112	0x3e993e6b	0.29930434
113	0x3f96838c	1.1758895
114	0x3eab28dd	0.33429614
115	0xbe85e650	-0.26152277
116	0x3b33b500	0.0027421117
117	0xbe6fd22d	-0.2342002
118	0x3ebb307f	0.36560437
119	0x3fddbaa8	1.7322588
120	0x3f8b97a3	1.0905651
121	0xbfef5259	-1.8697006
122	0xbe32869d	-0.17434163
123	0x3fcedabf	1.6160506
124	0x3b8cf36f	0.0043014805
125	0x3fb220a4	1.3916211
126	0x3ebe87a6	0.37212867
127	0x3f0e5818	0.5560317
128	0xbdf1fd94	-0.11815944
129	0xbe32b17a	-0.17450514
130	0x3ea7ea5e	0.32795995
131	0xbd3443a0	-0.044009805
132	0x3e13c62a	0.14431062
133	0x3deb91fc	0.11502454
134	0x3fb8b0d3	1.4428962
135	0x3fe890ff	1.8169249
136	0x3fb174ac	1.386373
137	0x3feda7d3	1.8566841
138	0xbf77f988	-0.9686513
139	0xbff1a546	-1.8878562
140	0x3e492499	0.19642867
141	0xbe3c2e22	-0.18376973
142	0xbe299a65	-0.16562803
143	0xbf0d1381	-0.55107886
144	0xbd89f040	-0.06735277
145	0xbcdb29d0	-0.026753336
146	0x3d1b8b68	0.037974745
147	0xbda1f660	-0.079083204
148	0x3eb7b49b	0.3587998
149	0x3b729b00	0.0037018657
150	0xbd810bd0	-0.06301081
151	0x3f804d23	1.002354
152	0x3eb00b0d	0.3438343
153	0x3fde2d14	1.7357507
154	0x3d3f0d50	0.046643555
155	0x3e393aca	0.18088832
156	0x3fcf8af6	1.6214283
157	0x3e053dca	0.13011852
158	0xbda82fc8	-0.082122386
159	0xbdf772a0	-0.1208241
160	0x3eec33b9	0.4613321
161	0xbeaac82c	-0.33355844
162	0x3e3a7715	0.18209489
163	0xbf96eb4b	-1.1790556
164	0xbde498dc	-0.11161968
165	0x3e06767f	0.1313114
166	0xbe226465	-0.1585861
167	0x3f7bed90	0.98409367
168	0xbd453d78	-0.048154324
169	0x3e0a5c12	0.13511685
170	0x3fb3e271	1.405348
171	0xbff2eb79	-1.897811
172	0xbf2004b1	-0.6250716
173	0x3e22d49a	0.15901414
174	0xbfd4d7b1	-1.6628324
175	0xbfd822df	-1.6885642
176	0xbf8f273e	-1.1183851
177	0x3f155173	0.58327407
178	0xbebcfbb0	-0.36910772
179	0xbe45a5c3	-0.19301514
180	0x3cb3aab0	0.021931976
181	0xbe9ce237	-0.30641338
182	0x3da06304	0.07831386
183	0x3f36f101	0.7146149
184	0x3fbbfffe	1.4687498
185	0xbea43428	-0.32071042
186	0x3cff7a86	0.031186353
187	0xbfa4c0d4	-1.2871346
188	0x3e7d18c0	0.24716473
189	0x3e28ce6f	0.16484998
190	0x3f8872e7	1.0660065
191	0x3e45e85a	0.19326916
192	0x3fc1aa05	1.5130011
193	0x3e7c9bd2	0.24668816
194	0xbf1b4b07	-0.6066136
195	0xbf8ba911	-1.091097
196	0x3e5b04b3	0.21388511
197	0xbe716911	-0.23575236
198	0xbdd7f530	-0.10544813
199	0x3ed2cd86	0.41172427
200	0x3f2eb650	0.68246937
201	0x3fcfc0a8	1.6230669
202	0xbdb2f6cc	-0.08738479
203	0xbd21f1e0	-0.03953731
204	0x3eddaed7	0.43297455
205	0x3ff01769	1.8757144
206	0xbf8df9b2	-1.1091826
207	0xbd9d9bdf	-0.07695746
208	0xbe3d700b	-0.18499772
209	0x3e9a4f79	0.30138758
210	0x3fa0005b	1.2500108
211	0x3eb2316d	0.34803334
212	0x3e2d957e	0.16951558
213	0x3d748628	0.059698254
214	0x3e0ab562	0.13545755
215	0x3e812d53	0.25229892
216	0xbe26a5da	-0.16274205
217	0x3dfdb46c	0.12387928
218	0xbe0f326b	-0.13984077
219	0x3e80de5b	0.25169644
220	0x3e98574d	0.29754105
221	0xbe0e8e4e	-0.13921472
222	0x3df7f16c	0.121065944
223	0xbfb13bb7	-1.3846349
224	0xbe9847a7	-0.29742166
225	0xbf501705	-0.81285125
226	0x3e9cef83	0.30651483
227	0x3fd21dc1	1.641533
228	0xbdc52594	-0.09626308
229	0x3e08ed32	0.13371733
230	0xbebf6ce9	-0.3738778
231	0xbd0d9e68	-0.034574896
232	0xbe42f920	-0.19040346
233	0x3e342fd2	0.17596367
234	0x3e578ff2	0.21051005
235	0xbeafa26b	-0.34303603
236	0x3d7bf118	0.06150922
237	0xbfa27929	-1.2693225
238	0xbe3a5880	-0.18197823
239	0xbe32dddd	-0.17467447
240	0xbe2a17f8	-0.16610706
241	0xbe0393bf	-0.1284933
242	0x3e0781c2	0.13233092
243	0x3fa78b41	1.3089372
244	0xbe8d6991	-0.27619603
245	0x3e48d6d6	0.19613203
246	0x3f8cfc94	1.1014581
247	0xbf0e8ede	-0.5568675
248	0x3f08da3f	0.5345802
249	0x3e0377a2	0.12838605
250	0x3dceb3a4	0.100928575
251	0x3e3c7a40	0.1840601
252	0xbe2d2096	-0.16906962
253	0x3e87d4eb	0.2652963
254	0x3be52840	0.0069933236
255	0x3e4774e2	0.19478181

layer_2.weight f4 [300, 400]
0	0xbc2ea364	-0.010659073
1	0xbd40cf0d	-0.04707246
2	0xbd0a1166	-0.033708
3	0xbc760900	-0.015016794
4	0xbd1cf04d	-0.038315106
5	0x3cafe0be	0.02146947
6	0xbcf3a693	-0.029742515
7	0xbcd21d31	-0.025648685
8	0x3c3ab364	0.011395309
9	0x3cfc43ba	0.030794013
10	0xbd72d5b8	-0.05928585
11	0xbd1313f6	-0.035907708
12	0x3cec560e	0.028849628
13	0xbb8b30f0	-0.004247777
14	0x3d416159	0.04721198
15	0x3cf0fc1e	0.029417094
16	0x3ca596d2	0.020213518
17	0x3d30ec45	0.043194074
18	0xbd30847d	-0.0430951
19	0xbcd778dd	-0.02630275
20	0x3d379793	0.044822287
21	0xbc7706a2	-0.015077265
22	0x3c5be62c	0.0134215765
23	0x3be7e250	0.007076539
24	0x3ca85aa2	0.02055103
25	0x3b3609b0	0.002777677
26	0xbcf91120	-0.030403674
27	0x3d37ddb9	0.044889186
28	0xbd211e7e	-0.03933572
29	0x3d27b699	0.040945623
30	0xbc883886	-0.016628515
31	0x3d289fad	0.041167904
32	0xbb9cb1d2	-0.00478194
33	0x3b17ab76	0.002314297
34	0x3c8bd5e2	0.01706976
35	0xbc9d1a0c	-0.01917746
36	0xbd1069a3	-0.035256993
37	0x3c7ad26c	0.015308958
38	0x3b593180	0.0033141077
39	0xbc912a87	-0.017720474
40	0x3ca19a0c	0.019726776
41	0x3d2812e9	0.04103366
42	0x3de7a16e	0.11310087
43	0x3d035c11	0.032070223
44	0xbcc89a75	-0.024487713
45	0xbcccaa1a	-0.024983454
46	0x3c1bf671	0.009519205
47	0x3cfd6d02	0.030935768
48	0xbae15504	-0.0017191474
49	0xbcd1208b	-0.025528213
50	0xbc702b30	-0.014658734
51	0xbd03ecb0	-0.032208145
52	0xbbf73230	-0.0075438246
53	0x3c9e6ff2	0.019340489
54	0x3d24ee72	0.04026646
55	0xbbdf3f30	-0.0068129525
56	0x3ce26202	0.027634624
57	0xbc792088	-0.01520551
58	0x3cff7fca	0.031188864
59	0xbcfffdc1	-0.031248929
60	0x3d170d9a	0.036878206
61	0x3d13d03d	0.036087263
62	0x3c7c774c	0.015409302
63	0x3b5f0850	0.0034032054
64	0x3d392a6b	0.04520647
65	0xbb09e4d0	-0.0021040924
66	0xbcfcab21	-0.03084332
67	0x3cd909b2	0.02649388
68	0x3d331927	0.04372516
69	0xbc5fe9e0	-0.0136666
70	0xbca217b0	-0.019786686
71	0x3cfa7bf8	0.030576691
72	0xbb1286e1	-0.0022358226
73	0x3ad1fd07	0.0016020843
74	0x3c9ca0e2	0.019119684
75	0xbc87fc80	-0.016599894
76	0xbcbaa8dd	-0.022785598
77	0x3ccc0412	0.024904285
78	0x3d284375	0.041079957
79	0xbc6e80c9	-0.014557072
80	0x3cab56c7	0.020915402
81	0xbd480c31	-0.04883975
82	0x3d1ef09f	0.038803693
83	0xbca14a0a	-0.019688625
84	0xbc8a6836	-0.016895395
85	0x3d18d3e7	0.03731146
86	0xbcf3dc23	-0.029768055
87	0x3cbbeeec	0.022941075
88	0xbc82aa60	-0.015950382
89	0xbc441acd	-0.01196928
90	0xbbc136e8	-0.005896438
91	0x3a52d200	0.00080421567
92	0xbc953181	-0.018212082
93	0x3c8fd3b6	0.017557006
94	0x3cd19b53	0.02558676
95	0x3c8dcfc2	0.01731098
96	0x3d0d4ada	0.034495212
97	0x3babfad8	0.0052484088
98	0xbd2fe702	-0.042944916
99	0x3cf2289f	0.029560385
100	0x3c7e516c	0.015522342
101	0x3cd4a54a	0.025957722
102	0x3cce6878	0.025196299
103	0xbc8a42c4	-0.01687754
104	0xbca6a107	-0.020340456
105	0xbd4c1ffb	-0.049835186
106	0xbd0d4ae2	-0.034495242
107	0x3d3a861f	0.045538064
108	0xbd08440c	-0.03326802
109	0xbc64fe48	-0.013976641
110	0x3d14a319	0.036288355
111	0xbc02e265	-0.007988547
112	0x3bd01e18	0.0063512437
113	0x3d0b2c4f	0.033977803
114	0xbc775b74	-0.015097488
115	0x3cd851d2	0.026406202
116	0xbcc27aa0	-0.023740113
117	0xbc9d1563	-0.019175237
118	0xbd340f92	-0.04396016
119	0x3d7298bb	0.059227686
120	0x39710672	0.00022985952
121	0x3cd868c6	0.026417147
122	0x3d32d3cd	0.04365902
123	0x3cd8b9ac	0.026455723
124	0xbc805303	-0.015664583
125	0xbd3d29c9	-0.046182428
126	0xbc994cc6	-0.018713366
127	0x3cd1b96a	0.025601108
128	0xb82b2000	-4.079938e-05
129	0xbc986430	-0.01860246
130	0xbcc3fb29	-0.023923473
131	0xbd46a295	-0.048494894
132	0xbcf33a9a	-0.02969103
133	0xbd195423	-0.037433755
134	0x3ce4e720	0.02794224
135	0xbd1c10e8	-0.03810206
136	0xbd160436	-0.03662511
137	0xba42f486	-0.00074369495
138	0xbcc012d6	-0.023446482
139	0xbd998354	-0.07495752
140	0xbd42a23b	-0.047517996
141	0xbd54aa03	-0.05191995
142	0xbc3608a0	-0.011110455
143	0x3c92a1b5	0.017899374
144	0x3c988f56	0.018623035
145	0x3d4692e5	0.048479933
146	0xbc09c954	-0.008409817
147	0xbb697b80	-0.003562659
148	0xbc89cef4	-0.016822316
149	0xbb0070b0	-0.0019598417
150	0x3c1efe98	0.009704255
151	0xbc2bc901	-0.010484935
152	0x3c132fa0	0.008983523
153	0x3c2a0923	0.010378155
154	0x3cbf0f72	0.023322795
155	0xbb002f20	-0.0019559339
156	0xbc774421	-0.015091927
157	0xbcfba690	-0.030719072
158	0x3c1957e8	0.009359337
159	0xbba392b0	-0.0049918517
160	0xbd38a0c1	-0.045075182
161	0x3c940f42	0.018073682
162	0x3c7a88ac	0.015291374
163	0x3c71ac2e	0.0147505235
164	0x3d2b2707	0.041785266
165	0xbd5e4d8e	-0.05427318
166	0x3d08a72f	0.033362564
167	0xbd24188c	-0.040062472
168	0xbd04cbde	-0.032420985
169	0x3b220160	0.0024720058
170	0xbbdc63ff	-0.0067257877
171	0xbd5d5f90	-0.054046214
172	0x3cd52701	0.026019575
173	0xbd462c62	-0.04838217
174	0xbd17d1b0	-0.037065208
175	0xbd2580e9	-0.04040614
176	0x3ca216c7	0.019786252
177	0xbce79cb1	-0.028272958
178	0xbceea77a	-0.029132593
179	0x3cbb8f9a	0.022895623
180	0x3c8a3756	0.01687209
181	0xbd13b206	-0.03605845
182	0xbab09ac0	-0.0013473853
183	0x3d2f34e1	0.04277504
184	0x3cede8e4	0.029041715
185	0xbcf5e52d	-0.030016506
186	0xbcb02a9d	-0.021504695
187	0x3cd69d83	0.026198154
188	0xbcc5f542	-0.0241648
189	0x3cc4319d	0.023949439
190	0x3d0f5a10	0.034998
191	0xbbb4c27c	-0.0055163484
192	0xbd080787	-0.033210304
193	0x3d17ef8f	0.037093695
194	0x3bc4ef3f	0.0060099657
195	0xbc22f38a	-0.00994576
196	0x3c2359f3	0.009970176
197	0xbd1ddb03	-0.038538944
198	0xbbbd1da8	-0.0057713576
199	0xbcedd3b3	-0.02903161
200	0x3d118888	0.035530597
201	0xbd49ef87	-0.049300697
202	0xbd161138	-0.036637515
203	0xbbb58fc0	-0.005540818
204	0x3c8fed7b	0.017569294
205	0x3ccfdaaa	0.025372822
206	0x3b321981	0.0027175846
207	0xbba2236a	-0.0049480693
208	0xbd3b4508	-0.04572013
209	0x3cd54bce	0.026037123
210	0xbd17903d	-0.03700279
211	0xbd119e6e	-0.03555148
212	0x3d1c526b	0.038164537
213	0x3cad96be	0.021190044
214	0x3d4907a3	0.04907955
215	0x3d05bf0f	0.03265291
216	0x3d2d34c1	0.04228664
217	0xbb6ae5e0	-0.0035842583
218	0xbb678f20	-0.0035333112
219	0xbcbfd41d	-0.023416573
220	0xbd35dcfa	-0.044400193
221	0x3d167b8f	0.03673893
222	0x3d2b5977	0.041833367
223	0x3c3b1e9d	0.011420873
224	0xbe0e4252	-0.13892487
225	0xbc93605a	-0.01799028
226	0xbcd23edd	-0.025664741
227	0x3cfe960d	0.03107741
228	0x3d22f3af	0.039783176
229	0xbd17b285	-0.037035484
230	0x3c137ff4	0.009002674
231	0xbc36b2e8	-0.011151053
232	0xbd25863a	-0.04041121
233	0xbcf99dfa	-0.030470837
234	0x3cd743b2	0.026277397
235	0x3d1f65f9	0.038915608
236	0x3d165001	0.03669739
237	0xbcd22bbb	-0.025655618
238	0x3cbbfd1e	0.022947844
239	0xbcc4be67	-0.024016572
240	0xbd1fe3a5	-0.039035458
241	0x3ca1220e	0.019669559
242	0xbd22a9cb	-0.03971271
243	0x3c238f19	0.009982848
244	0x3c31b3c8	0.010846086
245	0x3d225ab3	0.03963728
246	0xbd29a2f6	-0.041415177
247	0x3ca244f6	0.019808274
248	0xbcd77ace	-0.026303675
249	0x3d1ebfc5	0.038757104
250	0xbcf786ca	-0.03021564
251	0xbadef159	-0.0017009183
252	0xbd426278	-0.04745719
253	0x3c9a4602	0.01883221
254	0xbd3abc92	-0.04558999
255	0x3ad306a0	0.0016099997

layer_2.bias f4 [300]
0	0x3d2cece1	0.042218093
1	0xbce28be3	-0.027654594
2	0x3b9aed28	0.0047279783
3	0x3c80638f	0.015672473
4	0x3fae906c	1.3637824
5	0x3faded0e	1.3587968
6	0x3cc7371d	0.024318272
7	0xbbc0e522	-0.0058866898
8	0xbd092894	-0.033485964
9	0x3c88c2c5	0.016694436
10	0xbbdf8a1b	-0.0068218834
11	0xbd046cd6	-0.032330357
12	0xbd6e0f11	-0.058119837
13	0x3c2bc74d	0.010484529
14	0x3c883777	0.01662801
15	0x3d4ba2e9	0.04971591
16	0x3baca150	0.0052682534
17	0xbd8208b2	-0.06349315
18	0xbd127add	-0.035761703
19	0x3ce01e23	0.02735812
20	0x3ca36f42	0.019950513
21	0x3facef9c	1.3510623
22	0xbdc52fb9	-0.09628243
23	0x3c91c33b	0.017793288
24	0xbcb9007a	-0.022583235
25	0x3cc9137e	0.024545427
26	0x3fa1acce	1.2630861
27	0xbcac5fdf	-0.021041809
28	0xbc73eef3	-0.014888513
29	0x3fab51d5	1.3384348
30	0x3fad57bc	1.35424
31	0xbd304f18	-0.04304418
32	0xbce0b6d1	-0.027430924
33	0x3c8f00f8	0.017456517
34	0x3a104ca1	0.00055045827
35	0xbbab9b4b	-0.005237018
36	0xbd497963	-0.04918803
37	0xbc015a61	-0.007895083
38	0xbc8eec89	-0.017446773
39	0xbd677e4f	-0.05651694
40	0xbd821c6f	-0.063530795
41	0xbc85571d	-0.01627689
42	0xbfa02b8f	-1.2513293
43	0xbd42d260	-0.04756391
44	0xbcc8f39f	-0.02453023
45	0xbb293ad6	-0.0025822422
46	0xbccecdfb	-0.025244704
47	0xbd187829	-0.03722397
48	0x3c853502	0.016260628
49	0xbe02a152	-0.12756851
50	0x3fadf498	1.3590269
51	0x3c26643c	0.010155734
52	0x3b04c7e0	0.0020260736
53	0xbcdd03c4	-0.026979335
54	0xbd54c4da	-0.051945545
55	0xbd031405	-0.032001514
56	0xbc78ecb4	-0.015193153
57	0x3fa520f1	1.2900678
58	0xbd4fd6ec	-0.050742075
59	0xbd71c10d	-0.059022
60	0xbd5cca20	-0.0539037
61	0x3b7e1eb0	0.0038775615
62	0xbd0dac6c	-0.034588262
63	0xbd2baf35	-0.041915137
64	0x3fa781dc	1.3086505
65	0xbd02832c	-0.031863376
66	0xbcb40206	-0.021973621
67	0xbcfe9e94	-0.031081475
68	0x3991e06f	0.0002782377
69	0x3fa366b2	1.2765715
70	0x3ca8ab22	0.020589415
71	0x3c1fef65	0.009761666
72	0xbdaa7491	-0.083230145
73	0xbd2187df	-0.039436217
74	0xbd126b90	-0.03574711
75	0x3f327521	0.69709975
76	0x3fb2e249	1.3975307
77	0xbd6a9d8e	-0.057279162
78	0x3c87050e	0.016481902
79	0xbcacb307	-0.02108146
80	0xbd383826	-0.044975422
81	0xbd329cd0	-0.04360658
82	0xbbce7f11	-0.0063017686
83	0xbd0e9dbf	-0.034818407
84	0xbd13e841	-0.036110166
85	0xbcd4c940	-0.02597487
86	0xbd9d907e	-0.07693575
87	0x3fa526f1	1.2902509
88	0x3fa80b07	1.3128365
89	0xbd65f854	-0.056145027
90	0x3fabfa43	1.3435749
91	0x3cc20b44	0.023687012
92	0xbcd51160	-0.026009262
93	0xbd1c1ceb	-0.038113516
94	0x3cb2c7b0	0.021823734
95	0x3ca26a84	0.019826181
96	0x3fa248e7	1.2678498
97	0xbd86f05f	-0.06588816
98	0x3cfd2a32	0.03090391
99	0xbbd35238	-0.00644901
100	0xbce4f409	-0.027948396
101	0x3fab1b92	1.3367789
102	0x3c5e48f9	0.013567203
103	0x3fa2f8b1	1.2732145
104	0xbba394a1	-0.004992083
105	0xbbd89d18	-0.006610524
106	0xbd137b3d	-0.0360062
107	0x3d4c12bd	0.049822558
108	0x3fb2859d	1.3947026
109	0x3c63c4cc	0.0139019005
110	0x3b96e1f0	0.0046045706
111	0xbc8d06c3	-0.017215138
112	0xbd7f20c8	-0.062287122
113	0xbc44ce61	-0.012012095
114	0x3bfe0cfe	0.0077530136
115	0xbd826d0f	-0.063684575
116	0x3fa4e0c0	1.2881088
117	0xbcc5e81d	-0.024158532
118	0xbd1a27f0	-0.037635744
119	0x3fac3d3c	1.3456187
120	0x3d0e37cb	0.034721177
121	0x3fa8222a	1.3135426
122	0xbce33885	-0.027736912
123	0x3fa115b0	1.2584743
124	0xbd2a244d	-0.041538525
125	0x3fa2895b	1.2698168
126	0x3c92e9de	0.017933782
127	0x3d0488a2	0.032356866
128	0x3fac5153	1.3462318
129	0x3fafb245	1.3726279
130	0xbea9e5ab	-0.33183035
131	0x3f9f4d18	1.2445402
132	0x3fac24ec	1.3448768
133	0x3c0588a8	0.008150257
134	0xbd19082f	-0.03736132
135	0xbba61268	-0.005068112
136	0xbc015a70	-0.007895097
137	0xbd693550	-0.05693561
138	0xbd01e22c	-0.031709835
139	0xbd156090	-0.036469042
140	0x3f9f79e1	1.245907
141	0xbda79882	-0.081833854
142	0xbd8c568f	-0.06852447
143	0x3fa61747	1.2975854
144	0xbf9c1c6e	-1.2196176
145	0x3fa3c5ce	1.279474
146	0x3c743bb7	0.014906815
147	0xbcd25457	-0.025674982
148	0xbc107342	-0.008816542
149	0xbd1cafdf	-0.03825366
150	0x3fac5f17	1.3466519
151	0x3fb760c9	1.4326411
152	0x3c53504f	0.012897565
153	0x3faa6ae4	1.331387
154	0x3fbb7012	1.4643576
155	0xbcf6fc2c	-0.030149542
156	0x3faef7ae	1.3669336
157	0xbcc92487	-0.02455355
158	0x3b7731d4	0.003771891
159	0x3fb75337	1.432227
160	0xbd139409	-0.03602985
161	0xbe009101	-0.12555315
162	0xbc65a119	-0.014015459
163	0xbc88238e	-0.016618516
164	0x3b088be0	0.0020835325
165	0xbd40d7ce	-0.047080807
166	0x3fa2c19d	1.2715336
167	0x3cd5a22d	0.026078308
168	0xbcee63f9	-0.029100405
169	0xbd8f3ac5	-0.06993631
170	0x3c73c3d6	0.014878234
171	0xbd5f4ce0	-0.054516673
172	0x3fba1a6b	1.4539312
173	0xbd0c2e5a	-0.03422389
174	0x3fa5fe59	1.2968246
175	0x3b06bf10	0.002056066
176	0x3fa9a510	1.3253498
177	0xbccd3fef	-0.0250549
178	0xbbb1b73d	-0.005423455
179	0x3c070ca4	0.00824276
180	0x3cb8be9a	0.022551823
181	0x3d162845	0.036659498
182	0xbdc00765	-0.093764104
183	0xbd5c28ed	-0.053749967
184	0x3fac8f6d	1.348127
185	0xbc71a89c	-0.014749672
186	0xbd91078b	-0.07081517
187	0xbd12b792	-0.035819598
188	0x3cd08c52	0.025457535
189	0x3fa94931	1.3225461
190	0x3ce1f796	0.027583878
191	0xbb46a7f4	-0.003031251
192	0xbd232bda	-0.039836742
193	0xbc84aae5	-0.01619477
194	0xbcf39b19	-0.029737042
195	0x3d4042f9	0.04693887
196	0xba061bfe	-0.00051158655
197	0xbb1aa689	-0.0023597798
198	0x3fb987f6	1.4494617
199	0xbbb3f3af	-0.005491696
200	0xbd3eb42d	-0.046558548
201	0xbcc4b784	-0.024013288
202	0xbc035ada	-0.008017266
203	0x3c25550b	0.010091077
204	0x3faddc9d	1.3582951
205	0x3af375a0	0.0018574484
206	0xbd833421	-0.06406427
207	0x3fb47d53	1.4100746
208	0x3d3a0ef3	0.045424413
209	0xbca1f007	-0.019767774
210	0xbc3e3b5b	-0.011610831
211	0xbc97ad37	-0.018515212
212	0xbd31b5d7	-0.043386307
213	0x3b9b74a0	0.0047441274
214	0xbc58e8fe	-0.013239143
215	0xbcc4b0dc	-0.024010114
216	0x3c0d919e	0.008640675
217	0xbd5861a4	-0.052827492
218	0x3fa9ddaa	1.3270772
219	0xbd6e0a53	-0.058115315
220	0xbc59670d	-0.013269198
221	0xbc8ff62e	-0.017573442
222	0xbd8ea4c0	-0.06965017
223	0x3fa8c7d2	1.318598
224	0x3fb05996	1.377734
225	0x3c46cfae	0.012134476
226	0xbc8444cf	-0.016146092
227	0x3fa6abce	1.3021181
228	0x3fb6d395	1.428332
229	0x3b4c3472	0.003115919
230	0xbd46f759	-0.048575733
231	0x3fabf34b	1.3433622
232	0x3d352d73	0.044232797
233	0xbb04a9a8	-0.0020242725
234	0xba930a31	-0.0011218247
235	0x3d2a2c5d	0.041546214
236	0x3fb67436	1.4254215
237	0x3fbb922a	1.4653981
238	0xbc8e76ac	-0.017390572
239	0x3c436c00	0.011927605
240	0x3fb6b751	1.4274694
241	0xbc446571	-0.011987076
242	0x3c1cdb4d	0.00957377
243	0x3fab1133	1.3364624
244	0xbd975add	-0.07390378
245	0xbcfee1bc	-0.031113498
246	0x3fa833e8	1.314084
247	0xbd7c7fdf	-0.061645385
248	0x3cdbbbb5	0.026822904
249	0x3fa3e282	1.28035
250	0xbc888697	-0.01666574
251	0x3bfed45a	0.007776779
252	0x3fb2465f	1.3927726
253	0x3faf4755	1.3693644
254	0xbd29656b	-0.041356485
255	0xbc187276	-0.009304633

layer_3.weight f4 [1, 300]
0	0xbb908979	-0.0044109193
1	0x3cc1752c	0.023615442
2	0xbcd4defe	-0.025985237
3	0x3a54ec52	0.00081223727
4	0x3e04bbe1	0.12962295
5	0x3df1ac0d	0.11800394
6	0xbc472ce0	-0.012156695
7	0xbb6812f4	-0.0035411688
8	0xbc8a2dd7	-0.016867561
9	0xbc73e627	-0.014886416
10	0xbd3ed0bc	-0.046585783
11	0xbad0a040	-0.0015916899
12	0xb92c5ee1	-0.00016438543
13	0xbb32359d	-0.00271926
14	0x3a03bb4f	0.00050251646
15	0x3d052c0c	0.03251271
16	0x3cf4ec4c	0.029897831
17	0xbc9d7a28	-0.019223288
18	0x3ce30cd3	0.027716076
19	0xbd0916dd	-0.03346907
20	0xbcf1b7b5	-0.029506544
21	0x3de7a4c8	0.113107264
22	0xbbc8e58c	-0.0061308797
23	0xbd065576	-0.032796346
24	0xbd325082	-0.04353381
25	0xbd2108b3	-0.039314937
26	0x3e0baa95	0.1363929
27	0xbc86ea8b	-0.01646926
28	0x3b13ddd4	0.002256264
29	0x3dfb9557	0.12284344
30	0x3de0a29a	0.10968514
31	0xbd4c0617	-0.049810495
32	0x3c1734a8	0.009228863
33	0xbbd4e876	-0.006497438
34	0xbb873533	-0.004126215
35	0xbd0a2726	-0.03372874
36	0xbca890b9	-0.020576822
37	0xbb0afe30	-0.0021208636
38	0xbcda9755	-0.026683489
39	0xbbf44b79	-0.007455286
40	0xbcbdabd3	-0.023153221
41	0x3c80231a	0.015641738
42	0xbea7d8a8	-0.32782483
43	0x3d689674	0.05678411
44	0xbc75bfa8	-0.014999308
45	0x3cd83330	0.026391596
46	0x3b9a691a	0.004712236
47	0xbb104ccf	-0.0022018438
48	0xbccab50b	-0.024744531
49	0x3aaa174b	0.0012976913
50	0x3e045817	0.12924229
51	0xbcd8e64c	-0.026477002
52	0x3d5ef2f0	0.054430902
53	0xbb50a26a	-0.0031835088
54	0xbb71e483	-0.0036909885
55	0x3c475a04	0.0121674575
56	0xbd1e99ea	-0.038721003
57	0x3db45843	0.08805897
58	0xbc3e6523	-0.011620793
59	0x3d0f4e1d	0.034986604
60	0xbb939cb6	-0.0045047654
61	0x3c575bc8	0.013144441
62	0x3aad02cf	0.001319969
63	0x3bfabef9	0.0076521602
64	0x3dd470aa	0.103730515
65	0xbcb9a7cf	-0.022663025
66	0x3c800ac5	0.015630135
67	0xbb99625c	-0.004680915
68	0x3cb2cdaf	0.021826593
69	0x3dd485db	0.103770934
70	0xbca01379	-0.019540535
71	0x3c4595c0	0.012059629
72	0xbcea2a53	-0.028584635
73	0xbb75592f	-0.003743719
74	0xbc809be1	-0.015699329
75	0x3bc891ed	0.0061209113
76	0x3dcfb314	0.10141578
77	0x3b47ff60	0.0030517206
78	0xbd6373b7	-0.055530276
79	0xbcd26ad8	-0.025685713
80	0xbc74c157	-0.014938674
81	0x3a66ede0	0.000880925
82	0x3d0f3989	0.03496698
83	0xbc1ae8f3	-0.0094549535
84	0xbd02c1c5	-0.031923074
85	0x3c0b24d5	0.008492668
86	0x3bb47b75	0.0055078813
87	0x3dafdd2d	0.08587108
88	0x3ddf4101	0.109010704
89	0xbc63ecf3	-0.013911474
90	0x3dd7617b	0.1051664
91	0xbce69ed0	-0.0281519
92	0xbd1cad0f	-0.03825098
93	0x3a35b75a	0.00069319236
94	0xbc249585	-0.010045414
95	0x3ba08fa6	0.0048999367
96	0x3dfbf04d	0.12301693
97	0x3c9697ae	0.018382873
98	0xbc3e52b8	-0.011616401
99	0x3cd3f104	0.025871761
100	0xbc72da83	-0.014822605
101	0x3df65f6f	0.12029921
102	0xbcdccb69	-0.026952462
103	0x3dffe030	0.12493932
104	0xbd00462f	-0.031316932
105	0x3bd59e20	0.006519094
106	0xbb13db48	-0.0022561122
107	0xbd099338	-0.033587664
108	0x3ddf88e1	0.109147795
109	0xbc1ef554	-0.0097020455
110	0xbcebc27a	-0.028779257
111	0xb9e37366	-0.00043382793
112	0xbc091a90	-0.008368149
113	0x3907e145	0.00012958523
114	0xbc2586a0	-0.010102898
115	0xbcd68eca	-0.026191134
116	0x3e02c560	0.12770605
117	0xbbbde3a7	-0.0057949605
118	0xbc868d8a	-0.016424913
119	0x3e02495a	0.12723294
120	0x3c0c0488	0.008546002
121	0x3df997e0	0.12187171
122	0xb9d0dc2f	-0.000398369
123	0x3dd0ef9d	0.102019526
124	0xbbd25c88	-0.006419722
125	0x3de534b0	0.1119169
126	0x3b4777fe	0.003043651
127	0xbb889fd9	-0.004169446
128	0x3df56c21	0.119835146
129	0x3dbecbdf	0.09316229
130	0xbf0e6738	-0.5562625
131	0x3deb091a	0.11476345
132	0x3e0471f8	0.129341
133	0xbaebbc20	-0.0017985143
134	0x3b17896b	0.002312268
135	0x3c2b3670	0.010449991
136	0xbce36a6d	-0.027760709
137	0xbd17e7b4	-0.037086204
138	0x3ce634c0	0.028101325
139	0xbcd77b32	-0.026303861
140	0x3e169bfb	0.1470794
141	0xbc846ea3	-0.016166037
142	0xbcf21d29	-0.02955492
143	0x3dfa38fc	0.122179
144	0xbe96cbf8	-0.2945249
145	0x3deb3279	0.11484236
146	0xbcab0ec1	-0.020881059
147	0xbce44bc8	-0.027868167
148	0x3cbda250	0.023148686
149	0xbb7759f3	-0.0037742823
150	0x3ded7380	0.115942955
151	0x3e29bec4	0.16576678
152	0xba43eae3	-0.00074736605
153	0x3dfb75ec	0.12278351
154	0x3e2e2411	0.17005946
155	0xbc19a194	-0.009376902
156	0x3dd7c0f5	0.105348505
157	0xbcca81c0	-0.024720073
158	0xbd127233	-0.03575344
159	0x3e12ba76	0.14328942
160	0x3cc6958b	0.02424123
161	0xbd4f1262	-0.05055464
162	0xbd0ae6d2	-0.033911534
163	0xbcbb0a67	-0.022832109
164	0x3d109126	0.035294674
165	0x39f81d1e	0.0004732394
166	0x3db84e8f	0.08999359
167	0x3be1d744	0.0068921167
168	0xbb3116b5	-0.002702159
169	0xbb4fadc0	-0.0031689256
170	0xbcc5ce66	-0.02414627
171	0x3c73057f	0.014832853
172	0x3e2bb772	0.16769198
173	0xbb8663c9	-0.004101251
174	0x3dfa3278	0.122166574
175	0x3b9cf8f4	0.0047904197
176	0x3dec3c23	0.11534908
177	0xbca0d1fa	-0.019631375
178	0x3b0e6bca	0.0021731728
179	0x3c625107	0.013813264
180	0xbc7ceeb4	-0.015437771
181	0xbd1b8afb	-0.03797434
182	0xbc6691a9	-0.014072814
183	0xbcc5d544	-0.024149545
184	0x3dd34f2d	0.10317836
185	0xbbe2de82	-0.0069234977
186	0xbc2a5d48	-0.010398217
187	0x392c444e	0.00016428644
188	0x3c8740ca	0.016510386
189	0x3e0019ee	0.12509891
190	0x3c87c088	0.016571298
191	0x3b1f23f3	0.0024282902
192	0x3c855500	0.016275883
193	0xbc6401c5	-0.0139164375
194	0x3b4cdcfb	0.0031259644
195	0xbc3197b4	-0.0108393915
196	0xbca321f6	-0.019913655
197	0x3c5304e7	0.012879587
198	0x3dfa5d04	0.122247726
199	0xbc8d5e8f	-0.017257003
200	0xbcd6820f	-0.026185064
201	0xbcd0a5f3	-0.025469756
202	0xbc6bf2d8	-0.01440116
203	0x3cec1e23	0.028822964
204	0x3e14e9ea	0.14542356
205	0xbc4dfd20	-0.012572557
206	0x3d0158fb	0.031579
207	0x3e28006c	0.16406411
208	0x3d4d80ae	0.050171547
209	0x3b2eb750	0.0026659556
210	0xbc38cb24	-0.011278901
211	0x3c443081	0.011974455
212	0xbc9bdb4c	-0.019025467
213	0xbb27797e	-0.0025554593
214	0xbc02ab1f	-0.007975369
215	0x3c670706	0.014100796
216	0xbac6d577	-0.0015169819
217	0x3bcf1662	0.006319807
218	0x3dd0948b	0.10184582
219	0xbc191b25	-0.009344851
220	0x3b7c8039	0.0038528575
221	0xbd34032b	-0.043948334
222	0xbc1a7854	-0.0094281025
223	0x3deced95	0.11568753
224	0x3dedce2e	0.11611591
225	0x3c8b4055	0.01699845
226	0xbd7cba67	-0.061701205
227	0x3dcceab9	0.10005707
228	0x3e0ca5af	0.13735078
229	0xbba3c9fe	-0.0049984446
230	0xbcd9d74c	-0.02659192
231	0x3ddb207e	0.10699557
232	0xbd121bdc	-0.0356711
233	0x3b477a0b	0.0030437734
234	0x3ca32ebd	0.019919747
235	0x3cbfc078	0.023407206
236	0x3e2e05e2	0.16994432
237	0x3e2b851c	0.16749996
238	0x3c3cbc10	0.011519447
239	0x3d27f8da	0.041008808
240	0x3e206596	0.15663752
241	0xbcea41ea	-0.028595883
242	0xbcb11278	-0.021615252
243	0x3e06a9e0	0.1315074
244	0x3ca55169	0.020180421
245	0x3cfc72c3	0.030816441
246	0x3df37fb1	0.118895896
247	0x3ce040f2	0.027374718
248	0x3d0a9561	0.033833865
249	0x3de42482	0.11139776
250	0xbca9ce7f	-0.020728348
251	0x3c70979b	0.014684583
252	0x3e0c3800	0.13693237
253	0x3e26cb63	0.16288523
254	0x3cd66d1c	0.026175074
255	0xbbc04061	-0.0058670496

layer_4.weight f4 [400, 7]
0	0xbe8de784	-0.27715695
1	0x3c752f60	0.014964908
2	0xbe8c4cbc	-0.27402294
3	0x3dada364	0.0847843
4	0xbe24e3cb	-0.16102521
5	0x3e2b0d2e	0.16704246
6	0x3bf88b00	0.0075849295
7	0xbe11559e	-0.14192817
8	0xbdb6c178	-0.0892362
9	0x3eac1455	0.33609262
10	0xbe693018	-0.22772253
11	0x3e1963e5	0.14979513
12	0x3d4df8bb	0.050286036
13	0xbe78d911	-0.24301554
14	0x3e860b93	0.26180705
15	0xbe36362d	-0.17794104
16	0x3e2488ef	0.16067861
17	0xbec05fbd	-0.37573043
18	0xbf0d7644	-0.55258584
19	0x3ecc5d81	0.39915088
20	0x3f03b843	0.51453036
21	0xbe0fefc6	-0.1405631
22	0x3e83d3ea	0.25747615
23	0x3e14dc62	0.14537194
24	0xbe80ca1b	-0.25154194
25	0x3d45faae	0.04833477
26	0xbeec275b	-0.46123776
27	0xbf37a4b7	-0.7173571
28	0xbea88bb1	-0.32919076
29	0x3d949ee0	0.072568655
30	0xbe3b7df8	-0.18309772
31	0x3e24770a	0.16061035
32	0xbdc30650	-0.095226884
33	0x3eb063af	0.34451053
34	0xbe16e34f	-0.14735149
35	0xbeaa04b3	-0.3320671
36	0x3c4d2622	0.012521299
37	0x3bf3f2be	0.0074447086
38	0x3e2ddba5	0.16978319
39	0x3ee6cbfa	0.45077497
40	0xbe290deb	-0.16509216
41	0xbec6fb2b	-0.388635
42	0xbe982555	-0.29715982
43	0x3e976ec9	0.2957671
44	0x3dcdc290	0.100468755
45	0xbe7b0ec1	-0.24517347
46	0x3e22196e	0.15830013
47	0xbdab0ca4	-0.083520204
48	0xbe465208	-0.1936723
49	0xbe140623	-0.14455466
50	0x3d73cc3e	0.059520952
51	0x3d1dab98	0.038493723
52	0x3d204e45	0.039137144
53	0xbd48f6a5	-0.049063344
54	0xbef0b9d6	-0.47016782
55	0x3f41cec9	0.75706154
56	0x3dbcf60f	0.092266195
57	0xbe908385	-0.2822534
58	0x3e569e7f	0.20958899
59	0xbd32ee6e	-0.043684416
60	0xbd635522	-0.05550111
61	0xbe87b796	-0.26507252
62	0x3f3947fc	0.72375464
63	0x3e359c6b	0.1773545
64	0xbe29fbdc	-0.16599983
65	0xbebf7f1f	-0.37401673
66	0x3e76de79	0.24108304
67	0x3f0058e3	0.5013563
68	0x3e0dcd32	0.13847807
69	0x3beff30c	0.0073226746
70	0x3db06680	0.086133
71	0xbe6ddb03	-0.23228078
72	0xbe3e0be7	-0.18559228
73	0x3ea27cdb	0.31735882
74	0xbe358158	-0.17725122
75	0xbf005548	-0.5013013
76	0x3ee2e322	0.44313914
77	0x3e53ba6a	0.2067658
78	0x3d5eb350	0.054370224
79	0xbebdabee	-0.37045234
80	0xbe9843ca	-0.2973922
81	0xbcc824e0	-0.024431646
82	0xbe9b7f5f	-0.30370614
83	0xbe643efb	-0.2228965
84	0xbe912b6a	-0.28353435
85	0xbca1b65a	-0.019740272
86	0x3e06d66c	0.13167733
87	0x3e54c179	0.20776929
88	0xbf0a5607	-0.5403752
89	0x3ea532f3	0.32265434
90	0x3ee26c8c	0.4422344
91	0xbd015892	-0.031578608
92	0x3e8e23d2	0.27761704
93	0xbe4d01a6	-0.2002016
94	0xbe15be11	-0.14623286
95	0x3eb54249	0.35402134
96	0x3f0a5384	0.54033685
97	0x3e85d714	0.26140654
98	0xbea17862	-0.31537157
99	0x3e566491	0.209368
100	0x3ea0b874	0.31390727
101	0xbe775fdf	-0.24157666
102	0xbc9fdfbe	-0.019515868
103	0xbdae1baa	-0.0850137
104	0x3eb0b51c	0.34513175
105	0x3e3bad96	0.18327937
106	0xbe4399de	-0.19101664
107	0xbead68f0	-0.33869123
108	0xbd9bd100	-0.07608223
109	0xbea362d1	-0.31911328
110	0x3e0f9fbe	0.1402578
111	0x3e58818e	0.21143171
112	0x3de47197	0.11154478
113	0xbec691ad	-0.38783017
114	0x3e2ee191	0.17078234
115	0x3cdb1f5b	0.02674835
116	0xbe34ead0	-0.17667699
117	0xbe909751	-0.28240445
118	0x3dc9c9b1	0.09852923
119	0x3af15bc9	0.0018414195
120	0xbe89f8a0	-0.26947498
121	0x3e32e620	0.17470598
122	0x3d8a0969	0.06740076
123	0x3dfcf850	0.12352049
124	0x3defb7c6	0.11704974
125	0x3efbd8a2	0.49188715
126	0xbe018d94	-0.12651664
127	0x3d461d10	0.04836756
128	0xbdfcf3c0	-0.12351179
129	0xbe50590f	-0.20346473
130	0xbead1761	-0.338069
131	0x3a7c5400	0.0009625554
132	0xbe88f3f0	-0.2674861
133	0xbe6a639b	-0.22889559
134	0xbe873f4b	-0.26415476
135	0x3e9c9bfb	0.30587754
136	0xbe66cd12	-0.22539166
137	0xbea560bc	-0.32300365
138	0x3e782936	0.2423447
139	0x3eb1cf97	0.3472869
140	0x3d441df0	0.047880113
141	0xbe9fb94d	-0.3119606
142	0x3d92b63c	0.07163665
143	0x3dd4d9d3	0.10393109
144	0x3e57b7cd	0.21066208
145	0xbefceff6	-0.49401826
146	0x3f966617	1.1749905
147	0xbe9b965d	-0.30388156
148	0xbe634804	-0.2219544
149	0xbd84f798	-0.06492537
150	0x3e7e0ac2	0.24808791
151	0xbe39f82e	-0.1816108
152	0x3dbcf47c	0.09226319
153	0xbb6ad500	-0.0035832524
154	0x3e506f96	0.20355067
155	0xbe002f7d	-0.12518115
156	0x3d8726c7	0.06599193
157	0xbe405b09	-0.18784727
158	0x3ca78c00	0.0204525
159	0x3d559bd5	0.052150566
160	0x3fd27b2c	1.6443839
161	0xbebb04a0	-0.36526966
162	0x3e4b8766	0.19875869
163	0x3e09ac36	0.134446
164	0xbe44b257	-0.19208656
165	0xbe573d47	-0.21019469
166	0xbe6a53d7	-0.22883545
167	0xbea21141	-0.3165379
168	0x3e491d81	0.19640161
169	0x3e114e7c	0.14190096
170	0xbe8a5193	-0.2701536
171	0xbc809fe4	-0.015701242
172	0x3daf5eda	0.085630134
173	0x3c83bbd1	0.016080769
174	0xbb7273c0	-0.0036995262
175	0xbe13e191	-0.14441516
176	0xbde169b7	-0.11006492
177	0xbd69bebc	-0.057066664
178	0x3dcacb62	0.099020734
179	0xbf6d5421	-0.92706496
180	0xbf4d7217	-0.8025221
181	0xbfa6be6a	-1.302686
182	0x3e31840e	0.17335531
183	0x3d72a840	0.059242487
184	0xbe652b0e	-0.22379705
185	0xbe6062f8	-0.21912754
186	0x3ea11343	0.31460008
187	0xbe9bd069	-0.30432442
188	0x3e716c6e	0.23576519
189	0xbe96959a	-0.29411012
190	0xbb9f7900	-0.0048667192
191	0xbdcf0b84	-0.10109618
192	0xbeb86a53	-0.3601862
193	0x3a393a00	0.00070658326
194	0xbe49235a	-0.19642392
195	0xbe77eb13	-0.24210767
196	0x3cce2970	0.025166243
197	0xbe8980d9	-0.26856115
198	0x3dbadc58	0.091240585
199	0xbe7616ba	-0.24032107
200	0x3e8b7b85	0.27242675
201	0x3d1e4970	0.038644254
202	0x3d5c5198	0.05378875
203	0xbe8deb1f	-0.27718446
204	0xbe66331c	-0.22480434
205	0x3e9a16fb	0.30095658
206	0x3deebf48	0.11657578
207	0x3da5a5c0	0.08088255
208	0xbea5df24	-0.32396805
209	0xbe0081e8	-0.12549555
210	0x3cda8a50	0.02667728
211	0xbe610691	-0.21975161
212	0xbe8c236e	-0.2737078
213	0xbebbfab7	-0.36714718
214	0x3e8e5fd5	0.2780749
215	0xbe12e566	-0.14345321
216	0xbe6558f1	-0.2239721
217	0x3d079deb	0.033109587
218	0xbe4b3756	-0.19845328
219	0x3c4a662d	0.012353462
220	0x3de2e47e	0.11078738
221	0x3d92db5a	0.07170744
222	0x3d028a7c	0.03187035
223	0x3f1b1308	0.60575914
224	0xbea57261	-0.32313827
225	0x3e243ff6	0.16040024
226	0x3e173416	0.14765963
227	0xbe1ffb94	-0.15623313
228	0x3e8d36d9	0.27580908
229	0xbe867672	-0.26262242
230	0xbe4050fa	-0.1878089
231	0x3e8bda97	0.27315208
232	0xbe103e59	-0.14086284
233	0xbe2f9cf6	-0.1714972
234	0xbd0b0f78	-0.0339503
235	0x3ebc7eeb	0.3681558
236	0x3e750952	0.23929337
237	0x3ea15bf7	0.31515476
238	0xbe1f1dbd	-0.15538688
239	0xbdcea9b8	-0.10090965
240	0xbcb6f780	-0.022334814
241	0xbeacfc58	-0.33786273
242	0x3e47a4ae	0.19496414
243	0x3c43ebe0	0.011958092
244	0x3e06273e	0.13100907
245	0x3e730852	0.23733643
246	0xbeaced12	-0.3377462
247	0xbe5365a3	-0.2064424
248	0xbebc0fd8	-0.36730838
249	0xbddc3434	-0.107521445
250	0xbe6ccdd1	-0.23125388
251	0x3e46b23e	0.19403931
252	0xbedf852f	-0.436563
253	0x3e6d9d68	0.23204577
254	0x3d85cc04	0.065330535
255	0x3e1f1790	0.15536332

layer_4.bias f4 [400]
0	0xbb992f00	-0.0046747923
1	0xbd929673	-0.07157602
2	0xbe7c9f0c	-0.24670047
3	0xbfdd7257	-1.7300519
4	0xbc1a0880	-0.009401441
5	0xbe7b6c63	-0.24553065
6	0x3e923447	0.2855551
7	0x3fce2dea	1.6107762
8	0x3ec48f4a	0.3839057
9	0xbeb355d1	-0.3502641
10	0x3fc50d1f	1.5394629
11	0xbda3424c	-0.079716295
12	0x3fbd68aa	1.4797566
13	0x3f940373	1.1563553
14	0x3e9e3cb7	0.30905697
15	0x3e885037	0.266237
16	0x3f40f114	0.75367856
17	0x3f06dff7	0.52685493
18	0xbdf890f0	-0.1213702
19	0xbe858c75	-0.26083723
20	0x3f2be9b8	0.671535
21	0xbd64e368	-0.055880934
22	0x3ec539f0	0.38520765
23	0x3e98bc29	0.29831055
24	0x3fbef5c5	1.4918753
25	0xbdd2a44b	-0.10285243
26	0x3d444c80	0.04792452
27	0x3e32a202	0.17444614
28	0x3e41e3aa	0.18934503
29	0x3d9fec14	0.078087
30	0x3e12059a	0.1425995
31	0x3f9de2d5	1.2334849
32	0x3e1ee87a	0.1551837
33	0x3e579666	0.21053466
34	0x3cffcea0	0.031226456
35	0xbd8f83e4	-0.07007578
36	0xbfd07fff	-1.6289061
37	0x3e14dbbe	0.1453695
38	0xbe655b32	-0.2239807
39	0xbec08835	-0.37603918
40	0x3d039122	0.03212083
41	0x3d7d6e93	0.06187303
42	0x3fde366b	1.7360357
43	0x3f1ad8d1	0.60487086
44	0x3fea75fb	1.8317255
45	0x3f9f8a44	1.246407
46	0xbe9c57b1	-0.30535653
47	0xbfe7cbd1	-1.8109075
48	0xbeaf9d08	-0.34299493
49	0x3f9e8203	1.2383426
50	0xbe5dc84c	-0.21658438
51	0xbfddb1c8	-1.731988
52	0x3f373cb3	0.71576995
53	0xbe5daa77	-0.21647058
54	0x3f277c7e	0.65424335
55	0x3df36799	0.11884994
56	0x3f4b88ca	0.795056
57	0x3f08d974	0.5345681
58	0xbeaf34ed	-0.34220067
59	0x3eaf22ab	0.34206137
60	0xbd611058	-0.054947227
61	0xbd2aeccd	-0.041729737
62	0xbe5e7636	-0.21724781
63	0x3fc06945	1.5032126
64	0x3e9ce6d9	0.30644873
65	0x3da4a520	0.080393076
66	0xbf590efd	-0.84788495
67	0xbfcf838a	-1.6212018
68	0x3fa0a82b	1.2551321
69	0x3fc829b8	1.5637732
70	0x3fb18178	1.3867636
71	0x3fd3bfb6	1.654288
72	0x3f85a998	1.0442381
73	0x3f864279	1.0489036
74	0x3f183f79	0.5947185
75	0xbe81b9cc	-0.25337064
76	0xbff6d8e6	-1.9284942
77	0xbe4a05e8	-0.19728816
78	0x3ea71b4d	0.32638016
79	0xbdc137c8	-0.094344676
80	0x3f33003a	0.6992222
81	0x3edce01a	0.43139726
82	0x3f1397a2	0.5765325
83	0x3da8df34	0.082456976
84	0xbe672ba8	-0.22575247
85	0x3fc3b9f1	1.529112
86	0x3fbf17d8	1.4929152
87	0x3de3c488	0.1112147
88	0x3e16ef26	0.14739665
89	0x3f635d84	0.8881457
90	0x3ea5946f	0.32339808
91	0x3ed357b7	0.4127786
92	0xbe014cb2	-0.12626913
93	0xbe915ae4	-0.28389657
94	0xbfced2ae	-1.6158044
95	0x3f8d0c66	1.1019409
96	0x3ec4be1d	0.38426295
97	0xbfc0bde2	-1.5057948
98	0x3e58f96d	0.21188898
99	0xbe2b54c9	-0.16731562
100	0xbda4d614	-0.08048645
101	0xbc2257d5	-0.009908636
102	0xbee97fd6	-0.45605344
103	0xbfa13c18	-1.2596464
104	0x3e188b02	0.14896777
105	0x3e698736	0.22805485
106	0x3fe8bafc	1.8182063
107	0x3e7d07bc	0.24709982
108	0x3f4b2ceb	0.79365414
109	0x3d66dfdb	0.05636583
110	0xbe4d1297	-0.20026623
111	0xbe00af5a	-0.12566891
112	0x3fbc96fb	1.4733576
113	0xbe81155c	-0.25211608
114	0xbe1405b1	-0.14455296
115	0x3f328cc6	0.69746053
116	0x3f69e5fd	0.9136656
117	0x3fc5e69c	1.5461001
118	0x3e69973e	0.228116
119	0x3e5f56a9	0.21810402
120	0x3f44d7b6	0.7689165
121	0x3d2caaf0	0.042155206
122	0x3ec17295	0.37782732
123	0x3f072efa	0.52806056
124	0x3fbf05b5	1.4923617
125	0xbfa09193	-1.2544426
126	0x3e74e65a	0.23915997
127	0x3fbee60e	1.4913957
128	0xbe087389	-0.13325323
129	0xbcf9f3e0	-0.030511796
130	0x3dc70a14	0.09718719
131	0x3fdd46aa	1.728719
132	0xbe523ef1	-0.20531823
133	0x3e417b0a	0.18894592
134	0x3f83ef76	1.0307453
135	0xbde07a24	-0.109607965
136	0x3fc1cd9e	1.5140874
137	0x3f021cf9	0.5082546
138	0xbe997872	-0.29974705
139	0xbebd94da	-0.37027627
140	0xbf9ba07f	-1.2158355
141	0x3fcaeaf5	1.5852953
142	0xbde01a49	-0.109425135
143	0x3daa54d8	0.08316964
144	0x3e8a7453	0.27041873
145	0xbc88b9b0	-0.016690105
146	0x3ebac429	0.36477783
147	0xbebb91dd	-0.36634722
148	0x3eadf607	0.33976766
149	0xbea59468	-0.32339787
150	0x3f59bd26	0.8505424
151	0x3e9cbb8f	0.30611846
152	0x3c67eee0	0.014156073
153	0xbfd20046	-1.6406333
154	0x3f8ea0fb	1.1142877
155	0x3d642730	0.055701435
156	0x3facc006	1.3496101
157	0xbdf672ec	-0.12033638
158	0x3f50fb80	0.8163376
159	0xbc3d1040	-0.011539519
160	0x3f4b1451	0.79327875
161	0x3e22c406	0.1589509
162	0x3f10f117	0.56617874
163	0x3fa8634a	1.3155301
164	0x3e90ee2d	0.28306714
165	0xbeac9190	-0.33704805
166	0x3fdacc4c	1.7093596
167	0xbfdf2a47	-1.7434777
168	0x3f9c2048	1.2197351
169	0x3d098498	0.033573717
170	0x3fcb7d3b	1.5897592
171	0x3fcd2246	1.6026084
172	0x3d48b820	0.04900372
173	0x3f827b7b	1.0193933
174	0x3ebd3c17	0.36959907
175	0xbe4ca8d8	-0.19986284
176	0x3dd4f530	0.10398328
177	0x3f259730	0.6468382
178	0x3f36070e	0.71104515
179	0x3f28d24e	0.659459
180	0x3cf8d8e0	0.030376852
181	0x3e9ef3c5	0.31045356
182	0x3e87e7ff	0.26544186
183	0xbebc514a	-0.3678077
184	0x3d817f20	0.06323075
185	0x3ea30ea5	0.3184711
186	0xbeac9aab	-0.33711752
187	0x3f9c1945	1.2195212
188	0x3f9ea25c	1.2393298
189	0x3fc09658	1.5045881
190	0x3e8a30e8	0.26990438
191	0x3e2f7a00	0.17136383
192	0x3d944c54	0.07241121
193	0x3dfabf34	0.122435
194	0x3ed2f7eb	0.4120477
195	0xbc834670	-0.016024798
196	0x3e01dfbe	0.12683007
197	0xbd572a98	-0.052530855
198	0xbfc0271f	-1.5011939
199	0x3eae5617	0.34050056
200	0xbe52185a	-0.20517102
201	0x3f23f7b4	0.6404984
202	0xbed1bed8	-0.40965915
203	0x3feebd4c	1.8651519
204	0x3cb3e790	0.021961004
205	0x3e5193ea	0.20466581
206	0x3e21d90a	0.1580545
207	0x3fd5242c	1.6651664
208	0x3f82c539	1.0216438
209	0x3fe4efe8	1.7885714
210	0x3e6fdf02	0.23424914
211	0x3f431dd2	0.7621738
212	0xbeae7080	-0.34070206
213	0xbec157df	-0.37762353
214	0xbda7e794	-0.08198467
215	0x3caf43a0	0.02139455
216	0x3fd34def	1.6508158
217	0x3e9edf90	0.3102994
218	0xbd891c5c	-0.06694862
219	0x3f558ca6	0.8341774
220	0x3db8855c	0.09009811
221	0xbfeabd54	-1.8339028
222	0xbe8922e6	-0.26784438
223	0x3ff009d2	1.8752997
224	0xbfd967e1	-1.6984826
225	0x3e51c3da	0.20484868
226	0x3dfd5dbc	0.12371394
227	0xbfdb62cf	-1.7139529
228	0xbf8f36f1	-1.1188642
229	0xbe50e190	-0.20398545
230	0x3fd55784	1.6667333
231	0x3e8b19c9	0.2716811
232	0xbef4fe4b	-0.4785026
233	0x3d69ca88	0.057077914
234	0x3e2643c6	0.16236791
235	0x3e29a95e	0.16568515
236	0xbf8c61fc	-1.0967402
237	0xbfcd36a0	-1.6032295
238	0xbdb1f300	-0.08688927
239	0x3c20bac3	0.009810152
240	0xbe596fcc	-0.21234053
241	0x3fa2ccd9	1.2718765
242	0xbdb2323c	-0.08700988
243	0x3ff53c70	1.9159069
244	0xbe4e8d92	-0.20171192
245	0x3e3a70ca	0.18207088
246	0x3fab5aa2	1.3387034
247	0x3fba98b3	1.457785
248	0xbda6d6e8	-0.08146459
249	0x3cea0ad0	0.028569609
250	0x3f818a58	1.0120344
251	0x3f89475c	1.0724902
252	0xbfcfb244	-1.6226277
253	0x3f37c947	0.717915
254	0xbe343b80	-0.17600822
255	0xbe29e68e	-0.16591856
