RL/Model_Repository/temp/TD3_Guest_dubi_actor.pth (torch, 516991 bytes, 9 tensors)

layer_1.weight f4 [400, 15]
0.1807005 0.19758084 -0.044511646 0.22043118 -0.04067128 0.036303304 -0.10917908 0.13502587
0.21087061 -0.1727324 0.20768657 0.032627784 0.17406781 0.018100135 0.10814776 -0.021233197
0.18233697 0.022853611 -0.104032256 0.049748853 -0.10246317 -0.015468957 -0.088441424 0.15462597
-0.18710265 -0.10253354 -0.056746803 -0.13862875 0.00879869 -0.23825058 0.2164329 -0.20259897
0.18263134 0.027451577 -0.06756127 0.14292434 0.024833998 0.19189657 0.01359661 -0.065174416
0.05325731 -0.05389297 0.09221596 0.21375704 0.13312614 -0.09640706 0.13244626 0.030567544
0.1145758 -0.1407491 -0.23882206 -0.083360314 -0.18134105 0.19513923 0.058189813 0.090509616
0.06540157 5.7743154e-07 0.18488471 -0.16680531 0.003725092 -0.15956545 0.06337955 -0.07259868
0.06288484 -0.03795392 0.19742191 -0.13642153 -0.13737339 -0.13738264 0.21548732 0.06974846
0.23168747 -0.19636074 -0.23932984 -0.18529625 -0.15702689 0.088154264 0.076107025 0.19781716
-0.116785996 -0.15935205 0.12042797 -0.087939814 0.14008415 -0.045279536 0.13110252 -0.18390512
-0.113830365 0.06150205 0.038727432 -0.04976419 0.13728882 0.1588617 -0.17055313 -0.12127459
0.21967052 -0.07081895 -0.07519487 -0.23306593 -0.13126335 0.048453763 -0.01899704 -0.17073593
3.1307274e-05 -0.15970495 -0.20232266 -0.12559739 -0.20923802 -0.14776416 0.24132477 0.033057965
0.06333045 -0.22406088 -0.15292609 -0.069647275 0.024962345 -0.21045242 -0.09478857 -0.13795812
-3.919715e-08 -0.079703204 -0.004894372 -0.15830001 -0.16055892 -0.13402654 -0.072064735 -0.18707958
0.19976273 -0.035466265 0.20541734 0.06420524 -0.20191012 0.16190112 -0.054965783 -0.082581736
-0.197597 -0.23991913 0.057699814 -0.040504556 0.08412041 -0.19517133 0.1750011 -0.1728421
-0.029007545 0.038087066 0.116741404 0.1917281 0.21834418 -0.18805188 0.04892739 -0.09459668
-0.013658601 -0.17656359 0.2184316 -0.17281546 0.12142474 0.07440655 0.067625605 -0.12301927
0.21793981 0.04083478 0.018187296 -0.21081214 0.09161816 -0.023397096 -0.10179163 0.20504338
0.041643724 -0.1262703 -0.11413945 -0.0014108701 0.12757933 -0.049910452 -0.13072371 -0.07210195
-0.17619874 0.07573718 0.18321031 -0.22631386 0.043999173 0.11682887 0.031168444 -0.07560697
0.11820561 0.119124494 0.08017106 -0.029767489 -0.052268527 0.013051854 -0.030000107 -0.060735
0.14840022 0.20569146 -0.011878747 -0.041883714 4.1236473e-07 -0.0031635077 0.046068467 0.05620076
-0.2177606 -0.07891732 0.20070638 0.08417988 -0.001661359 -0.13904937 -0.14134157 -0.21453926
-0.068038486 0.06907648 0.14799175 0.1027101 -0.21148986 -0.13865188 -0.02531955 0.2330027
0.022080913 -0.050784666 0.09038167 -0.08195469 -0.15047364 0.17176811 -0.10091182 -0.035970043
-0.24008492 0.15614602 0.17892085 0.07774046 -0.16336253 -0.23805626 -0.19298357 0.17584439
0.107443266 0.20054524 0.11870157 0.049289677 -1.6928786e-16 -0.179661 -0.20448261 -0.22474812
0.0892639 -0.11023685 -0.03616788 -0.13199332 -0.031391975 -0.16505323 -0.1520608 0.06935418
-0.06052949 0.142768 -0.066564634 -0.17271666 -0.02994656 -0.10863699 -0.06276358 -0.2290422
00000000: 8d09 393e a252 4a3e d851 36bd b6b8 613e
00000010: ee96 26bd c6b2 143d 4899 dfbd 3944 0a3e
00000020: 77ee 573e c3e0 30be caab 543e b6a4 053d
00000030: d53e 323e bc46 943c 937c dd3d 3ef1 adbc
00000040: 8bb6 3a3e 7f37 bb3c dd0e d5bd 74c5 4b3d
00000050: 36d8 d1bd 8271 7dbc c720 b5bd 4556 1e3e
00000060: d697 3fbe 1bfd d1bd 566f 68bd b2f4 0dbe
00000070: 6128 103c f6f7 73be 96a0 5d3e 1b76 4fbe
00000080: b603 3b3e 21e2 e03c 905d 8abd c25a 123e
00000090: ab70 cb3c 8980 443e 51c4 5e3c 2a7a 85bd
000000a0: 5624 5a3d e0be 5cbd b9db bc3d 20e3 5a3e
000000b0: 3852 083e 1171 c5bd fe9f 073e c968 fa3c
000000c0: b8a6 ea3d 8820 10be c58d 74be d0b8 aabd
000000d0: 78b1 39be 94d2 473e 7158 6e3d 1b5d b93d
000000e0: 42f1 853d cb00 1b35 6b52 3d3e 03cf 2abe
000000f0: ac20 743b 2065 23be 23cd 813d 9eae 94bd
00000100: c4c9 803d 9275 1bbd f828 4a3e 16b2 0bbe
00000110: 9cab 0cbe 09ae 0cbe b5a8 5c3e 48d8 8e3d
00000120: 7b3f 6d3e ca12 49be e212 75be 4dbe 3dbe
00000130: a8cb 20be 398a b43d 00de 9b3d 9590 4a3e
00000140: 7f2d efbd 2f2d 23be f1a2 f63d ca19 b4bd
00000150: 3872 0f3e 0977 39bd bd3f 063e a051 3cbe
00000160: e51f e9bd 93e9 7b3d a8a0 1e3d 89d5 4bbd
00000170: 7195 0c3e a4ac 223e 7ba5 2ebe d05e f8bd
00000180: 4ff1 603e 8709 91bd c5ff 99bd d6a8 6ebe
00000190: e669 06be 7477 463d ae9f 9bbc 66d5 2ebe
000001a0: ee4f 0338 b289 23be ac2d 4fbe 9a9c 00be
000001b0: 7e42 56be 7d4f 17be d71d 773e ca67 073d
000001c0: 65b3 813d 3770 65be a898 1cbe 3ba3 8ebd
000001d0: d57d cc3c d780 57be 8320 c2bd e544 0dbe
000001e0: b959 28b3 6f3b a3bd f860 a0bb 6619 22be
000001f0: 8f69 24be 413e 09be ad96 93bd ca91 3fbe
00000200: 9a8e 4c3e 1345 11bd ec58 523e 097e 833d
00000210: 87c1 4ebe 68c9 253e cd23 61bd 9d20 a9bd
00000220: de56 4abe 5cad 75be a456 6c3d 1be8 25bd
00000230: 5247 ac3d feda 47be 7d33 333e 85fd 30be
00000240: 3ba1 edbc 2f01 1c3d 1e16 ef3d 5f54 443e
00000250: 9e95 5f3e ac90 40be 1668 483d e7bb c1bd
00000260: 53c8 5fbc 16cd 34be 89ac 5f3e 89f6 30be
00000270: 89ad f83d 7662 983d 4b7f 8a3d 87f1 fbbd
00000280: 9d2b 5f3e 5f42 273d 86fd 943c 23df 57be
00000290: 4da2 bb3d 44ab bfbc 2178 d0bd e4f6 513e
000002a0: 9c92 2a3d 004d 01be f2c1 e9bd f2ec b8ba
000002b0: 28a4 023e e76e 4cbd 70dc 05be 30aa 93bd
000002c0: 716d 34be 181c 9b3d 7c9b 3b3e d2be 67be
000002d0: 7a38 343d f943 ef3d f754 ff3c d4d7 9abd
000002e0: c815 f23d 8bf7 f33d ba30 a43d f3da f3bc
000002f0: 8617 56bd 72d7 553c c9c2 f5bc 43c5 78bd
00000300: 3af6 173e c8a0 523e 139f 42bc 428e 2bbd
00000310: fa62 dd34 da52 4fbb 4ab2 3c3d c532 663d
00000320: a2fc 5ebe 679f a1bd f985 4d3e 8066 ac3d
00000330: f5c1 d9ba f562 0ebe d8bb 10be 2eb0 5bbe
00000340: c357 8bbd f877 8d3d 268b 173e ac59 d23d
00000350: cc90 58be c2fa 0dbe f26a cfbc 4398 6e3e
00000360: 08e3 b43c 9503 50bd 061a b93d dcd7 a7bd
00000370: c315 1abe fbe3 2f3e dbaa cebd 5355 13bd
00000380: d2d8 75be bee4 1f3e 0737 373e 6436 9f3d
00000390: 8248 27be 05c5 73be 7c9d 45be 8d10 343e
000003a0: 370b dc3d bb5b 4d3e cf19 f33d f9e3 493d
000003b0: f52c 43a5 0ef9 37be e463 51be 5f24 66be
000003c0: fecf b63d dcc3 e1bd c524 14bd 4229 07be
000003d0: df94 00bd b703 29be d4b5 1bbe 9009 8e3d
000003e0: c5ed 77bd c631 123e 0a53 88bd a3dc 30be
000003f0: 7d52 f5bc 127d debd 318a 80bd 0a8a 6abe

layer_1.bias f4 [400]
-0.13213794 -0.041931055 0.21585691 -0.16497046 -0.17964305 -0.19346929 0.22479703 -0.018005492
-0.052589037 0.12498714 -0.13594438 -0.052136708 0.21990602 0.12095171 -0.18358639 -0.05482644
0.011033837 0.07693501 -0.102291346 0.16411427 1.0647532e-07 -0.20650719 0.0530727 -0.23388223
0.004956496 -0.23859471 -0.057479218 -0.0440383 -0.21518432 -0.05686826 0.00022129009 -0.1288804
0.021409404 0.119780965 0.015646718 -0.23666792 -1.1948375e-06 -0.10449614 0.057426907 -0.19045278
-0.16193497 -0.00020533227 0.13228624 -0.05286812 -0.0020728784 -0.011223567 -0.18531772 -0.0068626055
-5.6962985e-05 0.027228393 0.09908049 0.06068645 0.12740166 -0.033500787 -0.09507559 0.20254338
0.18915327 0.12419442 0.17140122 0.1099292 0.21149753 0.20786773 -0.19321138 -0.2265587
-0.11740285 0.18071203 0.21638472 0.0041331886 -0.17421421 -0.10484411 0.10622836 0.22375421
0.034266308 -0.15315756 0.22821744 0.20998234 -0.09679802 -0.12293961 0.1318396 -0.16989821
0.19879547 -0.036322348 -4.8908775e-09 -0.121368766 -0.23848626 0.042477664 -0.0756486 -0.13478419
0.18909855 0.032195702 -0.053116802 -0.22135302 -0.12875773 -0.068001576 0.09209185 -0.21857576
0.13251683 0.21811101 0.063659616 -0.23958723 0.018627461 -0.08777267 0.065417945 -0.00042871732
0.109803185 -0.007332231 0.030929005 0.08645255 -0.1746062 0.027538318 0.21333946 0.16361676
0.0035981322 -0.029799728 0.090323135 -0.21030982 -0.061549626 0.20721523 0.018199708 5.534747e-07
-0.18652087 -0.15069823 0.020527344 -0.17738885 -0.058481134 -0.11066378 0.06333469 0.02407337
-0.23253398 0.06893026 -0.009233844 -0.10856317 0.17351595 -0.15332912 -0.21876006 0.013527496
-0.123563565 -0.08842513 -0.20906496 -0.048129287 0.18842274 -0.21751566 -0.15793225 -0.04060293
-0.18762991 0.03263466 -0.035530303 0.17862226 -0.23983544 0.00021719438 0.09738197 0.018470926
-0.05418662 0.22538438 -0.18371402 0.2237275 0.05416537 0.10643159 0.16534437 0.011335162
0.01283236 -0.03654954 -0.2174777 0.09231745 0.17641363 0.09151291 -0.024879046 -0.2143827
5.456867e-07 0.051061306 -0.18538609 0.20282376 -3.2074582e-05 0.05438862 0.21103618 0.095622145
-0.123332106 0.078849785 0.1352075 0.11228174 -0.10480075 0.011802895 -0.16883853 -0.01430627
-0.16249806 0.13100415 0.2358591 -0.23329955 -0.1041277 -0.09276238 -0.16412209 0.21819548
-0.18273775 -0.11842839 -0.19776756 1.16323e-40 -0.17442405 -0.1572645 0.23997836 0.09889617
0.09308562 0.16643518 0.02903675 0.026421994 -0.17723198 0.056379184 -0.1850121 2.3794328e-38
-0.1227604 -0.1297564 -0.1345666 -0.10846679 -0.13694076 -0.12462547 -0.07769479 -0.21916693
0.18995775 0.07046258 -0.24004717 -0.24129838 -0.113490686 0.083234146 0.21957803 -0.024813913
0.13701242 -0.12269067 -0.037756965 -0.02462994 -0.23461252 1.1577661e-35 0.05223425 0.14075044
-0.18307462 -0.06152539 0.00045167247 0.012842242 0.02800535 -0.17510504 0.18368702 -0.2165706
-0.07331017 0.11212952 -0.048351 -0.10788884 -0.2379524 0.16116443 -5.7285833e-06 0.10819339
0.025745401 -0.17532246 -0.074897535 0.16742375 -0.10991247 -0.10246723 0.1250099 -0.09543761
00000000: 2b4f 07be e6bf 2bbd 9809 5d3e 04ee 28be
00000010: 59f4 37be d01c 46be 3131 663e 4180 93bc
00000020: 9a67 57bd 42f9 ff3d 0135 0bbe 4d8d 55bd
00000030: 0b2f 613e 88b5 f73d 12fe 3bbe b091 60bd
00000040: 44c7 343c 1a90 9d3d 207e d1bd 920d 283e
00000050: 6da7 e433 9f76 53be c262 593d d37e 6fbe
00000060: 1a6a a23b 2c52 74be 546f 6bbd 8161 34bd
00000070: 4759 5cbe b1ee 68bd 1b0a 6839 39f9 03be
00000080: c662 af3c b94f f53d 8c2d 803c 1359 72be
00000090: 4e5e a0b5 1202 d6bd 7a38 6b3d 0e06 43be
000000a0: 48d2 25be 764e 57b9 0b76 073e 3e8c 58bd
000000b0: 21d9 07bb 0de3 37bc eec3 3dbe b5df e0bb
000000c0: 8aeb 6eb8 140e df3c b6ea ca3d 5b92 783d
000000d0: 9575 023e 1f38 09bd feb6 c2bd 8867 4f3e
000000e0: 65b1 413e a559 fe3d cd83 2f3e 8f22 e13d
000000f0: cf92 583e 47db 543e 34d9 45be 01ff 67be
00000100: e870 f0bd 930c 393e f593 5d3e b36f 873b
00000110: 3665 32be 82b8 d6bd 418e d93d d31f 653e
00000120: d45a 0c3d 56d5 1cbe d5b1 693e 9c05 573e
00000130: 0a3e c6bd c3c7 fbbd f600 073e ccf9 2dbe
00000140: 0a91 4b3e bec6 14bd 9d0c a8b1 3090 f8bd
00000150: be35 74be 0ffd 2d3d a7ed 9abd de04 0abe
00000160: 0da3 413e a4df 033d 0191 59bd 5eaa 62be
00000170: 11d9 03be 6944 8bbd a79a bc3d 53d2 5fbe
00000180: 7eb2 073e 7e58 5f3e f95f 823d 5b56 75be
00000190: 9e98 983c 28c2 b3bd d8f9 853d 77c5 e0b9
000001a0: 7ee0 e03d 3643 f0bb d35e fd3c 090e b13d
000001b0: f8cb 32be 0a98 e13c a975 5a3e 278b 273e
000001c0: a4ce 6b3b 8f1e f4bc 56fb b83d 755b 57be
000001d0: 761b 7cbd 3b30 543e 8e17 953c 7e92 1435
000001e0: 54ff 3ebe a350 1abe f628 a83c 6ca5 35be
000001f0: ea89 6fbd b1a3 e2bd 9eb5 813d 8435 c53c
00000200: 631d 6ebe 4f2b 8d3d 8c49 17bc 5e56 debd
00000210: 2aae 313e 4f02 1dbe a302 60be 6ea2 5d3c
00000220: e50e fdbd 3c18 b5bd 2015 56be 3723 45bd
00000230: e4f1 403e 6dbc 5ebe feb8 21be 424f 26bd
00000240: 0e22 40be ecab 053d 3988 11bd c1e8 363e
00000250: 6c97 75be acbe 6339 3370 c73d 5750 973c
00000260: caf2 5dbd 2acb 663e 871f 3cbe d218 653e
00000270: 82dc 5d3d cef8 d93d 0950 293e 1eb7 393c
00000280: d23e 523c f8b4 15bd 79b2 5ebe ee10 bd3d
00000290: c6a5 343e 1f6b bb3d 24cf cbbc 2387 5bbe
000002a0: 4e7b 1235 a925 513d dad5 3dbe 08b1 4f3e
000002b0: d287 06b8 9ac6 5e3d de19 583e 8bd5 c33d
000002c0: 8b95 fcbd ff7b a13d d673 0a3e f8f3 e53d
000002d0: c7a1 d6bd ee60 413c 02e4 2cbe d864 6abc
000002e0: e465 26be f425 063e 0c85 713e 14e6 6ebe
000002f0: e740 d5bd 34fa bdbd 9f0f 28be a36e 5f3e
00000300: 9b1f 3bbe 958a f2bd 9483 4abe 4344 0100
00000310: 389c 32be f209 21be e3bc 753e 138a ca3d
00000320: aca3 be3d fc6d 2a3e 7ade ed3c f072 d83c
00000330: 4d7c 35be dced 663d d073 3dbe 748c 0101
00000340: ce69 fbbd ddde 04be d4cb 09be d623 debd
00000350: 333a 0cbe a33b ffbd 721e 9fbd 4c6d 60be
00000360: 4984 423e af4e 903d edce 75be ec16 77be
00000370: ce6d e8bd aa76 aa3d 10d9 603e 8c46 cbbc
00000380: fc4c 0c3e 3f45 fbbd 0ca7 1abd bac4 c9bc
00000390: 443e 70be c83a 7605 95f3 553d e220 103e
000003a0: ea77 3bbe 0c02 7cbd 74ce ec39 4468 523c
000003b0: 7a6b e53c bc4e 33be 7318 3c3e afc4 5dbe
000003c0: a423 96bd 29a4 e53d b30b 46bd d3f4 dcbd
000003d0: cba9 73be 4a08 253e 2838 c0b6 7f94 dd3d
000003e0: 05e8 d23c bb87 33be e163 99bd 2271 2b3e
000003f0: ca19 e1bd 57da d1bd 9802 003e cb74 c3bd

ln1.weight f4 [400]
0.98305905 0.9830548 0.98305845 0.9830443 0.9830616 0.98305196 0.98305523 0.98305905
0.9830513 0.98305106 0.983054 0.98305666 0.98307294 0.9830477 0.9830515 0.98305553
0.98306113 0.98306143 0.9830548 0.9830613 0.9830499 0.9830536 0.9830525 0.98305744
0.9830567 0.9830555 0.9830635 0.9830616 0.98304796 0.98306453 0.9830647 0.98305106
0.983061 0.98305655 0.98307097 0.9830446 0.9830718 0.98305845 0.98306257 0.98303944
0.98306096 0.98306215 0.9830605 0.98302233 0.9830545 0.98305887 0.9830556 0.98305964
0.98304844 0.9830429 0.9830591 0.983055 0.98305625 0.9830497 0.9830605 0.9830496
0.9830566 0.9830599 0.98305327 0.9830545 0.9830504 0.9830597 0.9830594 0.98305947
0.98307323 0.9830552 0.983054 0.9830557 0.983057 0.9830584 0.9830355 0.983057
0.98307216 0.9830565 0.9830479 0.98305285 0.9830614 0.98306096 0.98305845 0.9830548
0.9830478 0.9830528 0.9830628 0.98305076 0.98305994 0.98305565 0.9830554 0.98305976
0.98305464 0.9830555 0.98305744 0.9830554 0.98303294 0.98305035 0.9830539 0.98304427
0.98306036 0.9830746 0.9830592 0.983055 0.98305607 0.9830553 0.98306656 0.98305684
0.9830561 0.98305094 0.9830507 0.9830783 0.98305756 0.9830571 0.98305047 0.98307323
0.983035 0.98304915 0.9830564 0.9830667 0.9830504 0.98305327 0.9830545 0.9830438
0.98305935 0.9830655 0.98305625 0.98305583 0.9830597 0.98306173 0.9830742 0.9830585
0.983054 0.98303413 0.98305523 0.98307085 0.9830581 0.9830552 0.98305976 0.98305744
0.98305786 0.9830616 0.9830603 0.98305374 0.9830602 0.9830485 0.9830606 0.9830616
0.98305655 0.98305523 0.98306 0.98304844 0.9830579 0.9830538 0.98305345 0.9830554
0.9830542 0.98307383 0.98305297 0.983053 0.9830563 0.9830449 0.9830579 0.9830571
0.9830692 0.98306096 0.9830511 0.98307234 0.98304933 0.9830687 0.9830512 0.98307014
0.9830563 0.98304224 0.983054 0.98306036 0.9830694 0.9830599 0.9830542 0.9830481
0.98305815 0.9830533 0.98305666 0.9830607 0.9830603 0.9830512 0.9830596 0.98306066
0.9830563 0.98305607 0.9830559 0.98305285 0.9830642 0.9830729 0.9830561 0.98305845
0.9830532 0.9830501 0.98305786 0.98305625 0.98304784 0.9830544 0.9830441 0.98305744
0.98305386 0.98305696 0.98306 0.9830559 0.9830553 0.9830657 0.9830586 0.9830533
0.9830566 0.98305637 0.9830493 0.98306125 0.9830507 0.98307186 0.983056 0.98305523
0.9830586 0.9830727 0.9830496 0.9830522 0.9830601 0.9830598 0.9830543 0.98306054
0.98306537 0.98305845 0.98305553 0.9830577 0.98306286 0.9830525 0.9830657 0.98306245
0.9830584 0.98305476 0.98305666 0.9830553 0.9830561 0.98305357 0.98306006 0.9830537
0.9830585 0.9830513 0.98305273 0.98305756 0.98305863 0.9830593 0.98305595 0.9830523
0.98306155 0.9830602 0.98305726 0.98305976 0.98306227 0.9830582 0.98305297 0.98305076
00000000: c2a9 7b3f 7ba9 7b3f b8a9 7b3f cba8 7b3f
00000010: eda9 7b3f 4ba9 7b3f 82a9 7b3f c2a9 7b3f
00000020: 40a9 7b3f 3ca9 7b3f 6da9 7b3f 9aa9 7b3f
00000030: abaa 7b3f 04a9 7b3f 43a9 7b3f 87a9 7b3f
00000040: e5a9 7b3f eaa9 7b3f 7ba9 7b3f e8a9 7b3f
00000050: 29a9 7b3f 67a9 7b3f 54a9 7b3f a7a9 7b3f
00000060: 9ba9 7b3f 86a9 7b3f 0daa 7b3f eda9 7b3f
00000070: 08a9 7b3f 1eaa 7b3f 21aa 7b3f 3ca9 7b3f
00000080: e3a9 7b3f 98a9 7b3f 8aaa 7b3f d0a8 7b3f
00000090: 98aa 7b3f b8a9 7b3f fda9 7b3f 79a8 7b3f
000000a0: e2a9 7b3f f6a9 7b3f daa9 7b3f 5aa7 7b3f
000000b0: 76a9 7b3f bfa9 7b3f 88a9 7b3f cca9 7b3f
000000c0: 10a9 7b3f b3a8 7b3f c3a9 7b3f 7ea9 7b3f
000000d0: 93a9 7b3f 25a9 7b3f daa9 7b3f 23a9 7b3f
000000e0: 99a9 7b3f d0a9 7b3f 61a9 7b3f 76a9 7b3f
000000f0: 31a9 7b3f cda9 7b3f c8a9 7b3f c9a9 7b3f
00000100: b0aa 7b3f 81a9 7b3f 6da9 7b3f 8aa9 7b3f
00000110: a0a9 7b3f b7a9 7b3f 37a8 7b3f a0a9 7b3f
00000120: 9eaa 7b3f 97a9 7b3f 07a9 7b3f 5aa9 7b3f
00000130: e9a9 7b3f e2a9 7b3f b8a9 7b3f 7ba9 7b3f
00000140: 05a9 7b3f 59a9 7b3f 01aa 7b3f 37a9 7b3f
00000150: d1a9 7b3f 89a9 7b3f 85a9 7b3f cea9 7b3f
00000160: 78a9 7b3f 86a9 7b3f a7a9 7b3f 85a9 7b3f
00000170: 0ca8 7b3f 30a9 7b3f 6ca9 7b3f caa8 7b3f
00000180: d8a9 7b3f c7aa 7b3f c5a9 7b3f 7ea9 7b3f
00000190: 90a9 7b3f 83a9 7b3f 40aa 7b3f 9da9 7b3f
000001a0: 91a9 7b3f 3aa9 7b3f 36a9 7b3f 05ab 7b3f
000001b0: a9a9 7b3f a1a9 7b3f 32a9 7b3f b0aa 7b3f
000001c0: 2fa8 7b3f 1ca9 7b3f 96a9 7b3f 42aa 7b3f
000001d0: 31a9 7b3f 61a9 7b3f 76a9 7b3f c2a8 7b3f
000001e0: c7a9 7b3f 2eaa 7b3f 93a9 7b3f 8ca9 7b3f
000001f0: cda9 7b3f efa9 7b3f c0aa 7b3f b9a9 7b3f
00000200: 6da9 7b3f 20a8 7b3f 82a9 7b3f 88aa 7b3f
00000210: b2a9 7b3f 81a9 7b3f cea9 7b3f a7a9 7b3f
00000220: aea9 7b3f eda9 7b3f d7a9 7b3f 69a9 7b3f
00000230: d5a9 7b3f 11a9 7b3f dca9 7b3f eda9 7b3f
00000240: 98a9 7b3f 82a9 7b3f d2a9 7b3f 10a9 7b3f
00000250: afa9 7b3f 6aa9 7b3f 64a9 7b3f 85a9 7b3f
00000260: 71a9 7b3f baaa 7b3f 5ca9 7b3f 5da9 7b3f
00000270: 94a9 7b3f d5a8 7b3f afa9 7b3f a1a9 7b3f
00000280: 6caa 7b3f e2a9 7b3f 3da9 7b3f a1aa 7b3f
00000290: 1fa9 7b3f 64aa 7b3f 3ea9 7b3f 7caa 7b3f
000002a0: 94a9 7b3f a8a8 7b3f 6da9 7b3f d8a9 7b3f
000002b0: 70aa 7b3f d0a9 7b3f 71a9 7b3f 0aa9 7b3f
000002c0: b3a9 7b3f 62a9 7b3f 9aa9 7b3f dea9 7b3f
000002d0: d7a9 7b3f 3ea9 7b3f cba9 7b3f dda9 7b3f
000002e0: 94a9 7b3f 90a9 7b3f 8da9 7b3f 5aa9 7b3f
000002f0: 18aa 7b3f aaaa 7b3f 91a9 7b3f b8a9 7b3f
00000300: 60a9 7b3f 2ca9 7b3f aea9 7b3f 93a9 7b3f
00000310: 06a9 7b3f 74a9 7b3f c7a8 7b3f a7a9 7b3f
00000320: 6ba9 7b3f 9fa9 7b3f d2a9 7b3f 8da9 7b3f
00000330: 83a9 7b3f 32aa 7b3f baa9 7b3f 62a9 7b3f
00000340: 99a9 7b3f 95a9 7b3f 1ea9 7b3f e7a9 7b3f
00000350: 36a9 7b3f 99aa 7b3f 8fa9 7b3f 82a9 7b3f
00000360: baa9 7b3f a7aa 7b3f 23a9 7b3f 4fa9 7b3f
00000370: d4a9 7b3f cfa9 7b3f 72a9 7b3f dba9 7b3f
00000380: 2caa 7b3f b8a9 7b3f 87a9 7b3f aba9 7b3f
00000390: 02aa 7b3f 54a9 7b3f 32aa 7b3f fba9 7b3f
000003a0: b7a9 7b3f 7aa9 7b3f 9aa9 7b3f 83a9 7b3f
000003b0: 91a9 7b3f 66a9 7b3f d3a9 7b3f 68a9 7b3f
000003c0: b9a9 7b3f 40a9 7b3f 58a9 7b3f a9a9 7b3f
000003d0: bba9 7b3f c6a9 7b3f 8ea9 7b3f 51a9 7b3f
000003e0: eca9 7b3f d5a9 7b3f a4a9 7b3f cea9 7b3f
000003f0: f8a9 7b3f b4a9 7b3f 5ca9 7b3f 37a9 7b3f

ln1.bias f4 [400]
0.000274547 0.0001261885 -0.00024585388 0.00016180647 0.00018043442 0.00016994053 -6.419847e-05 0.00024227164
-0.00040929756 -0.00045611412 0.000233411 -1.1848072e-05 0.00020766717 -0.0001305442 -3.2502194e-05 -0.00023274169
-0.00020441918 -0.000102976104 0.00032748774 0.00033131908 4.156419e-05 -4.4150995e-05 0.00019574583 -0.00014661442
7.6437595e-05 -0.00047522446 0.0006314347 0.00031027602 0.00014242667 1.5796062e-05 0.00016436682 -0.00018439411
0.00027092974 7.112162e-05 -0.0002869937 8.88798e-05 -0.00015136127 4.042346e-05 5.7114365e-05 0.00015704705
-0.00017965677 1.7549505e-07 -3.5241323e-05 0.00032076667 1.145958e-05 0.00036870432 -0.00010778113 6.136179e-05
0.00053438824 0.0003543013 3.9168975e-05 7.2112474e-05 0.00016470175 0.0001726645 8.4743144e-05 -4.095872e-05
-6.162736e-05 0.0005676401 0.00023465166 4.1710377e-05 0.000113122296 0.00037982274 0.00019827823 1.2450452e-05
-0.00039800728 -0.00016005605 -0.0002083628 -0.00017531555 0.00063585374 -0.00012672557 3.767392e-05 0.00034261617
-0.00040714 0.00015856206 -0.00016613884 -0.0002729203 0.00024976104 0.00023208896 0.0002914522 0.00040087962
0.00028796293 -0.00030436798 5.819718e-05 -0.0006063966 4.5714558e-05 0.00038742102 -8.343707e-05 -0.00031683364
-0.00024985737 -1.4172857e-05 0.0002364137 6.4747735e-05 0.00031370405 -0.00013890643 0.00026224263 -0.0005129343
-0.00021519621 -0.00025906952 5.6348188e-05 1.2517559e-05 -0.00011557391 -2.2175062e-05 -0.00010306391 2.6272483e-05
0.0002542316 -0.00037173775 0.00020343324 -4.122536e-06 0.0002766298 0.00019597114 -0.000112263464 0.00038420942
0.000303604 0.00012854263 0.00014478971 -6.413812e-06 -0.00022688805 -0.00016523617 -0.00025741 0.00032474773
-0.00016078244 -6.994187e-05 -4.0097388e-05 0.00025373822 -4.3362434e-05 0.0003508759 0.00031665032 8.0319754e-05
-0.00053894415 -0.00025494277 0.00029548607 -0.00010801299 0.00011852542 0.00021528012 -8.3708575e-05 0.00021521463
0.00013207414 0.00031221332 5.5790213e-05 0.00011365999 2.3646317e-05 0.00034496258 -4.72821e-05 -2.6716458e-05
-2.2102834e-06 6.1582185e-05 0.00032625487 -0.00016397303 0.00015175568 1.7750195e-05 -5.893952e-05 8.602695e-05
2.7532476e-05 0.00023921579 9.887583e-05 0.00012536057 -0.00017970109 2.5870986e-05 0.0005375671 -3.2642663e-05
0.00033829478 9.1259666e-05 -3.472955e-05 -0.00026193834 8.983032e-05 -1.7198645e-05 -0.000319582 -2.0483958e-05
0.0002175999 5.266825e-05 5.991816e-05 0.00017504887 -6.999126e-05 0.00049499195 -0.00022166217 -0.00043955838
0.0002331874 0.00016106784 1.0640117e-05 0.00040270443 -0.00022029554 -1.6828733e-05 -0.00034614524 -9.91842e-05
0.0003177897 0.00026005588 -0.00027308226 0.00011430278 -0.00015404417 -0.00020778431 0.0001403759 5.970599e-05
6.948879e-05 0.00023235612 0.00011537808 -0.00019705933 -0.00049151684 -0.00015466906 1.7275384e-05 0.00012969083
-0.00015521381 -0.00023625801 0.00015335332 0.00012517915 -0.00015226608 -0.00015331728 -0.00032944503 -0.000111065296
2.7609547e-05 0.00013432773 -0.00030398063 8.4558276e-05 -1.4003229e-05 -0.00011703062 1.8279898e-05 -0.00026080277
-0.00010591606 -0.00014554158 -6.2291124e-06 -7.1855793e-06 6.29469e-05 4.610193e-05 -0.0003370197 -2.6036927e-05
-0.0002462592 9.742009e-05 -0.00043952634 -6.173554e-05 -8.017802e-05 -0.00040643133 -9.0299705e-05 0.00045301375
0.0004705116 -4.9315437e-05 0.00018164921 0.00043788058 0.00010626776 -2.2805716e-05 0.00019306259 -4.951417e-05
0.00017547695 4.578421e-05 0.0002028891 0.0003640403 -0.00052006025 0.00028790982 7.2814684e-05 -0.00032626028
0.00013479652 0.00018232803 -0.00018675998 -0.00018328957 0.00030789684 0.00013889051 0.0001755736 1.991501e-05
00000000: 13f1 8f39 7851 0439 f3e5 80b9 98aa 2939
00000010: ff32 3d39 1032 3239 4ba2 86b8 4c0a 7e39
00000020: fd96 d6b9 9a22 efb9 cabf 7439 15c7 46b7
00000030: 3bc1 5939 b1e2 08b9 f752 08b8 1f0c 74b9
00000040: 5b59 56b9 e0f4 d7b8 a9b2 ab39 e5b4 ad39
00000050: 3655 2e38 c52e 39b8 1f41 4d39 82bc 19b9
00000060: 1f4d a038 8c27 f9b9 de86 253a 8bac a239
00000070: 5e58 1539 c981 8437 e259 2c39 eb59 41b9
00000080: 930b 8e39 2127 9538 a477 96b9 fb64 ba38
00000090: bbb6 1eb9 5c8c 2938 158e 6f38 ffac 2439
000000a0: 3f62 3cb9 b66f 3c34 15d0 13b8 932c a839
000000b0: 8542 4037 a84e c139 8e08 e2b8 5caf 8038
000000c0: 3016 0c3a 84c1 b939 5e49 2438 173b 9738
000000d0: cab3 2c39 460d 3539 21b8 b138 17cb 2bb8
000000e0: f03d 81b8 afcd 143a d30c 7639 2df2 2e38
000000f0: 123c ed38 f222 c739 e8e8 4f39 49e2 5037
00000100: a2ab d0b9 b8d4 27b9 f77b 5ab9 e9d4 37b9
00000110: 6caf 263a a3e1 04b9 1004 1e38 2aa1 b339
00000120: 6875 d5b9 ae43 2639 8e35 2eb9 be16 8fb9
00000130: 5cf2 8239 e85c 7339 0dce 9839 272d d239
00000140: bbf9 9639 9493 9fb9 bf18 7438 96f6 1eba
00000150: a2bd 3f38 c51e cb39 f0fa aeb8 b11c a6b9
00000160: 4aff 82b9 f5c7 6db7 d2e5 7739 2dc9 8738
00000170: a578 a439 69a7 11b9 9c7d 8939 7076 06ba
00000180: 4ba6 61b9 b9d3 87b9 6857 6c38 8202 5237
00000190: 4560 f2b8 9504 bab7 0424 d8b8 ba63 dc37
000001a0: 634a 8539 cce5 c2b9 b250 5539 5154 8ab6
000001b0: a008 9139 9a7d 4d39 fd6e ebb8 b76f c939
000001c0: 0a2d 9f39 66c9 0639 b1d2 1739 3a36 d7b6
000001d0: cce8 6db9 3f43 2db9 fcf4 86b9 e742 aa39
000001e0: b597 28b9 c1ad 92b8 3e2e 28b8 2b08 8539
000001f0: 0fe0 35b8 c4f5 b739 1604 a639 5771 a838
00000200: ee47 0dba d7a9 85b9 78eb 9a39 0885 e2b8
00000210: da90 f838 d1bc 6139 b38c afb8 3dab 6139
00000220: 627d 0a39 90b0 a339 4900 6a38 be5c ee38
00000230: 145c c637 18dc b439 c550 46b8 281d e0b7
00000240: 6154 14b6 af25 8138 300d ab39 2df0 2bb9
00000250: 9b20 1f39 41e6 9437 d435 77b8 5e69 b438
00000260: 8bf5 e637 00d6 7a39 8f5b cf38 3973 0339
00000270: 256e 3cb9 8505 d937 84eb 0c3a cbe9 08b8
00000280: 285d b139 a962 bf38 92aa 11b8 c554 89b9
00000290: 4963 bc38 cf45 90b7 928d a7b9 f7d4 abb7
000002a0: 872b 6439 1ae8 5c38 a250 7b38 538d 3739
000002b0: 46c8 92b8 59c2 013a fc6d 68b9 8774 e6b9
000002c0: c483 7439 52e4 2839 f482 3237 1322 d339
000002d0: 22ff 66b9 6e2b 8db7 d47a b5b9 1d01 d0b8
000002e0: 039d a639 1c58 8839 7b2c 8fb9 d6b5 ef38
000002f0: eb86 21b9 ade0 59b9 de31 1339 d26c 7a38
00000300: 83ba 9138 9fa4 7339 23f7 f138 b6a1 4eb9
00000310: 23d9 00ba a92e 22b9 9bea 9037 9efd 0739
00000320: e4c0 22b9 07bc 77b9 78cd 2039 8642 0339
00000330: 9da9 1fb9 cbc3 20b9 5db9 acb9 baeb e8b8
00000340: 0d9b e737 53da 0c39 975f 9fb9 e154 b138
00000350: 69ef 6ab7 566e f5b8 c857 9937 5bbc 88b9
00000360: 401f deb8 859c 18b9 ab03 d1b6 a81b f1b6
00000370: 5c02 8438 925d 4138 05b2 b0b9 e069 dab7
00000380: 5a1c 81b9 034e cc38 3a70 e6b9 0478 81b8
00000390: 3f25 a8b8 4a16 d5b9 495f bdb8 7a82 ed39
000003a0: ffae f639 0cd8 4eb8 1779 3e39 5693 e539
000003b0: 12dc de38 e74e bfb7 d870 4a39 6fad 4fb8
000003c0: 3c00 3839 6c08 4038 a1be 5439 a9dc be39
000003d0: a754 08ba 9af2 9639 16b4 9838 ea0d abb9
000003e0: 2a58 0d39 4f2f 3f39 00d5 43b9 6b31 40b9
000003f0: 376d a139 23a3 1139 2e1a 3839 290f a737

layer_2.weight f4 [300, 400]
0.003423317 -0.016239315 0.015872877 -0.0043956493 0.0022972575 0.001732898 0.020193748 -0.00039590464
-0.00607778 -0.0029172879 0.0017758558 -0.008305831 0.019914338 -0.01263605 0.0017336574 -0.023345081
0.0015686208 -0.00018145413 -0.0067163426 0.011386944 -0.029111566 0.001729709 0.001806129 -0.012046493
0.023216654 0.016959658 0.003243874 0.0017604892 0.013778768 -0.0069735562 -0.025531726 0.032008138
-0.005688522 0.001806138 -0.004692108 0.02620631 0.034267027 -0.018871797 -0.0053482847 -0.024501197
0.017886871 0.031775825 -0.0047840304 0.0004165708 -0.00022033097 -0.0009424393 0.0239998 -0.031071687
-0.0032943152 0.0018243553 -0.028800528 0.0069816615 0.017935047 -0.02329047 0.005820161 0.0015389606
0.031389814 -0.03167313 0.027231177 -0.0055580814 0.026710505 -0.011440198 0.001740286 0.00039132175
0.015563725 0.009703496 0.013492243 -0.0034731398 -0.024456639 0.0013662381 0.030790795 0.0274187
-0.014908439 0.018817442 0.00807702 0.00064997876 0.012775265 0.0018716471 0.0017288721 -0.018054329
-0.0031289724 0.033305008 0.015529848 -0.024971716 0.0011816799 0.016927844 -0.007382453 0.0015570078
0.011496426 0.026232526 0.02971265 -0.020375587 -0.03178384 0.019839335 0.0018640691 0.029251028
0.020962771 -0.0073709693 0.0028118347 0.0036226213 -0.0048603998 0.029300647 -0.004655186 -0.0038270336
-0.030313099 0.024496391 -0.034093235 0.02350775 -0.004275355 0.0007124053 0.0013636629 0.03393651
-0.016550798 -0.020801192 0.014913756 -0.010443466 -0.006588539 0.01440192 -0.007152973 0.015654847
-0.006160002 0.022656286 0.03379458 0.0017291821 -0.003811091 0.01416994 0.0014584536 -0.0033305818
0.029317193 -0.0042622895 0.0045920247 -0.004131309 0.0006395957 0.0018738306 0.0017320508 0.007846605
0.022102801 0.016011903 -0.007584022 0.028934857 0.018622162 0.004951275 -0.0033050843 -0.0139468005
-0.015399698 0.0017833118 -0.022209955 0.0042712563 -0.030040355 -0.028699854 -0.008873248 0.014330298
0.023471495 -0.02702871 -0.016074497 0.0018205225 -0.0031306334 -0.02591832 0.0026346492 -0.026422786
0.001731656 0.00699054 0.030199979 -0.02664668 0.022418356 -0.0020230964 0.027691316 0.03415039
-0.001304034 0.001131663 -0.00066181074 0.023638643 -0.0081432015 0.017724508 0.007007164 0.030853674
0.019915929 0.024963405 -0.025678279 -0.012163364 -0.019643556 0.010883706 -0.00056026306 0.0061889407
0.00540264 0.0017393429 0.0056270943 -0.013014178 0.018149428 -0.027755061 -0.03046558 0.0042111147
0.030998299 -0.0063741296 0.031801194 -0.00490481 -0.022231715 0.0011367516 0.013668455 -0.011902919
0.03188198 -0.008697134 -0.00788965 -0.0073965914 -0.02293835 0.030663729 -0.013954217 -0.008813451
-0.0029536576 0.026297968 0.009944679 0.0054690503 -0.0018771419 0.011521647 0.0017563348 0.02412998
0.0019245577 0.020872006 0.020085309 0.0017465007 -0.032479346 0.0002604961 -0.022716034 -0.00080573105
0.0016813357 0.024079055 -0.02102156 -0.026596619 0.007897001 0.017655602 -0.0057559856 0.0025031245
0.024409726 -0.004076966 -0.002135083 0.015226644 0.029174112 -0.004384327 0.019804062 0.0017301398
-0.00041681426 0.0018344148 -0.033084717 0.010497601 -0.012968947 -0.027345808 0.0013920768 -0.007423711
-0.01718336 -0.0016082552 -0.0036754785 0.0036106568 0.0017288022 -0.006123854 0.0019140071 -0.0173121
00000000: bb59 603b 5008 85bc d607 823c 6109 90bb
00000010: 968d 163b 6822 e33a 5c6d a53c 6c91 cfb9
00000020: 1d28 c7bb f82f 3fbb d5c3 e83a 2e15 08bc
00000030: 6523 a33c 6f07 4fbc e43b e33a 2f3e bfbc
00000040: 2e9a cd3a b944 3eb9 c414 dcbb 4e90 3a3c
00000050: 617b eebc 67b7 e23a a2bb ec3a a75e 45bc
00000060: da30 be3c fbee 8a3c 2d97 543b 37c0 e63a
00000070: 57c0 613c 6e82 e4bb e927 d1bc f71a 033d
00000080: c866 babb efbb ec3a 41c0 99bb 9eae d63c
00000090: 955b 0c3d 0799 9abc aa40 afbb bcb6 c8bc
000000a0: 7d87 923c 5e27 023d 5bc3 9cbb 3067 da39
000000b0: a508 67b9 080e 77ba 3b9b c43c 0d8a febc
000000c0: 70e5 57bb 351f ef3a 16ef ebbc 6cc6 e43b
000000d0: 85ec 923c a8cb bebc 0db7 be3b f3b6 c93a
000000e0: 9b92 003d afbb 01bd eb13 df3c 9120 b6bb
000000f0: fdcf da3c ab6f 3bbc 4f1a e43a 512a cd39
00000100: fefe 7e3c 69fb 1e3c 920e 5d3c 9e9d 63bb
00000110: 4a59 c8bc 5813 b33a fa3c fc3c 2e9d e03c
00000120: 8642 74bc 0927 9a3c 7a55 043c 5663 2a3a
00000130: 584f 513c 0e52 f53a 529b e23a ace6 93bc
00000140: 720f 4dbb d56a 083d e770 7e3c 7c91 ccbc
00000150: 99e2 9a3a 43ac 8a3c 81e8 f1bb 8314 cc3a
00000160: 815b 3c3c 98e5 d63c f267 f33c b4ea a6bc
00000170: c62f 02bd 1a86 a23c c853 f43a da9f ef3c
00000180: 1eba ab3c 2c88 f1bb c246 383b 8069 6d3b
00000190: fd43 9fbb e907 f03c 888a 98bb f8ce 7abb
000001a0: 2d53 f8bc a8ac c83c 59a5 0bbd 5393 c03c
000001b0: 4718 8cbb b6c0 3a3a efbc b23a 0301 0b3d
000001c0: 8a95 87bc 4367 aabc d458 743c 121b 2bbc
000001d0: ace4 d7bb 08f6 6b3c 7d63 eabb 983e 803c
000001e0: d8d9 c9bb ad99 b93c 2f6c 0a3d b9a5 e23a
000001f0: 7fc3 79bb 0929 683c 9529 bf3a e445 5abb
00000200: 9c2a f03c adaa 8bbb b278 963b ef5f 87bb
00000210: 8aaa 273a 529b f53a fb05 e33a 0c8f 003c
00000220: ef10 b53c 652b 833c 6383 f8bb cb08 ed3c
00000230: 818d 983c 4e3e a23b 1d9a 58bb 1f81 64bc
00000240: 044f 7cbc 04be e93a a7f1 b5bc e5f5 8b3b
00000250: 3117 f6bc f51b ebbc 1961 11bc a0c9 6a3c
00000260: 4b47 c03c 506b ddbc aaae 83bc 999e ee3a
00000270: 502b 4dbb a852 d4bc 14aa 2c3b 9974 d8bc
00000280: bcf8 e23a e610 e53b f265 f73c 234a dabc
00000290: b3a6 b73c ed95 04bb e6d8 e23c 48e1 0b3d
000002a0: 1fec aaba 4f54 943a 5e7d 2dba d4a5 c13c
000002b0: 106b 05bc fd32 913c 5a9c e53b d8c0 fc3c
000002c0: bb26 a33c 0e80 cc3c 415b d2bc d948 47bc
000002d0: 86eb a0bc 9251 323c 9ede 12ba 99cc ca3b
000002e0: a108 b13b aafa e33a 7d63 b83b 6b39 55bc
000002f0: 1cae 943c 955e e3bc f492 f9bc 64fd 893b
00000300: 25f0 fd3c 13de d0bb f841 023d 87b8 a0bb
00000310: 491f b6bc 0eff 943a a8f1 5f3c 7604 43bc
00000320: ae96 023d 6d7e 0ebc 9743 01bc 1b5f f2bb
00000330: 35e9 bbbc 8032 fb3c 3aa0 64bc 4b66 10bc
00000340: 2792 41bb d66e d73c 02ef 223c b835 b33b
00000350: 6e0a f6ba 4ac5 3c3c d134 e63a 3cac c53c
00000360: 7141 fc3a c5fb aa3c f289 a43c d7ea e43a
00000370: 1009 05bd 3293 8839 fa16 babc b237 53ba
00000380: 4460 dc3a 7041 c53c 6835 acbc 27e1 d9bc
00000390: 6c62 013c 7ba2 903c b59c bcbb 760b 243b
000003a0: e8f6 c73c 1298 85bb c0ec 0bbb 2d79 793c
000003b0: 8cfe ee3c 67aa 8fbb 213c a23c dcc5 e23a
000003c0: dd87 dab9 bf70 f03a d783 07bd 21fe 2b3c
000003d0: b57b 54bc 5104 e0bc 5976 b63a 9a42 f3bb
000003e0: 1ec4 8cbc 17cc d2ba 4ce0 70bb c5a0 6c3b
000003f0: fa98 e23a 9caa c8bb 6cdf fa3a 1bd2 8dbc

layer_2.bias f4 [300]
-0.009981544 0.0077913133 0.0001467782 0.023823194 -0.02248962 0.00076659315 -0.0266102 -0.025812719
0.010589479 -0.030754743 0.02572228 0.0016914888 0.014602293 -0.0031264946 -0.0011053833 -0.00014971908
0.0063603967 -3.064629e-05 -0.012865203 0.0016042609 -0.00032897835 0.0044939495 -0.021969384 0.015258433
0.0066429703 0.001611821 0.008363719 -0.01712382 -0.0064021875 -0.01343196 0.011030956 -0.028063731
0.007017432 0.033162124 -0.012288545 0.00181732 -0.001932918 -0.0023474705 -0.013065169 -0.013837918
0.026888998 -0.0203481 -0.018182077 0.011799569 -0.00018203282 5.436062e-06 0.017662799 -0.033267565
-0.0093522705 0.0054177167 0.005868729 0.033299226 -0.00020411274 -0.026351795 -0.004336379 -0.023894524
-0.027113695 -0.017481675 -0.0015079525 0.013874597 -0.016927207 -0.026367355 0.0065821344 0.027729332
0.028572373 -0.012642712 -0.00017855882 -0.00043107898 -0.016719254 0.026745476 0.00012102527 -0.014564169
-0.026852855 0.012760088 0.029683545 0.00011502282 -6.665436e-07 -0.0005058278 0.01480219 -0.019134352
0.006698699 0.017407523 -0.015794972 -0.005606382 -0.007899411 -0.014954887 0.024923366 -0.013914763
0.0011159015 0.03117329 -0.00034035722 0.03278591 0.00035171298 0.025230892 0.0018299216 0.014376107
0.016202025 -0.008280595 -0.030092482 -0.024758141 0.030597549 -0.0050136135 -0.0055577895 -0.00695473
0.007960875 0.024227042 0.014948084 0.020031264 0.030563582 -0.0056535453 -0.00057761435 0.017020876
-0.005870998 -0.00584695 -0.0008551917 0.007496991 -0.012771544 0.0023974201 -0.00042173505 -0.011384567
-0.005824163 0.013381385 -0.02041803 0.030291457 -0.00012351618 0.030339155 0.0064435755 -0.021733979
-0.00030460613 0.0019552377 0.003881891 0.0011741456 0.006984848 0.008868639 -0.0010006785 0.002315659
-0.0002918709 0.027966589 -0.020183815 0.023165328 0.0060158693 0.00048610516 0.009422744 -0.0017838777
-0.028015317 0.023889313 0.0010579563 0.024299921 0.029426698 -0.027153097 0.008249562 0.02455465
-0.014130945 0.0066212546 -0.02387711 0.012199314 -0.027902618 0.014351382 1.0173858e-05 -0.03375357
0.027127042 -0.00022864496 0.02173463 -0.018168094 0.006963585 0.028674994 -0.031909898 0.030115405
0.0034221048 -0.029896412 -0.02388137 -0.033586502 0.007755988 0.004277373 -0.00864055 0.013823311
-0.022160802 0.024099115 0.0014389732 0.0058408245 -0.01062358 -0.030964725 0.033585016 0.03145093
-0.0006638809 0.005075251 -0.02644701 0.012897504 -0.029695518 -0.025077788 -4.8161164e-05 0.006597726
-0.008189435 0.032899223 -0.0021178771 0.00091488636 0.008362193 0.008120835 -0.014489752 0.0012062527
0.020867713 -0.00023208006 0.030121287 0.0079617305 1.4598962e-09 0.012916242 0.01613221 -0.009743492
0.03200986 -0.0046958183 -0.0011123689 -0.0147729 -0.0034057777 -0.018921511 -0.007845785 -0.0033764585
-0.0028186985 0.013015616 0.0051869717 -0.012463006 0.0020676262 -0.02037296 -0.0060893185 0.0071956515
0.005409846 0.003756468 0.005610017 -0.0024764482 0.028893508 -0.027113594 0.023007842 0.0061382125
-0.0076724454 -0.00078979664 2.1172358e-08 -0.0060695633 0.01922716 0.010980541 -0.019464694 0.00030682716
0.02880207 0.007981863 0.024651358 0.013325039 0.030326525 0.00018904173 -0.00057129835 0.022785384
-0.006876616 -0.01476487 -0.012741473 0.021296995 -0.01631626 -0.022240605 -0.012683429 -0.01253933
00000000: a189 23bc 464e ff3b 79e8 1939 dc28 c33c
00000010: 273c b8bc 32f5 483a a2fd d9bc 3275 d3bc
00000020: 7e7f 2d3c 5ff1 fbbc 88b7 d23c f2b4 dd3a
00000030: 753e 6f3c e0e5 4cbb 82e2 90ba e9fd 1cb9
00000040: e06a d03b 348a 00b8 93c8 52bc 1046 d23a
00000050: ba7a acb9 fb41 933b 23f9 b3bc 82fe 793c
00000060: 46ad d93b bd43 d33a fb07 093c 4147 8cbc
00000070: 71c9 d1bb b911 5cbc 2fbb 343c e9e5 e5bc
00000080: 7cf2 e53b 02d5 073d e555 49bc 2433 ee3a
00000090: f759 fdba 05d8 19bb 4a0f 56bc 6fb8 62bc
000000a0: 5146 dc3c 0fb1 a6bc 94f2 94bc fb52 413c
000000b0: 10e0 3eb9 6b67 b636 93b1 903c 9243 08bd
000000c0: 443a 19bc 1a87 b13b 784e c03b c564 083d
000000d0: 1907 56b9 b8df d7bc 2f18 8ebb 73be c3bc
000000e0: 8a1d debc bb35 8fbc 7da6 c5ba 4752 633c
000000f0: edaa 8abc 5a00 d8bc f2ae d73b a028 e33c
00000100: 9c10 ea3c 6123 4fbc 853b 3bb9 7102 e2b9
00000110: d1f6 88bc 5419 db3c f2ce fd38 8d9e 6ebc
00000120: 85fa dbbc b00f 513c e82a f33c 6838 f138
00000130: 87ec 32b5 8799 04ba e284 723c a5bf 9cbc
00000140: c380 db3b 399a 8e3c 7564 81bc beb5 b7bb
00000150: 886c 01bc 5805 75bc 162c cc3c bffa 63bc
00000160: 7143 923a 215f ff3c f971 b2b9 854a 063d
00000170: 1e66 b839 04b1 ce3c fbd9 ef3a c389 6b3c
00000180: 1cba 843c 55ab 07bc 8284 f6bc 96d1 cabc
00000190: b6a7 fa3c 3d49 a4bb 1e1e b6bb 81e4 e3bb
000001a0: 546e 023c ca77 c63c cfe8 743c 9b18 a43c
000001b0: 7a60 fa3c 6041 b9bb 0b6b 17ba 5d6f 8b3c
000001c0: 8061 c0bb c697 bfbb f22e 60ba 52a9 f53b
000001d0: bd3f 51bc 091e 1d3b 521c ddb9 5686 3abc
000001e0: 9fd8 bebb 993d 5b3c b643 a7bc ca25 f83c
000001f0: 1f84 01b9 d289 f83c a124 d33b 750b b2bc
00000200: 8bb3 9fb9 7223 003b 5367 7e3b cae5 993a
00000210: 27e1 e43b c54d 113c 3329 83ba 50c2 173b
00000220: 4006 99b9 301a e53c 8758 a5bc 37c5 bd3c
00000230: c520 c53b eedb fe39 da61 1a3c 01d1 e9ba
00000240: 6180 e5bc 85b3 c33c 1fab 8a3a a110 c73c
00000250: 4210 f13c 2c70 debc 2c29 073c d526 c93c
00000260: 7b85 67bc 1cf7 d83b ee99 c3bc a2df 473c
00000270: 0894 e4bc 0f22 6b3c 63b0 2a37 2f41 0abd
00000280: 8839 de3c 6ac0 6fb9 d30c b23c 41d5 94bc
00000290: c92e e43b d2e7 ea3c f4b3 02bd 95b4 f63c
000002a0: 6445 603b 52e9 f4bc dda2 c3bc 0092 09bd
000002b0: f125 fe3b 3529 8c3b 1891 0dbc 2b7b 623c
000002c0: 928a b5bc 826b c53c ee9b bc3a 6364 bf3b
000002d0: 860e 2ebc bca9 fdbc 7190 093d b1d2 003d
000002e0: 4b08 2eba 4b4e a63b 66a7 d8bc 0d50 533c
000002f0: 0444 f3bc ef6f cdbc a800 4ab8 bd31 d83b
00000300: fb2c 06bc 56c1 063d 15cc 0abb fcd4 6f3a
00000310: 9401 093c 400d 053c 6d66 6dbc 201b 9e3a
00000320: c4f2 aa3c 845a 73b9 ebc0 f63c eb71 023c
00000330: 88a5 c830 a59e 533c b227 843c 2ba3 1fbc
00000340: c51c 033d 61df 99bb e8cc 91ba 090a 72bc
00000350: 7833 5fbb 4901 9bbc 9b8b 00bc 9347 5dbb
00000360: eab9 38bb 733f 553c 79f7 a93b a331 4cbc
00000370: 0381 073b 32e5 a6bc e888 c7bb 80c9 eb3b
00000380: 1445 b13b 132f 763b 3cd4 b73b e84b 22bb
00000390: 14b2 ec3c 541d debc f17a bc3c 0f23 c93b
000003a0: 2369 fbbb 5b0a 4fba 82de b532 30e3 c6bb
000003b0: 4782 9d3c bae7 333c 6c74 9fbc a5dd a039
000003c0: 52f2 eb3c 5cc6 023c a5f1 c93c 4451 5a3c
000003d0: 556f f83c 8139 4639 2fc3 15ba 6aa8 ba3c
000003e0: 3c55 e1bb 5ae8 71bc 9cc1 50bc 0977 ae3c
000003f0: ada9 85bc ee31 b6bc 28ce 4fbc c371 4dbc

ln2.weight f4 [300]
0.98307306 0.98305225 0.98305416 0.983044 0.9830548 0.98305655 0.98305666 0.9830511
0.9830565 0.9830562 0.9830415 0.98305535 0.9830573 0.98302794 0.98305935 0.9830562
0.98303455 0.9830524 0.98305833 0.9830561 0.9830464 0.98303956 0.9830593 0.98306197
0.9830592 0.9830514 0.98305637 0.9830571 0.98304754 0.9830565 0.9830739 0.9830571
0.9830543 0.9830592 0.98305637 0.9830593 0.9830564 0.9830579 0.9830571 0.98305106
0.9830625 0.983034 0.9830586 0.9830578 0.9830549 0.9830676 0.98305655 0.9830561
0.9830585 0.9830602 0.9830561 0.98305124 0.98305696 0.98305637 0.9830558 0.9830546
0.98305964 0.983085 0.98305845 0.98305726 0.98307467 0.983059 0.9830384 0.98305625
0.98305935 0.9830539 0.9830563 0.9830609 0.98305595 0.98307496 0.9830561 0.98306054
0.9830544 0.9830636 0.9830561 0.9830587 0.9830577 0.9830556 0.9830546 0.98305845
0.9830451 0.9830562 0.98305964 0.98305625 0.9830577 0.98307425 0.98307335 0.98304623
0.9830455 0.98304874 0.98305416 0.9830462 0.9830624 0.98305666 0.9830482 0.9830568
0.98306024 0.9830512 0.9830592 0.9830605 0.98305964 0.98304725 0.9830555 0.98305976
0.9830596 0.9830617 0.98306084 0.98306006 0.98304135 0.9830605 0.98305637 0.9830599
0.9830575 0.9830532 0.98305064 0.9830614 0.98306024 0.98305905 0.9830617 0.98305655
0.9830561 0.98304206 0.98306715 0.98305976 0.9830346 0.983061 0.9830561 0.98305637
0.98305625 0.9830351 0.9830462 0.983054 0.9830485 0.98306674 0.9830591 0.98305637
0.98305786 0.98305434 0.9830561 0.98307323 0.9830611 0.9830568 0.98306006 0.98305637
0.9830561 0.9830623 0.9830563 0.9830561 0.98305756 0.98305637 0.98305887 0.98305935
0.9830645 0.9830563 0.98305905 0.98307323 0.9830617 0.9830562 0.9830494 0.98305887
0.9830562 0.9830562 0.9830603 0.9830561 0.98305917 0.9830452 0.9830587 0.9830594
0.98304504 0.98305553 0.9830537 0.98305684 0.98304427 0.98306054 0.9830561 0.98305243
0.9830708 0.9830566 0.98306215 0.9830564 0.9830546 0.98306483 0.9830483 0.9830605
0.9830711 0.98307157 0.9830564 0.98304224 0.9830619 0.98307455 0.9830639 0.9830559
0.9830724 0.9830576 0.9830528 0.98306024 0.98306787 0.98305625 0.9830563 0.9830546
0.983048 0.98305637 0.98306006 0.9830625 0.983059 0.9830603 0.9830637 0.9830593
0.9830581 0.9830561 0.9830558 0.9830665 0.98304915 0.98305625 0.98304427 0.983059
0.9830731 0.9830559 0.98305714 0.98305804 0.9830542 0.98306173 0.98305637 0.9830546
0.98305476 0.98306054 0.9830532 0.98307335 0.9830564 0.98305714 0.9830493 0.9830562
0.98305464 0.9830561 0.9830561 0.9830597 0.98305696 0.98305994 0.9830563 0.9830581
0.9830561 0.983045 0.9830573 0.98305416 0.9830585 0.98305964 0.9830542 0.9830562
0.9830581 0.9830561 0.98305 0.9830564 0.9830562 0.9830583 0.9830745 0.9830671
00000000: adaa 7b3f 50a9 7b3f 70a9 7b3f c6a8 7b3f
00000010: 7ba9 7b3f 98a9 7b3f 9aa9 7b3f 3da9 7b3f
00000020: 97a9 7b3f 92a9 7b3f 9ca8 7b3f 84a9 7b3f
00000030: a5a9 7b3f b8a7 7b3f c7a9 7b3f 92a9 7b3f
00000040: 27a8 7b3f 52a9 7b3f b6a9 7b3f 91a9 7b3f
00000050: eea8 7b3f 7ba8 7b3f c6a9 7b3f f3a9 7b3f
00000060: c5a9 7b3f 42a9 7b3f 95a9 7b3f a1a9 7b3f
00000070: 01a9 7b3f 97a9 7b3f bbaa 7b3f a1a9 7b3f
00000080: 72a9 7b3f c5a9 7b3f 95a9 7b3f c6a9 7b3f
00000090: 96a9 7b3f afa9 7b3f a1a9 7b3f 3ca9 7b3f
000000a0: fca9 7b3f 1ea8 7b3f baa9 7b3f ada9 7b3f
000000b0: 7ca9 7b3f 51aa 7b3f 98a9 7b3f 91a9 7b3f
000000c0: b9a9 7b3f d5a9 7b3f 91a9 7b3f 3fa9 7b3f
000000d0: 9fa9 7b3f 95a9 7b3f 8ba9 7b3f 77a9 7b3f
000000e0: cca9 7b3f 75ab 7b3f b8a9 7b3f a4a9 7b3f
000000f0: c8aa 7b3f c1a9 7b3f 68a8 7b3f 93a9 7b3f
00000100: c7a9 7b3f 6ca9 7b3f 94a9 7b3f e1a9 7b3f
00000110: 8ea9 7b3f cdaa 7b3f 91a9 7b3f dba9 7b3f
00000120: 74a9 7b3f 0eaa 7b3f 91a9 7b3f bca9 7b3f
00000130: aba9 7b3f 88a9 7b3f 77a9 7b3f b8a9 7b3f
00000140: d8a8 7b3f 92a9 7b3f cca9 7b3f 93a9 7b3f
00000150: aba9 7b3f c1aa 7b3f b2aa 7b3f eba8 7b3f
00000160: dfa8 7b3f 15a9 7b3f 70a9 7b3f eaa8 7b3f
00000170: faa9 7b3f 9aa9 7b3f 0ca9 7b3f 9ca9 7b3f
00000180: d6a9 7b3f 3ea9 7b3f c5a9 7b3f daa9 7b3f
00000190: cca9 7b3f fca8 7b3f 86a9 7b3f cea9 7b3f
000001a0: cba9 7b3f eea9 7b3f e0a9 7b3f d3a9 7b3f
000001b0: 99a8 7b3f daa9 7b3f 95a9 7b3f d0a9 7b3f
000001c0: a8a9 7b3f 60a9 7b3f 35a9 7b3f e9a9 7b3f
000001d0: d6a9 7b3f c2a9 7b3f eea9 7b3f 98a9 7b3f
000001e0: 91a9 7b3f a5a8 7b3f 4aaa 7b3f cea9 7b3f
000001f0: 28a8 7b3f e3a9 7b3f 91a9 7b3f 95a9 7b3f
00000200: 93a9 7b3f 30a8 7b3f eaa8 7b3f 6da9 7b3f
00000210: 11a9 7b3f 43aa 7b3f c3a9 7b3f 95a9 7b3f
00000220: aea9 7b3f 73a9 7b3f 91a9 7b3f b0aa 7b3f
00000230: e4a9 7b3f 9ca9 7b3f d3a9 7b3f 95a9 7b3f
00000240: 91a9 7b3f f9a9 7b3f 94a9 7b3f 91a9 7b3f
00000250: a9a9 7b3f 95a9 7b3f bfa9 7b3f c7a9 7b3f
00000260: 1daa 7b3f 94a9 7b3f c2a9 7b3f b0aa 7b3f
00000270: eea9 7b3f 92a9 7b3f 20a9 7b3f bfa9 7b3f
00000280: 92a9 7b3f 92a9 7b3f d7a9 7b3f 91a9 7b3f
00000290: c4a9 7b3f daa8 7b3f bca9 7b3f c8a9 7b3f
000002a0: d7a8 7b3f 87a9 7b3f 68a9 7b3f 9da9 7b3f
000002b0: caa8 7b3f dba9 7b3f 91a9 7b3f 53a9 7b3f
000002c0: 87aa 7b3f 99a9 7b3f f6a9 7b3f 96a9 7b3f
000002d0: 77a9 7b3f 23aa 7b3f 0ea9 7b3f daa9 7b3f
000002e0: 8caa 7b3f 94aa 7b3f 96a9 7b3f a8a8 7b3f
000002f0: f2a9 7b3f c6aa 7b3f 13aa 7b3f 8da9 7b3f
00000300: a2aa 7b3f aaa9 7b3f 59a9 7b3f d6a9 7b3f
00000310: 56aa 7b3f 93a9 7b3f 94a9 7b3f 77a9 7b3f
00000320: 09a9 7b3f 95a9 7b3f d3a9 7b3f fca9 7b3f
00000330: c1a9 7b3f d7a9 7b3f 10aa 7b3f c6a9 7b3f
00000340: b2a9 7b3f 91a9 7b3f 8ba9 7b3f 3faa 7b3f
00000350: 1ca9 7b3f 93a9 7b3f caa8 7b3f c1a9 7b3f
00000360: aeaa 7b3f 8da9 7b3f a2a9 7b3f b1a9 7b3f
00000370: 71a9 7b3f efa9 7b3f 95a9 7b3f 77a9 7b3f
00000380: 7aa9 7b3f dba9 7b3f 60a9 7b3f b2aa 7b3f
00000390: 96a9 7b3f a2a9 7b3f 1ea9 7b3f 92a9 7b3f
000003a0: 78a9 7b3f 91a9 7b3f 91a9 7b3f cda9 7b3f
000003b0: 9fa9 7b3f d1a9 7b3f 94a9 7b3f b2a9 7b3f
000003c0: 91a9 7b3f d6a8 7b3f a5a9 7b3f 70a9 7b3f
000003d0: b9a9 7b3f cca9 7b3f 71a9 7b3f 92a9 7b3f
000003e0: b2a9 7b3f 91a9 7b3f 2aa9 7b3f 96a9 7b3f
000003f0: 92a9 7b3f b5a9 7b3f c5aa 7b3f 49aa 7b3f
