RL/Model_Repository/temp/TD3_Guest_frank_actor.pth (torch, 513791 bytes, 9 tensors)

layer_1.weight f4 [400, 13]
00000000: e487 b7b1 42d9 6537 7bef 1bb3 8ba1 453b
00000010: d883 9531 9207 14b2 eb65 91b1 abec b0af
00000020: 9eba 363a bcd4 acb1 e6b2 b739 5b61 5fb6
00000030: 7731 3bb6 67ac 0933 18ca d1af c2f4 acb3
00000040: 87a4 20b0 d642 2032 1391 e2ad 771e bdb2
00000050: 33bc abad 2148 63b3 6f13 e1b1 5302 9bb0
00000060: 949a feb2 186c 7eb5 d9a9 7c2c 1051 21aa
00000070: 8b5a 85aa f611 4dbc ba84 ea3a 31f0 b5b8
00000080: 3787 0030 faf5 ce2f 8d66 92ac e7f9 ceac
00000090: c7d0 3fad 97cd 0033 330c a9b2 0423 5631
000000a0: a799 4c2f 37ba 9d30 68e3 14b1 3013 9b3a
000000b0: 0aa1 7dae 28fb 19b1 93ca 6eae 5682 3230
000000c0: b8eb fdb0 cfe7 ccb0 af7c 53bc 601b 8ab6
000000d0: 905c 09b1 15f1 9636 f9fc 2232 4d39 91b1
000000e0: eb4d 3db0 5caf df33 3193 9331 a83c a4ae
000000f0: 6eab 56b4 3715 2fb1 7e98 8ab2 4644 4fb5
00000100: b638 63b6 26a7 d9b4 20e5 5637 0200 0080
00000110: 0200 0080 0200 0080 91c1 cb3a 0600 0000
00000120: ba0b 093c 6478 06b7 5834 59bc ae63 dab1
00000130: 0600 0080 0400 0000 420c 8cb1 7107 7e37
00000140: c70c 2530 8005 e2b0 4bed 4eae cb05 e72f
00000150: f0d7 16b1 dec5 1fb0 ec0c f6ae 8ffd a4b1
00000160: 59c3 d130 be21 bbb5 190c 8bb4 1619 67ac
00000170: b4b0 9c2a 67aa 41ab 5f51 28ab a40b 34a8
00000180: c76c 343b 3190 6c2d 9bf6 faaa d179 16bc
00000190: f226 4e2c c516 812d cbb5 2ba5 de5c a4b1
000001a0: 2898 5b32 3f19 37b1 0e94 a6b8 904e 27b1
000001b0: 906e 02ba 900a 33af 9f30 703c 4b18 3d33
000001c0: 3d5e 0eb0 31e2 91bb 489d 86b1 26fb 88b6
000001d0: d853 9fb5 101b 28ba ab8f 47b2 7cc2 34b2
000001e0: 14aa 53b3 b28a dcae 2d41 a6b1 fb9f b8b2
000001f0: f472 66b0 e3a7 71b0 1580 d4b2 33a0 6db3
00000200: 6d1d 6336 e7b2 2cb4 9f43 4f39 374b b7ae
00000210: e1a1 91b8 d23e d4ad f424 222b bbde 12ab
00000220: 3d85 67b7 23e8 5fbc c3c5 002b c82f 67af
00000230: 8b64 04af eea9 91b6 5a0e 20b3 62e6 9633
00000240: cdf3 05b4 8775 2734 370a 7b33 d636 3f35
00000250: 4dd9 1a3b 026c 1633 499c 5432 1640 e531
00000260: bd61 4834 1dc2 b633 c36b 103b 6852 8739
00000270: cd02 abb2 218d 96b2 a91d efb1 3f4c 9bb2
00000280: 33a0 103b 34b3 13b3 00e5 a2b3 ec11 34ba
00000290: 3dd3 2fb1 28a2 eab3 fd28 f0b2 b15d 1939
000002a0: 5623 4fb6 0200 0080 0300 0000 9c65 c9a8
000002b0: 0200 0000 1000 0080 0200 0080 0500 0000
000002c0: e430 07aa 0a00 0000 7433 6530 d2f3 b3bb
000002d0: 0900 0080 0400 0000 ab3a 8db2 ad32 5eb2
000002e0: ddd4 b6b2 56e9 a1b2 aa78 2ab0 8e34 aeb3
000002f0: 09f8 c430 244f 00b3 5cf6 71b4 88e1 9fb2
00000300: 7a44 ecb2 1a2d 5739 f2b0 aa36 2a43 1ab2
00000310: a3ea 8d33 9c1e 82b3 c9b5 2431 6e0f 5fae
00000320: 012e 0dbb bae3 1fb1 e322 4138 1f3a 132e
00000330: 6214 20b2 10fb 90ae 0c59 8db4 44a7 afba
00000340: cfb3 72b2 b79f 8331 946f 75b2 9739 00b1
00000350: bd04 4eba f124 8fb0 4735 1fb4 21d9 153c
00000360: 725a c5b3 f10e e3b2 18ff 52b2 95df 53b7
00000370: 03da 28b7 12c7 52b2 a630 34b2 c1db 30b2
00000380: afcf 61bc 05d2 2fb0 1cc1 3ab0 ac0b 88b2
00000390: b98b 1eb0 65f3 4abc 9e90 c6b5 9509 8bb2
000003a0: 19dc 4bb2 8ba6 5337 0100 0080 2700 0000
000003b0: 0e99 5d35 62a3 8dad 3310 20b9 20df 9bbb
000003c0: 0100 0080 0400 0080 ce62 862b 0200 0080
000003d0: 43c9 aa12 6a04 5896 0600 0080 0200 0080
000003e0: 0200 0080 0200 0000 0a00 0080 13bd 89a5
000003f0: e953 432f 0300 0000 0400 0000 1985 e1bb
-5.34145e-09 1.3700048e-05 -3.6306556e-08 0.0030156102 4.3514596e-09 -8.616455e-09 -4.231642e-09 -3.2182376e-10
0.0006970557 -5.030044e-09 0.0003503777 -3.3286258e-06 -2.7893964e-06 3.2054597e-08 -3.8160475e-10 -8.053895e-08
-5.844147e-10 9.3284225e-09 -2.5757651e-11 -2.201635e-08 -1.9524026e-11 -5.2918157e-08 -6.550571e-09 -1.1278395e-09
-2.9639786e-08 -9.477967e-07 3.5905638e-12 -1.4327797e-13 -2.3688373e-13 -0.012516489 0.0017892339 -8.675492e-05
4.675828e-10 3.7645959e-10 -4.160955e-12 -5.882617e-12 -1.0903451e-11 2.9989305e-08 -1.9679737e-08 3.1161003e-09
1.860828e-10 1.1476179e-09 -2.16661e-09 0.001183128 -5.766857e-11 -2.2407196e-09 -5.4294857e-11 6.494124e-10
-1.8475168e-09 -1.4908837e-09 -0.012908145 -4.1159074e-06 -1.998874e-09 4.498414e-06 9.48716e-09 -4.2265698e-09
-6.886853e-10 1.04161444e-07 4.294997e-09 -7.468631e-11 -1.9992669e-07 -2.547791e-09 -1.613466e-08 -7.721286e-07
-3.3858646e-06 -4.0541016e-07 1.2808741e-05 -3e-45 -3e-45 -3e-45 0.0015545358 8e-45
0.008364612 -8.015053e-06 -0.013257109 -6.3559673e-09 -8e-45 6e-45 -4.07593e-09 1.5141312e-05
6.004481e-10 -1.6445227e-09 -4.7049736e-11 4.202277e-10 -2.195062e-09 -5.812505e-10 -1.118908e-10 -4.8018545e-09
1.5262273e-09 -1.3942406e-06 -2.589957e-07 -3.2841e-12 2.783378e-13 -6.8803855e-13 -5.9798515e-13 -9.994531e-15
0.0027530657 1.3447064e-11 -4.4580038e-13 -0.009184317 2.929598e-12 1.4675714e-11 -1.489348e-16 -4.783586e-09
1.2782074e-08 -2.6644356e-09 -7.943074e-05 -2.4346356e-09 -0.00049755815 -1.6283708e-10 0.01466003 4.4027086e-08
-5.179322e-10 -0.004452013 -3.917794e-09 -4.0823534e-06 -1.1870825e-06 -0.0006412724 -1.1615991e-08 -1.05216e-08
-4.928195e-08 -1.0029079e-10 -4.8386455e-09 -2.149317e-08 -8.383687e-10 -8.791387e-10 -2.4738293e-08 -5.5326563e-08
3.3842764e-06 -1.6083833e-07 0.00019766249 -8.3352374e-11 -6.944291e-05 -2.4129507e-11 5.7605244e-13 -5.217872e-13
-1.3799695e-05 -0.013666186 4.5749185e-13 -2.1026303e-10 -1.204105e-10 -4.341119e-06 -3.7265956e-08 7.026826e-08
-1.2475284e-07 1.5595843e-07 5.8449782e-08 7.123284e-07 0.0023628057 3.502283e-08 1.2375559e-08 6.672063e-09
1.8662008e-07 8.5103444e-08 0.0022036887 0.00025810604 -1.9908294e-08 -1.7526476e-08 -6.9591874e-09 -1.8079048e-08
0.0022068142 -3.438909e-08 -7.585368e-08 -0.00068691256 -2.5585927e-09 -1.092597e-07 -2.7958317e-08 0.0001462612
-3.0865972e-06 -3e-45 4e-45 -2.2359549e-14 3e-45 -2.2e-44 -3e-45 7e-45
-1.2007371e-13 1.4e-44 8.3382834e-10 -0.005491712 -1.3e-44 6e-45 -1.644124e-08 -1.2933623e-08
-2.1284388e-08 -1.8848976e-08 -6.2017114e-10 -8.112066e-08 1.4331373e-09 -2.98743e-08 -2.2534499e-07 -1.8612596e-08
-2.7505155e-08 0.000205208 5.086994e-06 -8.979251e-09 6.608504e-08 -6.0591645e-08 2.3968474e-09 -5.0718034e-11
-0.0021542313 -2.3266993e-09 4.6047277e-05 3.3475552e-11 -9.31786e-09 -6.5929595e-11 -2.6328087e-07 -0.001340129
-1.4127138e-08 3.8307593e-09 -1.4286247e-08 -1.8659188e-09 -0.00078589824 -1.0415119e-09 -1.4827411e-07 0.009146006
-9.189979e-08 -2.6433073e-08 -1.228161e-08 -1.2628637e-05 -1.006434e-05 -1.2268872e-08 -1.048844e-08 -1.0294515e-08
-0.013782426 -6.3963085e-10 -6.794083e-10 -1.5837792e-08 -5.7678623e-10 -0.012387131 -1.4794239e-06 -1.6186087e-08
-1.18662e-08 1.2615356e-05 -1e-45 5.5e-44 8.255164e-07 -1.61024e-11 -0.00015264824 -0.004756823
-1e-45 -6e-45 9.548696e-13 -3e-45 1.0778123e-27 -1.7449734e-25 -8e-45 -3e-45
-3e-45 3e-45 -1.4e-44 -2.3893833e-16 1.7764958e-10 4e-45 6e-45 -0.0068823216

layer_1.bias f4 [400]
00000000: 13b8 09b2 84c6 c9b0 73ab 5936 5841 7934
00000010: 26c5 08b3 eac4 ccbb e218 b532 6d06 17ad
00000020: cfdc 8bbb 2b20 b8b2 e558 13ae 33a0 a534
00000030: 187e 4e3c 1ba9 d1ba 6813 a2b3 d27b 8a39
00000040: c4cc 213c c584 02b3 71cd e8ba 0100 0000
00000050: dc84 69b0 4f64 68b3 a614 f33b ccc2 b934
00000060: f355 48b2 e585 712d c899 2d33 3178 98ad
00000070: 7d48 893b b1cc 282f 4c6f 81b7 afe9 5832
00000080: 0c97 fcb0 e4c0 b8b1 f8ee cfaf 52a1 27b2
00000090: 482d 2832 7f99 d7b1 8398 26b2 82aa cdaf
000000a0: 729d 943b 49c4 e134 9291 6cb0 c6b6 8733
000000b0: b0f9 5dba 5212 7bb1 3d9f 8e3a 167b b7b3
000000c0: 814e ccb3 0500 0080 0219 8bb1 9baa c5b2
000000d0: eced 32b1 09a5 1bb3 c075 87b3 0600 0000
000000e0: 2f04 51b2 b051 7734 73fd e2af cef6 7bb2
000000f0: e7da d13b 1f72 39b2 07b0 ebaf fe4c 12bc
00000100: dcaa c3ae 8298 19b4 943c 13b2 2385 a7b7
00000110: 22c4 0034 57e6 8ea7 5a1c 2033 19e9 83b2
00000120: 0600 0080 dfa6 762e d5a9 0ab3 3297 0000
00000130: 1833 2b34 b7a4 97b7 6287 e495 3c1d a5b3
00000140: 91c3 40b3 b9bd d0b2 4ab0 ca3b b766 54ae
00000150: b6cd 9c35 da3a a9a5 34e0 e734 91cd 71b2
00000160: ca59 5f35 675f bdb1 8e76 c7b0 0b00 0080
00000170: 4463 363a 6aab c3b3 e978 bcb3 2f7d 1133
00000180: 43a1 d4ad 3732 86b2 3858 6d29 dc92 d5b4
00000190: 2a11 bb34 c76b 34b3 f1dd 6435 b980 f532
000001a0: 2f1a 472c c3f5 8835 5c36 9732 3d46 6b32
000001b0: d1ab 0ab4 650a c8b2 40d6 9133 51e1 ee30
000001c0: 6c34 cc34 fa73 01b2 fde3 20b0 f807 fa2d
000001d0: b275 9db1 0888 10bc 3a28 2fb3 2b23 d031
000001e0: 6897 5a35 05e1 47bc a0ce 8533 0600 0000
000001f0: 8d37 80b2 6722 0000 6135 0032 eff4 aebb
00000200: 656b 6c34 0200 0080 5904 9335 7373 b1ba
00000210: 04c1 ac3b d5fc 8532 2d60 cc33 31d3 0380
00000220: 1b5f 04b8 fdb1 30b3 8c23 beb1 06c2 91b3
00000230: 65a2 84b8 655d a1b2 816b 508d fdf0 18b4
00000240: f399 a331 087f 99b1 3e02 6c3c a50c c3b1
00000250: d516 c135 2c28 6035 7e0b c1b4 54b0 38bc
00000260: 2691 1bb2 09a3 4cb2 6302 27b1 f26b bf2c
00000270: ff35 9327 3614 d9b1 54b7 1dba ba1e 19b1
00000280: 0421 0635 b306 fe30 efcf 79b1 908a 17b1
00000290: e0d4 2cad dc85 9538 1211 f1ba 0300 0080
000002a0: 2581 0532 fc0a 1433 668b af3a b6f8 b9b3
000002b0: 7cdf 4bb2 4855 7a35 498e ed31 b477 20bb
000002c0: ee87 99ae 459c 9d34 467f b7b4 61bc aeb3
000002d0: c2e0 1f38 bf22 013b e8d1 5831 17ad 27ad
000002e0: 0abf 3ab2 1216 91b3 ad45 dfb1 0600 0000
000002f0: 4705 9732 edbb 0e33 7c4d 3b29 c737 f7b1
00000300: 862a ef34 4a99 90b2 4e8a ceb2 9ece 8bb4
00000310: 566f adad 970d 0133 042b 63b1 2537 68b2
00000320: 8ddc 6db4 fd5d 5633 d287 8bb1 529d af33
00000330: b6ed 4cad 0200 0000 fc63 98b3 de7b 9a33
00000340: a17d ddb2 dce3 323a b0ea 0fb4 cdaf 8ab2
00000350: 5bb1 e1b1 d657 a4a7 1619 333c 8a70 b0b3
00000360: a818 3933 8f32 10bc 3f3a 05b7 c1c0 77b4
00000370: af89 ab38 596e 1a35 324e 699d 6a2d eab1
00000380: 0c3d 04b2 2552 d5a0 c6ed 1635 adfe 13b7
00000390: 0d00 0000 ee1e 0db4 0300 0080 ac40 b332
000003a0: 4c8d 8234 b466 88b2 87c4 09b0 0dfa a7b6
000003b0: f49d a6b1 4bd5 b83a 0045 4abb 4d7b eebb
000003c0: e724 a2bb 18ce d320 72b3 0434 2655 48b3
000003d0: 0200 0000 10f1 f932 730e 1fb2 6bfb 15bc
000003e0: 2d50 2830 1711 593c 8cdb 4035 f002 da2d
000003f0: 2430 2dad 6e41 ceb1 5e4e b0b4 0238 a53b
-8.016303e-09 -1.4681096e-09 3.2435316e-06 2.3213704e-07 -3.1844273e-08 -0.00624906 2.1082489e-08 -8.584783e-12
-0.004268266 -2.1435048e-08 -3.3502884e-11 3.0850205e-07 0.012603305 -0.0015995832 -7.547243e-08 0.00026413664
0.00987548 -3.0388737e-08 -0.0017761422 1e-45 -8.495371e-10 -5.410794e-08 0.007418233 3.460067e-07
-1.1661075e-08 1.37289945e-11 4.0419565e-08 -1.7333775e-11 0.0041895495 1.5352232e-10 -1.5429825e-05 1.2625988e-08
-1.8378343e-09 -5.377034e-09 -3.7822878e-10 -9.757359e-09 9.789183e-09 -6.274774e-09 -9.697149e-09 -3.7410436e-10
0.0045353705 4.2052332e-07 -8.606317e-10 6.319674e-08 -0.00084676873 -3.6535721e-09 0.0010881197 -8.543991e-08
-9.51377e-08 -7e-45 -4.0482755e-09 -2.30114e-08 -2.6037652e-09 -3.623885e-08 -6.307846e-08 8e-45
-1.2166352e-08 2.3033385e-07 -4.1289247e-10 -1.466624e-08 0.006404269 -1.0794365e-08 -4.2871326e-10 -0.008929489
-8.897924e-11 -1.4304717e-07 -8.5703e-09 -1.9969948e-05 1.1992282e-07 -3.9662652e-15 3.727869e-08 -1.5356408e-08
-8e-45 5.6082135e-11 -3.228509e-08 5.4239e-41 1.5944204e-07 -1.8077304e-05 -9.230206e-26 -7.688729e-08
-4.488135e-08 -2.4300663e-08 0.006185566 -4.829445e-11 1.1682775e-06 -2.9356706e-16 4.3190232e-07 -1.4074787e-08
8.3204634e-07 -5.51147e-09 -1.4512851e-09 -1.5e-44 0.0006957541 -9.111575e-08 -8.7764256e-08 3.3874297e-08
-2.4173224e-11 -1.5622488e-08 5.270109e-14 -3.9781196e-07 3.4843953e-07 -4.200754e-08 8.5259586e-07 2.858029e-08
2.8294136e-12 1.0204316e-06 1.7603433e-08 1.3694771e-08 -1.2914758e-07 -2.3287791e-08 6.7910605e-08 1.7380818e-09
3.8036103e-07 -7.535158e-09 -5.853165e-10 2.8425248e-11 -4.582682e-09 -0.008821495 -4.078195e-08 6.057595e-09
8.1431654e-07 -0.012199645 6.23088e-08 8e-45 -1.4926423e-08 1.2341e-41 7.4627176e-09 -0.005339257
2.2018283e-07 -3e-45 1.0953619e-06 -0.0013538435 0.0052720327 1.5598212e-08 9.5169845e-08 -3.51268e-40
-3.1559826e-05 -4.1140073e-08 -5.533769e-09 -6.787381e-08 -6.324499e-05 -1.8785338e-08 -6.422435e-31 -1.4243774e-07
4.7614264e-09 -4.467328e-09 0.014404831 -5.6766845e-09 1.4386266e-06 8.350496e-07 -3.5957413e-07 -0.011272509
-9.05519e-09 -1.1911433e-08 -2.4303055e-09 5.440531e-12 4.085924e-15 -6.317829e-09 -0.0006016393 -2.2281896e-09
4.9966934e-07 1.8482836e-09 -3.6352465e-09 -2.2052156e-09 -9.824336e-12 7.129807e-05 -0.0018391928 -4e-45
7.770983e-09 3.4468925e-08 0.0013392984 -8.659974e-08 -1.186697e-08 9.325636e-07 6.9137838e-09 -0.002448541
-6.9817804e-11 2.935723e-07 -3.417901e-07 -8.136772e-08 3.8117876e-05 0.0019704548 3.1551455e-09 -9.531285e-12
-1.0870062e-08 -6.756103e-08 -6.4980754e-09 8e-45 1.7581113e-08 3.323287e-08 4.1589548e-14 -7.1949873e-09
4.454816e-07 -1.6833514e-08 -2.404445e-08 -2.60411e-07 -1.9717266e-11 3.0047513e-08 -3.30573e-09 -1.3516716e-08
-2.2152581e-07 4.991124e-08 -4.0608734e-09 8.177689e-08 -1.164884e-11 3e-45 -7.0962386e-08 7.193715e-08
-2.5784916e-08 0.0006824115 -1.3403292e-07 -1.614526e-08 -6.568525e-09 -4.5614376e-15 0.010931274 -8.2161094e-08
4.3096094e-08 -0.008801117 -7.940979e-06 -2.3073791e-07 8.179561e-05 5.753005e-07 -3.087772e-21 -6.8154593e-09
-7.697292e-09 -3.6137962e-19 5.622536e-07 -8.821179e-06 1.8e-44 -1.31429e-07 -4e-45 2.0867752e-08
2.4317194e-07 -1.5879188e-08 -5.011959e-10 -5.0060976e-06 -4.849193e-09 0.0014101652 -0.003086388 -0.007277882
-0.0049482468 3.5881172e-19 1.235874e-07 -4.664357e-08 3e-45 2.9097038e-08 -9.2583035e-09 -0.009154181
6.123198e-10 0.013248703 7.1845056e-07 2.4785035e-11 -9.844601e-12 -6.0028276e-09 -3.2839574e-07 0.005042077

ln1.weight f4 [400]
00000000: f4c2 363f aac3 363f 0cc2 363f 11c4 363f
00000010: afc2 363f 32c3 363f b2c3 363f 0ec4 363f
00000020: 26c3 363f ffc3 363f dac2 363f c8c2 363f
00000030: 65c2 363f a1c4 363f 24c5 363f eec2 363f
00000040: e8c1 363f 54c5 363f ecc2 363f 7fc2 363f
00000050: 57c2 363f e5c2 363f 23c2 363f b2c0 363f
00000060: afc2 363f f9c3 363f d6c2 363f e5c2 363f
00000070: e8c3 363f bfc2 363f aac3 363f eac2 363f
00000080: efc3 363f 05c3 363f 59c3 363f 3ac2 363f
00000090: 51c3 363f 44c2 363f 6dc3 363f 27c4 363f
000000a0: 72c4 363f 9cc2 363f 1ac3 363f a6c3 363f
000000b0: 83c2 363f 5fc3 363f c6c4 363f 9ac1 363f
000000c0: 13c2 363f 2cc3 363f 21c5 363f d0c2 363f
000000d0: bfc2 363f 7dc3 363f 21c3 363f dec4 363f
000000e0: e1c0 363f 33c5 363f 65c4 363f 1fc4 363f
000000f0: 0ac7 363f 7dc3 363f a3c2 363f 3fc2 363f
00000100: a4c5 363f 07c3 363f 4cc3 363f 3cc3 363f
00000110: 77c2 363f 44c1 363f d2c2 363f 02c3 363f
00000120: 5dc3 363f e5c2 363f 96c3 363f 50c5 363f
00000130: 91c2 363f 76c4 363f d5c2 363f d6c3 363f
00000140: 35c2 363f b5c3 363f 37c3 363f 7fc2 363f
00000150: c3c1 363f 0cc3 363f 21c3 363f f9c2 363f
00000160: 6cc2 363f 9ec2 363f a5c2 363f 3dc3 363f
00000170: b7c3 363f 28c3 363f 36c2 363f f6c2 363f
00000180: 59c2 363f d8c2 363f 15c1 363f a1c4 363f
00000190: cfc1 363f 78c3 363f bcc2 363f c1c2 363f
000001a0: 6ac4 363f 4ac7 363f 31c4 363f e2c4 363f
000001b0: 2fc5 363f 87c2 363f 7fc3 363f 79c3 363f
000001c0: f4c2 363f 52c3 363f cec3 363f 06c4 363f
000001d0: bdc3 363f 91c2 363f 34c3 363f cfc3 363f
000001e0: dbc2 363f 63c3 363f fcc3 363f 8fc3 363f
000001f0: 67c1 363f f1c3 363f ffc3 363f fac1 363f
00000200: e3c3 363f abc3 363f 87c4 363f 03c3 363f
00000210: d5c5 363f 21c3 363f e2c2 363f 04c4 363f
00000220: 00c2 363f 08c3 363f 5dc5 363f afc2 363f
00000230: 3bc1 363f 9ec3 363f 50c2 363f 49c5 363f
00000240: 06c7 363f 60c3 363f a9c3 363f 21c2 363f
00000250: fec2 363f 59c5 363f 6ac3 363f f5c2 363f
00000260: c0c4 363f 3dc2 363f 92c4 363f 0fc3 363f
00000270: 47c3 363f 9ac3 363f 56c3 363f 0ac4 363f
00000280: 12c2 363f f6c3 363f d9c4 363f a9c3 363f
00000290: bbc0 363f f7c5 363f 19c4 363f 18c2 363f
000002a0: 01c4 363f 62c2 363f 72c2 363f 83c2 363f
000002b0: 77c2 363f 88c2 363f d4c3 363f b9c3 363f
000002c0: 5dc2 363f e2c2 363f 1bc3 363f a3c2 363f
000002d0: 71c3 363f 91c1 363f 54c2 363f 04c2 363f
000002e0: 5ec4 363f 29c2 363f f9c1 363f 37c2 363f
000002f0: 0ac3 363f 2bc3 363f cdc2 363f 83c2 363f
00000300: b7c2 363f f0c3 363f bec3 363f 86c1 363f
00000310: 8ec3 363f 3fc3 363f 80c2 363f 2fc3 363f
00000320: fcc2 363f b4c2 363f fac1 363f 36c3 363f
00000330: aac1 363f c9c3 363f a5c4 363f d8c3 363f
00000340: 81c1 363f a4c2 363f 66c4 363f 77c2 363f
00000350: a9c2 363f 62c2 363f 74c3 363f 5ec5 363f
00000360: 5fc8 363f 99c2 363f cec3 363f 7ac2 363f
00000370: 25c8 363f 50c2 363f 3bc5 363f 05c3 363f
00000380: c7c3 363f 94c1 363f 7fc7 363f 8fc3 363f
00000390: bac2 363f b2c3 363f 2cc1 363f 7dc3 363f
000003a0: d4c3 363f 37c3 363f 91c3 363f d8c3 363f
000003b0: 81c4 363f 42c3 363f 66c2 363f e8c3 363f
000003c0: d2c1 363f 2dc3 363f 4ac2 363f a1c3 363f
000003d0: 38c3 363f b5c3 363f fec2 363f 5fc3 363f
000003e0: b9c0 363f dfc3 363f 08c3 363f 54c3 363f
000003f0: 89c0 363f e9c1 363f 25c3 363f 5ac3 363f
0.71391225 0.7139231 0.7138984 0.71392924 0.71390814 0.71391594 0.7139236 0.71392906
0.7139152 0.71392816 0.7139107 0.7139096 0.7139037 0.7139378 0.7139456 0.7139119
0.7138963 0.7139485 0.7139118 0.7139053 0.7139029 0.71391135 0.7138998 0.7138778
0.71390814 0.7139278 0.71391046 0.71391135 0.7139268 0.7139091 0.7139231 0.71391165
0.7139272 0.71391326 0.71391827 0.71390116 0.7139178 0.71390176 0.71391946 0.71393055
0.713935 0.713907 0.7139145 0.71392286 0.7139055 0.7139186 0.71394 0.7138916
0.71389884 0.7139156 0.71394545 0.7139101 0.7139091 0.7139204 0.71391493 0.71394145
0.7138806 0.7139465 0.71393424 0.7139301 0.7139746 0.7139204 0.7139074 0.71390146
0.71395326 0.7139134 0.7139175 0.71391654 0.7139048 0.7138865 0.7139102 0.7139131
0.7139185 0.71391135 0.7139219 0.71394825 0.71390635 0.71393526 0.7139104 0.7139257
0.71390086 0.71392375 0.71391624 0.7139053 0.71389407 0.7139137 0.71391493 0.71391255
0.71390414 0.7139071 0.71390754 0.7139166 0.7139239 0.71391535 0.7139009 0.71391237
0.713903 0.7139106 0.7138837 0.7139378 0.7138948 0.7139201 0.7139089 0.7139092
0.71393454 0.7139784 0.71393114 0.7139417 0.7139463 0.71390575 0.71392053 0.7139202
0.71391225 0.71391785 0.71392524 0.7139286 0.7139242 0.71390635 0.71391606 0.7139253
0.71391076 0.71391886 0.713928 0.7139215 0.7138886 0.7139273 0.71392816 0.71389735
0.7139265 0.71392316 0.71393627 0.71391314 0.7139562 0.71391493 0.7139112 0.71392846
0.7138977 0.71391344 0.713949 0.71390814 0.71388596 0.7139224 0.7139025 0.71394783
0.71397436 0.7139187 0.71392304 0.7138997 0.71391284 0.7139488 0.7139193 0.7139123
0.71393967 0.71390134 0.7139369 0.71391386 0.7139172 0.71392214 0.7139181 0.7139288
0.7138988 0.7139276 0.71394116 0.71392304 0.71387833 0.7139582 0.7139297 0.71389914
0.7139283 0.71390355 0.7139045 0.7139055 0.7139048 0.7139058 0.7139256 0.713924
0.71390325 0.7139112 0.7139146 0.7139074 0.7139197 0.7138911 0.7139027 0.71389794
0.7139338 0.71390015 0.7138973 0.713901 0.71391356 0.7139155 0.7139099 0.7139055
0.7139086 0.71392727 0.7139243 0.71389043 0.7139214 0.7139167 0.71390533 0.71391577
0.7139127 0.71390843 0.71389735 0.7139162 0.7138926 0.71392494 0.71393806 0.71392584
0.71389014 0.7139075 0.7139343 0.7139048 0.7139078 0.71390355 0.7139199 0.7139491
0.7139949 0.7139068 0.71392524 0.713905 0.71399146 0.7139025 0.713947 0.71391326
0.7139248 0.71389127 0.71398157 0.7139215 0.7139088 0.7139236 0.71388507 0.7139204
0.7139256 0.71391624 0.7139216 0.71392584 0.7139359 0.7139169 0.7139038 0.7139268
0.71389496 0.71391565 0.7139021 0.71392256 0.7139163 0.71392375 0.71391284 0.7139186
0.7138782 0.71392626 0.71391344 0.713918 0.71387535 0.71389633 0.71391517 0.7139183

ln1.bias f4 [400]
00000000: 5866 50b5 f863 51b5 aa1c 67b5 1e78 51b5
00000010: 5799 50b5 a465 51b5 7b94 50b5 9dcb 50b5
00000020: eb52 51b5 bca7 5bb5 c28e 51b5 6ac0 cf34
00000030: a659 4bb5 3c68 51b5 8a6b 48b5 4447 51b5
00000040: ef1f 50b5 00da 69b5 4e65 51b5 dc64 51b5
00000050: 138d 51b5 ead0 50b5 f171 50b5 3ec2 d735
00000060: b6c6 50b5 9866 51b5 8d9e 50b5 4165 51b5
00000070: 92a6 50b5 fb74 51b5 7c93 51b5 1260 51b5
00000080: 7676 51b5 55cc 50b5 1cf8 4fb5 a163 51b5
00000090: 2f32 50b5 1392 50b5 eeaa 50b5 86da 50b5
000000a0: 5fb7 50b5 17ef 2036 088e 50b5 6c50 51b5
000000b0: 7832 ebb4 246d 50b5 e8e3 9536 1961 51b5
000000c0: 7329 50b5 9c65 51b5 da6b 50b5 7731 53b5
000000d0: 407d 50b5 020d 51b5 fe6f 7136 a567 51b5
000000e0: 9cac 3eb5 0f8e 50b5 517c 51b5 b869 50b5
000000f0: df40 51b5 2d89 50b5 9852 51b5 cf70 51b5
00000100: 7b68 51b5 a29b 51b5 7d47 51b5 3688 50b5
00000110: 7181 50b5 47ef 4fb5 107f 50b5 633c 50b5
00000120: d465 51b5 2a6e 51b5 f4b0 45b5 1a68 51b5
00000130: b464 51b5 1967 51b5 3665 51b5 b98a 50b5
00000140: 6a4d 50b5 a9eb 50b5 d74a 50b5 ff6e 51b5
00000150: 6234 cc36 8cbd 51b5 d24f 50b5 4c4d 50b5
00000160: 5171 5837 6176 51b5 2f7c 50b5 af65 51b5
00000170: ac1d 52b5 f575 51b5 9d07 52b5 f171 51b5
00000180: 9e64 51b5 2556 50b5 be88 51b5 f06b 51b5
00000190: 9eec dd35 f365 51b5 1300 6f37 335c 51b5
000001a0: 4a67 51b5 dc74 bc36 c577 51b5 bf74 51b5
000001b0: f266 51b5 b57f 50b5 d85f 50b5 c991 50b5
000001c0: 2083 50b5 c97b 50b5 ba64 51b5 9666 51b5
000001d0: 22b0 50b5 2371 51b5 a655 50b5 6c66 51b5
000001e0: 4f87 50b5 5f86 51b5 0ac0 50b5 3d66 51b5
000001f0: bd55 5db5 8366 51b5 7773 51b5 ee91 51b5
00000200: cd7a 51b5 3066 51b5 7e44 9137 e271 51b5
00000210: 206d 51b5 a088 50b5 deee 8d33 26a8 50b5
00000220: be50 54b5 3fb0 a134 ff61 51b5 f1b2 1e35
00000230: 5363 51b5 4c76 51b5 9764 51b5 967f 55b5
00000240: 546c 51b5 85a1 50b5 7133 50b5 fd59 51b5
00000250: 9d5b b437 de28 9636 5e65 51b5 5865 51b5
00000260: 8472 51b5 ec62 51b5 1168 51b5 7365 51b5
00000270: 1267 51b5 a261 50b5 6c5f 51b5 03c8 50b5
00000280: 726d 51b5 ad66 51b5 c0ac 51b5 8cab 51b5
00000290: 2682 51b5 8fe2 50b5 7578 51b5 5764 51b5
000002a0: 4463 51b5 cc30 50b5 4e7f 50b5 02b6 50b5
000002b0: 4005 51b5 3870 51b5 9bcf 50b5 2e99 51b5
000002c0: 3e71 51b5 003e 50b5 088b 50b5 57ac 50b5
000002d0: c47d 50b5 76f4 6036 65ac 50b5 4f73 51b5
000002e0: d974 51b5 ff6f 9835 19c5 50b5 7964 51b5
000002f0: e70b 55b5 5b80 51b5 798f 51b5 1597 50b5
00000300: 6559 51b5 ef32 51b5 cd3d 50b5 a574 51b5
00000310: 0e66 51b5 bbbb 33b5 37d1 50b5 1966 51b5
00000320: d27c 50b5 c654 3436 0895 50b5 ec27 51b5
00000330: d463 51b5 4b66 51b5 904a 44b5 2413 51b5
00000340: 4518 50b5 1a83 50b5 7bef 50b5 ed3c 51b5
00000350: c779 50b5 ab64 51b5 cd50 51b5 4965 50b5
00000360: 5c5a 50b5 4a8c 51b5 4344 2b37 ba63 51b5
00000370: 0a29 5f36 b78e 3c37 6402 5ab5 467c 50b5
00000380: 8c62 51b5 43b0 54b5 1a99 4a36 80ac b637
00000390: 1365 51b5 14ab 50b5 b837 51b5 3759 50b5
000003a0: c67a 50b5 398f 50b5 1fde 50b5 2a46 51b5
000003b0: 4879 51b5 7790 50b5 356e 50b5 7466 51b5
000003c0: 8180 50b5 9b65 51b5 a619 3836 ef47 51b5
000003d0: 1175 51b5 4aed 50b5 33de 51b5 e065 51b5
000003e0: 4b89 55b5 1088 50b5 4858 3d37 c765 51b5
000003f0: c1c3 51b5 42b5 50b5 e364 51b5 b1fa 50b5
-7.763497e-07 -7.800404e-07 -8.609592e-07 -7.803336e-07 -7.7709177e-07 -7.8006474e-07 -7.7702106e-07 -7.7782335e-07
-7.797923e-07 -8.1827943e-07 -7.806631e-07 3.8696754e-07 -7.575385e-07 -7.801025e-07 -7.4662296e-07 -7.796227e-07
-7.753251e-07 -8.7116496e-07 -7.8005985e-07 -7.8005337e-07 -7.806386e-07 -7.779005e-07 -7.7651845e-07 1.607528e-06
-7.77752e-07 -7.800786e-07 -7.771676e-07 -7.800591e-07 -7.772843e-07 -7.8028796e-07 -7.8073185e-07 -7.799837e-07
-7.803095e-07 -7.778338e-07 -7.7474556e-07 -7.8003546e-07 -7.7559065e-07 -7.7698604e-07 -7.7734774e-07 -7.780403e-07
-7.775288e-07 2.3981027e-06 -7.769272e-07 -7.7975596e-07 -4.3808882e-07 -7.764486e-07 4.467078e-06 -7.7999863e-07
-7.7546355e-07 -7.800643e-07 -7.7642983e-07 -7.8675606e-07 -7.76683e-07 -7.7877496e-07 3.5976987e-06 -7.800939e-07
-7.1031695e-07 -7.769276e-07 -7.803947e-07 -7.763988e-07 -7.7952967e-07 -7.7685655e-07 -7.7978757e-07 -7.8022725e-07
-7.8010606e-07 -7.808504e-07 -7.7962596e-07 -7.768425e-07 -7.76744e-07 -7.7461704e-07 -7.767094e-07 -7.757391e-07
-7.8006747e-07 -7.8018877e-07 -7.364572e-07 -7.8010055e-07 -7.800511e-07 -7.8008594e-07 -7.800585e-07 -7.7687906e-07
-7.759869e-07 -7.782897e-07 -7.7594945e-07 -7.802009e-07 6.085772e-06 -7.8134394e-07 -7.760219e-07 -7.759852e-07
1.2900987e-05 -7.803083e-07 -7.766675e-07 -7.8006536e-07 -7.8274275e-07 -7.803022e-07 -7.8242175e-07 -7.8024374e-07
-7.8004985e-07 -7.7611395e-07 -7.8057553e-07 -7.8015637e-07 1.6534648e-06 -7.8006923e-07 1.4245527e-05 -7.7992735e-07
-7.800887e-07 5.616441e-06 -7.8032855e-07 -7.8028455e-07 -7.800837e-07 -7.7671876e-07 -7.762551e-07 -7.7698184e-07
-7.767685e-07 -7.766617e-07 -7.8005144e-07 -7.800785e-07 -7.7742345e-07 -7.80232e-07 -7.7610673e-07 -7.800761e-07
-7.768294e-07 -7.8054103e-07 -7.776549e-07 -7.8007344e-07 -8.245368e-07 -7.800774e-07 -7.802659e-07 -7.8070923e-07
-7.8037266e-07 -7.800727e-07 1.7317241e-05 -7.802429e-07 -7.8017365e-07 -7.7684854e-07 6.609274e-08 -7.7730726e-07
-7.909365e-07 3.0116823e-07 -7.800117e-07 5.911998e-07 -7.8003103e-07 -7.803071e-07 -7.8004945e-07 -7.9534345e-07
-7.8016205e-07 -7.772108e-07 -7.7560895e-07 -7.798952e-07 2.1500333e-05 4.475106e-06 -7.8006076e-07 -7.800604e-07
-7.802521e-07 -7.800252e-07 -7.8010004e-07 -7.8006195e-07 -7.8008554e-07 -7.762811e-07 -7.7997424e-07 -7.7777094e-07
-7.801783e-07 -7.800798e-07 -7.810995e-07 -7.81082e-07 -7.804796e-07 -7.7815724e-07 -7.8033855e-07 -7.800458e-07
-7.800302e-07 -7.7557047e-07 -7.767129e-07 -7.7750894e-07 -7.7866207e-07 -7.8021867e-07 -7.7788144e-07 -7.8081473e-07
-7.8023356e-07 -7.757626e-07 -7.7688355e-07 -7.7736826e-07 -7.766905e-07 3.3520896e-06 -7.7736905e-07 -7.8026363e-07
-7.8028603e-07 1.1357478e-06 -7.7772853e-07 -7.8004774e-07 -7.9366004e-07 -7.804535e-07 -7.806735e-07 -7.770589e-07
-7.7988653e-07 -7.7932685e-07 -7.757597e-07 -7.802831e-07 -7.8007076e-07 -6.695588e-07 -7.7790486e-07 -7.800714e-07
-7.7667676e-07 2.6871435e-06 -7.770291e-07 -7.791666e-07 -7.8003836e-07 -7.8007423e-07 -7.312419e-07 -7.788642e-07
-7.7521355e-07 -7.7676816e-07 -7.783453e-07 -7.7947226e-07 -7.766325e-07 -7.800506e-07 -7.797615e-07 -7.763343e-07
-7.761753e-07 -7.8062715e-07 1.0208288e-05 -7.800369e-07 3.3253477e-06 1.1238902e-05 -8.121481e-07 -7.766688e-07
-7.800197e-07 -7.923265e-07 3.0189462e-06 2.1776417e-05 -7.800565e-07 -7.773499e-07 -7.793965e-07 -7.7615863e-07
-7.7664697e-07 -7.7694455e-07 -7.7809267e-07 -7.796067e-07 -7.8035055e-07 -7.769626e-07 -7.764641e-07 -7.8007656e-07
-7.7673036e-07 -7.800642e-07 2.7433066e-06 -7.7963244e-07 -7.802892e-07 -7.783134e-07 -7.818191e-07 -7.8006815e-07
-7.954847e-07 -7.7684035e-07 1.1285832e-05 -7.800667e-07 -7.8143427e-07 -7.7749803e-07 -7.8005377e-07 -7.785084e-07

layer_2.weight f4 [300, 400]
00000000: d335 04b8 8de1 04b8 fbfd 01b8 4de3 04b8
00000010: 1f5c 04b8 35e3 04b8 0b59 04b8 ee86 04b8
00000020: 99d9 04b8 e02a 09b8 b2dd 04b8 8215 9237
00000030: 0da0 fcb7 4ce4 04b8 ecd5 f8b7 e4cb 04b8
00000040: 3f19 04b8 c7ac 03b8 02e3 04b8 aee2 04b8
00000050: eee0 04b8 1882 04b8 5f43 04b8 a068 8138
00000060: 3284 04b8 cce3 04b8 cc61 04b8 f7e2 04b8
00000070: 555d 04b8 b8e2 04b8 4be2 04b8 4adf 04b8
00000080: 6ee2 04b8 9684 04b8 afce 03b8 87e0 04b8
00000090: 1025 04b8 6656 04b8 8a72 04b8 feaa 04b8
000000a0: 876b 04b8 ebe6 be38 fe5b 04b8 10d4 04b8
000000b0: 87d7 8fb7 214a 04b8 bdf7 3839 32df 04b8
000000c0: ef15 04b8 30e3 04b8 4f4b 04b8 6e76 04b8
000000d0: 2357 04b8 dc99 04b8 b1fb 1339 7ce4 04b8
000000e0: 6491 ecb7 5453 04b8 bce1 04b8 0b40 04b8
000000f0: 2ea9 04b8 0d5d 04b8 f0e3 04b8 1ae2 04b8
00000100: 13e5 04b8 acde 04b8 e0c0 04b8 5a4d 04b8
00000110: f14b 04b8 f3cf 03b8 ca55 04b8 502c 04b8
00000120: 56e3 04b8 fce2 04b8 cba5 dfb7 d4e4 04b8
00000130: dde1 04b8 2ce4 04b8 f0e2 04b8 fd53 04b8
00000140: fb34 04b8 e093 04b8 cf31 04b8 f6de 04b8
00000150: 3ef4 8539 4fd5 04b8 ef38 04b8 4034 04b8
00000160: d8d7 063a b2de 04b8 4955 04b8 3ee3 04b8
00000170: 9645 04b8 21de 04b8 9f9c 04b8 7de1 04b8
00000180: 8fe2 04b8 802e 04b8 54de 04b8 90e3 04b8
00000190: 0ff2 8438 6ae3 04b8 c8ec 143a 3fdd 04b8
000001a0: 22e4 04b8 4026 7839 f2e3 04b8 35e4 04b8
000001b0: 09df 04b8 474b 04b8 1532 04b8 a062 04b8
000001c0: 5157 04b8 4752 04b8 8ae2 04b8 d1e3 04b8
000001d0: 5e5d 04b8 65e2 04b8 5b30 04b8 9be3 04b8
000001e0: 954d 04b8 0ae3 04b8 da7f 04b8 7de3 04b8
000001f0: 52ae 03b8 c6e3 04b8 17e0 04b8 10e1 04b8
00000200: 90e2 04b8 91e3 04b8 e010 353a 88df 04b8
00000210: 49d8 04b8 7754 04b8 3d6f 8b36 2a6e 04b8
00000220: bbaa 03b8 e7ef 3b37 c9e0 04b8 51e0 be37
00000230: b6e1 04b8 f3e1 04b8 8ae2 04b8 c1eb 03b8
00000240: 1be6 04b8 7a64 04b8 5f28 04b8 66da 04b8
00000250: 6112 613a a517 3939 e3e2 04b8 08e3 04b8
00000260: c6e1 04b8 6fe0 04b8 fce1 04b8 1ae3 04b8
00000270: fde2 04b8 6d43 04b8 59e2 04b8 ff6d 04b8
00000280: d6d9 04b8 cae3 04b8 37de 04b8 63de 04b8
00000290: 97e0 04b8 8cbb 04b8 50e3 04b8 60e2 04b8
000002a0: 41e1 04b8 4416 04b8 3948 04b8 5079 04b8
000002b0: 1daa 04b8 b4e2 04b8 cd86 04b8 4ce2 04b8
000002c0: 93e2 04b8 f71f 04b8 a255 04b8 036a 04b8
000002d0: f149 04b8 cdbc 0d39 a66b 04b8 51e2 04b8
000002e0: a6e3 04b8 35a0 4038 6c77 04b8 77e2 04b8
000002f0: 41c3 03b8 68d2 04b8 74e2 04b8 8f5a 04b8
00000300: 60dc 04b8 d4d1 04b8 cb22 04b8 9cde 04b8
00000310: 7ce3 04b8 2084 cbb7 8883 04b8 b5e0 04b8
00000320: bc4a 04b8 262b e138 fa58 04b8 5eb1 04b8
00000330: 0de2 04b8 a8e3 04b8 4e23 deb7 a39c 04b8
00000340: 5409 04b8 754e 04b8 4888 04b8 fbb2 04b8
00000350: 5a52 04b8 99e2 04b8 2ec2 04b8 623a 04b8
00000360: b6a7 03b8 b7e1 04b8 f4b0 d439 d6e1 04b8
00000370: 9ba9 0339 4aa8 ea39 e8d1 03b8 f048 04b8
00000380: ece1 04b8 9f58 06b8 54b3 f038 43fc 633a
00000390: dbe2 04b8 7372 04b8 0be4 04b8 a83e 04b8
000003a0: 2f53 04b8 e455 04b8 0b88 04b8 10c8 04b8
000003b0: 97e1 04b8 174a 04b8 1333 04b8 c0e3 04b8
000003c0: 5f32 03b8 31e3 04b8 96e4 e438 e94c 02b8
000003d0: f5e1 04b8 5ff6 01b8 7274 04b8 58e3 04b8
000003e0: fab1 06b8 b766 04b8 9fb3 eb39 4fe3 04b8
000003f0: 3be0 04b8 047a 04b8 7cdd 04b8 98a0 04b8
-3.152138e-05 -3.1681313e-05 -3.0992534e-05 -3.1682943e-05 -3.1557047e-05 -3.1682855e-05 -3.155418e-05 -3.1596916e-05
-3.1673906e-05 -3.2703276e-05 -3.1677722e-05 1.7414572e-05 -3.011527e-05 -3.168387e-05 -2.9663519e-05 -3.166114e-05
-3.1494765e-05 -3.1393745e-05 -3.168267e-05 -3.1682364e-05 -3.1680735e-05 -3.159241e-05 -3.1533997e-05 6.170687e-05
-3.159437e-05 -3.1683405e-05 -3.1562333e-05 -3.168263e-05 -3.1558175e-05 -3.16824e-05 -3.1682004e-05 -3.1679207e-05
-3.168213e-05 -3.1594733e-05 -3.1425323e-05 -3.168036e-05 -3.150577e-05 -3.1551717e-05 -3.1577925e-05 -3.16305e-05
-3.1571395e-05 9.102918e-05 -3.1556927e-05 -3.166875e-05 -1.7147291e-05 -3.154029e-05 0.00017639897 -3.167912e-05
-3.149168e-05 -3.1682837e-05 -3.154139e-05 -3.158155e-05 -3.1552405e-05 -3.1614545e-05 0.00014112775 -3.1684045e-05
-2.8201095e-05 -3.1548858e-05 -3.1681484e-05 -3.1530897e-05 -3.1628813e-05 -3.1557913e-05 -3.1683536e-05 -3.1681826e-05
-3.1684594e-05 -3.167863e-05 -3.165088e-05 -3.154329e-05 -3.154198e-05 -3.14265e-05 -3.155115e-05 -3.151252e-05
-3.1682976e-05 -3.1682648e-05 -2.6660875e-05 -3.1684365e-05 -3.1681604e-05 -3.1683754e-05 -3.1682604e-05 -3.1549473e-05
-3.1520594e-05 -3.160897e-05 -3.151764e-05 -3.16789e-05 0.0002554971 -3.166991e-05 -3.1524276e-05 -3.1519914e-05
0.00051438576 -3.1678654e-05 -3.155068e-05 -3.168289e-05 -3.153606e-05 -3.1678126e-05 -3.1617117e-05 -3.1681255e-05
-3.168225e-05 -3.151456e-05 -3.167831e-05 -3.1683187e-05 6.3393374e-05 -3.168305e-05 0.0005681035 -3.1677304e-05
-3.1683718e-05 0.00023665372 -3.1683543e-05 -3.1683787e-05 -3.167897e-05 -3.154136e-05 -3.1517895e-05 -3.1563104e-05
-3.1552572e-05 -3.154788e-05 -3.1682233e-05 -3.1683423e-05 -3.1558207e-05 -3.16821e-05 -3.1516287e-05 -3.1683227e-05
-3.1543506e-05 -3.16827e-05 -3.1590323e-05 -3.1683117e-05 -3.1395182e-05 -3.1683383e-05 -3.1679952e-05 -3.168086e-05
-3.1682255e-05 -3.168319e-05 0.00069071166 -3.1679432e-05 -3.1672684e-05 -3.1549916e-05 4.1554727e-06 -3.157385e-05
-3.139184e-05 1.1201925e-05 -3.16806e-05 2.275422e-05 -3.1681462e-05 -3.1681684e-05 -3.1682233e-05 -3.1452397e-05
-3.1685555e-05 -3.156483e-05 -3.150885e-05 -3.1674652e-05 0.00085858075 0.00017651783 -3.1682557e-05 -3.168269e-05
-3.168152e-05 -3.1680273e-05 -3.1681717e-05 -3.1682757e-05 -3.168265e-05 -3.1534048e-05 -3.1682055e-05 -3.1573694e-05
-3.1674128e-05 -3.1683398e-05 -3.1678206e-05 -3.1678366e-05 -3.1680418e-05 -3.164592e-05 -3.1682954e-05 -3.168208e-05
-3.1681036e-05 -3.149199e-05 -3.1538515e-05 -3.1584234e-05 -3.1629683e-05 -3.1682386e-05 -3.1596795e-05 -3.1682008e-05
-3.1682266e-05 -3.1501022e-05 -3.1551004e-05 -3.1569984e-05 -3.1540116e-05 0.00013517142 -3.1571508e-05 -3.1682026e-05
-3.1683267e-05 4.592557e-05 -3.1582473e-05 -3.1682164e-05 -3.141468e-05 -3.166721e-05 -3.1682153e-05 -3.155559e-05
-3.1676493e-05 -3.166667e-05 -3.1503656e-05 -3.1678574e-05 -3.1683114e-05 -2.4261011e-05 -3.159375e-05 -3.1680527e-05
-3.1540854e-05 0.00010736873 -3.155412e-05 -3.163644e-05 -3.168178e-05 -3.1683274e-05 -2.6480902e-05 -3.161713e-05
-3.147994e-05 -3.154432e-05 -3.1598174e-05 -3.163794e-05 -3.154795e-05 -3.1682288e-05 -3.1652096e-05 -3.1525626e-05
-3.1389027e-05 -3.1681466e-05 0.0004056763 -3.168158e-05 0.00012556317 0.00044757343 -3.1428324e-05 -3.153918e-05
-3.168166e-05 -3.2030624e-05 0.00011477494 0.0008696953 -3.1682528e-05 -3.157784e-05 -3.1683634e-05 -3.1529606e-05
-3.1548723e-05 -3.1551244e-05 -3.1597952e-05 -3.1657575e-05 -3.168135e-05 -3.1540254e-05 -3.151882e-05 -3.168336e-05
-3.1279746e-05 -3.168284e-05 0.00010914465 -3.1066043e-05 -3.168169e-05 -3.0985448e-05 -3.15797e-05 -3.1682983e-05
-3.2113843e-05 -3.1566913e-05 0.0004495652 -3.168295e-05 -3.1680083e-05 -3.158489e-05 -3.1677526e-05 -3.1620817e-05

layer_2.bias f4 [300]
00000000: ceac 4c39 4d45 54ac f4ba e438 0000 0000
00000010: 458a cda3 af55 1037 fce7 2239 db7e 3339
00000020: ffa4 8639 b09f 8239 4d05 d738 0000 0080
00000030: 68e0 5539 535d 5639 9b81 4639 de16 7b39
00000040: 501b 1635 6369 4b39 82f7 1c39 43f8 d938
00000050: 05e9 5d0d 0000 0000 6bd0 fb38 f101 5539
00000060: 0dcb 8538 0100 0000 d487 4439 6dd8 4339
00000070: 79db 2839 a093 1b39 88c6 4539 6e81 cf38
00000080: 0600 0000 edf2 1339 a0b7 cead f5e1 1038
00000090: 816f c4b4 15f7 1039 a432 8839 6184 f438
000000a0: 2cc8 6d39 11c4 2538 0dbd 9e38 2b37 500d
000000b0: 24b5 4a39 87a2 e237 8545 f437 b629 8139
000000c0: 5868 438d ce64 58ad f9a0 1a39 261b 79a3
000000d0: 2387 4438 73b3 a3aa 74e4 db38 6653 1839
000000e0: acb1 6837 abdb 4339 0100 0000 c2ad d237
000000f0: 7e2d 6e39 f0bb 7139 7a40 5239 28ba 4f39
00000100: b2c8 8939 1eef 3e39 a889 7a39 483f 3439
00000110: 691e 2f9d 98f0 e036 aba6 0238 0600 0000
00000120: 6050 8c36 9ab3 9f9c 4264 4e39 0d2d ceb5
00000130: 2d77 db38 445b 1f39 0200 0000 ef00 0000
00000140: c51e 6494 26fe 1939 9579 fb38 24d8 6ca0
00000150: be24 0b39 ece1 8636 4268 d538 40f0 1136
00000160: 985c 3339 d2b7 d538 a5f1 d838 edcc 8488
00000170: 818a 3f39 ba69 1235 75cb 910c 583d ca38
00000180: a2d7 0e37 c375 4939 d597 8739 a415 0f39
00000190: 2289 dd38 bd48 3b39 0b83 8039 f101 8238
000001a0: 1275 6b39 4abd 0fac 1a70 7939 6f83 01a6
000001b0: bc6e 14a7 9d5e 8239 24ca 5139 3153 bb38
000001c0: 52a6 7939 9da0 8239 4f38 caa5 ccf9 df38
000001d0: 4697 3737 23ec c138 fe69 f0a8 ac2b 4b39
000001e0: 5fc8 bc36 78ad 2c37 0c00 0080 8676 1e39
000001f0: 3f6b 6139 5a06 ff38 802d b6aa 758d 0139
00000200: e2e9 64ac 788a e7ad fc52 0989 e697 97ac
00000210: 3d98 1c39 da13 1539 0600 0000 b2df 33ac
00000220: f1da 28ad 0e8e 1439 dc92 3439 c66f 009d
00000230: 0200 0080 310d fb37 17ce 08ad 1225 2339
00000240: 7c01 c936 f60a 729f 6ea3 ff37 0251 e538
00000250: 6197 d69c f3cb 8839 ad00 0000 9841 f738
00000260: 0400 0080 db1b 7338 a1fc 219d c419 4239
00000270: 3300 0000 0400 0080 45c9 a433 2805 1139
00000280: 6335 1338 fabd 9f38 9cbb 9da6 629d c238
00000290: cd10 8dab 94f6 7339 9bc4 ac38 0600 0000
000002a0: a2a9 4139 7177 7538 3e22 6539 11de ea38
000002b0: 4990 4239 420b f49c 4bb8 5139 db00 7539
000002c0: 7d21 4239 e6b9 8439 a44f 59ac aa76 4539
000002d0: 76fb 2faa dcdf cd38 987e 6c39 2733 3e39
000002e0: 0300 0080 73e5 ac38 9d0c e838 0f7e 7239
000002f0: 2462 c0a9 95bf 8a36 0200 0080 451a 1337
00000300: 7e40 5039 3ed4 a538 ecdd 07ac 80fc a938
00000310: 8e9e e638 cbc3 f534 6679 2e39 4397 f035
00000320: 33e8 9a38 9d74 c58e 9495 c0a5 5d66 7837
00000330: ecb3 8239 d629 d8ab c66c e238 b44a 7439
00000340: bc1a 0136 a665 74a2 1cc8 c538 b929 0039
00000350: 0400 0080 ef72 1339 f7e4 a438 a208 0080
00000360: 2cbb 9b38 32da 7239 88fd 1b36 ce48 e338
00000370: 08cf 5139 2c73 99ac d6e2 4aa7 4d44 8938
00000380: 0400 0000 2afa 4ead 285d 4e38 0400 0080
00000390: 3174 0b39 0f59 a938 0fcf df38 6c0e 7e39
000003a0: 3b05 f736 35ca 9e39 22bf f138 05a1 82ac
000003b0: 808a 6237 0500 0000 6a7e 88a9 a253 9838
000003c0: a558 8239 52ce 7538 8a64 c535 d275 0437
000003d0: e2bb b30a f680 0539 e735 5139 443b 5039
000003e0: 8bf2 1139 4aaf 8739 1a0b 5f1f 42ab ddab
000003f0: a302 0000 4a0e 4139 320b 3739 e598 ab91
0.00019519331 -3.0165482e-12 0.0001090671 0.0 -2.2284704e-17 8.603019e-06 0.00015535945 0.00017118028
0.00025681403 0.0002491451 0.00010252986 -0.0 0.00020396861 0.00020443396 0.00018931033 0.00023945744
5.59191e-07 0.00019398848 0.00014969523 0.00010393609 6.838137e-31 0.0 0.000120074335 0.00020313986
6.379755e-05 1e-45 0.00018742617 0.00018677274 0.00016103488 0.00014836947 0.00018861343 9.894637e-05
8e-45 0.0001410951 -2.3501034e-11 3.4542714e-05 -3.6588975e-07 0.00013824955 0.00025977672 0.00011659484
0.00022676651 3.9521667e-05 7.5692406e-05 6.4161355e-31 0.00019331701 2.7016982e-05 2.911944e-05 0.00024635874
-6.0214613e-31 -1.2300562e-11 0.00014746551 -1.3504066e-17 4.6855897e-05 -2.9079134e-13 0.000104852865 0.00014526918
1.3869645e-05 0.00018678482 1e-45 2.5114863e-05 0.00022714396 0.00023053563 0.0002005118 0.00019810407
0.00026280206 0.0001820889 0.00023893139 0.00017189712 -2.3176779e-21 6.703729e-06 3.1149637e-05 8e-45
4.181682e-06 -1.0568163e-21 0.0001968304 -1.5361308e-06 0.00010464932 0.0001519742 3e-45 3.35e-43
-1.15171265e-26 0.00014685895 0.00011991259 -2.0061492e-19 0.0001326976 4.019812e-06 0.00010176051 2.1746528e-06
0.00017105264 0.00010190871 0.000103446924 -7.992639e-34 0.00018266776 5.454309e-07 2.2463239e-31 9.643537e-05
8.5140655e-06 0.00019212723 0.0002586233 0.00013645604 0.00010563644 0.00017860807 0.00024511697 6.199245e-05
0.00022454959 -2.0426599e-12 0.00023788252 -4.493399e-16 -2.0599155e-15 0.00024866025 0.00020007096 8.9323505e-05
0.0002380845 0.00024915198 -3.507957e-16 0.00010679997 1.0942871e-05 9.246941e-05 -2.669132e-14 0.00019375858
5.626163e-06 1.0292388e-05 -1.7e-44 0.00015112208 0.00021497624 0.000121605306 -3.2361266e-13 0.00012355096
-3.253058e-12 -2.6323152e-11 -1.6529794e-33 -4.3085422e-12 0.00014934033 0.00014217143 8e-45 -2.5561606e-12
-9.598309e-12 0.000141673 0.00017220847 -1.6998444e-21 -3e-45 2.9927674e-05 -7.776466e-12 0.00015558701
5.9904396e-06 -5.125456e-20 3.0474472e-05 0.0001093466 -1.4200463e-21 0.00026091895 2.42e-43 0.000117900956
-6e-45 5.7961657e-05 -2.1438779e-21 0.0001851088 7.1e-44 -6e-45 7.673456e-08 0.00013830198
3.509725e-05 7.617097e-05 -1.0944915e-15 9.279956e-05 -1.0023316e-12 0.00023266143 8.23822e-05 8e-45
0.00018469107 5.852379e-05 0.00021851898 0.000111993526 0.00018555032 -1.6149476e-21 0.00020000448 0.0002336534
0.00018513757 0.00025315507 -3.0881764e-12 0.0001883159 -1.5630365e-13 9.816859e-05 0.00022553874 0.00018138868
-4e-45 8.2443374e-05 0.000110649715 0.00023125879 -8.5435375e-14 4.1350236e-06 -3e-45 8.767999e-06
0.00019860451 7.907346e-05 -1.9307845e-12 8.10558e-05 0.00010996788 4.5777264e-07 0.00016639158 1.7925416e-06
7.386543e-05 -4.8676544e-30 -3.340805e-16 1.4805785e-05 0.00024929584 -1.5359335e-12 0.000107967804 0.00023297482
1.923806e-06 -3.3121978e-18 9.430965e-05 0.00012222574 -6e-45 0.00014061829 7.8627774e-05 -3.097e-42
7.4258394e-05 0.00023160203 2.3244374e-06 0.000108377644 0.00020008918 -4.361308e-12 -2.81561e-15 6.545391e-05
6e-45 -1.1765292e-11 4.9200986e-05 -6e-45 0.00013299358 8.0751364e-05 0.00010672036 0.000242287
7.3617825e-06 0.00030286764 0.00011527377 -3.712699e-12 1.3502897e-05 7e-45 -6.0615426e-14 7.2635026e-05
0.00024861578 5.8604703e-05 1.4706904e-06 7.895245e-06 1.7307747e-32 0.0001273191 0.00019951873 0.00019858504
0.00013918632 0.00025879807 4.723127e-20 -1.5750528e-12 9.46e-43 0.00018411237 0.0001745641 -2.7073271e-28

ln2.weight f4 [300]
00000000: fec2 363f 88c6 363f 72c4 363f e2c2 363f
00000010: eec2 363f adc1 363f 9ac1 363f 06c5 363f
00000020: 0ac6 363f 6cc5 363f fdc3 363f 2fc3 363f
00000030: a6c3 363f f7c2 363f 4ac4 363f 5cc5 363f
00000040: bbc4 363f 77c2 363f aec1 363f e5c2 363f
00000050: 86c2 363f 6dc6 363f 10c4 363f ccc4 363f
00000060: c1c4 363f 14c1 363f 27c1 363f 10c4 363f
00000070: dac0 363f b3c2 363f d3c4 363f 54c2 363f
00000080: 5ec3 363f 30c2 363f 11c6 363f 37c4 363f
00000090: e7bf 363f 8dc1 363f 2dc5 363f 90c3 363f
000000a0: 40c6 363f d0c1 363f c2c2 363f 78c4 363f
000000b0: 0ac3 363f dcc1 363f b5c1 363f 81c3 363f
000000c0: 98c1 363f 81c7 363f 2dc3 363f acc3 363f
000000d0: 37c3 363f c8c6 363f 35c3 363f 8fc2 363f
000000e0: b5c1 363f e6c4 363f 54c3 363f 71c2 363f
000000f0: 5dc3 363f 3ec4 363f cfc3 363f 0bc3 363f
00000100: cfc4 363f 4fc4 363f 4dc6 363f 9fc1 363f
00000110: f8c2 363f 74c1 363f 25c3 363f 79c1 363f
00000120: 64c3 363f d2c2 363f 0dc3 363f adc2 363f
00000130: fac1 363f 48c3 363f b9c2 363f e3c2 363f
00000140: 6ac4 363f ccc1 363f 24c2 363f fdc1 363f
00000150: 3ac2 363f aec1 363f 32c3 363f bfc2 363f
00000160: e1c3 363f 3ac3 363f 6dc2 363f 14c3 363f
00000170: afc4 363f 5ac3 363f a7c2 363f c6c3 363f
00000180: 27c3 363f 21c5 363f 69c7 363f c2c3 363f
00000190: c9c3 363f cdc1 363f fac3 363f 22c3 363f
000001a0: 4ec3 363f 32c6 363f 65c3 363f 42c3 363f
000001b0: 45c1 363f 50c6 363f 8ec4 363f 40c3 363f
000001c0: bbc2 363f bcc4 363f ddc2 363f 3bc2 363f
000001d0: 91c3 363f 43c2 363f a1c5 363f eac3 363f
000001e0: 6ac3 363f 7cc5 363f 96c3 363f d8c1 363f
000001f0: eac2 363f b1c3 363f cdc4 363f 08c4 363f
00000200: 89c5 363f 7dc7 363f 89c1 363f e1c6 363f
00000210: 75c1 363f 20c2 363f 8dc1 363f 0ac5 363f
00000220: 5fc8 363f 97c1 363f 73c2 363f 7fc1 363f
00000230: 92c3 363f 90c2 363f b2c7 363f 62bf 363f
00000240: 8ec2 363f 37c4 363f b8c3 363f d8c2 363f
00000250: 2cc3 363f e2c6 363f 7bc2 363f 0dc3 363f
00000260: 35c3 363f acc4 363f 10c4 363f 53c3 363f
00000270: 91c2 363f b3c1 363f 8ec3 363f 8ac4 363f
00000280: 02c2 363f fbc1 363f 8dc3 363f 57c2 363f
00000290: 47c6 363f 45c2 363f afc3 363f b9c2 363f
000002a0: 03c4 363f f7c2 363f 3ec5 363f 8cc2 363f
000002b0: 87c4 363f ddc1 363f e5c2 363f 39c6 363f
000002c0: 15c4 363f 76c6 363f 93c5 363f c7c2 363f
000002d0: 13c5 363f 80c3 363f 32c4 363f d3c1 363f
000002e0: efc1 363f 5bc3 363f 86c1 363f 53c4 363f
000002f0: 8ec5 363f 67c2 363f 8fc3 363f 86c3 363f
00000300: d5c0 363f f8ba 363f 8bc6 363f 45c3 363f
00000310: 66c2 363f 84c3 363f 7bc1 363f c4c2 363f
00000320: 66c3 363f 8dc1 363f 8ac3 363f 79c2 363f
00000330: a0c4 363f 60c6 363f 8ec4 363f bac5 363f
00000340: 9bc3 363f 2ac3 363f b6c2 363f 7dc2 363f
00000350: 35c2 363f c3c0 363f c4c4 363f 9ac1 363f
00000360: 6dc2 363f 5fc3 363f efc3 363f 4ec2 363f
00000370: 5ac3 363f 10c5 363f 65c3 363f 6bc2 363f
00000380: 86c1 363f b0c8 363f f4be 363f 40c3 363f
00000390: 5fc3 363f 70c2 363f 14c2 363f d9c3 363f
000003a0: 33c1 363f 78cb 363f 6ec3 363f 44c6 363f
000003b0: d2c5 363f c4c2 363f 27c3 363f aec4 363f
000003c0: 4ac5 363f 10c4 363f aec1 363f ecc1 363f
000003d0: dfc2 363f 19c3 363f 73c4 363f 95c3 363f
000003e0: 7ec3 363f 46c9 363f e9c3 363f 35c7 363f
000003f0: a7c2 363f 6bc2 363f 22c3 363f 5dc4 363f
0.71391284 0.71396685 0.713935 0.7139112 0.7139119 0.71389276 0.7138916 0.71394384
0.71395934 0.7139499 0.71392804 0.71391577 0.71392286 0.7139124 0.71393263 0.71394897
0.71393937 0.7139048 0.7138928 0.71391135 0.7139057 0.71396524 0.7139292 0.7139404
0.7139397 0.71388364 0.7138848 0.7139292 0.7138802 0.7139084 0.7139408 0.7139027
0.71391857 0.71390057 0.71395975 0.7139315 0.7138657 0.71389085 0.71394616 0.71392155
0.71396255 0.71389484 0.71390927 0.7139354 0.71391356 0.71389556 0.71389323 0.71392065
0.7138915 0.7139817 0.71391565 0.7139232 0.71391624 0.71397066 0.7139161 0.7139062
0.71389323 0.71394193 0.713918 0.71390444 0.7139185 0.7139319 0.7139253 0.7139136
0.71394056 0.71393293 0.7139633 0.7138919 0.7139125 0.71388936 0.71391517 0.71388966
0.7139189 0.7139102 0.71391374 0.713908 0.71389735 0.71391726 0.71390873 0.71391124
0.71393454 0.7138946 0.71389985 0.7138975 0.71390116 0.7138928 0.71391594 0.7139091
0.7139264 0.7139164 0.7139042 0.71391416 0.71393865 0.7139183 0.71390766 0.71392477
0.7139153 0.71394545 0.71398026 0.7139245 0.71392494 0.71389467 0.71392787 0.713915
0.7139176 0.7139617 0.713919 0.7139169 0.71388656 0.7139635 0.7139367 0.7139168
0.71390885 0.7139394 0.7139109 0.7139012 0.7139216 0.7139017 0.7139531 0.7139269
0.7139193 0.7139509 0.7139219 0.7138953 0.71391165 0.7139235 0.71394044 0.7139287
0.71395165 0.71398145 0.7138906 0.71397215 0.7138894 0.7138996 0.71389085 0.7139441
0.7139949 0.71389145 0.71390456 0.71389 0.71392167 0.7139063 0.7139846 0.71385777
0.71390617 0.7139315 0.71392393 0.7139106 0.7139156 0.7139722 0.71390504 0.71391374
0.7139161 0.7139385 0.7139292 0.7139179 0.71390635 0.7138931 0.7139214 0.71393645
0.7138978 0.7138974 0.71392137 0.7139029 0.713963 0.7139018 0.7139234 0.71390873
0.7139284 0.7139124 0.7139472 0.71390605 0.71393627 0.7138956 0.71391135 0.71396214
0.7139295 0.7139658 0.71395224 0.71390957 0.7139446 0.7139206 0.7139312 0.713895
0.7138967 0.7139184 0.71389043 0.71393317 0.71395195 0.71390384 0.7139215 0.71392095
0.7138799 0.7137904 0.713967 0.7139171 0.7139038 0.71392083 0.7138898 0.7139094
0.71391904 0.71389085 0.7139212 0.7139049 0.71393776 0.71396446 0.7139367 0.71395457
0.7139222 0.71391547 0.71390855 0.71390516 0.71390086 0.7138788 0.7139399 0.7138916
0.7139042 0.7139186 0.7139272 0.71390235 0.7139183 0.71394444 0.713919 0.7139041
0.71389043 0.71399975 0.7138512 0.7139168 0.7139186 0.7139044 0.7138989 0.7139259
0.7138855 0.7140422 0.7139195 0.7139628 0.713956 0.7139094 0.7139153 0.7139386
0.7139479 0.7139292 0.7138928 0.7138965 0.713911 0.71391445 0.7139351 0.71392184
0.7139205 0.7140087 0.71392685 0.71397716 0.71390766 0.7139041 0.713915 0.71393377
