RL/Model_Repository/temp/TD3_Guest_rock_critic.pth (torch, 988047 bytes, 10 tensors)

layer_1.weight f4 [400, 5]
-2.257183 -5.0283732 0.22884727 -0.27569184 0.18339802 -0.026620848 -0.019974617 0.12580848
-0.4527299 0.29906526 0.25654948 -0.17546609 0.033875465 -0.2453419 -0.13571757 -0.06057018
-0.29038852 -0.21596271 -0.32685947 0.30604118 -2.7253609 -7.1443233 0.2123906 -0.04472021
-1.0067109 0.64387184 0.29767093 0.42852512 -0.091364846 -0.5469649 -0.42619646 0.01687932
-0.24106775 0.11103535 -0.11576837 -2.220137 -5.036622 0.88051915 -0.50161767 -0.018770857
-2.5568252 -7.501801 1.0403863 -0.51054364 -0.8393778 0.1648459 -0.18873245 0.55184954
0.6323631 0.43477213 -0.41362613 -2.8785672 1.2868896 -0.31334 0.2940029 -1.317441
-3.723632 0.17373627 -0.08968908 0.3543328 -0.23731358 0.16413206 -0.35129607 -0.41609296
0.068716824 -0.31924444 -0.18938498 -0.6060899 0.19229242 -0.01667521 0.37855017 0.1301389
0.03169232 0.012979936 -0.116013356 -2.1502395 -4.531466 0.76629925 -0.2844577 -0.23949407
-0.6680474 -1.0993793 -0.79624134 -0.62632203 0.4456797 2.8354826 5.8241615 -2.0730755
0.31547242 -0.09263568 1.8221173 1.853543 -0.051819913 0.5246876 -0.06251336 -1.4404182
-4.697071 0.6114331 -0.38879317 0.03521722 1.6634333 3.1859617 0.034176767 0.9447572
-0.08466941 -1.434885 -4.4337306 0.7500445 -0.06578207 0.054251134 -1.477219 -4.8374443
0.87012756 -0.48674 -0.5188887 -2.0343904 -5.134475 0.54110277 -0.36693344 -0.9223379
1.4802405 3.1969512 0.74337476 1.0045806 -0.2367674 -0.7398116 0.08873291 -0.71521395
-0.51498264 0.22435027 -2.0595033 -4.194564 0.7640392 -0.23237222 0.20802686 2.562527
4.6143646 0.54020065 0.8447195 -0.060117334 2.1817775 4.752264 0.10676091 1.4166875
-0.062147032 -0.42800635 -1.1753813 -1.3495357 -0.5911948 0.5515927 2.344911 4.6542935
1.01985 1.2321922 0.040743615 -0.1645979 -0.045801457 0.400959 -0.21543261 0.25853676
-2.6505497 -7.2603054 0.47129416 0.11862212 -0.71212703 -0.8481625 -1.9490391 0.62300324
-0.3488394 0.47198427 0.40060037 0.4580374 -0.1600493 0.037955116 0.7821933 -0.0102911
0.29133278 -0.0027359724 -0.23890345 0.032858074 3.0968106 5.8127966 -0.53910285 1.4286888
-0.03584202 -0.2858302 0.33918023 0.24283665 -0.44646025 -0.19534352 -0.57063085 -1.9802845
0.671269 0.19317426 0.571517 -0.67953634 -0.608633 0.39129338 -0.3166035 0.32672715
-1.5457048 -4.714852 0.66999274 -0.8303169 0.021395262 -0.016927429 -0.27594578 -0.47267696
0.33571762 0.09389759 -1.7518802 -4.6267843 1.1124834 -0.37607697 -0.8638553 -0.97168106
-2.6006775 0.90107405 -0.54868513 -0.22491449 0.7416535 -0.8745443 0.118455455 0.009451861
-0.23856293 -2.7104008 -8.10826 0.74350095 -0.3999746 -0.5711327 -3.152267 -7.75357
0.7533261 0.079707906 -0.56603664 0.21365535 -0.41394597 0.4207561 -0.36679444 -0.2864843
-0.7558159 -1.0298715 -0.5260438 -0.5214044 0.6193191 -1.4357857 -4.920223 0.8407858
-0.23713146 0.020868853 -2.5912132 -8.344411 0.85850674 0.204835 -0.6915459 -1.4382333
00000000: b075 10c0 6fe8 a0c0 f056 6a3e 7b27 8dbe
00000010: b1cc 3b3e f713 dabc cfa1 a3bc f0d3 003e
00000020: 37cc e7be 151f 993e 745a 833e 62ad 33be
00000030: 00c1 0a3d e83a 7bbe 8cf9 0abe 7018 78bd
00000040: cead 94be 5425 5dbe 205a a7be 6eb1 9c3e
00000050: 506c 2ec0 4c9e e4c0 ec7c 593e 8a2c 37bd
00000060: e7db 80bf c9d4 243f 5368 983e a567 db3e
00000070: 7e1d bbbd e405 0cbf 6c36 dabe 8046 8a3c
00000080: 77da 76be 8066 e33d f817 edbd b916 0ec0
00000090: 022c a1c0 b469 613f 046a 00bf 57c5 99bc
000000a0: 06a3 23c0 c10e f0c0 612b 853f fdb2 02bf
000000b0: 77e1 56bf 5dcd 283e 1443 41be 0346 0d3f
000000c0: 8ce2 213f 749a de3e cec6 d3be 723a 38c0
000000d0: ccb8 a43f 1a6e a0be 8c87 963e e8a1 a8bf
000000e0: fd4f 6ec0 ece7 313e e9ae b7bd 1c6b b53e
000000f0: 5502 73be 3c12 283e 14dd b3be 230a d5be
00000100: 68bb 8c3d 0274 a3be 23ee 41be b528 1bbf
00000110: 4ee8 443e 739a 88bc 54d1 c13e 2243 053e
00000120: cecf 013d cca9 543c 6998 edbd 869d 09c0
00000130: c501 91c0 302c 443f 71a4 91be ef3d 75be
00000140: 2805 2bbf 76b8 8cbf 79d6 4bbf a456 20bf
00000150: 2130 e43e 8c78 3540 885f ba40 45ad 04c0
00000160: 9a85 a13e c7b7 bdbd 243b e93f e640 ed3f
00000170: 1e41 54bd ed51 063f 0107 80bd a05f b8bf
00000180: 684e 96c0 e186 1c3f e60f c7be ef3f 103d
00000190: 62eb d43f cce6 4b40 f0fc 0b3d 9cdb 713f
000001a0: 2867 adbd 50aa b7bf 1fe1 8dc0 eb02 403f
000001b0: c0b8 86bd 7036 5e3d 8315 bdbf 58cc 9ac0
000001c0: aec0 5e3f fc35 f9be e4d5 04bf 7433 02c0
000001d0: 9f4d a4c0 b685 0a3f b3de bbbe 561e 6cbf
000001e0: 8578 bd3f d99a 4c40 cf4d 3e3f 1996 803f
000001f0: 2773 72be 4b64 3dbf 9ab9 b53d 4318 37bf
00000200: e7d5 03bf 14bc 653e e7ce 03c0 de39 86c0
00000210: 1398 433f fcf2 6dbe fe04 553e 7100 2440
00000220: e0a8 9340 974a 0a3f 8a3f 583f 983d 76bd
00000230: 3ea2 0b40 8c12 9840 77a5 da3d 0456 b53f
00000240: e38d 7ebd a623 dbbe e572 96bf 96bd acbf
00000250: 8b58 17bf 2e35 0d3f 0613 1640 f9ef 9440
00000260: 728a 823f 79b8 9d3f c7e2 263d 5a8c 28be
00000270: 4f9a 3bbd 804a cd3e 5e9a 5cbe ee5e 843e
00000280: 9ba2 29c0 6c54 e8c0 784d f13e 27f0 f23d
00000290: f54d 36bf 2d21 59bf 1d7a f9bf 247d 1f3f
000002a0: 149b b2be eca7 f13e 7e1b cd3e e183 ea3e
000002b0: f7e3 23be d376 1b3d d23d 483f 009c 28bc
000002c0: 9229 953e 004e 33bb 1ba3 74be 3096 063d
000002d0: 2532 4640 6e02 ba40 a502 0abf 46df b63f
000002e0: 15cf 12bd 5658 92be 08a9 ad3e 2caa 783e
000002f0: 7096 e4be 2208 48be dd14 12bf f679 fdbf
00000300: 49d8 2b3f 79cf 453e f04e 123f 18f6 2dbf
00000310: 5fcf 1bbf 9b57 c83e db19 a2be c848 a73e
00000320: a8d9 c5bf 11e0 96c0 a584 2b3f a68f 54bf
00000330: 1e45 af3c 64ab 8abc c448 8dbe b702 f2be
00000340: 2ee3 ab3e 614d c03d 9c3d e0bf 9e0e 94c0
00000350: db65 8e3f 298d c0be 9f25 5dbf 17c0 78bf
00000360: 8071 26c0 caac 663f a176 0cbf fc4f 66be
00000370: 01dd 3d3f 23e2 5fbf c698 f23d fadb 1a3c
00000380: d749 74be 3577 2dc0 6fbb 01c1 1456 3e3f
00000390: 79c9 ccbe c135 12bf bebe 49c0 3f1d f8c0
000003a0: fbd9 403f e63d a33d c7e7 10bf 78c8 5a3e
000003b0: baf0 d3be 586d d73e 7bcc bbbe 12ae 92be
000003c0: 277d 41bf d4d2 83bf ceaa 06bf c27a 05bf
000003d0: b28b 1e3f d3c7 b7bf 7872 9dc0 bd3d 573f
000003e0: 97d2 72be 28f5 aa3c 70d6 25c0 b582 05c1
000003f0: 19c7 5b3f 44c0 513e 2709 31bf 0718 b8bf

layer_1.bias f4 [400]
0.9656793 -0.28893045 -0.13716269 -0.2672593 0.22334136 -0.23917885 -0.16877666 0.8785529
0.416853 0.15854466 0.5186477 0.610157 -0.19337276 -0.13785405 -0.37018064 0.8664509
0.32600397 0.11242785 0.5593216 0.58749765 0.37102178 0.5524739 0.48829645 0.5205827
-0.035857294 -0.08683863 0.78864104 -0.19196655 -0.29839703 0.42676178 -0.36375043 -0.4673676
0.24891898 0.28449684 0.49347255 -0.11603397 -0.27364638 -0.43718427 0.096813045 -0.20055816
0.8726533 -0.3056627 0.4735164 0.68506765 0.5008062 0.41379327 0.26048598 -0.4336655
0.28278592 0.5971039 0.17878003 0.69264597 0.28540933 0.41288948 -0.34574792 0.14550291
-0.20629574 -0.119871594 -0.36198705 -0.41289228 0.7592143 0.15612411 -0.13016845 0.7273864
0.8935913 0.42423886 0.9473497 0.6629121 0.14255382 -0.4010814 0.16880819 0.32965413
-0.35466424 0.3125533 -0.21830614 0.30060488 -0.38314205 0.889005 0.3920903 -0.2549575
0.29248756 0.25222713 -0.41902423 -0.4016755 -0.120441064 0.44020325 0.40371507 -0.26815352
0.6883562 -0.3807596 -0.18454674 0.8075881 0.4213819 0.7799994 0.040044244 0.5826978
0.6615134 0.51277256 0.21301275 0.225614 -0.12942716 0.8892655 0.6050881 0.69013786
-0.20026523 0.8247255 0.9419811 0.104532026 0.91410065 -0.38134158 -0.2583657 0.8655624
0.72820675 0.33580375 0.5079946 0.7222755 0.36712825 0.84091735 0.41395578 -0.28901523
0.7288439 -0.0147262355 0.2051634 0.8014739 -0.244484 -0.4063392 0.6671172 0.12631345
0.33885756 0.6265469 0.40050238 -0.38772815 -0.351138 0.9254264 0.27242613 -0.26101094
0.19398193 0.7964028 0.6662281 0.7978319 -0.058805704 0.008372277 0.7071267 -0.25210682
-0.014715321 0.07014334 0.79991007 -0.27863678 -0.2857278 -0.17942332 -0.3740387 0.6588253
0.89699167 0.30625212 0.71766585 0.4411419 -0.006737239 -0.3802631 -0.23075594 0.92782223
0.23327082 -0.11953927 0.9036589 0.30736688 0.16831104 -0.3022213 -0.2820713 0.31751338
0.952699 -0.2619434 -0.16546707 0.288705 0.064088024 0.61163586 -0.10751803 -0.4027453
-0.2557532 0.14749366 -0.3389957 0.5601089 -0.076975785 -0.47633955 0.54138166 -0.29767254
-0.15868163 0.1535951 0.4645256 0.7248399 0.16829582 -0.38549206 0.77541625 0.30216613
0.71185493 -0.034779962 -0.386299 0.84333044 -0.16827714 0.07161103 -0.35107642 -0.18722537
-0.46771124 0.09676853 0.23259543 -0.19748163 0.8236691 -0.124662936 0.09085077 0.6891535
-0.39617118 0.1512845 -0.18965995 0.8135048 0.68806785 -0.26624665 0.28596267 0.4019423
0.38849163 0.3257658 0.91007423 0.2094204 0.85688937 0.8399849 -0.13021499 0.47148305
-4.8024303e-05 -0.13725987 0.93114597 0.6907391 -0.3662353 -0.35471246 1.0230516 0.6711612
0.17386276 -0.39601585 -0.412225 0.86433226 0.20838672 -0.034929875 -0.308619 0.6648418
-0.35400972 0.9378148 -0.13835505 -0.39778036 -0.27383128 0.72158974 -0.12907454 0.41803506
0.6656028 0.20981964 0.5315169 -0.34724897 0.28680408 0.39946738 0.07309532 0.5880452
00000000: c236 773f b1ee 93be 6074 0cbe 36d6 88be
00000010: 99b3 643e 4deb 74be cad3 2cbe d8e8 603f
00000020: c26d d53e 8859 223e 18c6 043f 4033 1c3f
00000030: 8203 46be 9d29 0dbe 5188 bdbe bacf 5d3f
00000040: fee9 a63e 9340 e63d b32f 0f3f 3f66 163f
00000050: 91f6 bd3e ee6e 0d3f fe01 fa3e e844 053f
00000060: 19df 12bd 74d8 b1bd 61e4 493f e192 44be
00000070: 7fc7 98be 8580 da3e 7f3d babe ce4a efbe
00000080: 9ee4 7e3e 92a9 913e 6fa8 fc3e 38a3 edbd
00000090: 611b 8cbe 9ed6 dfbe eb45 c63d 1e5f 4dbe
000000a0: 3566 5f3f d27f 9cbe be70 f23e 9860 2f3f
000000b0: d634 003f b6dc d33e 6b5e 853e 6809 debe
000000c0: 51c9 903e cddb 183f 1d12 373e 3f51 313f
000000d0: 2c21 923e 4066 d33e df05 b1be b7fe 143e
000000e0: 313f 53be 3d7f f5bd 5e56 b9be 9e66 d3be
000000f0: de5b 423f 00df 1f3e e14a 05be ff35 3a3f
00000100: 66c2 643f d635 d93e 8385 723f 9bb4 293f
00000110: a1f9 113e 8b5a cdbe 0edc 2c3e 6dc8 a83e
00000120: 8d96 b5be fc06 a03e a58b 5fbe e2e8 993e
00000130: 322b c4be d595 633f 0fc0 c83e ca89 82be
00000140: eec0 953e ea23 813e 588a d6be 69a8 cdbe
00000150: cea9 f6bd 5262 e13e beb3 ce3e 6b4b 89be
00000160: 1d38 303f ecf2 c2be d2f9 3cbe 18be 4e3f
00000170: 5ebf d73e 0aae 473f 6f05 243d af2b 153f
00000180: f158 293f 1045 033f 0420 5a3e 5b07 673e
00000190: 8e88 04be e7a6 633f 0ee7 1a3f e0ac 303f
000001a0: 5412 4dbe 3621 533f ac25 713f e314 d63d
000001b0: 8002 6a3f 343f c3be 8248 84be 7f95 5d3f
000001c0: c26b 3a3f 78ee ab3e ef0b 023f 0ce7 383f
000001d0: 3cf8 bb3e 5c46 573f 03f2 d33e cef9 93be
000001e0: 8495 3a3f 4f46 71bc 5b16 523e 652d 4d3f
000001f0: 045a 7abe b10b d0be 31c8 2a3f 5058 013e
00000200: bd7e ad3e 6165 203f a60e cd3e 4e84 c6be
00000210: 5cc8 b3be bfe8 6c3f 707b 8b3e 3aa3 85be
00000220: 33a3 463e 0ee1 4b3f ed8d 2a3f b63e 4c3f
00000230: 40de 70bd e02b 093c 4106 353f 2514 81be
00000240: 8818 71bc 50a7 8f3d e8c6 4c3f 7ba9 8ebe
00000250: ea4a 92be bfba 37be 0082 bfbe c6a8 283f
00000260: 3fa1 653f 14cd 9c3e f3b8 373f 5add e13e
00000270: 0fc4 dcbb d8b1 c2be 494b 6cbe c285 6d3f
00000280: 8cde 6e3e 01d1 f4bd 3156 673f 315f 9d3e
00000290: bb59 2c3e c0bc 9abe a66b 90be 1d91 a23e
000002a0: 15e4 733f 721d 86be 3370 29be 24d1 933e
000002b0: 9540 833d 2b94 1c3f 6a32 dcbd a234 cebe
000002c0: 15f2 82be 9408 173e d890 adbe 4c63 0f3f
000002d0: 7ba5 9dbd c7e2 f3be fd97 0a3f 8968 98be
000002e0: 707d 22be 0948 1d3e 4dd6 ed3e 1c8f 393f
000002f0: bd55 2c3e 375f c5be ae81 463f 85b5 9a3e
00000300: 203c 363f 6f75 0ebd fcc8 c5be 81e4 573f
00000310: d850 2cbe cea8 923d 4ac0 b3be 02b8 3fbe
00000320: d977 efbe 942e c63d 7f2d 6e3e a038 4abe
00000330: fadb 523f 484f ffbd f80f ba3d 5d6c 303f
00000340: f3d6 cabe 53ea 1a3e 3836 42be da41 503f
00000350: 3725 303f 7b51 88be b369 923e 62cb cd3e
00000360: 60e8 c63e c6ca a63e a0fa 683f 4d72 563e
00000370: 1a5d 5b3f 4009 573f 1457 05be 3a66 f13e
00000380: b46d 49b8 da8d 0cbe 955f 6e3f 47d4 303f
00000390: 3183 bbbe df9c b5be 5bf3 823f 38d1 2b3f
000003a0: 1409 323e 97c2 cabe 280f d3be e144 5d3f
000003b0: 5463 553e a112 0fbd 4f03 9ebe 1233 2a3f
000003c0: c340 b5be a114 703f f2ac 0dbe dea9 cbbe
000003d0: 9d33 8cbe 1bba 383f 1e2c 04be b108 d63e
000003e0: f264 2a3f f6da 563e 7e11 083f 9eca b1be
000003f0: fcd7 923e fd86 cc3e 00b3 953d 218a 163f

layer_2.weight f4 [300, 400]
0.6714135 -0.03300774 -0.028476555 -0.041772526 0.54331934 -0.10569973 0.004835885 0.7300299
0.38803408 0.049388383 0.5455414 0.45477182 -0.02850433 0.051671527 0.024174035 0.6328803
0.55014807 -2.9572976 -0.01546931 0.6588292 -0.15023342 0.64387333 0.26562786 0.012997137
-0.5025217 -0.02438088 0.56708896 -1.884981 -2.3501396 0.61880267 -3.8092194 0.04092728
0.37700027 1.0203537 0.27496848 -0.034458183 -5.73757 -0.047123022 0.26796493 -0.10122296
0.9183465 0.062330153 -0.003956498 0.37046662 0.1212483 0.15504415 0.23351981 0.009424768
0.4654369 0.6115564 0.028367938 0.5537033 0.4741887 0.14447534 0.029650066 0.30034733
0.043400142 -0.3624757 -2.918752 -0.8400556 0.52985203 0.34290743 -0.017427238 0.69594663
0.6291424 0.35560948 0.66979563 0.46813264 -0.6833045 0.02204666 0.2893499 -0.57717764
0.025751207 0.11441186 0.03255103 0.54804116 0.04258876 0.6230059 0.54227877 -0.0010138266
0.47999108 0.2904462 0.030286107 0.039085727 0.00048414952 0.1313094 0.20970905 0.022277806
0.5269334 0.033988636 0.0040252022 0.74686056 0.28466374 0.73098946 0.27440432 0.3366164
0.31869173 0.6048282 0.2588603 0.10222784 -0.014796644 0.9486416 0.2728993 0.30330202
-0.035903078 0.7240466 0.73682827 0.37285876 0.6189254 -4.1805024 0.011287112 0.72526103
0.85248923 0.31052896 0.31893218 0.695788 0.123928696 0.6450167 -0.3156889 0.0050763115
0.62995034 -0.21164396 0.28520837 0.66440225 -0.031325664 -0.09044206 0.52601725 0.42819858
-0.9335376 0.73361886 0.32862923 0.010102272 0.0032243729 0.50210196 0.14052495 -0.0474707
0.29253328 0.6951182 0.65890896 0.58945346 0.03243613 0.03393471 0.57222503 -0.029071426
-0.5434749 0.43445754 0.6483688 0.02821437 -0.025522238 0.013067033 0.03755198 0.4884408
0.6323891 0.2555865 0.5653466 0.53527355 -0.35972953 -4.6671367 0.04564172 0.9733839
0.44470194 0.03202237 0.64136297 0.13129576 0.1523737 0.0061138384 0.007015951 0.42283505
0.76863366 -0.014342327 -0.21049687 0.15838575 -0.3809795 0.3340976 -4.457464 -0.016182482
-0.3472232 -0.17849195 -6.2031884 0.5500354 0.09782341 0.042207513 0.56461555 -0.0006574275
-0.66418856 0.42961174 0.38366014 0.6042129 -1.4333119 -5.4268456 0.5192764 0.38474387
0.6204506 -3.4039764 0.011534579 0.7212701 -0.7287375 -0.119000286 -0.01630048 -0.040156074
-0.02835173 0.44512266 0.45167422 -0.6913882 0.57363456 -0.007588975 -0.21502413 0.27620354
-0.025990725 0.37178245 -2.3864355 0.67367953 0.4283059 -0.014646372 0.4733554 0.21104623
0.21782938 0.34073278 0.7408151 0.34626722 0.6072296 0.5430806 -0.060471904 0.60972303
0.036560442 -0.030652707 0.56625646 0.54539245 -0.09184977 0.032666143 0.5904422 0.58133525
0.28241372 -3.7730162 -0.0048672482 0.5418568 -0.1533334 -0.8501056 -0.027395224 0.8217726
0.53368044 0.57574224 -5.76988 -0.009712774 -0.03286346 0.5803237 -0.2626696 0.41835123
0.82143354 0.3717289 0.5315557 0.0063157566 0.2876138 0.34191456 0.22345395 0.57362115
00000000: c1e1 2b3f 2033 07bd aa47 e9bc ab19 2bbd
00000010: fa16 0b3f 1a79 d8bd 5876 9e3b 3de3 3a3f
00000020: 67ac c63e 794b 4a3d 9aa8 0b3f dad7 e83e
00000030: ea81 e9bc 86a5 533d a008 c63c 7104 223f
00000040: 81d6 0c3f 5d44 3dc0 fd72 7dbc 08a9 283f
00000050: cad6 19be e2d4 243f 6000 883e f2f1 543c
00000060: 43a5 00bf 69ba c7bc be2c 113f 0f47 f1bf
00000070: b068 16c0 da69 1e3f 40ca 73c0 5da3 273d
00000080: 2e06 c13e f39a 823f abc8 8c3e 0624 0dbd
00000090: 2c9a b7c0 1204 41bd b332 893e fc4d cfbd
000000a0: c218 6b3f e74d 7f3d 83a5 81bb cdad bd3e
000000b0: 0751 f83d e5c3 1e3e d11f 6f3e 586a 1a3c
000000c0: bf4d ee3e f68e 1c3f e163 e83c 80bf 0d3f
000000d0: dcc8 f23e 58f1 133e b2e4 f23c 20c7 993e
000000e0: 59c4 313d 6a96 b9be d5cc 3ac0 e20d 57bf
000000f0: 62a4 073f 9091 af3e 91c3 8ebc 8f29 323f
00000100: 7a0f 213f 7212 b63e ba77 2b3f 15af ef3e
00000110: 0bed 2ebf 329b b43c ac25 943e eac1 13bf
00000120: 32f4 d23c c450 ea3d 3b54 053d 6d4c 0c3f
00000130: 8d71 2e3d 517d 1f3f c8d2 0a3f 60e2 84ba
00000140: 64c1 f53e 5db5 943e 921a f83c 5b18 203d
00000150: 73d5 fd39 f975 063e f8bd 563e f27f b63c
00000160: 1be5 063f ab37 0b3d d8e5 833b 4132 3f3f
00000170: 72bf 913e 2022 3b3f b97e 8c3e fc58 ac3e
00000180: 902b a33e 05d6 1a3f 5689 843e d45c d13d
00000190: a06d 72bc 2dda 723f 75b9 8b3e 674a 9b3e
000001a0: 1b0f 13bd 1e5b 393f c7a0 3c3f 58e7 be3e
000001b0: e571 1e3f adc6 85c0 94ed 383c b5aa 393f
000001c0: bc3c 5a3f a7fd 9e3e 144b a33e 2a1f 323f
000001d0: 54ce fd3d d01f 253f faa1 a1be 3057 a63b
000001e0: 6d44 213f 32b9 58be d506 923e 4416 2a3f
000001f0: 574f 00bd b039 b9bd 11a9 063f d83c db3e
00000200: 52fc 6ebf 72ce 3b3f 1742 a83e 0084 253c
00000210: 0050 533b c189 003f c6e5 0f3e a370 42bd
00000220: ecc6 953e 44f3 313f 42ae 283f 6ce6 163f
00000230: bfdb 043d 1fff 0a3d 577d 123f 3327 eebc
00000240: 2c21 0bbf 3871 de3e 7ffb 253f d321 e73c
00000250: 0314 d1bc 1c17 563c 1bd0 193d ea14 fa3e
00000260: 41e4 213f 3cdc 823e 8eba 103f b007 093f
00000270: 782e b8be 2f59 95c0 d0f2 3a3d b02f 793f
00000280: f9af e33e e329 033d 5d30 243f 6572 063e
00000290: da07 1c3e 9856 c83b 10e6 e53b d67d d83e
000002a0: 2dc5 443f 14fc 6abc 7e8c 57be e02f 223e
000002b0: bf0f c3be d70e ab3e 8ca3 8ec0 2091 84bc
000002c0: 3dc7 b1be 98c6 36be 8580 c6c0 1fcf 0c3f
000002d0: a457 c83d c9e1 2c3d a58a 103f 3657 2cba
000002e0: 4308 2abf 12f6 db3e 1a6f c43e b2ad 1a3f
000002f0: c476 b7bf b8a8 adc0 4cef 043f 26fd c43e
00000300: dad5 1e3f c0da 59c0 88fb 3c3c 28a5 383f
00000310: 8a8e 3abf 6cb6 f3bd 9688 85bc b27a 24bd
00000320: e341 e8bc 1ee7 e33e d841 e73e d1fe 30bf
00000330: b7d9 123f f0ac f8bb 492f 5cbe 8d6a 8d3e
00000340: 80ea d4bc 455a be3e 5cbb 18c0 4376 2c3f
00000350: e94a db3e 56f7 6fbc a45b f23e 811c 583e
00000360: aa0e 5f3e 8774 ae3e 0fa6 3d3f f049 b13e
00000370: 6673 1b3f 5507 0b3f 63b1 77bd cf16 1c3f
00000380: 67c0 153d 631b fbbc 2ff6 103f d79e 0b3f
00000390: bb1b bcbd efcc 053d 3827 173f 63d2 143f
000003a0: 8898 903e 1979 71c0 707d 9fbb 21b7 0a3f
000003b0: 6e03 1dbe 85a0 59bf f36b e0bc b05f 523f
000003c0: 489f 083f d863 133f dba2 b8c0 5422 1fbc
000003d0: d69b 06bd 1890 143f a17c 86be 2232 d63e
000003e0: 7849 523f 4053 be3e 0914 083f 68f4 ce3b
000003f0: 1e42 933e 6d0f af3e 1dd1 643e d6d8 123f

layer_2.bias f4 [300]
0.60181624 -0.04960377 -0.015645511 0.68162894 -0.053462386 0.0065049287 -0.049434423 -0.087477
0.020652303 -0.0074264593 -0.037804946 -0.010073744 0.56416684 -0.012041239 -0.013117887 -0.011285472
0.005301148 -0.07866986 0.55582887 0.44824317 0.5745767 0.011060856 -0.059895534 -0.08503871
0.6523392 -0.055471353 -0.067279905 -0.085041 -0.026711078 0.57419175 0.3770754 -0.031600725
-0.05201302 0.42734817 -0.07449002 -0.018827386 0.025311287 0.6436943 0.8055771 0.03886224
0.5709822 0.031185826 0.0195141 -0.0470367 4.4478886e-05 0.6294687 0.019510143 0.4832624
-0.03547984 -0.059654698 -0.068811916 0.7089669 -0.03474995 0.67417234 0.70808125 0.585516
0.68400025 0.6303057 0.025594082 0.56191856 -0.034455173 0.024062762 0.0029626512 -0.01670355
-0.030380674 -0.04137727 0.6587928 -0.099432886 -0.03884889 -0.062521905 -0.08388735 0.66814965
-0.02397052 0.0048377155 0.02136206 0.3136883 0.6970625 -0.04306424 0.035735287 0.0034719144
-0.07815311 -0.05078708 0.49635398 -0.044552356 -0.05208077 -0.06703546 0.0059333956 -0.07292107
-0.078687 -0.05192372 0.6549744 0.019968832 0.6824304 0.53939337 -0.0466838 -0.034615606
-0.07214794 -0.028188635 0.18014449 0.55662084 0.019753905 0.22119007 0.036060467 0.39630663
0.6376089 0.7234691 0.5764661 -0.047871243 0.019088147 0.48303077 0.51659983 -3.3937395e-05
-0.002487804 -0.043143872 -0.04049327 -0.038978074 0.0015296768 -0.07443716 -0.035386212 -0.043868456
-0.06865972 -0.06957805 0.4559072 -0.04565521 -0.027296906 0.028980099 0.042227123 0.43897003
0.043711577 0.5463735 -0.06767099 0.018115383 -0.027945364 -0.046417296 -0.010240313 0.5841138
0.39563936 -0.017063277 0.01505847 0.033938438 0.42349914 0.00043152645 0.03515669 -0.0713395
-0.076531135 0.0009134865 -0.03013066 0.01331737 -0.017159391 0.38313633 -0.06781436 -0.03818487
-0.055018444 0.015973523 -0.10687398 0.47938257 0.6644909 0.005688731 0.7081192 -0.041759744
0.35890794 0.09049492 0.3662387 -0.022582212 -0.031344924 0.3913129 -0.029687922 -0.06941425
-0.024929302 0.59468263 -0.041316696 -0.010919754 -0.053057633 0.4504821 0.39963827 -0.03959897
-0.06968418 -0.007282961 -0.033402942 0.35703304 0.7060044 0.6190492 0.58000296 -0.06267841
-0.049953718 -0.062885396 0.016205775 -0.022323344 -0.04560676 -0.00787252 -0.10356469 -0.062140748
0.63988435 0.7377731 -0.01161882 0.03852874 -0.027389672 -0.018766142 0.114755556 0.86555856
-0.031364873 -0.07481002 -0.023748212 -0.017428515 -0.013873988 -0.06460284 -0.03470846 0.017300768
0.12843639 -0.012339584 0.7083702 0.4754232 0.6213992 0.019796226 0.0042271833 0.50379366
0.646009 0.5563577 0.63555855 0.73464155 -0.07842169 -0.013895511 -0.07228884 0.0009155451
-0.056139834 -0.029297441 0.3430011 0.6037182 0.83531165 -0.106196135 0.6486234 -0.028300146
-0.006379264 -0.11236499 0.01995853 0.6318788 -0.035862222 0.017574303 -0.0015262112 -0.03653435
0.64519787 0.6391162 0.41780487 -0.064081445 -0.0029388103 1.2662556 -0.027596261 -0.06518185
0.41276842 0.603306 0.00058460434 0.032175343 -0.068869576 -0.027158637 -0.087486565 0.008651503
00000000: a110 1a3f 532d 4bbd 042b 80bc 3c7f 2e3f
00000010: 60fb 5abd 4c27 d53b c07b 4abd 2427 b3bd
00000020: 052f a93c a859 f3bb 5cd9 1abd 580c 25bc
00000030: 3d6d 103f 9e48 45bc 68ec 56bc b3e6 38bc
00000040: 41b5 ad3b aa1d a1bd cd4a 0e3f 2180 e53e
00000050: 7517 133f 9838 353c 0555 75bd c628 aebd
00000060: b4ff 263f ee35 63bd 0cca 89bd fa29 aebd
00000070: 31d1 dabc 3bfe 123f 0710 c13e c36f 01bd
00000080: 9b0b 55bd 61cd da3e 398e 98bd e43b 9abc
00000090: 9e59 cf3c 26c9 243f 4d3a 4e3f 032e 1f3d
000000a0: e42b 123f 6b79 ff3c 09dc 9f3c 8ea9 40bd
000000b0: d78e 3a38 dc24 213f bcd3 9f3c 2b6e f73e
000000c0: 4f53 11bd 7c58 74bd 43ed 8cbd db7e 353f
000000d0: f755 0ebd 8f96 2c3f d044 353f 60e4 153f
000000e0: a41a 2f3f b75b 213f aeaa d13c e5d9 0f3f
000000f0: de20 0dbd 451f c53c 0a29 423b e2d5 88bc
00000100: e4e0 f8bc 367b 29bd a5a6 283f 78a3 cbbd
00000110: 0420 1fbd 7c0b 80bd 22cd abbd db0b 2b3f
00000120: d35d c4bc b385 9e3b 7dff ae3c c19b a03e
00000130: b072 323f 2164 30bd 2a5f 123d 0f89 633b
00000140: bd0e a0bd 1d06 50bd 1c22 fe3e 887c 36bd
00000150: a552 55bd e349 89bd ee6c c23b a457 95bd
00000160: a626 a1bd f7ad 54bd 67ac 273f ad95 a33c
00000170: c2b3 2e3f af15 0a3f 8337 3fbd 18c9 0dbd
00000180: 4dc2 93bd daeb e6bc cc77 383e b47e 0e3f
00000190: f1d2 a13c a67f 623e 24b4 133d b4e8 ca3e
000001a0: 563a 233f 4535 393f 4893 133f a314 44bd
000001b0: bf5e 9c3c cf4f f73e e33f 043f 0058 0eb8
000001c0: 6d0a 23bb a1b7 30bd 45dc 25bd 79a7 1fbd
000001d0: 707f c83a 8272 98bd 22f1 10bd 69af 33bd
000001e0: 789d 8cbd f07e 8ebd ab6c e93e f500 3bbd
000001f0: c39d dfbc ac67 ed3c 59f6 2c3d aec0 e03e
00000200: e90a 333d 22df 0b3f 1797 8abd b666 943c
00000210: aded e4bc 1020 3ebd fcc6 27bc 7b88 153f
00000220: 3e91 ca3e 49c8 8bbc cdb7 763c 0803 0b3d
00000230: e1d4 d83e 803e e239 7600 103d 721a 92bd
00000240: 5bbc 9cbd 0b77 6f3a 93d4 f6bc 1931 5a3c
00000250: da91 8cbc 722a c43e 41e2 8abd bd67 1cbd
00000260: 055b 61bd e8da 823c bfe0 dabd a271 f53e
00000270: 131c 2a3f 8968 ba3b 4d47 353f 440c 2bbd
00000280: c8c2 b73e 6755 b93d a483 bb3e 55fe b8bc
00000290: 8963 00bd 2a5a c83e 1634 f3bc 0f29 8ebd
000002a0: 8938 ccbc 1f3d 183f b23b 29bd c5e8 32bc
000002b0: f652 59bd 97a5 e63e 639d cc3e 8832 22bd
000002c0: 94b6 8ebd e8a5 eebb 86d1 08bd 09cd b63e
000002d0: b4bc 343f 027a 1e3f 137b 143f 8a5d 80bd
000002e0: 459c 4cbd 0fca 80bd f9c1 843c 72df b6bc
000002f0: 27ce 3abd befb 00bc b919 d4bd 4c87 7ebd
00000300: 76cf 233f b3de 3c3f dd5c 3ebc 50d0 1d3d
00000310: 4e60 e0bc 74bb 99bc f604 eb3d 3f95 5d3f
00000320: 7478 00bd ff35 99bd 9c8b c2bc 3fc6 8ebc
00000330: b94f 63bc 7e4e 84bd 752a 0ebd 57ba 8d3c
00000340: d484 033e f72b 4abc c057 353f ab6a f33e
00000350: 0514 1f3f b22b a23c 2f84 8a3b 9ff8 003f
00000360: d960 253f 756d 0e3f f7b3 223f 7811 3c3f
00000370: 8d9b a0bd ffa9 63bc 2c0c 94bd 3101 703a
00000380: e2f2 65bd 3001 f0bc d79d af3e 478d 1a3f
00000390: fcd6 553f 5c7d d9bd 2f0c 263f b5d5 e7bc
000003a0: 2509 d1bb 9e1f e6bd 1280 a33c cfc2 213f
000003b0: 44e4 12bd fcf7 8f3c 260b c8ba 0ba5 15bd
000003c0: b02b 253f 1f9d 233f 85ea d53e 223d 83bd
000003d0: 0e99 40bb aa14 a23f 8e11 e2bc 107e 85bd
000003e0: 6256 d33e 4372 1a3f 2240 193a 4bca 033d
000003f0: 7e0b 8dbd ca7b debc 282c b3bd 09bf 0d3c

layer_3.weight f4 [1, 300]
-0.89050615 0.017088806 0.042683423 -1.0931699 -0.31962726 -0.050937977 0.02672444 -0.17734288
0.005368865 -0.008019447 -0.004162822 0.01717178 -0.8840869 0.044721108 0.0049901707 -0.0070019937
0.008228464 0.04646911 -0.87722987 -0.5875177 -0.87042606 0.031657394 -0.020054556 0.117546715
-0.9839242 0.03552767 0.013554796 -0.03366092 0.020766204 -0.90286595 -0.73421013 0.027153594
0.015692461 -0.5910703 0.011870729 0.008702401 -0.014291817 -0.9380166 -1.3077465 0.026431207
-0.8861189 0.6932234 0.034717295 -0.0077809333 0.01040982 -0.89892024 0.026126444 -0.5770675
0.025757937 0.023717105 -0.02038747 -0.9796909 0.008358594 -0.9916148 -0.9689833 -0.90428483
-0.980771 -0.8836465 0.0044077146 -0.88979435 0.0030199438 -0.017451731 -0.0024718163 -0.024284566
0.048284527 -0.005908334 -0.9749792 -0.35357478 -0.15930553 0.008283584 0.03448647 -0.9652644
0.0238697 0.00010976484 -0.005083159 -1.5541382 -0.9744626 0.010459954 0.017730612 0.033607345
0.193799 -0.006849532 -0.6006072 0.035274148 0.0021664808 -0.028089019 0.02151913 0.026777573
0.48295102 -0.14583434 -1.0080043 -0.020278761 -0.9697848 -0.88338274 0.041404027 0.021094065
-0.021108385 0.0035249244 0.80999947 -0.8741001 0.007333817 -1.5351946 0.009010443 -0.58382463
-0.8972274 -0.9609964 -0.9067709 -0.014961527 0.019984998 -0.61810595 -0.89005256 -0.028440582
0.05108125 -0.2903349 -0.044444226 -0.023033738 0.04082113 -0.0060171005 0.0027232163 0.046198457
-0.0013999088 0.0020481674 -0.57920754 0.03605337 0.0073633245 -0.03232098 0.014289111 -0.7234411
0.49487764 -0.8838825 -0.007809562 -0.053719286 0.012936415 0.010430754 0.04440712 -0.8901324
-0.6860323 -0.068754345 -0.0025251198 0.042012773 -1.2328123 0.004011322 0.002842124 0.026861588
-0.020277632 0.03203441 0.047503628 -0.017473854 2.2338467 -0.6820013 0.019326061 0.054470606
0.02861456 0.8686541 -0.02498557 -0.5861099 -0.94549817 0.019840708 -0.97049004 0.023392398
-1.6490177 1.1514678 -1.4249568 -0.0046856804 0.019913236 -0.75290674 0.02391783 0.0069279647
0.007472678 -0.88665694 -0.017534751 -0.0070907217 0.04686623 -0.59111154 -0.575948 0.021527585
-0.008364494 -0.051151223 -0.0019389577 -1.2596152 -0.97091156 -0.9867566 -0.89650136 -0.01900067
0.031641793 -0.017353116 0.8707013 0.009318163 -0.073551185 0.046456832 0.011861758 -0.024954837
-0.8861263 -0.96279943 -0.026574187 -0.0052080313 0.008970322 -0.027964184 0.8710467 -1.2595187
0.032544997 -0.020454716 0.036864135 0.050101124 0.050253727 -0.057417933 0.02154337 0.0023218554
0.34682506 0.03381579 -0.96640766 -0.59104705 -0.8944187 0.0023237562 0.00019265163 -0.5970849
-0.89338297 -0.88846046 -0.9699223 -1.0733948 -0.014814883 0.023410661 0.005882787 0.008877793
0.53867126 0.05643186 -0.649587 -0.88876456 -1.4761802 -0.016788743 -0.9603103 -0.011357531
0.0068858215 -0.19433436 -0.006938667 -0.8918765 -0.0006911692 0.0043470333 -0.007886349 -0.009965563
-0.83774114 -0.97760487 -0.67672944 -0.029192284 0.0024478438 -2.8385828 -0.024714954 -0.005068778
-0.72969556 -0.88584423 -0.012227274 0.027357219 0.0053926497 0.018576957 0.010420902 0.033935267
00000000: 36f8 63bf d3fd 8b3c d0d4 2e3d feec 8bbf
00000010: 2fa6 a3be 57a4 50bd 36ed da3c 5f99 35be
00000020: 4eed af3b 0064 03bc 4868 88bb d5ab 8c3c
00000030: 8553 62bf 7b2d 373d 9684 a33b fb70 e5bb
00000040: aed0 063c 6556 3e3d 2392 60bf 8f67 16bf
00000050: 3ed4 5ebf 2fab 013d 7449 a4bc 55bc f03d
00000060: 75e2 7bbf 7685 113d ef14 5e3c 08e0 09bd
00000070: e31d aa3c 3922 67bf 32f5 3bbf 3771 de3c
00000080: 7a8d 803c 6250 17bf 727d 423c 8494 0e3c
00000090: 3a28 6abc db21 70bf 3d64 a7bf 4286 d83c
000000a0: b0d8 62bf 1777 313f b933 0e3d 33f7 febb
000000b0: f38d 2a3c a31f 66bf 2007 d63c b2ba 13bf
000000c0: 4f02 d33c 604a c23c a003 a7bc 06cd 7abf
000000d0: 7cf2 083c 78da 7dbf 4a0f 78bf 367f 67bf
000000e0: cf13 7bbf a836 62bf 976e 903b 90c9 63bf
000000f0: 40ea 453b eff6 8ebc 32fe 21bb 6df0 c6bc
00000100: ffc5 453d b39a c1bb 3d98 79bf c107 b5be
00000110: fd20 23be dfb7 073c af41 0d3d 911b 77bf
00000120: 648a c33c 8d31 e638 a190 a6bb 00ee c6bf
00000130: 6276 79bf 3a60 2b3c ca3f 913c dba7 093d
00000140: 3f73 463e 0a72 e0bb 65c1 19bf a07b 103d
00000150: 84fb 0d3b f11a e6bc e348 b03c a45c db3c
00000160: 5b45 f73e 9955 15be 4906 81bf a51f a6bc
00000170: d143 78bf 5f25 62bf 4597 293d 76cd ac3c
00000180: 7eeb acbc 6b02 673b 205c 4f3f 06c5 5fbf
00000190: 8450 f03b 4281 c4bf 8aa0 133c 8875 15bf
000001a0: b2b0 65bf dc03 76bf 2322 68bf 3121 75bc
000001b0: 94b7 a33c 313c 1ebf 7cda 63bf 39fc e8bc
000001c0: 933a 513d c7a6 94be 260b 36bd 40b1 bcbc
000001d0: 0f34 273d 192b c5bb fd77 323b 983a 3d3d
000001e0: 257d b7ba 8c3a 063b f246 14bf b3ac 133d
000001f0: 0b48 f13b 0163 04bd e01c 6a3c 7033 39bf
00000200: 9a60 fd3e 2046 62bf 5be7 ffbb c108 5cbd
00000210: 42f3 533c c1e5 2a3c 3ee4 353d b8df 63bf
00000220: d09f 2fbf 14cf 8cbd 7b7c 25bb 9615 2c3d
00000230: cbcc 9dbf 6871 833b ee42 3a3b d50c dc3c
00000240: 471d a6bc 8336 033d 2a93 423d 5425 8fbc
00000250: 58f7 0e40 a397 2ebf b051 9e3c 921c 5f3d
00000260: 1569 ea3c 1d60 5e3f 8aae ccbc 4c0b 16bf
00000270: 2b0c 72bf fb88 a23c 0972 78bf 6aa1 bf3c
00000280: 0313 d3bf 4c63 933f fc64 b6bf 568a 99bb
00000290: 1521 a33c 7fbe 40bf 53ef c33c fb03 e33b
000002a0: 5edd f43b f3fb 62bf 0aa5 8fbc 4959 e8bb
000002b0: cef6 3f3d 1653 17bf 5471 13bf 9e5a b03c
000002c0: 3b0b 09bc f283 51bd a024 feba 123b a1bf
000002d0: a98d 78bf 159c 7cbf 1d81 65bf 4ba7 9bbc
000002e0: d39a 013d 1f28 8ebc 48e6 5e3f 35ab 183c
000002f0: 01a2 96bd 8549 3e3d d257 423c 166e ccbc
00000300: 2cd9 62bf 067a 76bf 1cb2 d9bc 22a8 aabb
00000310: 42f8 123c 2515 e5bc ebfc 5e3f e937 a1bf
00000320: e74d 053d a690 a7bc d9fe 163d d636 4d3d
00000330: dad6 4d3d 112f 6bbd b97b b03c 452a 183b
00000340: 0e93 b13e 6d82 0a3d 7e66 77bf dc4e 17bf
00000350: a0f8 64bf 294a 183b 8702 4a39 8eda 18bf
00000360: bfb4 64bf 2572 63bf d44c 78bf 0065 89bf
00000370: 1fba 72bc b7c7 bf3c 65c4 c03b 2a74 113c
00000380: 5ce6 093f 1825 673d 554b 26bf 1386 63bf
00000390: 79f3 bcbf 8c88 89bc e5d6 75bf f014 3abc
000003a0: 75a2 e13b 96ff 46be c25d e3bb 0552 64bf
000003b0: 942f 35ba 8f71 8e3b bf35 01bc 9a46 23bc
000003c0: 3476 56bf 5044 7abf 243e 2dbf a824 efbc
000003d0: 016c 203b 57ab 35c0 0477 cabc fe17 a6bb
000003e0: 54cd 3abf b0c6 62bf e754 48bc 3f1c e03c
000003f0: d3b4 b03b b42e 983c 6ebc 2a3c b5ff 0a3d

layer_4.weight f4 [400, 5]
0.24771267 0.042061538 -0.11887866 -0.07158333 0.029699922 0.7511121 0.19021 -0.6084107
-0.31965908 0.87117004 -1.3565022 -3.893068 0.8117834 -0.012687702 -0.0117192995 -1.7906426
-3.9889402 0.3795 -0.35464746 -0.22579283 0.11805466 -0.3145799 -0.16524793 0.15941165
0.012221326 0.38970447 0.12219989 -0.04488963 -0.18616173 -0.19002557 -0.36931294 -0.4648517
0.115771644 0.14349744 -0.07069654 -1.3018013 -4.2665176 0.79360074 -0.7159275 -0.0006768756
0.18976411 -0.5022451 -0.4397019 -0.45596352 -0.3259041 2.6332495 5.3166137 0.37521592
0.3957094 -0.034117397 0.32044232 -0.5363011 -0.34530526 -0.12487975 -0.18792357 0.2573266
0.0149820745 -0.26083642 -0.4093417 -0.32398957 -0.0356856 -1.3439382 -0.53704256 -0.68588406
0.5274927 -1.734716 -3.92312 0.15702927 0.09619524 0.039081212 -0.8522113 -3.401718
1.0476176 0.23626006 -0.33876178 -1.3625773 -4.1580157 0.502473 -0.05760897 0.044327028
-0.3612068 -0.094915 0.10571849 0.11294675 -0.06121269 -0.092662685 0.028631657 -0.08836139
0.23418848 0.26620033 0.16671228 0.17329013 0.06005943 -0.21652675 -0.07217771 -1.9348938
-4.0332427 0.70332134 0.08180834 0.03922268 -0.76375175 -0.38331017 1.005052 -0.10146697
0.20763332 1.6938324 2.4894497 0.6713707 0.75040835 0.50742584 -0.12659113 -0.5737186
0.13749847 0.26602647 -0.0038414695 1.4583054 2.8915794 0.74370927 0.58367413 -0.0973992
-1.5628746 -5.0996885 0.5308526 -0.5986627 -0.5025857 -1.2184368 -3.5213168 0.7907163
0.005011565 0.30565616 -0.2545896 -0.18834303 -0.23523992 -0.4646046 -0.15180804 -1.3423836
-4.2783556 0.5550669 0.14260505 0.1821342 -2.6340458 -7.769056 0.57718664 0.036348313
-0.84825194 -0.08109236 0.20144063 -0.099524796 0.3194009 -0.06584674 -1.1742237 -3.8286862
0.04612894 0.12548578 0.3069899 -1.5415795 -4.6095514 0.9488998 -0.376239 -0.16048874
-0.74933684 -1.2713937 -0.51839983 -0.8170332 0.43748912 -1.7068849 -3.9756062 0.5558694
-0.05542191 0.19482733 -1.8223236 -3.87484 0.6728678 -0.7187316 -0.053535964 -1.0573316
-4.8309073 0.23816729 -0.16457368 -1.0165303 0.086445875 1.832754 -1.1329685 -0.5344149
-0.06354111 -0.48680744 0.14898732 -0.0007806054 -0.50149846 0.24735357 -1.9409494 -3.68193
0.91400224 -0.12312594 0.08412412 -1.221534 -3.5436163 0.4495749 -0.010304927 0.33131993
-0.21030925 0.028822875 -0.024486758 -0.035311036 -0.16731672 -0.7558949 -1.2132485 -0.7933338
-0.80333817 0.4915648 0.12514922 0.9273278 0.5571982 0.20191994 0.26501685 -0.25063467
-0.22286347 -0.10452598 -0.005707532 -0.37556785 1.3225764 3.5955784 0.5596094 0.85042053
0.020024825 -2.323948 -7.2447977 0.18955077 0.26877114 -1.0033743 -2.014697 -6.203462
0.40953755 0.24309817 -1.1087056 -1.4049413 -4.1576805 0.4967742 -0.36981568 0.08592033
-0.55070573 -1.5873302 -0.3166496 -0.29091644 0.71900517 -1.9476463 -3.8483222 0.51326716
-0.1347352 0.0071618017 -1.5835055 -4.225421 0.56989545 0.017549079 0.22366859 -0.55160064
00000000: 64a8 7d3e b848 2c3d a876 f3bd 489a 92bd
00000010: 404d f33c e248 403f 69c6 423e cec0 1bbf
00000020: 5baa a3be 0005 5f3f dda1 adbf 0728 79c0
00000030: 09d1 4f3f 14e0 4fbc 4e02 40bc c733 e5bf
00000040: cc4a 7fc0 d34d c23e 5a94 b5be 3c36 67be
00000050: a4c6 f13d 9e10 a1be c136 29be cf3c 233e
00000060: f53b 483c 5887 c73e f043 fa3d 30de 37bd
00000070: 2ea1 3ebe 1096 42be 9616 bdbe 0b01 eebe
00000080: af19 ed3d fef0 123e 59c9 90bd 6da1 a6bf
00000090: 5087 88c0 6b29 4b3f 0647 37bf 5a70 31ba
000000a0: 8651 423e 2393 00bf 9c20 e1be 0d74 e9be
000000b0: e7dc a6be 2987 2840 b321 aa40 4d1c c03e
000000c0: 6c9a ca3e afbe 0bbd 0411 a43e 074b 09bf
000000d0: dacb b0be f4c0 ffbd 096f 40be 50c0 833e
000000e0: 6077 753c 5a8c 85be 3c95 d1be f6e1 a5be
000000f0: 102b 12bd 2b06 acbf 9f7b 09bf 1996 2fbf
00000100: c309 073f 2d0b debf 6614 7bc0 48cc 203e
00000110: 0302 c53d 9f13 203d 852a 5abf bfb5 59c0
00000120: 5518 863f 28ee 713e 2f72 adbe ef68 aebf
00000130: 770e 85c0 12a2 003f 62f7 6bbd 4290 353d
00000140: 19f0 b8be cc62 c2bd f082 d83d a050 e73d
00000150: 28ba 7abd efc5 bdbd f08c ea3c d1f6 b4bd
00000160: 1bcf 6f3e 694b 883e a0b6 2a3e f872 313e
00000170: e000 763d 30b9 5dbe e8d1 93bd 9aaa f7bf
00000180: 5310 81c0 de0c 343f 228b a73d f6a7 203d
00000190: 3c85 43bf 3b41 c4be 8ba5 803f eacd cfbd
000001a0: d49d 543e 80cf d83f 2553 1f40 f3de 2b3f
000001b0: c31a 403f a9e6 013f 1ba1 01be 39df 12bf
000001c0: 66cc 0c3e 9f34 883e 2ac1 7bbb c0a9 ba3f
000001d0: a30f 3940 bb63 3e3f ab6b 153f 3b79 c7bd
000001e0: 460c c8bf a630 a3c0 f5e5 073f f541 19bf
000001f0: 75a9 00bf bdf5 9bbf 415d 61c0 626c 4a3f
00000200: 0e38 a43b f77e 9c3e 9159 82be ffdc 40be
00000210: bce2 70be a7e0 edbe 9173 1bbe 3ad3 abbf
00000220: 4ae8 88c0 dd18 0e3f 0f07 123e 6381 3a3e
00000230: 3594 28c0 1b9c f8c0 81c2 133f f8e1 143d
00000240: 0a27 59bf c013 a6bd 7446 4e3e a8d3 cbbd
00000250: 8488 a33e a8da 86bd f64c 96bf 3209 75c0
00000260: b3f1 3c3d 587f 003e c82d 9d3e 7a52 c5bf
00000270: 7281 93c0 19eb 723f 66a2 c0be 2957 24be
00000280: 8ad4 3fbf 07bd a2bf dab5 04bf 1629 51bf
00000290: 93fe df3e 347b dabf 5570 7ec0 754d 0e3f
000002a0: 1602 63bd d180 473e e641 e9bf 61fd 77c0
000002b0: 1041 2c3f cbfe 37bf 8748 5bbd a456 87bf
000002c0: cb96 9ac0 20e2 733e 0186 28be aa1d 82bf
000002d0: 890a b13d af97 ea3f 1d05 91bf 6acf 08bf
000002e0: d721 82bd d33e f9be 2290 183e 8ba1 4cba
000002f0: 3462 00bf 414a 7d3e 0871 f8bf bea4 6bc0
00000300: 0dfc 693f 7429 fcbd 4449 ac3d 3a5b 9cbf
00000310: 9cca 62c0 ae2e e63e ffd5 28bc c4a2 a93e
00000320: 4f5b 57be f31d ec3c 7498 c8bc 4ea2 10bd
00000330: 1355 2bbe 5482 41bf ba4b 9bbf ed17 4bbf
00000340: 92a7 4dbf 62ae fb3e 1e27 003e 5b65 6d3f
00000350: 8ba4 0e3f 1ac4 4e3e 4ab0 873e 3053 80be
00000360: 5236 64be b811 d6bd 4006 bbbb 6e4a c0be
00000370: 2f4a a93f f51d 6640 9042 0f3f 29b5 593f
00000380: 1a0b a43c 90bb 14c0 62d5 e7c0 9919 423e
00000390: 5f9c 893e 926e 80bf ccf0 00c0 c382 c6c0
000003a0: e8ae d13e baee 783e 11ea 8dbf 1ed5 b3bf
000003b0: b80b 85c0 3059 fe3e 7b58 bdbe fff6 af3d
000003c0: 0dfb 0cbf a32d cbbf e51f a2be 00f3 94be
000003d0: b910 383f 794c f9bf e94a 76c0 7a65 033f
000003e0: 06f8 09be 8cad ea3b 4fb0 cabf a636 87c0
000003f0: abe4 113f 16c3 8f3c 6109 653e b335 0dbf

layer_4.bias f4 [400]
-0.14323643 0.62477136 0.9607483 0.99708986 -0.14697112 -0.41371974 -0.18995513 0.942054
-0.24032237 -0.15497494 -0.15273894 -0.32541716 0.37317085 0.71594226 0.21629001 0.9089618
-0.18841937 -0.42465264 -0.23568618 0.79328394 -0.15128362 -0.03575638 -0.228569 -0.0934716
0.87738055 0.6580574 -0.109966144 0.7844167 0.3853743 -0.38075995 0.86422515 0.9565775
0.2683348 0.7979657 0.876508 0.4562789 0.1934469 -0.21907045 0.724731 0.8686164
-0.21281473 0.40634477 0.07028527 -0.3769083 -0.23073742 0.1383128 0.11319869 0.8200921
0.21587679 0.6334326 0.8685759 -0.35544774 -0.0019274418 -0.3088381 0.7668469 0.8474237
0.5539445 0.6427327 -0.094397455 0.706598 -0.13127607 -0.14362171 0.10566234 -0.023557296
0.32058278 0.39283872 -0.02413502 0.25636202 -0.10206755 -0.29975024 0.6224967 -0.25404644
0.40236592 0.5823924 -0.21006496 0.8403012 -0.25285977 0.38650638 -0.2026048 -0.3670712
0.26230925 0.57824284 0.20657094 0.8282655 0.36240432 0.037607674 -0.4216252 0.024710953
-0.20869562 -0.07807447 0.65917104 -0.158229 0.72001797 -0.29921597 -0.20072584 0.9711856
0.8833368 -0.023157818 0.91983783 0.41950563 0.71416074 0.3598018 0.7840734 0.51754117
0.1177059 -0.17244948 0.75068635 0.60581106 0.018567558 -0.40737012 0.2671614 -0.08132869
-0.2604357 0.89283925 0.7299922 -0.022536876 -0.42431304 0.8961781 -0.029677464 -0.29438594
0.603149 -0.24181375 0.077719875 -0.51050156 0.3814588 0.8766485 0.23269467 -0.24955374
0.8160478 0.8024708 -0.3185192 -0.23198089 0.35121113 -0.39481083 0.20540695 -0.16405113
-0.34681737 -0.13110709 0.059303302 -0.4008523 0.14094588 0.26093414 0.9681765 -0.36222246
0.29217014 0.8785118 0.5666704 0.49893746 -0.018121773 0.8358941 0.0522 0.95306915
0.16762516 -0.20782176 0.7064935 -0.35560828 0.4153779 0.4417704 0.9159762 0.22364646
0.90662086 -0.2340873 -0.23754889 0.79828477 0.3095831 -0.26747197 0.24019213 -0.13431811
0.95179653 0.3923192 -0.15165445 0.21715508 0.62677586 -0.2724261 0.779676 -0.011406645
0.08341452 -0.43013567 0.49970537 0.9627934 -0.39752302 0.4133689 -0.2543257 0.078510806
0.48666316 0.23326653 -0.043500006 0.71267295 0.2365404 0.77518934 -0.42239293 0.29143333
-0.07764403 -0.32706198 0.6053078 0.8190951 0.96398264 0.17932354 0.25766298 0.42468143
0.90909725 -0.41594696 0.505027 0.5909683 0.3296635 0.79202884 -0.27932048 0.078560665
0.49855858 -0.22292317 0.73907316 0.800036 -0.33980978 -0.4080518 -0.4091182 0.97547954
0.56012994 0.1753364 0.9418586 0.25174633 0.7958723 -0.26311058 0.9298215 -0.18252052
0.8986182 -0.09202314 0.6044936 0.73925465 -0.14708447 -0.15740828 0.9482804 0.4718563
0.21765994 -0.14002103 0.46120575 -0.27043718 -0.3346002 0.9832349 0.18866959 0.7988139
-0.21192963 0.16312063 0.7509412 -0.42996752 0.8415189 0.24122977 0.33922198 0.9591827
0.22403334 0.8882389 0.6750588 -0.18140565 0.82692814 -0.08308091 -0.20719598 0.801364
00000000: 92ac 12be 04f1 1f3f 9af3 753f 4841 7f3f
00000010: 997f 16be 13d3 d3be 9983 42be 732a 713f
00000020: 1117 76be c0b1 1ebe 9967 1cbe 149d a6be
00000030: 4010 bf3e fe47 373f 217b 5d3e b8b1 683f
00000040: 02f1 40be 126c d9be b857 71be a814 4b3f
00000050: 18ea 1abe 4875 12bd fe0d 6abe 0a6e bfbd
00000060: 039c 603f 7376 283f ee35 e1bd 88cf 483f
00000070: c84f c53e f8f2 c2be dc3d 5d3f 43e2 743f
00000080: 2e63 893e 7b47 4c3f d462 603f 639d e93e
00000090: f216 463e 0154 60be f987 393f a55d 5e3f
000000a0: 1bec 59be 6c0c d03e b9f1 8f3d 20fa c0be
000000b0: 6e46 6cbe dfa1 0d3e b7d4 e73d 8ef1 513f
000000c0: ce0e 5d3e a428 223f fd5a 5e3f 3ffd b5be
000000d0: 37a2 fcba 0720 9ebe 1450 443f c2f0 583f
000000e0: 4fcf 0d3f 218a 243f 7453 c1bd 9be3 343f
000000f0: 3c6d 06be 9211 13be 7f65 d83d 3bfb c0bc
00000100: 6d23 a43e 2822 c93e ceb6 c5bc e241 833e
00000110: cb08 d1bd dd78 99be f25b 1f3f 6012 82be
00000120: e802 ce3e ab17 153f 451b 57be fb1d 573f
00000130: d676 81be 2ae4 c53e a277 4fbe c2f0 bbbe
00000140: 664d 863e b907 143f 5587 533e 3509 543f
00000150: 0f8d b93e 810a 1a3d 42df d7be a06e ca3c
00000160: 4eb4 55be 82e5 9fbd 6fbf 283f c806 22be
00000170: 1953 383f d632 99be 138b 4dbe 9f9f 783f
00000180: 5c22 623f 77b5 bdbc 7e7a 6b3f 71c9 d63e
00000190: 3dd3 363f f137 b83e 09b9 483f 947d 043f
000001a0: ca0f f13d 9996 30be fb2c 403f 6f16 1b3f
000001b0: fe1a 983c d192 d0be 61c9 883e a88f a6bd
000001c0: d457 85be 1d91 643f c5e0 3a3f 419f b8bc
000001d0: 8f3f d9be ee6b 653f 271e f3bc c1b9 96be
000001e0: f967 1a3f 069e 77be 992b 9f3d 3bb0 02bf
000001f0: 914e c33e 096c 603f 8347 6e3e 048b 7fbe
00000200: 82e8 503f ba6e 4d3f f314 a3be 668c 6dbe
00000210: f2d1 b33e a524 cabe 3356 523e 05fd 27be
00000220: 0c92 b1be f040 06be 05e8 723d 833c cdbe
00000230: 1e54 103e 2999 853e 6ada 773f 3975 b9be
00000240: 5397 953e 26e6 603f 5011 113f bb74 ff3e
00000250: 1d74 94bc 28fd 553f abcf 553d 57fc 733f
00000260: eea5 2b3e 3acf 54be c2dc 343f 4a12 b6be
00000270: 69ac d43e bb2f e23e 6b7d 6a3f 9403 653e
00000280: 4e18 683f 95b4 6fbe 0440 73be 645c 4c3f
00000290: ad81 9e3e 16f2 88be edf4 753e b08a 09be
000002a0: f0a8 733f 10de c83e 4e4b 1bbe e75d 5e3e
000002b0: 6274 203f 6f7b 8bbe d998 473f f0e2 3abc
000002c0: 3bd5 aa3d be3a dcbe 62d9 ff3e a179 763f
000002d0: 2388 cbbe 17a5 d33e fa36 82be 46ca a03d
000002e0: ea2b f93e 6cdd 6e3e 102d 32bd bc71 363f
000002f0: a637 723e cf72 463f e343 d8be c036 953e
00000300: d503 9fbd ab74 a7be 74f5 1a3f 37b0 513f
00000310: 91c7 763f 97a0 373e 67ec 833e d86f d93e
00000320: 99ba 683f 00f7 d4be 7349 013f b349 173f
00000330: a7c9 a83e 67c2 4a3f 1803 8fbe 6ae4 a03d
00000340: 1243 ff3e f945 64be e633 3d3f 29cf 4c3f
00000350: 8cfb adbe 2aec d0be f177 d1be 07b9 793f
00000360: ad64 0f3f 638b 333e a51d 713f e5e4 803e
00000370: 49be 4b3f 6eb6 86be c808 6e3f a9e6 3abe
00000380: d80b 663f a176 bcbd 18c0 1a3f cb3f 3d3f
00000390: 509d 16be a32f 21be 81c2 723f 2697 f13e
000003a0: 3fe2 5e3e ac61 0fbe 2923 ec3e be76 8abe
000003b0: b850 abbe 48b5 7b3f 9a32 413e 117f 4c3f
000003c0: 1504 59be 1809 273e af3d 403f b424 dcbe
000003d0: c86d 573f f004 773e 81ae ad3e ff8c 753f
000003e0: ff68 653e a063 633f a7d0 2c3f 67c2 39be
000003f0: 90b1 533f 5326 aabd 2f2b 54be 3126 4d3f

layer_5.weight f4 [300, 400]
-0.03666442 -0.032747835 -0.067855574 -0.014479023 -0.029148525 0.022097643 -0.005456866 -0.0530975
-0.008329339 0.025145644 -0.032360997 0.02102575 -0.038334403 -0.07052609 0.009922854 -0.05083077
0.025671426 -0.045124214 -0.023722768 -0.030341132 -0.013993792 -0.020353245 0.031088427 -0.0057232343
-0.06286127 -0.03145944 -0.04225853 -0.05184671 -0.05005505 0.009599932 -0.057689775 -0.0110527715
-0.020439535 0.007485437 -0.055847708 -0.032159694 0.011705203 0.018725548 0.004009182 0.0013396762
-0.04671546 -0.0200125 -0.046761524 0.03912631 0.013333509 -0.032433406 0.00051622133 -0.039161216
-0.035844427 -0.011356261 -0.015369996 0.014609696 0.020194802 0.007947873 -0.04205864 0.00571505
0.01961345 -0.025085162 0.047995817 -0.024043689 -0.027185867 -0.033361305 0.05551331 0.022480892
-0.016811479 -0.07769575 0.06082971 -0.008589456 0.060331278 -0.009607982 -0.0214221 -0.054883637
-0.026148109 0.041759048 -0.010336716 -0.024890477 0.0054027983 0.019441796 0.0071925037 -0.055010878
-0.03934129 -0.01082246 -0.040176548 -0.03676423 -0.00856333 -0.011644237 0.01687013 0.019570112
-0.061699506 0.012494753 0.0138118435 0.00841368 0.013851673 -0.013488241 -0.013761295 0.016350439
-0.0011291028 -0.05368343 -0.06756126 0.022602702 0.004580035 -0.068884395 -0.008883278 -0.039749328
0.046345863 0.024245586 -0.06486811 -0.08369272 -0.017621992 -0.04221472 0.0106832 0.027969789
0.027510744 -0.07765546 0.003495276 0.0077149156 -0.038577504 -0.06437664 0.00050905795 0.011799581
-0.025853876 0.0335924 0.02604371 0.01055153 0.0025169253 0.011498164 -0.024655502 0.012400546
-0.02322497 -0.05978787 -0.044722326 -0.029188655 -0.04505998 -0.03626533 -0.034944393 0.033365626
-0.029816514 -0.050323162 0.032059196 0.045941744 0.0049233916 -0.042814847 -0.015030474 0.020044062
0.013035115 -0.06893469 0.01759807 -0.07992957 -0.03536568 -0.043032907 -0.0047297957 -0.031675443
0.012205273 -0.0072729327 -0.0061320746 -0.012506217 0.0052757347 -0.020989323 -0.021072878 -0.02429316
-0.034541305 -0.048320632 -0.00283336 -0.016407505 -0.03337945 -0.034382172 -0.03677783 -0.017141763
0.030396994 -0.008677018 -0.023397315 0.0031669135 -0.007741826 0.008762495 -0.017499086 0.002850613
0.0019913882 0.017529834 0.03883562 -0.045850016 -0.030692184 -0.072875395 0.016778609 0.007837046
-0.054583125 -0.0364159 0.010943156 -0.07251195 0.031188805 -0.06967461 -0.0006438084 -0.021161754
-0.047648158 -0.023038687 -0.06447603 -0.06618856 -0.0043827747 -0.043287437 -0.021108657 -0.027133917
0.028233703 0.0051121525 -0.00066136906 -0.07628093 -0.035741672 0.007844413 0.015421528 0.004028641
-0.048508182 -0.016601503 -0.028812487 -0.062809795 -0.03620814 -0.05434243 0.036785852 -0.050273646
-0.037399862 0.010739257 -0.022226915 -0.016110618 0.019609973 0.027655218 -0.028020091 0.0171832
-0.07625536 0.02121896 -0.017821072 -0.028103482 0.005633519 -0.04176426 -0.032601207 0.0033193165
-0.026566563 -0.022686947 -0.011036678 0.048702437 0.03165554 0.024735784 -0.028378043 -0.049970448
-0.026397588 -0.051106453 -0.00867124 0.0015819073 -0.0087991655 0.02548162 -0.050205547 -0.058854334
-0.0550744 -0.02165396 -0.064848706 -0.0017861787 -0.086581476 0.00907486 0.016877647 -0.0040767975
00000000: 6e2d 16bd 9822 06bd ddf7 8abd 6d39 6dbc
00000010: e3c8 eebc 1e06 b53c 83cf b2bb c47c 59bd
00000020: c877 08bc 3dfe cd3c f78c 04bd 323e ac3c
00000030: 8904 1dbd fc6f 90bd 7793 223c ed33 50bd
00000040: e24c d23c 2bd4 38bd 4056 c2bc f78d f8bc
00000050: 3846 65bc d9bb a6bc 28ad fe3c f889 bbbb
00000060: 69bd 80bd 9ddb 00bd 4817 2dbd 375d 54bd
00000070: 8606 4dbd 0849 1d3c 1d4c 6cbd af16 35bc
00000080: d070 a7bc 6648 f53b 91c0 64bd e2b9 03bd
00000090: 2ec7 3f3c 5266 993c 755f 833b 1398 af3a
000000a0: b658 3fbd 41f1 a3bc 0389 3fbd e942 203d
000000b0: ca74 5a3c e4d8 04bd 0753 073a 8367 20bd
000000c0: 9bd1 12bd 9c0f 3abc 70d2 7bbc 825d 6f3c
000000d0: 926f a53c cc37 023c ae45 2cbd 5045 bb3b
000000e0: 63ac a03c 667f cdbc 4397 443d 45f7 c4bc
000000f0: e5b4 debc dda5 08bd ed61 633d d929 b83c
00000100: 3ab8 89bc f31e 9fbd 9328 793d caba 0cbc
00000110: ee1d 773d cc6a 1dbc 667d afbc aacd 60bd
00000120: 8f34 d6bc 890b 2b3d 545b 29bc 1de7 cbbc
00000130: f509 b13b 6744 9f3c 18af eb3b 1653 61bd
00000140: 5524 21bd b050 31bc 2a90 24bd 1796 16bd
00000150: 364d 0cbc 78c7 3ebc 3a33 8a3c 8051 a03c
00000160: 9fb8 7cbd cbb6 4c3c 124b 623c 88d9 093c
00000170: 21f2 623c c8fd 5cbc 0e77 61bc 5bf1 853c
00000180: 67fe 93ba 28e3 5bbd 8f5d 8abd 4d29 b93c
00000190: 1e14 963b 4313 8dbd 2b8b 11bc 31d0 22bd
000001a0: 29d5 3d3d ae9e c63c 92d9 84bd 1767 abbd
000001b0: ff5b 90bc 58e9 2cbd 9708 2f3c e620 e53c
000001c0: 365e e13c d309 9fbd 0011 653b 67cd fc3b
000001d0: 7203 1ebd e6d7 83bd 4d72 053a 0853 413c
000001e0: 82cb d3bc 2f98 093d 9e59 d53c 53e0 2c3c
000001f0: 00f3 243b cc62 3c3c 56fa c9bc a92b 4b3c
00000200: 4b42 bebc 20e4 74bd c22e 37bd 0c1d efbc
00000210: d090 38bd f48a 14bd da21 0fbd 65aa 083d
00000220: c341 f4bc a91f 4ebd 8150 033d 692d 3c3d
00000230: 6754 a13b 9f5e 2fbd 6142 76bc 7233 a43c
00000240: 3c91 553c a12d 8dbd d429 903c 1db2 a3bd
00000250: 9adb 10bd 4643 30bd 67fc 9abb 1cbe 01bd
00000260: a0f8 473c c851 eebb 92ef c8bb e0e6 4cbc
00000270: 12e0 ac3b cdf1 abbc 07a1 acbc 7302 c7bc
00000280: 2f7b 0dbd dbeb 45bd e5af 39bb 0869 86bc
00000290: e4b8 08bd 52d4 0cbd 5aa4 16bd e26c 8cbc
000002a0: 1e03 f93c 0d2a 0ebc baab bfbc fe8b 4f3b
000002b0: 25af fdbb 9190 0f3c 3e5a 8fbc 5ad1 3a3b
000002c0: f381 023b ba9a 8f3c 1912 1f3d 3acd 3bbd
000002d0: 2d6e fbbc b23f 95bd 4b73 893c f466 003c
000002e0: 8e92 5fbd d728 15bd ec4a 333c 2581 94bd
000002f0: aa7f ff3c 90b1 8ebd 40c5 28ba 6a5b adbc
00000300: b72a 43bd a1bb bcbc 020c 84bd de8d 87bd
00000310: 619d 8fbb 2b4e 31bd 10ec acbc f347 debc
00000320: 5e4a e73c d883 a73b ba5f 2dba 2d39 9cbd
00000330: dc65 12bd da85 003c 94aa 7c3c b102 843b
00000340: 84b0 46bd e0ff 87bc 2a08 ecbc 6ca2 80bd
00000350: fd4e 14bd 2b96 5ebd c3ac 163d bdeb 4dbd
00000360: 9930 19bd b5f3 2f3c 3815 b6bc 6afa 83bc
00000370: 18a5 a03c 328d e23c 648a e5bc c8c3 8c3c
00000380: c52b 9cbd 62d3 ad3c 7ffd 91bc 4639 e6bc
00000390: 6299 b83b 0011 2bbd d888 05bd e488 593b
000003a0: 1fa2 d9bc fad9 b9bc 2fd3 34bc 357c 473d
000003b0: 3da9 013d b3a2 ca3c 1279 e8bc d0ad 4cbd
000003c0: c13f d8bc 0055 51bd d111 0ebc 0058 cf3a
000003d0: 602a 10bc d5be d03c 55a4 4dbd 3e11 71bd
000003e0: b295 61bd a563 b1bc 66cf 84bd 361e eaba
000003f0: a151 b1bd b9ae 143c fe42 8a3c a896 85bb
