RL/Model_Repository/temp/TD3_Guest_sdfs_critic.pth (torch, 997647 bytes, 10 tensors)

layer_1.weight f4 [400, 8]
0	0xbf94d969	-1.1628848
1	0xbf77f810	-0.9686289
2	0xbe1a9d4c	-0.15099066
3	0xbee009db	-0.4375752
4	0x3ea11024	0.31457627
5	0x3c81497d	0.015782112
6	0xbde7245b	-0.11286231
7	0xbfe7ab09	-1.8099071
8	0x3e39ccc6	0.18144521
9	0xbe28e25d	-0.164926
10	0x3df91370	0.121619105
11	0xbd1c91e8	-0.038225085
12	0xbe4e64b5	-0.20155604
13	0xbd893988	-0.06700426
14	0xbd577a80	-0.05260706
15	0x3d7c2d40	0.06156659
16	0xbfa67aa6	-1.3006179
17	0xbf8d4a1c	-1.1038241
18	0x3f264c1e	0.64959896
19	0x3f906053	1.1279396
20	0x3ec6a428	0.38797116
21	0xbb974a34	-0.004617
22	0xbed0a4aa	-0.4075063
23	0x3f0c4614	0.5479443
24	0xbf4bc273	-0.7959358
25	0xbf311cf1	-0.69184786
26	0xbe25b98a	-0.16184059
27	0x3df5c332	0.12000121
28	0x3ea05eed	0.31322423
29	0xbc0e82ae	-0.008698149
30	0xba88f759	-0.0010449692
31	0xbf8e62e4	-1.1123929
32	0x3e936b6f	0.28792903
33	0xbb849c40	-0.0040469468
34	0x3e6a3682	0.22872356
35	0xbe798100	-0.24365616
36	0x3df4ce30	0.1195339
37	0xbeaa9a83	-0.33321008
38	0xbe9ad075	-0.30237165
39	0x3e922ee7	0.2855141
40	0x3da40679	0.08009047
41	0xbc8bd118	-0.017067477
42	0xbe17a829	-0.14810242
43	0x3f80aaa0	1.0052071
44	0xbd07c42d	-0.033146072
45	0xbb06a753	-0.002054651
46	0xbcde6253	-0.027146494
47	0x3f464e91	0.7746363
48	0x40087bfe	2.132568
49	0x3ff32d2f	1.8998164
50	0xbf01a3a1	-0.506403
51	0xbf8120eb	-1.0088171
52	0x4018ff5e	2.3905864
53	0xbedcf32a	-0.4315427
54	0x3d62ec76	0.055401288
55	0xc0b0ca0a	-5.524663
56	0x3e9d2013	0.30688533
57	0xbea208d8	-0.31647372
58	0x3e11ddfc	0.14244837
59	0xbe32e935	-0.17471774
60	0x3e4048ae	0.18777725
61	0xbbe52f00	-0.006994128
62	0xbe2d9bf8	-0.16954029
63	0x3d571e20	0.052518964
64	0xbfa93f01	-1.3222352
65	0xbfe10920	-1.758091
66	0x3f415037	0.75513023
67	0x3f78a6cd	0.9712952
68	0x3f4d7e13	0.802705
69	0xbb4a342c	-0.003085385
70	0xbe8b0aa5	-0.2715656
71	0x3ee16621	0.4402323
72	0x3e60d590	0.21956468
73	0xbe96f12d	-0.29480878
74	0x3e69f301	0.22846605
75	0xbca84f7a	-0.02054571
76	0x3f1abf96	0.60448587
77	0xbb480a7d	-0.003052383
78	0xbc5d4bb8	-0.013506822
79	0xbfe2efd2	-1.7729437
80	0x3dec4ce4	0.11538103
81	0x3ea4b279	0.32167414
82	0x3e5b4b7a	0.21415511
83	0x3e8d8165	0.27637783
84	0xbd964214	-0.07336822
85	0xbea7ca11	-0.32771352
86	0xbe3c8fd1	-0.18414237
87	0x3e214efe	0.1575279
88	0xbf946525	-1.1593367
89	0xbf64b2bd	-0.8933523
90	0x3f106be3	0.5641462
91	0x3f7f5043	0.99731845
92	0x3f3e8be9	0.74432236
93	0xbbb5dbd9	-0.0055498895
94	0xbeb28c64	-0.34872735
95	0x3f7e8cde	0.99433696
96	0xbfc220d9	-1.5166274
97	0xbfce0819	-1.6096221
98	0x3eb249f1	0.34822038
99	0x3f83029b	1.023517
100	0x3f11d7fe	0.569702
101	0xbbf85712	-0.007578739
102	0xbee53c0e	-0.4477238
103	0x3e1c7601	0.1527939
104	0x3e3dfe72	0.18554094
105	0x3f15caf5	0.5851281
106	0xbf2a3101	-0.66481024
107	0x3f8e6bc4	1.1126637
108	0x3f35ceb5	0.71018535
109	0xc0639528	-3.5559788
110	0xbb441071	-0.0029917026
111	0xc011a5f3	-2.2757537
112	0x3df8ff40	0.1215806
113	0x3da2fbac	0.07958159
114	0x3e90f295	0.28310075
115	0x3e08a48c	0.1334402
116	0xbe75527e	-0.2395725
117	0xbe236cfa	-0.1595954
118	0xbe7775f6	-0.24166092
119	0x3d130698	0.03589496
120	0xbe798d38	-0.24370277
121	0xbe326be5	-0.17423971
122	0xbe6c4ac6	-0.23075399
123	0xbe49a876	-0.19693169
124	0xbe5bb86c	-0.2145707
125	0xbeb0a019	-0.34497145
126	0xbdba7d28	-0.09105903
127	0x3e159f22	0.14611486
128	0xbdf70e48	-0.12063271
129	0xbe798182	-0.2436581
130	0x3e9f5c49	0.31125095
131	0x3d924be8	0.07143384
132	0x3cbac690	0.02279976
133	0xbdce6e70	-0.10079658
134	0xbe87c7a8	-0.26519513
135	0xbeabdcbf	-0.33566853
136	0xbf207480	-0.62677765
137	0xbee48e1c	-0.4463967
138	0x3e5f4231	0.21802594
139	0x3e8dbedb	0.27684674
140	0x3f2d4e64	0.6769774
141	0xbaee022a	-0.0018158604
142	0xbc1adbd2	-0.009451823
143	0xbfb9f43a	-1.4527657
144	0x3fe66976	1.8000934
145	0x40197ac6	2.3981185
146	0x3cccebbf	0.025014756
147	0xbf474272	-0.7783576
148	0x40139d33	2.3064697
149	0x3e499759	0.19686641
150	0x3e35708a	0.17718711
151	0xc0c91b08	-6.2845497
152	0x3e8eae37	0.2786729
153	0x3e197366	0.14985427
154	0x3cb75630	0.022379965
155	0xbe03556a	-0.12825552
156	0x3e235d7e	0.15953633
157	0xbeaea8c1	-0.34113124
158	0xbe6292a2	-0.22126248
159	0x3e77452a	0.24147478
160	0xbd538e96	-0.051649652
161	0xbdbb64c8	-0.09150082
162	0xbe8a9dd2	-0.27073532
163	0x3cc49b77	0.023999913
164	0xbe356628	-0.17714751
165	0xba3618b8	-0.00069464324
166	0xbc09017a	-0.008362168
167	0x3dcacab4	0.09901944
168	0xbfef462c	-1.869329
169	0xc00cc579	-2.1995528
170	0x3f9e1f68	1.2353334
171	0x3fbdc30e	1.4825151
172	0x3f2601af	0.6484632
173	0x3bf9f3c8	0.007627938
174	0xbf8a5fd3	-1.0810493
175	0x3d3a89f6	0.045541726
176	0x3f6a57b3	0.9154007
177	0x3e91af47	0.28454039
178	0xbead3b4f	-0.3383431
179	0xbbe5ab56	-0.00700895
180	0x3f8d5da1	1.1044198
181	0xbab744ab	-0.0013982257
182	0xbc42429c	-0.011856701
183	0xc07b198e	-3.9234347
184	0xbf0d69f1	-0.5523978
185	0xbea91ed7	-0.3303134
186	0xbcf7152c	-0.030161463
187	0x3f199535	0.59993297
188	0x3ef9a759	0.4876049
189	0x3d04b3cf	0.03239804
190	0xbb0e7bb3	-0.002174121
191	0xc002eb8d	-2.0456269
192	0xbe083b7a	-0.13303939
193	0x3ce84bc0	0.028356433
194	0x3da709dc	0.081561774
195	0x3d265cb0	0.040615737
196	0xbe94e6ef	-0.29082438
197	0xbe7aed1a	-0.2450451
198	0xbdec0e62	-0.11526181
199	0xbe916169	-0.2839463
200	0xbe4d49d8	-0.200477
201	0xbd21d8a8	-0.03951326
202	0x3e7699ca	0.24082103
203	0x3e646eaa	0.2230784
204	0xbeaeb1ad	-0.3411993
205	0xbd5bcce0	-0.05366218
206	0xbd5d3180	-0.054002285
207	0xbe7461ac	-0.23865384
208	0xbe3c3165	-0.18378218
209	0xbd555630	-0.052084148
210	0x3e6d4c96	0.23173746
211	0xbeb1d6cf	-0.34734198
212	0xbddfadba	-0.109218076
213	0xbda83e84	-0.08215049
214	0xbe934ce0	-0.28769588
215	0xbe94cab7	-0.2906091
216	0xc00dd9fc	-2.2164297
217	0xbfde284f	-1.7356051
218	0x3f9d391a	1.2283051
219	0x3fba171e	1.4538305
220	0x3f9d99f2	1.2312605
221	0xbc83670c	-0.016040348
222	0xbed860a1	-0.42261222
223	0xbef287a1	-0.47369102
224	0xbfa55409	-1.291627
225	0xbfd030f7	-1.6264943
226	0x3ebc6e8d	0.36803094
227	0x3f696a85	0.9117816
228	0x3e9f32af	0.31093356
229	0xbbf0e930	-0.007352017
230	0xbeb661de	-0.35621542
231	0x3dfb7563	0.12278249
232	0xbdfec7d6	-0.124404594
233	0xbdb52f84	-0.088469535
234	0xbd0cf878	-0.034416646
235	0xbd674c28	-0.056469113
236	0x3eb0f70d	0.34563485
237	0xbeab45d0	-0.334517
238	0xbe465cd4	-0.19371349
239	0xbe49a865	-0.19693144
240	0x3d82a008	0.0637818
241	0x3e02ffe0	0.12792921
242	0x3eaf5a6d	0.34248677
243	0xbd8ca7f0	-0.06867969
244	0x3e96a5db	0.29423413
245	0xbea331e1	-0.31873992
246	0xbe705d40	-0.23473072
247	0xbddb7c9a	-0.10717125
248	0x3f31d2f7	0.6946253
249	0x3f32478e	0.69640434
250	0xbf627896	-0.8846525
251	0x3ea4c604	0.32182324
252	0x3f5d683c	0.86487174
253	0x3dd4b242	0.103855625
254	0xbd81bd20	-0.06334901
255	0xc0a5b7f1	-5.178704

layer_1.bias f4 [400]
0	0xbed4f151	-0.4159036
1	0x3e9b405f	0.3032255
2	0x3e896549	0.26835087
3	0xbec08ec9	-0.37608936
4	0xbe339b1c	-0.17539638
5	0xbd111941	-0.035424475
6	0xbf21c3fe	-0.63189685
7	0x3d56c888	0.052437335
8	0x3f107117	0.5642256
9	0x3c8410ac	0.016121231
10	0x3d8dd178	0.069247186
11	0x3f031807	0.5120854
12	0x3f6d4a3b	0.9269139
13	0xbee8d59c	-0.4547547
14	0x3e75363a	0.23946467
15	0xbe93b8f4	-0.28852046
16	0xbd2810c0	-0.0410316
17	0x3e097f48	0.1342746
18	0xbf27fb68	-0.6561799
19	0x3e2e2c5e	0.17009112
20	0xbe31ebef	-0.17375158
21	0x3f1530fb	0.58277863
22	0xbf5ad131	-0.8547545
23	0xbe24ef40	-0.16106892
24	0xbeb453e5	-0.35220256
25	0x3e054cda	0.13017598
26	0x3e9a3cef	0.30124614
27	0x3f74d668	0.9563966
28	0x3ef4b6a6	0.477956
29	0xbe033b79	-0.12815656
30	0xbe320bbd	-0.1738729
31	0xbf385d9f	-0.72017854
32	0xbd49f499	-0.049305532
33	0x3d995eb8	0.07488769
34	0xbe2a0d73	-0.16606693
35	0xbda14117	-0.07873743
36	0x3ec6d7db	0.3883656
37	0xbf768199	-0.962915
38	0x3f92d978	1.1472616
39	0xbdc89832	-0.09794654
40	0xbf1932f3	-0.5984337
41	0xbf066fe6	-0.52514493
42	0xbf88c6a4	-1.068562
43	0xbea9c2d0	-0.33156443
44	0xbd499d68	-0.04922238
45	0xbf92b4bd	-1.1461407
46	0x3daa7434	0.08322945
47	0x3e4a5b9e	0.19761512
48	0xbf78eb4c	-0.97234035
49	0xbf81f13a	-1.0151742
50	0xbf58fa17	-0.84756607
51	0xbd7ec7b8	-0.062202185
52	0xbeb101a2	-0.34571558
53	0xbf0a05bc	-0.53915
54	0x3e1a5f3a	0.15075389
55	0x3f492378	0.78569746
56	0x3ebbb869	0.3666413
57	0xbdc24b7c	-0.09487054
58	0xbf8d91bd	-1.1060101
59	0x3e0487f2	0.12942484
60	0xbdf1583b	-0.11784407
61	0xbf45ef2b	-0.77318066
62	0xbf9693e0	-1.1763878
63	0x3e4a6e61	0.19768669
64	0xbf61c7c5	-0.8819545
65	0x3e1eadce	0.15495989
66	0xbeb064c6	-0.34451884
67	0xbea0b0b4	-0.31384814
68	0xbe8b9554	-0.27262366
69	0xbea1427f	-0.31496045
70	0xbf166da3	-0.5876104
71	0xbe0ba916	-0.1363872
72	0x3e2ce16a	0.16882864
73	0xbe54ab52	-0.20768479
74	0x3f4b6d00	0.79463196
75	0xbf3a53b4	-0.7278397
76	0xbf33f457	-0.7029471
77	0x3e24a9c2	0.16080382
78	0xbf7da254	-0.9907582
79	0xbf001dc4	-0.5004542
80	0x3f067f99	0.5253845
81	0x3e78b6b6	0.24288449
82	0x3e87b8c2	0.26508147
83	0xbdb397a4	-0.087691575
84	0x3f35231c	0.707567
85	0x3d9d4e1c	0.07680914
86	0xbf55e2ef	-0.835494
87	0xbe8585f5	-0.26078764
88	0xbf3da617	-0.7408156
89	0x3ee1f21b	0.44130024
90	0x3f0aadc7	0.54171413
91	0xbf029d26	-0.5102104
92	0xbf65fbe4	-0.8983748
93	0xbf120f05	-0.5705417
94	0xbf7ab2ba	-0.97928965
95	0x3ed73b37	0.42037365
96	0x3eb4873b	0.35259423
97	0xbe20a064	-0.15686184
98	0xbf42362a	-0.758639
99	0x3e9619ed	0.29316655
100	0xbf7be586	-0.983971
101	0xbf0fc31d	-0.56157094
102	0x3eccf456	0.40030164
103	0x3e91cb2f	0.2847533
104	0xbf5a0c35	-0.85174876
105	0x3e8e43db	0.27786145
106	0xbe6c6197	-0.23084103
107	0xbe897f45	-0.2685491
108	0xbf493abe	-0.7860526
109	0x3f445f94	0.7670834
110	0xbf303522	-0.68831074
111	0xbf84c446	-1.0372398
112	0xbf469ca7	-0.7758278
113	0x3bea82c0	0.0071567
114	0xbf167660	-0.58774376
115	0x3f202664	0.6255858
116	0xbf3a3ef3	-0.727523
117	0x3f18922f	0.5959806
118	0x3f8f8e92	1.1215384
119	0xbdea032f	-0.114263885
120	0x3f0b9f23	0.545397
121	0xbe964f71	-0.29357484
122	0xbf394650	-0.72372913
123	0xbf44f4f9	-0.769363
124	0xbf64348a	-0.8914267
125	0xbf5c527e	-0.86063373
126	0x3e8b1ddb	0.27171215
127	0x3e3eedee	0.1864545
128	0xbe8ed5ab	-0.2789739
129	0xbeb0ced2	-0.3453279
130	0xbf3419de	-0.7035197
131	0xbe0a65e3	-0.13515429
132	0xbf3b4348	-0.7314954
133	0x3f84dd80	1.0380096
134	0x3f35b16b	0.70973843
135	0x3f4e7deb	0.80660886
136	0x3e9f79b0	0.31147528
137	0x3e3ddfe2	0.18542436
138	0x3e503f26	0.20336589
139	0xbf7a93e8	-0.9788194
140	0xbea5704b	-0.32312235
141	0xbf0f2315	-0.55912906
142	0xbde8ee08	-0.11373526
143	0xbf17fc7b	-0.5936963
144	0x3d982327	0.0742858
145	0xbe2ea1b8	-0.17053878
146	0x3ccdc5ef	0.025118796
147	0xbe8a4c95	-0.27011552
148	0xbf8e5cbe	-1.1122053
149	0x3ec5d56f	0.386394
150	0x3f2e0d0c	0.6798866
151	0x3edf3999	0.4359863
152	0xbf4f240a	-0.80914366
153	0x3e9ab6e1	0.3021765
154	0xbf0eb9e0	-0.5575237
155	0xbf104e08	-0.56369066
156	0xbd0a8a71	-0.033823434
157	0xbe658025	-0.22412165
158	0xbe9245dc	-0.28568923
159	0xbf0021e0	-0.5005169
160	0xbe96a069	-0.29419258
161	0xbe979a66	-0.29609984
162	0x3d364c60	0.04450643
163	0x3df59c00	0.11992645
164	0xbf31092d	-0.69154626
165	0x3e9dce6d	0.30821553
166	0xbeb35dad	-0.35032406
167	0xbd6e6649	-0.058203015
168	0xbe99dbff	-0.30050656
169	0xbf6fa776	-0.936149
170	0xbf71eea6	-0.94504774
171	0x3d446d79	0.047955964
172	0x3de10978	0.10988134
173	0xbe865dd2	-0.26243454
174	0xbc752249	-0.0149617875
175	0xbf19ec2f	-0.6012601
176	0xbf2c0640	-0.67197037
177	0xbeed337a	-0.46328336
178	0xbdd1eb71	-0.10249985
179	0x3e0f4f54	0.13995105
180	0xbe5cacef	-0.21550344
181	0xbdba3478	-0.09092039
182	0xbf3d39e0	-0.73916435
183	0xbf7825af	-0.969325
184	0x3e432f96	0.19061121
185	0x3f263496	0.6492399
186	0x3ea56bb8	0.32308745
187	0x3dbe1cf8	0.09282869
188	0xbe35008a	-0.17675987
189	0xbf818470	-1.0118542
190	0xbe1c07a7	-0.15237294
191	0xbe2da3f8	-0.1695708
192	0x3f7994ee	0.97492874
193	0x3e284a02	0.16434482
194	0x3e9468c9	0.28986195
195	0xbeb452bb	-0.35219368
196	0xbe951de6	-0.29124373
197	0xbedb3848	-0.42816377
198	0x3e08b70f	0.13351081
199	0xbf551108	-0.8322911
200	0xbe07f798	-0.13278043
201	0x3ea00177	0.31251118
202	0x3ea8e2da	0.32985574
203	0xbf3cdbac	-0.7377269
204	0x3eb16929	0.34650543
205	0xbe661aaa	-0.22471109
206	0xbe68f49f	-0.22749566
207	0xbee58ea5	-0.44835392
208	0x3cbd1510	0.023081332
209	0xbe1eabb1	-0.15495183
210	0xbe7b9a5f	-0.24570607
211	0xbef8dec0	-0.48607445
212	0xbea33e80	-0.3188362
213	0xbedbe0ed	-0.42945042
214	0xbdba2c7c	-0.09090516
215	0xbf583ea2	-0.8447057
216	0xbf014f00	-0.5051117
217	0x3f82bb17	1.0213345
218	0x3e84540a	0.25845367
219	0x3ed1fcb2	0.41013104
220	0x3debc604	0.11512378
221	0xbe9ff8bf	-0.31244466
222	0xbf026948	-0.50941896
223	0xbf4a3d17	-0.78999466
224	0x3ea2243b	0.31668267
225	0x3e425d0e	0.1898081
226	0xbe8a0b4d	-0.26961747
227	0x3d459444	0.0482371
228	0xbe88176f	-0.26580378
229	0x3f703ba1	0.93840986
230	0x3ddca974	0.10774508
231	0x3eeda265	0.4641296
232	0xbf9667b3	-1.1750396
233	0xbf918f90	-1.1371937
234	0xbf7a65dc	-0.97811675
235	0x3e30d3a2	0.17268232
236	0x3ef453e3	0.4772025
237	0xbf2284b3	-0.6348373
238	0xbf259f16	-0.6469587
239	0xbd23357b	-0.039845925
240	0xbf782395	-0.96929294
241	0xbf2c79cf	-0.67373365
242	0x3e7d79ec	0.24753541
243	0xbf84bf65	-1.0370909
244	0xbf682644	-0.9068339
245	0xbe7f0deb	-0.24907653
246	0x3e2d8eba	0.16948977
247	0x3e8789b1	0.26472238
248	0xbf0097ab	-0.50231427
249	0xbf71e715	-0.9449323
250	0xbe5618b9	-0.20907868
251	0x3dd5bc12	0.10436262
252	0xbe9475c6	-0.28996104
253	0x3f49edda	0.7887856
254	0xbd30f397	-0.043201055
255	0xbf560e2e	-0.83615386

layer_2.weight f4 [300, 400]
0	0x3d15774f	0.036490735
1	0xbc89e3c0	-0.016832232
2	0x3d354535	0.044255454
3	0xbcc13b81	-0.023587944
4	0x3c91183e	0.017711755
5	0xbd03a0f2	-0.03213591
6	0x3c6ba5bc	0.014382776
7	0x3d1e25d1	0.038610283
8	0xbd148f36	-0.03626939
9	0xbd15a34c	-0.036532685
10	0xbd3694e8	-0.0445756
11	0xbba21b30	-0.0049470887
12	0x3d2993b3	0.041400623
13	0xbc6b819f	-0.014374166
14	0xbbf40c00	-0.0074477196
15	0x3ced5906	0.028973114
16	0xbd16592d	-0.03670614
17	0xbab467b1	-0.0013763813
18	0x3d033b29	0.03203884
19	0x3d3fec3d	0.046856154
20	0xbd141981	-0.036157135
21	0x3d063f19	0.03277502
22	0xbd133129	-0.035935555
23	0xbd48a0bf	-0.048981424
24	0xbc7c4ec0	-0.015399635
25	0x3d2c3025	0.0420381
26	0xbb9084f0	-0.0044103786
27	0xbc199f40	-0.009376347
28	0xbbc8d758	-0.0061291866
29	0x3c2f3980	0.010694861
30	0x3cbebd16	0.023283523
31	0xbcc98ea9	-0.024604158
32	0xbd41f725	-0.047354836
33	0xbcffdad0	-0.031232268
34	0xbcd42183	-0.025894886
35	0xbbf97302	-0.007612587
36	0xbd1ff707	-0.039053943
37	0x3d2ff283	0.042955887
38	0x3d221751	0.039573018
39	0xbcb89508	-0.022532001
40	0xbb6c5489	-0.003606113
41	0xbcf35be2	-0.0297069
42	0x3c6fbc9d	0.014632371
43	0xbd1c9f4d	-0.03823786
44	0xbd591c6e	-0.05300563
45	0xbca1f946	-0.019772183
46	0xbd1cbd4b	-0.03826646
47	0xbd3c9fbb	-0.04605077
48	0x3c3c679c	0.011499312
49	0x3cf7fe03	0.03027249
50	0xbbf5258f	-0.007481284
51	0xbd2eb582	-0.042653568
52	0xbd48dd0a	-0.049038924
53	0x3ce919ad	0.028454626
54	0xba984e00	-0.0011619925
55	0xbcd63487	-0.026148094
56	0x3c828cd0	0.015936285
57	0xbd26e522	-0.04074586
58	0xbd4cb68a	-0.04997877
59	0xbc3d7760	-0.011564106
60	0xbca7ee80	-0.020499468
61	0x3d14023d	0.036134947
62	0x3d2e430d	0.042544413
63	0xbd423cf9	-0.04742143
64	0xbd2f44bf	-0.04279017
65	0x3d0a3b87	0.033748176
66	0xbc8a32ba	-0.016869891
67	0xbad8b300	-0.0016532838
68	0xbd26539c	-0.04060708
69	0xbcfe18de	-0.031017717
70	0x3bb5c440	0.0055470765
71	0x3c4935c5	0.012280886
72	0x3d32645d	0.043552745
73	0x3cab59ba	0.020916808
74	0x3d360a61	0.04444349
75	0xbd48d709	-0.0490332
76	0xbd5b0864	-0.0534748
77	0x3bf1e9f0	0.007382624
78	0xbd26e462	-0.040745147
79	0xbd200fd4	-0.039077595
80	0xbd303e27	-0.043028023
81	0xbcfc9ef7	-0.03083752
82	0x3cb3a824	0.021930762
83	0x3c8d43e6	0.01724429
84	0x3b147960	0.0022655353
85	0xbd42fbd7	-0.047603454
86	0x3d27afce	0.040939145
87	0xbd26cc9e	-0.040722482
88	0xbd1aa76d	-0.037757326
89	0x3aa0378c	0.0012223586
90	0xbcf27c83	-0.029600387
91	0xbce0a96f	-0.027424542
92	0xbcb265b6	-0.021777015
93	0x3d2a049a	0.041508295
94	0xbd288eb3	-0.041151714
95	0xbc21cbac	-0.009875219
96	0xbca12a4d	-0.01967349
97	0xbcad10e3	-0.021126216
98	0xbd22b873	-0.039726686
99	0xbd03be4a	-0.032163896
100	0xba69aae0	-0.0008913707
101	0xbc8c2237	-0.017106159
102	0x3d1f7e55	0.03893884
103	0xbd1edb54	-0.038783386
104	0x3d06c0fc	0.032898888
105	0xbbcdeb58	-0.0062841587
106	0x3d267a11	0.040643755
107	0xbd23e0c1	-0.040009264
108	0x3ce01234	0.02735243
109	0x3ccaa932	0.024738882
110	0xbc276e0c	-0.010219108
111	0x3b6fc9ce	0.003658879
112	0xbccc0dbd	-0.024908895
113	0xbd0b2b16	-0.033976637
114	0x3d304298	0.04303226
115	0xbc70da4c	-0.0147004835
116	0xbb846904	-0.004040839
117	0xbc3cb454	-0.011517603
118	0xbd3358c0	-0.04378581
119	0xbd11547e	-0.03548097
120	0xbd325bcd	-0.04354458
121	0x3c8eb20e	0.017418887
122	0x3c803b6b	0.015653333
123	0xbd10366c	-0.03520815
124	0x3b7ffbdb	0.003906003
125	0x3d0507a7	0.032478
126	0x3d0fd9f7	0.035119977
127	0xbd40a4b3	-0.04703207
128	0xbcb91dd3	-0.02259723
129	0x3d04f5d7	0.032461014
130	0x3cc76502	0.024340156
131	0xbc85d039	-0.01633464
132	0xbd38976c	-0.045066282
133	0xbd28e27e	-0.041231625
134	0xbca40237	-0.020020587
135	0x3d4a0d35	0.049329
136	0xbca7b8a0	-0.020473778
137	0x3d0fec6f	0.03513759
138	0x3d1f53d9	0.038898323
139	0x3cbfdc7e	0.023420569
140	0x3c044fac	0.008075636
141	0xbd3c95fe	-0.04604148
142	0xbd333979	-0.043755982
143	0x3d1b0dd5	0.037854988
144	0x3c38d03c	0.011280116
145	0x3d1057c1	0.03523994
146	0xbd61aeb4	-0.05509825
147	0x3d2359a4	0.03988041
148	0x3bfac251	0.007652559
149	0x3d0b3ef1	0.033995572
150	0xbd0da75e	-0.034583442
151	0xbc61e6b4	-0.013787914
152	0xbcf1da94	-0.029523171
153	0xbba34158	-0.004982155
154	0xbd122d1e	-0.03568756
155	0xbcf51112	-0.029915366
156	0xbd3a42b1	-0.045473758
157	0xbc33c57c	-0.010972377
158	0x3c734ed4	0.014850337
159	0xbb981c13	-0.0046420186
160	0xbc28a61c	-0.01029351
161	0xbd0608bd	-0.032723177
162	0x3cc5406a	0.024078567
163	0x3cbaf06a	0.022819716
164	0xbce29c1a	-0.027662326
165	0x3d370df1	0.04469103
166	0xbc5e86c8	-0.013581939
167	0x3d2c744e	0.042103104
168	0x3b4002a0	0.002929844
169	0x3b873042	0.004125626
170	0x3cb21d2a	0.021742422
171	0x3cff7bc7	0.031186951
172	0x3cf221a2	0.029557053
173	0xbc8b11d9	-0.016976284
174	0xbb8bc513	-0.0042654364
175	0xbd591bf8	-0.05300519
176	0x3d016925	0.031594414
177	0x3d281f1c	0.041045293
178	0xbc8a7576	-0.016901713
179	0x3c7d8a84	0.015474919
180	0xbce38995	-0.027775565
181	0xbd216e65	-0.03941192
182	0x3d0e3616	0.03471955
183	0xbd0a28c0	-0.03373027
184	0x3c7be97c	0.015375491
185	0xbd25bca3	-0.0404631
186	0x3c599602	0.013280394
187	0xbac85500	-0.0015284121
188	0xbd180958	-0.037118286
189	0xbd00bf97	-0.031432714
190	0xbd47ce07	-0.048780467
191	0x3d4ca15f	0.049958583
192	0x3d29c1ab	0.04144446
193	0xbc05fff8	-0.0081787035
194	0xbd1ba346	-0.037997507
195	0x3b072500	0.002062142
196	0xbd263053	-0.04057343
197	0x3c8f8d58	0.017523453
198	0xbc87aafe	-0.016561028
199	0xbd14f518	-0.036366552
200	0x3b6d9400	0.0036251545
201	0x3c95ed12	0.01830152
202	0xb8fd3000	-0.00012072921
203	0x3af6634a	0.0018797901
204	0x3c813c8a	0.015775938
205	0x3ce55819	0.02799611
206	0xbd097eb5	-0.033568103
207	0x3d289004	0.04115297
208	0x3ca1e572	0.019762728
209	0xbd2569b0	-0.040383995
210	0x3cd6d1a3	0.02622301
211	0x3d03fe77	0.0322251
212	0x3c46f778	0.012143962
213	0xbc190636	-0.00933986
214	0xbce61280	-0.028084993
215	0x3cb1707c	0.021660082
216	0xbd5e65b2	-0.054296203
217	0xbc8b9366	-0.017038058
218	0x3d2d6a3b	0.042337637
219	0xbd4c5250	-0.049883187
220	0xbb48bab0	-0.0030628853
221	0xbc9dd497	-0.01926641
222	0xbd141590	-0.036153376
223	0xbcd084f8	-0.02545403
224	0x3d3574b9	0.04430077
225	0xbb99d2d8	-0.004694324
226	0x3c4c72d4	0.012478549
227	0xbd11f462	-0.035633452
228	0x3c28e70c	0.010308992
229	0xbbcd4a30	-0.0062649474
230	0xbcab4ee0	-0.020911634
231	0xbc56f28c	-0.013119351
232	0x3bd0832d	0.0063632936
233	0xbc2be108	-0.010490663
234	0x3cbdc252	0.023163948
235	0x3c150f2c	0.009097856
236	0x3cac47d1	0.021030338
237	0x3c342c77	0.010996929
238	0xbbf8a0e5	-0.0075875395
239	0x3cd121ee	0.025528874
240	0xbd21d131	-0.03950614
241	0x3d015f69	0.03158513
242	0xbcce6e07	-0.02519895
243	0xbcf8191a	-0.030285407
244	0x3cd3ac82	0.025839094
245	0xbd0aba54	-0.033869103
246	0xbaa120a0	-0.0012293048
247	0x3d34e7e5	0.044166464
248	0x3cbf9eb3	0.023391103
249	0xbcf7e57c	-0.030260794
250	0x3cbfedf5	0.023428896
251	0xbc5724f8	-0.013131373
252	0x3d1bba04	0.038019195
253	0xbb1532a0	-0.002276577
254	0xbc32f994	-0.010923762
255	0x3c0474f0	0.008084521

layer_2.bias f4 [300]
0	0x3cecfbd6	0.028928678
1	0x3c170af9	0.009218925
2	0x3d3d1936	0.04616662
3	0x3c67efa6	0.014156258
4	0xbd861bd1	-0.06548274
5	0xbcacf723	-0.021113938
6	0x3d4000e3	0.046875846
7	0x3cecdb61	0.028913202
8	0xbc184c8e	-0.009295596
9	0xbc897687	-0.016780151
10	0xbcda349c	-0.026636414
11	0xbc9a7c80	-0.018858194
12	0x3b0b1edc	0.002122811
13	0xbd8103f4	-0.06299582
14	0x3ccda07b	0.025100937
15	0x3c7ba9dd	0.015360323
16	0x3ca87e9e	0.020568188
17	0xbd364c77	-0.044506516
18	0x3bbb36bc	0.005713312
19	0xbb93d310	-0.0045112446
20	0x3cdcee3f	0.026969073
21	0x3c1b5760	0.009481281
22	0xbb9d616f	-0.0048028748
23	0xbcb09e6c	-0.021559916
24	0x3c5c572a	0.013448516
25	0xbd241c8e	-0.040066294
26	0x3ae4d74d	0.0017459184
27	0x3d16851c	0.036748037
28	0xbbb3b8c6	-0.005484673
29	0x393cbfb3	0.0001800049
30	0xbe7d0718	-0.24709737
31	0xbd1774b9	-0.03697655
32	0x3cfc0527	0.030764176
33	0xbd113cba	-0.035458304
34	0x3ce10772	0.02746937
35	0x3ea46b52	0.3211313
36	0x3d2e0174	0.042481855
37	0xbcfddfdf	-0.03099054
38	0x3ca36e76	0.019950133
39	0x3d2d68ee	0.042336397
40	0xbcb18873	-0.02167151
41	0xbf035eba	-0.51316416
42	0x3c177014	0.00924303
43	0x3ca40930	0.020023912
44	0x3cc8493c	0.024448983
45	0xbd007b14	-0.031367376
46	0xbb7d6691	-0.003866587
47	0xbc4940e5	-0.0122835385
48	0xba450cc0	-0.00075168535
49	0xbc9e26c3	-0.019305592
50	0xbceae3d6	-0.028673094
51	0xbd954e87	-0.072903685
52	0x3c8ff2c0	0.017571807
53	0xbda06648	-0.078320086
54	0xbd77d225	-0.060503144
55	0xbc649540	-0.0139516
56	0x3cc7156f	0.024302213
57	0x3d84d18c	0.064852804
58	0xbba86b98	-0.0051397793
59	0xbc5a80ed	-0.013336402
60	0x3b14fa00	0.002273202
61	0x3cf1737f	0.029474018
62	0xbdf8a4a3	-0.12140777
63	0xbc56274d	-0.0130708935
64	0x3ba2027c	0.004944144
65	0xbbca2040	-0.0061683953
66	0xbd57aa1c	-0.052652463
67	0x3d68ab99	0.056804273
68	0x3d4659b9	0.04842541
69	0x3c5c18c0	0.013433635
70	0xbc833331	-0.01601562
71	0xbd47db48	-0.048793107
72	0x3c89783d	0.016780967
73	0x3cfc9ca2	0.030836407
74	0x39e53d00	0.00043723732
75	0xbbc8ec11	-0.006131657
76	0xbed1f057	-0.41003677
77	0x3b3e5a68	0.0029045586
78	0x3c3c3072	0.01148616
79	0xbcda3c95	-0.026640216
80	0xbd383277	-0.044970002
81	0x3c50c025	0.012741123
82	0x3cbe0e62	0.023200218
83	0x3c0b553a	0.008504206
84	0xbd7750c2	-0.06037975
85	0xbca856c7	-0.020549191
86	0xbd0bdba6	-0.03414502
87	0xbc6a9b77	-0.014319292
88	0xbcf59ee6	-0.029982995
89	0xbc24f358	-0.010067783
90	0x3c20b839	0.009809547
91	0xbc999690	-0.018748552
92	0x3c3f66ce	0.011682225
93	0x3d015f4d	0.031585027
94	0xbb82756e	-0.003981284
95	0xbc216b2f	-0.009852215
96	0xbb7c86d2	-0.0038532508
97	0xbbde3540	-0.0067812502
98	0x3bb33ec1	0.0054701273
99	0xbc275121	-0.010212214
100	0xbd4fdc1d	-0.050747026
101	0xbd9ddede	-0.07708524
102	0x3d4705a9	0.048589382
103	0xbd086dfe	-0.03330802
104	0xbe266ac9	-0.16251673
105	0xbd3c1bd5	-0.04592498
106	0x3caed2b2	0.021340702
107	0xbd64fbe3	-0.05590428
108	0x3cf0459e	0.029330071
109	0x3c6ffcee	0.0146477055
110	0xbc78d51e	-0.01518753
111	0xbd353946	-0.044244073
112	0x3c4ff2f2	0.0126922
113	0xbddf1b26	-0.1089385
114	0xbc005874	-0.007833589
115	0x3c7ce6e8	0.015435912
116	0x3d07a0f2	0.033112474
117	0x3c94949e	0.018137272
118	0xbd04a6d0	-0.032385647
119	0xbd3e2f8f	-0.046432074
120	0x3da91e7d	0.08257768
121	0xbd35fb4d	-0.044429112
122	0x3cb781db	0.022400787
123	0x3ce1446b	0.027498445
124	0xbc18bbfa	-0.009322161
125	0xbd76acf3	-0.06022353
126	0x3c950d6e	0.01819488
127	0xba3ebbf3	-0.00072759314
128	0xbd36f2cf	-0.044665154
129	0xbd7cb1d1	-0.061693016
130	0x3b3f0f20	0.0029153302
131	0xbcc3a0ee	-0.023880448
132	0xbb2ae9be	-0.0026079263
133	0xbc21a626	-0.009866273
134	0x3d41bf2a	0.04730145
135	0xbc9f87c3	-0.019473916
136	0xbb9132b2	-0.004431092
137	0xbb258dcc	-0.002526152
138	0xbd0e6090	-0.034760058
139	0xbd3a39e2	-0.045465358
140	0xb8549f27	-5.069296e-05
141	0xbd051961	-0.032494906
142	0xbcb2e73f	-0.021838782
143	0x3d44d80f	0.048057612
144	0xbd5a685b	-0.053322177
145	0xbbcb9842	-0.006213219
146	0xbce77763	-0.02825517
147	0xbc80db8c	-0.015729688
148	0xb99803b1	-0.0002899445
149	0x3d9a9a83	0.07549002
150	0x3d1ad868	0.037804037
151	0x3ca79889	0.020458477
152	0x3bd5122c	0.0065024104
153	0x3cc9c6ba	0.024630893
154	0x3d3856c9	0.04500464
155	0xbd9fb0fa	-0.077974275
156	0xbd54ae19	-0.051923845
157	0xbc466948	-0.012110062
158	0xbd3b28bf	-0.045693155
159	0x3cdbb196	0.026818078
160	0x3d0e0b1f	0.034678575
161	0xbccf611a	-0.025314856
162	0xbd0a9fa5	-0.033843655
163	0xbb400377	-0.002929894
164	0xbd4cd161	-0.050004367
165	0x3c80f1ca	0.015740294
166	0x3d1aa673	0.037756395
167	0xbd1001d2	-0.035157986
168	0x3cdb3b56	0.026761692
169	0x3c8b7832	0.017025087
170	0xbc80ea55	-0.015736738
171	0xbd5d8de5	-0.0540904
172	0xbd47c193	-0.04876859
173	0xbe9a3b7d	-0.3012351
174	0x3ce4394b	0.02785935
175	0xbc646541	-0.013940156
176	0xbd18ad5f	-0.037274715
177	0xbd3d2980	-0.046182156
178	0x3d07e49e	0.03317701
179	0x3c33fcd1	0.010985569
180	0xbd6f651d	-0.05844604
181	0x3cac8d0c	0.02106335
182	0xbc80cbf6	-0.015722256
183	0x3c23a0ae	0.0099870395
184	0xbd55463f	-0.052068945
185	0x392cf23d	0.00016493439
186	0xbcf3e17e	-0.029770609
187	0x3caa9996	0.020825189
188	0x3cc90fe0	0.024543703
189	0x3bdc162a	0.0067165093
190	0xb93b84e0	-0.0001788321
191	0x3b15e4de	0.0022872011
192	0xbd3a6b02	-0.045512207
193	0xbd4284fd	-0.04749011
194	0x3d166b29	0.03672329
195	0xbd60078c	-0.054694697
196	0x3cbfe2be	0.023423549
197	0xbd367857	-0.04454836
198	0xbc88b4d3	-0.016687786
199	0xbd9d0789	-0.07667453
200	0xbd27b47e	-0.040943615
201	0xbd146e7c	-0.03623818
202	0xbc4c8103	-0.012481931
203	0xbd5a191e	-0.05324661
204	0xbd1ff920	-0.039055943
205	0xbc1605b0	-0.009156629
206	0xbc8946a3	-0.016757315
207	0xbd36d2b6	-0.044634543
208	0x3d3ede55	0.04659875
209	0x3ce22b5f	0.027608572
210	0x3c83b25f	0.016076265
211	0xbd9b63b5	-0.07587377
212	0xbb14f915	-0.0022731472
213	0x3cecff9b	0.028930476
214	0xbd09174d	-0.033469487
215	0x3d153ef2	0.036436982
216	0x3cc54409	0.024080293
217	0x3cd0374f	0.025416998
218	0x3cebe0d9	0.02879374
219	0x3d0f3227	0.03495994
220	0xbcd58525	-0.026064465
221	0xbbc964e4	-0.0061460603
222	0x3c79f631	0.0152564505
223	0xbcc35f2c	-0.023849092
224	0x3baa05aa	0.0051886635
225	0x3d216359	0.039401386
226	0x3be8a3f2	0.007099622
227	0xbcba6933	-0.022755241
228	0xbd20359a	-0.03911362
229	0x3d196bbd	0.037456263
230	0xbd475a5a	-0.04867015
231	0x3c8efc5a	0.017454315
232	0xbc872ea4	-0.016501732
233	0x3c0af47c	0.008481141
234	0x3d9749f6	0.07387154
235	0x3e6ef2c6	0.23334798
236	0x3d329c91	0.043606345
237	0x3c62c302	0.013840439
238	0x3c20141f	0.009770422
239	0xbd367e2d	-0.044553924
240	0xbdad6abb	-0.08467623
241	0x3d082ae3	0.033244025
242	0xbca69397	-0.020334048
243	0x3bb74f58	0.0055941753
244	0xbd0be82b	-0.03415696
245	0xbc7a5020	-0.015277892
246	0x3c4d886f	0.012544735
247	0xbd2dbdad	-0.042417217
248	0x3cd2b995	0.025723258
249	0xbc15abd8	-0.009135209
250	0xbda27fdd	-0.07934544
251	0xbc1170c8	-0.008876987
252	0xbd6441e5	-0.055726904
253	0xbcef4b9a	-0.029210854
254	0x3d084fed	0.03327935
255	0x3d2cf321	0.042224053

layer_3.weight f4 [1, 300]
0	0xbcbc9cb0	-0.023023933
1	0x3c49d450	0.012318686
2	0xbbc78659	-0.0060890135
3	0x3d3b6a99	0.045755956
4	0xbb11ad4d	-0.002222854
5	0x3bbb50f0	0.0057164356
6	0xba1030b5	-0.0005500422
7	0xbd4e9ae2	-0.050440677
8	0x3cc42d08	0.023947254
9	0xbce4d335	-0.027932743
10	0x3ba1223c	0.004917411
11	0xbd118a55	-0.035532314
12	0x3c3919e8	0.01129768
13	0xbc918b26	-0.017766546
14	0x3d2d99fe	0.042383187
15	0x3d1a121a	0.03761492
16	0xbd54a95e	-0.051919334
17	0x3c52842f	0.012848898
18	0xbb7adadb	-0.003827742
19	0xbd42786a	-0.047478117
20	0x3d29e7b4	0.041480735
21	0x3c1e6918	0.009668611
22	0xbcee8d5d	-0.029120142
23	0x3cd1e4a4	0.02562172
24	0x385eb249	5.3094966e-05
25	0xbcbc0d0e	-0.022955444
26	0xbb3eedb5	-0.0029133384
27	0xbc2e83d5	-0.010651548
28	0x388dd845	6.763687e-05
29	0xbc922be8	-0.017843202
30	0x3c8697eb	0.016429862
31	0x3cb5409a	0.022125531
32	0xbcfb8e85	-0.030707607
33	0xbd1abff9	-0.037780736
34	0xbcd43d86	-0.025908243
35	0xbb317952	-0.002708037
36	0x3ca0096e	0.019535746
37	0xbb6328d8	-0.0034661796
38	0xbbb347a4	-0.0054711867
39	0x3d160402	0.036624916
40	0xbd0eb634	-0.03484173
41	0xbc4d51a9	-0.012531676
42	0x3d3a248e	0.045445018
43	0xbc9d9b52	-0.019239102
44	0xbc682703	-0.014169457
45	0xb9bb299b	-0.00035698418
46	0xbcfd537c	-0.030923598
47	0xbcdca3c3	-0.026933556
48	0xbd206d56	-0.03916677
49	0xbc3a9ab8	-0.011389427
50	0xbc496a90	-0.012293473
51	0xbd218d8e	-0.039441638
52	0xbca5a060	-0.020218074
53	0x3cbb135e	0.022836383
54	0xb96bdc8d	-0.00022493508
55	0xbb895cf0	-0.004191987
56	0x3c20b457	0.009808621
57	0xbc2d6dae	-0.010585232
58	0xbc936ca6	-0.017996144
59	0x3ca59284	0.020211466
60	0x3c3a92a0	0.011387497
61	0xba0354fa	-0.0005009916
62	0xbc49deb1	-0.01232116
63	0xbbbfce37	-0.00585344
64	0xbc9c2ebe	-0.019065257
65	0xbcae7526	-0.021296095
66	0xbccec777	-0.025241597
67	0x3c0cee96	0.008601805
68	0xbb653470	-0.0034973882
69	0xbc76b69b	-0.015058185
70	0x3c1912a0	0.009342819
71	0xbccf1204	-0.025277145
72	0xbbf15d5c	-0.0073658656
73	0x3d3dc95c	0.04633461
74	0xbcb3997e	-0.021923777
75	0xbc106239	-0.008812481
76	0x3dec42a2	0.11536147
77	0xbcd102c0	-0.025514007
78	0xbc7b98b8	-0.015356235
79	0x3c029c9b	0.007971908
80	0xbc5e4eb4	-0.013568569
81	0x3b2164b8	0.0024626683
82	0x3d59b1cc	0.053148076
83	0xb98be103	-0.00026679793
84	0x3c95cbe3	0.018285697
85	0xbd240f1f	-0.040053483
86	0xbb2925c0	-0.0025809854
87	0xbc5b0198	-0.013367079
88	0xbc3b801c	-0.011444118
89	0x3c86a7fb	0.016437521
90	0x3ce34259	0.027741598
91	0xbd04d9fa	-0.03243444
92	0x3ce49891	0.02790478
93	0xb8704422	-5.7283913e-05
94	0x3c163d04	0.009169821
95	0xbce9439d	-0.028474623
96	0x3cc79a7f	0.024365662
97	0x3cb0eb77	0.021596653
98	0x3cdf9af0	0.02729556
99	0x3cd3eda6	0.025870156
100	0x3cda7677	0.026667817
101	0x3c0db285	0.008648519
102	0x3b822560	0.0039717406
103	0xbb9fbaeb	-0.0048745773
104	0xbca96b92	-0.020681176
105	0x3d030a2c	0.031992123
106	0xbd0291e9	-0.031877432
107	0x3b5658d6	0.003270676
108	0xbd492f42	-0.049117334
109	0xbc9b9fd5	-0.018997112
110	0xbb4f4653	-0.003162761
111	0x3c9840a4	0.01858551
112	0xbcd8dbfb	-0.026472082
113	0xba99166c	-0.0011679656
114	0x3d6550e0	0.05598533
115	0x3bc63f37	0.0060500163
116	0xbc74ba5f	-0.014937012
117	0x3c9a4720	0.018832743
118	0xbc2f88f7	-0.010713807
119	0xbbda56c6	-0.006663176
120	0xbd2f2f2e	-0.042769603
121	0x3d428a9c	0.04749547
122	0x3b091f95	0.0020923365
123	0x3c576ed5	0.013148983
124	0x3cce0f1e	0.025153693
125	0xbcd2f872	-0.025753234
126	0xbd2d1a99	-0.042261694
127	0xbc0f32c9	-0.0087401355
128	0xbcd29296	-0.025704663
129	0x3aad5f08	0.0013227174
130	0xbd168662	-0.03674925
131	0xbb19f1cf	-0.0023490076
132	0xbd16c28c	-0.036806628
133	0x3d00698e	0.031350665
134	0xbc06be22	-0.008224042
135	0xbc223a20	-0.009901553
136	0x3d114c35	0.035473067
137	0x3cca7925	0.02471597
138	0xbce3b3b4	-0.02779565
139	0x3ccfc6e8	0.0253634
140	0xbcc53954	-0.024075188
141	0xbcd18b3d	-0.02557909
142	0x3ccc7758	0.024959251
143	0xbd049562	-0.032369025
144	0x3c96fd37	0.01843129
145	0xbccc1377	-0.024911625
146	0xbaef39c3	-0.0018251467
147	0xbccea8ea	-0.025227029
148	0xbcd95f33	-0.026534652
149	0xbcfaa797	-0.030597491
150	0xbb5b78d4	-0.0033488767
151	0x3c719d44	0.014746968
152	0x3b153051	0.0022764395
153	0xbd5b24bc	-0.05350183
154	0x3cd78258	0.02630727
155	0xbd008708	-0.031378776
156	0x3cc0e081	0.023544552
157	0x3d18e2e6	0.037325762
158	0x3c8b19cb	0.016980072
159	0xbd114a9f	-0.035471555
160	0xbca70a85	-0.020390758
161	0xbd0d3a2c	-0.034479305
162	0xbbb7c6a2	-0.0056083957
163	0x3cc5056f	0.024050443
164	0x3ce4a594	0.027910985
165	0xbc7076b7	-0.014676741
166	0xbb85b4e2	-0.004080401
167	0x3ce34b13	0.02774576
168	0x3c86d810	0.016460449
169	0x3c1c3cc0	0.009535968
170	0x3c180cab	0.009280364
171	0xbc8306f5	-0.015994528
172	0x3c9cf5d9	0.019160198
173	0xbc5f6a0a	-0.0136361215
174	0x3c37c4a7	0.011216319
175	0xbb06bc14	-0.002055888
176	0x3cfb5a7a	0.030682791
177	0x3aca5a37	0.0015438263
178	0xbd023763	-0.031791102
179	0x3ba9f6ba	0.005186883
180	0x3beb9f19	0.007190597
181	0x3d113173	0.03544755
182	0xbb1ee500	-0.0024245381
183	0xbd1b1cfe	-0.037869446
184	0x3cd81670	0.026377887
185	0xbc8de3c0	-0.017320514
186	0x3c8a0991	0.016850265
187	0xbd56a3fc	-0.05240248
188	0xbd0f1926	-0.034936093
189	0x395712e2	0.00020511032
190	0x3bd0f458	0.0063767843
191	0xbcb5a032	-0.022171114
192	0x3d10aff6	0.03532406
193	0xbc717fde	-0.014739959
194	0x3c263a28	0.0101457015
195	0xba1c3821	-0.00059592916
196	0x3d47040e	0.04858785
197	0xbd368e44	-0.04456927
198	0xb8cb7f81	-9.703544e-05
199	0x3c516bcd	0.012782049
200	0x3b88f971	0.0041801264
201	0x3c8ae9eb	0.016957244
202	0xbb886106	-0.0041619567
203	0xbca9dbcd	-0.020734692
204	0xbc9ec258	-0.01937978
205	0x3d10c1f0	0.035341203
206	0xbc831c73	-0.016004777
207	0x3c0bd6f8	0.008535139
208	0x3d3f8841	0.0467608
209	0xbcf990f6	-0.03046463
210	0x3ca9d756	0.020732563
211	0x3cb4f4e7	0.022089435
212	0xbbebba5e	-0.0071938476
213	0x3b4ccf20	0.0031251386
214	0xbd52c024	-0.05145277
215	0x3a19ccb4	0.000586699
216	0x3c96389f	0.018337546
217	0x3a9abd17	0.0011805621
218	0x3c889353	0.016671812
219	0xbcd35f4e	-0.02580228
220	0x3c53d166	0.012928342
221	0x3c941d8a	0.018080492
222	0x3be00e83	0.0068376674
223	0x3d36a2c2	0.04458881
224	0x3cba5c75	0.022749165
225	0xba9f4b9f	-0.0012153274
226	0xbc5bb155	-0.0134089785
227	0x3d25bd84	0.04046394
228	0x3cc2b210	0.023766547
229	0xbc83404c	-0.01602187
230	0xbcb052da	-0.021523882
231	0xbd687c71	-0.0567593
232	0xbb704055	-0.0036659439
233	0x3ba8be4c	0.0051496383
234	0xbbf30f2d	-0.0074175806
235	0xbb732c2d	-0.0037105188
236	0xbd30b114	-0.043137625
237	0x3d212f1e	0.039351575
238	0x3d2d40ba	0.042298056
239	0xbc1724f6	-0.009225121
240	0xba27e483	-0.00064045953
241	0x3d64b8c0	0.055840254
242	0x3bfba11a	0.007679117
243	0x3c69695c	0.014246311
244	0x3c9886d2	0.018618975
245	0x3d494bc4	0.04914452
246	0xbc814d17	-0.01578383
247	0xbcc66a95	-0.024220744
248	0xbc81a7eb	-0.01582714
249	0xbc4caee1	-0.012492866
250	0xbcec1022	-0.028816286
251	0xbd33645a	-0.043796875
252	0xbcbd1b66	-0.023084354
253	0x3cd8a7d5	0.026447216
254	0x3b4e5b94	0.003148769
255	0x3d44c4a8	0.04803911

layer_4.weight f4 [400, 8]
0	0x3e8b2117	0.27173683
1	0x3e86a1e1	0.2629538
2	0x3e377a62	0.17917779
3	0xbe941cf6	-0.28928345
4	0x3e5a96ea	0.21346632
5	0xbc1538c0	-0.009107769
6	0xbc988c10	-0.018621475
7	0xbeb34235	-0.3501145
8	0xbf57e469	-0.843329
9	0xbf516571	-0.8179541
10	0x3f3228d5	0.69593555
11	0x3f9fd740	1.2487564
12	0x3ec1ad47	0.37827513
13	0xbb42ee76	-0.0029744185
14	0xbd4b938e	-0.049701266
15	0x3fabca30	1.3421078
16	0x40100c11	2.2507365
17	0x400939ca	2.1441522
18	0xbf281b56	-0.6566671
19	0xbf16ac1e	-0.5885638
20	0x40296eb2	2.6473813
21	0xbf19f801	-0.6014405
22	0x3d4f7f59	0.050658558
23	0xc0b5c549	-5.6803327
24	0x3fe4ead4	1.7884164
25	0x3fde7314	1.7378869
26	0x3da6ff2a	0.081541374
27	0xbf1b85e0	-0.6075115
28	0x40064479	2.0979292
29	0x3e73e96e	0.23819515
30	0x3e5d7ae0	0.21628904
31	0xc0af513f	-5.4786677
32	0x3e1fc827	0.15603696
33	0x3e101cb0	0.14073443
34	0xbf54c012	-0.83105576
35	0xbd4f05c1	-0.050542597
36	0x3f661ee9	0.89890915
37	0xbb8556b5	-0.004069174
38	0xbadb2744	-0.0016720076
39	0xc0786262	-3.8810048
40	0xbe71800f	-0.23584007
41	0xbe0d1dc5	-0.13780887
42	0x3eb59f47	0.3547308
43	0x3de51afc	0.111867875
44	0x3c6747c7	0.014116234
45	0xbc3b9f74	-0.011451591
46	0xbc2b0d58	-0.010440193
47	0xbf0096f0	-0.5023031
48	0x3ecd5d1a	0.40110093
49	0x3ec7715e	0.3895368
50	0xbe5acae0	-0.21366453
51	0xbef0c9af	-0.47028872
52	0x3daf91e3	0.085727476
53	0xbb4842d5	-0.0030557413
54	0xbe886e28	-0.26646543
55	0xbed9594f	-0.4245095
56	0x3e42c40a	0.19020095
57	0x3d2696b8	0.04067108
58	0x3e9f0075	0.31055036
59	0x3db06840	0.08613634
60	0xbd645f78	-0.05575511
61	0xbb56f600	-0.0032800436
62	0xbe96c337	-0.29445812
63	0xbe935d3e	-0.28782076
64	0x3f4fa232	0.81106865
65	0x3f2b88c4	0.6700556
66	0xbf65ec9e	-0.89814174
67	0x3e6af00e	0.22943136
68	0x3f785ee4	0.9701979
69	0xbf7cb956	-0.987203
70	0xbc83d0a4	-0.016090699
71	0xc060a72d	-3.5102036
72	0x3db3a12a	0.08770974
73	0xbea4c8f7	-0.32184574
74	0xbebf49f2	-0.37361103
75	0xbea58e0d	-0.3233494
76	0xbe12e0bf	-0.14343546
77	0xba22998c	-0.000620269
78	0xbe8d4901	-0.2759476
79	0xbed3a8b8	-0.4133966
80	0xbd47dd45	-0.048795003
81	0x3dd4c1af	0.10388505
82	0xbec85c6a	-0.39133006
83	0x3ed5c472	0.41751438
84	0xbea5d1d7	-0.32386658
85	0xbe324a58	-0.17411172
86	0xbc8792bc	-0.01654946
87	0x3e748404	0.23878485
88	0xbe8f3e2d	-0.27977124
89	0xbe9cea69	-0.3064759
90	0xbe8af2c2	-0.27138335
91	0x3e04948c	0.12947291
92	0xbeac9b24	-0.33712113
93	0xbc1bf0a0	-0.009517819
94	0xbe074ff8	-0.132141
95	0xbe2bb24f	-0.16767238
96	0xbfa8a4d0	-1.3175297
97	0xbf8b4265	-1.0879637
98	0x3ec61442	0.3868733
99	0x3f5785f2	0.8418876
100	0x3e8d0a93	0.2754713
101	0xbb4b05b4	-0.003097874
102	0xbebe1967	-0.37128755
103	0x3ecf6f9b	0.40514836
104	0xbd9cbb0b	-0.07652863
105	0x3ba5d4d4	0.0050607715
106	0xbe3af740	-0.18258381
107	0xbde32041	-0.11090136
108	0xbea9c441	-0.33157542
109	0xbeb7f999	-0.35932615
110	0xbb035a9a	-0.0020043016
111	0x3e78dff6	0.24304184
112	0x4008eedd	2.139579
113	0x3fef8e69	1.8715335
114	0xbecc0478	-0.3984716
115	0xbedb74fc	-0.4286269
116	0x4027349f	2.6125867
117	0xbf8aafa8	-1.0834856
118	0x3e3cfad9	0.18455066
119	0xc0a1d6ac	-5.057455
120	0xbf136f7f	-0.57592005
121	0xbf448803	-0.7677004
122	0x3e986f17	0.29772255
123	0x3e178eb7	0.14800535
124	0x3eb8c504	0.3608781
125	0xbce20d3f	-0.027594207
126	0xbb8f2343	-0.004368217
127	0xbc76514e	-0.015034033
128	0xbf55ed5e	-0.8356532
129	0xbf84e385	-1.0381933
130	0x3f766f3b	0.96263474
131	0x3f3aa6f5	0.72911006
132	0x3f1c509b	0.61060494
133	0xbb2ff9f0	-0.0026851855
134	0xbe9869b0	-0.29768133
135	0xbf39c916	-0.7257246
136	0xbdf0664e	-0.11738263
137	0xbe41e13a	-0.18933573
138	0x3e546a4e	0.20743677
139	0xbdfe00c4	-0.1240249
140	0x3db23b70	0.08702743
141	0xbc1ac980	-0.009447455
142	0xbe4d07bb	-0.2002248
143	0x3e1d7c9e	0.15379569
144	0xbf1cde56	-0.6127676
145	0xbed6ab8e	-0.4192776
146	0xbe24cc5b	-0.1609358
147	0x3ecf8cff	0.4053726
148	0xbc95f1fa	-0.01830386
149	0xba3c1998	-0.00071754446
150	0xbeaac533	-0.33353576
151	0x3f551b00	0.83244324
152	0x3efdcef4	0.49571955
153	0x3f3af7f2	0.73034585
154	0xbf923b3e	-1.1424329
155	0x3f857f0c	1.0429397
156	0x3ed15127	0.40882227
157	0x3e4510e5	0.19244726
158	0xbdb76c9c	-0.089562625
159	0xbf03ac18	-0.5143447
160	0x3e3ec0e2	0.18628266
161	0x3eb18623	0.3467265
162	0xbe2bc0a6	-0.16772708
163	0xbe1050f8	-0.14093387
164	0x3ea36d7d	0.3191947
165	0xbe3cd8a0	-0.18442011
166	0xbb810380	-0.003937185
167	0x3e3f20be	0.18664834
168	0x3fd57b0f	1.667818
169	0x3fe863ff	1.8155516
170	0xbf30e007	-0.6909184
171	0xbf8f2161	-1.1182061
172	0x400c420c	2.1915312
173	0xbf6b2dc1	-0.9186669
174	0x3d8cb677	0.0687074
175	0xc0a825c4	-5.25461
176	0x3e55a8e6	0.20865211
177	0x3da9fdbd	0.0830035
178	0xbd937b85	-0.07201294
179	0x3f7ad2c8	0.97977877
180	0x3ebeb11e	0.37244505
181	0xbe89c763	-0.26909932
182	0xba99cefa	-0.0011734657
183	0xbf6b7879	-0.919807
184	0xbfc1fef3	-1.5155929
185	0xbfb86a46	-1.4407432
186	0x3f357049	0.7087446
187	0x3f6cad94	0.9245236
188	0x3f31d1f8	0.6946101
189	0xbb5d8b1a	-0.0033804835
190	0xbea06c97	-0.31332847
191	0x3d10f8ae	0.03539341
192	0x3febfc61	1.8436395
193	0x401851b0	2.3799858
194	0x3c54fba6	0.012999451
195	0xbf1d63b4	-0.6148026
196	0x40107e1d	2.2576973
197	0xbca80fd1	-0.020515354
198	0x3e3b3b93	0.18284445
199	0xc0a3fd8e	-5.1247015
200	0x3e8bb7a1	0.27288535
201	0x3e56bc1e	0.20970199
202	0x3dabfc18	0.083976924
203	0x3e09ae56	0.1344541
204	0xbdae7c98	-0.08519858
205	0xbe4f38aa	-0.2023646
206	0xbd62a538	-0.055333346
207	0x3e446b36	0.19181523
208	0xbf7d3985	-0.9891589
209	0xbf9a3859	-1.2048446
210	0x3f1bc744	0.6085093
211	0x3f95c64f	1.1701144
212	0x3f1f6e50	0.622777
213	0xbb9dae6e	-0.0048120534
214	0xbde13fb3	-0.10998478
215	0x3fbf2f98	1.49364
216	0xbf522596	-0.820886
217	0xbf91b7fe	-1.1384275
218	0x3f6080bb	0.8769643
219	0x3f93375a	1.1501267
220	0x3f4a0fce	0.78930366
221	0xbce975b5	-0.02849851
222	0xbe9d9f1d	-0.30785456
223	0xbcf3261d	-0.02968126
224	0xbf97a3be	-1.1846845
225	0xbf849f28	-1.0361071
226	0x3f34f474	0.70685506
227	0x3fa8a885	1.3176428
228	0x3e648d1c	0.22319454
229	0xbd07335f	-0.033007976
230	0xbea567a0	-0.32305622
231	0x3e8f4af8	0.27986884
232	0xbfa4b828	-1.28687
233	0xbf8dbabd	-1.1072613
234	0x3eef880d	0.46783486
235	0xbd508d3e	-0.05091595
236	0x3f203cca	0.62592757
237	0x3cacc0e5	0.021088073
238	0xbc9ee1c4	-0.019394763
239	0xbf9d152d	-1.2272087
240	0x3e3571ba	0.17719164
241	0xbd9d83f4	-0.07691184
242	0x3d8e9bb8	0.06963295
243	0xbe818b4f	-0.25301597
244	0xbe444335	-0.19166262
245	0xbd3a4ae0	-0.045481563
246	0xbeb0a60c	-0.34501684
247	0xbdb57720	-0.08860612
248	0xbe8a706e	-0.27038902
249	0xbe43c5e8	-0.19118464
250	0x3e98eadb	0.2986668
251	0x3e46fcc6	0.19432363
252	0xbd2f91c0	-0.042863607
253	0xbe0cd9fe	-0.13755032
254	0xbd65ec68	-0.056133658
255	0x3ea79d59	0.32737234

layer_4.bias f4 [400]
0	0xbdf2c20c	-0.11853418
1	0xbcd28864	-0.025699802
2	0xbf8a9ce1	-1.0829126
3	0xbf305b77	-0.68889564
4	0xbf8700a1	-1.0547067
5	0x3da654a0	0.0812161
6	0x3c0274e4	0.007962439
7	0xbe764f2a	-0.24053636
8	0xbf837696	-1.0270565
9	0xbe2a46e3	-0.16628604
10	0xbdf8d0ba	-0.121491864
11	0x3e9f4815	0.31109682
12	0x3f151bac	0.5824535
13	0xbdb9b0ac	-0.090669006
14	0xbf162ee0	-0.58665276
15	0x3f3520d8	0.7075324
16	0x3f236906	0.6383213
17	0xbe4b47a2	-0.19851544
18	0xbea07992	-0.3134275
19	0xbf9c7217	-1.2222317
20	0x3e5a031a	0.21290246
21	0xbf8550d5	-1.0415293
22	0xbe50007c	-0.20312685
23	0x3f246759	0.64220196
24	0xbf2cb8ab	-0.6746928
25	0xbdd92988	-0.106036246
26	0x3f3e90f9	0.7443996
27	0x3f2b55e3	0.6692793
28	0x3e268b51	0.16264082
29	0x3ee83a67	0.45357057
30	0x3eaf3dc9	0.34226826
31	0x3e73e77e	0.23818776
32	0x3ea050f0	0.3131175
33	0x3eca7861	0.39544967
34	0x3ec81f31	0.39086297
35	0x3eec3747	0.46135923
36	0xbf896654	-1.0734353
37	0x3e01e0a1	0.12683345
38	0xbf83e15e	-1.0303152
39	0xbe8f53cc	-0.2799362
40	0x3f1a1b60	0.6019802
41	0x3f1f812a	0.62306464
42	0xbdedad1a	-0.11605282
43	0xbe90c5a0	-0.28275776
44	0x3ddfad94	0.10921779
45	0xbf66bfcb	-0.901364
46	0xbea8af0a	-0.32946044
47	0xbe61d63e	-0.22054383
48	0xbf0badc4	-0.5456202
49	0xbf1571e0	-0.58376884
50	0xbf85f423	-1.046513
51	0xbe21e4d5	-0.15809949
52	0x3f0e69bc	0.5563009
53	0xbdfed0ce	-0.1244217
54	0x3f4fa8c2	0.8111688
55	0xbe7871c2	-0.24262145
56	0xbf18d99a	-0.59707034
57	0x3dbd633c	0.09247443
58	0x3e62b222	0.22138265
59	0xbe94fdca	-0.29099876
60	0xbf8e8d36	-1.1136844
61	0x3f2b6cd7	0.6696295
62	0xbee73f84	-0.45165646
63	0xbe5150a1	-0.20440914
64	0xbf51752d	-0.8181942
65	0x3ed233b0	0.4105506
66	0x3e75b032	0.23992994
67	0x3e852b6f	0.260097
68	0x3eedf51a	0.4647606
69	0x3f214b3b	0.6300542
70	0xbfa55904	-1.291779
71	0xbf95b692	-1.1696341
72	0xbea54bf5	-0.32284513
73	0x3d5f8a48	0.054575235
74	0xbee4cb1e	-0.44686216
75	0x3f18955d	0.5960291
76	0x3dec00b4	0.115235716
77	0xbf54de1f	-0.8315143
78	0xbf786e18	-0.9704299
79	0xbed97240	-0.42469978
80	0xbc3e648b	-0.011620651
81	0xbf5296d4	-0.82261395
82	0xbf54353b	-0.82893723
83	0xbf83110c	-1.0239577
84	0xbea9a505	-0.33133712
85	0x3f757374	0.9587929
86	0xbedc85b3	-0.43070754
87	0x3f849db9	1.0360633
88	0xbf5174ad	-0.8181866
89	0x3e192a84	0.14957625
90	0xbf8083bd	-1.0040203
91	0xbf333adc	-0.7001169
92	0x3f9e29a7	1.2356461
93	0xbe9df948	-0.3085425
94	0xbe58cecd	-0.21172638
95	0x3f6c34e3	0.922682
96	0xbf6a064c	-0.9141586
97	0xbeb2086b	-0.34772047
98	0xbedea104	-0.4348222
99	0x3e41c7b2	0.18923834
100	0x3e8f7e84	0.2802621
101	0xbdb129c4	-0.08650544
102	0x3e2aa82a	0.16665712
103	0xbf336332	-0.70073235
104	0xbf023f28	-0.5087762
105	0xbdaedc8c	-0.0853816
106	0x3e86471d	0.2622613
107	0x3e6d5236	0.23175892
108	0x3d09242b	0.033481758
109	0xbf62c2db	-0.88578576
110	0x3db400f3	0.087892435
111	0xbe90b3f2	-0.28262287
112	0x3f3b11d4	0.7307408
113	0x3f50ff6f	0.8163976
114	0x3f9e1b6d	1.235212
115	0xbcf30d26	-0.029669356
116	0xbf0babb1	-0.54558855
117	0xbf4b35e5	-0.7937911
118	0xbf548445	-0.8301433
119	0x3e8b1333	0.27163085
120	0xbe18aea3	-0.14910369
121	0x3f3cb9d4	0.7372105
122	0x3df541f7	0.119754724
123	0xbf364a90	-0.71207523
124	0xbf3d5f3d	-0.7397345
125	0xbee3b1ea	-0.44471675
126	0x3eab11e7	0.33412096
127	0x3e74401e	0.23852584
128	0x3e75ac5e	0.23991534
129	0x39886c00	0.00026020408
130	0x3f290941	0.66029745
131	0x3e6848fe	0.22684094
132	0x3e6c27d2	0.23062065
133	0x3eb6e126	0.3571865
134	0x3eef881d	0.46783534
135	0x3f450ae4	0.7696974
136	0xbf5cdb97	-0.8627257
137	0xbf2f394a	-0.6844679
138	0x3e9ab609	0.30217007
139	0x3e61e9a6	0.22061786
140	0x3f315acd	0.69279176
141	0xbf833d11	-1.0253011
142	0x3e8c8dbe	0.2745189
143	0xbec23a5d	-0.37935153
144	0xbf8b5e3e	-1.0888135
145	0x3ecc6874	0.3992344
146	0x3d7dddd9	0.06197915
147	0xbf16453f	-0.5869941
148	0x3f80a96d	1.0051705
149	0x3e85d7f5	0.26141325
150	0x3dddf4f4	0.10837737
151	0xbe55bfd8	-0.20873964
152	0x3edf993e	0.43671602
153	0xbf7aff25	-0.9804557
154	0x3b300500	0.002685845
155	0x3e5d6a1a	0.21622506
156	0xbf2d1f32	-0.67625725
157	0xbf94cd75	-1.16252
158	0x3dcab150	0.09897101
159	0xbf6a4fee	-0.91528213
160	0xbe7be373	-0.24598484
161	0x3e8e6e93	0.27818736
162	0xbf3746b2	-0.7159225
163	0xbf01bf9f	-0.50683016
164	0xbed0fc25	-0.4081737
165	0xbf5be5b6	-0.85897386
166	0x3dd78e7e	0.10525225
167	0x3e088152	0.13330582
168	0xbd2528e8	-0.040322214
169	0x3d5fe232	0.054659076
170	0x3efd37f1	0.49456742
171	0x3e8966b7	0.26836178
172	0xbe800350	-0.25002527
173	0xbefcaf20	-0.4935236
174	0x3dadc8bc	0.08485553
175	0xbf4e4e14	-0.8058789
176	0xbfa22d6d	-1.2670113
177	0x3e1b7092	0.15179661
178	0xbe81c40e	-0.2534489
179	0xbed954f6	-0.42447633
180	0x3f17c6a0	0.5928745
181	0xbf2f0a19	-0.6837478
182	0xbe843d03	-0.25827798
183	0xbf7b000a	-0.98046935
184	0xbdb3338d	-0.08750067
185	0xbf93cf74	-1.1547685
186	0xbf279661	-0.65463835
187	0xbf84135c	-1.0318408
188	0xbeeaa998	-0.45832515
189	0xbf11b238	-0.56912565
190	0x3ee19813	0.44061336
191	0x3de8f9e6	0.11375789
192	0xbf839d67	-1.028241
193	0x3f39db6d	0.7260044
194	0xbe70fd5e	-0.23534152
195	0xbe92b224	-0.28651536
196	0xbe2d17b2	-0.1690357
197	0xbee11b9c	-0.43966377
198	0xbe8ce004	-0.2751466
199	0x3df71c45	0.12065939
200	0xbf8f7983	-1.1208957
201	0xbf16f6ee	-0.58970535
202	0xbd15b010	-0.03654486
203	0xbefad40f	-0.48989913
204	0xbe2135ec	-0.15743226
205	0x3f203038	0.62573576
206	0xbe60c8d0	-0.21951604
207	0x3e9e19d9	0.30879095
208	0x3f0fc18d	0.5615471
209	0xbf89657e	-1.0734098
210	0xbe81706b	-0.2528108
211	0xbe99d186	-0.30042666
212	0xbd5775f7	-0.052602734
213	0x3e4eb262	0.20185235
214	0xbf81d282	-1.0142367
215	0xbf834d34	-1.0257936
216	0xbe33c307	-0.17554866
217	0x3d850642	0.06495334
218	0x3e35225e	0.17688891
219	0xbe9f84b7	-0.3115594
220	0xbf5164fd	-0.8179472
221	0xbf2515d8	-0.64486456
222	0xbf21f5f5	-0.63265926
223	0xbf8aa317	-1.0831021
224	0xbe4230e0	-0.18963957
225	0xbf7942dd	-0.9736765
226	0x3d322220	0.043489575
227	0xbf8401d2	-1.0313056
228	0xbf99786c	-1.1989875
229	0x3dbb4da8	0.09145671
230	0xbf389ee7	-0.72117466
231	0x3ee00cad	0.4375967
232	0x3eb669b8	0.35627532
233	0xbf77b971	-0.96767336
234	0x3e732606	0.23744974
235	0xbf0c8a99	-0.54898983
236	0x3e45da73	0.19321613
237	0xbf17860e	-0.59188926
238	0x3f7dfa9a	0.9921051
239	0xbf34f1b1	-0.7068129
240	0x3e05c65a	0.13063946
241	0xbf5adcab	-0.8549296
242	0x3e3d04a3	0.184588
243	0xbf5d6ce1	-0.8649426
244	0x3eb4302e	0.35193008
245	0x3e9f4600	0.31108093
246	0xbe680104	-0.22656637
247	0xbeadc7c6	-0.33941478
248	0x3e354cb9	0.17705049
249	0x3d62835e	0.055301063
250	0xbf25d780	-0.6478195
251	0x3e097970	0.13425231
252	0x3f50765a	0.8143059
253	0x3f2fbc6d	0.6864689
254	0x3e81981d	0.25311366
255	0xbf870a39	-1.0549995
