RL/Model_Repository/temp/TD3_Guest_helen_actor.pth (torch, 516991 bytes, 9 tensors)

layer_1.weight f4 [400, 15]
0	0x3e33fc5f	0.1757674
1	0x3e454b6c	0.19267052
2	0xbd2098a4	-0.03920807
3	0x3e5cb844	0.21554667
4	0xbd165dff	-0.036710735
5	0x3d09e83e	0.03366875
6	0xbdd5dc98	-0.104424655
7	0x3e059058	0.13043344
8	0x3e5300c6	0.20605764
9	0xbe2bed7d	-0.16789813
10	0x3e4fa737	0.20278631
11	0x3cdea8a6	0.027180027
12	0x3e2da8d2	0.16958931
13	0x3cc9f35e	0.02465218
14	0x3ddb7995	0.10716549
15	0xbc7ef1dd	-0.015560594
16	0x3e35a8e1	0.17740203
17	0x3c8d0ff9	0.01721953
18	0xbdcad86d	-0.09904561
19	0x3d364ba8	0.044505745
20	0xbdc7998a	-0.09746082
21	0xbc1dfe5f	-0.009643166
22	0xbdaac11c	-0.08337614
23	0x3e193c53	0.14964418
24	0xbe3a8b9f	-0.18217324
25	0xbdc7c36c	-0.09754071
26	0xbd5330fb	-0.051560383
27	0xbe08d199	-0.13361205
28	0x3c65717b	0.014004107
29	0xbe6ef752	-0.23336533
30	0x3e589e71	0.2115419
31	0xbe4a6fc0	-0.19769192
32	0x3e35f625	0.17769678
33	0x3cb383cb	0.02191343
34	0xbd7fdfee	-0.062469415
35	0x3e0d44a2	0.13795713
36	0x3c9f0950	0.01941362
37	0x3e3f7c3f	0.1869974
38	0x3c027c8e	0.007964266
39	0xbd75f904	-0.060051933
40	0x3d44c906	0.048043273
41	0xbd476799	-0.048682783
42	0x3db2ac84	0.08724311
43	0x3e5699d4	0.20957118
44	0x3e07a58f	0.1324675
45	0xbdbb28f3	-0.0913867
46	0x3e027793	0.12740926
47	0x3ccd7eea	0.025084931
48	0x3de07521	0.109598406
49	0xbe0aff64	-0.13573986
50	0xbe6f98c8	-0.23398125
51	0xbda04e49	-0.07827432
52	0xbe34a27c	-0.17640108
53	0x3e42ca70	0.19022536
54	0x3d5925b6	0.05301448
55	0x3daf058f	0.08545982
56	0x3d76eeb0	0.060286224
57	0x369097a1	4.3091864e-06
58	0x3e3ddf42	0.18542197
59	0xbe25b190	-0.16181016
60	0x36024e38	1.9417039e-06
61	0xbe1e4d2d	-0.15459128
62	0x3d6e98f4	0.058251336
63	0xbd8a3c41	-0.06749774
64	0x3d6c8e68	0.057752997
65	0xbd05713f	-0.032578703
66	0x3e4520df	0.1925082
67	0xbe068c73	-0.13139515
68	0xbe07869e	-0.13234946
69	0xbe07890d	-0.13235874
70	0x3e57a64b	0.2105953
71	0x3d8464cb	0.06464537
72	0x3e684175	0.2268122
73	0xbe440a4f	-0.19144557
74	0xbe7026fc	-0.23452371
75	0xbe38b1c4	-0.18036562
76	0xbe1bb267	-0.15204774
77	0x3daa2bcc	0.08309135
78	0x3d916bb8	0.07100624
79	0x3e45882d	0.19290228
80	0xbde4f9ac	-0.11180434
81	0xbe1e165a	-0.15438214
82	0x3dec6b61	0.115439184
83	0xbda9bed5	-0.082883514
84	0x3e0a4ecd	0.13506623
85	0xbd23cb3f	-0.039988752
86	0x3e011657	0.12606178
87	0xbe374614	-0.17897826
88	0xbddf853a	-0.10914083
89	0x3d80cf60	0.06289554
90	0x3d08a836	0.033363543
91	0xbd365258	-0.044512123
92	0x3e0770bc	0.13226599
93	0x3e1d9481	0.15388681
94	0xbe2995d6	-0.16561064
95	0xbdee6480	-0.116402626
96	0x3e5bf554	0.21480304
97	0xbd869f30	-0.06573331
98	0xbd8fadc5	-0.07015566
99	0xbe69adfd	-0.22820278
100	0xbe014099	-0.12622298
101	0x3d30e81a	0.0431901
102	0xbc6b149d	-0.014348176
103	0xbe29c2fe	-0.1657829
104	0x3aafda3f	0.0013416483
105	0xbe1e71d1	-0.15473105
106	0xbe4a2738	-0.19741523
107	0xbdf6ef75	-0.120573916
108	0xbe513e3b	-0.20433895
109	0xbe12310b	-0.14276521
110	0x3e723a3c	0.23655027
111	0x3ce2388c	0.027614854
112	0x3d6e6514	0.058201864
113	0xbe607041	-0.21917821
114	0xbe177d2c	-0.14793843
115	0xbd842faf	-0.064544074
116	0x3c9eb60b	0.019373914
117	0xbe527cf9	-0.20555486
118	0xbdb7d464	-0.08976057
119	0xbe08204d	-0.13293572
120	0xb301e6fc	-3.0245232e-08
121	0xbd98c817	-0.07460039
122	0xb8fc96a0	-0.000120443525
123	0xbe1d00cf	-0.1533234
124	0xbe1f521a	-0.15558663
125	0xbe0416ea	-0.12899366
126	0xbd892aa8	-0.06697589
127	0xbe3a85f3	-0.1821516
128	0x3e478775	0.19485267
129	0xbcf62904	-0.030048855
130	0x3e4d5373	0.20051365
131	0x3d720104	0.059083
132	0xbe49ba8e	-0.19700071
133	0x3e235553	0.15950517
134	0xbd534187	-0.051576164
135	0xbd9eb584	-0.07749465
136	0xbe454fd7	-0.19268738
137	0xbe70c430	-0.2351234
138	0x3d571891	0.052513663
139	0xbd180f70	-0.037124097
140	0x3da418b5	0.08012525
141	0xbe42f7e7	-0.1903988
142	0x3e2e65cc	0.1703102
143	0xbe2c0da3	-0.16802077
144	0xbccdaf8b	-0.02510812
145	0x3d05ff1a	0.032713987
146	0x3de4df08	0.11175352
147	0x3e3fa55c	0.18715423
148	0x3e5bed82	0.21477321
149	0xbe3b4662	-0.18288568
150	0x3d32dba6	0.043666504
151	0xbdb76f54	-0.08956781
152	0xbbff85a5	-0.007797914
153	0xbe2fbd03	-0.17161946
154	0x3e5aab3a	0.2135438
155	0xbe2be4a0	-0.16786432
156	0x3dee6ecb	0.11642226
157	0x3d8df02c	0.06930575
158	0x3d800502	0.06250955
159	0xbdf1add7	-0.118007354
160	0x3e5a29e5	0.21305044
161	0x3d116405	0.035495777
162	0x3c4b93fa	0.012425417
163	0xbe52f3ef	-0.20600866
164	0x3db885bd	0.090098836
165	0xbc919d99	-0.017775344
166	0xbdc63cd7	-0.09679573
167	0x3e4cf14b	0.20013921
168	0x3d14bc82	0.036312588
169	0xbdf85270	-0.12125099
170	0xbddf914c	-0.10916385
171	0x36b3e78b	5.361571e-06
172	0x3dfaff8b	0.12255772
173	0xbd36f572	-0.04466767
174	0xbe00b48b	-0.12568872
175	0xbd8937ae	-0.06700073
176	0xbe2f5d39	-0.17125405
177	0x3d90af70	0.07064712
178	0x3e373d28	0.17894423
179	0xbe62f8e8	-0.22165263
180	0x3d1e7f18	0.038695425
181	0x3de50b80	0.11183834
182	0x3cd299aa	0.025708038
183	0xbd906d81	-0.07052136
184	0x3de9fce8	0.11425191
185	0x3deceeab	0.1156896
186	0x3d9c0c3f	0.07619523
187	0xbce7b895	-0.028286258
188	0xbd485092	-0.048904963
189	0x3c2e14ea	0.0106251035
190	0xbcc8cab3	-0.024510717
191	0xbd63a88e	-0.05558067
192	0x3e141b17	0.14463459
193	0x3e513910	0.20431924
194	0xbc717941	-0.014738382
195	0xbd15bc2e	-0.036556415
196	0x00000008	1.1e-44
197	0xb30a3aa7	-3.2183973e-08
198	0x3d270eb5	0.04078551
199	0x3d50dac0	0.050989866
200	0xbe59fcaf	-0.21287797
201	0xbd9734b0	-0.07383096
202	0x3e487e58	0.19579446
203	0x3da1fa42	0.07909061
204	0x9a1a8fdb	-3.196266e-23
205	0xbe093f19	-0.13402976
206	0xbe0b9973	-0.13632755
207	0xbe56af47	-0.209653
208	0xbd824c0c	-0.06362161
209	0x3d9462ee	0.07245432
210	0x3e126cd9	0.14299335
211	0x3dc8206b	0.09771808
212	0xbe538d41	-0.20659353
213	0xbe08d6a3	-0.13363127
214	0xbca1b2dc	-0.019738607
215	0x3e699a95	0.22812875
216	0x3c86956a	0.016428668
217	0xbd3a8f37	-0.045546737
218	0x3daec216	0.08533113
219	0xbd9d6600	-0.076854706
220	0xbe14f8ef	-0.14548086
221	0x3e2ad1e1	0.16681625
222	0xbdc46d95	-0.095912136
223	0xbcfa6c0c	-0.030569099
224	0xbe70f027	-0.23529111
225	0x3e1acb05	0.15116508
226	0x3e3227f7	0.17398058
227	0x3d94c3d3	0.07263913
228	0xbe223274	-0.15839559
229	0xbe6ed3dc	-0.23323005
230	0xbe4093d1	-0.18806387
231	0x3e2f002f	0.17089914
232	0x3dd1dbef	0.10247027
233	0x3e4854b7	0.19563566
234	0x3de8df92	0.11370768
235	0x3d345a97	0.044031706
236	0x00000014	2.8e-44
237	0xbe32ea51	-0.17472197
238	0xbe4c5e1f	-0.1995778
239	0xbe612497	-0.21986614
240	0x3dac74dc	0.08420727
241	0xbdd79a19	-0.10527439
242	0xbcfc103d	-0.030769462
243	0xbe02007d	-0.12695499
244	0xbcd45b3a	-0.025922406
245	0xbe23ee83	-0.16008954
246	0xbe1699e0	-0.14707136
247	0x3d8395d4	0.06425062
248	0xbd62d3fc	-0.055377945
249	0x3e0d104d	0.1377575
250	0xbd7bb778	-0.061454266
251	0xbe2bcaf5	-0.1677664
252	0xbcc85123	-0.024452752
253	0xbdd4502c	-0.10366854
254	0xbd6c0e3e	-0.05763077
255	0xbe658b52	-0.22416428

layer_1.bias f4 [400]
0	0xbe02c29f	-0.12769555
1	0xbd15e9d7	-0.03659996
2	0x3e580d07	0.2109872
3	0xbe23da38	-0.16001213
4	0xbe32e599	-0.17470397
5	0xbe4114cc	-0.1885559
6	0x3e613b27	0.21995221
7	0xbc48c320	-0.012253553
8	0xbd41fff9	-0.047363255
9	0x3df722b2	0.120671645
10	0xbe060f14	-0.1309169
11	0xbd4030f4	-0.046921685
12	0x3e5cff56	0.21581778
13	0x3ded8405	0.11597446
14	0xbe36f0e3	-0.17865328
15	0xbd4b441d	-0.049625505
16	0x3ba83067	0.005132723
17	0x3d963478	0.07334226
18	0xbdc743f0	-0.09729755
19	0x3e22f7e9	0.15914883
20	0x3599e213	1.1465185e-06
21	0xbe4e717c	-0.20160478
22	0x3d440571	0.04785675
23	0xbe6a800a	-0.22900406
24	0x390ff113	0.0001372735
25	0xbe6f68d2	-0.2337983
26	0xbd561dea	-0.052274622
27	0xbd225da8	-0.0396401
28	0xbe575607	-0.2102891
29	0xbd5ee87f	-0.054420944
30	0x39dbd6ac	0.00041930878
31	0xbdfe4a61	-0.124165304
32	0x3ca2922d	0.019845093
33	0x3dec630a	0.11542328
34	0x3c228ae5	0.00992081
35	0xbe6d6874	-0.23184377
36	0xb8274adb	-3.9885617e-05
37	0xbdccb4bf	-0.09995412
38	0x3d5aa8bc	0.053383574
39	0xbe3df9a8	-0.18552268
40	0xbe20c155	-0.1569875
41	0xb8a1a716	-7.7082004e-05
42	0x3e025487	0.12727557
43	0xbd4a2723	-0.04935373
44	0xb99f48eb	-0.0003038117
45	0xbbbbae70	-0.0057275817
46	0xbe38d965	-0.1805168
47	0xbb6fd351	-0.003659446
48	0x34a87faa	3.1385326e-07
49	0x3cb88017	0.022522015
50	0x3dc0d778	0.094160974
51	0x3d650dba	0.055921294
52	0x3dfac971	0.12245453
53	0xbcee1e3b	-0.02906715
54	0xbdbb1645	-0.09135107
55	0x3e4ac476	0.19801506
56	0x3e3cba95	0.1843055
57	0x3df53262	0.119725004
58	0x3e2afb7c	0.16697496
59	0x3dd7dcb5	0.105401434
60	0x3e53928d	0.20661373
61	0x3e4ffafe	0.2031059
62	0xbe40cf9d	-0.18829198
63	0xbe630048	-0.22168076
64	0xbde69b5c	-0.11260101
65	0x3e344563	0.17604594
66	0x3e589be6	0.2115322
67	0x3a642279	0.00087026466
68	0xbe2d5429	-0.16926636
69	0xbdcc8a38	-0.09987301
70	0x3dd1abc2	0.10237838
71	0x3e6027a0	0.21890116
72	0x3cf34a6e	0.029698577
73	0xbe17b9e8	-0.14817011
74	0x3e64d317	0.2234615
75	0x3e523d64	0.20531231
76	0xbdbc004c	-0.09179744
77	0xbdf1e45a	-0.11811133
78	0x3e01eb48	0.12687409
79	0xbe28e6d3	-0.16494302
80	0x3e469a0b	0.193947
81	0xbd056ebf	-0.03257632
82	0x348eb672	2.6582308e-07
83	0xbdee5406	-0.1163712
84	0xbe6f67e2	-0.23379472
85	0x3d183a74	0.03716512
86	0xbd913295	-0.07089726
87	0xbe056e67	-0.13030396
88	0x3e3caefe	0.18426129
89	0x3cdcf3ce	0.026971724
90	0xbd443bd6	-0.047908626
91	0xbe5daf78	-0.21648967
92	0xbdfe1b44	-0.12407544
93	0xbd80cc09	-0.062889166
94	0x3db2ef06	0.08736996
95	0xbe5adc7d	-0.21373172
96	0x3e02e3d9	0.1278223
97	0x3e5a6395	0.2132705
98	0x3d6fc0a8	0.05853334
99	0xbe70724c	-0.23481101
100	0x3c73874d	0.014863801
101	0xbda98f84	-0.082793266
102	0x3d770708	0.06030944
103	0x80000004	-6e-45
104	0x3dd6f12a	0.10495217
105	0xbae30ff5	-0.0017323481
106	0x3cd054aa	0.025430996
107	0x3dabcb0c	0.083883375
108	0xbe2dbad7	-0.16965805
109	0x3cb42f3d	0.021995181
110	0x3e55edaf	0.2089145
111	0x3e22807c	0.15869325
112	0x3b5eb8b7	0.003398461
113	0xbcce6aea	-0.025197465
114	0x3daea337	0.085272245
115	0xbe525691	-0.20540835
116	0xbd69c60a	-0.05707363
117	0x3e4f85df	0.20265912
118	0x3c4ccb5d	0.012499657
119	0x36cb4832	6.058276e-06
120	0xbe39f637	-0.1816033
121	0xbe15362d	-0.14571448
122	0x3c8a50b7	0.016884191
123	0xbe309647	-0.17244826
124	0xbd5be76f	-0.05368751
125	0xbdd87a2c	-0.105701774
126	0x3d6e954c	0.05824785
127	0x3c97449f	0.018465338
128	0xbe69205d	-0.22766252
129	0x3d8a6734	0.06757966
130	0xbb5bc7ea	-0.0033535906
131	0xbdd418b5	-0.10356275
132	0x3e2cab1e	0.16862151
133	0xbe17e70b	-0.1483423
134	0xbe5afffc	-0.21386713
135	0x3c28e53e	0.010308562
136	0xbdf58c35	-0.11989633
137	0xbdaad02d	-0.08340488
138	0xbe5117df	-0.20419262
139	0xbd3639c5	-0.044488687
140	0x3e3c3537	0.18379675
141	0xbe59da77	-0.21274744
142	0xbe1cbfd1	-0.15307547
143	0xbd19f4b1	-0.03758687
144	0xbe3b166a	-0.18270269
145	0x3ce83250	0.028344303
146	0xbcf6c555	-0.030123392
147	0x3e31d9d8	0.17368257
148	0xbe70b057	-0.23504768
149	0x36c46367	5.852827e-06
150	0x3dbd8577	0.09253972
151	0x3c6a3de0	0.014296979
152	0xbd48a4c2	-0.04898525
153	0x3e61cda1	0.22051097
154	0xbe3713c8	-0.1787864
155	0x3e60286b	0.21890418
156	0x3d50d7e1	0.05098713
157	0x3dd01240	0.10159731
158	0x3e243d9c	0.16039127
159	0x3bb21fec	0.0054359343
160	0x3c185db3	0.009299683
161	0xbcff20fc	-0.031143658
162	0xbe59cdd5	-0.21269925
163	0x3db4e3d0	0.08832514
164	0x3e2f9d6d	0.17149897
165	0x3db47f1a	0.08813305
166	0xbc9e5443	-0.019327288
167	0xbe56877d	-0.20950122
168	0x37aabbcc	2.0353029e-05
169	0x3d3e2d47	0.0464299
170	0xbe38c891	-0.1804526
171	0x3e4abc52	0.19798401
172	0x3804f232	3.1696814e-05
173	0x3d496c9f	0.049175855
174	0x3e5379c9	0.20651926
175	0x3db9f415	0.09079758
176	0xbdf25105	-0.118318595
177	0x3d970d20	0.0737555
178	0x3e055521	0.13020755
179	0x3ddc1fbd	0.10748241
180	0xbdcc5a4d	-0.09978161
181	0x3c0ac8d6	0.008470735
182	0xbe27d609	-0.16390242
183	0xbc31824d	-0.010834289
184	0xbe214f68	-0.15752947
185	0x3e01b774	0.12667638
186	0x3e6ce901	0.23135759
187	0xbe69e8fc	-0.22842783
188	0xbdcb100c	-0.0991517
189	0xbdb486d8	-0.08814782
190	0xbe230d04	-0.15922934
191	0x3e5a7362	0.21333078
192	0xbe3612b6	-0.17780575
193	0xbde8523e	-0.113438115
194	0xbe458583	-0.19289212
195	0x2524216f	1.423606e-16
196	0xbe2d9db1	-0.16954686
197	0xbe1bf0d4	-0.15228587
198	0x3e70f60c	0.2353136
199	0x3dc0847e	0.09400271
200	0x3db521f5	0.088443674
201	0x3e258628	0.16164458
202	0x3cc0aee3	0.023520892
203	0x3cb4fe45	0.022093901
204	0xbe306f59	-0.17229976
205	0x3d5dff25	0.054198403
206	0xbe3867af	-0.18008302
207	0xb0db6a47	-1.5964553e-09
208	0xbdf457c7	-0.11930805
209	0xbdff6a17	-0.12471407
210	0xbe04c784	-0.12966734
211	0xbdd44eeb	-0.10366615
212	0xbe0716fb	-0.1319236
213	0xbdf60d1f	-0.120142214
214	0xbd95d260	-0.073155165
215	0xbe5b8d13	-0.21440534
216	0x3e3d84a3	0.18507628
217	0x3d86fa83	0.0659075
218	0xbe70df0b	-0.23522584
219	0xbe723b95	-0.23655541
220	0xbdde3e6e	-0.10851751
221	0x3da00991	0.07814325
222	0x3e5bedc3	0.21477418
223	0xbca4fadf	-0.020139156
224	0x3e080dfc	0.13286585
225	0xbdf10230	-0.11767995
226	0xbd0c6b42	-0.034281977
227	0xbc9bee77	-0.019034607
228	0xbe6b3b6c	-0.22971886
229	0x8000002f	-6.6e-44
230	0x3d44e83a	0.04807303
231	0x3e0c200e	0.13684103
232	0xbe3684b3	-0.17824058
233	0xbd66f128	-0.05638233
234	0x00000001	1e-45
235	0x3c0035bc	0.007825311
236	0x3cb8217f	0.02247691
237	0xbe2e57b3	-0.17025642
238	0x3e373b1b	0.1789364
239	0xbe58d3b4	-0.21174508
240	0xbd8bbc57	-0.06823032
241	0x3ddb75c7	0.107158236
242	0xbd32e265	-0.043672938
243	0xbdd2f055	-0.10299746
244	0xbe6eb44e	-0.23310968
245	0x3e201284	0.15632063
246	0x35b284c4	1.3300673e-06
247	0x3dd44803	0.10365298
248	0x3cabbd96	0.020964425
249	0xbe2e771c	-0.17037624
250	0xbd8f08a1	-0.06984068
251	0x3e266bc4	0.16252047
252	0xbdd6ef65	-0.1049488
253	0xbdc7b8eb	-0.09752067
254	0x3df84ea7	0.12124377
255	0xbdb99a11	-0.09062589

ln1.weight f4 [400]
0	0x3f7a6137	0.9780459
1	0x3f7a621a	0.9780594
2	0x3f7a6711	0.97813517
3	0x3f7a65d3	0.9781162
4	0x3f7a61af	0.97805303
5	0x3f7a624b	0.97806233
6	0x3f7a5fe3	0.9780256
7	0x3f7a61c9	0.9780546
8	0x3f7a6173	0.97804946
9	0x3f7a6136	0.9780458
10	0x3f7a60ff	0.97804254
11	0x3f7a616a	0.9780489
12	0x3f7a6a72	0.9781867
13	0x3f7a6334	0.9780762
14	0x3f7a6cd3	0.978223
15	0x3f7a61de	0.97805583
16	0x3f7a624e	0.9780625
17	0x3f7a6382	0.97808087
18	0x3f7a6012	0.9780284
19	0x3f7a6043	0.97803134
20	0x3f7a62d1	0.9780703
21	0x3f7a5fd8	0.97802496
22	0x3f7a6102	0.9780427
23	0x3f7a620f	0.97805876
24	0x3f7a6107	0.978043
25	0x3f7a6040	0.97803116
26	0x3f7a60b1	0.9780379
27	0x3f7a609d	0.9780367
28	0x3f7a61dc	0.9780557
29	0x3f7a636a	0.97807944
30	0x3f7a6258	0.9780631
31	0x3f7a62f7	0.9780726
32	0x3f7a6194	0.9780514
33	0x3f7a60e8	0.9780412
34	0x3f7a6cc1	0.97822195
35	0x3f7a62f1	0.9780722
36	0x3f7a61fa	0.9780575
37	0x3f7a60a4	0.9780371
38	0x3f7a61fa	0.9780575
39	0x3f7a6cbe	0.9782218
40	0x3f7a63fd	0.9780882
41	0x3f7a60e8	0.9780412
42	0x3f7a61e7	0.9780564
43	0x3f7a6662	0.97812474
44	0x3f7a602d	0.97803
45	0x3f7a6319	0.9780746
46	0x3f7a6130	0.97804546
47	0x3f7a641c	0.97809005
48	0x3f7a6448	0.9780927
49	0x3f7a652c	0.97810626
50	0x3f7a6019	0.97802883
51	0x3f7a620a	0.97805846
52	0x3f7a6353	0.97807807
53	0x3f7a6630	0.97812176
54	0x3f7a60e3	0.9780409
55	0x3f7a6379	0.97808033
56	0x3f7a61ff	0.9780578
57	0x3f7a618e	0.97805107
58	0x3f7a631d	0.97807485
59	0x3f7a61af	0.97805303
60	0x3f7a64e2	0.97810185
61	0x3f7a60e8	0.9780412
62	0x3f7a6041	0.9780312
63	0x3f7a604b	0.9780318
64	0x3f7a683d	0.97815305
65	0x3f7a605d	0.9780329
66	0x3f7a6051	0.9780322
67	0x3f7a6485	0.9780963
68	0x3f7a6bdc	0.9782083
69	0x3f7a66e4	0.9781325
70	0x3f7a6aa9	0.97819
71	0x3f7a64a4	0.97809815
72	0x3f7a6b1c	0.97819686
73	0x3f7a60a9	0.9780374
74	0x3f7a6367	0.97807926
75	0x3f7a6248	0.97806215
76	0x3f7a6997	0.9781737
77	0x3f7a6312	0.9780742
78	0x3f7a6273	0.9780647
79	0x3f7a60dc	0.97804046
80	0x3f7a6820	0.9781513
81	0x3f7a60a9	0.9780374
82	0x3f7a62b1	0.9780684
83	0x3f7a635c	0.9780786
84	0x3f7a633a	0.9780766
85	0x3f7a622a	0.97806036
86	0x3f7a60c1	0.97803885
87	0x3f7a635c	0.9780786
88	0x3f7a60dc	0.97804046
89	0x3f7a615b	0.978048
90	0x3f7a60c9	0.9780393
91	0x3f7a61fc	0.9780576
92	0x3f7a6436	0.9780916
93	0x3f7a622e	0.9780606
94	0x3f7a6132	0.9780456
95	0x3f7a6512	0.9781047
96	0x3f7a6256	0.978063
97	0x3f7a7478	0.9783397
98	0x3f7a6187	0.97805065
99	0x3f7a65c5	0.9781154
100	0x3f7a6102	0.9780427
101	0x3f7a60e1	0.97804075
102	0x3f7a62bc	0.97806907
103	0x3f7a6654	0.9781239
104	0x3f7a63c1	0.9780846
105	0x3f7a63ee	0.9780873
106	0x3f7a66b3	0.97812957
107	0x3f7a67ba	0.97814524
108	0x3f7a6067	0.9780335
109	0x3f7a65b8	0.9781146
110	0x3f7a6376	0.97808015
111	0x3f7a627c	0.97806525
112	0x3f7a6dc2	0.9782373
113	0x3f7a6320	0.978075
114	0x3f7a64ae	0.97809875
115	0x3f7a6249	0.9780622
116	0x3f7a64a1	0.978098
117	0x3f7a6167	0.97804874
118	0x3f7a615f	0.97804826
119	0x3f7a686c	0.97815585
120	0x3f7a6107	0.978043
121	0x3f7a643c	0.97809196
122	0x3f7a60f2	0.97804177
123	0x3f7a601c	0.978029
124	0x3f7a610b	0.97804326
125	0x3f7a620d	0.97805864
126	0x3f7a691d	0.9781664
127	0x3f7a60f5	0.97804195
128	0x3f7a609f	0.9780368
129	0x3f7a6ab7	0.97819084
130	0x3f7a6294	0.9780667
131	0x3f7a6f32	0.9782592
132	0x3f7a5fbd	0.97802335
133	0x3f7a605b	0.97803277
134	0x3f7a60f1	0.9780417
135	0x3f7a62d7	0.9780707
136	0x3f7a60f6	0.978042
137	0x3f7a61d2	0.9780551
138	0x3f7a6077	0.97803444
139	0x3f7a6329	0.97807556
140	0x3f7a695f	0.97817034
141	0x3f7a62b9	0.9780689
142	0x3f7a64b8	0.97809935
143	0x3f7a60f5	0.97804195
144	0x3f7a60b7	0.97803825
145	0x3f7a60a5	0.9780372
146	0x3f7a61bc	0.9780538
147	0x3f7a6268	0.97806406
148	0x3f7a60c7	0.9780392
149	0x3f7a61ca	0.97805464
150	0x3f7a6101	0.97804266
151	0x3f7a60ec	0.9780414
152	0x3f7a630e	0.97807395
153	0x3f7a6630	0.97812176
154	0x3f7a6027	0.97802967
155	0x3f7a5ffc	0.9780271
156	0x3f7a610d	0.9780434
157	0x3f7a6324	0.97807527
158	0x3f7a69ef	0.9781789
159	0x3f7a601b	0.97802895
160	0x3f7a618a	0.9780508
161	0x3f7a61f3	0.9780571
162	0x3f7a61c5	0.97805434
163	0x3f7a62d5	0.97807056
164	0x3f7a6105	0.9780429
165	0x3f7a64f6	0.97810304
166	0x3f7a6231	0.9780608
167	0x3f7a650a	0.97810423
168	0x3f7a626e	0.9780644
169	0x3f7a62ca	0.9780699
170	0x3f7a6084	0.9780352
171	0x3f7a60cf	0.9780397
172	0x3f7a6bad	0.9782055
173	0x3f7a6401	0.97808844
174	0x3f7a6133	0.97804564
175	0x3f7a6273	0.9780647
176	0x3f7a60bd	0.9780386
177	0x3f7a6019	0.97802883
178	0x3f7a61b2	0.9780532
179	0x3f7a6084	0.9780352
180	0x3f7a7d25	0.97847205
181	0x3f7a60ff	0.97804254
182	0x3f7a6207	0.9780583
183	0x3f7a60cc	0.9780395
184	0x3f7a6ad2	0.97819245
185	0x3f7a5fb7	0.978023
186	0x3f7a644e	0.978093
187	0x3f7a649b	0.9780976
188	0x3f7a622f	0.97806066
189	0x3f7a6cbd	0.9782217
190	0x3f7a62da	0.97807086
191	0x3f7a6261	0.97806364
192	0x3f7a6299	0.978067
193	0x3f7a6a1d	0.97818166
194	0x3f7a6140	0.9780464
195	0x3f7a6283	0.97806567
196	0x3f7a618c	0.97805095
197	0x3f7a63a3	0.97808284
198	0x3f7a632a	0.9780756
199	0x3f7a62a2	0.9780675
200	0x3f7a60a0	0.9780369
201	0x3f7a611e	0.9780444
202	0x3f7a6288	0.97806597
203	0x3f7a6004	0.9780276
204	0x3f7a680e	0.97815025
205	0x3f7a617a	0.9780499
206	0x3f7a6286	0.97806585
207	0x3f7a61aa	0.97805274
208	0x3f7a6b53	0.97820014
209	0x3f7a6624	0.97812104
210	0x3f7a61bf	0.978054
211	0x3f7a6241	0.97806174
212	0x3f7a6234	0.97806096
213	0x3f7a6090	0.9780359
214	0x3f7a6189	0.97805077
215	0x3f7a641d	0.9780901
216	0x3f7a61c5	0.97805434
217	0x3f7a65a2	0.9781133
218	0x3f7a63a9	0.9780832
219	0x3f7a620b	0.9780585
220	0x3f7a62f3	0.97807235
221	0x3f7a6159	0.9780479
222	0x3f7a610f	0.9780435
223	0x3f7a60e6	0.97804105
224	0x3f7a61ad	0.9780529
225	0x3f7a61c8	0.9780545
226	0x3f7a628f	0.9780664
227	0x3f7a61cc	0.97805476
228	0x3f7a623a	0.9780613
229	0x3f7a6191	0.97805125
230	0x3f7a7ca8	0.9784646
231	0x3f7a6356	0.97807825
232	0x3f7a6956	0.9781698
233	0x3f7a6075	0.9780343
234	0x3f7a69b0	0.97817516
235	0x3f7a6767	0.9781403
236	0x3f7a6a4e	0.9781846
237	0x3f7a63d5	0.9780858
238	0x3f7a60a1	0.97803694
239	0x3f7a6717	0.9781355
240	0x3f7a60f3	0.9780418
241	0x3f7a619b	0.97805184
242	0x3f7a6284	0.9780657
243	0x3f7a6222	0.9780599
244	0x3f7a60a5	0.9780372
245	0x3f7a6708	0.97813463
246	0x3f7a61c4	0.9780543
247	0x3f7a6163	0.9780485
248	0x3f7a630f	0.978074
249	0x3f7a630c	0.97807384
250	0x3f7a6517	0.978105
251	0x3f7a61aa	0.97805274
252	0x3f7a604c	0.9780319
253	0x3f7a627f	0.97806543
254	0x3f7a6907	0.9781651
255	0x3f7a63a0	0.97808266

ln1.bias f4 [400]
0	0xb973a18f	-0.00023234471
1	0x3895566e	7.1209724e-05
2	0x3550c909	7.7778583e-07
3	0x38d3982e	0.0001008961
4	0xb89e525d	-7.5493685e-05
5	0x386c69e3	5.63654e-05
6	0x38aea941	8.3284925e-05
7	0xb95c9eeb	-0.00021040037
8	0x389f6ab0	7.601583e-05
9	0xb86b3a4d	-5.6082663e-05
10	0x390c254d	0.00013365336
11	0x38e0202f	0.00010687147
12	0xb9c16083	-0.00036883735
13	0xb988a579	-0.00026063228
14	0xb9852802	-0.00025397545
15	0xb915b6e5	-0.00014277881
16	0x38bfc47c	9.144188e-05
17	0x393694f9	0.00017412369
18	0xb880c6f5	-6.140574e-05
19	0x389a9ba9	7.372286e-05
20	0x38802e00	6.112084e-05
21	0xb7ea8a66	-2.795942e-05
22	0xb7842ac1	-1.5755535e-05
23	0x38d3b691	0.0001009527
24	0x390e2b2b	0.00013558257
25	0x38825f8e	6.2166815e-05
26	0x39835431	0.00025048995
27	0x3955a0c4	0.00020373153
28	0x38e691f0	0.000109944376
29	0xb8d9cd11	-0.00010385563
30	0x38cb3ec4	9.691485e-05
31	0xb99f68bd	-0.0003040488
32	0xb93e716f	-0.0001816207
33	0xb6870e5f	-4.0249865e-06
34	0x39799d00	0.00023804978
35	0x3887c692	6.474288e-05
36	0xb94da778	-0.0001961271
37	0xb79da369	-1.8791952e-05
38	0x39069df0	0.00012838072
39	0x392f3faf	0.00016713025
40	0xb768f059	-1.3884238e-05
41	0x3906ea7f	0.00012866592
42	0xb8388b16	-4.3998552e-05
43	0x37adedb0	2.0733889e-05
44	0xb8a1fc25	-7.724044e-05
45	0xb8eafafa	-0.000112047375
46	0xb7d55fa6	-2.5436118e-05
47	0x39c575a1	0.00037662408
48	0xb8970ad6	-7.2022594e-05
49	0x3896bc5a	7.1876406e-05
50	0x37e556e0	2.7339382e-05
51	0xb92c42b0	-0.00016428041
52	0x36b19c96	5.29324e-06
53	0x389eaa56	7.565755e-05
54	0x38476e82	4.7548216e-05
55	0x398aedf5	0.00026498703
56	0xb94e2135	-0.00019658062
57	0x3806264f	3.1983767e-05
58	0xb815218e	-3.555562e-05
59	0x37931694	1.753428e-05
60	0x3915a4ba	0.00014271113
61	0xb83081f4	-4.20827e-05
62	0x38a09a24	7.6581055e-05
63	0xb8d8f52a	-0.00010345348
64	0xb868fffb	-5.555151e-05
65	0xb9172753	-0.00014415132
66	0xb6d7257a	-6.411862e-06
67	0x38b94e15	8.836031e-05
68	0xb855ad14	-5.094435e-05
69	0xb993db6e	-0.00028201513
70	0x37f7f18e	2.9557177e-05
71	0xb7bfeed0	-2.288018e-05
72	0x37864427	1.600578e-05
73	0xb7623655	-1.34833e-05
74	0x39329d25	0.00017033944
75	0xb87c6e63	-6.0184288e-05
76	0xb8690c7f	-5.5563167e-05
77	0x39543098	0.00020235998
78	0x388ed768	6.81121e-05
79	0x38cdb360	9.808573e-05
80	0xb80c08b2	-3.33867e-05
81	0x3869be91	5.5729008e-05
82	0x373b42d6	1.116163e-05
83	0xb8a402e1	-7.8206656e-05
84	0xb8d4065f	-0.000101101345
85	0x3907084d	0.00012877696
86	0x38b16298	8.458382e-05
87	0x38aff841	8.390891e-05
88	0xb83bd1bb	-4.47796e-05
89	0xb8dec231	-0.00010621956
90	0x3916a410	0.00014366233
91	0xb8f10d34	-0.00011494235
92	0xb853d527	-5.0504834e-05
93	0xb842a4a2	-4.640653e-05
94	0xb937724e	-0.00017494822
95	0xb97efb8b	-0.00024317035
96	0xb4845458	-2.4648284e-07
97	0x39792e10	0.0002376365
98	0xb8034efa	-3.1306387e-05
99	0x3926040d	0.00015832503
100	0xb72722c0	-9.9620665e-06
101	0xb8e13cb6	-0.00010740144
102	0xb8a520ea	-7.873944e-05
103	0xb8e1f36a	-0.000107741755
104	0xb9011dcd	-0.000123135
105	0xb8ca7931	-9.654684e-05
106	0xb9923f1d	-0.00027894313
107	0xb94f208e	-0.00019753186
108	0xb8d7cbcc	-0.00010289959
109	0xb9795b5d	-0.00023780526
110	0x399b6496	0.00029638846
111	0x38acb180	8.234661e-05
112	0x3832f575	4.2667107e-05
113	0xb9344950	-0.00017193449
114	0x37e27a61	2.6998287e-05
115	0x37d4546c	2.5311681e-05
116	0xb8bebb38	-9.094778e-05
117	0x393eea1f	0.00018207029
118	0xb8d089b9	-9.943866e-05
119	0x391097d2	0.00013789468
120	0xb9835b14	-0.00025054126
121	0xb8cb2893	-9.687352e-05
122	0xb905649d	-0.0001272135
123	0x3912a6bf	0.00013985763
124	0xb9029764	-0.00012454164
125	0x38061d14	3.197517e-05
126	0x3847eede	4.766776e-05
127	0x37353c3c	1.0802465e-05
128	0x3752b949	1.25601155e-05
129	0x380921b5	3.2694737e-05
130	0x376141e3	1.34263855e-05
131	0x38f084e7	0.00011468847
132	0x38dde89f	0.0001058143
133	0x3937e6aa	0.00017538169
134	0x391282ed	0.00013972419
135	0x389705a0	7.201289e-05
136	0xb7c977f6	-2.4016928e-05
137	0xb912208c	-0.0001393577
138	0x389369a8	7.029186e-05
139	0xb902bcb8	-0.0001246807
140	0xb7f0a836	-2.8688559e-05
141	0xb8cd6277	-9.793502e-05
142	0xb9824c25	-0.00024852264
143	0x37c3d5c0	2.3345347e-05
144	0xb9077576	-0.00012918361
145	0x37cc9ddc	2.4392204e-05
146	0x381bc801	3.7141148e-05
147	0x38f0fd2f	0.00011491251
148	0xb8a1c86a	-7.714408e-05
149	0x38d56bf3	0.000101767386
150	0x38c5d392	9.4331e-05
151	0xb90a9a1e	-0.00013218119
152	0xb8a64580	-7.928442e-05
153	0x391766ee	0.00014438826
154	0xb88e5c92	-6.78833e-05
155	0x38b22188	8.493947e-05
156	0xb95da1df	-0.00021136504
157	0xb94120c4	-0.0001841812
158	0xb91dee50	-0.00015061465
159	0x387b6b37	5.9942915e-05
160	0xb8a29cac	-7.7539444e-05
161	0x37c6e244	2.3708802e-05
162	0xb88ff4a9	-6.864343e-05
163	0xb8985fc8	-7.2657655e-05
164	0x3904b162	0.00012654581
165	0xb95501b3	-0.00020313896
166	0xb909a92b	-0.00013128358
167	0xb904d0ac	-0.00012666237
168	0xb8a53db9	-7.87931e-05
169	0xb80f1dd8	-3.412165e-05
170	0x38e5c6e4	0.00010956617
171	0x392fdd5c	0.00016771763
172	0x39068df4	0.00012832117
173	0x3830ec2b	4.218162e-05
174	0x37d62fa6	2.5532976e-05
175	0x37a4ea01	1.965929e-05
176	0xb88c9844	-6.704082e-05
177	0x390a25b6	0.00013174754
178	0xb88a2073	-6.586397e-05
179	0x38b35032	8.550323e-05
180	0x37d3396c	2.51799e-05
181	0x38e6d8b1	0.000110076166
182	0x38dcda97	0.00010531133
183	0xb885cf97	-6.380601e-05
184	0xb98baf8e	-0.00026642944
185	0x38105123	3.440784e-05
186	0x390a2e08	0.00013177854
187	0xb92012ae	-0.00015265748
188	0x3844d12b	4.6924844e-05
189	0x37857d02	1.5913047e-05
190	0xb88458e9	-6.310811e-05
191	0xb9017049	-0.00012344228
192	0xb583e038	-9.825517e-07
193	0xb8918768	-6.93936e-05
194	0x39008ff4	0.00012260658
195	0xb90d290c	-0.00013462099
196	0xb7d37bc3	-2.5210791e-05
197	0x3991cd91	0.00027809714
198	0x3960e24f	0.00021446611
199	0xb95e4483	-0.00021197092
200	0xb89fdca3	-7.6228076e-05
201	0xb730d5b3	-1.0540173e-05
202	0xb8c203a4	-9.251319e-05
203	0xb870dfaf	-5.742878e-05
204	0xb5bd183d	-1.4088652e-06
205	0x39584177	0.00020623753
206	0x38b79937	8.7546585e-05
207	0x38ae6ce4	8.317249e-05
208	0xb90e0ba7	-0.00013546516
209	0xb86720e5	-5.5105327e-05
210	0x383bba32	4.4757682e-05
211	0x38a41e69	7.825794e-05
212	0x39046ec1	0.0001262976
213	0x389b70fd	7.412022e-05
214	0x37a75284	1.9946376e-05
215	0xb89ebd2c	-7.569263e-05
216	0xb9198ca0	-0.00014643604
217	0x395a0d02	0.00020794946
218	0x36875efd	4.0343716e-06
219	0xb90f2218	-0.00013650244
220	0xb63ff00d	-2.8600946e-06
221	0x36b8e3b5	5.510136e-06
222	0x3625b593	2.4692606e-06
223	0xb98a7941	-0.00026411752
224	0xb934f545	-0.00017257508
225	0xb9167293	-0.00014347797
226	0xb979c4c2	-0.00023819788
227	0xb91afbdd	-0.00014780411
228	0x397fe117	0.00024402548
229	0xb8556f66	-5.0886905e-05
230	0x39058e0c	0.00012736785
231	0x391a2821	0.00014701534
232	0x3777a010	1.4759615e-05
233	0xb940c3cc	-0.00018383487
234	0xb84bc1c4	-4.857943e-05
235	0xb908c03b	-0.00013041582
236	0xb7072dda	-8.057303e-06
237	0xb86c04cb	-5.627125e-05
238	0xb96ec78d	-0.00022771787
239	0xb88a8a7d	-6.606148e-05
240	0xb7295472	-1.0092846e-05
241	0xb90c61ae	-0.00013387829
242	0xb9124a5e	-0.00013951349
243	0xb8e4a76f	-0.00010903074
244	0xb91e9ba8	-0.0001512604
245	0xb8163b38	-3.581794e-05
246	0xb83d10c3	-4.5076722e-05
247	0xb90d8ca4	-0.000134992
248	0x393f10d9	0.00018221456
249	0x39578a71	0.00020555571
250	0xb59825ff	-1.1335941e-06
251	0xb963ee45	-0.0002173717
252	0x39147240	0.00014156941
253	0x3978356a	0.00023671021
254	0xb9b634dc	-0.00034753128
255	0x38a99141	8.0856036e-05

layer_2.weight f4 [300, 400]
0	0x3b39d0aa	0.0028353133
1	0xbc6af222	-0.0143399555
2	0x3c9328fb	0.017963877
3	0xbc10d67e	-0.008840201
4	0x3b900460	0.004395053
5	0x3a2f0847	0.00066769536
6	0x3cb52453	0.022112047
7	0xba28aded	-0.00064346084
8	0xbc262518	-0.01014068
9	0xbb8fb449	-0.0043855053
10	0x39ed1b43	0.00045224474
11	0xbc4c3cc0	-0.012465656
12	0x3ca9b202	0.020714764
13	0xbc336995	-0.010950466
14	0x3af83249	0.0018935885
15	0xbcad906e	-0.021187034
16	0x397cb054	0.0002409828
17	0xba8ad670	-0.0010592472
18	0xbbbfc24a	-0.0058520185
19	0x3c66136f	0.014042719
20	0xbcf39e69	-0.029738622
21	0x3a8b5cb3	0.0010632485
22	0x3994ee7b	0.00028406442
23	0xbc1b60d6	-0.009483537
24	0x3ccc0441	0.024904372
25	0x3c715201	0.014729024
26	0x3bb48272	0.0055087144
27	0x39dfc5b1	0.00042681166
28	0x3c296234	0.010338355
29	0xbc437838	-0.011930518
30	0xbcbf8227	-0.023377491
31	0x3d05b5e5	0.03264417
32	0xbb98c962	-0.0046626786
33	0x3b378585	0.0028003168
34	0xba08d399	-0.0005219519
35	0x3ce04abf	0.027379392
36	0x3cfd8ad9	0.030949997
37	0xbc89f7ea	-0.016841847
38	0xbaac7de9	-0.0013160083
39	0xbce4ea60	-0.02794379
40	0x3c994dd2	0.018713865
41	0x3d067667	0.03282776
42	0xbbf29bd0	-0.007403828
43	0x3a9972a2	0.0011707137
44	0xbaf1b597	-0.0018440959
45	0xba84daea	-0.0010136042
46	0x3ccebdca	0.025236983
47	0xbce98d64	-0.028509803
48	0xbaf7b3df	-0.001889821
49	0x39c0fd5e	0.00036809867
50	0xbcd6e28b	-0.026231071
51	0x3c07214f	0.0082476875
52	0x3ca1e496	0.019762319
53	0xbce253b1	-0.027627798
54	0x3c0dfe4b	0.008666585
55	0x385f756d	5.3276704e-05
56	0x3ce1b9d9	0.02755444
57	0xbcf5b09e	-0.029991444
58	0x3cdd0909	0.026981847
59	0xbb9605d1	-0.00457833
60	0x3cdbb35f	0.02681893
61	0xbc2353ee	-0.009968741
62	0x3b0a5cea	0.002111251
63	0x3b0ea7bf	0.0021767465
64	0x3c89dcad	0.01682886
65	0x3c06581e	0.00819972
66	0x3c4d72dd	0.012539593
67	0xbb780082	-0.00378421
68	0xbcb62534	-0.022234537
69	0x38b183a4	8.464538e-05
70	0x3cf23b63	0.029569333
71	0x3cf0926c	0.029366694
72	0xbc8035ba	-0.015650619
73	0x3ca7b328	0.02047117
74	0x3c2c4e4b	0.010516713
75	0xb9ee371f	-0.00045435966
76	0x3c5a873e	0.013337908
77	0x39aa8393	0.00032522957
78	0x3a9d9b2e	0.0012024397
79	0xbc84f314	-0.01622919
80	0xbb28d16c	-0.002575959
81	0x3cfcf3de	0.030878004
82	0x3c891b6b	0.016736707
83	0xbcb1b575	-0.02169297
84	0xb8411c22	-4.6040986e-05
85	0x3c718b42	0.014742674
86	0xbb97f536	-0.0046373857
87	0x3986c73e	0.0002570692
88	0x3c244da2	0.010028275
89	0x3ce2c6f7	0.027682764
90	0x3cdc8d97	0.026922984
91	0xbcce665d	-0.025195295
92	0xbce82cff	-0.028341768
93	0x3cb28e43	0.021796351
94	0x399edf29	0.00030302376
95	0x3cf6e644	0.030139096
96	0x3caf734d	0.021417284
97	0xbc3a793b	-0.011381443
98	0x3bad2546	0.0052839844
99	0x3bc0e08c	0.005886143
100	0xbc1347d1	-0.00898929
101	0x3ceb927b	0.02875637
102	0xba0307f5	-0.0004998439
103	0xbb5a86f5	-0.00333446
104	0xbce2fb9f	-0.027707873
105	0x3cbc3172	0.022972796
106	0xbd0097b9	-0.031394694
107	0x3cc02aec	0.023457967
108	0xbb433081	-0.002978355
109	0x373240e5	1.0624736e-05
110	0xb8830108	-6.246759e-05
111	0x3d01f437	0.031727042
112	0xbcb74ece	-0.022376444
113	0xbc8e6c9c	-0.017385773
114	0x3c8da49a	0.017290402
115	0xbc0d9068	-0.008640386
116	0xbc3afa6f	-0.011412247
117	0x3c6b4e46	0.014361924
118	0xbba68395	-0.005081604
119	0x3c7590ed	0.014988166
120	0xbc3b850a	-0.011445293
121	0x3cc2eee9	0.023795562
122	0x3d0d6f71	0.034530107
123	0x3ac32a8d	0.001489
124	0xbb632fda	-0.0034665973
125	0x3c4b8e64	0.012424085
126	0x3b60a59d	0.00342784
127	0xba8b2227	-0.0010615037
128	0x3cd0ce4e	0.025488999
129	0xbb064baa	-0.0020491877
130	0x3bf533d3	0.0074829846
131	0xbba29eff	-0.0049628015
132	0x37680339	1.3829028e-05
133	0x39b1b585	0.00033895313
134	0x3a3bb9b1	0.0007161154
135	0x3c02c30d	0.007981074
136	0x3cc0fe55	0.023558775
137	0x3c5a7878	0.013334386
138	0xbbd5840b	-0.006515985
139	0x3cf72fdf	0.030174194
140	0x3c97a584	0.018511541
141	0x3bdad276	0.006677921
142	0xb93fd900	-0.00018296018
143	0xbc4978af	-0.01229684
144	0xbc5bc23e	-0.01341301
145	0x39df5d44	0.00042603363
146	0xbca4d365	-0.020120332
147	0x3bdf0a1a	0.006806624
148	0xbce185a7	-0.02752955
149	0xbcebb8e0	-0.028774679
150	0xbbecbd00	-0.007224679
151	0x3c56bd0f	0.0131065985
152	0x3cce060f	0.025149373
153	0xbcbf86aa	-0.023379643
154	0xbcafb9f3	-0.021450972
155	0x3b562b6d	0.0032679692
156	0xbb7a74af	-0.0038216521
157	0xbcbf7d23	-0.0233751
158	0x3ba409c9	0.0050060493
159	0xbcc55f34	-0.024093248
160	0x3a2e2c3a	0.00066441635
161	0x3c01c34f	0.0079201
162	0x3d0029fd	0.031290043
163	0xbce76c83	-0.028249985
164	0x3c973e0e	0.018462207
165	0xb932f335	-0.00017066005
166	0x3cedfca0	0.029051125
167	0x3d09ea80	0.033670902
168	0xbaad115c	-0.0013204026
169	0x3923bf0e	0.00015616065
170	0xba166c51	-0.00057381863
171	0x3ccc065c	0.024905376
172	0xbbb1a924	-0.0054217745
173	0x3ca0f212	0.019646678
174	0x3c0a7646	0.00845105
175	0x3cf8acbd	0.030355806
176	0x3cb31e5e	0.021865066
177	0x3cd348b9	0.025791513
178	0xbcb882df	-0.022523342
179	0xbc47063f	-0.012147485
180	0xbcd639c9	-0.026150601
181	0x3bd8a994	0.006612012
182	0x3a207072	0.0006120271
183	0x3bec2236	0.0072062267
184	0x3c08a8c0	0.008341014
185	0x3a0f6ae1	0.0005470943
186	0x3c15f1ce	0.009151889
187	0xbc2d1c76	-0.010565868
188	0x3c831ccc	0.016004942
189	0xbcdcd1b9	-0.026955472
190	0xbcdfef17	-0.027335687
191	0x3be861c1	0.0070917313
192	0x3d039831	0.032127563
193	0xbc17c41e	-0.009263067
194	0x3ce3716a	0.027764041
195	0xbb8bc068	-0.00426488
196	0xbcbe355c	-0.023218803
197	0x390cf98f	0.00013444408
198	0x3c265c32	0.010153817
199	0xbc2c8a58	-0.010531031
200	0x3d035f29	0.032073174
201	0xbbf513d1	-0.007479169
202	0xbbc6cf15	-0.0060671666
203	0xbbce6fa4	-0.0062999297
204	0xbca7621c	-0.020432524
205	0x3cf9b4a0	0.030481637
206	0xbc451b71	-0.012030468
207	0xbbfd19d2	-0.0077240253
208	0xbb19bb4c	-0.0023457585
209	0x3ce369d4	0.027760424
210	0x3befa220	0.007313028
211	0x3b4b79d3	0.0031047955
212	0xbb8131ac	-0.003942689
213	0x3c095913	0.008383053
214	0x3b140a8b	0.0022589292
215	0x3cd27439	0.025690185
216	0x3a89e6ad	0.0010521017
217	0x3cb0ef58	0.021598503
218	0x3c9e84fa	0.019350518
219	0x3b110508	0.0022128243
220	0xbcf48b80	-0.029851675
221	0x3a8ce196	0.0010748382
222	0xbcadc8c0	-0.02121389
223	0x38884e9f	6.49963e-05
224	0x399057ed	0.0002753133
225	0x3cd29722	0.025706831
226	0xbc9830d9	-0.01857798
227	0xbcc6b730	-0.024257272
228	0x3c0f2d4a	0.008738825
229	0x3ca22859	0.01979463
230	0xbbb11aaf	-0.0054047923
231	0x3b98e3e9	0.004665841
232	0x3cd3baaa	0.025845844
233	0xb9188672	-0.00014545934
234	0xbafd2ff4	-0.0019316659
235	0x3c6e24ac	0.01453511
236	0x3cf94823	0.030429905
237	0xbb544331	-0.0032388682
238	0x3c9e0775	0.019290665
239	0x3a610a0b	0.00085845654
240	0xb8de1a6b	-0.00010590706
241	0x39994cc2	0.00029239623
242	0xbcf842b4	-0.030305244
243	0x3c376380	0.011193156
244	0xbc3cb4b5	-0.011517693
245	0xbccd5809	-0.025066392
246	0x397c0f5c	0.00024038315
247	0xbb8db362	-0.0043243626
248	0xbc78ee38	-0.0151935145
249	0xb91c928d	-0.00014931914
250	0xba9b93ad	-0.0011869572
251	0x3b4f8af7	0.0031668523
252	0x3ac64350	0.0015126262
253	0xbb54404f	-0.0032386964
254	0x3b42a24d	0.002969879
255	0xbc891475	-0.016733387

layer_2.bias f4 [300]
0	0xbc627d77	-0.013823858
1	0x3c121cc0	0.008917987
2	0x3899f69b	7.3415424e-05
3	0x3cc72f1f	0.024314461
4	0xbc8f60e9	-0.017502265
5	0x340e5291	1.3254818e-07
6	0xbcae984a	-0.021312851
7	0xbcdfaddf	-0.027304588
8	0x3c2110df	0.009830683
9	0xbcdd0dee	-0.026984181
10	0x3cc6e3e6	0.024278592
11	0x3a87c6a7	0.0010358886
12	0x3c2da540	0.010598481
13	0xbbaf505e	-0.0053501567
14	0x80000001	-1e-45
15	0xb93dab88	-0.00018088345
16	0x3c08d4e1	0.008351536
17	0xb95da002	-0.0002113581
18	0xbc5a1b8b	-0.013312231
19	0x35896c44	1.0238805e-06
20	0x399bdf3e	0.00029730232
21	0x3be4150f	0.006960518
22	0xbca79a12	-0.020459209
23	0x3c8d9183	0.0172813
24	0x3bcd66d5	0.006268362
25	0x3a3284f6	0.0006809974
26	0x3b768846	0.0037617846
27	0xbca0f7bc	-0.019649379
28	0xbbf60335	-0.0075077065
29	0xbc048666	-0.008088684
30	0x3c17581f	0.009237318
31	0xbce177ec	-0.027523004
32	0x3c16ce2a	0.009204427
33	0x3cff2e7d	0.031150097
34	0xbbe2242b	-0.006901284
35	0x3af97e09	0.0019034754
36	0xa102e2b1	-4.4345737e-19
37	0xb9b5e8e9	-0.00034696542
38	0xbbf8b9f9	-0.007590529
39	0xbc5f237a	-0.013619298
40	0x3ce47e72	0.027892325
41	0xbcb6fc03	-0.022336965
42	0xbcafcd7e	-0.021460291
43	0x3c1027b6	0.00879853
44	0xba0e9243	-0.0005438665
45	0xbaa81fcf	-0.0012826863
46	0x3c4300a3	0.011902007
47	0xbceef6e7	-0.029170467
48	0xbbff4c41	-0.0077910726
49	0x399eda5a	0.00030298793
50	0x3b280638	0.0025638472
51	0x3d0ccc24	0.03437437
52	0x391ae31e	0.00014771192
53	0xbcae3184	-0.021263845
54	0xbb441b00	-0.002992332
55	0xbcbee49f	-0.023302374
56	0xbcb0b07d	-0.021568531
57	0xbc994bf2	-0.018712971
58	0xb4433cd4	-1.818292e-07
59	0x3c0eca3e	0.0087152105
60	0xbc9450d1	-0.018104943
61	0xbca9de43	-0.020735865
62	0x3bd5feda	0.006530625
63	0x3cb48e4c	0.022040509
64	0x3cbcdc85	0.02305437
65	0xbc4ddd4b	-0.012564967
66	0xb90d4118	-0.00013471057
67	0x3a880644	0.0010377844
68	0xbc9e7881	-0.01934457
69	0x3cf4cecf	0.02988377
70	0xb999e5ef	-0.00029353748
71	0xbc7edd7b	-0.015555735
72	0xbcc6d167	-0.024269773
73	0x3c578dde	0.013156382
74	0x3cd50873	0.026005005
75	0x39f39798	0.00046461518
76	0x261176b8	5.0467875e-16
77	0xb99f99bf	-0.00030441393
78	0x3c493160	0.012279838
79	0xbc74d2f3	-0.014942872
80	0x3bd4798a	0.006484215
81	0x3c4116ed	0.011785251
82	0xbc56ce13	-0.013110655
83	0xbb9400c3	-0.0045166924
84	0xbb09dc52	-0.0021035862
85	0xbc83cdd5	-0.01608936
86	0x3cd44809	0.025913255
87	0xbc859bad	-0.016309584
88	0xb9910a46	-0.0002766421
89	0x3cfa6a47	0.030568255
90	0xb9553d6e	-0.00020336147
91	0x3cfb77cf	0.030696778
92	0x3953817b	0.00020170763
93	0x3cbabbe4	0.022794671
94	0x398cbf26	0.00026845298
95	0x3c519017	0.012790701
96	0x3c2cc42c	0.010544818
97	0xbbb21f4a	-0.005435859
98	0xbcd9a7d2	-0.02656928
99	0xbccc1702	-0.024913315
100	0x3cceda49	0.02525057
101	0xbb90833c	-0.0044101756
102	0xbb9a7796	-0.004713963
103	0xbbc6f2e2	-0.0060714344
104	0x3bba2892	0.005681106
105	0x3cbf7e56	0.023375671
106	0x3c899496	0.016794484
107	0x3cafeeb2	0.021476123
108	0x3d023c3e	0.031795733
109	0xbb9a5728	-0.004710097
110	0x80000000	-0.0
111	0x3c4e5526	0.012593543
112	0xbb39453c	-0.0028270027
113	0xbba83b99	-0.0051340577
114	0xba9ee803	-0.0012123588
115	0x3c01c62f	0.007920786
116	0xbbe1d880	-0.006892264
117	0x3492353a	2.7233347e-07
118	0xba8fdbb8	-0.0010975515
119	0xbbd8d769	-0.0066174758
120	0xbb9d2c2a	-0.0047965245
121	0x3c86c932	0.01645336
122	0xbc993ea9	-0.018706637
123	0x3ce272cd	0.027642632
124	0xba7fcf3a	-0.0009758357
125	0x3ce875c3	0.028376466
126	0x3b995d84	0.0046803374
127	0xbc83ac7f	-0.016073463
128	0xb970e8d9	-0.00022974926
129	0x3b9728ef	0.004613034
130	0x3beab07e	0.007162153
131	0x3a47ab4b	0.0007616772
132	0x3bb04563	0.0053793653
133	0x3c4d8982	0.012544991
134	0xb953ba33	-0.00020191893
135	0x385a01f5	5.1977073e-05
136	0xb58e5f6f	-1.0607599e-06
137	0x3cc59f28	0.024123743
138	0xbc926af1	-0.01787326
139	0x3cb1742a	0.021661837
140	0x3c035c58	0.008017622
141	0x3a069b02	0.00051347923
142	0x3bea6eef	0.0071543376
143	0xba3a4d42	-0.0007106849
144	0xbce0432b	-0.027375778
145	0x3cb97bd2	0.02264205
146	0x30f6fc26	1.7970521e-09
147	0x3ca725b9	0.02040373
148	0x3cf1bbc7	0.029508485
149	0xbcb104a6	-0.021608662
150	0x3bbed105	0.005823257
151	0x3ca89999	0.020581054
152	0xbc64b197	-0.013958356
153	0x3ac920d2	0.0015344864
154	0xbcb0b562	-0.021570865
155	0x3c472f13	0.012157219
156	0xbcecf5ac	-0.02892574
157	0x3c06fd17	0.008239052
158	0x3a4e9427	0.0007880353
159	0xbd13a576	-0.036046468
160	0x3cb0ccf0	0.021582097
161	0xb78c33de	-1.6713453e-05
162	0x3c9e16b0	0.019297928
163	0xbc9f5daf	-0.019453852
164	0x3c1e3530	0.009656236
165	0x3cfbce0c	0.0307379
166	0xbce129ec	-0.02748581
167	0x3cc9b901	0.02462435
168	0x3bb94461	0.0056539034
169	0xbce36947	-0.027760161
170	0xbcdf3beb	-0.02725025
171	0xbcebaa1e	-0.028767642
172	0x3c1f4c1e	0.009722738
173	0x3b9a35f2	0.004706138
174	0xbc0a9bb7	-0.008459977
175	0x3c6a31b1	0.014294074
176	0xbcb31bc1	-0.02186382
177	0x3ca33022	0.019920412
178	0x3a875dde	0.0010327657
179	0x3a0312f9	0.00050000806
180	0xbc6ae43f	-0.014336645
181	0xbd0a7654	-0.033804253
182	0x3d06473d	0.032782782
183	0x3cf2f267	0.029656602
184	0xbaa574aa	-0.001262327
185	0x3c23573d	0.00996953
186	0xbce7eb04	-0.028310306
187	0x3c6b22a3	0.01435152
188	0xbd00292c	-0.031289265
189	0xbcd4036d	-0.02588054
190	0x3b71edab	0.0036915343
191	0x3ba47137	0.005018379
192	0xbc5c6b47	-0.013453311
193	0x3ceaaca8	0.028646782
194	0xbaf674de	-0.001880314
195	0x00000001	1e-45
196	0x3c02fc25	0.007994686
197	0x3b79ace8	0.0038097445
198	0xbc0ecf40	-0.008716404
199	0xb6d0026a	-6.199164e-06
200	0x3c9f5014	0.019447364
201	0x36b17707	5.2888677e-06
202	0x3cdb226a	0.026749808
203	0x3c18f742	0.009336295
204	0x3a5acad1	0.0008346262
205	0x3c636a05	0.0138802575
206	0x3c5ce373	0.0134819625
207	0xbc248716	-0.010041973
208	0x3cdda6a9	0.027057009
209	0xb8b254d5	-8.5035026e-05
210	0xba0a3aee	-0.00052730634
211	0xbc6147b0	-0.013750002
212	0xbb807bbe	-0.003921001
213	0xbc737744	-0.014859978
214	0xbbdfdfe2	-0.006832109
215	0xb452b7ca	-1.9624636e-07
216	0x372928b2	1.008266e-05
217	0x3c0c26d4	0.008554179
218	0x395cecc3	0.00021069036
219	0xbc03fdf7	-0.008056155
220	0x3b71e6fa	0.0036911354
221	0xbc982dc1	-0.018576505
222	0xbaab737d	-0.0013080683
223	0x3beb6321	0.007183448
224	0x3b15516c	0.0022784127
225	0x3be24a41	0.0069058244
226	0x3b400487	0.0029299574
227	0xbb9590d9	-0.0045643863
228	0x3cc689f2	0.0242357
229	0xbcb18880	-0.021671534
230	0x3ca9e177	0.020737393
231	0x3b8988e8	0.0041972287
232	0xbb43858f	-0.0029834246
233	0x80000001	-1e-45
234	0x00000000	0.0
235	0xbc2f59b0	-0.0107025355
236	0x3c66be7d	0.014083502
237	0x3c004ed1	0.007831291
238	0xbca575e0	-0.020197809
239	0x800000a5	-2.31e-43
240	0x3cc85241	0.024453284
241	0x3c22c705	0.009935145
242	0x3cb152ac	0.021645866
243	0x3c6b090b	0.014345418
244	0x3ce00330	0.02734527
245	0x360c8c62	2.094334e-06
246	0xbb7205b2	-0.0036929664
247	0x3ca906ed	0.020633185
248	0xbaa1d3be	-0.0012346429
249	0xbc17cb88	-0.009264834
250	0xbc852f5b	-0.016257932
251	0x3c8cf4a9	0.017206507
252	0xbc50ad47	-0.012736625
253	0xbcc29f6f	-0.023757664
254	0xbc541989	-0.012945541
255	0xbc86d89e	-0.016460713

ln2.weight f4 [300]
0	0x3f7a624c	0.9780624
1	0x3f7a6918	0.9781661
2	0x3f7a6183	0.9780504
3	0x3f7a651d	0.97810537
4	0x3f7a61e7	0.9780564
5	0x3f7a6112	0.9780437
6	0x3f7a60a5	0.9780372
7	0x3f7a62f8	0.97807264
8	0x3f7a66a1	0.9781285
9	0x3f7a63b1	0.97808367
10	0x3f7a6996	0.9781736
11	0x3f7a616f	0.9780492
12	0x3f7a61df	0.9780559
13	0x3f7a759a	0.97835696
14	0x3f7a61c7	0.97805446
15	0x3f7a61f3	0.9780571
16	0x3f7a6ae0	0.9781933
17	0x3f7a618c	0.97805095
18	0x3f7a63d5	0.9780858
19	0x3f7a61de	0.97805583
20	0x3f7a6363	0.978079
21	0x3f7a68bf	0.9781608
22	0x3f7a625e	0.97806346
23	0x3f7a62b7	0.97806877
24	0x3f7a6275	0.97806484
25	0x3f7a6636	0.9781221
26	0x3f7a60c6	0.97803915
27	0x3f7a659f	0.9781131
28	0x3f7a62ba	0.97806895
29	0x3f7a6186	0.9780506
30	0x3f7a6284	0.9780657
31	0x3f7a611f	0.97804445
32	0x3f7a64df	0.9781017
33	0x3f7a6157	0.9780478
34	0x3f7a60b4	0.9780381
35	0x3f7a6114	0.9780438
36	0x3f7a60a5	0.9780372
37	0x3f7a60a5	0.9780372
38	0x3f7a6075	0.9780343
39	0x3f7a6299	0.978067
40	0x3f7a63e3	0.97808665
41	0x3f7a7236	0.9783052
42	0x3f7a6225	0.97806007
43	0x3f7a6170	0.9780493
44	0x3f7a614b	0.9780471
45	0x3f7a630d	0.9780739
46	0x3f7a60a5	0.9780372
47	0x3f7a6764	0.9781401
48	0x3f7a626c	0.9780643
49	0x3f7a6412	0.97808945
50	0x3f7a67a0	0.9781437
51	0x3f7a6507	0.97810405
52	0x3f7a60a5	0.9780372
53	0x3f7a610a	0.9780432
54	0x3f7a62ec	0.9780719
55	0x3f7a66d6	0.97813165
56	0x3f7a61fe	0.97805774
57	0x3f7a70cb	0.9782836
58	0x3f7a616d	0.9780491
59	0x3f7a60e9	0.97804123
60	0x3f7a6c8d	0.97821885
61	0x3f7a610b	0.97804326
62	0x3f7a66b2	0.9781295
63	0x3f7a611c	0.9780443
64	0x3f7a61c9	0.9780546
65	0x3f7a6368	0.9780793
66	0x3f7a632b	0.9780757
67	0x3f7a62e5	0.9780715
68	0x3f7a635a	0.9780785
69	0x3f7a707f	0.97827905
70	0x3f7a6614	0.9781201
71	0x3f7a60bb	0.9780385
72	0x3f7a65c2	0.9781152
73	0x3f7a61e7	0.9780564
74	0x3f7a61da	0.9780556
75	0x3f7a6282	0.9780656
76	0x3f7a6020	0.97802925
77	0x3f7a6247	0.9780621
78	0x3f7a60a2	0.978037
79	0x3f7a6462	0.9780942
80	0x3f7a64ca	0.9781004
81	0x3f7a6247	0.9780621
82	0x3f7a6250	0.9780626
83	0x3f7a604e	0.978032
84	0x3f7a6018	0.9780288
85	0x3f7a6c61	0.97821623
86	0x3f7a6518	0.97810507
87	0x3f7a638b	0.9780814
88	0x3f7a64b0	0.97809887
89	0x3f7a6933	0.9781677
90	0x3f7a6357	0.9780783
91	0x3f7a6336	0.97807634
92	0x3f7a61f5	0.9780572
93	0x3f7a6260	0.9780636
94	0x3f7a64eb	0.9781024
95	0x3f7a6027	0.97802967
96	0x3f7a62fc	0.9780729
97	0x3f7a6264	0.9780638
98	0x3f7a60fb	0.9780423
99	0x3f7a61c2	0.97805417
100	0x3f7a6288	0.97806597
101	0x3f7a6716	0.97813547
102	0x3f7a60f1	0.9780417
103	0x3f7a6179	0.9780498
104	0x3f7a6088	0.97803545
105	0x3f7a61c3	0.9780542
106	0x3f7a68ac	0.97815967
107	0x3f7a65cd	0.97811586
108	0x3f7a67dd	0.9781473
109	0x3f7a60e9	0.97804123
110	0x3f7a60d3	0.9780399
111	0x3f7a6194	0.9780514
112	0x3f7a6073	0.9780342
113	0x3f7a62e7	0.97807163
114	0x3f7a65ab	0.97811383
115	0x3f7a6090	0.9780359
116	0x3f7a6368	0.9780793
117	0x3f7a6131	0.9780455
118	0x3f7a6153	0.97804755
119	0x3f7a60a5	0.9780372
120	0x3f7a6ab3	0.9781906
121	0x3f7a6638	0.97812223
122	0x3f7a62c6	0.97806966
123	0x3f7a6138	0.97804594
124	0x3f7a6ccd	0.97822267
125	0x3f7a617a	0.9780499
126	0x3f7a6af2	0.97819436
127	0x3f7a6162	0.97804844
128	0x3f7a60a5	0.9780372
129	0x3f7a6d2a	0.9782282
130	0x3f7a6538	0.978107
131	0x3f7a621c	0.97805953
132	0x3f7a626a	0.9780642
133	0x3f7a65bf	0.978115
134	0x3f7a6948	0.97816896
135	0x3f7a61e2	0.9780561
136	0x3f7a625d	0.9780634
137	0x3f7a621a	0.9780594
138	0x3f7a685c	0.9781549
139	0x3f7a63d1	0.9780856
140	0x3f7a6252	0.97806275
141	0x3f7a63db	0.9780862
142	0x3f7a63b7	0.978084
143	0x3f7a685e	0.978155
144	0x3f7a664f	0.9781236
145	0x3f7a6655	0.97812396
146	0x3f7a60b3	0.978038
147	0x3f7a624d	0.97806245
148	0x3f7a625a	0.9780632
149	0x3f7a60ff	0.97804254
150	0x3f7a62b7	0.97806877
151	0x3f7a6372	0.9780799
152	0x3f7a620f	0.97805876
153	0x3f7a60a5	0.9780372
154	0x3f7a6235	0.978061
155	0x3f7a636d	0.9780796
156	0x3f7a6356	0.97807825
157	0x3f7a6294	0.9780667
158	0x3f7a661d	0.9781206
159	0x3f7a6297	0.97806686
160	0x3f7a629c	0.97806716
161	0x3f7a651c	0.9781053
162	0x3f7a6348	0.9780774
163	0x3f7a6309	0.97807366
164	0x3f7a6419	0.97808987
165	0x3f7a6a0f	0.9781808
166	0x3f7a64f2	0.9781028
167	0x3f7a61cb	0.9780547
168	0x3f7a6496	0.9780973
169	0x3f7a6201	0.9780579
170	0x3f7a64a8	0.9780984
171	0x3f7a613d	0.97804624
172	0x3f7a6582	0.9781114
173	0x3f7a60dd	0.9780405
174	0x3f7a687e	0.9781569
175	0x3f7a62f1	0.9780722
176	0x3f7a6171	0.97804934
177	0x3f7a6063	0.97803324
178	0x3f7a666e	0.97812545
179	0x3f7a60d0	0.97803974
180	0x3f7a630d	0.9780739
181	0x3f7a621a	0.9780594
182	0x3f7a6391	0.97808176
183	0x3f7a611b	0.9780442
184	0x3f7a61e6	0.9780563
185	0x3f7a68cf	0.97816175
186	0x3f7a67dd	0.9781473
187	0x3f7a6696	0.97812784
188	0x3f7a627e	0.9780654
189	0x3f7a6c1e	0.97821224
190	0x3f7a6fbd	0.9782675
191	0x3f7a6184	0.9780505
192	0x3f7a648c	0.9780967
193	0x3f7a6103	0.9780428
194	0x3f7a61b9	0.9780536
195	0x3f7a641a	0.9780899
196	0x3f7a6370	0.9780798
197	0x3f7a60e6	0.97804105
198	0x3f7a60a5	0.9780372
199	0x3f7a61a8	0.9780526
200	0x3f7a62b6	0.9780687
201	0x3f7a641f	0.9780902
202	0x3f7a633c	0.9780767
203	0x3f7a6306	0.9780735
204	0x3f7a6087	0.9780354
205	0x3f7a642e	0.9780911
206	0x3f7a6278	0.978065
207	0x3f7a61aa	0.97805274
208	0x3f7a612b	0.97804517
209	0x3f7a6b38	0.9781985
210	0x3f7a62c2	0.9780694
211	0x3f7a6352	0.978078
212	0x3f7a62f6	0.9780725
213	0x3f7a607b	0.9780347
214	0x3f7a65dc	0.97811675
215	0x3f7a6050	0.9780321
216	0x3f7a65d8	0.9781165
217	0x3f7a60bd	0.9780386
218	0x3f7a606f	0.97803396
219	0x3f7a6010	0.9780283
220	0x3f7a6328	0.9780755
221	0x3f7a62d7	0.9780707
222	0x3f7a6141	0.9780465
223	0x3f7a62d9	0.9780708
224	0x3f7a6106	0.97804296
225	0x3f7a7393	0.978326
226	0x3f7a6201	0.9780579
227	0x3f7a62bc	0.97806907
228	0x3f7a606c	0.9780338
229	0x3f7a60e8	0.9780412
230	0x3f7a62e9	0.97807175
231	0x3f7a6245	0.978062
232	0x3f7a615a	0.97804797
233	0x3f7a62a6	0.97806776
234	0x3f7a65ed	0.97811776
235	0x3f7a6281	0.97806555
236	0x3f7a60d8	0.9780402
237	0x3f7a644a	0.9780928
238	0x3f7a691d	0.9781664
239	0x3f7a6006	0.9780277
240	0x3f7a6685	0.9781268
241	0x3f7a654b	0.9781081
242	0x3f7a621d	0.9780596
243	0x3f7a6158	0.97804785
244	0x3f7a61a6	0.9780525
245	0x3f7a634f	0.9780778
246	0x3f7a62dd	0.97807103
247	0x3f7a611a	0.97804415
248	0x3f7a6007	0.97802776
249	0x3f7a61fc	0.9780576
250	0x3f7a648f	0.9780969
251	0x3f7a68e3	0.97816294
252	0x3f7a6289	0.978066
253	0x3f7a62ff	0.97807306
254	0x3f7a6be6	0.9782089
255	0x3f7a61d0	0.978055
