RL/Model_Repository/temp/TD3_Guest_pool_actor.pth (torch, 516991 bytes, 9 tensors)

layer_1.weight f4 [400, 15]
00000000: 6525 903d aaa0 b03d ed0a 13b0 9f47 dd3d
00000010: cf5c 37af 86ce 18af b356 2bbc 7f19 f33c
00000020: 5b85 ca3d 5006 81bd b74b c43d 5a38 70af
00000030: 138c 833d d51f 2f35 297f 203c 8af3 ecab
00000040: 3345 933d f73c c4ac 4b08 f4bb 7766 5fad
00000050: 1eb3 d8bb 8d83 e42c 23da b3ba 55c5 3e3d
00000060: cb66 9cbd 55e5 d9bb 1936 ebaf f4df 05bd
00000070: 0c7a f232 243d 00be 426c d53d 6c60 babd
00000080: 44d5 933d 1bc6 0032 7f76 0eb6 0dd6 143d
00000090: e685 fb31 b0a1 a53d fd5f 7bb0 a420 09b5
000000a0: 2bb2 1d32 6403 2c31 b151 1a3b 512d d03d
000000b0: 3ece e73c 58d6 7abb 27bc e13c 7cef 0bb1
000000c0: fd45 653c d939 0dbd 9acd 00be 0ca7 0dba
000000d0: 5a5e 91bd d9e5 ab3d 4e5e f430 a518 f53a
000000e0: f488 2135 b939 b3b1 adc0 973d 05eb 6bbd
000000f0: 0200 0080 c5e1 50bd 9fcb 2734 f24b bdb7
00000100: 8dc7 ea33 5e1c 308d c851 b03d 9098 fcbc
00000110: 2d8e 01bd 5596 01bd 3291 d33d 82c4 d936
00000120: e07a f33d 4843 aebd 804e 01be 57ef 98bd
00000130: 958c 47bd 55ca ab3a d2be a738 0016 b13d
00000140: 9984 7ebc 6f18 50bd cbdd 943c 85ee a5ba
00000150: cfe9 0a3d ee03 d4a1 82cb d83c 1145 96bd
00000160: e4ea 5cbc a8f4 da32 35ca 72b0 d44f 73b0
00000170: d943 013d 1c4a 4e3d ced5 79bd 2405 9abc
00000180: abc8 db3d ec65 32b7 929d 77b8 bc34 f6bd
00000190: 6fdc d9bc f9a2 74af d2b6 3630 6f85 7abd
000001a0: b2ad ba36 6c65 51bd bfd6 b9bd d802 b5bc
000001b0: e253 c7bd e7fd 25bd d248 033e 0600 0000
000001c0: 4108 2234 316d e4bd 6d96 38bd 6f7d cfb6
000001d0: 0600 0000 dab3 c9bd cb7d 52bb 6390 03bd
000001e0: b83b c5b3 b168 6fb9 fedc 36b1 0b39 4cbd
000001f0: ae8c 54bd e957 ecbc f053 98b7 705b 9cbd
00000200: badc b43d 7815 12b1 0fde bf3d 85b2 9434
00000210: 4f09 b9bd 06b7 593d 1c01 6d36 d467 efb9
00000220: b4a8 b0bd 15e4 01be 8cfb 8630 8ef5 a2af
00000230: c8bf 253a c3f5 abbd 3750 853d 553b 81bd
00000240: c3e3 09b1 b020 18b0 2000 7e3c 804e a53d
00000250: b02b d93d 3136 9ebd 3cc8 e1b0 58f6 4dbb
00000260: 0c99 0b30 6e46 88bd 2d59 d93d 6b2e 81bd
00000270: 46f0 9a3c a2d6 3b38 0cb9 1336 57c8 a4bc
00000280: ca61 d83d a5a2 d4af 9b5a b6af 3e69 cabd
00000290: 00cb 0a3b a94c 14b1 3f6f cdbb 6523 bf3d
000002a0: 71ef adb0 494e b9bc 6a63 60bc a934 b3b0
000002b0: 39ba c13c b293 71af 0d4a d6bc ceb0 9ab7
000002c0: 3095 87bd b39c 9438 3411 953d 12d8 e8bd
000002d0: 295e fc30 3904 7f3c 773d 24b1 fb4a 8eb8
000002e0: 6a91 873c 5906 8d3c 7c15 8739 8f36 31b0
000002f0: 1783 c330 9e8f 5430 0f7f 6ab0 1e6f a2b2
00000300: c144 283d 5bd4 c03d 3b1b 4037 8875 91aa
00000310: 2dfd 0c28 956f aca7 945b 2fab 26ea 752f
00000320: af07 d8bd 57fa 41b9 14b2 b63d 96c0 273a
00000330: 7121 2a2b e453 07bd 954a 0fbd 2fb5 d1bd
00000340: 1460 41b6 5f18 4736 44ce 263d 08e8 dc3b
00000350: a2bb cbbd 50f4 05bd 0600 0080 c814 f63d
00000360: 0200 0000 377a 0baa 0fb2 f03a 78e0 cfb9
00000370: efb7 2fbd 4a69 7e3d a415 bfbb 544a 5703
00000380: 280e 02be 7452 443d 4dc1 8c3d ccdf 0a39
00000390: c8f0 5ebd 410b 00be eeba a7bd 3ce9 863d
000003a0: adfc 193c ec61 b63d 7481 8a3c dd1f 1c28
000003b0: 0b00 0080 1f2a 8ebd 8d0b bebd f6c7 e5bd
000003c0: 6446 cc3a 183d 36bc ff89 6704 f7b6 debc
000003d0: 0600 0080 ee3b 65bd 5573 35bd 5a0c b436
000003e0: 722c 91b2 6649 143d 99cd a2b5 a9fe 80bd
000003f0: 0600 0080 add8 25bc efb7 d6b3 bb40 eebd
0.070383824 0.08624394 -5.3493815e-10 0.10804676 -1.6676725e-10 -1.3897691e-10 -0.010457682 0.029675243
0.09888717 -0.06300032 0.09584754 -2.1847893e-10 0.064232014 6.52389e-07 0.009795942 -1.6836404e-12
0.07190933 -5.5774235e-12 -0.0074472777 -1.2698834e-11 -0.0066131493 6.494755e-12 -0.0013721626 0.04657491
-0.07636794 -0.006649653 -4.278469e-10 -0.03268428 2.8228008e-08 -0.12523323 0.10421039 -0.09100422
0.072184116 7.495625e-09 -2.1228623e-06 0.036336947 7.320284e-09 0.0808748 -9.1449676e-10 -5.1083975e-07
9.1791135e-09 2.5031222e-09 0.0023547227 0.101648934 0.028296586 -0.0038274731 0.027555538 -2.0363293e-09
0.013993737 -0.034478996 -0.12578431 -0.0005403615 -0.07098074 0.08393449 1.778014e-09 0.0018699361
6.0176467e-07 -5.216148e-09 0.07409797 -0.05759718 -3e-45 -0.05099656 1.5627164e-07 -2.256592e-05
1.0932772e-07 -5.4268333e-31 0.086093485 -0.030834466 -0.03162973 -0.03163751 0.10330428 6.4899805e-06
0.11888671 -0.08508927 -0.12627602 -0.074675255 -0.048718054 0.0013106564 7.9987236e-05 0.08646774
-0.015534543 -0.05080455 0.018172165 -0.0012659585 0.033914384 -1.4366719e-18 0.026464228 -0.07337392
-0.013483737 2.5489797e-08 -8.832644e-10 -8.851633e-10 0.031558845 0.050363645 -0.060994916 -0.01880128
0.10731634 -1.0633357e-05 -5.9036138e-05 -0.12021777 -0.026594369 -2.224957e-10 6.647102e-10 -0.06116241
5.5634528e-06 -0.051122114 -0.09074163 -0.022096083 -0.09732796 -0.040525343 0.12820747 8e-45
1.5090428e-07 -0.11153639 -0.045065332 -6.183683e-06 8e-45 -0.09848757 -0.0032118435 -0.03212012
-9.18439e-08 -0.00022831817 -2.6610105e-09 -0.049859088 -0.051891975 -0.028850513 -1.8158898e-05 -0.07634628
0.08831163 -2.1258e-09 0.09368526 2.7697038e-07 -0.090349786 0.05315306 3.5316398e-06 -0.0004566299
-0.086259276 -0.12684663 9.821277e-10 -2.9642105e-10 0.0006322828 -0.08396485 0.065094404 -0.06310145
-2.0065591e-09 -5.534373e-10 0.0155029595 0.08071613 0.10604036 -0.0772518 -1.6427815e-09 -0.003142735
5.07854e-10 -0.066540584 0.10612712 -0.06307682 0.0189134 4.4784167e-05 2.2012418e-06 -0.02011506
0.10565527 -3.867814e-10 -3.3169986e-10 -0.098833546 0.0021178126 -2.158041e-09 -0.006269365 0.09332923
-1.265546e-09 -0.022620337 -0.013695577 -1.3038931e-09 0.023648368 -2.1971294e-10 -0.026158357 -1.8440562e-05
-0.06620252 7.0863774e-05 0.07278672 -0.11369337 1.8362175e-09 0.015564972 -2.390008e-09 -6.785054e-05
0.016548831 0.01721494 0.00025765214 -6.446976e-10 1.4225375e-09 7.7329243e-10 -8.5309265e-10 -1.8909812e-08
0.041081194 0.094155036 1.1450432e-05 -2.5838728e-13 7.82646e-15 -4.7860568e-15 -6.229958e-13 2.2365806e-10
-0.105483405 -0.00018499173 0.089206845 0.0006399242 6.044254e-13 -0.03303899 -0.034983236 -0.10239636
-2.8815166e-06 2.9667497e-06 0.040724054 0.0067415275 -0.099478975 -0.032703698 -8e-45 0.120156825
3e-45 -1.2388082e-13 0.0018363612 -0.0003964936 -0.042900022 0.06211213 -0.005831437 6.3268146e-37
-0.12700713 0.047930196 0.06872807 0.00013244076 -0.054428846 -0.12504293 -0.08189951 0.06587455
0.0093986215 0.08905396 0.016907431 8.666649e-15 -1.5e-44 -0.06941628 -0.09279547 -0.1121978
0.0015584943 -0.011122964 2.7217284e-36 -0.027186854 -8e-45 -0.055965357 -0.044299442 5.365856e-06
-1.6900433e-08 0.03620281 -1.2129777e-06 -0.062985726 -8e-45 -0.01012246 -9.998609e-08 -0.1163344

layer_1.bias f4 [400]
00000000: fbad dfbc a7f3 02ae d74a d43d 37ed 64bd
00000010: 5821 8ebd 3cab a8bd a5e0 e53d 0200 0080
00000020: 83db 0e30 d322 b13c ba57 f9bc be3e a0b0
00000030: 4a3f dc3d d80b 983c dea8 95bd 4037 44ae
00000040: 0200 0000 89ef d938 aaca d5bb 9fbc 613d
00000050: 847a 0433 50fe c1bd 954e 962c 49d2 f7bd
00000060: 5598 18af db93 00be bbf7 b3b0 77f9 399f
00000070: 17f9 d2bd 671f 54b0 6e35 9031 402e cabc
00000080: 5d53 b4b1 d8f5 903c b249 c332 5456 fdbd
00000090: be1c b832 3b5f fcbb 5c35 1232 09d9 a2bd
000000a0: 8aa4 59bd 5ad9 e109 d6aa e03c 2641 4731
000000b0: 4a62 a7b1 0200 0080 d5f9 98bd 7e04 3eaf
000000c0: 1103 e4b1 b7d1 5731 15c4 a23b 94ce a432
000000d0: 4794 c03c 4caa 7db1 3e5e 59bb a044 ba3d
000000e0: 6358 a03d 0322 ac3c 2b07 7d3d e50a 333c
000000f0: 7bbf cb3d 55a6 c43d 9c2b a8bd e359 e9bd
00000100: 14d9 82bc 0c2b 903d 0454 d53d ef3d 8d32
00000110: 14d3 83bd 9759 01bc 0a42 0e3c 7ed2 e33d
00000120: 32f8 9b32 a26d 39bd df9f ec3d 7dc8 c83d
00000130: c890 82bb 7b49 a4bc 67b0 dd3c 465f 77bd
00000140: cafb b23d 5ed5 64b1 d392 5b32 8398 9abc
00000150: 5078 00be 786c d4b1 6554 90b8 f075 f1bc
00000160: 4e3d a03d c3f1 23b1 5f51 3431 ff17 dfbd
00000170: 1062 c9bc e6d1 34b6 fed9 173b c7a1 d9bd
00000180: ff34 e23c f4b7 d83d 4060 4c34 d38f 01be
00000190: 50e8 4eb1 3f76 a1ba 5a94 2735 0300 0000
000001a0: 68bc 313c bf96 2c32 0600 0000 58e8 803a
000001b0: e090 84bd 0600 0000 ef5a cf3d c3e2 5f3d
000001c0: 5c8a f3b1 ba50 b832 14b2 ee3a 6e6c c9bd
000001d0: 5ef6 d8b2 2260 c33d 80f5 9b2d 7d9a 2130
000001e0: b448 9bbd 2b87 30bd 0200 0000 8ed7 89bd
000001f0: 871f 96b1 eeb3 3abc 0580 2234 3d22 9cb1
00000200: 6927 f5bd 42f6 9136 0200 0080 5e1a 25bc
00000210: 0f81 823d 160d 3abd 71fe d9bd 7b4c 0a32
00000220: 6c2d a8bc e966 b3ba 3dfd c6bd 8c99 f5b0
00000230: 54f0 9e3d 9f8c d7bd 16df 4abd e0c4 ad96
00000240: 1f6a 9dbd 0600 0000 4eb3 e4af cc2f 8c3d
00000250: d7ce 01be c221 1db1 7177 8a3b ec51 1fb0
00000260: 4154 8a2f 1009 e73d 65e7 95bd 12c5 e33d
00000270: 5844 fa31 0732 103c 6e51 663d 0200 0000
00000280: 0200 0000 619c 81b1 7179 d7bd c45a 1c3b
00000290: 7ffd 873d 78b2 0c3b 0600 0080 8166 d1bd
000002a0: c17d 6fb0 a816 d432 761b 99bd 6fd0 ba3d
000002b0: 9c3d b1b1 9ca1 6ab1 5cd8 ca3d 8acb 663b
000002c0: 36bb a6bc f365 3e39 a854 f43c 12f6 4b3c
000002d0: abf4 00bc 0ac9 2ab0 3f64 73bd b2a3 9630
000002e0: 2dbb 5bbd b224 d83c 0fbc fb3d 20ab f6bd
000002f0: acbb f5bb 806a 25bb eec3 61bd 5ae2 d83d
00000300: 5c09 94bd f6e2 88bc 63fd b0bd 64d7 06a1
00000310: b238 84bd 976b 48bd 0ef3 013e 8907 a03b
00000320: 6532 2c3b 5964 6a3d 29b6 88b1 2f55 18b1
00000330: 168b 89bd 1ebe aeb1 d063 98bd 48c5 1ab2
00000340: 762c a3bc 82ea cfbc edfd efbc 8f22 24bc
00000350: 9612 00bd d8d8 aebc 5d06 09b9 20cb dabd
00000360: dae4 a13d 73f1 1737 9504 02be 1f42 03be
00000370: f72e 59bc 30e7 093a 1c9a db3d f489 9bb1
00000380: 8551 003d ccbd a2bc 9c44 8a32 21d3 37b1
00000390: 2f44 f9bd 0c00 0000 0c8d 35b1 f43a 0d3d
000003a0: 5dae 94bd e917 19b3 0400 0000 afba 51b1
000003b0: 0600 0000 9282 85bd 1dda 953d 6ab1 d5bd
000003c0: 4336 fab7 6650 4a3c 7f89 6bb1 7f60 1ebc
000003d0: cbe1 ffbd fdc9 563d f342 53ad bd66 213c
000003e0: 8129 9fb1 09ec 85bd 4968 5fb8 db16 6e3d
000003f0: 96de 32bc b2c4 d8bb 2d48 b13c 5a37 62bb
-0.02730464 -2.9774985e-11 0.10365837 -0.05589029 -0.069399536 -0.08235785 0.11224488 -3e-45
5.1971244e-10 0.02162305 -0.03043734 -1.1659365e-09 0.10754259 0.018560335 -0.073075995 -4.4614312e-11
3e-45 0.00010391983 -0.0065244036 0.055111524 3.0845072e-08 -0.094723344 4.2719808e-12 -0.121006556
-1.3878439e-10 -0.12556402 -1.3094373e-09 -3.9381626e-20 -0.10301416 -7.7169776e-10 4.197026e-09 -0.024680257
-5.248167e-09 0.017695352 2.27345e-08 -0.123699814 2.143349e-08 -0.007701782 8.510451e-09 -0.079515524
-0.053135432 5.4371176e-33 0.02742521 2.8995344e-09 -4.871514e-09 -3e-45 -0.07469527 -1.7281995e-10
-6.636022e-09 3.1405827e-09 0.0049672225 1.9186054e-08 0.023508204 -3.6913148e-09 -0.0033167745 0.090951204
0.078293584 0.021012312 0.061774414 0.01092789 0.099486314 0.09602038 -0.08211443 -0.11394098
-0.015972652 0.070394605 0.10416415 1.6442725e-08 -0.06436744 -0.007894895 0.008682737 0.111241326
1.8157241e-08 -0.04527057 0.115539305 0.09803865 -0.0039845444 -0.02005457 0.027061654 -0.060393594
0.08739431 -3.3299652e-09 1.2780862e-08 -0.018871551 -0.12545896 -6.1823435e-09 -6.882175e-05 -0.029475182
0.07824193 -2.3857047e-09 2.6239702e-09 -0.10893249 -0.024582893 -2.6944267e-06 0.0023170705 -0.1062656
0.027613161 0.10581961 1.9033996e-07 -0.12652521 -3.0109e-09 -0.0012318565 6.242823e-07 4e-45
0.010848142 1.0045993e-08 8e-45 0.0009834869 -0.06472945 8e-45 0.10124766 0.054659616
-7.0879604e-09 2.145713e-08 0.001821103 -0.098351344 -2.5257744e-08 0.0953982 1.7730484e-11 5.8791e-10
-0.075822264 -0.043097656 3e-45 -0.06730567 -4.369159e-09 -0.011395438 1.5133999e-07 -4.54409e-09
-0.119704075 4.350005e-06 -3e-45 -0.010077087 0.06372272 -0.045422636 -0.10644234 8.050047e-09
-0.020529471 -0.0013687286 -0.0971627 -1.7869737e-09 0.07760683 -0.10524868 -0.049529158 -2.8073903e-25
-0.076862566 8e-45 -4.1600362e-10 0.06845054 -0.1267656 -2.2865696e-09 0.0042256643 -5.796028e-10
2.516192e-10 0.112810254 -0.07319526 0.111215726 7.2837274e-09 0.00880099 0.05623 3e-45
3e-45 -3.7721724e-09 -0.1052121 0.0023857811 0.066401474 0.002146868 -8e-45 -0.10224629
-8.71264e-10 2.4690351e-08 -0.07475941 0.09121787 -5.158382e-09 -3.4143346e-09 0.099045485 0.0035216534
-0.020352941 0.00018157791 0.029825523 0.012448804 -0.007870833 -6.2131333e-10 -0.059421774 1.0960461e-09
-0.0536453 0.026384685 0.12291729 -0.12044358 -0.007499179 -0.002524048 -0.055118494 0.10590048
-0.07228348 -0.016709786 -0.0864208 -4.5686033e-19 -0.06456126 -0.04893073 0.12690374 0.0048837108
0.0026275155 0.057224605 -3.97883e-09 -2.2167332e-09 -0.06715982 -5.0856803e-09 -0.07440913 -9.008836e-09
-0.019918662 -0.025380377 -0.029295886 -0.010018005 -0.031267725 -0.021343634 -0.00013067709 -0.10683274
0.07904978 9.056518e-06 -0.1269706 -0.12818192 -0.013255826 0.0005260585 0.107227534 -4.526777e-09
0.031327743 -0.019865893 1.6096514e-08 -2.6750018e-09 -0.12171208 1.7e-44 -2.6419142e-09 0.03448005
-0.0725982 -3.5644835e-08 6e-45 -3.051962e-09 8e-45 -0.06519045 0.073169924 -0.1043423
-2.982759e-05 0.01234827 -3.4275158e-09 -0.009666561 -0.124942385 0.052438725 -1.2008827e-11 0.009851155
-4.6322275e-09 -0.06539161 -5.3264466e-05 0.058127265 -0.010917326 -0.006615245 0.021640861 -0.0034517855

ln1.weight f4 [400]
00000000: ef82 5d3f ab82 5d3f 7e83 5d3f 6081 5d3f
00000010: 4783 5d3f 3982 5d3f 7482 5d3f e682 5d3f
00000020: 1382 5d3f c081 5d3f 8882 5d3f 0183 5d3f
00000030: 8185 5d3f e281 5d3f 0982 5d3f 5b82 5d3f
00000040: b782 5d3f af82 5d3f b782 5d3f 0383 5d3f
00000050: 3282 5d3f 5c82 5d3f 5f82 5d3f 2b82 5d3f
00000060: f282 5d3f 7582 5d3f 7083 5d3f 2083 5d3f
00000070: e081 5d3f 7983 5d3f 7c83 5d3f 0b82 5d3f
00000080: cf82 5d3f b282 5d3f 7685 5d3f d380 5d3f
00000090: d483 5d3f a682 5d3f e082 5d3f c280 5d3f
000000a0: 2e83 5d3f 0983 5d3f ce82 5d3f c97e 5d3f
000000b0: 6382 5d3f 4183 5d3f 7682 5d3f 9782 5d3f
000000c0: 0581 5d3f 9d80 5d3f 9382 5d3f 7582 5d3f
000000d0: 8b82 5d3f a381 5d3f a382 5d3f ff81 5d3f
000000e0: 1d83 5d3f 8183 5d3f e381 5d3f 9a82 5d3f
000000f0: cd80 5d3f 2883 5d3f f482 5d3f 9582 5d3f
00000100: 0184 5d3f 5f82 5d3f 2c82 5d3f b282 5d3f
00000110: 6983 5d3f f882 5d3f d37f 5d3f 3e83 5d3f
00000120: 9985 5d3f af82 5d3f ee81 5d3f 2782 5d3f
00000130: 6d83 5d3f 0c83 5d3f c382 5d3f c482 5d3f
00000140: 8781 5d3f 1e82 5d3f 7583 5d3f f081 5d3f
00000150: 3883 5d3f 3f82 5d3f 6582 5d3f 6982 5d3f
00000160: 2082 5d3f 8482 5d3f 4f82 5d3f 4b82 5d3f
00000170: 257f 5d3f 0f82 5d3f 4182 5d3f 4b81 5d3f
00000180: 0583 5d3f 5084 5d3f be82 5d3f 1f82 5d3f
00000190: d282 5d3f 6882 5d3f 9383 5d3f 7482 5d3f
000001a0: c982 5d3f 5b82 5d3f 5c82 5d3f d985 5d3f
000001b0: af82 5d3f 1883 5d3f 0582 5d3f fa83 5d3f
000001c0: 6c7f 5d3f 5b81 5d3f f382 5d3f 6e83 5d3f
000001d0: 0582 5d3f b682 5d3f 4a82 5d3f 7f81 5d3f
000001e0: 2583 5d3f 6183 5d3f 9c82 5d3f 7082 5d3f
000001f0: 9482 5d3f 2d83 5d3f 3d84 5d3f 8a82 5d3f
00000200: 5882 5d3f 567f 5d3f 5082 5d3f 7b85 5d3f
00000210: c482 5d3f aa82 5d3f bc82 5d3f 9c82 5d3f
00000220: d282 5d3f ea82 5d3f c282 5d3f 4e82 5d3f
00000230: 7b83 5d3f ba81 5d3f f282 5d3f d782 5d3f
00000240: 8482 5d3f 8782 5d3f 1583 5d3f fa81 5d3f
00000250: 9e82 5d3f 2882 5d3f 3382 5d3f cf82 5d3f
00000260: 5982 5d3f 9785 5d3f 9182 5d3f 7782 5d3f
00000270: 9082 5d3f 5780 5d3f 6583 5d3f 9282 5d3f
00000280: 9683 5d3f da82 5d3f 2182 5d3f ce83 5d3f
00000290: ff81 5d3f 1584 5d3f 1882 5d3f 5c83 5d3f
000002a0: 4a82 5d3f 4e81 5d3f 6e82 5d3f d382 5d3f
000002b0: f983 5d3f 5b83 5d3f 2482 5d3f f081 5d3f
000002c0: fd82 5d3f 6a82 5d3f bd82 5d3f 6383 5d3f
000002d0: bb85 5d3f 0382 5d3f 2583 5d3f e482 5d3f
000002e0: 7d82 5d3f c482 5d3f 5e82 5d3f 2582 5d3f
000002f0: 7483 5d3f 3384 5d3f a982 5d3f b582 5d3f
00000300: 4582 5d3f ac82 5d3f da82 5d3f 4682 5d3f
00000310: b281 5d3f 7282 5d3f 6d81 5d3f b282 5d3f
00000320: 6982 5d3f 4c82 5d3f 3d83 5d3f 9c82 5d3f
00000330: 3882 5d3f aa83 5d3f 7682 5d3f 4982 5d3f
00000340: dd82 5d3f a082 5d3f d981 5d3f 3183 5d3f
00000350: f581 5d3f a283 5d3f 8c82 5d3f 4682 5d3f
00000360: 9a82 5d3f 0a84 5d3f 5881 5d3f 4c82 5d3f
00000370: a382 5d3f ce82 5d3f 5382 5d3f 5883 5d3f
00000380: b483 5d3f f282 5d3f f681 5d3f 9682 5d3f
00000390: 4983 5d3f 1a82 5d3f 9a85 5d3f 5683 5d3f
000003a0: 4983 5d3f 8582 5d3f d882 5d3f 2b82 5d3f
000003b0: 9582 5d3f 6982 5d3f 5c82 5d3f 4a82 5d3f
000003c0: ac82 5d3f fc81 5d3f 5d82 5d3f d381 5d3f
000003d0: 4082 5d3f 3583 5d3f 8082 5d3f 2482 5d3f
000003e0: ce82 5d3f 6e82 5d3f 6682 5d3f 3782 5d3f
000003f0: 3e83 5d3f 7882 5d3f 8e82 5d3f 1882 5d3f
0.86527914 0.8652751 0.86528766 0.86525536 0.8652844 0.8652683 0.8652718 0.8652786
0.865266 0.8652611 0.865273 0.8652802 0.86531836 0.8652631 0.8652654 0.8652703
0.8652758 0.8652753 0.8652758 0.86528033 0.8652679 0.8652704 0.86527056 0.86526746
0.8652793 0.86527187 0.8652868 0.86528206 0.865263 0.86528736 0.86528754 0.86526555
0.86527723 0.8652755 0.8653177 0.86524695 0.8652928 0.8652748 0.86527824 0.86524594
0.8652829 0.8652807 0.8652772 0.86521584 0.8652708 0.865284 0.8652719 0.8652739
0.86524993 0.86524373 0.86527365 0.86527187 0.8652732 0.86525935 0.8652746 0.86526483
0.8652819 0.86528784 0.86526316 0.8652741 0.8652466 0.86528254 0.86527944 0.8652738
0.86529547 0.86527056 0.8652675 0.8652755 0.8652864 0.8652797 0.8652317 0.86528385
0.8653198 0.8652753 0.8652638 0.8652672 0.86528665 0.86528087 0.8652765 0.8652766
0.8652577 0.8652667 0.8652871 0.86526394 0.8652835 0.86526865 0.8652709 0.86527115
0.8652668 0.86527276 0.8652696 0.86526936 0.8652213 0.8652658 0.86526877 0.8652541
0.86528045 0.8653002 0.8652762 0.86526674 0.8652774 0.8652711 0.8652889 0.8652718
0.8652769 0.8652703 0.8652704 0.8653236 0.8652753 0.8652816 0.8652652 0.86529505
0.86522555 0.86525506 0.8652794 0.8652867 0.8652652 0.86527574 0.8652693 0.8652572
0.86528236 0.86528593 0.8652742 0.86527157 0.8652737 0.86528283 0.86529905 0.8652731
0.86527014 0.86522424 0.86526966 0.865318 0.8652766 0.865275 0.8652761 0.8652742
0.8652774 0.86527884 0.86527646 0.86526954 0.8652875 0.8652607 0.8652793 0.8652777
0.86527276 0.86527294 0.8652814 0.86526453 0.8652743 0.8652673 0.86526793 0.86527723
0.8652702 0.86531967 0.86527354 0.865272 0.8652735 0.86523956 0.8652862 0.8652736
0.8652891 0.8652779 0.86526686 0.86529243 0.86526483 0.86529666 0.8652663 0.86528563
0.8652693 0.8652543 0.86527145 0.86527747 0.865295 0.8652856 0.86526704 0.86526394
0.86528 0.8652712 0.86527616 0.86528605 0.8653218 0.8652651 0.86528236 0.8652785
0.86527234 0.8652766 0.8652705 0.8652671 0.86528707 0.86529845 0.86527497 0.8652757
0.865269 0.86527514 0.8652779 0.86526906 0.86526024 0.8652717 0.86525613 0.8652755
0.86527115 0.8652694 0.8652838 0.8652742 0.86526823 0.8652903 0.8652719 0.86526924
0.86527807 0.8652744 0.86526257 0.8652831 0.86526424 0.8652898 0.86527324 0.86526906
0.8652741 0.865296 0.8652549 0.8652694 0.8652746 0.8652772 0.86526984 0.8652854
0.8652909 0.8652793 0.8652643 0.86527383 0.8652845 0.86526644 0.86531985 0.8652853
0.8652845 0.8652728 0.86527777 0.86526746 0.8652738 0.86527115 0.8652704 0.8652693
0.86527514 0.86526465 0.86527044 0.8652622 0.8652687 0.8652833 0.8652725 0.86526704
0.8652772 0.86527145 0.865271 0.8652682 0.86528385 0.86527205 0.86527336 0.8652663

ln1.bias f4 [400]
00000000: a775 7db5 150b abb5 1081 b9b5 9194 13b6
00000010: 10e9 9b35 1166 a635 80b1 2535 13c5 28b6
00000020: 7816 b1b5 8370 af35 26c7 87b5 8cb9 20b6
00000030: 7526 51b5 dd14 5d35 7f17 43b4 6a58 4e35
00000040: 903d 57b4 13fd 2fb5 243d 9cb5 9304 a8b4
00000050: fc96 eeb5 2379 6b35 9c93 bab5 1448 6db4
00000060: 0070 3835 b24a eeb5 2360 ab35 ced3 0535
00000070: 0a64 bb35 0af2 15b6 04d9 03b6 141d 9b35
00000080: 6239 e4b5 23f6 7a35 c70b ee35 aea1 54b6
00000090: d762 35b4 6667 4835 9da9 5ab5 05de 34b5
000000a0: b149 8c35 3934 d8b5 8c33 a2b4 c7a5 2eb6
000000b0: beb9 5335 73d6 5935 2ee2 a335 a964 5835
000000c0: 363b 90b5 da67 a0b5 a360 83b5 928a 9935
000000d0: 26e5 4134 d268 ab35 de23 51b4 2086 0035
000000e0: 3fed 9035 3def 8334 81dd a6b4 4a1b a835
000000f0: ca5c adb5 b6a4 8d35 4acd 8835 07e7 9d35
00000100: 1655 77b6 5857 b335 74c4 9235 c0a1 d4b4
00000110: 293c 9835 01a3 4d33 ae75 67b5 b82a 9435
00000120: 565a 7cb6 fdb9 a1b5 830d 5fb6 6ff3 7132
00000130: fbc9 8a35 934e 4035 494c 8d35 6498 c5b5
00000140: 1672 a835 7ddf a335 deda 1535 7044 8c34
00000150: ae9f 8235 c23d acb5 1e61 8e35 e9a3 7d35
00000160: 9cf6 acb5 72e7 9f35 160c 3235 e826 0a34
00000170: 5c7c 83b5 a79a db34 5afd 6db5 123b f8b5
00000180: 4239 80b5 983e 97b6 9beb 1db4 33c0 5db6
00000190: ed1e 54b4 205c 9b35 5b4a 5bb4 4a55 62b5
000001a0: d4d6 8135 c471 08b6 20cd 8c35 f939 ce34
000001b0: 2258 0135 5af1 2735 e279 8835 2d21 92b5
000001c0: 8b33 59b5 7ee8 2735 2b91 6535 bc6c 7635
000001d0: f8f9 fb34 b4b2 1c34 cd2b a635 8bb8 dc34
000001e0: 091f 5cb5 67d4 4535 9f0e 0835 6c4e 35b4
000001f0: 3cdd 8c35 4cbf d4b5 3899 47b6 adcb 6235
00000200: 38a8 5235 1ca6 5ab5 9504 b235 bcc5 4eb6
00000210: 8829 4f35 d9ae f5b5 73f0 fcb5 7b23 a9b3
00000220: c90e 87b5 dc3d 6035 3edc 53b5 91c5 ad32
00000230: 837b e6b5 3a76 a0b4 ec8a 97b5 07c6 1835
00000240: ec17 4f35 f260 ac35 b65c 2a35 2502 88b5
00000250: 3ac4 9735 b05a d5b5 6d85 ee34 f09a 2435
00000260: 20ee 07b6 7826 7eb6 0c01 55b5 b811 8135
00000270: ae35 e3b5 aa11 4fb6 1b4d 8535 46f5 7335
00000280: 1eed 7c35 18ef b035 e55b 0cb6 af6b 09b6
00000290: 2384 7e35 b9e6 4bb5 ba22 aa35 60a7 8d33
000002a0: 82a1 fab4 6b72 16b5 8e14 af35 1363 d6b4
000002b0: 7ec1 8135 d652 4d35 531f 9935 a5f3 9334
000002c0: 0a19 f834 a538 b8b4 a553 dbb4 1f8e 3b35
000002d0: 9898 76b5 22ba 9a35 7e6f 4135 4f69 e8b5
000002e0: 0d15 8835 4b6c f2b5 6a99 8534 b568 a0b5
000002f0: 65cd a3b5 d2e4 0835 9748 56b5 c318 bc35
00000300: f93c 8335 d7f0 89b6 1dd3 45b5 c4c3 a435
00000310: 415e 7db3 46fa 8835 c615 20b4 e0ec a4b5
00000320: a5dc 3fb4 8006 ae35 c540 2b35 8641 f933
00000330: 692a 5db5 8383 8cb5 9d6d 86b5 d1af 32b5
00000340: 11a6 8e35 fba1 7bb5 5775 14b6 4337 5735
00000350: 7ad1 8b34 f1c6 24b6 e773 3f35 4fb9 99b4
00000360: 8e38 ef34 b824 7cb6 7e23 9535 7686 4835
00000370: 7590 7e35 6dad 59b5 5c5e ee34 70a4 5535
00000380: fffe 07b6 26ea 5735 28a2 3434 def4 8c34
00000390: 7ba5 77b6 abb1 d434 c7c6 8fb6 0945 5235
000003a0: 1c00 8735 f0f8 3f35 676a 0cb6 d47d 3bb5
000003b0: 2d2c 29b5 e646 abb3 59fb 2bb5 a3b5 9135
000003c0: 0a19 63b4 ec8f b134 3ca3 eb34 4700 35b5
000003d0: fc87 7735 b066 6eb4 34a3 7235 9e00 7eb5
000003e0: ee94 3035 94c3 c834 5fd6 f734 394f 0ab6
000003f0: 92b5 53b5 ecb0 08b6 bdc0 0e35 e54f 9e35
-9.442105e-07 -1.2743718e-06 -1.3821136e-06 -2.1991184e-06 1.161623e-06 1.2397669e-06 6.1725586e-07 -2.5148663e-06
-1.3194067e-06 1.3071261e-06 -1.0116244e-06 -2.394986e-06 -7.791453e-07 8.2359276e-07 -1.8169338e-07 7.686964e-07
-2.0045832e-07 -6.556085e-07 -1.16407e-06 -3.1295767e-07 -1.7776324e-06 8.77206e-07 -1.390104e-06 -2.2098567e-07
6.8708323e-07 -1.7754121e-06 1.2768472e-06 4.985458e-07 1.3961701e-06 -2.2343615e-06 -1.964684e-06 1.1556863e-06
-1.7004024e-06 9.3490434e-07 1.773581e-06 -3.1684572e-06 -1.6892896e-07 7.465627e-07 -8.145815e-07 -6.7378306e-07
1.045226e-06 -1.6108453e-06 -3.0212357e-07 -2.6024516e-06 7.8873916e-07 8.1150864e-07 1.2210273e-06 8.061275e-07
-1.0746069e-06 -1.1951154e-06 -9.788386e-07 1.1439718e-06 1.805789e-07 1.2771e-06 -1.947769e-07 4.7878893e-07
1.0797884e-06 2.457472e-07 -3.1081075e-07 1.2524918e-06 -1.291651e-06 1.0553256e-06 1.0192537e-06 1.1764649e-06
-3.6855395e-06 1.336196e-06 1.0935023e-06 -3.9605766e-07 1.1342391e-06 4.7878533e-08 -8.622545e-07 1.1039292e-06
-3.7603509e-06 -1.2049564e-06 -3.3237454e-06 1.4083397e-08 1.0340585e-06 7.1639914e-07 1.052752e-06 -1.4721995e-06
1.2550179e-06 1.220949e-06 5.582532e-07 2.6126827e-07 9.732228e-07 -1.2832973e-06 1.0608089e-06 9.4488365e-07
-1.2886771e-06 1.1913783e-06 6.6327755e-07 1.2866406e-07 -9.796454e-07 4.0904453e-07 -8.8658055e-07 -1.8494632e-06
-9.553407e-07 -4.5074376e-06 -1.4707477e-07 -3.304344e-06 -1.975529e-07 1.1575212e-06 -2.0423015e-07 -8.431567e-07
9.673772e-07 -2.03318e-06 1.0490512e-06 3.841267e-07 4.8184495e-07 6.256356e-07 1.0168262e-06 -1.0887503e-06
-8.0913804e-07 6.255067e-07 8.5520395e-07 9.180037e-07 4.693427e-07 1.4593644e-07 1.2380711e-06 4.1112466e-07
-8.200155e-07 7.3697305e-07 5.0685225e-07 -1.6885468e-07 1.04952e-06 -1.5850906e-06 -2.9742496e-06 8.448795e-07
7.8475887e-07 -8.145305e-07 1.3263367e-06 -3.0811489e-06 7.7173945e-07 -1.830481e-06 -1.8845443e-06 -7.8761296e-08
-1.0062587e-06 8.353652e-07 -7.892412e-07 2.0229693e-08 -1.7172282e-06 -2.9888344e-07 -1.1290808e-06 5.691258e-07
7.714832e-07 1.2843213e-06 6.346485e-07 -1.0133414e-06 1.1307486e-06 -1.589613e-06 4.4428035e-07 6.1320225e-07
-2.0255175e-06 -3.7871341e-06 -7.9350207e-07 9.616406e-07 -1.6928441e-06 -3.0855686e-06 9.931713e-07 9.0881474e-07
9.4222366e-07 1.3182607e-06 -2.0915115e-06 -2.047727e-06 9.481466e-07 -7.595914e-07 1.2676094e-06 6.5962695e-08
-4.668364e-07 -5.6045855e-07 1.3044498e-06 -3.9932692e-07 9.667563e-07 7.6488993e-07 1.1408505e-06 2.7558158e-07
4.6211818e-07 -3.4313885e-07 -4.0852788e-07 6.986974e-07 -9.1864194e-07 1.1528066e-06 7.2060345e-07 -1.7315996e-06
1.0138916e-06 -1.8061922e-06 2.4884804e-07 -1.1951403e-06 -1.2204224e-06 5.0996925e-07 -7.9826845e-07 1.4014298e-06
9.778006e-07 -4.1109556e-06 -7.369543e-07 1.2275927e-06 -5.8991876e-08 1.0205629e-06 -1.4909082e-07 -1.2287892e-06
-1.7868531e-07 1.2965902e-06 6.3796716e-07 1.1606885e-07 -8.239063e-07 -1.0469088e-06 -1.001568e-06 -6.6566014e-07
1.0628156e-06 -9.37405e-07 -2.212202e-06 8.017416e-07 2.6043182e-07 -2.4553703e-06 7.1321705e-07 -2.86333e-07
4.4558368e-07 -3.75723e-06 1.1111695e-06 7.470147e-07 9.4832586e-07 -8.109117e-07 4.439961e-07 7.958797e-07
-2.0264995e-06 8.043447e-07 1.6822798e-07 2.6255196e-07 -3.690219e-06 3.9617348e-07 -4.284873e-06 7.8331556e-07
1.0058316e-06 7.1515296e-07 -2.092356e-06 -6.984603e-07 -6.302169e-07 -7.9757044e-08 -6.4068223e-07 1.0856205e-06
-2.1150132e-07 3.3073536e-07 4.389093e-07 -6.742816e-07 9.2212554e-07 -2.2202835e-07 9.0389517e-07 -9.462327e-07
6.578183e-07 3.7395205e-07 4.616331e-07 -2.0609716e-06 -7.8867845e-07 -2.0368561e-06 5.3179593e-07 1.179517e-06

layer_2.weight f4 [300, 400]
00000000: 4a62 dab7 bf06 a2b8 5a38 5d39 6012 f038
00000010: 5192 5237 2a3a 6337 064e bbb8 ae04 2f37
00000020: 70ac d338 aab9 1639 1b2e 8337 4528 c638
00000030: fa03 5f38 ebe2 5bb8 c968 6037 c7f3 dbb8
00000040: 9b51 5637 f837 3437 2c9e 2fb7 42e0 c8b7
00000050: f74d ef39 695d 6137 8118 5b37 8178 013a
00000060: 408e d4b8 f7cc e7b7 3385 3b37 0023 6137
00000070: fb09 b5b7 9784 e138 3a0a ddb8 8159 d3b8
00000080: 75ea 8db6 70e8 6037 4eff 9239 2d23 b039
00000090: c004 afb8 7208 c0b8 6c1f 2339 01ad 86b7
000000a0: 92d8 8c38 9a82 d4b8 489b 8838 e803 b939
000000b0: b8bd 1f38 9c70 2037 e73b d8b8 5b8f d2b8
000000c0: 324b 9537 7350 5839 649e dbb8 db21 9435
000000d0: 5348 ac38 0189 4038 3cb2 c636 3210 6437
000000e0: 35a4 d3b8 f293 cfb8 fe6b 2839 a665 95b6
000000f0: 5e52 f639 a3e0 34b8 1ddf 5f37 0e88 0d39
00000100: 6f72 d839 486e 80b7 24ed 3db8 d7bb 8eb7
00000110: 02c6 deb8 df14 6737 98f1 cd37 0272 dfb8
00000120: ed75 d439 b1a5 9db8 51ee bf39 a4d9 4537
00000130: 1e7e 1fb8 995c 6037 a594 6137 0f02 b8b8
00000140: fef4 1439 1595 cab8 1be2 1c39 ce05 dfb8
00000150: c1eb 8037 874a 94b8 5cb7 1cb7 9676 5737
00000160: fcb2 7238 eb3e dfb8 1558 23b8 0c99 4439
00000170: 9bec 8038 eee3 b7b8 ad97 e336 b6a8 ddb8
00000180: 7cbe 8038 b5f1 083a 15db 4737 f06b 0a3a
00000190: 5968 c538 1baa dcb8 f8b9 3a39 951c 2336
000001a0: b5e8 d5b8 076c 9639 4475 c1b8 0f2f 9a38
000001b0: 2faf 8136 b837 4d37 90b7 7637 7824 f5b7
000001c0: 5977 0139 4214 8339 194a 5fb8 7d05 bf38
000001d0: 1204 2639 d18e cf37 5edc 33b7 e3d2 4e38
000001e0: cbb1 1f39 0d7e 8339 cd8c c9b8 8030 cfb7
000001f0: a33d 8036 87c8 ed37 c9a6 ad39 32ed 1639
00000200: f17f d6b8 78f7 2c39 f625 1637 e804 c239
00000210: 64ad 4537 6255 5f37 db58 6c37 351c 4239
00000220: fd13 cdb8 76b8 90b8 30c2 82b7 e65e deb8
00000230: 332e ad39 ca8e ad38 4565 1037 3ddf 82b8
00000240: 4e67 18b8 46f0 6037 b668 d7b8 2a7e f3b7
00000250: 8d31 d7b8 48dc c1b8 8c9e ccb7 7559 5eb8
00000260: d8e4 d5b8 7f9b d739 197b 2739 1faa 5f37
00000270: 27d5 0639 1120 cf39 a19d 4b37 e1fa dfb8
00000280: 5e5d 6137 51c9 b034 c5e3 dab8 1f6b 98b8
00000290: 5003 ceb8 8126 c338 73ff dfb8 4404 fc37
000002a0: 0bd7 6239 6dbd bdb8 180f 3437 01b9 d6b8
000002b0: 43ab 81b8 df7b 9cb8 5b50 7a35 f5ab 8c39
000002c0: dfbe b8b8 7bac dcb8 5af3 dfb8 4d7e 4db8
000002d0: cda1 1a3a 9068 e3b7 a72d 9b37 5f95 6238
000002e0: 28fb eb36 8ebb 6137 0be1 e036 e147 9939
000002f0: ee47 f0b5 0395 6539 49d1 d5b8 7525 2a37
00000300: f2f2 d7b8 a8bf 023a 7422 a9b8 2aaf dab5
00000310: f10d adb8 04c5 4e37 0c79 c3b7 8405 45b8
00000320: 4ec2 2a38 0b66 c0b7 79c3 03b7 e912 a3b6
00000330: 6d2a dab8 9cfe d6b8 21bf 52b8 dc6a c6b7
00000340: fbc2 ac36 987a dfb8 fc15 be37 89e5 0937
00000350: 8b0a 9438 5030 be35 47f4 6137 e242 d9b8
00000360: c431 5d37 0621 d539 5ab0 3538 8d97 5f37
00000370: 942b cbb8 91f5 1d39 0ea5 d9b8 8f99 0a39
00000380: e901 7437 df08 d9b8 8ac4 f438 62cf dfb8
00000390: 5d33 dc39 44db 9bb8 7dee fc39 ee5a 4e37
000003a0: b46f dab8 8b85 dc39 1c3d f136 d84d c738
000003b0: 0edd ddb8 7a11 d139 2529 b038 dc66 6137
000003c0: 3cbd 7237 4422 39b8 7e9c c7b8 5ad6 0339
000003d0: e45e 67b8 fee8 deb8 103a 5337 8880 30b8
000003e0: 2358 aeb8 1436 c338 f520 af39 cc82 e738
000003f0: 4ffe 6037 ae24 6f39 4bf4 5a37 b80a a5b8
-2.6033395e-05 -7.7260185e-05 0.00021097195 0.000114475144 1.2551042e-05 1.3543797e-05 -8.931388e-05 1.0431902e-05
0.00010093383 0.0001437428 1.5637886e-05 9.4488765e-05 5.3171047e-05 -5.2425003e-05 1.3375838e-05 -0.00010488141
1.2774394e-05 1.0741867e-05 -1.046764e-05 -2.3946286e-05 0.0004564372 1.3432794e-05 1.30591225e-05 0.0004938916
-0.00010135444 -2.763279e-05 1.1177081e-05 1.3419194e-05 -2.1581529e-05 0.00010753533 -0.00010540006 -0.000100779354
-4.229422e-06 1.3405559e-05 0.00028037507 0.00033595544 -8.345535e-05 -9.1568465e-05 0.00015556597 -1.6054606e-05
6.7160596e-05 -0.00010133274 6.513909e-05 0.0003528886 3.8085243e-05 9.562962e-06 -0.0001031084 -0.00010040282
1.77972e-05 0.00020629335 -0.00010472236 1.1036713e-06 8.2150706e-05 4.5903962e-05 5.921609e-06 1.359363e-05
-0.0001009185 -9.898086e-05 0.00016061959 -4.4523795e-06 0.00046982145 -4.3124553e-05 1.3343783e-05 0.00013497492
0.0004128399 -1.5310143e-05 -4.5281966e-05 -1.7015189e-05 -0.00010622667 1.3773532e-05 2.4550405e-05 -0.00010654704
0.00040523653 -7.517206e-05 0.00036607918 1.1792788e-05 -3.802601e-05 1.3373e-05 1.3445654e-05 -8.774187e-05
0.00014205647 -9.659879e-05 0.0001496155 -0.0001063455 1.536857e-05 -7.071072e-05 -9.341016e-06 1.2842609e-05
5.786399e-05 -0.00010645188 -3.894426e-05 0.00018749031 6.147587e-05 -8.768575e-05 6.7827846e-06 -0.00010569526
6.138996e-05 0.00052240054 1.1912333e-05 0.0005280366 9.413128e-05 -0.00010522102 0.00017807621 2.430553e-06
-0.000101999765 0.00028690716 -9.2247996e-05 7.3520576e-05 3.8648936e-06 1.2231925e-05 1.4705482e-05 -2.9223258e-05
0.00012346859 0.0002500136 -5.3236352e-05 9.108612e-05 0.0001583251 2.4742827e-05 -1.072054e-05 4.931063e-05
0.00015229655 0.00025080182 -9.610653e-05 -2.4698908e-05 3.8218727e-06 2.834598e-05 0.00033121396 0.00014393477
-0.00010228146 0.00016495388 8.949535e-06 0.0003700622 1.1782486e-05 1.33117155e-05 1.4087384e-05 0.0001851179
-9.778885e-05 -6.9008136e-05 -1.5587633e-05 -0.00010603461 0.00033031552 8.2758794e-05 8.6066475e-06 -6.2404644e-05
-3.6335834e-05 1.3407383e-05 -0.00010271503 -2.9026607e-05 -0.000102612285 -9.243988e-05 -2.4392524e-05 -5.3012238e-05
-0.00010199257 0.0004112385 0.00015972219 1.3331445e-05 0.00012858641 0.00039506008 1.2136444e-05 -0.000106801985
1.3432784e-05 3.2929032e-07 -0.000104374754 -7.267878e-05 -9.8234625e-05 9.3054965e-05 -0.0001068105 3.0042727e-05
0.0002163315 -9.0475056e-05 1.073235e-05 -0.00010238775 -6.183099e-05 -7.4617325e-05 9.324919e-07 0.00026831
-8.809356e-05 -0.000105225445 -0.000106787964 -4.8993435e-05 0.0005898744 -2.71092e-05 1.8498698e-05 5.402171e-05
7.032784e-06 1.3454714e-05 6.7019187e-06 0.00029235988 -1.7902328e-06 0.00021894653 -0.00010195614 1.0141511e-05
-0.00010297251 0.00049876655 -8.0649654e-05 -1.6293245e-06 -8.2518796e-05 1.2324428e-05 -2.3302178e-05 -4.6973597e-05
4.071212e-05 -2.2935701e-05 -7.8537205e-06 -4.85998e-06 -0.000104029525 -0.0001025174 -5.0245904e-05 -2.36532e-05
5.148698e-06 -0.000106563035 2.2660002e-05 8.219279e-06 7.059154e-05 1.4170164e-06 1.346792e-05 -0.00010359824
1.31842135e-05 0.0004065113 4.3318003e-05 1.3327121e-05 -9.6879114e-05 0.00015064167 -0.0001037811 0.0001321791
1.4543978e-05 -0.00010349019 0.00011671435 -0.00010672097 0.0004199994 -7.431817e-05 0.00048242873 1.2299728e-05
-0.000104158564 0.00042061167 7.1894738e-06 9.503559e-05 -0.00010579276 0.00039876607 8.399998e-05 1.3434994e-05
1.4468384e-05 -4.413935e-05 -9.5182084e-05 0.00012572986 -5.5163066e-05 -0.00010629183 1.2590099e-05 -4.2081374e-05
-8.313383e-05 9.3083974e-05 0.00033403156 0.00011039301 1.3410651e-05 0.0002280648 1.3050691e-05 -7.8698096e-05

layer_2.bias f4 [300]
00000000: 7f55 6939 f87d 72b7 d84c 27b8 1654 95b8
00000010: 8b57 7a35 0200 0000 0300 0080 1842 9235
00000020: 0600 0000 5154 0039 cbde 1b36 0400 0000
00000030: 0a00 0000 0700 0080 7b3a 8238 7aee 0b39
00000040: 23dc ac37 9910 8f39 0600 0000 39ef 9036
00000050: 1820 17b5 0100 0000 9a4e 0736 3947 dd35
00000060: a1e4 7634 af2b a238 3872 4db5 0900 0080
00000070: bd8d 1799 1399 2cb8 218a 2cb8 0a00 0080
00000080: 88cb 02b9 d4f8 cfb6 d2d6 9535 b417 db38
00000090: 259c 68b9 8b96 ca35 0365 97b5 f5f3 063a
000000a0: 074e 9fb9 150c d99d 3c35 2839 3e34 4ab7
000000b0: 3950 b7b5 d0da 83b8 febf 9535 2ba6 f7b6
000000c0: 0400 0080 38c6 1936 b7ee 1a39 0de5 63b6
000000d0: a065 aeb5 048a 36b9 3c92 3b39 2902 aa35
000000e0: 8a70 8db7 b1a4 3936 51b4 cdb5 a026 cf33
000000f0: a99d 8d14 0edc d3b7 d585 3836 68e3 7c35
00000100: 0700 0080 0700 0080 0e01 0bb5 3064 f135
00000110: e17f 78b6 f891 990b b93f b539 0900 0000
00000120: 4b90 428c 89f2 cc28 af39 8e34 e17d 17b8
00000130: 810e 1939 0400 0000 3efe f938 1039 9e39
00000140: b660 8e39 0300 0080 deff 8d34 160f 43b8
00000150: 0400 0080 7c56 0602 cfb6 ac88 0700 0080
00000160: 0200 0000 004f a2b4 ac8e 96b5 227e bbb5
00000170: 0200 0000 a303 33b8 baf8 e4b3 6650 4fb8
00000180: 06fe 8fb6 eb69 0d2e 1484 2539 0500 0000
00000190: 8b83 89b9 0600 0080 ebc1 25b5 d6d4 2c39
000001a0: 7421 cfb4 55b7 9437 224c bb39 4a6a 9bb9
000001b0: fde8 b539 0600 0080 1312 6db5 a4cb 33b5
000001c0: bb32 b3b5 9940 eab5 1ddb e132 1166 a838
000001d0: 800c 1e35 545c 83b5 befe 04b4 0400 0000
000001e0: 73ed 19b8 0300 0000 4019 5f98 6975 5cb3
000001f0: 101b cc34 7470 ddb6 6dcb a5b9 85e6 30b8
00000200: 0100 0000 2676 a635 f92b 5db9 5705 9738
00000210: 0100 0000 7a36 48b8 0600 0080 9106 0400
00000220: 0700 0000 8886 51b8 0958 3d36 0200 0080
00000230: 6a14 5ab5 d8f8 2839 8d25 2007 6998 e3b5
00000240: 009e f835 34d6 f637 caad c2b5 dceb 43b9
00000250: ff73 9434 6015 f1b6 2aed ecb6 ecfe ee35
00000260: d1d7 4539 0100 0080 9929 aeb6 3f33 e939
00000270: e501 0080 9aff 0f39 c124 fb39 8ff7 ad38
00000280: 85e4 3939 6477 2039 0300 0080 0700 0080
00000290: 8540 38b4 b961 7b03 1b85 2c00 aa91 8bb9
000002a0: 628c 13b6 8756 ff38 4497 df35 e4a0 8db7
000002b0: f4db ba39 0e6d a4b4 ccaf a039 da62 2f39
000002c0: e81c bb39 375d f4b7 c562 8d39 977d 3139
000002d0: 16fe 05b8 01a6 8cb8 acfe 9db6 a6f4 0000
000002e0: 0600 0080 2ebe f535 6776 1db8 0c00 0000
000002f0: 405d 0d38 d0e9 24a3 2dbb 42b5 95bd a839
00000300: b89d 07b6 b1bd 98b5 91de b835 8fa9 e433
00000310: 7549 4c39 60cc a935 b899 3039 8b82 08b6
00000320: c061 d437 16f4 8736 1110 20b9 fb83 aa33
00000330: a4d4 f3b4 71e0 f935 5284 2639 095c 282e
00000340: 080a 49b5 8b2b eeb5 8d38 5bb5 c460 8635
00000350: 0200 0000 97f6 26b7 fd6d 553a 5939 16b6
00000360: 0c00 0080 233d 9ab9 8e4c 8bb9 03cf 2639
00000370: 1857 6fb9 fb62 e8b7 60e3 73b5 0300 0000
00000380: 8ee2 0cb7 5a7b 2f39 a166 26b5 34c9 5c39
00000390: c24a 4c80 ba01 0080 8d5d a2b9 0894 7b2d
000003a0: 0100 0080 3fea a3b6 b3b4 aeb3 3786 b339
000003b0: cfa3 9639 0200 0000 74ba acb9 b4ea 6db5
000003c0: 9cef cb39 5722 9c37 0100 0080 0700 0080
000003d0: 2d3f 30b5 0496 1cb8 b38f d0b5 0200 0000
000003e0: d9f1 3db8 91f3 01b8 db2b 0f35 89f6 b3b7
000003f0: 1e9a a5b9 9b25 9635 0c00 0000 0200 0000
0.00022252461 -1.4453653e-05 -3.988747e-05 -7.120536e-05 9.325965e-07 3e-45 -4e-45 1.0897083e-06
8e-45 0.00012238442 2.3226482e-06 6e-45 1.4e-44 -1e-44 6.209776e-05 0.00013344912
2.0606507e-05 0.00027287452 8e-45 4.3193836e-06 -5.6298586e-07 1e-45 2.016232e-06 1.6486512e-06
2.299371e-07 7.732899e-05 -7.653466e-07 -1.3e-44 -7.835141e-24 -4.1150557e-05 -4.1136638e-05 -1.4e-44
-0.00012473587 -6.198048e-06 1.1163886e-06 0.00010447149 -0.00022183413 1.5093987e-06 -1.1279775e-06 0.0005148047
-0.00030384978 -5.7451914e-21 0.0001604156 -1.2052302e-05 -1.365791e-06 -6.287324e-05 1.1157242e-06 -7.380518e-06
-6e-45 2.2914155e-06 0.00014775513 -3.395896e-06 -1.2993587e-06 -0.00017408287 0.00017888186 1.2666616e-06
-1.6860915e-05 2.7663011e-06 -1.5326169e-06 9.6462145e-08 1.4299548e-26 -2.5255631e-05 2.7496037e-06 9.4208235e-07
-1e-44 -1e-44 -5.178307e-07 1.7985058e-06 -3.7029315e-06 5.9153086e-32 0.00034570487 1.3e-44
-1.4988638e-31 2.2753733e-14 2.6491531e-07 -3.611844e-05 0.0001459662 6e-45 0.000119206015 0.00030178623
0.00027156406 -4e-45 2.6449464e-07 -4.6505673e-05 -6e-45 9.869585e-38 -1.0394852e-33 -1e-44
3e-45 -3.0232331e-07 -1.1217394e-06 -1.3969295e-06 3e-45 -4.2680313e-05 -1.06623204e-07 -4.9427523e-05
-4.2913043e-06 3.2153762e-11 0.00015784829 7e-45 -0.00026228683 -8e-45 -6.174948e-07 0.00016482486
-3.8581095e-07 1.7728345e-05 0.00035724143 -0.00029643095 0.000346966 -8e-45 -8.831568e-07 -6.697903e-07
-1.3351304e-06 -1.7453159e-06 2.6293089e-08 8.0298756e-05 5.8877777e-07 -9.787132e-07 -1.2386133e-07 6e-45
-3.6699184e-05 4e-45 -2.8834822e-24 -5.1329526e-08 3.8017652e-07 -6.5994045e-06 -0.00031622816 -4.2176358e-05
1e-45 1.240235e-06 -0.00021092583 7.201236e-05 1e-45 -4.773445e-05 -8e-45 3.69698e-40
1e-44 -4.9954775e-05 2.8214438e-06 -3e-45 -8.1241035e-07 0.0001611443 1.2048097e-34 -1.6957175e-06
1.8523424e-06 2.9425231e-05 -1.4504706e-06 -0.00018684514 2.7651546e-07 -7.184848e-06 -7.0609576e-06 1.7806574e-06
0.00018867782 -1e-45 -5.1904467e-06 0.00044479404 -6.8e-43 0.00013732762 0.00047901834 8.295394e-05
0.00017728105 0.00015303266 -4e-45 -1e-44 -1.7159807e-07 7.387445e-37 4.088511e-39 -0.00026620674
-2.198642e-06 0.000121754645 1.6658819e-06 -1.688343e-05 0.00035640562 -3.0626728e-07 0.00030648557 0.00016726126
0.00035688956 -2.9130473e-05 0.00026967205 0.00016926821 -3.1946307e-05 -6.706641e-05 -4.7086123e-06 8.7763e-41
-8e-45 1.8309272e-06 -3.7541988e-05 1.7e-44 3.3703865e-05 -8.9399695e-18 -7.254301e-07 0.00032184707
-2.0208372e-06 -1.138009e-06 1.3773844e-06 1.064792e-07 0.00019482321 1.2650962e-06 0.00016841933 -2.0341565e-06
2.5317888e-05 4.051729e-06 -0.00015264774 7.940249e-08 -4.5416994e-07 1.8617267e-06 0.00015880287 3.828052e-11
-7.489293e-07 -1.7745054e-06 -8.166615e-07 1.001194e-06 3e-45 -9.951785e-06 0.00081416947 -2.2385123e-06
-1.7e-44 -0.0002941872 -0.00026569184 0.00015908112 -0.00022825261 -2.7702647e-05 -9.085543e-07 4e-45
-8.397399e-06 0.00016735253 -6.1989164e-07 0.00021055789 -7.006316e-39 -6.2e-43 -0.0003096875 1.4300568e-11
-1e-45 -4.8850484e-06 -8.1353754e-08 0.00034241538 0.00028732276 3e-45 -0.00032945315 -8.863092e-07
0.000388977 1.861264e-05 -1e-45 -1e-44 -6.565704e-07 -3.733301e-05 -1.553903e-06 3e-45
-4.528635e-05 -3.0982836e-05 5.333547e-07 -2.1453265e-05 -0.0003158608 1.1186816e-06 1.7e-44 3e-45

ln2.weight f4 [300]
00000000: a884 5d3f 6682 5d3f 5582 5d3f 2381 5d3f
00000010: 2082 5d3f 9682 5d3f 8382 5d3f 8081 5d3f
00000020: 4a83 5d3f a182 5d3f 1d81 5d3f 8682 5d3f
00000030: cf82 5d3f 397f 5d3f 8c82 5d3f 9182 5d3f
00000040: 367f 5d3f 0682 5d3f 2882 5d3f 8b82 5d3f
00000050: ae81 5d3f d980 5d3f 2183 5d3f 8e82 5d3f
00000060: 2883 5d3f d881 5d3f 3d82 5d3f 3683 5d3f
00000070: 9e81 5d3f 9082 5d3f 3984 5d3f 7082 5d3f
00000080: 4782 5d3f 1583 5d3f 5182 5d3f e682 5d3f
00000090: 9182 5d3f a582 5d3f 8d82 5d3f c581 5d3f
000000a0: 9382 5d3f 5c7f 5d3f 8082 5d3f 9282 5d3f
000000b0: 6582 5d3f 4683 5d3f 8f82 5d3f a382 5d3f
000000c0: 1083 5d3f 8d82 5d3f 9782 5d3f e081 5d3f
000000d0: 9382 5d3f 9282 5d3f 5482 5d3f 6c82 5d3f
000000e0: 8d82 5d3f 7786 5d3f 9f82 5d3f 8782 5d3f
000000f0: f885 5d3f 8b82 5d3f b780 5d3f 8982 5d3f
00000100: 8d82 5d3f 0e82 5d3f ae82 5d3f f281 5d3f
00000110: f881 5d3f 0186 5d3f a382 5d3f 0d83 5d3f
00000120: 1382 5d3f 0e83 5d3f 5282 5d3f b282 5d3f
00000130: 8e82 5d3f 3482 5d3f 4682 5d3f 7a82 5d3f
00000140: 9380 5d3f 9282 5d3f 9f82 5d3f c382 5d3f
00000150: 8f82 5d3f b485 5d3f d185 5d3f b181 5d3f
00000160: 6681 5d3f 2282 5d3f 3882 5d3f 0a81 5d3f
00000170: 6883 5d3f d082 5d3f b781 5d3f cc82 5d3f
00000180: 8e82 5d3f da81 5d3f a182 5d3f f282 5d3f
00000190: 8d82 5d3f ba81 5d3f 3c82 5d3f bb82 5d3f
000001a0: a582 5d3f d982 5d3f 1382 5d3f e281 5d3f
000001b0: f280 5d3f d182 5d3f 8f82 5d3f da82 5d3f
000001c0: 4482 5d3f 4482 5d3f c481 5d3f a382 5d3f
000001d0: 8d82 5d3f 8982 5d3f 6483 5d3f 8a82 5d3f
000001e0: c882 5d3f 5381 5d3f fb83 5d3f 0383 5d3f
000001f0: de7f 5d3f b882 5d3f ce82 5d3f 9282 5d3f
00000200: 5d82 5d3f fc7f 5d3f 5881 5d3f 1e82 5d3f
00000210: b481 5d3f ae82 5d3f 6d83 5d3f b282 5d3f
00000220: fd82 5d3f 0182 5d3f a782 5d3f cf83 5d3f
00000230: 0083 5d3f 3682 5d3f 8d82 5d3f 0983 5d3f
00000240: 4c82 5d3f 8583 5d3f 3882 5d3f 8782 5d3f
00000250: 6982 5d3f 9282 5d3f 3383 5d3f 8c82 5d3f
00000260: 6c83 5d3f 6d82 5d3f 2183 5d3f c784 5d3f
00000270: cb82 5d3f 9782 5d3f de81 5d3f 2983 5d3f
00000280: 9d82 5d3f a482 5d3f 8d82 5d3f f382 5d3f
00000290: 7e82 5d3f 7e81 5d3f 8782 5d3f 8c82 5d3f
000002a0: ca7f 5d3f 2a82 5d3f 1082 5d3f 8f82 5d3f
000002b0: 4d81 5d3f ff82 5d3f a782 5d3f da81 5d3f
000002c0: 1884 5d3f 8182 5d3f 4182 5d3f 8f82 5d3f
000002d0: a181 5d3f 5983 5d3f ad81 5d3f bd82 5d3f
000002e0: 7a83 5d3f dd83 5d3f ff82 5d3f 2a81 5d3f
000002f0: d882 5d3f 0386 5d3f fe83 5d3f 7482 5d3f
00000300: 9184 5d3f 9982 5d3f c781 5d3f 8d82 5d3f
00000310: d983 5d3f 2682 5d3f 8782 5d3f 3382 5d3f
00000320: c881 5d3f ac82 5d3f 8d82 5d3f df82 5d3f
00000330: 8d82 5d3f 7d83 5d3f 8083 5d3f 1783 5d3f
00000340: 9282 5d3f cc82 5d3f 6b82 5d3f f283 5d3f
00000350: ed81 5d3f 4182 5d3f 0681 5d3f 8d82 5d3f
00000360: 4a85 5d3f 3e82 5d3f 8e82 5d3f 8c82 5d3f
00000370: 3582 5d3f 3583 5d3f 9182 5d3f 0f82 5d3f
00000380: 2c82 5d3f 4c83 5d3f ed81 5d3f ed83 5d3f
00000390: 9482 5d3f 9382 5d3f 5d81 5d3f 6d82 5d3f
000003a0: 2e82 5d3f 8e82 5d3f a482 5d3f 1382 5d3f
000003b0: 9182 5d3f 8d82 5d3f 8482 5d3f 8c82 5d3f
000003c0: a382 5d3f 5081 5d3f c882 5d3f 4982 5d3f
000003d0: b582 5d3f 8d82 5d3f be81 5d3f 8082 5d3f
000003e0: 8c82 5d3f 8e82 5d3f 9881 5d3f 1583 5d3f
000003f0: 8a82 5d3f ef81 5d3f b885 5d3f 7c83 5d3f
0.8653054 0.865271 0.86526996 0.8652517 0.8652668 0.86527383 0.8652727 0.86525726
0.86528456 0.8652745 0.86525136 0.8652729 0.86527723 0.8652225 0.86527324 0.86527354
0.86522233 0.86526525 0.8652673 0.8652732 0.86526 0.8652473 0.8652821 0.86527336
0.86528254 0.8652625 0.8652685 0.86528337 0.86525905 0.8652735 0.8652988 0.86527157
0.8652691 0.8652814 0.8652697 0.8652786 0.86527354 0.8652747 0.8652733 0.8652614
0.86527365 0.8652246 0.8652725 0.8652736 0.8652709 0.8652843 0.8652734 0.8652746
0.8652811 0.8652733 0.8652739 0.865263 0.86527365 0.8652736 0.8652699 0.86527133
0.8652733 0.865333 0.86527437 0.86527294 0.86532545 0.8652732 0.8652453 0.86527306
0.8652733 0.8652657 0.86527526 0.86526406 0.8652644 0.865326 0.8652746 0.8652809
0.865266 0.865281 0.8652698 0.8652755 0.86527336 0.865268 0.86526906 0.86527216
0.86524314 0.8652736 0.86527437 0.8652765 0.8652734 0.8653214 0.8653231 0.8652602
0.8652557 0.8652669 0.86526823 0.86525023 0.86528635 0.8652773 0.86526054 0.86527705
0.86527336 0.8652626 0.8652745 0.8652793 0.8652733 0.8652607 0.86526847 0.86527604
0.8652747 0.8652778 0.865266 0.8652631 0.8652488 0.86527735 0.8652734 0.8652779
0.86526895 0.86526895 0.8652613 0.8652746 0.8652733 0.86527306 0.8652861 0.8652731
0.8652768 0.8652546 0.8652951 0.86528033 0.86523235 0.86527586 0.8652772 0.8652736
0.86527044 0.86523414 0.8652549 0.8652667 0.86526036 0.86527526 0.86528665 0.8652755
0.86528 0.86526495 0.86527485 0.8652925 0.86528015 0.8652681 0.8652733 0.8652807
0.8652694 0.8652881 0.86526823 0.86527294 0.86527115 0.8652736 0.8652832 0.86527324
0.8652866 0.8652714 0.8652821 0.8653073 0.865277 0.8652739 0.86526287 0.8652826
0.86527425 0.86527467 0.8652733 0.8652794 0.8652724 0.86525714 0.86527294 0.86527324
0.86523116 0.8652674 0.86526585 0.8652734 0.8652542 0.8652801 0.86527485 0.8652626
0.86529684 0.8652726 0.86526877 0.8652734 0.86525923 0.86528546 0.86525995 0.86527616
0.8652874 0.8652933 0.8652801 0.86525214 0.86527777 0.8653261 0.8652953 0.8652718
0.86530405 0.865274 0.8652615 0.8652733 0.8652931 0.86526716 0.86527294 0.86526793
0.86526155 0.86527514 0.8652733 0.8652782 0.8652733 0.8652876 0.8652878 0.8652815
0.8652736 0.86527705 0.8652713 0.8652946 0.86526376 0.86526877 0.86525 0.8652733
0.8653151 0.8652686 0.86527336 0.86527324 0.86526805 0.8652833 0.86527354 0.8652658
0.8652675 0.8652847 0.86526376 0.8652943 0.8652737 0.86527365 0.8652552 0.8652714
0.86526763 0.86527336 0.86527467 0.865266 0.86527354 0.8652733 0.86527276 0.86527324
0.8652746 0.8652544 0.8652768 0.86526924 0.8652757 0.8652733 0.86526096 0.8652725
0.86527324 0.86527336 0.8652587 0.8652814 0.8652731 0.8652639 0.86532164 0.86528754
