RL/Model_Repository/pytorch_models/TD3_Guest_gp125(seed_42)_critic.pth (torch, 994447 bytes, 10 tensors)

layer_1.weight f4 [400, 7]
000000 91 a5 69 be 2f ff 1b be 89 6e 4a 3c 0b 08 dc be
       -0.22817065 -0.15234064 0.012355455 -0.42974886
000010 08 f9 19 3f 51 48 8b be 19 f7 ad be b3 37 c6 bd
       0.60145617 -0.2720361 -0.33977583 -0.096785925
000020 81 86 8f be 78 a9 ae be 97 d3 a3 3e 1a ca 1b be
       -0.28032306 -0.3411367 0.31997368 -0.15213814
000030 e8 25 81 3d a8 45 9a 3e 46 be 14 bf 56 3d 0f bf
       0.06306058 0.30131269 -0.58102834 -0.55952966
000040 65 47 bb be b4 ee 5e be b3 a9 4b 3e d0 50 df 3e
       -0.36577907 -0.21770746 0.19888954 0.43616343
000050 05 75 7e 3d 0e 91 7a be b0 76 b9 be 4f 07 bc be
       0.062123317 -0.24469396 -0.36223364 -0.36724326
000060 eb b6 85 3e cf f8 e1 be 3d cd 1a 3e b3 b1 25 bd
       0.26116118 -0.44135138 0.15117355 -0.04045267
000070 b1 70 2c bf 7d dd 1c bf f6 54 51 bf 85 17 37 be
       -0.67359453 -0.61275464 -0.81770265 -0.17880066
000080 c0 52 f8 bd 33 92 4b be 9e 6b d5 3e 08 9b 01 bf
       -0.12125158 -0.1987999 0.41683668 -0.50627184
000090 5c 55 72 be a8 fb 46 be fe 20 82 bc 92 3d 63 3e
       -0.23665375 -0.19431937 -0.015884873 0.22191456
0000a0 ef 41 69 3e 0a 37 8d 3d a7 a8 dd bd 7e fc 3d bb
       0.22779058 0.068952635 -0.108231835 -0.0028989608
0000b0 76 b8 ab 3d c8 f9 bb be 47 94 8b be ac 59 28 3d
       0.083847925 -0.36714005 -0.27261564 0.041101143
0000c0 94 61 81 be c3 de b4 be e1 1b 57 be 7d bc 95 be
       -0.2526976 -0.35326204 -0.21006729 -0.29245368
0000d0 15 24 a9 be aa 7e c6 3e d3 b2 15 be c8 20 b5 3e
       -0.3303534 0.38768512 -0.14618997 0.35376573
0000e0 78 52 ee bc 33 f1 ca be 19 93 f7 be b0 5d a1 3e
       -0.029092059 -0.39637145 -0.48354414 0.3151679
0000f0 22 e2 e6 be 43 95 4c be 64 3e a4 bd 02 e3 d1 be
       -0.450944 -0.19978814 -0.080197126 -0.40993506
000100 f7 17 d9 bd 01 50 d9 be 15 b0 d0 3e 41 f5 80 be
       -0.10600274 -0.4244385 0.4075934 -0.25187114
000110 51 81 ce 3e 85 c7 54 3e 01 5e de 3e 77 07 0c 3f
       0.40333036 0.20779236 0.43431094 0.5469889
000120 fc ba 3b 3f 61 16 d8 3d 9d ff 15 3e ba cb b3 3e
       0.7333219 0.105511434 0.1464829 0.3511637
000130 87 53 82 3e 5b 1e fd bd 5d 17 a6 be 76 ec c2 be
       0.2545435 -0.123593055 -0.324397 -0.3807103
000140 f2 60 0c be 94 29 fb be 97 c9 b1 be 40 0c f5 be
       -0.13708857 -0.4905516 -0.34724113 -0.47860909
000150 75 d1 69 be 19 fb 25 bf 7f 7d 07 bf 0a b4 e2 3e
       -0.22833808 -0.6483627 -0.52925867 0.44277984
000160 85 0c 9f 3d 59 85 79 bd 9a f5 ac bd 80 3a 2e 3e
       0.0776606 -0.060918186 -0.08445282 0.17014503
000170 a1 95 d3 3c 1d 97 8b be 83 50 c7 be 56 0a 00 3f
       0.025828185 -0.27263728 -0.38928613 0.5001577
000180 b8 84 a3 3e da ca ba be 9e 0a 2b be 80 c9 e9 bc
       0.31937194 -0.36482888 -0.16703269 -0.028538465
000190 9a d0 45 3e aa 24 83 be 5d e6 05 3f 20 82 87 bd
       0.19317856 -0.2561391 0.5230463 -0.06616616
0001a0 0e 6d 8e 3e 5a 00 36 be 75 63 b8 be 3c cf bd 3d
       0.27817577 -0.17773572 -0.3601338 0.092680424
0001b0 c3 92 a4 be b0 86 eb bd 18 e9 e6 3d a0 db 9b bd
       -0.3214322 -0.11500299 0.11274928 -0.076102495
0001c0 2a 57 04 3f 21 e2 5e 3f 1f da 1f 3f ec 87 40 3e
       0.516955 0.87063795 0.624422 0.1880185
0001d0 be 22 0e 3e 22 7b 18 3c 05 de 4a 3e f6 e9 03 3f
       0.1388044 0.009306701 0.19811256 0.5152887
0001e0 68 4f 51 3f c1 ce a6 3e d4 b4 34 3e 6d bb 17 3e
       0.8176179 0.32579616 0.17647105 0.14817591
0001f0 3b 9b 59 3e 77 3d 72 3e 67 80 b8 be ba 16 2b be
       0.21250622 0.2365626 -0.36035463 -0.16707888
000200 6c 6e 1d bf c5 88 2c 3e 24 f9 54 3e 58 d4 c6 3d
       -0.61496615 0.16849048 0.20798165 0.0970847
000210 90 e2 68 bc 26 1d 11 3e ee b5 11 3e 7f 40 9d be
       -0.014214173 0.14171275 0.14229557 -0.3071327
000220 0c 64 f8 bd 61 0a 4f 3d 0d 06 4d be 16 c1 86 3e
       -0.121284574 0.050547007 -0.2002184 0.26319188
000230 56 cd 66 be a3 f7 78 bd cb c6 4e bf ae ae 52 be
       -0.22539267 -0.06078304 -0.80772084 -0.20574448
000240 ad e5 81 be e4 37 af 3e 6e 7e 95 ba 79 1a e6 3e
       -0.2537054 0.3422233 -0.0011405477 0.44942072
000250 f7 77 01 3f d7 20 fe 3e b4 74 86 be 25 2a da be
       0.50573677 0.4963443 -0.26260912 -0.4261028
000260 5e a8 1b 3e 95 10 a2 bd a4 0f 0c be dc d3 86 be
       0.15200946 -0.07913319 -0.13677841 -0.2633351
000270 8b 73 de bc bc cd 05 be 9f 8a 90 be 73 06 45 3d
       -0.027154705 -0.13066763 -0.2823076 0.048101854
000280 c8 5a 1c bf f1 41 35 be b1 c9 44 bf 6b 73 84 be
       -0.6107602 -0.17700936 -0.76870257 -0.25869307
000290 d4 85 a4 be 11 f4 e2 bc 5d f9 cc 3c 76 ec c5 3e
       -0.32133353 -0.02770427 0.02502125 0.38656968
0002a0 ed da d1 3d 7c be d2 be 76 63 32 bf c5 8e f7 be
       0.10246835 -0.41160953 -0.69683015 -0.48351112
0002b0 85 b0 ef 3e 7f f5 c4 3d e5 db 9d 3e 0a cd ec be
       0.4681436 0.09617137 0.3083183 -0.46250182
0002c0 97 ea 43 be 02 42 21 bf d4 d2 16 bf d1 4e 12 3f
       -0.19132458 -0.62991345 -0.5891545 0.57151514
0002d0 09 ae 6e be 21 46 90 3e b9 72 2f bf 72 ed db be
       -0.23308577 0.28178504 -0.6853443 -0.42954594
0002e0 1e e4 db be 79 c2 93 3e d3 c1 dc 3c 0c 4a 1b bd
       -0.42947477 0.28859308 0.026947891 -0.037912413
0002f0 17 de 4d be 0c be 4a be 66 41 2d be bd da 8a 3e
       -0.20104252 -0.1979906 -0.16919479 0.2712001
000300 d0 d8 7c bd d0 e5 a0 bd ba 45 79 be 83 6c 5d be
       -0.061730206 -0.07856333 -0.24343005 -0.21623425
000310 0c 86 25 bf fa 65 c8 be b5 41 39 be c1 73 8d 3e
       -0.64657664 -0.39140302 -0.18091471 0.27627376
000320 f4 51 e3 3e 3a f3 ac 3e 54 92 99 3d 99 76 03 bd
       0.44398463 0.33779317 0.07498613 -0.032095525
000330 94 3f 80 be bb 96 0e be d7 c7 ec bd d5 f5 cc 3e
       -0.25048506 -0.13924687 -0.11561554 0.40031305
000340 66 9c fd 3e 94 d4 30 be 58 82 b1 be 3c a9 83 bd
       0.49533385 -0.17268592 -0.34669757 -0.06428763
000350 ab 05 af 3e f0 a8 e2 3c e8 4a 90 be 1a df 5c 3e
       0.34184012 0.027668446 -0.2818215 0.21569481
000360 bc 4c 1b be 13 88 af be bb 8d 19 bf bb 63 87 be
       -0.1516599 -0.34283504 -0.5998189 -0.26443276
000370 de 24 09 be 30 f4 0a bf ed 59 6c be a7 a3 b8 3e
       -0.1339297 -0.5427885 -0.23081179 0.36062357
000380 f9 aa 8b 3d b6 9c 92 be ca 3e a1 be e5 86 ac 3e
       0.0681972 -0.28635186 -0.31493217 0.33696666
000390 59 4a 90 3d f1 b8 ba 3d 8b 52 c3 3e c1 d9 07 bf
       0.07045431 0.09117306 0.38148913 -0.5306664
0003a0 d1 30 a2 be 56 0c 4e bf cc 30 af 3e 8a 2b 38 3e
       -0.3167787 -0.80487573 0.34216917 0.17985359
0003b0 85 70 bc bc 2f 65 28 be 2a ca 7f bd 2c f7 9e be
       -0.023002872 -0.16444848 -0.062448658 -0.31047952
0003c0 5c 84 b4 3c 51 23 11 3d 9c f9 46 bf 48 87 d9 3d
       0.02203577 0.03543407 -0.77724624 0.10621506
0003d0 78 e7 a0 be d7 0f 02 bf 04 a6 1a bf cf fe 33 3d
       -0.31426597 -0.5080542 -0.6040957 0.043944176
0003e0 4f f1 8a 3e 79 ae a9 3e bc 6d e6 be ee cc 32 3e
       0.2713723 0.33140925 -0.45005596 0.17460987
0003f0 cf 5f 31 3e 9f 97 04 3e 39 82 29 be ef 0b 8a 3d
       0.17321704 0.12948464 -0.16553582 0.067405574

layer_1.bias f4 [400]
000000 3b cb 49 be d0 7a 1c be 88 1b 94 3e ac e2 95 3e
       -0.19706433 -0.15281224 0.28927255 0.292745
000010 2e 21 c4 3e dd 72 a3 3e f6 ec 3c 3e 95 51 3c be
       0.38306564 0.3192357 0.18449768 -0.18390496
000020 28 62 c5 3e 9c 32 c6 bd 3a 3b c6 be df 34 7b 3e
       0.3855145 -0.09677622 -0.3871706 0.24531887
000030 97 71 9c 3e 32 0b 90 be a7 57 f1 bc ec 7f b9 be
       0.30555412 -0.2813354 -0.029460741 -0.3623041
000040 98 87 46 bd da 8a fe bd c7 1f 25 3e 3e 1f bc be
       -0.048469156 -0.124288276 0.16125403 -0.36742586
000050 fa ca bd 3e ad d9 a2 3c 38 cd 10 3e 42 6b 42 3e
       0.3706892 0.019879187 0.14140785 0.18986228
000060 2d 6e 43 be f1 2c eb 3c 28 31 33 3e 97 74 ba be
       -0.19084997 0.028707953 0.1749922 -0.36417076
000070 19 4c 9f be 29 b9 d1 3e 1f ca bd be bc 2a e4 3e
       -0.31112745 0.40961578 -0.3706827 0.44563854
000080 57 43 b2 be 1e 43 d2 3e 91 67 d1 bd c9 b3 79 3d
       -0.34817 0.4106683 -0.10224832 0.060962472
000090 dc b4 0a bc e1 b8 9f 3e ff 23 5d be bb 83 98 bd
       -0.008465972 0.3119574 -0.21595763 -0.074470006
0000a0 e5 5a 07 be 20 d4 22 3e 46 2e 14 be 49 06 8d 3e
       -0.13218267 0.15901232 -0.14470777 0.27543858
0000b0 97 72 93 be 0f d2 9f 3d 59 23 99 3e de 5a f6 3e
       -0.28798363 0.07803737 0.2990978 0.481162
0000c0 dc 51 9f 3d 43 bf 31 3e 20 1f 88 3e 31 3e d1 bd
       0.07779285 0.17358117 0.26586246 -0.1021694
0000d0 56 b1 7e 3d 10 2e 9e be 97 09 20 be b0 76 cb bd
       0.06218084 -0.30894518 -0.15628658 -0.09934747
0000e0 06 dd 34 be bf 4e 37 be 5d 9a af 3e 82 5e b5 bd
       -0.17662439 -0.17901133 0.34297457 -0.088559166
0000f0 2a 36 35 be b0 13 c0 3e fd 42 01 bd b9 2a 8d bd
       -0.17696443 0.3751502 -0.031558026 -0.06892914
000100 8e 65 44 bd fa d7 b5 3e a5 4d b4 3e 54 43 99 be
       -0.047948413 0.3551634 0.35215488 -0.2993418
000110 7c 6c d5 3d 43 7b 75 be 9f 6d 54 be af 0e 4a 3d
       0.104210824 -0.23972802 -0.20744942 0.04933041
000120 29 a4 57 be ad 93 e4 be c1 f2 eb bd ed 5f ae 3d
       -0.21058716 -0.44643918 -0.11520911 0.0851439
000130 5d d9 44 be 6b 17 b3 3e 4c c6 45 3c b8 75 9e 3e
       -0.19223543 0.34978804 0.012071203 0.30949187
000140 50 25 c9 be cd ea c7 3e f0 af c0 bd 54 07 49 be
       -0.3928628 0.39046326 -0.094085574 -0.19631702
000150 9a e3 5c be 36 ee 0e 3f a1 5c 4f 3c 45 5a 80 3e
       -0.21571198 0.5583223 0.012656362 0.2506887
000160 90 e8 91 be f6 12 a2 3c 56 72 b0 be b6 d7 ef 3e
       -0.28497744 0.019784432 -0.3446223 0.46844262
000170 93 96 4d 3e 2c 29 14 3e 12 4f 68 3e 1d 9a 8a be
       0.20076971 0.14468831 0.22686413 -0.27070704
000180 49 8b 25 be dc ac aa bd 32 e2 63 be 1c ea 8c be
       -0.16166414 -0.083337516 -0.22254255 -0.2752236
000190 a7 48 88 be 9f f8 80 bd b5 91 d7 be 0d 02 0f 3e
       -0.2661793 -0.06297421 -0.42103353 0.13965626
0001a0 2f 0f 54 3d 59 b3 80 3d 61 2d 08 be 4c 4c bd be
       0.051772293 0.06284208 -0.1329856 -0.36972272
0001b0 63 18 f4 3e 29 3c c3 be 49 92 36 be 82 28 e2 3e
       0.47674856 -0.38131836 -0.17829241 0.4417153
0001c0 40 2b c4 3e e8 9d 87 3d 89 87 84 3e e7 a9 11 be
       0.38314247 0.06621915 0.25884655 -0.14224969
0001d0 41 fc 44 3d 2d d2 6f be 28 37 d3 3e 92 91 32 3d
       0.04809213 -0.2342002 0.41253018 0.043595858
0001e0 4a 31 36 ba a5 59 a9 be 7d 60 42 be e8 41 98 3e
       -0.00069500937 -0.33076206 -0.1898212 0.29737782
0001f0 4f 7f 09 3e 63 f8 88 3e 47 92 f7 3d d3 d7 26 3d
       0.1342747 0.26752004 0.12088447 0.04073317
000200 c0 ed ca bd 98 27 4b be fe 6c 4d 3e a0 43 34 bd
       -0.099086285 -0.19839323 0.20061108 -0.044009805
000210 9a e3 35 3e e3 51 80 3e 17 36 f0 3e 23 52 cf 3e
       0.17762604 0.25062475 0.46916267 0.40492353
000220 fc 1e f2 3e 7f 63 a9 3e ea 16 f4 bb a5 47 26 be
       0.47289264 0.33083722 -0.0074490206 -0.16238268
000230 c6 c5 84 bd e7 c0 89 bd 65 9a 29 be 56 a2 de bb
       -0.06483035 -0.06726246 -0.16562803 -0.0067942543
000240 5b b5 c1 3d a2 7c 25 bc 8d 66 77 3d 60 f6 a1 bd
       0.09458419 -0.010100516 0.060400534 -0.079083204
000250 17 55 9c 3e b4 3e c2 bc fb 89 8c 3c e5 00 ab 3e
       0.30533668 -0.02371154 0.017155638 0.3339912
000260 11 a8 eb 3e 8b 0e b3 3e 04 c7 dd 3d d5 de 92 3e
       0.46026662 0.34972033 0.10828975 0.28685632
000270 c2 0f a7 3e eb 8b 45 3e 60 c3 ee 3c 46 0b 0f be
       0.3262921 0.19291656 0.029145896 -0.13969144
000280 de 18 1d 3d ff 6e a0 be c0 70 80 be 93 33 87 bd
       0.038353793 -0.31334683 -0.2508602 -0.06601634
000290 f1 42 da bd ab 1a e0 bd 7b ff a0 bd f5 d4 c1 3d
       -0.10657299 -0.109425865 -0.07861229 0.094644465
0002a0 96 72 b0 b9 25 bc 24 3e 5d 2c 20 3d 85 90 98 be
       -0.0003365471 0.16087396 0.039104808 -0.2979776
0002b0 9b f2 99 3e 4c b8 8a 3e a3 52 b6 be 8d 62 ff bd
       0.30067906 0.27093732 -0.35609922 -0.12469969
0002c0 d0 9c 3a 3e e3 1e 6a be b0 fb bc be 70 06 61 be
       0.18223882 -0.22863345 -0.36910772 -0.21975112
0002d0 b2 30 97 bd ba 91 a7 be 27 9a 3d 3e 90 33 b4 3d
       -0.07382335 -0.32728368 0.18515836 0.08798897
0002e0 d6 f2 14 3d ac c1 ba be bc 0a 28 3d ad e8 b2 be
       0.0363644 -0.36475885 0.041025862 -0.34943143
0002f0 33 4c 38 3d 51 4a f7 bd 12 b2 c3 3e 37 e3 33 be
       0.044994544 -0.120747216 0.38221794 -0.17567144
000300 ea ed ef 3e 88 0e a8 3e 42 83 87 be 96 2c 50 be
       0.46861202 0.32823586 -0.2646733 -0.20329508
000310 4c bc 23 be 11 69 71 be 00 8c b1 bd 29 03 5c be
       -0.15989798 -0.23575236 -0.08669281 -0.2148558
000320 69 da 25 be 45 11 c8 3e ff cf 08 bd b3 8f 05 bd
       -0.16196598 0.39075676 -0.033401486 -0.032607745
000330 54 b1 4f be ed a2 c4 3e 05 a8 b1 bc d0 13 43 bd
       -0.20282489 0.38405553 -0.021686563 -0.047626317
000340 0b 70 3d be 9d 90 00 3f 50 57 d9 3e a3 0c ed 3e
       -0.18499772 0.5022066 0.42449427 0.46298704
000350 b8 c7 b8 3d 0c ff 25 3d c2 e6 4c 3e 73 74 89 3e
       0.09022468 0.040526435 0.20009902 0.26846656
000360 8c e4 b5 b9 e8 35 d9 bb 8f 31 36 be 14 b6 a1 3e
       -0.0003469329 -0.0066287406 -0.17792343 0.31584227
000370 83 8e b4 3e 17 15 77 be 26 69 2b 3e d8 cc 16 be
       0.35264978 -0.24129139 0.1673933 -0.14726579
000380 19 fd da bd 9f a5 bd bd 1d 7a 8a 3e da c8 ad 3e
       -0.10692806 -0.09260105 0.2704629 0.339423
000390 25 0a 5e bd 5c 99 23 3e e9 6c bf be 89 52 58 bd
       -0.054208893 0.1597647 -0.3738778 -0.052813087
0003a0 20 f9 42 be bf cc be 3e 57 13 05 3e b8 f4 cb be
       -0.19040346 0.37265584 0.12995659 -0.39835143
0003b0 34 84 5c 3e 65 52 b8 be f4 e0 0e be 09 00 27 be
       0.21534806 -0.36000362 -0.13953 -0.16308607
0003c0 86 8b aa be bf 93 03 be 75 13 63 3e b2 b1 f4 bd
       -0.33309573 -0.1284933 0.22175391 -0.11947955
0003d0 91 69 8d be 20 4a 4d 3e 79 d0 76 3e 79 51 d1 be
       -0.27619603 0.20047808 0.24102964 -0.4088247
0003e0 c3 26 92 3e 99 09 44 3e 38 32 b7 3d 8e 7d 1d 3e
       0.28545198 0.19144286 0.08945125 0.15379927
0003f0 08 db 57 be 33 45 8f 3e ab 0f 97 bb fa f7 2f 3e
       -0.21079648 0.27982482 -0.004610022 0.1718444

layer_2.weight f4 [300, 400]
000000 c1 8b 6e be f6 dd 89 3c bb c1 c7 3c 62 04 ee bd
       -0.232955 0.016829472 0.02438437 -0.1162193
000010 1c 6d 6f bd f0 85 ea 3d 92 fd 34 3f e1 bb 0b 3f
       -0.058453664 0.11451328 0.7069942 0.54583555
000020 29 69 6e bd 61 b3 01 3e f0 37 a2 3e c7 70 06 3f
       -0.058205757 0.12666084 0.31683302 0.52515835
000030 92 24 05 3e 68 89 93 be db db 48 3e 1e fc f0 3c
       0.13002232 -0.2881577 0.19615118 0.029417094
000040 2d d1 9c bd be f2 37 be 58 55 b6 3c b6 0d 68 bd
       -0.076570846 -0.17963693 0.022257492 -0.0566537
000050 c5 cd 86 3d aa 18 0d 3f 34 1a c4 3d 62 3c 90 3d
       0.06582216 0.5511576 0.0957531 0.07042767
000060 f5 39 0a 3f b8 02 23 3f 55 40 0f bc b9 dd 37 3d
       0.53994685 0.63676023 -0.008743365 0.044889186
000070 ac d6 66 3e 8f 5e ee 3d 86 38 88 bc 4b b2 3c be
       0.22542828 0.11639129 -0.016628515 -0.18427388
000080 72 2d f3 3d e2 86 a6 3d a8 d8 9c 3e 88 f9 02 3e
       0.118739024 0.081311956 0.30634046 0.12790501
000090 a7 6f 8c 3d c4 63 2a 3e 98 23 2e bc 87 be 6a 3d
       0.068572335 0.1663962 -0.010628603 0.057310607
0000a0 9b 2c 87 bd 9f a5 ed 3c 93 42 b2 3d 89 22 97 3d
       -0.06600305 0.029009638 0.08704104 0.07379634
0000b0 25 b9 39 be b4 17 f3 3c a8 a6 90 3d 20 46 81 3d
       -0.18137033 0.029674388 0.07063037 0.063122034
0000c0 b1 cf 23 3d f2 fb 4c 3d fa 07 06 3e 62 f8 45 bc
       0.03999299 0.05004496 0.1308898 -0.012083145
0000d0 96 4a 3a 3e f2 6f 9e 3c 79 50 3b 3e 75 63 81 bc
       0.18192515 0.019340489 0.18292417 -0.015794495
0000e0 54 22 84 bf 88 20 79 bc 09 f4 22 3e 56 83 b3 3d
       -1.0322976 -0.01520551 0.15913405 0.08765285
0000f0 be f8 9a be 14 f5 83 3f ba 90 59 3d 5f 39 a8 3d
       -0.302679 1.0309167 0.053116538 0.08214068
000100 ef e0 c7 3d c3 72 5a 3e 2c a1 5f 3d b2 09 d9 3c
       0.097596996 0.2133284 0.054597065 0.02649388
000110 d7 79 04 3e db 51 40 3e fe 77 4a be 7b 62 13 3e
       0.12937103 0.18781225 -0.19772336 0.14393036
000120 81 b1 31 be 30 f0 a1 3e 93 4d 14 3e 8c ae 6d 3d
       -0.17352869 0.3162856 0.14482717 0.05802779
000130 dd a8 ba bc f4 7f 47 3e 24 b0 21 bf 52 49 56 be
       -0.022785598 0.19482404 -0.63159394 -0.20926407
000140 c6 60 9d 3b cd 03 81 3c 9f f0 1e 3d 8d b9 2b 3f
       0.004802796 0.015748883 0.038803693 0.67080003
000150 98 00 39 bd 14 19 fa 3d 70 cc 8d b9 d2 3e 96 bb
       -0.045166582 0.122118145 -0.00027045934 -0.0045851255
000160 e9 ef f7 bd e4 00 a1 bb e8 36 c1 bb dd 3d 94 3d
       -0.12106306 -0.0049134362 -0.005896438 0.07238362
000170 08 6b 40 3d 58 b0 20 3f 94 a5 12 3e 43 e7 ba 3d
       0.046977073 0.6276908 0.14320976 0.09126141
000180 f8 ec f9 3d d8 fa ab 3b bd 09 65 be 4d d2 cd 3e
       0.12203401 0.0052484088 -0.22366996 0.4019951
000190 ce 6a 69 3e 2c cf 52 3e 06 3d bf 3e 01 a6 15 bf
       0.22794649 0.20586842 0.37351245 -0.58456427
0001a0 4f 7b 84 3e fb 30 41 3d 0e 6a b0 be 52 22 2a 3f
       0.25875327 0.047165852 -0.34455913 0.6645862
0001b0 1c bf 86 3d f6 26 a8 3e 68 ef fb 3e 38 4c a5 3d
       0.0657942 0.32842225 0.4920609 0.08071178
0001c0 9d b7 14 bd 27 a1 0f bd dd 79 84 3e 82 4d 79 3e
       -0.03630792 -0.035065796 0.25874224 0.24345973
0001d0 11 33 bf 3c 63 15 9d bc a5 c1 d9 3c 2d 00 3c 3e
       0.02333978 -0.019175237 0.026581595 0.18359442
0001e0 29 02 ff 3c dd 82 43 3c 69 a4 0d bf b6 55 02 3d
       0.03112896 0.011933056 -0.55328995 0.03182002
0001f0 f0 be 3a 3e 30 80 bd 3c 27 af a9 be d9 5b 49 3e
       0.182369 0.023132414 -0.33141443 0.19663943
000200 71 e3 9b be 43 49 cf bc f8 0a 4d 3d 95 a2 46 bd
       -0.30446962 -0.025303489 0.05005929 -0.048494894
000210 6d 57 17 be 98 86 38 bf 5a a8 c4 3d 6c cd 03 3d
       -0.14779444 -0.72080374 0.09602423 0.032178327
000220 06 7d 8a 3d f7 d8 e6 be 21 2e 97 bd 1d 72 ae 3d
       0.067621276 -0.45087406 -0.07381845 0.08517859
000230 df 31 64 be 0c 1d a6 be a0 08 36 bc b6 27 0f be
       -0.2228465 -0.32444036 -0.011110455 -0.13979992
000240 81 e8 29 3f 3e f2 39 3e f5 7e f6 bd 80 7b 69 bb
       0.663704 0.18158814 -0.12035934 -0.003562659
000250 46 0b 3a bb 2d e9 c9 3e 67 4c e5 3e 8c 2b a1 3d
       -0.0028388067 0.39435712 0.44784853 0.07869634
000260 a0 aa b2 3d 22 ed 07 3f 97 2b 0e 3e 81 ed ac 3d
       0.087239504 0.5309621 0.13883816 0.08443738
000270 06 03 67 3d c7 11 54 3d e5 30 1c 3e d6 a5 27 3d
       0.056399368 0.051774766 0.15253027 0.040929638
000280 6a 2f e2 3c 9b 21 3d bd 42 a5 c3 be 91 7f 7f be
       0.0276105 -0.046174627 -0.3821202 -0.24951006
000290 d5 d8 01 be c3 e2 c4 3e 53 8f 54 3f 5d d5 7b be
       -0.12680371 0.38454255 0.83031195 -0.2459311
0002a0 ca bd 97 bd 9b 14 2f 3c aa 97 5a 3d 2d 62 06 3c
       -0.07409246 0.010686065 0.053367294 0.008202118
0002b0 6a cb c3 3d 02 3f 0e bc d2 e7 33 bc 69 de f6 3e
       0.095602825 -0.008682014 -0.010980563 0.4821656
0002c0 93 c7 92 3d be f9 ed 3d 7a a7 ee bc 70 31 eb 3d
       0.07166972 0.116199 -0.029132593 0.11484039
0002d0 52 55 15 3f bb c2 9e be e2 79 31 be 03 1b 39 3e
       0.58333313 -0.31007943 -0.17331651 0.1807671
0002e0 db c2 dc 3d ea e4 78 3e 5d 48 2b be 3e 88 62 bd
       0.10779353 0.24306074 -0.16726823 -0.055305712
0002f0 f4 0b 52 3d b9 e5 e0 3d 6e 15 81 bd b5 ab bf 3e
       0.05128093 0.10981316 -0.063029155 0.3743569
000300 42 4f 3e 3d f5 73 00 bd e5 ce 07 bf d8 57 15 3e
       0.046462305 -0.031360585 -0.5305007 0.14584291
000310 4c 25 81 3e 03 db 1d bd e5 61 65 bf d3 b1 47 3e
       0.25223768 -0.038538944 -0.896025 0.19501428
000320 ef 5c 44 3e 86 c8 5d 3c 19 7c 3c 3d 91 a9 3f 3f
       0.19176076 0.013536578 0.046016786 0.7486811
000330 2f 27 0c 3e 36 eb 7c 3d 92 4b 22 3f 45 dc cc be
       0.13686822 0.061747752 0.6339656 -0.40011802
000340 08 45 3b bd f1 7c bf 3d 58 67 0d 3d 11 14 cd 3d
       -0.04572013 0.093500026 0.034522384 0.10013593
000350 8f 7a 2c 3f 5b 02 d2 bd e0 7d 91 bc 55 f5 f9 3d
       0.6737451 -0.102543555 -0.017760217 0.122049965
000360 10 8c 06 be 6b a8 ac 3e e6 e9 c1 3d e0 bd 22 be
       -0.13139367 0.33722243 0.09468441 -0.15892744
000370 e8 9a d6 bd f0 aa 07 bf 18 c0 57 3e f0 71 88 be
       -0.10478765 -0.52995205 0.21069372 -0.26649427
000380 cc 10 fd 3e e1 b2 84 3e 5b 00 1f 3d 9a ed 7b 3d
       0.49426877 0.25917724 0.0388187 0.06150589
000390 22 48 80 bf ef 9a 53 3c f4 7f 13 3c 2a 99 1a 3f
       -1.0022013 0.012915357 0.009002674 0.6038996
0003a0 3a 86 25 bd 5f 50 0b 3d aa cf e8 3e c0 fe 2d bf
       -0.04041121 0.034012195 0.45470935 -0.6796684
0003b0 6f 2e 21 bf 5f 75 4f be ee 83 5b 3d 7c 22 3e 3e
       -0.6296148 -0.20259617 0.053592615 0.18567842
0003c0 a4 27 a2 3e 0e 22 a1 3c 92 94 35 be 31 af 2c 3e
       0.31670868 0.019669559 -0.17732456 0.16863705
0003d0 c8 b3 31 3c 2a 23 61 bd 76 5d 40 be 73 ee 8c bd
       0.010846086 -0.054965176 -0.18785653 -0.06881418
0003e0 00 54 56 3d e9 f5 ff 3d 86 b9 f8 3d 3d 59 ec 3d
       0.052326202 0.124980755 0.12144761 0.11540458
0003f0 54 f3 34 3e 14 96 6e 3e da 44 eb 3d ab c0 98 3d
       0.17670947 0.23299438 0.11487742 0.074586235

layer_2.bias f4 [300]
000000 9b 39 ea 3d 45 b4 07 bd a8 12 22 bc 0a 7a 1e 3d
       0.114367686 -0.033130903 -0.009892143 0.038690604
000010 89 5d 02 3e 38 58 c7 3d 35 2f ae 3c 66 fd e9 3d
       0.12730993 0.09733623 0.021262744 0.11425285
000020 68 b5 c8 bb 52 42 1b 3d cf 0e 55 3e 64 ba 01 3d
       -0.006125141 0.037905045 0.2080643 0.031671897
000030 ac cd 38 bd 3b 54 0b 3d cd 07 b9 3d b7 09 33 3d
       -0.04511802 0.034015875 0.09034691 0.043710437
000040 50 a1 ac 3b 1e 34 2d 3e ab 8f bc bc 9d ac 82 3e
       0.0052682534 0.16914412 -0.023017725 0.25522318
000050 b0 f5 58 3c f0 5f 4c bc aa b6 49 bd 4e 8a 82 3c
       0.01324217 -0.012474045 -0.049246468 0.01593509
000060 d7 ef ad bc 32 f1 cb 3c bc 4d 3c 3d 1e 6b b4 bb
       -0.021232529 0.024895284 0.04597257 -0.0055059334
000070 ac b7 70 3e d1 d0 e6 3d 97 0b 14 3d ba 8d a0 ba
       0.23507565 0.11270297 0.036143865 -0.0012249269
000080 f0 3a 29 bc 3e dd 03 3e 61 d2 b1 3c ea f1 06 3c
       -0.010328993 0.12877366 0.021706762 0.008236388
000090 28 b3 8d 3d e4 14 38 3c b5 53 64 3e 04 e7 44 3e
       0.06918937 0.011235449 0.22297557 0.1922875
0000a0 2c d1 84 bd f7 72 74 3c 26 a2 d9 3d 08 ed 98 bd
       -0.06485209 0.014919988 0.106266305 -0.07467085
0000b0 5f 13 fd 3a 6c 3a b4 3c a2 f5 b8 3d a0 1a 1e bd
       0.0019308141 0.022000514 0.09031226 -0.03859961
0000c0 30 30 7d 3c d7 40 86 bd b9 c6 d0 3d e4 cd cb 39
       0.015453383 -0.06555336 0.10194153 0.00038872578
0000d0 d5 6f 57 bc 74 7f 25 bc d1 a1 52 bd ad 51 b6 bc
       -0.013149221 -0.010101188 -0.05142385 -0.022255743
0000e0 0f 76 15 3e 69 8a 98 3d ee 40 a2 bd b9 7c 36 bd
       0.14595817 0.07448275 -0.079225406 -0.04455254
0000f0 d7 2d 68 bd 83 eb fe 3d d3 4c 7c bc 4b 4a ce bc
       -0.05668434 0.12447264 -0.015399176 -0.02518191
000100 cf e7 c3 3d 2a 19 7c 3d d6 87 23 bb bd 85 80 3d
       0.09565698 0.061547436 -0.002495279 0.062755086
000110 ab ef 71 3c c0 d4 38 bd 00 73 0c 3e 5f d8 06 3d
       0.014766614 -0.04512477 0.13715744 0.03292119
000120 a6 4b 30 bd 9f 30 e0 3c a4 48 2b bd 52 81 ea 3d
       -0.043040894 0.027366934 -0.041817322 0.11450447
000130 ce e7 fb 3d ea df f2 bc 51 04 30 3c fb 51 cf 3d
       0.123000726 -0.029647786 0.010743217 0.101230584
000140 08 33 8b 3d f2 53 47 bc fd f5 77 ba ab 24 af bc
       0.06796843 -0.01216601 -0.00094589574 -0.02137979
000150 11 ba ed bc 20 26 cb bc 73 5e 56 bd 29 8f dc 3c
       -0.029019387 -0.024798453 -0.052336168 0.026923733
000160 3f 45 01 bd 28 76 66 bd ca 9e fe 3d 29 ab a0 3c
       -0.03156018 -0.056265026 0.1243263 0.019612866
000170 d2 e6 ed bb 85 0a 25 3d 0c 1b 80 3e 50 74 09 3e
       -0.007260182 0.040293235 0.25020635 0.13423276
000180 38 b2 4b 3d ce cc b6 3d ef 28 f1 3c 03 f2 72 3c
       0.04973051 0.08925782 0.029438464 0.014828208
000190 72 8e cd bc e7 dc d4 3d 87 99 18 3d 0c 45 05 3c
       -0.025092337 0.10393696 0.03725579 0.008134138
0001a0 66 5e f0 3d 8d 61 a0 bc 82 3a ff bc cd fb 1e 3d
       0.11736755 -0.019577766 -0.031155828 0.038814355
0001b0 a0 34 07 3e 4b 83 70 3e 2d 14 57 3e 46 bc b3 3d
       0.13203669 0.23487584 0.2100379 0.08776145
0001c0 73 99 5f 3d 15 93 f7 bb 89 3a bd 3c 3d 9f 0e bd
       0.0545897 -0.0075553753 0.0230992 -0.03481983
0001d0 35 83 a6 3c 60 7d 19 bd 40 08 8c bd 16 cc af 3d
       0.020326236 -0.037473083 -0.06837511 0.08583848
0001e0 7e 9f b5 3c 81 69 ad 3d 8b 5d db bc 1c 9b 85 3c
       0.022170778 0.08467389 -0.026778003 0.016309313
0001f0 5d c8 93 bd d8 88 5b bd 53 06 88 3c 72 37 e1 3d
       -0.07215951 -0.0535973 0.016604578 0.109969035
000200 70 1d f8 3d ea 0c 08 3e 13 32 ae 3c fd fe 33 3d
       0.1211499 0.13286176 0.021264112 0.043944348
000210 65 8c 91 bc 27 7a 71 3d b4 76 6d bc 68 12 a6 bb
       -0.01776714 0.058954384 -0.014493633 -0.005068112
000220 db 1e 28 bc 33 aa a6 3d 38 06 a8 3d 98 0a 7b bc
       -0.010261263 0.08137932 0.08204311 -0.01532235
000230 23 b5 c6 bc 0a a8 5f bd f3 7e 5b bd 92 63 2d 3d
       -0.024256295 -0.054603614 -0.053587865 0.042331286
000240 ee f0 be 3c e5 28 c4 bc 22 9d a7 bb 5b f0 82 3b
       0.023308244 -0.023945281 -0.0051151672 0.0039959378
000250 a8 9d 73 3d 5d 88 79 3d a6 bc 96 3d 24 a6 6b 3d
       0.059476525 0.06092106 0.073602006 0.05753149
000260 df d5 29 3d 62 2f e5 3d a0 57 13 bd 5a 16 03 bd
       0.04146373 0.11190678 -0.035972238 -0.032003738
000270 f3 6e 67 3c 34 aa 4f bd b8 af 2d 3c b5 36 00 3e
       0.014125573 -0.050699428 0.010600977 0.12520869
000280 37 bf 1d bc 5b ef 10 bd 12 2f b4 bc f5 79 be bb
       -0.009628109 -0.035384517 -0.021995101 -0.0058128783
000290 a0 d7 81 bb b5 64 91 3d d9 2b 13 bd 17 de 05 3e
       -0.003962472 0.070992865 -0.03593049 0.13073002
0002a0 d4 cd a6 3d 59 f4 a9 3d 0c c5 6c 3e f8 51 40 bd
       0.08144727 0.08298559 0.23122042 -0.04695317
0002b0 ad 40 f7 3d 1b fd ad 3d a8 7b 36 3d b1 7f 8c 3c
       0.12072883 0.08495542 0.04455152 0.017150732
0002c0 3e 1e e9 3d dd bf 07 bd de 14 84 3c ba 92 1e bc
       0.11382721 -0.03314196 0.016123232 -0.009678537
0002d0 2d 93 10 3a c2 07 df 3c b6 6d f3 3d 8f c3 ae 3d
       0.0005515095 0.027225379 0.1188616 0.085333936
0002e0 77 2d 07 3e 00 95 86 bc 2d 90 2c 3e 60 5c 1a bd
       0.13200937 -0.01642847 0.16851874 -0.037685752
0002f0 64 63 e7 3d 4e 0c 8f 3d c7 a7 ed 3d d5 60 5a 3d
       0.11298254 0.06984769 0.116042666 0.053315002
000300 38 df f3 3c 4b 7e 69 bc 38 bd d3 3c df bf b7 3c
       0.029769525 -0.014251302 0.025847062 0.022430358
000310 c2 36 03 3e 8d b8 c0 3c 41 7f 07 3e 8c 61 a9 3d
       0.12813857 0.0235255 0.13232137 0.08270559
000320 d8 bb 8f 3d 37 92 db bc a9 68 d5 3d be e6 1f 3d
       0.0701825 -0.02680312 0.10420353 0.039038412
000330 9e 0c 04 3e 7e ff 97 bc 5d 0f 56 bd b4 84 ab 3d
       0.12895438 -0.018554445 -0.052260745 0.083749205
000340 6a 52 f4 3d 0f 2c 91 3d b8 7e 5f bc fe 20 7b bc
       0.11929782 0.07088482 -0.013641052 -0.01532769
000350 e6 78 48 bd 5f 2b bf 3d 3c 1c 30 3c d6 86 32 3d
       -0.048943423 0.09334444 0.010748919 0.04358562
000360 e7 b9 fd 3d 73 92 ac bc 2d fe 5e bd e5 33 23 bd
       0.12388974 -0.021065926 -0.05444162 -0.039844412
000370 1c d7 c0 3c e1 ea a4 bc 2d ce 3c bd a5 69 ff bb
       0.023540072 -0.02013153 -0.046095062 -0.007794576
000380 88 87 bb 3d 48 70 b1 3d 35 bc 13 3e 78 24 9b 3d
       0.0915671 0.08663994 0.14427264 0.07575315
000390 e6 65 eb 3d 29 5c a2 3a 76 3c 50 bd 19 03 d1 3d
       0.11494045 0.0012387085 -0.05083891 0.10205669
0003a0 41 94 1c 3d 7d 4c a2 3c ae 33 fa 3d c5 25 0a 3e
       0.038227323 0.019811863 0.12216888 0.1349097
0003b0 5a e8 a2 3d e1 cc fc 3d fc 35 9d 3d 3a 2a 8a bc
       0.07954474 0.12343765 0.07676312 -0.016865838
0003c0 78 d3 0c 3e 29 fe 95 bc ad ea ce 3c b1 68 d1 3d
       0.13752544 -0.01830967 0.025258387 0.102250464
0003d0 cd 33 45 bd bf ee b2 3d 5f fc 48 bd d0 c8 16 bd
       -0.048145104 0.087369435 -0.049068805 -0.036812603
0003e0 3e 60 9c 3c ba 1a 2e 3d bb 29 c8 3d f5 8d ab 3d
       0.01908886 0.042505957 0.097735845 0.083766855
0003f0 ce da 58 3d 0e 70 01 3d cf eb d9 3b 0f ba 35 3c
       0.052943043 0.031601004 0.006650425 0.011091723

layer_3.weight f4 [1, 300]
000000 ae 04 a5 3e dc 98 94 3c d4 35 3a bc a9 f6 b1 3c
       0.32230133 0.018139295 -0.011365373 0.021724062
000010 ee 9f bb 3e cb b9 b0 3e 97 42 87 bb 07 9f b1 3e
       0.36645454 0.3451675 -0.004127811 0.3469164
000020 00 66 3f 3c 82 79 2a 3c 10 e8 2a bf ba 03 21 3f
       0.011682034 0.010404946 -0.6676035 0.6289631
000030 52 79 f6 ba 4f 3a d3 bc 8f 17 b8 3e a4 25 d9 3c
       -0.0018804467 -0.02578464 0.35955474 0.026507206
000040 4c ec f4 3c c7 c8 1d bf ec b6 25 3d 9f 92 0e bf
       0.029897831 -0.61634487 0.04045765 -0.55692476
000050 35 33 ce bc d8 3e 8b 3b 76 d2 e8 3a 14 c6 05 bd
       -0.025170902 0.004249435 0.0017762918 -0.032659605
000060 54 78 3b bd 2d a1 16 bd 85 20 be 3e 44 2b a6 3b
       -0.04576905 -0.036774803 0.37134185 0.0050710756
000070 43 7f 0b bf 73 5c ba 3e 60 a5 36 3d e5 a8 52 bd
       -0.5449106 0.36398658 0.044591308 -0.0514306
000080 9f 98 20 bc 5a 47 a1 3e 0c 4e de bc 62 d2 7e bc
       -0.009802013 0.3149975 -0.027136825 -0.015553089
000090 08 9a a6 3e 45 be ed bc 82 5d 14 bf 28 4d 1a bf
       0.32539392 -0.029021392 -0.5795518 -0.6027398
0000a0 98 26 f9 bf 68 b1 66 bc 28 43 a8 3e 8e 1e f3 3c
       -1.9464903 -0.014080383 0.32863736 0.029677656
0000b0 d4 b8 36 bd 61 cf 22 bc 7d d0 b6 3e 9a dc ca ba
       -0.04460986 -0.009937138 0.3570594 -0.0015477121
0000c0 47 1a c2 bc 3b a6 11 3c 3a c3 2d 3f 19 e4 88 bc
       -0.02369417 0.00888973 0.6787602 -0.016710328
0000d0 9b ca 20 3d 81 b4 af bc 85 06 9c bb 08 83 b3 3c
       0.03925572 -0.021448376 -0.0047615194 0.021913067
0000e0 c7 8b 1e bf 75 ed ad 3e ec 20 a0 3c 41 86 47 3d
       -0.61932033 0.33970228 0.019546948 0.04871202
0000f0 fc 6a 25 bb 92 4b bd 3e ff 46 a1 bc 68 6d 66 bc
       -0.002524077 0.36971718 -0.019687174 -0.01406417
000100 71 99 b8 3e 8c fc a1 3e fe c2 77 bb 79 db a4 3e
       0.36054567 0.3163799 -0.0037805433 0.32198694
000110 8b d8 2b bb f4 7d ad 3c b6 19 a7 3e 75 c4 26 bc
       -0.00262216 0.021178223 0.32636803 -0.010178675
000120 2b b7 e3 3b 67 a0 b1 3e ba 24 33 bc 35 4c b1 3e
       0.0069493256 0.3469269 -0.010934049 0.34628454
000130 f5 e1 a8 3e 56 7f 01 3d a7 23 41 bd f5 94 a5 3e
       0.32984892 0.031615578 -0.04715314 0.32340208
000140 ab 35 c1 3e 12 38 05 bd 83 2e eb 3c 79 c8 3f bc
       0.37736258 -0.032524176 0.028708702 -0.011705511
000150 b5 54 22 bd 81 4e 1e 3c 55 ac 93 bb 42 0b b8 3e
       -0.039631564 0.0096622715 -0.0045066276 0.3594609
000160 84 93 26 3c 0b c7 84 bc cf 48 b4 3e d6 55 e9 bc
       0.010167006 -0.016208192 0.352118 -0.028483313
000170 73 3b bb 3b de 1a f6 3e e6 4e 1d bf 67 96 b7 3e
       0.005713874 0.48067373 -0.61448514 0.35856935
000180 ac 50 c3 3e 4b 59 50 3f b3 86 1b bc 89 41 71 3b
       0.38147485 0.8138625 -0.009492564 0.0036812744
000190 2a ca 45 bc 9f ef bd 3e 65 ff 3b bd 3b fe c1 3e
       -0.012072125 0.3709688 -0.04589786 0.37889275
0001a0 b4 b2 a6 3e 6b 46 1f bc 79 90 2a 3b 12 43 cc bc
       0.32558215 -0.009721379 0.0026026054 -0.024934325
0001b0 eb 1a ac 3e a1 1c 15 bf 04 7c 1d bf b1 8e cb 3e
       0.33614287 -0.5824681 -0.6151736 0.39757302
0001c0 76 22 af 3e 2a 03 0b bd 66 5e fa bc da 41 37 bd
       0.3420598 -0.033938564 -0.03056259 -0.044740535
0001d0 0f f7 bd 3e 0c 95 81 3c be 80 6a 3c 79 37 c2 3e
       0.37102553 0.015818141 0.014312921 0.37932947
0001e0 ea d9 62 bc 4b 12 b9 3e 47 9b e3 bc 8e b3 c3 3e
       -0.0138459 0.3614677 -0.027784003 0.38222927
0001f0 8c 40 c6 3c 15 27 0b 3c 52 84 be b9 bb 4a cf 3d
       0.0242007 0.008493205 -0.0003633821 0.101216756
000200 91 a0 b9 3e f8 5c a7 3e 92 bf b1 b9 74 98 be 3e
       0.36255315 0.32688117 -0.00033902802 0.37225688
000210 ab e3 b0 3c a2 76 08 3f 3a 08 13 bc 70 36 2b 3c
       0.021592936 0.5330602 -0.008974129 0.010449991
000220 52 29 d1 bc 40 fb ab be a7 cc b5 3e c5 8e ee 3b
       -0.025532398 -0.33590126 0.355077 0.007280203
000230 46 c4 21 3d f5 85 b0 bc fd 93 0f 3c 1a 7b b5 3e
       0.03949382 -0.02154825 0.0087633105 0.35445482
000240 2c 77 3a bd b4 e5 3d 3d 11 52 1c bc 0a 1d a3 39
       -0.045523807 0.04636164 -0.0095410505 0.00031111419
000250 b9 3d bf 3e 04 79 fc 3e 9b 10 c2 3e c3 b9 b7 3e
       0.37351778 0.49311078 0.37903294 0.35883912
000260 5c 10 34 bb 0a a9 be 3e dc c4 82 3b 0d 26 23 bc
       -0.0027475571 0.37238342 0.0039907526 -0.0099578025
000270 0a 1d f7 3c 5e f2 b9 3a 56 60 07 bd cf f3 b0 3e
       0.030165214 0.0014186611 -0.033050857 0.3456101
000280 cf a5 ac bb 21 5e 43 bd 53 6e cd bc 1a 72 c2 bc
       -0.0052687894 -0.04769719 -0.02507702 -0.023736048
000290 bb 75 cd 3c f5 d9 ad 3e a7 f8 5a 3c 5f dc a8 3e
       0.025080552 0.3395535 0.013364947 0.3298063
0002a0 1a e2 ae 3e c3 b8 9f 3e da 09 16 bf 6a cf e1 bf
       0.34156877 0.3119565 -0.5860878 -1.7641423
0002b0 e2 da a8 3e 03 76 b3 3e b4 a3 b2 3e c1 6a 53 bc
       0.32979494 0.35050973 0.3489052 -0.01290387
0002c0 7c 15 bb 3e 83 7a c0 bc ca ea a2 bc 0a 76 5c bb
       0.3653983 -0.023495918 -0.019887347 -0.0033639693
0002d0 7e d4 d6 3b cd 2d e7 bc 91 9b a1 3e 86 3e a6 3e
       0.0065560928 -0.028220082 0.31564 0.32469577
0002e0 95 dd b6 3e b5 b0 6b bb 4e af 22 bf 4f 77 8d 39
       0.3571593 -0.003596348 -0.63548744 0.00026982508
0002f0 27 03 ac 3e 39 56 b2 3e b9 66 a8 3e 4a 1a ab 3e
       0.33596155 0.34831408 0.3289087 0.33418494
000300 8e 9c 80 3e 0c d5 3c bd de d1 04 3f 2a e3 5e 3c
       0.25119442 -0.046101615 0.5188273 0.013603965
000310 80 05 42 bf 46 f6 5a bc 22 9e b8 3e 3c 43 ba 3e
       -0.7578964 -0.01336438 0.36058146 0.3637942
000320 f3 37 a5 3e 6e 24 b9 bc 66 1c ad 3e 18 e5 bc ba
       0.32269248 -0.022600379 0.3381073 -0.0014411537
000330 b5 e8 c0 3e 30 4c 74 3c f0 60 48 3d 0c 8a aa 3e
       0.3767754 0.014910743 0.04892057 0.33308446
000340 43 9b cc 3e 2c 37 a3 3e 76 e5 0f bc 93 16 8a bb
       0.39962205 0.3187803 -0.008782735 -0.004214117
000350 85 dc 69 bc 84 e1 c1 3e 21 3a 3c bd 95 02 bf 3e
       -0.014273767 0.37867367 -0.045953874 0.37306657
000360 4b ab b4 3e 72 f7 1b 3d f4 2b 23 3c f2 3b e2 bc
       0.35286936 0.03807778 0.00995921 -0.027616475
000370 3b bf b0 bc 12 d8 27 bd 64 19 07 bd 3a aa 02 3d
       -0.02157556 -0.040977545 -0.0329832 0.031900622
000380 c8 47 a6 3e 0f dd c4 3e 8a cd 23 bf 7c 6d b7 3e
       0.3247664 0.38449904 -0.639855 0.35825717
000390 5b 87 a6 3e 20 93 35 bb 92 30 e3 bb 90 03 dd 3e
       0.32525143 -0.0027706102 -0.0069332803 0.4316678
0003a0 49 05 f3 bc d3 ae 98 bc bc 4d c1 3e 02 8b b1 3e
       -0.029665606 -0.01863805 0.3775462 0.34676367
0003b0 ee e5 a6 3e 11 4b ad 3e 7a 9f a6 3e e3 26 48 3c
       0.32597297 0.33846334 0.32543546 0.012216303
0003c0 0f 2d b8 3e 9c 60 ca bc 92 c7 18 bd 07 90 bc 3e
       0.35971877 -0.02470427 -0.0372997 0.36828634
0003d0 d8 16 90 bc 61 f6 a4 3e 0b bf d4 3c c0 c5 64 3d
       -0.017589018 0.32219222 0.025970003 0.05585265
0003e0 01 02 d8 3c c7 ea d7 3e 7b 88 d1 3e 9b ee c1 3e
       0.026368143 0.42171308 0.4092444 0.37877354
0003f0 07 1e a2 3e b3 45 0b 3f 31 81 19 3f 27 16 63 bc
       0.31663534 0.5440323 0.59962755 -0.013860262

layer_4.weight f4 [400, 7]
000000 e4 22 c3 be 83 56 ce bd 68 41 c3 be b4 26 91 3e
       -0.38112557 -0.100750946 -0.38135839 0.2834984
000010 4d 8c 1e be 57 48 59 3e 59 a1 54 3d dd 76 9d be
       -0.15483208 0.21219002 0.051911686 -0.30754748
000020 de 78 61 be cd 98 12 3e 48 25 95 be 12 9a e8 3e
       -0.22018763 0.14316101 -0.29130006 0.45430046
000030 fe b9 b9 bc 68 74 0a bf d9 ef 9a 3e ca aa 0b be
       -0.022671696 -0.5408387 0.30261114 -0.1363937
000040 12 b7 46 3e 94 a5 ae be 91 a1 37 be 48 7c 3a 3d
       0.19405773 -0.341107 -0.17932726 0.04552868
000050 d4 a4 d8 bd 5f c2 09 be 93 00 88 3e bc 31 1b 3e
       -0.105783135 -0.13453053 0.26562938 0.15155691
000060 54 96 78 be 3b 0d a8 3b 42 e7 b0 be e5 12 d0 bd
       -0.24276096 0.0051285303 -0.34551436 -0.10159854
000070 7a 3c 04 bf 51 5e 0a be 2f 61 c3 be 55 c1 84 3e
       -0.5165478 -0.13512541 -0.38160083 0.2592875
000080 5f 09 5c be fb 14 fb 3e cf d6 dc bd b9 3f 57 3e
       -0.2148795 0.49039444 -0.10783159 0.21020402
000090 83 3e 10 3f 60 18 0b 3f 3e c9 d2 3e c5 5a e7 3e
       0.56345385 0.5433407 0.4116916 0.4518644
0000a0 bd 95 73 be ef e4 b2 3d bf 9d 4f bf c2 fc 46 be
       -0.2378759 0.08735072 -0.81100076 -0.19432357
0000b0 e4 27 cd be 34 2d d6 bd a0 93 8d 3d e8 3f ab 3d
       -0.40069497 -0.104578406 0.06912923 0.083617985
0000c0 75 fb 3e be 50 60 0d bf 99 41 b6 be ba 43 bb be
       -0.1865061 -0.55225086 -0.35596922 -0.3657511
0000d0 a4 94 22 3e dd 02 86 be 60 ba a6 be 4a 4e ac 3e
       0.15877014 -0.2617406 -0.32564068 0.3365348
0000e0 96 1f 12 3f e3 3f 3e 3e af ea 2b 3f 99 69 87 3e
       0.57079446 0.18579058 0.67154974 0.26447752
0000f0 05 66 63 3e e9 f2 b1 be 7b 4d 20 3e 07 49 67 be
       0.22206886 -0.34755638 0.15654556 -0.22586451
000100 b9 59 1f bf 1d b4 5b bf 22 4c b1 3e 00 ec 93 3b
       -0.6224628 -0.85821706 0.34628397 0.0045142174
000110 de d0 d1 3e 80 c7 fc bd 96 fd 26 be a2 07 fe be
       0.40979666 -0.12342739 -0.16307673 -0.49615198
000120 a3 37 e0 be 28 98 f8 3e 06 ad 24 be 5b d0 1e bd
       -0.43792447 0.48553586 -0.16081628 -0.038772922
000130 e9 19 90 3d 6a ba 53 3e 50 b3 5e 3d ee ab bd be
       0.07036192 0.2067658 0.054370224 -0.37045234
000140 ca 43 98 be e0 24 c8 bc 5f 7f 9b be fb 3e 64 be
       -0.2973922 -0.024431646 -0.30370614 -0.2228965
000150 23 e4 f7 be b4 d6 6e be 0a 3a 95 bd 71 50 c3 3e
       -0.48416242 -0.2332409 -0.07286461 0.3814731
000160 48 9f 96 be 2e 42 b1 3e 5a 71 0d 3e a3 1d 02 bf
       -0.29418397 0.34620804 0.13812771 -0.5082647
000170 b3 9d 43 be ca 33 2c bf 4b b3 13 3d a3 f5 92 3e
       -0.19103126 -0.67266524 0.03605966 0.2870303
000180 6a 8e d9 3e f3 07 29 be 11 9c 5c bf f3 fe a6 be
       0.42491466 -0.16506939 -0.8617564 -0.32616386
000190 70 3e 57 be 22 e2 58 be eb 18 be be 50 73 05 be
       -0.21019912 -0.21180013 -0.37128386 -0.1303227
0001a0 10 bf e0 3e a7 ac 0b bf c5 de 6c bf b6 ce 85 bf
       0.4389577 -0.5456032 -0.9252742 -1.0453708
0001b0 f6 78 9b 3d 61 69 09 bf 72 4e 57 3e b9 97 33 3e
       0.07591431 -0.5367642 0.21026018 0.17538346
0001c0 11 cc d9 3e 54 0f 86 bd d1 c5 fb 3e d5 f8 c5 3e
       0.42538503 -0.06545892 0.4917436 0.38666406
0001d0 18 eb 80 be bf c6 1c be f4 f9 04 3e dc 16 b1 bd
       -0.25179362 -0.1531019 0.12985975 -0.08646938
0001e0 6a be b7 be 96 ad a9 3d 1e 4b aa 3e 31 a3 91 3e
       -0.35887462 0.08285062 0.33260435 0.28444818
0001f0 a8 9e 9e bc 41 60 59 3e 94 8d 01 be 10 1d 46 3d
       -0.019362763 0.21228124 -0.12651664 0.04836756
000200 c0 f3 fc bd 0f 59 50 be 61 17 ad be 00 54 7c 3a
       -0.12351179 -0.20346473 -0.338069 0.0009625554
000210 f0 f3 88 be 01 93 e6 be 01 43 fe be 8e bb e5 3d
       -0.2674861 -0.4503403 -0.49660495 0.11217414
000220 64 6c 8a bc 86 b5 2a bf 13 24 07 3f 13 a9 05 3f
       -0.016897388 -0.6668323 0.5278942 0.5221111
000230 aa 43 0a bd 9a 89 c5 be 7a e1 ae bc 08 d0 53 3e
       -0.033755936 -0.38581544 -0.02134775 0.20684826
000240 04 3f 15 3f f9 09 f1 be 3a 01 af 3e 24 a5 ca be
       0.5829928 -0.4707792 0.34180623 -0.39579117
000250 b0 45 a6 be 50 52 1d be b6 6c cd 3e d2 b2 af bd
       -0.32475042 -0.15363431 0.40122002 -0.08579029
000260 9f cc 97 3d 9c 04 ff 3d 6c 3e 07 3f 45 a5 5e 3e
       0.07412075 0.12452051 0.52829623 0.21742733
000270 0b fc c8 3e 7d 94 c0 bd cd 72 9d 3e 01 01 38 3d
       0.39254794 -0.09403322 0.3075165 0.044922832
000280 ff d8 09 3e c2 8d de be af 1c cb 3d de d9 8b 3d
       0.13461684 -0.43467528 0.0991758 0.06828664
000290 9c ab 9b be f1 37 e7 be 86 e2 a3 be ae ed f8 be
       -0.30404365 -0.45159867 -0.3200876 -0.48618835
0002a0 f5 a1 87 be da 43 a3 be 7a 15 3c bf 99 fa 17 3e
       -0.2649075 -0.31887704 -0.7347027 0.14841689
0002b0 b5 d6 63 be c8 d9 8b 3e 79 0c 35 be 8c 9e 0b 3f
       -0.22249873 0.2731459 -0.17680539 0.545388
0002c0 57 a0 0c 3f 41 08 12 3f ce 20 08 3f 50 f6 e7 3c
       0.5493216 0.57043844 0.53175056 0.028315693
0002d0 23 fc 94 be 43 a6 99 be 4d b6 7e be 15 4c cb be
       -0.29098615 -0.3000966 -0.2487423 -0.39706483
0002e0 53 b7 38 bf e6 75 f1 be e0 d4 1b 3f 52 43 b2 be
       -0.7215473 -0.47160262 0.60871696 -0.34816986
0002f0 79 00 9b 3e 80 15 16 bf 7c 63 93 be 58 48 e0 be
       0.30273798 -0.58626556 -0.28786838 -0.43805194
000300 18 4e 53 bf 4f 82 ca 3e 6a 29 e2 3c e4 ac 4d be
       -0.82541037 0.39552543 0.027607638 -0.20085484
000310 4c e8 f9 be 17 84 42 bf 7c 69 d0 be ac 74 9f bd
       -0.4881004 -0.75982803 -0.40705478 -0.07785925
000320 a1 64 2e 3e 62 9a 43 3e 75 31 04 bd 70 c5 bd be
       0.17030574 0.19101861 -0.03227373 -0.37064695
000330 30 3f af be f1 6a 52 3e a3 52 c2 3d 2f e5 d9 bd
       -0.34227896 0.20548607 0.09488418 -0.106394164
000340 3e 51 07 bf 20 b3 82 be 5f 44 24 be b5 5c b6 be
       -0.5285834 -0.25527287 -0.16041707 -0.35617605
000350 6f 57 ee be 45 b1 86 be 67 c2 1d 3f 7c b4 21 be
       -0.46551082 -0.2630712 0.6162476 -0.15791506
000360 ee eb cb be 78 d5 4e be 9b 9e e0 be c8 ea 5d be
       -0.39828438 -0.2019862 -0.43871006 -0.21671593
000370 f7 86 89 3e 09 0c 85 3e 22 ef 68 3d b1 c8 2d 3e
       0.26860783 0.25985745 0.05686868 0.16971089
000380 66 4c 44 bf 1d 2e 7a be c3 25 9f be 2f 99 bb 3c
       -0.76679075 -0.24431653 -0.31083497 0.022900192
000390 2d 4e 0d 3f 5c fd 91 be 6f 37 c8 be 2e b0 22 be
       0.5519741 -0.2851361 -0.39104792 -0.1588752
0003a0 ec 7b 10 bf 77 db 18 bf a4 8f 56 3d b4 a3 9b 3e
       -0.5643909 -0.59709877 0.05238308 0.30398333
0003b0 a3 cd 9f 3e ab 46 91 3e 63 1d 04 bf 5f 11 f3 be
       0.31211576 0.28374228 -0.5160734 -0.4747419
0003c0 bb 91 e4 be 17 b6 11 bf e8 71 05 3f 97 b8 7c bd
       -0.44642434 -0.5691847 0.5212693 -0.061699476
0003d0 0c 32 80 3e 52 08 73 3e 12 ed ac be a3 65 53 be
       0.25038183 0.23733643 -0.3377462 -0.2064424
0003e0 d8 0f bc be 34 34 dc bd d1 cd 6c be 3e b2 46 3e
       -0.36730838 -0.107521445 -0.23125388 0.19403931
0003f0 15 03 be be 19 5d 9a 3e 1e a5 02 3e ca da 62 3e
       -0.37111726 0.30149153 0.127583 0.22153774

layer_4.bias f4 [400]
000000 53 07 5a 3d 44 5b b4 bd 8c 2a a6 be 80 e8 92 be
       0.05322964 -0.0880647 -0.32454336 -0.28693008
000010 18 3d 31 3c 0a 14 90 be b4 45 e7 3e 97 e5 89 3e
       0.010817789 -0.2814029 0.45170367 0.26932976
000020 ff 5e 85 be b8 e0 c4 be 36 99 2f 3e 4c 42 a3 bd
       -0.2604904 -0.38452697 0.17148289 -0.079716295
000030 25 1c 8f bc 70 98 58 3e d6 67 a7 3e 57 aa bc 3e
       -0.017469475 0.211519 0.32696408 0.3684871
000040 ff 64 85 3d 88 8b 4c be f0 90 f8 bd e3 fc 22 be
       0.06513404 -0.19975102 -0.1213702 -0.15916781
000050 2a 31 8d be b5 95 e6 bb d5 2e c2 3d e5 de d7 3e
       -0.27576572 -0.0070368894 0.09481589 0.42162243
000060 b1 f4 88 3e 99 c2 01 bf 71 34 a4 bc 5a 83 1f 3e
       0.26749185 -0.5068756 -0.020044537 0.1557745
000070 25 2f 97 3e 0c 49 44 3e 0b b9 43 3e 4a 29 28 3e
       0.29528156 0.1916849 0.19113557 0.16422
000080 93 0d 3d 3e 76 fe 80 3e c9 01 1f 3c e4 83 8f bd
       0.1846221 0.25194138 0.009705015 -0.07007578
000090 83 cc bd be 47 cb 0b 3e d0 d6 86 be 35 88 c0 be
       -0.37070093 0.13651763 -0.26335764 -0.37603918
0000a0 74 c8 3f be a9 1e 00 3e b4 63 d0 3e 0d 4b 85 be
       -0.1872881 0.12511696 0.40701067 -0.26033822
0000b0 2e 6a 9f 3e fe 94 77 3e b1 57 9c be 50 1d 9d bd
       0.31135696 0.2417793 -0.30535653 -0.076716065
0000c0 08 9d af be dc 63 37 3e d1 60 dd bd 23 5e c1 be
       -0.34299493 0.17909187 -0.10809482 -0.37767133
0000d0 9f 15 08 3d 24 7c 6e be 27 b7 6c 3c 3c 41 21 3e
       0.033223744 -0.23289543 0.014447964 0.15747541
0000e0 5f fd 8d be 84 a4 68 be ed 34 af be a4 0e c3 3e
       -0.2773237 -0.22719008 -0.34220067 0.38097107
0000f0 a9 10 64 bd 2a 67 cc bd 36 76 5e be 6a af af 3e
       -0.05567995 -0.099806145 -0.21724781 0.34313518
000100 15 e4 97 3e 1e 69 7c 3e 94 5c 54 3e da 3e 81 3b
       0.296662 0.24649474 0.20738441 0.00394426
000110 6c 2b 5c 3e ca 29 c1 3e 9b 0a 2a 3d c6 7e f4 3e
       0.21500939 0.37727195 0.04151402 0.4775297
000120 f1 8d 12 3e 2d b6 2a 3e 66 26 2c be 80 9e 8b be
       0.14311959 0.16671057 -0.16811523 -0.27269363
000130 e5 3e ba be 38 6a 26 be 2d db 02 3f 61 31 82 bd
       -0.3637611 -0.16251457 0.51115686 -0.063570745
000140 3b bd d9 3e 59 f1 a3 bd f7 47 86 bb 5f 20 5d 3d
       0.42527184 -0.08005018 -0.0040979343 0.05398595
000150 d2 18 03 be 6c 34 4e 3e c6 a9 3f bd 7d cf eb 3d
       -0.12802437 0.20137185 -0.046792768 0.115141846
000160 7c de b9 be 83 2c 01 3d 67 6c 96 3e b8 d5 3f be
       -0.36302555 0.03153659 0.2937958 -0.18733871
000170 3c 17 bc bd 58 ab c5 be 21 9a f3 3c db 28 1e 3d
       -0.09184119 -0.38607287 0.02973658 0.03861318
000180 23 d3 b1 3d 26 81 b5 be 42 1e 97 be 43 e3 1c be
       0.08682849 -0.35450095 -0.29515272 -0.15321068
000190 cd 03 9e 3c d7 85 6e be 89 cd a6 3e 0f 8d 9d be
       0.019288922 -0.23293243 0.32578686 -0.30771682
0001a0 2b c5 3b 3e 74 c2 c1 3e ed a1 b8 3e 35 bf ca bd
       0.18336932 0.37843668 0.3606104 -0.09899751
0001b0 c1 85 13 3e 1b 82 87 be 6f 44 a6 bd 26 f9 a7 be
       0.14406492 -0.2646645 -0.081185214 -0.32807273
0001c0 c5 16 99 3e 5c 15 81 be b1 05 14 be 78 49 99 bd
       0.29900184 -0.25211608 -0.14455296 -0.07484716
0001d0 54 86 a3 bd 21 8a 40 3e 3c f5 1d 3e 38 49 de bd
       -0.079846054 0.18802692 0.1542558 -0.10853809
0001e0 aa b3 6e 3e 07 3d 94 3c c3 6e f2 3e e8 22 55 be
       0.23310724 0.018095506 0.4735013 -0.20814097
0001f0 a4 9f 9c 3e 03 fd 9d 3d d0 30 76 3e aa 67 a4 3e
       0.30590546 0.07714274 0.24042058 0.3211034
000200 89 73 08 be 0b 30 07 3e c5 5e 86 3d 55 8f 98 3e
       -0.13325323 0.1320192 0.065610446 0.29796854
000210 c4 6f 68 be f2 53 e9 3d b2 8e 19 3e ea 66 00 be
       -0.22698885 0.113929644 0.1499584 -0.12539259
000220 ae 6c 92 3e 21 2e 0c 3e ff fa b2 be da 94 bd be
       0.2859854 0.13689472 -0.3495712 -0.37027627
000230 ac 8b e8 bd b4 32 98 3e 55 a2 b5 bd 26 5c 09 3e
       -0.11354765 0.29726183 -0.08868853 0.13414058
000240 59 ec 90 3e e4 a8 34 bd ec dc d3 3e dd 91 bb be
       0.2830532 -0.04410638 0.41379488 -0.36634722
000250 3c e3 ee 3e 68 94 a5 be fa 07 f2 bd bf f8 af 3e
       0.4665774 -0.32339787 -0.11817928 0.34369466
000260 70 70 99 ba 7b 2b a7 be dd df f9 3d 55 58 a0 bc
       -0.0011706483 -0.3265036 0.12200902 -0.01957337
000270 a4 23 63 3e a4 5f b7 bc 6c df e4 3d 59 08 49 bd
       0.22181565 -0.022384472 0.11175427 -0.049080227
000280 46 6b 27 be 7c 23 8b 3e a0 b1 31 be 79 95 7b 3e
       -0.16349515 0.2717551 -0.17352915 0.24568738
000290 73 52 43 3e 90 91 ac be f7 60 ad 3e dc 94 72 be
       0.1907442 -0.33704805 0.3386304 -0.23689598
0002a0 f8 84 8c 3d 3a 2c 46 3e aa 3f 7b 3e fb ce ba 3e
       0.06861299 0.19352809 0.24536005 0.3648604
0002b0 e1 22 7b 3c de a4 0a 3e ab b3 04 3f 51 09 59 be
       0.01532814 0.13539454 0.5183665 -0.2119496
0002c0 cb 4e 49 3d 40 20 13 be 6c a8 84 3d 9f a5 60 3c
       0.04914741 -0.14367771 0.064774364 0.013711362
0002d0 7c cf 64 3c 15 b2 aa 3e 62 6f 8a 3e 4a 51 bc be
       0.013965484 0.3333899 0.27038103 -0.3678077
0002e0 7c a5 4c 3e f9 27 69 3e ab 9a ac be 8e f9 08 be
       0.19985002 0.22769155 -0.33711752 -0.13376448
0002f0 13 75 93 3e dd cf 62 3e 94 56 a6 3e 9d ff 58 3e
       0.28800258 0.22149606 0.3248793 0.21191259
000300 1f b8 09 3e 80 5b 4f 3e 8a 09 80 be 7d 39 08 bd
       0.13449143 0.20249748 -0.25007278 -0.03325795
000310 ba 7f 92 3c 39 eb 2a bd 37 af 6e bd fd 5f 09 bd
       0.01788317 -0.041728232 -0.058272567 -0.033538807
000320 ad 2f 61 3e 0b 88 8f be 60 77 9e be 7e 24 c2 3e
       0.21990843 -0.2803348 -0.3095045 0.37918466
000330 db 2a 7b 3c a0 59 9d 3e 6a ca 93 3e 63 3b b1 3e
       0.015330042 0.3073244 0.28865367 0.3461562
000340 04 3c 0f 3e d5 c9 99 3e 99 30 ae 3e 44 c6 a3 bd
       0.13987738 0.30036798 0.34021452 -0.079968005
000350 cc 8c b8 be 6d d5 bb be 8c 93 b1 bd 60 e8 bf 3b
       -0.3604492 -0.36686268 -0.086707205 0.0058565587
000360 b7 10 fd 3e 3b 6c 2e 3d d6 8d c0 bd 4c 99 ae 3c
       0.49426815 0.042583685 -0.09402053 0.021313332
000370 65 b6 3d 3e a0 df c0 be 97 ea a9 3e 7c 29 a8 3e
       0.18526609 -0.37670612 0.3318679 0.3284415
000380 6f ae 86 bd a5 55 8c 3e 71 52 38 3e c4 83 d2 be
       -0.06576239 0.27409092 0.18000199 -0.41116154
000390 23 2f 7b be 47 ce d8 bd cf 64 89 3e 90 0a b1 3e
       -0.245297 -0.10586219 0.26834723 0.3457837
0003a0 e9 e6 c9 be 21 3e a3 3c 3e c0 1a 3e cf 70 5c 3e
       -0.39433983 0.019927086 0.15112397 0.21527408
0003b0 6d 4a a3 be c6 35 8b be 00 f3 b1 bd d2 14 a8 3a
       -0.3189272 -0.27189463 -0.08688927 0.0012823588
0003c0 b4 c2 8e be ce b6 21 3e 3c 32 b2 bd e2 37 f1 3e
       -0.27882922 0.1579239 -0.08700988 0.47112948
0003d0 92 8d 4e be 16 32 56 3e 29 68 38 3e ae 02 76 3e
       -0.20171192 0.20917544 0.18008484 0.2402446
0003e0 7a b8 69 bc 57 ca 1b 3d a8 e6 2e be 14 f7 2a 3e
       -0.014265174 0.038034763 -0.17080176 0.16695815
0003f0 ae c4 9f be ad 9c 1a 3d a2 5c 2a be 8e e6 29 be
       -0.31204742 0.037747074 -0.16636899 -0.16591856
