RL/Model_Repository/pytorch_models/TD3_Guest_pool_actor.pth (torch, 516991 bytes, 9 tensors)

layer_1.weight f4 [400, 15]
000000 db 5d ad 3d 22 61 ce 3d c3 58 26 b1 77 8b fb 3d
       0.08465167 0.1007712 -2.4206634e-09 0.1228246
000010 bf 80 cb af b3 f7 94 af 3c 61 aa bc 4f f0 2d 3d
       -3.7016964e-10 -2.7097044e-10 -0.020798318 0.042465504
000020 f5 97 e8 3d 47 ed 9d bd 3f 4c e2 3d 13 92 96 af
       0.113571085 -0.07711273 0.11049699 -2.7388633e-10
000030 9b 81 a0 3d 3a 6e b1 35 ea 22 a3 3c 50 3d 96 13
       0.0783722 1.3219608e-06 0.01991411 3.7925782e-27
000040 d6 8c b0 3d c3 65 e6 14 c3 93 8a bc 3d 98 1d 34
       0.08620612 2.3264203e-26 -0.016916161 1.4677148e-07
000050 45 3d 81 bc 2b 0e 03 12 db 8e e0 bb d5 a0 76 3d
       -0.015776286 4.1353775e-28 -0.006852967 0.060211975
000060 f0 d7 b9 bd 84 a7 81 bc c4 4d 1d b7 b0 0f 3b bd
       -0.0907439 -0.015826948 -9.376035e-06 -0.045669258
000070 89 69 ee 97 3e 85 0f be 4c 9c f3 3d 13 42 d8 bd
       -1.540703e-24 -0.14015672 0.11895046 -0.10559478
000080 8d 1f b1 3d 89 4c 26 32 42 c8 c1 b9 3d dd 4a 3d
       0.08648596 9.679874e-09 -0.00036961032 0.049527396
000090 25 1f 49 32 0d 39 c3 3d e8 32 47 31 d0 c8 51 b9
       1.1706821e-08 0.09532366 2.8987248e-09 -0.00020006602
0000a0 24 7e ca 35 3d bf 10 b6 69 43 13 3c 01 35 ee 3d
       1.5086885e-06 -2.1568987e-06 0.00898824 0.116312034
0000b0 a3 22 27 3d 74 39 3e bc 1c a0 24 3d 0c 02 05 b1
       0.040804517 -0.011610378 0.040191755 -1.935521e-09
0000c0 40 58 cd 3c 76 d7 42 bd 66 16 10 be 91 bd 8f bb
       0.025066495 -0.04756876 -0.14071044 -0.0043866117
0000d0 c8 9c ae bd 2f 95 c9 3d b6 f8 95 37 9b f8 02 3c
       -0.085259974 0.09842908 1.7878e-05 0.0079938425
0000e0 3a 4b 5f 39 f3 65 88 b1 57 fc b4 3d 99 a0 92 bd
       0.00021294961 -3.9697112e-09 0.088371925 -0.07159538
0000f0 02 00 00 00 9c ad 84 bd e8 6a f8 38 dc 02 89 ba
       3e-45 -0.06478426 0.000118454744 -0.0010453123
000100 68 c1 d4 38 a9 70 2c aa 2c 11 ce 3d c0 01 33 bd
       0.000101449725 -1.5315756e-13 0.10061869 -0.04370284
000110 6c 79 36 bd 18 82 36 bd 78 bc f1 3d eb 1f 1e 3a
       -0.04454939 -0.04455766 0.11803526 0.0006031978
000120 62 f8 08 3e 47 fb cb bd 1f 98 10 be 30 51 b6 bd
       0.13376 -0.09960037 -0.1412053 -0.08902204
000130 48 b7 7f bd ed 8e db 3b ea a1 f0 3a 28 d8 ce 3d
       -0.06243065 0.0067003877 0.0018358801 0.10099822
000140 8d 10 dc bc bd 45 84 bd dc bf f4 3c a9 db d7 bb
       -0.02686336 -0.06458614 0.029876642 -0.006587465
000150 bd 65 40 3d 21 62 82 b1 0e ce 1f 3d c8 9a b3 bd
       0.046972025 -3.794654e-09 0.03901487 -0.087697566
000160 67 23 c8 bc f2 63 73 38 35 38 dc b0 3a 19 21 b4
       -0.024430944 5.8028796e-05 -1.6023082e-09 -1.5003471e-07
000170 5f 2a 36 3d 22 57 83 3d 13 b9 99 bd da 8e fa bc
       0.044474002 0.06413104 -0.07506003 -0.030585695
000180 da 08 fa 3d f1 85 44 ba 5a 13 d2 ba 11 58 0a be
       0.122087196 -0.00074967655 -0.0016027496 -0.13510157
000190 83 61 20 bd 60 9b 64 33 51 67 17 b1 1a 13 9a bd
       -0.039155494 5.32267e-08 -2.203212e-09 -0.075231746
0001a0 56 8b 01 b7 8c f1 84 bd ac b6 d7 bd 0b 4b 0c bd
       -7.721441e-06 -0.06491384 -0.10532889 -0.034251254
0001b0 56 5d e5 bd 56 d9 5c bd 54 96 12 3e b2 20 76 22
       -0.11199443 -0.053918205 0.14315158 3.3356526e-18
0001c0 91 ad f4 38 1d 61 01 be c7 36 70 bd 29 cc 1a ba
       0.00011667156 -0.12634702 -0.05864599 -0.0005905056
0001d0 36 b8 41 06 2a c4 e7 bd ae 2a 2d bc e7 9b 38 bd
       3.6434602e-35 -0.11316712 -0.010569258 -0.045070555
0001e0 73 9f dc b2 83 2f 41 bb 2c a8 22 b1 fb 45 82 bd
       -2.568388e-08 -0.0029477782 -2.3669697e-09 -0.06361004
0001f0 d3 91 86 bd a8 52 2a bd 88 e8 78 ba 66 cc b9 bd
       -0.065707825 -0.041582733 -0.0009495099 -0.09072189
000200 03 ac d2 3d 2c d3 d4 b0 20 d1 dd 3d c9 39 1f 39
       0.10286715 -1.5485049e-09 0.10830903 0.00015184948
000210 91 e6 d6 bd 7d 15 89 3d 8e f7 ef 34 ab e1 84 bb
       -0.10493196 0.06693552 4.469734e-07 -0.004055222
000220 53 69 ce bd bd 2e 11 be e2 83 72 37 c1 6e 43 b0
       -0.10078683 -0.14177985 1.445503e-05 -7.109798e-10
000230 83 be 9a 3b 51 a5 c9 bd c7 4f a2 3d 78 23 9e bd
       0.004722418 -0.09845985 0.079253726 -0.07721609
000240 4f e7 0a b1 c7 2d c1 b0 f1 c3 db 3c 8d e4 c2 3d
       -2.0213127e-09 -1.4055609e-09 0.02682683 0.09516249
000250 b6 52 f7 3d 67 c0 bb bd 29 57 a4 33 9e 2e 2b bc
       0.12076323 -0.09167557 7.6526995e-08 -0.010448126
000260 40 d7 ad b0 3e 56 a5 bd 52 93 f7 3d 47 16 9e bd
       -1.2648584e-09 -0.0807309 0.12088646 -0.07719093
000270 39 97 fb 3c 48 bc b9 3a 11 c9 c4 39 85 4d 03 bd
       0.030711757 0.0014170492 0.0003753384 -0.03205635
000280 7e 99 f6 3d 1b b7 d6 af 13 d2 0d b1 16 78 e8 bd
       0.12040995 -3.9056477e-10 -2.0637614e-09 -0.113510296
000290 43 9e 0c 3c 74 be 04 b1 9b 99 7a bc 2a 14 dd 3d
       0.008582654 -1.9316788e-09 -0.015295411 0.107948616
0002a0 47 db 04 b1 ed a7 0e bd 41 77 ca bc 50 1a 25 b1
       -1.9333173e-09 -0.034828115 -0.024715068 -2.4025617e-09
0002b0 62 45 13 3d a5 43 32 b4 3a 73 1e bd 27 9a 7a ba
       0.03595484 -1.6602151e-07 -0.038684107 -0.00095597137
0002c0 40 a1 a4 bd 5c ef e3 3a 2d 71 b2 3d e0 98 03 be
       -0.080385685 0.001739006 0.08712993 -0.12851286
0002d0 84 5d be 31 7b 5a dc 3c 71 3f 96 31 83 8c df ba
       5.5403593e-09 0.026898613 4.372787e-09 -0.0017055426
0002e0 43 a0 e5 3c 71 db eb 3c d8 25 4c 3b 14 43 da 30
       0.02803052 0.028791161 0.0031150486 1.5880652e-09
0002f0 51 f5 5b b5 a7 40 a0 31 79 3e 9d 31 d0 b0 4c b8
       -8.194084e-07 4.663963e-09 4.5764037e-09 -4.880206e-05
000300 3a 3a 5f 3d d4 34 df 3d 14 4d 1a 38 bd a8 eb b0
       0.05449889 0.10898748 3.6788246e-05 -1.7146459e-09
000310 74 ee 95 b0 bf 91 b0 b0 da 70 a5 31 b0 74 f2 36
       -1.0908949e-09 -1.2847109e-09 4.8149618e-09 7.2257462e-06
000320 72 3e f6 bd 0a 8c 2f bb 8e 87 d4 3d 76 9f 9b 3b
       -0.12023629 -0.002678635 0.103774175 0.004749234
000330 02 ab cd b0 f6 99 3c bd 99 05 45 bd 7d db ef bd
       -1.4964316e-09 -0.046045266 -0.04810104 -0.11711786
000340 c2 52 d6 b9 32 f6 12 3a ff b2 5d 3d 32 b2 82 3c
       -0.0004087892 0.0005606144 0.054125782 0.01595411
000350 ab d1 e9 bd 4b 25 3b bd d5 8e 8c 89 f1 47 0a 3e
       -0.11416944 -0.045689862 -3.3838093e-33 0.13504006
000360 1d 00 00 00 04 bd a5 b4 58 c8 01 3c ca e8 78 bb
       4e-44 -3.0871172e-07 0.007921301 -0.003798055
000370 29 fe 66 bd c7 10 9c 3d 3d 63 70 bc dd 38 74 a7
       -0.05639473 0.076203875 -0.014672098 -3.3892628e-15
000380 25 59 11 be ac 60 7c 3d b1 e8 a9 3d f0 ea 16 3b
       -0.14194162 0.06161563 0.082963355 0.0023028217
000390 aa eb 8b bd b6 52 0f be 7a 5a c5 bd a0 f1 a3 3d
       -0.06832059 -0.13996395 -0.09636398 0.08005071
0003a0 83 77 9f 3c 59 36 d4 3d 10 fc e8 3c 21 d6 de 33
       0.019466167 0.103619285 0.028440505 1.03766304e-07
0003b0 04 00 00 00 ac 58 ab bd f0 f8 db bd 0b 10 02 be
       6e-45 -0.08366522 -0.107408404 -0.12701432
0003c0 c7 23 ef 3b 22 1d b1 bc f3 d7 b7 a7 be ff 22 bd
       0.007297966 -0.021620337 -5.1026836e-15 -0.039794676
0003d0 12 ca eb 9e f8 27 8f bd 89 f4 6c bd 65 70 11 3a
       -2.4965167e-20 -0.06990045 -0.057850394 0.0005548059
0003e0 8b de 3d b8 3f 49 4a 3d bb 9b 97 b9 68 e5 9d bd
       -4.526837e-05 0.04938626 -0.00028916993 -0.077097714
0003f0 44 8a 4f 9b c8 f3 a6 bc f8 ac cc b8 b7 55 06 be
       -1.7167315e-22 -0.020379916 -9.759696e-05 -0.13118635

layer_1.bias f4 [400]
000000 e5 84 23 bd 61 c9 8c ae ff 77 f2 3d 8a ff 8e bd
       -0.03992166 -6.402235e-11 0.11839294 -0.06982334
000010 b9 4f ab bd 4f 4e c6 bd 7b 1c 02 3e 06 00 00 80
       -0.08364815 -0.09682905 0.12706177 -8e-45
000020 77 c9 86 b5 cf 27 0a 3d ad 45 31 bd 5f 04 4c b5
       -1.0042412e-06 0.03372937 -0.04327934 -7.6002283e-07
000030 bc 80 fa 3d a3 56 f8 3c c0 fb b2 bd b9 7b 71 b6
       0.122315854 0.03031475 -0.08739424 -3.5983815e-06
000040 02 00 00 00 94 4e 07 3b 5c 3a 80 bc c9 5b 8d 3d
       3e-45 0.0020646201 -0.015652828 0.06902272
000050 59 4c 3f 33 e6 f7 df bd 73 41 b4 35 7f 28 0b be
       4.454009e-08 -0.10935955 1.3430093e-06 -0.13589667
000060 0a 50 bb ae 48 dc 0f be 25 06 5c b7 31 69 5c b0
       -8.517993e-11 -0.14048874 -1.31144525e-05 -8.018502e-10
000070 cf 22 f1 bd 10 7d 26 b7 8c 33 4d b1 96 e1 17 bd
       -0.11774217 -9.923489e-06 -2.9860727e-09 -0.03708037
000080 19 bd 00 b2 fc 53 f0 3c 85 71 9a 32 e3 ef 0d be
       -7.493576e-09 0.029336922 1.7979582e-08 -0.13861041
000090 ab ea 9f 32 f9 5e 8d bc 1a 1a 57 37 59 65 c0 bd
       1.861675e-08 -0.0172572 1.2821076e-05 -0.093943305
0000a0 88 31 89 bd 1c 3a 34 b1 04 0d 24 3d 01 86 9e b5
       -0.066989005 -2.6226479e-09 0.040051475 -1.1810918e-06
0000b0 30 a1 9f b1 02 00 00 80 df 5b b6 bd 8e 39 d6 ae
       -4.645834e-09 -3e-45 -0.08904242 -9.741817e-11
0000c0 b5 2f c5 31 05 21 8f b1 09 8c 5b 3c 4d 25 49 38
       5.7388783e-09 -4.1656016e-09 0.013400086 4.7956873e-05
0000d0 b4 a4 12 3d 7c 8d 89 b1 7b 26 30 bc e5 25 d8 3d
       0.035801604 -4.0033097e-09 -0.010751362 0.10554103
0000e0 64 da bd 3d 35 63 07 3d 98 5b 9b 3d f2 25 af 3c
       0.0927017 0.033053596 0.075858295 0.021380398
0000f0 b0 d5 e9 3d f1 a7 e2 3d d8 cc c5 bd fa dc 03 be
       0.11417711 0.110671885 -0.096582115 -0.12877265
000100 3b 35 e0 bc a2 63 ad 3d d4 83 f3 3d a5 38 05 32
       -0.027369132 0.08466269 0.118903786 7.754498e-09
000110 2c ca a0 bd 94 79 8f bc 2e ef 97 3c 0a 13 01 3e
       -0.07851061 -0.017514028 0.018546667 0.12604919
000120 1b d4 58 32 16 16 71 bd 9e 83 05 3e 1a d6 e6 3d
       1.2621082e-08 -0.058858953 0.13038489 0.112713054
000130 1e 6b 42 bc d6 06 03 bd 56 72 22 3d 1d 76 98 bd
       -0.011866359 -0.03198894 0.03965982 -0.07444403
000140 9b c4 d0 3d 34 d5 56 b1 c3 93 a5 32 8c 34 fb bc
       0.101937495 -3.126229e-09 1.9275722e-08 -0.030664705
000150 8d c0 0f be 25 a4 cc b1 87 f9 e0 ba 2a 10 2d bd
       -0.14038296 -5.9558425e-09 -0.0017164209 -0.042251743
000160 c6 be bd 3d b4 7c 54 b1 d5 c4 b9 b5 48 60 fd bd
       0.09264903 -3.0920946e-09 -1.384086e-06 -0.1237188
000170 28 72 17 bd 8a fd d6 b9 47 0d 12 3c 96 dc f7 bd
       -0.036974102 -0.00041006162 0.008914298 -0.1210262
000180 41 e1 24 3d 6b f0 f6 3d 89 51 07 39 de d9 10 be
       0.04025388 0.12057575 0.00012904977 -0.1414561
000190 a6 38 09 31 2a ff d4 bb b1 5c 60 39 04 00 00 00
       1.9968325e-09 -0.0065001445 0.00021396835 6e-45
0001a0 f7 57 ae 3c 9f f3 5c 32 d2 99 cf 1d dd f8 be 3b
       0.02128218 1.2861078e-08 5.495149e-21 0.0058280067
0001b0 3e 8c a1 bd 77 5e ca 13 f5 7a ed 3d 2a 68 8c 3d
       -0.07888077 5.108512e-27 0.11595718 0.06855805
0001c0 0c 4e af b1 bb ef 12 32 4e 3d 01 3c ea 7b e7 bd
       -5.1020432e-09 8.552827e-09 0.007888151 -0.113029316
0001d0 7d 93 88 b8 d6 5d e1 3d ac 98 89 ae 8c de 01 b2
       -6.512457e-05 0.11004226 -6.257159e-11 -7.55939e-09
0001e0 fd b4 b8 bd ee d5 67 bd 06 00 00 00 bc ef a6 bd
       -0.09018896 -0.056600504 8e-45 -0.081511945
0001f0 0f bd a9 b7 32 d9 b3 bc 23 f2 f4 38 f2 00 87 b1
       -2.0234407e-05 -0.021954153 0.00011679928 -3.9291246e-09
000200 35 d0 09 be fc 9d 04 3a 02 00 00 80 27 7d a6 bc
       -0.13458331 0.0005058942 -3e-45 -0.02032335
000210 a4 70 9f 3d b4 bb 71 bd 35 3a f8 bd 06 76 16 32
       0.07785156 -0.0590169 -0.12120477 8.757985e-09
000220 34 31 05 bd a9 45 e0 bb b0 05 e5 bd 42 6f 36 b3
       -0.032517627 -0.0068442416 -0.111827254 -4.2476366e-08
000230 51 6c bc 3d 27 c2 f5 bd 20 93 81 bd a3 b0 37 ad
       0.09200347 -0.11999922 -0.0632689 -1.0441567e-11
000240 a9 df ba bd 74 df 98 21 e1 83 39 b0 4e 54 a9 3d
       -0.09124691 1.0359068e-18 -6.749002e-10 0.08268033
000250 51 19 11 be 8b 8a 8f b1 94 c1 48 3c 45 b8 5e b1
       -0.14169814 -4.1775983e-09 0.012253184 -3.2409997e-09
000260 ab dc 2a b6 f1 b1 02 3e 67 3b b3 bd 3c 0c 01 3e
       -2.546042e-06 0.12763192 -0.087515645 0.12602323
000270 ee a2 29 36 d1 30 99 3c 91 b6 8f 3d 02 00 00 00
       2.52778e-06 0.018700035 0.07017244 3e-45
000280 02 00 00 00 ef 3f c7 b1 d9 ae f5 bd 20 43 14 3c
       3e-45 -5.7989307e-09 -0.1199624 0.009049207
000290 c7 0b a5 3d 77 77 0c 3c ad 20 55 05 06 8c ef bd
       0.08058887 0.0085734045 1.00212135e-35 -0.11696629
0002a0 7e e0 51 b1 10 7a c5 34 1d 7e b6 bd 77 b3 d8 3d
       -3.0541112e-09 3.6782922e-07 -0.08910773 0.10581105
0002b0 29 d1 0e 31 a4 44 3e 36 da eb e8 3d 9c e1 35 3c
       2.0782613e-09 2.835216e-06 0.1137311 0.011101153
0002c0 51 63 04 bd b2 12 2e 3b c2 98 2e 3d 75 4d be 3c
       -0.032321278 0.0026561436 0.04262615 0.023230294
0002d0 69 37 8f bc 32 12 de b1 f4 6b 96 bd 54 71 22 b0
       -0.017482476 -6.463119e-09 -0.07344809 -5.9096306e-10
0002e0 dd 44 8a bd ec 73 1f 3d 2b 21 0d 3e bf 93 0a be
       -0.06751416 0.03892891 0.13782184 -0.13532923
0002f0 e9 25 8b bc 76 a3 18 bc 84 5f 8d bd 5a 1b f7 3d
       -0.01698585 -0.009316316 -0.06902984 0.12065764
000300 a1 54 b1 bd df 22 e7 bc 2d bf ce bd 1a 00 00 80
       -0.0865872 -0.02821487 -0.10095058 -3.6e-44
000310 1b 32 a1 bd f9 4e 80 bd d0 3d 11 3e 91 7a 59 3c
       -0.07870885 -0.06265063 0.14183736 0.013273851
000320 8d d8 1b 3c 16 ce 91 3d 89 8a 63 b1 75 92 83 b1
       0.009512079 0.07119386 -3.3111596e-09 -3.829252e-09
000330 b8 a1 a6 bd 7d 04 04 37 3e c3 b5 bd 7d f3 54 b2
       -0.08136314 7.868858e-06 -0.0887513 -1.2395387e-08
000340 df 67 02 bd 62 ff 1a bd d0 46 2c bd df e0 a5 bc
       -0.03183734 -0.03784121 -0.04205972 -0.020248828
000350 aa e5 34 bd e0 e3 08 bd a3 01 16 bb de 08 f9 bd
       -0.044164337 -0.033420444 -0.002288916 -0.121598944
000360 33 6d bf 3d 5c 15 37 3a 81 4f 11 be 95 8f 12 be
       0.09347 0.0006984079 -0.14190485 -0.14312585
000370 27 33 c6 bc a7 f2 8d 3b d8 d9 f9 3d 36 5c 85 b1
       -0.024194313 0.004331905 0.121997535 -3.8812926e-09
000380 76 28 35 3d 15 2a 02 bd eb ec 8b b1 11 13 58 b1
       0.04422804 -0.031778414 -4.072367e-09 -3.1442975e-09
000390 f3 e2 0b be 0a 00 00 00 84 55 60 35 a5 d8 42 3d
       -0.13660793 1.4e-44 8.3570944e-07 0.04756989
0003a0 a3 fc b1 bd 26 6e 87 b8 04 00 00 80 2b c7 8a b1
       -0.08690765 -6.4578184e-05 -6e-45 -4.0389714e-09
0003b0 31 2a 78 15 43 83 a2 bd ea 2d b3 3d 32 e2 f3 bd
       5.0116484e-26 -0.079351924 0.08748992 -0.11908378
0003c0 0b 09 9b ba 33 50 bd 3c 1d b7 68 b3 6b 40 a2 bc
       -0.0011828257 0.023109531 -5.418325e-08 -0.019806108
0003d0 2d 38 0f be 4c b9 87 3d 0e b1 31 2d 36 29 a4 3c
       -0.13986273 0.066271394 1.0100599e-11 0.020039182
0003e0 54 ed 40 b1 f5 ee a2 bd 11 a6 c8 ba dc b3 93 3d
       -2.8074583e-09 -0.07955734 -0.0015308281 0.0721204
0003f0 a0 0a af bc 82 43 81 bc 84 3c 0a 3d 3c f1 33 bc
       -0.021367371 -0.01577926 0.03374912 -0.010982808

ln1.weight f4 [400]
000000 95 90 61 3f 2e 90 61 3f b3 90 61 3f 83 8e 61 3f
       0.8811124 0.88110626 0.8811142 0.8810808
000010 d4 90 61 3f 81 8f 61 3f 2d 90 61 3f 6a 90 61 3f
       0.88111615 0.88109595 0.8811062 0.88110983
000020 b4 8f 61 3f 5d 8f 61 3f d1 8f 61 3f 6f 90 61 3f
       0.881099 0.8810938 0.8811007 0.88111013
000030 b7 92 61 3f 0d 8f 61 3f 31 8f 61 3f ed 8f 61 3f
       0.88114494 0.88108903 0.8810912 0.8811024
000040 cc 90 61 3f 71 90 61 3f 08 90 61 3f 8b 90 61 3f
       0.8811157 0.88111025 0.881104 0.8811118
000050 7f 8f 61 3f e7 8f 61 3f b0 8f 61 3f ef 8f 61 3f
       0.8810958 0.881102 0.88109875 0.8811025
000060 45 90 61 3f 23 90 61 3f d1 90 61 3f a3 90 61 3f
       0.8811076 0.8811056 0.881116 0.88111323
000070 50 8f 61 3f 35 91 61 3f 19 91 61 3f 7d 8f 61 3f
       0.881093 0.88112193 0.88112026 0.8810957
000080 8f 90 61 3f 0d 90 61 3f ae 90 61 3f 70 8e 61 3f
       0.88111204 0.8811043 0.8811139 0.8810797
000090 40 91 61 3f 1a 90 61 3f a6 90 61 3f bc 8d 61 3f
       0.8811226 0.88110507 0.8811134 0.88106894
0000a0 cf 90 61 3f b6 90 61 3f 49 90 61 3f a2 8d 61 3f
       0.88111585 0.88111436 0.88110787 0.8810674
0000b0 f0 8f 61 3f 6e 90 61 3f ed 8f 61 3f 8d 90 61 3f
       0.88110256 0.8811101 0.8811024 0.8811119
0000c0 38 8f 61 3f 81 8e 61 3f 2e 90 61 3f ea 8f 61 3f
       0.8810916 0.8810807 0.88110626 0.8811022
0000d0 0e 90 61 3f 43 8f 61 3f 67 90 61 3f 8c 8f 61 3f
       0.88110435 0.88109225 0.88110965 0.8810966
0000e0 9e 90 61 3f 9a 90 61 3f 1b 90 61 3f 2e 90 61 3f
       0.88111293 0.8811127 0.8811051 0.88110626
0000f0 59 8f 61 3f a2 90 61 3f 97 90 61 3f 3e 90 61 3f
       0.88109356 0.8811132 0.8811125 0.8811072
000100 2b 91 61 3f e6 8f 61 3f d9 8f 61 3f 56 90 61 3f
       0.88112134 0.88110197 0.8811012 0.88110864
000110 62 90 61 3f 68 90 61 3f 4f 8d 61 3f 83 90 61 3f
       0.88110936 0.8811097 0.88106245 0.8811113
000120 33 91 61 3f 46 90 61 3f 23 8f 61 3f 94 8f 61 3f
       0.8811218 0.8811077 0.88109034 0.8810971
000130 9a 90 61 3f e0 90 61 3f 35 90 61 3f 2a 90 61 3f
       0.8811127 0.88111687 0.8811067 0.881106
000140 e2 8e 61 3f c6 8f 61 3f f6 90 61 3f 57 8f 61 3f
       0.88108647 0.88110006 0.8811182 0.88109344
000150 8e 90 61 3f bd 8f 61 3f 08 90 61 3f 4a 90 61 3f
       0.881112 0.8810995 0.881104 0.8811079
000160 bd 8f 61 3f cf 8f 61 3f bf 8f 61 3f d2 8f 61 3f
       0.8810995 0.8811006 0.88109964 0.8811008
000170 80 8d 61 3f 6f 8f 61 3f a3 8f 61 3f 83 8e 61 3f
       0.88106537 0.8810949 0.881098 0.8810808
000180 7b 90 61 3f b5 90 61 3f 4c 90 61 3f d8 8f 61 3f
       0.88111085 0.8811143 0.88110805 0.88110113
000190 30 90 61 3f 16 90 61 3f 40 91 61 3f f0 8f 61 3f
       0.8811064 0.8811048 0.8811226 0.88110256
0001a0 ff 8f 61 3f d8 8f 61 3f 62 8f 61 3f 84 93 61 3f
       0.88110346 0.88110113 0.8810941 0.88115716
0001b0 2d 90 61 3f 32 90 61 3f a2 8f 61 3f 89 91 61 3f
       0.8811062 0.8811065 0.8810979 0.88112694
0001c0 27 8d 61 3f e8 8e 61 3f 3c 90 61 3f 05 91 61 3f
       0.88106006 0.8810868 0.8811071 0.8811191
0001d0 36 8f 61 3f df 8f 61 3f ce 8f 61 3f a3 8e 61 3f
       0.8810915 0.88110155 0.88110054 0.8810827
0001e0 8f 90 61 3f fd 90 61 3f 30 90 61 3f 1c 90 61 3f
       0.88111204 0.8811186 0.8811064 0.8811052
0001f0 32 90 61 3f c3 90 61 3f 4a 91 61 3f 2f 90 61 3f
       0.8811065 0.88111514 0.8811232 0.8811063
000200 f3 8f 61 3f 44 8d 61 3f c2 8f 61 3f b2 90 61 3f
       0.88110274 0.8810618 0.8810998 0.8811141
000210 6e 90 61 3f 24 90 61 3f 4c 90 61 3f fb 8f 61 3f
       0.8811101 0.88110566 0.88110805 0.8811032
000220 48 90 61 3f 90 90 61 3f 69 90 61 3f 8e 8f 61 3f
       0.8811078 0.8811121 0.8811098 0.8810967
000230 9a 90 61 3f 55 8f 61 3f df 90 61 3f 98 90 61 3f
       0.8811127 0.8810933 0.8811168 0.8811126
000240 06 90 61 3f 01 90 61 3f 7c 90 61 3f 2e 8f 61 3f
       0.8811039 0.8811036 0.8811109 0.881091
000250 28 90 61 3f c4 8f 61 3f b8 8f 61 3f 18 90 61 3f
       0.8811059 0.88109994 0.8810992 0.88110495
000260 da 8f 61 3f f5 91 61 3f db 8f 61 3f e4 8f 61 3f
       0.88110125 0.8811334 0.8811013 0.88110185
000270 e4 8f 61 3f 43 8e 61 3f 97 90 61 3f 2c 90 61 3f
       0.88110185 0.881077 0.8811125 0.88110614
000280 1b 91 61 3f 73 90 61 3f 8b 8f 61 3f 6f 91 61 3f
       0.8811204 0.88111037 0.88109654 0.8811254
000290 7f 8f 61 3f c5 91 61 3f 6c 8f 61 3f 31 91 61 3f
       0.8810958 0.8811305 0.8810947 0.8811217
0002a0 cd 8f 61 3f 7a 8e 61 3f 1c 90 61 3f 83 90 61 3f
       0.8811005 0.88108027 0.8811052 0.8811113
0002b0 fc 90 61 3f b5 90 61 3f a8 8f 61 3f 33 8f 61 3f
       0.88111854 0.8811143 0.8810983 0.8810913
0002c0 7f 90 61 3f cf 8f 61 3f 2f 90 61 3f ce 90 61 3f
       0.8811111 0.8811006 0.8811063 0.8811158
0002d0 4e 8f 61 3f 91 8f 61 3f 85 90 61 3f 6e 90 61 3f
       0.8810929 0.8810969 0.88111144 0.8811101
0002e0 9f 8f 61 3f 2a 90 61 3f 21 90 61 3f de 8f 61 3f
       0.88109773 0.881106 0.8811055 0.8811015
0002f0 f6 90 61 3f 52 91 61 3f e4 8f 61 3f 34 90 61 3f
       0.8811182 0.88112366 0.88110185 0.8811066
000300 9e 8f 61 3f 24 8f 61 3f 6b 90 61 3f e5 8f 61 3f
       0.8810977 0.8810904 0.8811099 0.8811019
000310 1f 8f 61 3f 38 90 61 3f bf 8e 61 3f fc 8f 61 3f
       0.8810901 0.88110685 0.8810844 0.8811033
000320 d4 8f 61 3f e9 8f 61 3f 84 90 61 3f 09 90 61 3f
       0.8811009 0.88110214 0.8811114 0.88110405
000330 72 8f 61 3f 11 91 61 3f f4 8f 61 3f ab 8f 61 3f
       0.88109505 0.8811198 0.8811028 0.88109845
000340 05 90 61 3f 0f 90 61 3f 86 8f 61 3f bb 90 61 3f
       0.8811038 0.8811044 0.88109624 0.88111466
000350 8c 8f 61 3f 2a 91 61 3f fb 8f 61 3f d1 8f 61 3f
       0.8810966 0.8811213 0.8811032 0.8811007
000360 2d 90 61 3f 47 91 61 3f cf 8e 61 3f d5 8f 61 3f
       0.8811062 0.881123 0.88108534 0.88110095
000370 4d 90 61 3f 63 90 61 3f d1 8f 61 3f 9b 90 61 3f
       0.8811081 0.8811094 0.8811007 0.88111275
000380 6e 91 61 3f 66 90 61 3f 7a 8f 61 3f f0 8f 61 3f
       0.88112533 0.8811096 0.8810955 0.88110256
000390 a2 90 61 3f a5 8f 61 3f e4 8f 61 3f e7 90 61 3f
       0.8811132 0.8810981 0.88110185 0.8811173
0003a0 7e 90 61 3f 10 90 61 3f f6 8f 61 3f 77 8f 61 3f
       0.881111 0.88110447 0.8811029 0.88109535
0003b0 75 8f 61 3f d9 8f 61 3f f3 8f 61 3f 75 8f 61 3f
       0.88109523 0.8811012 0.88110274 0.88109523
0003c0 1f 90 61 3f 75 8f 61 3f cb 8f 61 3f 7f 8f 61 3f
       0.88110536 0.88109523 0.88110036 0.8810958
0003d0 fb 8f 61 3f 88 90 61 3f fa 8f 61 3f 7b 8f 61 3f
       0.8811032 0.8811116 0.88110316 0.8810956
0003e0 b1 90 61 3f 25 90 61 3f 89 90 61 3f de 8f 61 3f
       0.88111407 0.8811057 0.8811117 0.8811015
0003f0 d6 90 61 3f f6 8f 61 3f 8a 8f 61 3f 7e 8f 61 3f
       0.8811163 0.8811029 0.8810965 0.88109577

ln1.bias f4 [400]
000000 91 7d 8b b4 b3 33 cb b5 30 12 67 36 05 a9 cf b0
       -2.598213e-07 -1.5139725e-06 3.443227e-06 -1.510927e-09
000010 ff 64 cc b5 af a2 cc b5 74 15 d2 b5 ad 47 d5 b5
       -1.5228578e-06 -1.5246532e-06 -1.5652463e-06 -1.5890597e-06
000020 29 04 ad b4 14 e6 21 35 2d 06 81 b5 cd 29 3d b3
       -3.2226788e-07 6.031198e-07 -9.613046e-07 -4.404301e-08
000030 33 35 0b 35 bf 04 c7 b5 2b 78 d2 b5 aa b4 d0 b5
       5.185895e-07 -1.4828037e-06 -1.5681193e-06 -1.5549788e-06
000040 37 54 cc b5 25 8a d2 b5 4b fe ce b5 fe d8 cd b5
       -1.5223694e-06 -1.5686425e-06 -1.5422205e-06 -1.5336843e-06
000050 72 b2 db 36 5b 40 d1 b5 b5 1e ce b5 85 7f cd 36
       6.5474824e-06 -1.5590443e-06 -1.5357133e-06 6.1243213e-06
000060 8d e5 cc b5 b2 3f 4b b5 30 9a cc b5 9f ef cf b5
       -1.5265992e-06 -7.571608e-07 -1.5244059e-06 -1.5492441e-06
000070 15 4e 7b b5 44 38 a3 32 4b ec b1 b5 a1 11 cb b5
       -9.361841e-07 1.9001284e-08 -1.3256298e-06 -1.5129809e-06
000080 4b 3b d1 b5 b6 31 ce b5 51 c9 8c 36 4d 91 8b 36
       -1.558897e-06 -1.5362664e-06 4.1957614e-06 4.159438e-06
000090 19 47 a8 b5 9b 98 d2 b5 2f 8e 26 35 74 79 ab b4
       -1.2537668e-06 -1.5690633e-06 6.2046723e-07 -3.19396e-07
0000a0 54 f6 34 35 fb eb d0 b5 10 45 2a b5 7b 17 91 36
       6.741368e-07 -1.5565887e-06 -6.3430434e-07 4.3240702e-06
0000b0 2f 8a 9b b5 df 8d d0 b5 69 f9 ca b5 46 b0 d2 b5
       -1.1588617e-06 -1.5538498e-06 -1.5122761e-06 -1.5697522e-06
0000c0 c0 d3 94 35 76 a7 50 36 49 a0 d3 b5 d2 1b ce b5
       1.1088487e-06 3.109189e-06 -1.5767374e-06 -1.5356293e-06
0000d0 fa d1 fe 35 e1 2a df 34 dc b3 cf b5 46 8a cf b5
       1.8985586e-06 4.1568185e-07 -1.5475048e-06 -1.5462945e-06
0000e0 d4 15 cb b5 fc 6b ce b5 2b 9e 33 36 41 b6 cf b5
       -1.5131031e-06 -1.5379624e-06 2.6765144e-06 -1.5475745e-06
0000f0 4f c2 e5 36 c0 80 d0 b5 87 5b cc b5 0e de a7 34
       6.8473523e-06 -1.5534679e-06 -1.5225822e-06 3.126774e-07
000100 f8 50 aa 36 38 17 c5 b5 05 b8 ce b5 9c 76 be 35
       5.075821e-06 -1.4684401e-06 -1.5401753e-06 1.4190623e-06
000110 d8 ec d0 b5 93 06 d5 b5 aa 13 60 35 4f f7 cd b5
       -1.5566138e-06 -1.587165e-06 8.347512e-07 -1.5345666e-06
000120 6e 2b a8 36 79 e7 8f b5 ae 3d 92 36 5d 99 ce b5
       5.011846e-06 -1.0721698e-06 4.3583195e-06 -1.5392831e-06
000130 a0 15 ca b5 df d7 cd b5 61 e3 cc b5 f6 e5 cb b5
       -1.5056467e-06 -1.5336517e-06 -1.526536e-06 -1.5191606e-06
000140 03 e6 ae 34 f5 9a ca b5 f1 05 2a 36 56 c0 d3 b5
       3.257738e-07 -1.5095271e-06 2.5335432e-06 -1.5776702e-06
000150 ee 3b cb b5 c3 a6 92 b5 01 3b cc b5 dc b0 cd b5
       -1.514212e-06 -1.0926382e-06 -1.5216357e-06 -1.5325163e-06
000160 81 ba c5 b3 c8 75 cd b5 c2 57 08 b4 35 49 55 36
       -9.207452e-08 -1.5307969e-06 -1.2697913e-07 3.1782085e-06
000170 07 53 9e 35 e1 67 cf b5 ab 88 3f b5 92 80 bd b5
       1.1796081e-06 -1.5452935e-06 -7.135192e-07 -1.4119016e-06
000180 ee 40 49 35 47 2d fc 36 96 6e d0 b5 b2 9a fa 36
       7.497282e-07 7.515456e-06 -1.5529392e-06 7.4685895e-06
000190 bc 9a f6 b4 40 80 ce b5 a7 e5 a3 35 03 70 cb b5
       -4.5933655e-07 -1.5385522e-06 1.2211284e-06 -1.5157278e-06
0001a0 b5 6a ce b5 7a 51 73 36 10 44 cc b5 20 cd a0 35
       -1.5379252e-06 3.6257247e-06 -1.5218993e-06 1.1980628e-06
0001b0 b2 a6 cf b5 d3 fb cc b5 56 88 cc b5 11 03 50 b4
       -1.5471217e-06 -1.5272475e-06 -1.5238863e-06 -1.9372625e-07
0001c0 bf 59 6d 35 84 8a 5a 36 96 35 ce b5 2a 33 11 36
       8.841998e-07 3.2565158e-06 -1.5363792e-06 2.1636465e-06
0001d0 4e 42 74 35 16 b1 b4 35 ee 57 cc b5 27 ac 94 33
       9.099357e-07 1.3462584e-06 -1.5224775e-06 6.9231014e-08
0001e0 ec d8 1e 35 8e 19 5a 36 ca 77 ce b5 87 76 da 35
       5.917525e-07 3.2499406e-06 -1.5383059e-06 1.6276762e-06
0001f0 ed 8d cc b5 72 b0 c0 b4 60 2b 8b 36 f2 56 fa 34
       -1.524049e-06 -3.5891168e-07 4.1475723e-06 4.662939e-07
000200 2e c7 bf b5 81 f1 7c 35 b6 4c cc b5 bc 8c 98 36
       -1.4288578e-06 9.422875e-07 -1.522151e-06 4.5463366e-06
000210 d3 c0 d0 b5 05 2a cf b5 9f 98 bd b5 73 39 4d 36
       -1.5553327e-06 -1.5434931e-06 -1.4126016e-06 3.058082e-06
000220 30 fd cf b5 d5 2d c5 b5 9a b4 d1 b5 da d2 d0 b5
       -1.5496389e-06 -1.4690983e-06 -1.5624275e-06 -1.5558574e-06
000230 61 94 8c 36 2a 0e e9 35 d4 14 d2 35 03 a5 d0 b5
       4.1895987e-06 1.7363975e-06 1.5652281e-06 -1.5545232e-06
000240 6c 5e 6a 34 e1 7b ce b5 2f 0e d1 b5 24 da 6b b4
       2.1827299e-07 -1.538425e-06 -1.5575841e-06 -2.196544e-07
000250 18 99 cf b5 e4 f7 aa b5 f6 69 f3 b3 f1 f9 ce b5
       -1.5467258e-06 -1.2738133e-06 -1.13348435e-07 -1.5420939e-06
000260 bf 82 cf b5 9b a7 b8 36 6f 07 46 36 58 8e c9 b5
       -1.5460754e-06 5.503139e-06 2.9508626e-06 -1.5017094e-06
000270 a4 e3 97 32 89 94 a8 36 63 b9 ce b5 0c 7f ca b5
       1.7682233e-08 5.024082e-06 -1.5402151e-06 -1.5087148e-06
000280 9b ba ca b5 16 7f ce b5 7d f0 bc b5 7c 4e 53 b5
       -1.5104482e-06 -1.5385183e-06 -1.4077083e-06 -7.8717835e-07
000290 a3 11 c9 b5 e3 48 07 b5 1a d1 cf b5 5d 82 96 35
       -1.49808e-06 -5.0397483e-07 -1.5483558e-06 1.1213812e-06
0002a0 a3 cb 50 36 ca 46 5e 35 37 5d cd b5 41 13 d0 b5
       3.1112947e-06 8.2804456e-07 -1.5300819e-06 -1.5502811e-06
0002b0 82 d3 0a 35 d4 41 cc b5 cb 5a ce b5 8e 19 76 36
       5.171679e-07 -1.5218343e-06 -1.537462e-06 3.6671731e-06
0002c0 41 4d cc b5 bb 94 cc b5 8f 4f cf b5 92 1b d0 b5
       -1.5221668e-06 -1.5242471e-06 -1.5445856e-06 -1.5505232e-06
0002d0 54 70 25 37 1b 14 d7 b5 e7 56 be b4 ea 5b 44 b5
       9.86092e-06 -1.60246e-06 -3.5453488e-07 -7.314944e-07
0002e0 c1 40 ce b5 49 cc cd b5 b3 a4 ca b5 df 1c 75 36
       -1.5367042e-06 -1.5333145e-06 -1.5098107e-06 3.652465e-06
0002f0 6f 27 cb b4 4f ad 44 36 16 3d d1 b5 dd d1 ca b5
       -3.7840388e-07 2.9307155e-06 -1.5589492e-06 -1.5111251e-06
000300 ac 7a d2 b5 28 38 e5 36 44 e5 88 b5 2e 46 cb b5
       -1.5681921e-06 6.8312693e-06 -1.0199515e-06 -1.5145104e-06
000310 5d e6 9c b5 9d 7c d0 b5 dd d0 86 b5 7d b0 cd b5
       -1.168995e-06 -1.5533475e-06 -1.0044565e-06 -1.5325055e-06
000320 98 ea a4 35 b6 45 cd b5 fd 7f d1 b5 30 f4 57 b5
       1.2287228e-06 -1.5293979e-06 -1.5608963e-06 -8.044908e-07
000330 d3 bd ce b5 a4 cf b7 b5 62 aa 6c b5 d0 6b d0 b5
       -1.5403442e-06 -1.3694994e-06 -8.816479e-07 -1.5528585e-06
000340 9a 36 d0 b5 a9 6c cc b5 ad af 4c b5 e3 a4 c1 b5
       -1.5513099e-06 -1.5230809e-06 -7.6251564e-07 -1.4427609e-06
000350 8b 7d 51 b5 c4 58 7d b5 e6 fd cc b5 d8 e2 ce b5
       -7.8041256e-07 -9.4379016e-07 -1.5273079e-06 -1.5414216e-06
000360 36 a0 ce b5 81 89 aa 36 d2 0b c4 34 6f 98 cb b5
       -1.5394824e-06 5.0824024e-06 3.6516445e-07 -1.5169043e-06
000370 b1 54 cf b5 b0 1f 80 35 33 f1 cc b5 5b 29 63 34
       -1.544735e-06 9.545965e-07 -1.5269383e-06 2.1156067e-07
000380 7d 61 a9 b5 7b b9 d0 b5 34 7e 03 36 01 db cd b5
       -1.2619854e-06 -1.555119e-06 1.959398e-06 -1.5337429e-06
000390 ed 6a aa 36 cf a4 ce b5 6f cf e4 36 7c a0 cd b5
       5.0788426e-06 -1.5396162e-06 6.819078e-06 -1.5320397e-06
0003a0 60 e4 cb b5 ba 88 c2 36 f1 78 cf b5 59 71 6e 35
       -1.5191144e-06 5.7975676e-06 -1.54579e-06 8.882685e-07
0003b0 6f 2f ce b5 3d 01 b3 36 b8 67 90 35 8c f6 ce b5
       -1.5362001e-06 5.33476e-06 1.0759022e-06 -1.5419951e-06
0003c0 4d b4 ca b5 68 78 df b2 19 b1 cb b5 2f 86 64 35
       -1.5102647e-06 -2.6015371e-08 -1.5176221e-06 8.513188e-07
0003d0 87 61 ce b5 c4 5c d1 b5 8f c1 cd b5 7d 50 b0 35
       -1.537658e-06 -1.5598712e-06 -1.5330023e-06 1.3136447e-06
0003e0 15 4f d0 b5 d8 56 1b 36 f5 92 97 36 1b 00 07 34
       -1.5520224e-06 2.314735e-06 4.5172587e-06 1.2572893e-07
0003f0 ff 50 cd b5 65 b5 87 36 ba 93 cd b5 cf cd c9 b5
       -1.5297263e-06 4.0444306e-06 -1.5316684e-06 -1.5035565e-06

layer_2.weight f4 [300, 400]
000000 2b 00 00 80 eb e1 8e 8c eb 11 83 ab b7 d1 40 22
       -6e-44 -2.2014534e-31 -9.313083e-13 2.6131874e-18
000010 eb ed 3b 00 28 12 00 00 f9 26 bb 0f 08 d2 6f 00
       5.503643e-39 6.513e-42 1.8454635e-29 1.0269085e-38
000020 fc 98 51 9c d2 07 a9 28 24 00 00 80 d2 df 3a 22
       -6.9350027e-22 1.876616e-14 -5e-44 2.532619e-18
000030 9d f9 b2 a8 22 82 65 81 c9 d2 30 00 f4 3b 1c 1a
       -1.9870222e-14 -4.2154023e-38 4.483719e-39 3.2308474e-23
000040 53 38 3f 00 79 3b 69 00 cb ba 8c 82 d2 f2 94 83
       5.805842e-39 9.664062e-39 -2.0678365e-37 -8.754407e-37
000050 89 a5 eb aa 13 30 30 00 dc 9b 38 00 ac 97 fa a7
       -4.185925e-13 4.42535e-39 5.1987e-39 -6.955338e-15
000060 74 2e 66 16 91 da 3b 92 dc 4b 51 00 d9 ef 30 00
       1.859391e-25 -5.92762e-28 7.465888e-39 4.494145e-39
000070 95 da 72 02 61 24 cb 22 ff cd e4 1b 87 15 50 24
       1.7842082e-37 5.5061778e-18 3.7852558e-22 4.5121045e-17
000080 33 3d 68 80 b9 c3 31 00 fe 7c 28 a4 28 08 86 a5
       -9.572846e-39 4.570151e-39 -3.6535065e-17 -2.3250821e-16
000090 10 d8 e4 26 2e f4 0d 12 ad f7 58 a8 74 e2 60 a1
       1.5879242e-15 4.479273e-28 -1.2044115e-14 -7.619386e-19
0000a0 42 4b 56 a9 36 33 ad 23 ff 1c aa 0e 9a e5 cd a1
       -4.758282e-14 1.8778386e-17 4.1936158e-30 -1.3952115e-18
0000b0 03 00 00 00 c2 a3 81 00 5a be 44 17 d9 be bf 24
       4e-45 1.1905524e-38 6.3571273e-25 8.3156354e-17
0000c0 12 20 e9 0c 0e 69 c0 9a 97 33 11 22 c1 78 d1 00
       3.5918636e-31 -7.9579064e-23 1.9678476e-18 1.9236937e-38
0000d0 ad 26 a0 95 10 04 c7 27 a6 b3 a5 00 46 7a 01 80
       -6.4684505e-26 5.5238e-15 1.5217303e-38 -1.35699e-40
0000e0 b5 fa b7 22 23 2a 5e 25 27 15 15 a7 db 61 28 81
       4.9867696e-18 1.9269707e-16 -2.068937e-15 -3.0926935e-38
0000f0 d0 f5 39 ab 56 76 52 06 ea 54 31 00 ba 09 2c a6
       -6.6066336e-13 3.958355e-35 4.530401e-39 -5.968767e-16
000100 95 92 ce a4 06 00 00 00 b6 67 84 00 22 4a 28 92
       -8.958658e-17 8e-45 1.215949e-38 -5.310283e-28
000110 a1 14 e5 1b a0 00 00 80 da f5 65 2d 8b 5f d1 1d
       3.7898203e-22 -2.24e-43 1.3071733e-11 5.542063e-21
000120 f4 3c d0 a3 50 98 81 04 6e b7 ee a1 7f 32 53 00
       -2.257722e-17 3.046763e-36 -1.6176061e-18 7.640461e-39
000130 de 64 42 83 27 a7 33 00 f2 4c 2f 00 b6 e5 3e 10
       -5.7127266e-37 4.743573e-39 4.343871e-39 3.7647856e-29
000140 c4 d5 d5 a4 30 07 c4 25 d2 b0 06 9a 1b e5 0a 1a
       -9.273616e-17 3.400545e-16 -2.7853385e-23 2.87228e-23
000150 05 00 00 00 0c 00 00 00 3e 14 00 00 32 c8 3d 00
       7e-45 1.7e-44 7.262e-42 5.673782e-39
000160 c5 ea cb 21 75 29 de 1b 26 fa a8 9f 2f c4 0d a8
       1.3817958e-18 3.675361e-22 -7.1564603e-20 -7.869613e-15
000170 65 dd 30 a6 73 68 b2 0e 67 00 00 80 12 60 96 1f
       -6.136231e-16 4.398097e-30 -1.44e-43 6.3686406e-20
000180 39 0c da a9 6d cf 90 ab cb ff 44 00 73 51 92 aa
       -9.683265e-14 -1.0289388e-12 6.336575e-39 -2.5991327e-13
000190 9e e2 00 98 bb 8a 07 21 23 b6 dc aa f8 82 c8 00
       -1.6658025e-24 4.5923387e-19 -3.9206233e-13 1.8414082e-38
0001a0 08 43 cf 23 22 17 8c a3 86 4b 9d 27 74 2c 0f 2a
       2.2471374e-17 -1.5188628e-17 4.3658136e-15 1.2716374e-13
0001b0 b4 04 00 00 33 5f 37 00 02 00 00 80 d8 72 61 2a
       1.687e-42 5.085103e-39 -3e-45 2.0023859e-13
0001c0 b1 4f f3 29 8b be 22 a1 01 e0 17 07 15 37 91 95
       1.0805192e-13 -5.5139917e-19 1.1425806e-34 -5.865194e-26
0001d0 8b 31 80 a9 b8 8d 1b 96 5e a6 78 82 c8 de b4 a4
       -5.692936e-14 -1.2565519e-25 -1.8267907e-37 -7.843996e-17
0001e0 6b 68 29 a8 fc d4 2e a1 3b d8 86 26 5a b5 e1 8a
       -9.404027e-15 -5.9235376e-19 9.356727e-16 -2.1734929e-32
0001f0 e0 e4 c3 00 12 b0 c8 9c cc 5e c8 a0 65 a3 b7 26
       1.7990027e-38 -1.3280403e-21 -3.394405e-19 1.2742464e-15
000200 b0 c8 38 1f 98 94 0d 2a 49 88 73 00 7f 9f 37 a1
       3.912952e-20 1.257487e-13 1.0609972e-38 -6.2213903e-19
000210 dc f9 52 00 2c 8e 33 00 53 00 00 80 47 9d 09 97
       7.620143e-39 4.734612e-39 -1.16e-43 -4.44656e-25
000220 fc 8f 26 14 07 00 00 00 8b ab 7e 82 24 7e 27 20
       8.409254e-27 1e-44 -1.8710203e-37 1.4187187e-19
000230 01 69 fc a1 09 8f 22 a4 10 4c 4d 9b b8 81 61 88
       -1.7103979e-18 -3.5249306e-17 -1.698178e-22 -6.786096e-34
000240 32 84 45 8a 40 f5 30 00 4b 5e 34 18 43 00 00 00
       -9.510068e-33 4.496083e-39 2.331206e-24 9.4e-44
000250 74 dd 68 23 f6 0a 3d 1c 13 e1 12 00 0e 00 00 80
       1.262364e-17 6.254902e-22 1.73378e-39 -2e-44
000260 7e 45 e3 16 39 0a 5a a9 49 3f ce a8 15 5a 21 00
       3.6717684e-25 -4.841459e-14 -2.289804e-14 3.062887e-39
000270 d6 46 d2 a2 be 95 29 a8 7d b0 41 00 a8 08 d5 1e
       -5.6995615e-18 -9.413855e-15 6.03262e-39 2.2555832e-20
000280 ec dd 30 00 d7 51 c4 00 5a c3 13 21 e1 ee cd 1d
       4.487714e-39 1.8029116e-38 5.0064083e-19 5.4510043e-21
000290 38 84 3a 8b 5b 38 b0 96 5d f2 3e 1e bb 52 1d 2f
       -3.5921767e-32 -2.84699e-25 1.0108636e-20 1.4308459e-10
0002a0 99 f0 62 9b d1 91 57 83 9f ed 53 00 d3 79 13 17
       -1.8772023e-22 -6.335021e-37 7.707589e-39 4.7652026e-25
0002b0 3d 25 00 00 a6 c2 1b 8b d0 97 d1 00 2b e0 cb a7
       1.3359e-41 -2.999835e-32 1.9248079e-38 -5.658686e-15
0002c0 61 3d fb 0e b4 cb d4 19 eb 6f 00 1d 8c 81 3f 07
       6.1935383e-30 2.2002561e-23 1.699852e-21 1.4407313e-34
0002d0 70 80 71 af 06 00 00 80 02 00 00 80 74 db 9a 0a
       -2.1964452e-10 -8e-45 -3e-45 1.491221e-32
0002e0 92 6e 92 00 c0 b2 30 00 72 f0 9c 00 bf 6f 06 a0
       1.3447648e-38 4.472227e-39 1.4412593e-38 -1.1387215e-19
0002f0 c9 75 85 1c 50 40 a6 a4 12 33 f0 23 c0 2f 5d 00
       8.831648e-22 -7.2099974e-17 2.6042481e-17 8.55783e-39
000300 8d 4d 11 23 a7 63 d4 a8 01 b6 81 24 5b 1d 11 00
       7.876888e-18 -2.3579945e-14 5.625316e-17 1.571734e-39
000310 c2 5d 9e 8c b6 b8 48 00 a2 37 52 81 35 68 f8 06
       -2.4400183e-31 6.678418e-39 -3.8610823e-38 9.344035e-35
000320 39 9f 8a 2e 84 07 f6 83 06 00 00 80 4b 16 00 80
       6.303797e-11 -1.4460306e-36 -8e-45 -7.997e-42
000330 f7 7f 37 19 0a bf 8d 21 92 d4 91 82 d8 3a 04 84
       9.4867206e-24 9.605099e-19 -2.1427844e-37 -1.5543545e-36
000340 44 e8 ca 00 54 c5 01 1c b6 f8 94 89 02 00 00 80
       1.8634091e-38 4.293756e-22 -3.586359e-33 -3e-45
000350 80 ff 64 83 c3 76 37 81 f3 8a 2f 00 b9 e5 1f 18
       -6.7296478e-37 -3.3697e-38 4.366114e-39 2.0666249e-24
000360 01 00 00 00 4a 8a 0c a6 dd df be a7 ec 58 30 00
       1e-45 -4.8759674e-16 -5.2978307e-15 4.440003e-39
000370 89 da 35 26 1e ba 17 2b 53 dd 13 19 17 81 8e a3
       6.309316e-16 5.3904266e-13 7.644418e-24 -1.5450343e-17
000380 1e 00 00 80 96 7c 0c 18 80 0d 8a 9b 0f 50 16 1f
       -4.2e-44 1.8157476e-24 -2.283891e-22 3.182996e-20
000390 94 b7 b1 a4 ab 96 11 8b ea a2 ce aa 53 69 3f 00
       -7.707251e-17 -2.8039334e-32 -3.6705995e-13 5.82342e-39
0003a0 e9 f5 a3 18 90 11 14 a8 c2 f3 af 00 4f 03 22 2b
       4.238282e-24 -8.219459e-15 1.6158656e-38 5.7558553e-13
0003b0 44 6b 88 20 ba e7 2b a6 cf 33 0c 2c 9a 25 30 00
       2.3110279e-19 -5.964159e-16 1.9923956e-12 4.421593e-39
0003c0 02 00 00 00 64 70 00 80 e0 17 c7 26 a9 3c b5 a9
       3e-45 -4.0318e-41 1.381487e-15 -8.0485376e-14
0003d0 84 27 ca 07 71 ca 20 20 ce dd 42 00 f9 4d 3e 0b
       3.0416807e-34 1.361951e-19 6.140711e-39 3.665133e-32
0003e0 33 d9 b1 0d d5 3c 85 94 9e 22 36 a2 66 63 18 24
       1.0960756e-30 -1.3453562e-26 -2.4683926e-18 3.304394e-17
0003f0 11 ad 30 00 96 85 a5 a9 a2 b0 2e 00 8b 88 0c 84
       4.470188e-39 -7.3506454e-14 4.287797e-39 -1.6519618e-36

layer_2.bias f4 [300]
000000 9b e5 fb 9d 8e 37 2a 93 00 00 00 80 78 e7 c2 39
       -6.6676553e-21 -2.1484407e-27 -0.0 0.0003717502
000010 79 ed 80 9a 01 00 00 00 a9 e0 13 a0 c9 6d 9e 99
       -5.332322e-23 1e-45 -1.2525718e-19 -1.6381159e-23
000020 40 72 b9 92 61 23 ad 39 ae 50 0e 95 1b 9e f6 00
       -1.1703306e-27 0.0003302349 -2.8740317e-26 2.264825e-38
000030 d1 36 a1 38 52 ee 9f a8 f7 69 d2 9e 04 b1 39 0c
       7.6872886e-05 -1.7755901e-14 -2.2278441e-20 1.430515e-31
000040 00 00 00 00 17 87 42 01 33 50 d7 9e 03 57 08 a6
       0.0 3.5729095e-38 -2.279718e-20 -4.73024e-16
000050 6e 70 e6 a4 1d b2 67 a6 95 1e 2c 97 bc f4 92 9c
       -9.993706e-17 -8.0385613e-16 -5.5614797e-25 -9.724732e-22
000060 f0 97 c4 39 71 61 59 a6 44 d4 c2 82 5d 9e 57 95
       0.00037497235 -7.5419057e-16 -2.8627573e-37 -4.354383e-26
000070 c2 41 a8 b6 a2 a5 42 09 98 bb b8 9c 9d 11 ce 39
       -5.0144454e-06 2.342978e-33 -1.222459e-21 0.00039304505
000080 12 64 ff 9d 1d 8e c1 ae 45 e9 51 0d fc d7 a5 39
       -6.760141e-21 -8.801868e-11 6.4683885e-31 0.00031632173
000090 51 3d 2a b7 2f 16 44 b1 04 00 00 00 05 00 00 80
       -1.0147066e-05 -2.8534364e-09 6e-45 -7e-45
0000a0 cb c3 60 a4 95 81 e3 a9 eb b3 14 99 37 71 1b b1
       -4.87381e-17 -1.0103304e-13 -7.687755e-24 -2.2619824e-09
0000b0 0d 00 00 00 be 6e 66 39 04 00 00 00 7f cb 5c 39
       1.8e-44 0.00021975764 6e-45 0.00021056643
0000c0 85 5e 52 87 02 00 00 00 af d3 aa 39 b8 60 83 a8
       -1.5826421e-34 3e-45 0.00032582643 -1.4585867e-14
0000d0 f9 ce b2 39 70 da 04 b3 52 9a d7 98 7d 0b 89 01
       0.00034105012 -3.0932313e-08 -5.573202e-24 5.0342337e-38
0000e0 ce 54 d0 39 e1 5d 2f a7 04 00 00 80 84 96 f4 97
       0.00039736036 -2.433702e-15 -6e-45 -1.5806126e-24
0000f0 60 cf 08 ae c4 1f 4e a6 1f 9b 30 9c c0 3d 75 ac
       -3.1107006e-11 -7.151366e-16 -5.8434004e-22 -3.4850872e-12
000100 74 24 f2 9c 0c 75 d6 0a f4 6c e6 9d ae 1c c0 a3
       -1.602364e-21 2.0651479e-32 -6.0993148e-21 -2.0828828e-17
000110 66 3a 0a 0c 11 ea 5f ae 01 00 00 80 cb 46 82 8f
       1.0648707e-31 -5.0912222e-11 -1e-45 -1.2846258e-29
000120 88 a2 29 a1 1c 98 b6 0f 64 cc 50 a9 b7 91 38 39
       -5.7474536e-19 1.8005176e-29 -4.636256e-14 0.0001760189
000130 01 00 00 00 f4 d5 98 97 aa f6 15 ab 06 00 00 80
       1e-45 -9.876779e-25 -5.327775e-13 -8e-45
000140 49 cf cb 39 74 3a e7 b1 97 0f 8b 0c ba ce b3 9f
       0.00038873617 -6.72963e-09 2.1425724e-31 -7.615145e-20
000150 00 e1 d8 39 5c 73 a0 a0 e4 58 ae b4 fe a1 c1 b6
       0.00041366369 -2.7181393e-19 -3.2474702e-07 -5.7707066e-06
000160 e9 ff 15 12 06 64 81 a2 31 63 60 39 6a 88 01 a6
       4.7331544e-28 -3.5071424e-18 0.00021399256 -4.494074e-16
000170 50 69 3b 0b 80 19 1e 9d 02 00 00 00 6b bc 16 00
       3.6094118e-32 -2.092431e-21 3e-45 2.087973e-39
000180 7c 09 3d 8e 3d 4b e1 12 02 63 91 a6 d2 ab d1 39
       -2.3300615e-30 1.4218044e-27 -1.0088232e-15 0.00039991603
000190 4f 47 b9 aa 02 00 00 00 2f 2a 90 39 08 f1 cb 9c
       -3.2912082e-13 3e-45 0.0002749725 -1.3495718e-21
0001a0 b6 37 18 ab f8 42 0a a2 01 00 00 80 b5 d7 9d 38
       -5.407856e-13 -1.873794e-18 -1e-45 7.526522e-05
0001b0 7a 8f c0 1a 07 f0 e3 ab 02 00 00 80 99 64 d7 39
       7.964114e-23 -1.6195941e-12 -3e-45 0.00041082947
0001c0 c3 6a 91 a6 05 00 00 80 01 00 00 80 24 08 df 38
       -1.0090334e-15 -7e-45 -1e-45 0.00010634985
0001d0 02 00 00 80 0f 9e 75 a9 46 60 95 92 26 fe 0a 05
       -3e-45 -5.4538022e-14 -9.426955e-28 6.5354085e-36
0001e0 72 e6 5c 00 e4 66 58 9c c6 ff 2a a8 b9 06 8f 39
       8.531534e-39 -7.160139e-22 -9.492358e-15 0.00027280094
0001f0 00 00 00 80 6f 3c 0e ad eb 75 ba 87 91 5b 9a b5
       -0.0 -8.085184e-12 -2.8055475e-34 -1.1500543e-06
000200 87 89 0f 80 8d 6d 63 ab f6 98 af 97 02 00 00 00
       -1.426868e-39 -8.0798633e-13 -1.1347723e-24 3e-45
000210 cc 72 2c 09 86 14 b3 b6 58 73 13 8d 3f e4 6a ad
       2.0757724e-33 -5.337005e-06 -4.543671e-31 -1.3352041e-11
000220 37 cc bc 39 cf f8 80 9e b7 d7 c7 ab 98 7c 49 a1
       0.00036010306 -1.3655432e-20 -1.4199673e-12 -6.8266347e-19
000230 4b 56 3c 83 b7 1c 17 9a e5 6f ac b2 6b 27 37 39
       -5.5347294e-37 -3.1249264e-23 -2.0074319e-08 0.00017466924
000240 6b 96 d7 95 70 44 de a1 a1 c8 24 80 ab 96 01 16
       -8.7075126e-26 -1.506142e-18 -3.37805e-39 1.046808e-25
000250 15 58 54 ae 0b c5 02 b7 b9 67 97 38 a7 ab 13 a4
       -4.8281452e-11 -7.7944815e-06 7.219561e-05 -3.202094e-17
000260 a5 de 8f 91 09 00 00 80 82 a9 07 39 1d 37 fa 9b
       -2.2698637e-28 -1.3e-44 0.0001293775 -4.1394647e-22
000270 63 f3 c1 ac 75 3e a6 8f 28 1a 32 06 8e bc af a8
       -5.5124113e-12 -1.6392921e-29 3.3497296e-35 -1.9510675e-14
000280 b7 6c 42 98 04 00 00 00 5a b4 64 a9 fa b2 50 a7
       -2.51288e-24 6e-45 -5.07826e-14 -2.8962822e-15
000290 c8 1e 37 89 7a 4a 11 20 77 0e d8 a2 ef eb ce 39
       -2.2042297e-33 1.230662e-19 -5.8562233e-18 0.00039467166
0002a0 1f 05 00 80 ba ac 74 a0 19 0a 3e 38 8e 69 2f a8
       -1.837e-42 -2.0724754e-19 4.5308934e-05 -9.73734e-15
0002b0 b0 36 52 94 20 6d a5 aa 65 06 63 87 fe 9a bb 84
       -1.0613076e-26 -2.9385609e-13 -1.7079461e-34 -4.4105827e-36
0002c0 b4 1d 6c ad 53 48 43 0e 05 00 00 00 05 00 00 80
       -1.3421642e-11 2.4070429e-30 7e-45 -7e-45
0002d0 79 a3 b4 8d b5 75 0f a6 b8 04 35 a6 28 f9 af a6
       -1.1132711e-30 -4.9772614e-16 -6.2803385e-16 -1.2210598e-15
0002e0 80 ad 26 aa 29 ef b9 87 32 80 30 a0 7f 8d 9f ab
       -1.4803957e-13 -2.7976272e-34 -1.4950196e-19 -1.1336903e-12
0002f0 ae 55 3e 39 2a f4 98 af ab f4 9e ae a3 af 06 88
       0.0001815173 -2.7822128e-10 -7.22847e-11 -4.053062e-34
000300 9b 1a ec 9d 77 62 80 22 02 00 00 00 24 0f 93 8e
       -6.249619e-21 3.4798723e-18 3e-45 -3.6252878e-30
000310 1c 85 8a 0c 57 59 4e 39 4f eb 38 83 12 69 66 a5
       2.134238e-31 0.00019678973 -5.434286e-37 -1.9984919e-16
000320 97 d3 75 01 03 00 00 00 c5 27 35 ac 9f c0 1c 9f
       4.51512e-38 4e-45 -2.5743724e-12 -3.3193617e-20
000330 74 bb 38 a8 13 66 78 a4 e2 89 bd a6 1a a5 e7 38
       -1.0254699e-14 -5.3862888e-17 -1.3151883e-15 0.00011045691
000340 dc 75 13 a6 02 00 00 80 a9 00 40 aa 35 16 50 80
       -5.11606e-16 -3e-45 -1.7053255e-13 -7.354806e-39
000350 02 00 00 00 66 58 d6 39 67 d3 aa 8f 02 00 00 80
       3e-45 0.00040883123 -1.6844723e-29 -3e-45
000360 f9 18 e0 8f 7c 0f 5e 39 93 a3 9c 8c 27 0f c0 a5
       -2.2097724e-29 0.00021177338 -2.4134053e-31 -3.3316958e-16
000370 05 00 00 80 f7 a9 80 b7 95 d8 13 83 c2 13 2b 9d
       -7e-45 -1.5337935e-05 -4.344804e-37 -2.2641876e-21
000380 01 00 00 80 5a 21 a5 a5 3a b5 f6 a7 b6 df 1f 9a
       -1e-45 -2.8645537e-16 -6.8475202e-15 -3.3061142e-23
000390 01 56 80 ad c5 63 0c 39 40 ce 17 a2 6c 97 d8 39
       -1.4590109e-11 0.00013388607 -2.0573504e-18 0.0004131155
0003a0 95 d1 7e 96 c0 5e 00 00 e5 70 98 0c 02 00 00 00
       -2.0584089e-25 3.399e-41 2.3487254e-31 3e-45
0003b0 fd d1 c9 a1 31 55 56 00 98 6e 6c 9a 8f 5d e9 85
       -1.3675873e-18 7.928414e-39 -4.8892993e-23 -2.1945583e-35
0003c0 54 21 8a b3 03 00 00 80 38 f0 b3 39 7f b8 cb 39
       -6.432188e-08 -4e-45 0.00034320517 0.00038856638
0003d0 17 74 9d b3 6b 64 da 39 0a 4b 7a 8f 8d 58 bb 0c
       -7.331999e-08 0.00041655017 -1.2340404e-29 2.8865207e-31
0003e0 04 00 00 00 42 4d 16 b8 55 4f d3 0c 90 91 8b 9a
       6e-45 -3.583474e-05 3.2557444e-31 -5.772422e-23
0003f0 36 6e 50 9c ae 93 3b 0e a6 3d f5 b1 d2 5c c4 28
       -6.896387e-22 2.3120635e-30 -7.137447e-09 2.1800626e-14

ln2.weight f4 [300]
000000 d4 91 61 3f 67 8f 61 3f f1 8f 61 3f 9f 8e 61 3f
       0.8811314 0.8810944 0.8811026 0.8810825
000010 c4 8f 61 3f 0c 90 61 3f 13 90 61 3f 64 8f 61 3f
       0.88109994 0.88110423 0.88110465 0.8810942
000020 99 90 61 3f da 8f 61 3f 58 8e 61 3f 07 90 61 3f
       0.88111264 0.88110125 0.88107824 0.88110393
000030 38 90 61 3f fd 8c 61 3f 45 90 61 3f ed 8f 61 3f
       0.88110685 0.88105756 0.8811076 0.8811024
000040 45 8d 61 3f a4 8f 61 3f bf 8f 61 3f e9 8f 61 3f
       0.88106185 0.88109803 0.88109964 0.88110214
000050 36 8f 61 3f 1d 8e 61 3f 86 90 61 3f 84 90 61 3f
       0.8810915 0.8810747 0.8811115 0.8811114
000060 45 91 61 3f 8f 8f 61 3f e5 8f 61 3f 7b 90 61 3f
       0.8811229 0.8810968 0.8811019 0.88111085
000070 10 8f 61 3f f9 8f 61 3f b3 91 61 3f 4d 91 61 3f
       0.8810892 0.8811031 0.88112944 0.88112336
000080 54 90 61 3f a2 90 61 3f 08 90 61 3f 6b 90 61 3f
       0.8811085 0.8811132 0.881104 0.8811099
000090 0a 90 61 3f bd 91 61 3f 20 90 61 3f 19 8f 61 3f
       0.8811041 0.88113004 0.8811054 0.88108975
0000a0 86 90 61 3f 44 8d 61 3f 0a 90 61 3f 32 90 61 3f
       0.8811115 0.8810618 0.8811041 0.8811065
0000b0 e4 8f 61 3f f6 90 61 3f 14 90 61 3f cf 8f 61 3f
       0.88110185 0.8811182 0.8811047 0.8811006
0000c0 77 90 61 3f 5c 90 61 3f ce 8f 61 3f 38 8f 61 3f
       0.8811106 0.881109 0.88110054 0.8810916
0000d0 1f 90 61 3f be 91 61 3f 0d 90 61 3f 82 8f 61 3f
       0.88110536 0.8811301 0.8811043 0.881096
0000e0 8f 91 61 3f 81 92 61 3f 30 90 61 3f 20 90 61 3f
       0.8811273 0.8811417 0.8811064 0.8811054
0000f0 2b 92 61 3f 3f 90 61 3f e4 8d 61 3f fd 8f 61 3f
       0.8811366 0.8811073 0.8810713 0.88110334
000100 45 90 61 3f 79 8f 61 3f ed 8f 61 3f 32 90 61 3f
       0.8811076 0.88109547 0.8811024 0.8811065
000110 a7 8f 61 3f fb 91 61 3f d4 8f 61 3f 9e 90 61 3f
       0.8810982 0.88113374 0.8811009 0.88111293
000120 00 90 61 3f e8 90 61 3f e0 8f 61 3f 4e 90 61 3f
       0.8811035 0.88111734 0.8811016 0.88110816
000130 32 90 61 3f c8 8f 61 3f fd 8f 61 3f 27 90 61 3f
       0.8811065 0.8811002 0.88110334 0.88110584
000140 85 8f 61 3f 8b 90 61 3f 3a 90 61 3f 43 90 61 3f
       0.8810962 0.8811118 0.881107 0.8811075
000150 f6 91 61 3f e2 91 61 3f f9 92 61 3f 02 8f 61 3f
       0.88113344 0.88113225 0.8811489 0.8810884
000160 c1 8e 61 3f 35 8f 61 3f e4 8f 61 3f 9a 8e 61 3f
       0.8810845 0.8810914 0.88110185 0.8810822
000170 df 90 61 3f 2b 90 61 3f 2e 8f 61 3f 49 90 61 3f
       0.8811168 0.8811061 0.881091 0.88110787
000180 55 90 61 3f 7b 8f 61 3f 39 90 61 3f d0 91 61 3f
       0.8811086 0.8810956 0.8811069 0.8811312
000190 4b 90 61 3f 4a 8f 61 3f d0 8f 61 3f 4d 90 61 3f
       0.881108 0.88109267 0.88110065 0.8811081
0001a0 5b 90 61 3f a6 90 61 3f a0 8f 61 3f 58 90 61 3f
       0.88110894 0.8811134 0.8810978 0.88110876
0001b0 2a 8e 61 3f 73 90 61 3f 04 90 61 3f 0c 92 61 3f
       0.8810755 0.88111037 0.88110375 0.88113475
0001c0 f3 8f 61 3f 88 8f 61 3f 26 8f 61 3f 70 90 61 3f
       0.88110274 0.88109636 0.8810905 0.8811102
0001d0 55 90 61 3f 4d 90 61 3f c9 90 61 3f 07 90 61 3f
       0.8811086 0.8811081 0.8811155 0.88110393
0001e0 d8 8f 61 3f bd 8e 61 3f 35 91 61 3f 83 90 61 3f
       0.88110113 0.88108426 0.88112193 0.8811113
0001f0 3d 8d 61 3f 73 90 61 3f d9 8f 61 3f fc 8f 61 3f
       0.8810614 0.88111037 0.8811012 0.8811033
000200 e6 8f 61 3f 9b 8d 61 3f b8 8e 61 3f b9 8f 61 3f
       0.88110197 0.881067 0.88108397 0.8810993
000210 58 8f 61 3f 1d 93 61 3f d7 90 61 3f 5f 90 61 3f
       0.8810935 0.881151 0.88111633 0.8811092
000220 73 90 61 3f 80 8f 61 3f 90 90 61 3f 5e 91 61 3f
       0.88111037 0.8810959 0.8811121 0.8811244
000230 65 90 61 3f ad 8f 61 3f ae 90 61 3f 3e 90 61 3f
       0.88110954 0.88109857 0.8811139 0.8811072
000240 8c 8f 61 3f fa 90 61 3f e1 8f 61 3f e6 8f 61 3f
       0.8810966 0.8811184 0.88110167 0.88110197
000250 09 90 61 3f 02 90 61 3f 9d 90 61 3f 46 90 61 3f
       0.88110405 0.88110363 0.8811129 0.8811077
000260 f4 90 61 3f f2 8f 61 3f 8a 90 61 3f f8 91 61 3f
       0.88111806 0.8811027 0.88111174 0.88113356
000270 b1 90 61 3f e4 8f 61 3f 7b 8f 61 3f 92 90 61 3f
       0.88111407 0.88110185 0.8810956 0.8811122
000280 e6 8f 61 3f dc 8f 61 3f 5e 90 61 3f 84 90 61 3f
       0.88110197 0.88110137 0.8811091 0.8811114
000290 2e 90 61 3f e7 8e 61 3f 35 90 61 3f 9d 91 61 3f
       0.88110626 0.88108677 0.8811067 0.88112813
0002a0 0e 8f 61 3f a1 8f 61 3f 99 8f 61 3f 0d 90 61 3f
       0.8810891 0.88109785 0.8810974 0.8811043
0002b0 95 8e 61 3f 86 90 61 3f d0 8f 61 3f 78 8f 61 3f
       0.8810819 0.8811115 0.88110065 0.8810954
0002c0 47 91 61 3f 1a 90 61 3f 8b 90 61 3f 02 90 61 3f
       0.881123 0.88110507 0.8811118 0.88110363
0002d0 9a 8f 61 3f ed 90 61 3f 14 8f 61 3f 67 90 61 3f
       0.88109744 0.88111764 0.88108945 0.88110965
0002e0 6b 91 61 3f 55 91 61 3f fa 8f 61 3f 66 8e 61 3f
       0.88112515 0.88112384 0.88110316 0.8810791
0002f0 ad 90 61 3f fc 91 61 3f ba 90 61 3f 0e 90 61 3f
       0.8811138 0.8811338 0.8811146 0.88110435
000300 c2 91 61 3f 2a 90 61 3f 7b 8f 61 3f 5d 90 61 3f
       0.88113034 0.881106 0.8810956 0.88110906
000310 74 91 61 3f d6 8f 61 3f 0a 90 61 3f 9c 8f 61 3f
       0.8811257 0.881101 0.8811041 0.88109756
000320 37 8f 61 3f fb 8f 61 3f 02 91 61 3f d3 90 61 3f
       0.88109154 0.8811032 0.8811189 0.8811161
000330 47 90 61 3f da 90 61 3f f1 90 61 3f 91 90 61 3f
       0.88110775 0.8811165 0.8811179 0.88111216
000340 2a 90 61 3f d9 8f 61 3f e2 8f 61 3f 3f 91 61 3f
       0.881106 0.8811012 0.8811017 0.8811225
000350 74 8f 61 3f a2 91 61 3f 46 8e 61 3f 47 90 61 3f
       0.8810952 0.88112843 0.8810772 0.88110775
000360 cd 92 61 3f dc 8f 61 3f 25 90 61 3f 4d 91 61 3f
       0.88114625 0.88110137 0.8811057 0.88112336
000370 96 8f 61 3f c0 90 61 3f ff 8f 61 3f 80 8f 61 3f
       0.8810972 0.88111496 0.88110346 0.8810959
000380 d2 8f 61 3f 44 90 61 3f 75 8f 61 3f 76 91 61 3f
       0.8811008 0.88110757 0.88109523 0.8811258
000390 52 90 61 3f 16 90 61 3f e6 8e 61 3f 83 91 61 3f
       0.8811084 0.8811048 0.8810867 0.8811266
0003a0 be 8f 61 3f e3 8f 61 3f d6 8f 61 3f 59 90 61 3f
       0.8810996 0.8811018 0.881101 0.8811088
0003b0 11 90 61 3f 4e 90 61 3f d6 8f 61 3f 40 90 61 3f
       0.8811045 0.88110816 0.881101 0.88110733
0003c0 d3 8f 61 3f b1 8e 61 3f 2f 90 61 3f 03 91 61 3f
       0.88110083 0.88108355 0.8811063 0.88111895
0003d0 72 90 61 3f 18 92 61 3f 83 8f 61 3f fd 8f 61 3f
       0.8811103 0.88113546 0.88109607 0.88110334
0003e0 40 90 61 3f eb 8f 61 3f e4 8e 61 3f 62 90 61 3f
       0.88110733 0.88110226 0.8810866 0.88110936
0003f0 e7 8f 61 3f e3 8f 61 3f 29 92 61 3f fd 90 61 3f
       0.881102 0.8811018 0.8811365 0.8811186
