RL/Model_Repository/pytorch_models/TD3_Guest_sdfs_actor.pth (torch, 497503 bytes, 5 tensors)

layer_1.weight f4 [400, 7]
000000 ab f3 93 3e 0f 9f a0 3e eb 57 b5 bd 85 c4 b1 3e
       0.2889684 0.31371352 -0.0885466 0.34720245
000010 03 9a a9 bd ce 9f 9c 3d 9b 58 3c be b7 47 63 3e
       -0.082813285 0.07647668 -0.18393175 0.22195326
000020 ba 95 aa 3e 5c fd 8d be 1a 34 a8 3e ce cb 90 3d
       0.33317357 -0.2773236 0.3285225 0.07070123
000030 6c 2f 8c 3e 0f 61 3c 3d bb 9f 3a 3e 80 95 5a bd
       0.2737993 0.045991 0.18224995 -0.05336523
000040 1a 2e 95 3e 46 d4 64 3d 0d af 34 be b2 a7 c4 3d
       0.29136735 0.055866502 -0.17644902 0.09602298
000050 15 79 32 be 18 8e 35 bd 9f 32 1d be c5 5f 80 3e
       -0.17429002 -0.044324964 -0.15351342 0.25073066
000060 d7 c1 98 be 6b 6d 32 be 04 94 da bd bf b6 68 be
       -0.29835388 -0.17424552 -0.10672763 -0.22725962
000070 3b 1e 12 3d 2f 22 bf be 81 c4 ae 3e 22 63 a4 be
       0.03567336 -0.37330768 0.34134296 -0.32106882
000080 a5 66 95 3e 19 55 7f 3d 96 e3 fb bd fe 29 6f 3e
       0.29179874 0.062337015 -0.12299268 0.23355862
000090 c5 42 71 3d bd 59 9c 3e 59 3d 29 3d f4 23 f4 bd
       0.058901567 0.30537215 0.04131827 -0.1192092
0000a0 01 32 c7 3d 2f 99 d9 bd a3 e4 22 3e b0 c7 ac 3e
       0.09726334 -0.106249206 0.1590753 0.337461
0000b0 15 be 5f 3e 50 33 29 be 52 6f 5f 3e e8 f2 93 3d
       0.21849854 -0.1652348 0.21819809 0.07224065
0000c0 46 c9 48 3e 39 f0 6b be 6d 95 bf be d9 9c 15 be
       0.1960803 -0.23040856 -0.3741869 -0.14610614
0000d0 77 6f 94 be 06 c0 9e 3e fd 44 d3 3d c8 9e 1a 3e
       -0.2899129 0.31005877 0.10315893 0.15099633
0000e0 04 cf f4 3d 80 73 d7 bb d9 72 97 3e 3e 7f 89 be
       0.119535476 -0.006575048 0.2957981 -0.2685489
0000f0 20 f4 c2 3c 6c 15 84 be b8 af ee 3d c8 49 05 be
       0.023798048 -0.25797594 0.116546094 -0.13016427
000100 24 30 ed 3d 68 45 a1 bd 89 80 a0 3e 91 65 65 be
       0.11581448 -0.07874566 0.31348065 -0.22402026
000110 c8 d3 66 be 59 d7 66 be e5 0e ae 3e e6 fa 00 3e
       -0.22541726 -0.22543086 0.3399574 0.1259571
000120 71 36 ba 3e a6 b4 9f be 19 f2 bf be bd 66 97 be
       0.3636966 -0.3119251 -0.37489393 -0.2957057
000130 64 2d 82 be 07 d3 1c 3e 7f a5 0a 3e c6 db a0 3e
       -0.25425255 0.15314876 0.13539694 0.31417674
000140 b5 dd 47 be 05 dd 83 be 34 4d 53 3e dc 97 16 be
       -0.19518168 -0.25754562 0.2063492 -0.14706367
000150 1b de 6a 3e ee c0 b7 bd 85 55 5d 3e 12 5c 96 be
       0.22936289 -0.08972345 0.21614654 -0.2936712
000160 c3 62 43 be 3d 63 e0 3d b7 5d 98 3d 39 54 c5 bd
       -0.19080643 0.10956428 0.0743975 -0.09635205
000170 a8 b6 66 3e ad 91 83 3e 3d 55 8c be 1f 99 4e be
       0.22530615 0.2569708 -0.27408782 -0.20175599
000180 3e e2 b3 3e c5 18 fb bd e1 35 09 be 2e 3f bb be
       0.35133547 -0.12260584 -0.1339946 -0.3657164
000190 ce a4 5d be a8 5d c1 3d 20 58 4c bd cc 78 8c be
       -0.21644899 0.09441692 -0.04988873 -0.2743591
0001a0 e0 41 11 3c a2 33 84 be 5f 31 a4 be 16 2e 55 be
       0.0088658035 -0.25820643 -0.32068917 -0.20818362
0001b0 ff 5e a9 be 93 7e 76 be f4 94 be 3e df 29 87 3d
       -0.3308029 -0.24071722 0.37223017 0.06599783
0001c0 9c 89 ee 3d b4 7d b4 be e2 31 7e be ba d3 00 be
       0.11647341 -0.35252154 -0.24823716 -0.12580767
0001d0 b0 15 72 3d cb 47 aa be 62 c3 26 be c0 b4 67 be
       0.059102714 -0.332579 -0.1628547 -0.22627544
0001e0 00 4a 89 3a 67 04 10 be 30 8f d6 bc 28 22 83 be
       0.0010474324 -0.1406418 -0.026191324 -0.25611997
0001f0 66 d4 84 be 1a cc 61 be 35 7b 04 be 6a bd 98 be
       -0.25943297 -0.22050515 -0.12937625 -0.2983201
000200 44 42 a2 3e 14 a0 99 bd 8a 80 a6 3e da 72 f1 3d
       0.31691182 -0.075012356 0.32519943 0.11789484
000210 e3 d8 a3 be 77 eb 85 3e ae fc d4 bd cc 5d 14 be
       -0.3200141 0.26156208 -0.10399757 -0.14488906
000220 32 a2 a0 be fb 63 c0 be 53 18 d6 3d e7 46 af bd
       -0.31373745 -0.3757628 0.10453858 -0.085584454
000230 05 a8 16 3e 56 d3 9e be b0 a5 8f 3e ea 0d 8e be
       0.14712532 -0.31020612 0.28056097 -0.2774499
000240 17 c4 85 bd ac 44 96 3d 18 4f 42 3e 9b 3a 9c 3e
       -0.06531542 0.07337317 0.18975484 0.30513462
000250 6f 49 b0 3e ce 71 99 be f4 ce c2 3d 5c 79 26 be
       0.34431025 -0.2996964 0.095121294 -0.16257232
000260 28 a7 29 bd 9e d8 90 be 64 3c b0 3e 3f 10 8e be
       -0.04141918 -0.28290266 0.34421074 -0.2774677
000270 7c b9 4e 3e 96 02 08 3e a4 48 fb 3d a8 35 57 be
       0.20187944 0.13282236 0.122697145 -0.21016562
000280 2a f7 ac 3e 33 08 aa 3d b2 03 47 3d 01 93 aa be
       0.3378232 0.08302345 0.04858751 -0.3331528
000290 c2 77 22 3e 54 8a 68 bd 2b 21 37 be 12 64 a3 3e
       0.15865996 -0.056772545 -0.17883746 0.31912285
0002a0 08 94 ac 3d 3f 23 56 be cf e4 43 be 80 dd 93 bc
       0.08426672 -0.20911883 -0.19130252 -0.018049955
0002b0 0e 1b 58 3e 28 cd c5 bd 32 d5 5c be bb 8b 04 be
       0.2110407 -0.09658271 -0.21565703 -0.12943928
0002c0 87 93 90 be 40 03 0a 3e 3e ca 95 3e a2 31 b6 be
       -0.28237554 0.13477802 0.2925586 -0.35584742
0002d0 7e d0 a9 3d 9b 64 43 3e a4 5c 8c 3d 3a d5 09 be
       0.0829172 0.19081347 0.06853607 -0.13460246
0002e0 9e 02 4a 3e 6e 64 4b 3e 22 b9 10 3e 58 05 88 bd
       0.19727561 0.1986253 0.14133123 -0.06641644
0002f0 9c f9 cc bd 28 9f 25 3d 2c be 88 bd 8c ac e6 bd
       -0.10008547 0.040434986 -0.066768974 -0.112633795
000300 56 65 77 3e 23 4f a6 3e 10 43 19 bd e8 4f ad bd
       0.2415975 0.32482252 -0.03741747 -0.084625065
000310 0c 4a b5 3b 57 bc b8 bc b4 2a ba 3d 0d ed d8 3d
       0.0055325087 -0.022550745 0.09090176 0.10592089
000320 f7 be af be 4e 4e 09 be c2 97 a5 3e 8a c5 16 3e
       -0.34325382 -0.13408777 0.32342345 0.14723793
000330 70 00 9a bc 93 58 69 be 55 ca 6c be ca 58 ad be
       -0.018799037 -0.22787695 -0.23124059 -0.33856803
000340 70 51 fc bd 1a b4 02 3e 90 c8 76 3e cc b1 32 3e
       -0.123202205 0.12764016 0.24099946 0.17450637
000350 c1 0e ab be a0 bf 68 be f8 4f 74 bd bd 7d bc 3e
       -0.33409694 -0.22729349 -0.059646577 0.3681468
000360 8d ff 67 3d 38 76 c8 bd 5e 1f 20 3e 2b 6a 13 be
       0.056640197 -0.097881734 0.15636966 -0.14395969
000370 d0 82 7a be 05 3f 8d 3e 5c fc 2f be f0 2c 9b bd
       -0.24463964 0.27587143 -0.17186111 -0.075769305
000380 29 83 c0 be 0b 84 81 3e a5 9d 92 3e ee 0d 0d 3e
       -0.37600067 0.25296053 0.28635898 0.13774845
000390 5a ef 86 be 8e fd be be cd 2b 9d be 69 4e 90 3e
       -0.26354486 -0.37302822 -0.3069748 0.28184822
0003a0 6a d1 39 3e 99 d8 a2 3e 9e c1 4a 3e 50 e9 c3 3d
       0.18146291 0.31805876 0.19800422 0.09565985
0003b0 80 91 72 bb e5 2b 93 be f9 cc a5 be b2 01 b5 be
       -0.0037012994 -0.28744426 -0.32382944 -0.35352856
0003c0 0a 70 1e 3e a8 05 3e be a8 c8 9b bd b4 bd 5e be
       0.15472427 -0.18556845 -0.076066315 -0.21752053
0003d0 d4 0d 8d bd 60 34 88 be 28 e5 7c be 46 62 00 3e
       -0.06887403 -0.2660246 -0.24696791 0.12537488
0003e0 18 0d e6 bd 0e ef 6e 3e 30 54 f8 bd 55 f5 8d be
       -0.11232966 0.2333338 -0.121254325 -0.27726236
0003f0 88 93 88 bd 51 9d 3b be 10 d2 ec bd 65 3a b8 be
       -0.06668764 -0.1832173 -0.11563504 -0.35982051

layer_1.bias f4 [400]
000000 1f 5f 4b 3e 1e 2b b5 3e bb e2 9e 3e e9 b2 94 be
       0.19860505 0.35384458 0.31032357 -0.29042748
000010 f4 91 ad bd 8e a6 ba be 33 ae 6a 3c 59 d9 08 be
       -0.08475104 -0.36455196 0.014323759 -0.13364162
000020 13 f5 a7 3e f8 c4 74 3d 40 4f 88 3b 76 dd 8b be
       0.32804164 0.059758157 0.004159838 -0.273174
000030 26 ed 97 be 5c ef 73 3d a2 4f 40 be 82 da 31 be
       -0.29673117 0.059554443 -0.18780378 -0.1736851
000040 75 bd 87 3e d6 c4 49 be 77 45 2c be 37 94 94 3e
       0.26511732 -0.19703993 -0.16823374 0.2901933
000050 93 1c 17 3e a2 ea 5b be 96 ee e9 3d 89 fa 42 3e
       0.14756994 -0.21476224 0.1142246 0.19040884
000060 f5 e1 ab be 08 89 90 3d 20 da b0 3d c0 2e 71 bc
       -0.3357083 0.07057387 0.08635354 -0.014720619
000070 8d 94 b9 3e 3c d2 7f be ce d2 51 3e 86 99 4d be
       0.36246148 -0.24982542 0.20490572 -0.20078096
000080 fc ab a5 be cf e2 83 3e 6b ab 39 be 60 87 91 3c
       -0.32357776 0.2575898 -0.18131797 0.017764747
000090 fe 8a 4b 3e c3 87 a1 be 2c a6 a5 be 4e c5 03 3e
       0.1987724 -0.3154889 -0.32353342 0.12868235
0000a0 b1 bb a8 3e 70 d1 23 bd 89 47 88 3e 2a 01 08 3e
       0.32955697 -0.039994657 0.26617077 0.13281694
0000b0 d2 7f dc 3d 57 c3 76 be a9 2c b8 3e 3a 2c 31 3e
       0.10766567 -0.24097954 0.35971573 0.17302027
0000c0 18 61 6f 3d 3d e0 88 3e b1 4b a6 be c4 cc a6 3d
       0.058442205 0.2673358 -0.32479623 0.08144525
0000d0 08 21 36 be 21 59 1d bd af 1c fd 3d b6 6a 2b 3e
       -0.17786038 -0.038415078 0.123589866 0.16739926
0000e0 c2 2f b1 3d 10 c6 95 be 1a 41 72 be 80 40 d8 3b
       0.08651687 -0.29252672 -0.23657647 0.006599486
0000f0 f4 59 86 bd 32 fa a1 be b7 a5 be 3e f8 ba 42 3d
       -0.06560126 -0.31636196 0.37235805 0.04754159
000100 23 87 89 be c8 c7 29 3e 8b 24 28 3e cb dd 3d be
       -0.26860914 0.16580117 0.1642019 -0.18541639
000110 a6 13 42 3e 83 0f 70 be e4 28 06 3e 99 b6 b7 3e
       0.18952808 -0.23443417 0.13101536 0.35881498
000120 82 7e 7f 3e c4 e2 3e 3e 6a c3 9d bd 1b 51 91 3d
       0.24950603 0.18641192 -0.07703288 0.07095548
000130 ea 0f 07 3e 63 45 bd 3d b2 b4 9c bd ef 1d 58 3d
       0.13189664 0.0924175 -0.076516524 0.052762922
000140 ef c2 1c be 4b c7 5a be d0 95 b2 be da c6 9d be
       -0.15308736 -0.21365087 -0.34879923 -0.30815774
000150 ba f2 72 be 55 fb b8 3e b6 49 9b 3d 3a 03 af be
       -0.23725405 0.3612925 0.075824186 -0.3418215
000160 31 d7 45 be 9c ce b4 3d 34 af e7 bd cd ea da bd
       -0.1932037 0.0882847 -0.11312714 -0.10689316
000170 bc 5b 11 be 1c 0f bd bd 4b 8d 32 3d 6a c5 b6 3c
       -0.1419515 -0.092313975 0.04359178 0.022310931
000180 d2 a9 78 3e b5 e4 77 3e 75 3c 9f 3e 0e 82 47 bc
       0.24283531 0.24208339 0.31100813 -0.012177004
000190 ad d1 2c be a9 18 a9 3a 77 26 80 be 48 58 1e 3e
       -0.1687686 0.0012901026 -0.25029346 0.15463364
0001a0 88 9e 3a bd f6 71 f8 bd 12 11 a4 be db a0 3a 3e
       -0.045561343 -0.12131111 -0.32044274 0.18225424
0001b0 a6 08 58 3e ba 8c b0 3e 7a 1d 09 be 41 22 e9 3d
       0.21097049 0.34482366 -0.1339015 0.113834865
0001c0 20 61 6a 3c b7 87 76 be 0c 8e 71 be f2 31 46 3e
       0.014305383 -0.24075209 -0.23589343 0.1935499
0001d0 8a 1c 5e be 9f ea 8c 3e ea 36 07 3e 0a 2d 04 3e
       -0.21690574 0.27522752 0.13204542 0.12907806
0001e0 66 e4 7e 3e e2 6b 3d 3e e2 0c 27 3e 8a f3 48 3e
       0.24891815 0.18498185 0.16313508 0.19624153
0001f0 c1 3e 24 be 03 51 4d be 9c cf 8d bd 8d 18 57 3e
       -0.16039564 -0.20050435 -0.06924364 0.21005459
000200 80 6d 87 3e 43 82 8e 3e a4 2b f4 bd 80 6f 44 bd
       0.2645073 0.27833757 -0.11922386 -0.047957897
000210 f9 ea 84 be 0a a5 6e 3e ae 53 80 be be 42 1f be
       -0.2596052 0.23305145 -0.25063843 -0.15552804
000220 cb dd 9f 3e 2b 2b bc 3d 51 1c 22 be c4 3e 82 be
       0.31223902 0.09187921 -0.15831114 -0.2543851
000230 c2 13 85 be 81 2c 9c 3e 49 e0 b0 be 73 39 a7 3e
       -0.25991637 0.30502704 -0.34546116 0.32661018
000240 07 d0 9a 3e 50 da bf 3c b0 2e f8 bc 4d 7c 96 3e
       0.30236837 0.02341953 -0.0302957 0.2939171
000250 2c 72 2a 3e 31 f9 b6 3e 79 53 9c 3e 5c e6 7d be
       0.16645116 0.35736993 0.30532435 -0.24794906
000260 f0 9d 6e 3e 8e 31 43 3e 68 66 89 be 94 a8 39 3e
       0.23302436 0.19061872 -0.26835942 0.18130714
000270 ff 1d 49 be 84 96 66 be c0 0e e7 3b a2 78 3e bd
       -0.19640349 -0.22518355 0.007051319 -0.046501763
000280 2c 22 d0 bd 24 d2 7d be 22 b9 53 3e 67 f3 c0 3e
       -0.10162768 -0.24787194 0.20676091 0.376857
000290 24 85 ab bd 87 71 82 be 50 a8 9f bc fd 13 a8 be
       -0.08375004 -0.2547724 -0.019489437 -0.3282775
0002a0 b3 25 9d be a3 c0 00 be 26 2d 73 3e 56 62 94 be
       -0.30692825 -0.12573485 0.23747692 -0.28981274
0002b0 bd e2 76 bd 1c 0b 49 be 6a 30 b2 be bc 31 ae bd
       -0.06027483 -0.19633144 -0.34802562 -0.0850558
0002c0 8a d4 b3 bc 82 de 81 bd db 7c 8d 3e 2a 08 1b 3e
       -0.021951932 -0.06341268 0.2763432 0.15139833
0002d0 1f 35 71 3e 02 99 17 3e 00 6c 22 3d d3 26 52 3e
       0.2355542 0.14804462 0.039653778 0.20522623
0002e0 23 df 76 be 26 35 45 3e b2 59 38 3e a2 e0 23 be
       -0.24108557 0.19258556 0.18002966 -0.1600366
0002f0 66 28 56 bc 45 64 92 be 3d 5e a9 be 62 6c 20 b9
       -0.013071155 -0.28592125 -0.3307971 -0.00015299165
000300 00 9a 8a 3d bc f8 a6 bd 85 42 ef 3d 40 6f 95 be
       0.067676544 -0.08152911 0.116826095 -0.2918644
000310 89 88 54 be a5 80 85 3e 3b 57 bc be 70 17 73 3d
       -0.20755209 0.2607471 -0.36785302 0.059348524
000320 eb fb 94 3e ed 13 91 3e 8b f0 03 3e 88 46 b0 be
       0.29098448 0.28335515 0.12884729 -0.3442881
000330 f1 cd 46 3d b4 1a 08 be 03 99 d9 bd 99 45 94 3e
       0.048536245 -0.13291436 -0.10624888 0.2895935
000340 1d 9e 03 be 8e b2 8a be e4 5c 9b be 36 5e 74 3e
       -0.12853284 -0.2708935 -0.30344307 0.23864064
000350 af b2 95 3c 79 21 bf 3e dc 4c 9e 3d de 34 b4 be
       0.01827368 0.37330225 0.077295035 -0.35196584
000360 ee 09 c0 3d 9d 13 b1 3e 20 e2 6f 3e 6c 4a e8 3d
       0.09376894 0.34585276 0.23426104 0.1134232
000370 7a 57 91 be 0a ca 67 be bf 66 83 3e 2d 7e 81 be
       -0.28387052 -0.22635666 0.25664327 -0.25291577
000380 70 97 b0 3d 50 5a 46 bd a5 6a 01 3e 23 9b ca 3c
       0.086226344 -0.048425972 0.12638338 0.024732178
000390 8b 65 93 be 41 5a 1a be d7 c8 a8 3e 73 f2 35 3d
       -0.2878841 -0.15073492 0.3296573 0.04442067
0003a0 a5 72 44 3e b3 42 43 be 52 32 99 3e 60 b3 a5 bd
       0.19184358 -0.19068412 0.29921204 -0.08090854
0003b0 a8 74 02 be 1c 06 9d 3d 51 ae 0a be d1 74 1b be
       -0.12739813 0.07667181 -0.13543059 -0.1518128
0003c0 78 88 5d bd cc b3 af bc c1 20 5c be 39 1b 04 3e
       -0.054085225 -0.021448039 -0.2149687 0.1290101
0003d0 b8 72 bb be 46 ae 6d 3e 11 7b b3 3e 37 e1 7a 3d
       -0.3661096 0.23211011 0.3505483 0.061249938
0003e0 ff b2 b4 bd fa 2a b1 be 7a b7 35 3e 8f 90 9e 3e
       -0.08823203 -0.346031 0.17745772 0.30969664
0003f0 c3 5a a5 3e 48 0c 0a 3d e3 ad 00 3e 3d 6e b9 3e
       0.32295808 0.03370312 0.12566333 0.36216918

layer_2.weight f4 [300, 400]
000000 fd 73 1c bd 1a 34 a7 3c 7e ee e7 3c 99 88 34 3d
       -0.038196553 0.020410586 0.028311964 0.044075582
000010 0a f4 42 bd 3b ed 38 3d a7 42 1b 3d 71 79 49 3d
       -0.047596015 0.045148116 0.03790536 0.04918808
000020 0a 3c df 3c a7 1c c7 bc 19 5d 1b 3d 91 2b 3b 3d
       0.027250309 -0.024305655 0.03793058 0.045695845
000030 63 9e 9c bc 20 e8 05 bc 39 43 20 3d 45 dc 24 3d
       -0.019118493 -0.008173019 0.03912661 0.040249128
000040 c3 49 07 3d 65 e7 1c 3d 27 7e d2 bc 08 53 0d bc
       0.03302933 0.038306613 -0.02569492 -0.008625753
000050 8a a3 a3 bc 7e e2 d4 3c a0 27 4c 3c ca 32 1e bd
       -0.019975442 0.025986906 0.012460619 -0.038622655
000060 58 cd cd bb 55 01 27 bd a0 bd 40 bd 8f b3 3a 3d
       -0.0062805824 -0.040772755 -0.04705584 0.045581397
000070 93 09 ce bc 12 d1 b6 3c 14 6b 36 bc 2c e3 25 bc
       -0.02515105 0.02231649 -0.011133928 -0.010124963
000080 00 74 07 b8 ab ba 1f 3d 58 a6 e2 bb 09 77 29 3d
       -3.229454e-05 0.03899638 -0.0069168024 0.041373286
000090 02 a9 ef 3c 9d 7e 0c 3d cb bd 39 bd ed 86 bf bc
       0.029255394 0.034300435 -0.045347016 -0.023379767
0000a0 05 db 26 bd 20 fd 2d bc a0 ac 29 bc ec 76 26 3c
       -0.040736217 -0.010619432 -0.010356098 0.010160189
0000b0 ab 7e 37 3d 1e df b7 3c fb 82 0e bd 60 70 00 bd
       0.044798534 0.022445258 -0.03479288 -0.03135717
0000c0 47 a5 1a 3d d0 17 a3 3b 8c 6d 67 3c 3a 3c d6 bc
       0.037755277 0.004977204 0.014125239 -0.026151765
0000d0 30 cd c7 bb f4 3a 69 3c 1c 65 06 bd 41 aa 05 3d
       -0.0060974583 0.014235247 -0.03281127 0.03263307
0000e0 2a 1f cc 3c 0a de ee bc 1a f8 a7 bc 40 98 40 bc
       0.024917204 -0.02915861 -0.020504046 -0.011755049
0000f0 58 fa fe 3b dc 3f 96 bc 81 ea 43 3d e8 43 45 bd
       0.007781308 -0.018340997 0.047831062 -0.048160464
000100 77 81 e7 bc 50 9e f8 bc e4 7e 5d 3c 18 80 e8 3b
       -0.028259976 -0.030348927 0.013519023 0.007095348
000110 a0 6f 69 bc c9 c9 2e 3d 53 cb 30 bd 12 5d 90 3c
       -0.014247805 0.042672906 -0.043162655 0.017622504
000120 10 62 e1 bc f4 89 3a bc f5 38 45 bd 78 e2 18 bd
       -0.02751258 -0.01138543 -0.04815002 -0.037325352
000130 2d c3 2d bd a2 b2 b2 3c b7 ce 99 bc 16 43 d6 3c
       -0.042422462 0.021813694 -0.018775327 0.026155036
000140 77 fb dd bc 00 f8 4a bc d0 52 c6 3b 61 9b 2b 3d
       -0.027097447 -0.012388229 0.0060523525 0.041896228
000150 18 c9 5c bc 3e 74 ed 3c 84 fe 61 3c aa 1e f9 3c
       -0.013475679 0.028986093 0.013793591 0.03041013
000160 b5 5f 01 3d e2 38 a6 3c 0c 07 77 bc 08 ec 65 bc
       0.031585414 0.020290796 -0.015077364 -0.014033325
000170 32 75 9f 3c da 3f df 3c e0 e4 2e bb 8a 52 cd 3c
       0.019465063 0.027252126 -0.0026686713 0.025063772
000180 57 6c f6 bc d6 df e6 3c 58 0e c9 bb 06 f0 0c bd
       -0.030080957 0.028182905 -0.006135743 -0.03440859
000190 a3 04 c7 bc c8 67 1c bd 34 3f 25 3c ed ea f2 bc
       -0.024294203 -0.03818491 0.01008587 -0.029653037
0001a0 c8 96 6a bc d0 4e 4d bb fd eb f9 bc 00 48 a8 3a
       -0.014318176 -0.0031327493 -0.030508036 0.001283884
0001b0 00 ef cf bb d2 bc 81 3c f7 f2 13 3d 4d 43 f7 bc
       -0.0063456297 0.015837107 0.03612038 -0.030183459
0001c0 82 f2 df 3c a0 d9 8a ba e0 1b ea bc 60 c2 b9 bc
       0.027337316 -0.0010593422 -0.028577745 -0.022675693
0001d0 7c 84 50 3c 88 91 2a 3c c0 ae d3 ba e3 ea cb bc
       0.012726899 0.010410674 -0.0016150102 -0.024892276
0001e0 3e 8f ce 3c 40 17 f3 3b aa 17 47 bd 48 c6 10 bc
       0.025214788 0.007418543 -0.048606552 -0.008836336
0001f0 58 42 5e bc bd c7 ae bc 47 34 e3 bc 83 25 26 bd
       -0.013565622 -0.021335477 -0.027734889 -0.040563118
000200 55 b5 49 3d 3b 11 3b bd a1 60 3e 3d 7b fe 20 bd
       0.049245197 -0.04567073 0.04647887 -0.03930519
000210 94 c0 46 bc aa cc a7 bc 07 3d db bc 9a a0 91 3c
       -0.012130875 -0.020483334 -0.026762499 0.017776776
000220 ea 66 ed 3c 92 88 06 bd 63 c5 be bc 26 12 d1 3c
       0.028979737 -0.032845087 -0.02328748 0.02552135
000230 18 0b c6 bb ec 83 47 3c 16 29 d6 3c b0 66 97 bc
       -0.006043803 0.012177449 0.026142638 -0.018481582
000240 3d 51 e3 bc c2 c5 96 3c 56 fe 95 bc ca 52 08 bd
       -0.027748698 0.018404845 -0.018309753 -0.03328208
000250 d0 9b ce bc 20 73 be bc 51 ec 4b 3d 20 8d 1d 3c
       -0.025220782 -0.023248255 0.049785916 0.009616166
000260 4e 67 b0 3c e8 13 dc 3b ad 10 0a bd 9d ca 13 3d
       0.021533635 0.00671624 -0.03370731 0.0360819
000270 f0 af fe bb c0 1d 54 bc 35 e7 26 3d 93 a7 d0 bc
       -0.007772438 -0.012946546 0.04074784 -0.02547053
000280 6c 58 26 3c 52 38 2e bd 72 e3 d1 3c 9e b2 a2 3c
       0.010152917 -0.04253418 0.02562115 0.019860562
000290 02 68 28 bd ea 9c e4 3c 00 4e b4 3b ca 80 d3 bc
       -0.041114815 0.027906854 0.0055024624 -0.025818247
0002a0 8d 9e 2e 3d 8e e9 af 3c aa f0 8f 3c cc 22 98 bc
       0.042631675 0.021473672 0.017570812 -0.01857128
0002b0 90 97 e0 bc 3a 65 dc bc 5e e3 99 3c 64 ae 5c 3c
       -0.02741602 -0.026903737 0.018785175 0.013469312
0002c0 0a 25 f5 bc b1 5b 3a 3d de a3 ee 3c 70 63 9c bc
       -0.029924888 0.0454976 0.029130872 -0.019090384
0002d0 26 eb d3 3c f7 a0 ad bc 3a 8b 80 3c 37 76 2a 3d
       0.025868963 -0.021194918 0.015691388 0.041616645
0002e0 f3 26 35 bd f0 a7 cb bc d0 30 39 bb d0 53 f4 3b
       -0.044226598 -0.024860352 -0.0028257854 0.0074562803
0002f0 13 6c 28 bd fe bc 06 bd 70 ec 9c bb 98 38 ec bb
       -0.041118693 -0.03289508 -0.0047889277 -0.007208895
000300 6c b2 30 3c 28 30 d0 3b 68 0d 28 3c 00 3b 59 3b
       0.010784727 0.006353397 0.010257103 0.003314674
000310 28 50 bc 3b 00 22 3d bb be 18 93 3c 79 c6 0b 3d
       0.00574686 -0.0028859377 0.017956134 0.034124825
000320 37 69 cc bc 9d 31 d4 bc 96 c7 b3 3c 08 19 14 bd
       -0.024952514 -0.025902564 0.021945756 -0.036156684
000330 47 17 05 3d fa 39 bd 3c 10 f7 ec 3b f7 d2 b1 bc
       0.032492902 0.023098934 0.0072316006 -0.021707041
000340 60 83 c4 3a 06 ed 21 bd 3b 41 38 bd 63 dc 40 3d
       0.0014992766 -0.039532684 -0.044984084 0.047085177
000350 c5 b0 37 bd 02 ef 29 bd a7 1b 9f bc 30 04 38 3b
       -0.044846315 -0.0414877 -0.019422365 0.0028078668
000360 ec 9f 3b 3c fd d7 c9 bc 10 fd 9e bb 74 ef 36 bc
       0.011451703 -0.024639124 -0.0048519447 -0.0111654885
000370 83 5c 2b 3d c9 c1 31 3d 6e 59 a8 3c 80 96 a1 b9
       0.041836273 0.0433977 0.020550456 -0.00030820444
000380 1d 96 19 3d 32 5a 25 bd 52 23 ab 3c 4d 15 ee bc
       0.037496675 -0.04036922 0.020890865 -0.029062891
000390 35 b7 1f 3d 6b 0a 35 bd 22 30 98 3c 18 62 28 bd
       0.03899308 -0.04419939 0.018577639 -0.041109174
0003a0 f2 0f ef 3c 58 ca 15 3c f1 b9 2f 3d b6 76 1a bd
       0.029182408 0.009142481 0.042901937 -0.037710868
0003b0 a7 cf 03 3d 10 ad 08 bd 93 18 dd bc 4e cb 9b 3c
       0.032180455 -0.03336817 -0.026989257 0.019017842
0003c0 f4 e3 09 bc 46 b2 21 bd 5a 44 2e bd 54 af 54 bc
       -0.008416165 -0.039476655 -0.042545654 -0.012981255
0003d0 84 d1 62 3c 15 e3 33 3d 1d 9f 16 3d 40 cf 56 3a
       0.013843898 0.043917734 0.036772836 0.0008194335
0003e0 03 3f fb bc 1b 97 36 bd f9 f7 36 3d cd 5e e4 bc
       -0.030669695 -0.0445777 0.04467008 -0.027877236
0003f0 20 13 10 bc 95 41 25 bd 5d 8f 0d bd 2c f4 1e 3c
       -0.008793622 -0.040345747 -0.03456055 0.00970177

layer_2.bias f4 [300]
000000 f4 94 8d bc 54 bc 21 bc 38 25 08 3c de a4 fe 3c
       -0.01728294 -0.009871561 0.008309655 0.031084474
000010 21 0b e4 3c ed 3f dc bb 90 1a dc bb 47 c3 4a 3d
       0.027837338 -0.0067214877 -0.0067170337 0.049502637
000020 47 41 17 bd e8 28 4c bd c0 4c 2b 3c 08 e5 54 bc
       -0.036927488 -0.0498437 0.01045531 -0.012994058
000030 6e ec 3f 3d 75 6d d3 bb ed 99 41 bd 98 81 33 bc
       0.046856336 -0.0064522573 -0.047265936 -0.0109561905
000040 f1 99 13 bb 95 5f 01 bd 73 b9 a3 bc 26 16 3f bd
       -0.0022522176 -0.031585295 -0.01998589 -0.04665198
000050 43 e0 b9 bc 79 a8 13 3d 61 42 25 bd 4e 2c d2 bc
       -0.022689944 0.03604934 -0.040346507 -0.025655892
000060 78 66 09 bd fe 8a bf 3c ba 00 96 bc ae 2c 32 bd
       -0.033544987 0.023381706 -0.018310893 -0.04349964
000070 8c 18 52 bc 7b 01 10 3d b6 69 5c bc 95 75 07 bd
       -0.012823235 0.035157662 -0.013452938 -0.03307112
000080 10 95 e8 bb 32 fb 1b bd 84 b2 07 3d 51 bd 4c bc
       -0.0070978478 -0.038081355 0.03312923 -0.012496308
000090 ed 9a b8 bb ff 37 ff bc d4 53 6b 3c 30 0a fb 3b
       -0.005633703 -0.03115463 0.014363248 0.0076611266
0000a0 bb fd 40 3d 29 05 11 bd 43 e1 c3 3c 00 72 af bb
       0.047116976 -0.03540531 0.023911124 -0.005354166
0000b0 0c 1e 2c bc 15 d1 9c 3c ea a4 4f bc cb 9d e4 3a
       -0.010505211 0.019142667 -0.012673596 0.0017442046
0000c0 60 92 23 bc f3 21 39 bd 36 49 85 bc 09 47 01 3d
       -0.009983629 -0.045198392 -0.016270261 0.031561885
0000d0 99 55 7c bc 43 88 59 3c cb 63 92 bc 09 09 f3 39
       -0.015401267 0.013277116 -0.01786985 0.00046355303
0000e0 0a 81 1c 3d a7 5f 3c bd df 95 01 3d 74 df c9 bc
       0.038209 -0.04598966 0.03163707 -0.024642684
0000f0 28 91 e7 3a 13 03 49 3d b2 ad 9c 3c c0 5b 84 bc
       0.0017667161 0.049075197 0.019125793 -0.016157031
000100 ad 1c 37 bd c2 27 1b 3d 3b f2 a6 3c 9d 07 c0 bc
       -0.04470508 0.037879713 0.020379176 -0.02344113
000110 e2 46 f4 3b 7b a2 3a 3d 8a d9 01 bd 40 80 58 bc
       0.007454739 0.04556511 -0.031701602 -0.013214171
000120 20 11 1e bb 65 d7 05 bd bc 5e 2a 3d 1e 8e c9 3c
       -0.0024119094 -0.03267612 0.041594252 0.0246039
000130 bb 10 07 3d 54 35 76 3c 00 69 79 bc 3e 66 4d 3c
       0.03297494 0.015027363 -0.015222788 0.0125365835
000140 e6 07 c6 bc cb 5e 40 bd 53 d8 a4 bc db 9b 9c 3c
       -0.024173688 -0.0469654 -0.020122683 0.019117286
000150 48 a0 c8 bc 56 82 96 bc 16 c3 4d bb bf c1 01 3d
       -0.02449049 -0.018372696 -0.0031396798 0.03167891
000160 2c fc 05 3d f0 0d 8d bb af 1a c1 3c 09 72 f6 bc
       0.032711193 -0.00430464 0.023572294 -0.030083673
000170 c7 6d 77 3c b0 90 c7 3c 96 a2 74 3c 7e 23 0a bd
       0.015101857 0.024360985 0.014931342 -0.033725254
000180 0f ae 0d bd 39 8b 1a 3d 91 2b d6 bc c4 50 d0 3c
       -0.034589823 0.03773043 -0.026143821 0.025429137
000190 96 81 1b bd 0b e2 a4 37 eb 65 4d bc 97 0c 91 bc
       -0.03796538 1.9655583e-05 -0.012536506 -0.017706199
0001a0 83 22 55 bc ca 51 57 3c e9 04 3f 3d a8 66 9d bb
       -0.0130087165 0.013142059 0.046635542 -0.0048034973
0001b0 f4 56 01 bd 97 29 6c bb 02 70 f5 3c b4 92 0e 3c
       -0.031577066 -0.0036035532 0.029960636 0.008701969
0001c0 0e 78 c2 bc 35 0a 31 ba 4b fe 48 bd 78 3d ba 3c
       -0.023738887 -0.0006753535 -0.049070638 0.022734389
0001d0 d6 fc ed 3c 76 cb ad 3c 9b d1 92 3c 0a ef dc bc
       0.029051226 0.021215182 0.017922213 -0.026969451
0001e0 2c 7a 26 ba 11 0b 44 bd 32 5d 05 bb 95 a7 a1 bb
       -0.00063506025 -0.047862116 -0.0020349738 -0.0049333074
0001f0 b8 11 56 3c 61 ba ec 3b 4c 00 12 3c 14 3b 3f bc
       0.013065748 0.0072243665 0.008911204 -0.0116718
000200 5c 8f 14 bd 11 fe 2b 3d 7e 4b 8b 3c 54 80 d6 bc
       -0.03626953 0.041990343 0.01700377 -0.026184238
000210 f7 bb 21 3d 26 b1 f5 3c 8a 3f b0 3c bb f1 8c bc
       0.039485898 0.029991698 0.021514673 -0.01720511
000220 90 f7 d5 bc d2 7a 8e 3c d6 02 10 bd 10 f8 9b bc
       -0.026119024 0.01739255 -0.035158955 -0.019039184
000230 16 40 02 3d 1f 20 c3 3c 17 24 45 3d 40 7a ff bb
       0.0317994 0.023819027 0.04813012 -0.0077965558
000240 c2 f1 d6 3b 86 58 a6 3c d8 9d 87 3c e8 52 2f bc
       0.0065595815 0.020305883 0.016554758 -0.010700919
000250 c0 cb 2f bd be 87 f5 3c a3 60 a8 bc 23 f5 f3 bc
       -0.04291892 0.029971953 -0.020553892 -0.029779976
000260 0a 49 fd bc c6 c0 d5 3b bd 1d a3 bc f7 00 3e bc
       -0.030918617 0.0065232245 -0.019911641 -0.01159691
000270 7d 98 49 3d 2d 70 22 bc c2 56 dd 3c 12 68 3b bd
       0.04921769 -0.00991444 0.027018908 -0.045753546
000280 02 43 ff 3c 98 45 1d bc 53 70 11 3d db 9c a4 3c
       0.031159882 -0.009599112 0.03550751 0.020094326
000290 3a 06 08 3d 10 dd 37 3d d1 95 2f bb 22 13 a0 3c
       0.033209063 0.044888556 -0.0026792178 0.019540373
0002a0 00 d1 93 bc 58 3b 5c bc c3 c9 ec bc d0 d7 96 3b
       -0.018043995 -0.013441883 -0.028904801 0.0046033636
0002b0 15 0c 23 3c d2 66 aa 3c 53 24 c9 bc 01 5a 8d 3b
       0.009951611 0.020800982 -0.024553454 0.004313708
0002c0 6e 6e 12 3d 95 a2 00 bd 01 ba 3a 3d 5e 41 c4 3c
       0.035749845 -0.03140505 0.045587543 0.02395695
0002d0 e0 ad 17 bd 39 8a 42 bd 20 b2 1d 3c ad 54 fa bc
       -0.037031054 -0.0474951 0.009624988 -0.030557955
0002e0 e1 51 46 3d f2 13 03 bd 84 84 7b 3c bc f4 3f 3d
       0.04841793 -0.032001443 0.015351418 0.046864256
0002f0 25 17 08 3d a1 a6 19 bd 1e cd 1c 3c 49 6c 1d 3d
       0.033225197 -0.037512425 0.009570388 0.038433347
000300 ec 91 09 bc 86 be d5 bc 3d c3 c4 bc c3 44 c8 3c
       -0.008396607 -0.026091825 -0.024018878 0.02444685
000310 69 d5 31 bd fb 79 1c bc d0 03 4a bd 0c 8a b3 3c
       -0.043416414 -0.009550567 -0.049320042 0.021916412
000320 f3 31 80 3c 75 79 a9 bc eb 7f 48 ba c5 92 1a 3d
       0.015648818 -0.020687798 -0.0007648456 0.037737627
000330 1d f1 31 3d 2d a7 3b bd 13 ac 1d bd 19 dc 05 bc
       0.043442834 -0.045813728 -0.03849418 -0.008170151
000340 70 59 ae 3b 86 2e d6 bc ec 61 0a 3c ec e9 33 3c
       0.0053207204 -0.026145231 0.008446198 0.010981064
000350 34 6c 6b bc 53 6d 23 3d 62 ef e9 bb df 92 9e bc
       -0.014369059 0.03989918 -0.0071391324 -0.019357143
000360 af af 2b 3d 40 d4 85 bc 4f c4 ff 3a eb 89 46 3d
       0.04191559 -0.01633656 0.001951346 0.048471373
000370 18 e4 0a bd 78 c6 25 3c 89 a7 43 3d 0e 43 3a bd
       -0.033908933 0.010118119 0.047767196 -0.045474105
000380 e1 c9 1f 3d 5a 68 a3 3c 5d 4e 49 3c 72 3e 47 3d
       0.039010886 0.01994722 0.01228675 0.048643537
000390 9d 6b ff bc 81 30 1b 3d d1 3e 33 3d 60 c2 3d bc
       -0.031179244 0.037888054 0.04376108 -0.011581987
0003a0 88 fd c6 ba 91 77 40 3d 06 30 27 3d b9 ba bf 3c
       -0.0015181759 0.046989027 0.040817283 0.023404466
0003b0 30 48 fb 3b c2 8d a9 3c 08 a3 13 3c c2 83 4c bd
       0.0076685175 0.020697478 0.009011038 -0.04993034
0003c0 6f cc 30 bd 76 8e 62 bc c2 fd 8e 3c 12 68 25 bd
       -0.043163713 -0.013827911 0.017454986 -0.040382452
0003d0 68 16 12 bd 08 8a 99 bb 7a f9 1f bd ac 69 e2 bc
       -0.0356659 -0.004685644 -0.03905628 -0.027638279
0003e0 c7 68 e6 3a 63 55 c3 bc 5f 23 8b 3c 03 3a 98 bb
       0.0017578834 -0.023844426 0.01698464 -0.0046455874
0003f0 56 c4 d4 bc 0e ba 3a 3d 28 87 59 bc 2b d8 20 3c
       -0.025972527 0.04558759 -0.013276853 0.009817163

layer_3.weight f4 [1, 300]
000000 24 76 b2 3c 12 3a 33 3d b0 b1 bb bc 54 d7 f3 3c
       0.02178485 0.043756552 -0.022911876 0.029765762
000010 5f 5d 2f bd ac 08 61 3c 9a 74 61 3d 3d 6a 3e bd
       -0.042813655 0.013734978 0.05504284 -0.046488035
000020 90 da 31 bd d0 74 eb 3c 00 39 b4 39 a4 1e 31 bc
       -0.043421328 0.028742224 0.00034374744 -0.010810528
000030 be 6c c2 bb 3d 63 51 3d 0e ef 1f bd c8 7a d0 bc
       -0.0059333732 0.05112003 -0.03904634 -0.025449172
000040 52 71 74 3d 28 99 13 bc 94 a2 cf 3c a2 fa 11 3d
       0.059678383 -0.009008683 0.025346078 0.035639413
000050 4e 7f 65 bd f4 16 d7 3c 30 07 af 3c 75 9c 17 3c
       -0.05602961 0.026256062 0.021365732 0.009253611
000060 59 e4 21 3d 4c a5 65 bc 88 a3 10 3d 09 6c 1e bd
       0.03952441 -0.014016461 0.035312206 -0.03867725
000070 10 5e 52 3d 3f eb 19 bc 95 9c 2e bd f8 87 76 3c
       0.051359236 -0.009394466 -0.042629797 0.015047066
000080 74 18 46 bd 1d f0 f3 3c 1f 92 b8 3c c0 c4 c8 bc
       -0.048363164 0.02977758 0.022530613 -0.02450788
000090 9a b5 f8 bb 68 92 1e 3d c8 ba df 3c 1a 0e 1d 3d
       -0.007590008 0.038713843 0.027310744 0.038343526
0000a0 ee 62 49 3d ea 2e 5a 3d be 3e e2 3c c0 15 30 bc
       0.049166612 0.053267397 0.027617808 -0.010747373
0000b0 0e 37 94 bc 78 fd 21 3c 1d 6f 56 bc f0 bc 29 bc
       -0.018092658 0.009887092 -0.013088015 -0.010359988
0000c0 45 3d 77 3b 59 fd 16 bd 7e 23 28 bd fa e9 ca bc
       0.0037725728 -0.036862705 -0.041049473 -0.024769772
0000d0 54 ac 0b bd 46 cf 5a bb 12 78 7d 3d 1c 92 64 bd
       -0.03409989 -0.0033387705 0.061882086 -0.055803403
0000e0 c3 f3 77 3d c8 0c 31 3d 81 6c 08 bc 17 c4 33 3d
       0.060535204 0.04322508 -0.008326651 0.043888178
0000f0 8e d7 e1 bc ca 5b 39 3d 9e ac 0c bd 4a 0d 27 3d
       -0.027568605 0.045253552 -0.034344308 0.040784158
000100 72 bb 3a bd d0 14 80 3d 78 bf b7 bb 90 89 3b 3b
       -0.045588918 0.0625397 -0.0056075417 0.002861593
000110 1a 1c 80 3d b8 17 4a 3d 50 e0 b6 3c 74 63 41 bd
       0.0625536 0.049339026 0.022323757 -0.047213987
000120 2c 13 fe 3c 0e b0 62 3d 2a 09 83 39 cf 8c 15 3d
       0.031015001 0.05534368 0.00024993095 0.03651124
000130 95 72 ea 3c c6 ad d9 bc 20 6d 9d bb ac 16 d9 3c
       0.02861909 -0.02657212 -0.0048042685 0.026500069
000140 3a 28 22 3c 4c 5e bd 3c f0 85 ce 3c 8a 2e 53 3d
       0.009897286 0.023116253 0.02521035 0.051558055
000150 f6 67 1b ba 60 63 96 3c 4f 92 f1 3b 2e c3 8d 3c
       -0.0005928272 0.018357933 0.0073721777 0.017304983
000160 3c fa 8b bc 61 6d f9 bc 24 d8 0f 3d 0f 26 4c bd
       -0.017087094 -0.030447664 0.035118237 -0.049840983
000170 b8 eb 73 3d 87 0d c7 3c cc 12 de bc 90 3d 6e 3b
       0.05955097 0.024298443 -0.027108572 0.0036352612
000180 c1 a1 2e bc e6 82 a4 bc 48 f2 0f 3d 42 b2 f0 3c
       -0.010658682 -0.020081948 0.035143167 0.029381875
000190 0e 7d 1f 3d e9 eb a0 bc 8d cf 3f 3d 1e 32 29 bd
       0.03893762 -0.01964374 0.046828795 -0.04130756
0001a0 c1 4b f9 bb 23 98 6f 3d 00 28 f1 3c 08 5b 6a 3c
       -0.0076079075 0.0584947 0.029438019 0.01430393
0001b0 a6 84 a8 3c 67 3b 04 3c c0 22 e5 3c a0 ac 1b bd
       0.020571064 0.008070803 0.027970672 -0.038006425
0001c0 63 d0 18 bd 72 3b c9 bc 00 6d d2 3c 23 99 50 3c
       -0.037308108 -0.024564479 0.02568674 0.012731823
0001d0 15 6f 34 bd 00 87 2f ba 02 2e b4 3b 92 88 1d bd
       -0.04405125 -0.0006695837 0.0054986486 -0.03846032
0001e0 c2 26 11 3d 20 ab 50 3d 84 85 fd 3b 56 51 46 bd
       0.035437353 0.050944448 0.0077368636 -0.04841741
0001f0 22 4c fc bb ae ba 4a bd 5a a4 2a 3d 70 1f 4f 3d
       -0.0076995054 -0.049494438 0.041660644 0.05056709
000200 d7 c9 4a bc 14 28 fa 3c d7 81 24 bd 9a c5 a1 3c
       -0.012377224 0.030536689 -0.040162887 0.019747544
000210 d0 80 30 3b 62 89 59 3d 34 88 1b bd fe 3d b7 bc
       0.0026932247 0.053109534 -0.03797169 -0.022368427
000220 a6 b6 2c 3d 30 63 2f 3c 3f 4a 9e 3a 20 82 2e bd
       0.042166375 0.0107048005 0.001207657 -0.042604566
000230 cc 12 aa bc f0 3a d0 3c f0 c9 50 bd 16 8b d3 bc
       -0.020760916 0.025418729 -0.050973833 -0.025823157
000240 4d e5 67 3d dd 9f 09 3d 83 7d 0a 3d 20 dd 51 bc
       0.056615163 0.033599723 0.033811104 -0.012809068
000250 c8 d4 e4 bb 73 5c b7 39 b4 a9 a8 3c 92 55 40 bc
       -0.0069833733 0.0003497336 0.020588733 -0.011739152
000260 13 9d 69 3d eb ee 2c 3d cf 19 2d bd fa 2e 3b 3d
       0.057034563 0.042220037 -0.04226094 0.045699097
000270 58 ef 4d bd 57 fa 14 bb 10 0e 5a bc fb 87 d3 3b
       -0.050277084 -0.0022732222 -0.013309017 0.006455419
000280 24 2d 49 3d 40 34 1e 3d de 3d 0d 3c 5f 48 28 3d
       0.049115315 0.03862405 0.008620707 0.041084643
000290 10 af 73 bc 0e 83 3a bd 31 54 37 3c 60 b2 dd 3b
       -0.014873281 -0.04553514 0.011189506 0.0067656487
0002a0 58 a6 d7 bb e5 9e f6 bc 50 ce 5d bb 22 d0 3a 3d
       -0.006581109 -0.030105064 -0.0033844896 0.045608647
0002b0 04 ff cc bb 90 91 2a bb a0 e9 8d ba d2 27 21 bd
       -0.006255986 -0.0026026703 -0.0010827072 -0.039344616
0002c0 40 fe 44 bc 53 96 4f bc ee 60 fc bc 40 c0 4a bd
       -0.012023509 -0.012670117 -0.030807938 -0.04949975
0002d0 e4 3d 3d 3d ce 84 5d bc 00 55 af bb 88 b1 2c 3d
       0.0462016 -0.013520433 -0.005350709 0.042161494
0002e0 a7 d0 d4 bb 30 86 19 3b 12 21 02 3d 30 b7 3a 3c
       -0.0064946 0.002342593 0.03176982 0.011396214
0002f0 d2 fd 43 bd a4 86 f2 3c 54 d0 1c 3c f6 72 34 3d
       -0.047849484 0.029605217 0.009571154 0.044054948
000300 b9 6a 3f bd 34 e1 82 bb 82 50 2f bd 50 8d 91 bc
       -0.046732638 -0.0039941315 -0.042801388 -0.017767578
000310 1d 7e 1f 3d 94 01 09 3d 1e 9c 49 3d 90 a4 15 bd
       0.03893863 0.03344877 0.04922115 -0.036533892
000320 3d 34 4f bd 2c 74 88 3c 8d 15 a4 bc 30 76 83 3c
       -0.050586928 0.016656958 -0.020029807 0.016047567
000330 42 e8 12 3d 05 00 43 bd 86 25 be 3c 9d a0 98 bc
       0.03586603 -0.04760744 0.023211252 -0.018631274
000340 b8 07 63 bc f1 13 6c 3d 3a c1 2d 3d 18 9b 8c 3c
       -0.013856821 0.057636205 0.042420603 0.017163798
000350 43 4b 58 bd 88 da da bb 20 c8 83 3b f0 91 9b 3c
       -0.05280615 -0.006678883 0.0040216595 0.018990487
000360 db da ee bc ec 49 ab 3c 24 97 58 3d 90 d4 d1 bb
       -0.029157093 0.020909272 0.052878514 -0.0064035133
000370 32 fc 2b bd ec e2 83 3c 95 9d 32 bc 0d 81 0c 3d
       -0.04198856 0.016099416 -0.010901828 0.03430276
000380 9e 40 57 3d 3c 33 8d 3c be 5d 98 3c 61 1a 4b bd
       0.052551858 0.017236345 0.018599387 -0.049585704
000390 42 ab 2b bd b3 fb 27 bc a4 cb 18 bd 33 34 03 bc
       -0.04191137 -0.010252881 -0.03730358 -0.008008051
0003a0 af 33 45 bd e8 b7 e2 3c 5e 66 92 3c 0a d2 90 3c
       -0.048144992 0.027675584 0.017871078 0.01767828
0003b0 b4 64 45 3d 98 6d 2e 3c e8 39 23 3d d6 b9 02 bd
       0.04819174 0.010646246 0.039850146 -0.03191551
0003c0 e1 56 02 3d 8f fd b9 bc 94 b4 58 bc 04 7d cb 3c
       0.031821135 -0.022703914 -0.013226647 0.024839886
0003d0 8f dd 2a bd 72 23 ee 3c 28 48 dd 3c 43 13 ad bc
       -0.0417152 0.029069636 0.027011946 -0.021127349
0003e0 cb 83 cf bb 86 fa 5f 3d 18 6f 3c bd b5 dc 6a 3d
       -0.0063328496 0.054682277 -0.046004385 0.05733939
0003f0 78 b3 b5 bc e2 c8 f0 3a 50 c9 ba bc 96 f5 b0 3c
       -0.022180304 0.0018370415 -0.022801071 0.02160148
