RL/Model_Repository/pytorch_models/TD3_Guest_jean_critic.pth (torch, 994447 bytes, 10 tensors)

layer_1.weight f4 [400, 7]
00000000: e2da 80bc 9f52 0c3d bff8 933e ddc2 85be
00000010: 5265 e13c 2ad0 cbbe d31b 203f d13e a53d
00000020: 0e8d cebd b74e 25be 7ea0 313d 1f71 d93d
00000030: 0912 5abf c043 b0be 5cda d3bd 78a4 c7bd
00000040: 34c3 d73d 4176 bdbe 3717 823e 92df 683e
00000050: 8ced f53d f5cc 94bc 7564 e6bd e4de 05be
00000060: 268e bb3d 5664 a9be cad7 9ebd 932d bdbc
00000070: 1bf7 54be 84a9 1cbe 0861 b9be 5e81 8abe
00000080: 0051 0cbc 952d 5fbe c10d 903e 0a5c 13be
00000090: d4de e53d 0af0 1e3e 99ec 3dbe 3a53 153e
000000a0: 04d5 00be 8ff2 0c3f 1f72 34be d0b0 39bd
000000b0: c00f cb3b e5c1 58be 98e7 16be 9037 5e3d
000000c0: a00e 98bd 9bb7 57bd 13db f43d eef0 973d
000000d0: ce49 3bbe 38d0 533e 8742 5bbe de9b ac3f
000000e0: 1d53 6a3e 7662 05be 1a1c 6fbe 5e7b 413e
000000f0: 412f 14be 9ab1 c2be 1792 f73e c752 64be
00000100: f41e cd3d d2d1 6bbe 0bf3 9d3e a3ff 5dbe
00000110: a139 b03e 603d fa3c 6fca 8dbd c87f 703d
00000120: 449d 6f3e 5c49 8abe 6669 a5be 7fe0 7b3d
00000130: 3a80 993f c607 053e 80d0 74bd 4a94 18be
00000140: 4e0c 3abe 6854 80be be7e 8cbe c467 9ebe
00000150: 3fb4 4d3e 6775 6fbe 13a0 f3bd 1a48 4d3e
00000160: dba2 9d3e d5d9 09bf 7ec7 ac3d 8355 8c3e
00000170: 145a cd3d 8887 15be 7983 babe f21a 2f3e
00000180: 32e5 773e 3a03 72be 615e c2bd be72 483d
00000190: 4035 903e 7dc5 96be c0d8 6c3e 7b54 44bd
000001a0: 62a6 e03f 5a00 36be 7563 b8be 3ccf bd3d
000001b0: c392 a4be b086 ebbd 18e9 e63d a0db 9bbd
000001c0: 40c4 e5bd 7f13 6c3e 0bbd 96bb 496e 36be
000001d0: 0f89 013e 7de2 c2be 4f95 833f 3ef6 543b
000001e0: 5a2d 903e cbd6 4fbe 4348 17be 7b1f 483e
000001f0: 93a2 81bd 9ae2 3c3f f9ec a33b 2274 383e
00000200: 2139 86be 04a3 69bd c5df 9b3e a580 f9be
00000210: 810e 513e c6f4 0f3e 8e8d 103e acd4 9dbe
00000220: 58b5 fabd 1843 a63d 7320 0dbe 10b4 a63e
00000230: f2f5 623e 2756 be3e 5dd9 bdbe 7553 b8be
00000240: b13e 2ebe c249 1a3e ec7f 8f3d 294e 563d
00000250: 4dae f73d a62c 943d 9d0b adbe 4a13 c1bd
00000260: f9dc f2be d9dd 043e 6dbb 6ebb df69 ebbd
00000270: 9d2c e33d f4bf 0abe 0870 7ebe 03f5 c6be
00000280: 2d18 07bf cab6 7e3e d332 aebe 7a2f 2d3e
00000290: 014b 7ebe 3447 a13d 9075 1c3d 6249 5f3e
000002a0: 6d77 bb3e 1a42 00be 4f73 bfbe 8c23 fdbd
000002b0: 26b1 7f3e 5ef0 473e 1a59 563e cc38 97bd
000002c0: 3669 693e 31ec 30be d0d5 83be ad95 b13e
000002d0: cb49 13be 526a 333e 349f bebe cc8a e8bd
000002e0: 2c6d f3bd 04c0 d83d b65c 4d3e 7e5c 06be
000002f0: b173 4bbe 0cbe 4abe 6641 2dbe bdda 8a3e
00000300: d0d8 7cbd d0e5 a0bd ba45 79be 836c 5dbe
00000310: 3993 b6be d4a7 aabd d8cf da3d 3414 c93d
00000320: 850f a73e 3388 a93e c8a5 303d 1f44 493e
00000330: d5e7 37bd a6dd 963d bf51 bbbe 6b53 9a3e
00000340: 7095 bebe fc39 e7be 5882 b1be 3ca9 83bd
00000350: ab05 af3e f0a8 e23c e84a 90be 1adf 5c3e
00000360: bc4c 1bbe 6422 423e 0ed7 90bd 79a8 683e
00000370: 95c7 b1be 812d 22be 6b48 a9be f7bc 6c3f
00000380: 5b10 123e 771c 50be 6c1d 6bbe f199 7f3e
00000390: 33bd 003e e7e9 b1bd d0e3 4e3f 5ec0 ccbc
000003a0: 5eeb 333e 941c a2be 588f 3b3e 34c6 c13e
000003b0: 6617 1cbf df4e 92bf 9064 2a3d a738 32be
000003c0: f1ac fe3d 7be4 1a3d 1309 53be f632 ec3d
000003d0: e4ac 4bbf fbd5 79be b6f0 afbe a3b7 993e
000003e0: 3144 2d3e 9047 623e e80a 59bf 4e8b 353f
000003f0: 28b8 ed3d b485 c73d 399e 79be 9b4b c2bd
-0.015729371 0.03425848 0.28900716 -0.2612523 0.027514134 -0.39807254 0.62542456 0.08068622
-0.10085498 -0.16143309 0.043365948 0.10617279 -0.8518377 -0.3442669 -0.10344383 -0.09748167
0.10535279 -0.37004283 0.25408337 0.22741535 0.12008199 -0.018164137 -0.112496294 -0.13073307
0.09157972 -0.33084363 -0.07756002 -0.02309302 -0.20797388 -0.1529904 -0.3620684 -0.27051824
-0.008564234 -0.21794732 0.28135493 -0.14390579 0.11224142 0.15521255 -0.18547286 0.1458253
-0.12581259 0.55057615 -0.17621659 -0.045334637 0.006196946 -0.21167715 -0.14736784 0.054252207
-0.074246645 -0.052665334 0.119558476 0.074190006 -0.18289873 0.20684898 -0.21412097 1.3485067
0.22883268 -0.13025841 -0.23350564 0.18894717 -0.14471151 -0.38026124 0.48353645 -0.22297202
0.100156695 -0.23029259 0.3084949 -0.21679549 0.34418967 0.030546844 -0.06923377 0.05871561
0.23399836 -0.27009094 -0.32306975 0.061493393 1.1992257 0.12991247 -0.059769154 -0.14900318
-0.18168756 -0.25064397 -0.27440447 -0.30938542 0.2008829 -0.23384629 -0.11895766 0.20047036
0.3078831 -0.5384801 0.084364876 0.2740899 0.10026947 -0.14602482 -0.3642843 0.17100123
0.24208525 -0.23634043 -0.094906576 0.04893755 0.28165627 -0.29447547 0.23129559 -0.04793213
1.7550776 -0.17773572 -0.3601338 0.092680424 -0.3214322 -0.11500299 0.11274928 -0.076102495
-0.11219072 0.23054312 -0.0046001724 -0.17815508 0.1264994 -0.38063422 1.027994 0.0032495405
0.281596 -0.20296781 -0.1477366 0.19543259 -0.06329837 0.73783267 0.0050026146 0.18013051
-0.2621546 -0.05704023 0.3044416 -0.4873096 0.20415689 0.14058217 0.14116499 -0.30826318
-0.1224162 0.08118266 -0.1378191 0.32559252 0.22164133 0.37175104 -0.37079898 -0.36001173
-0.17016102 0.15067199 0.07006821 0.052320633 0.12093792 0.072350785 -0.33797923 -0.09427507
-0.47434214 0.12975253 -0.0036427632 -0.11494803 0.11092494 -0.13549787 -0.24847424 -0.38858804
-0.52771264 0.24874416 -0.3402315 0.16912642 -0.24833299 0.07874909 0.038198054 0.21805337
0.36614552 -0.12525216 -0.3739266 -0.12360296 0.2496992 0.19525287 0.20932427 -0.0738388
0.22794041 -0.172776 -0.25749063 0.34684506 -0.14383619 0.17521027 -0.37230837 -0.113545984
-0.11886057 0.10583499 0.20054898 -0.1312122 -0.19868352 -0.1979906 -0.16919479 0.2712001
-0.061730206 -0.07856333 -0.24343005 -0.21623425 -0.35659197 -0.08332792 0.10684174 0.098183066
0.32629028 0.33111724 0.04312685 0.19654892 -0.044898827 0.07366495 -0.36585805 0.30141768
-0.37223387 -0.45161426 -0.34669757 -0.06428763 0.34184012 0.027668446 -0.2818215 0.21569481
-0.1516599 0.18958431 -0.070722684 0.22720517 -0.34722582 -0.15837671 -0.33063063 0.9247584
0.14264052 -0.20323358 -0.22960442 0.24961068 0.12572174 -0.086871915 0.80816364 -0.024994072
0.17570254 -0.31662428 0.183164 0.3784653 -0.60973203 -1.143032 0.04159981 -0.17404424
0.1243533 0.037815552 -0.2060893 0.115331575 -0.79560685 -0.24398033 -0.34363335 0.30022916
0.16920544 0.22097611 -0.84782267 0.7091569 0.11607391 0.09742299 -0.24376763 -0.09487077

layer_1.bias f4 [400]
00000000: 341d a6bf da4a a03e 82fa 0d3e b4c1 253e
00000010: 9731 b33e cacf 9a3f 784d 053d 33af 963e
00000020: f96d df3f c63b 10be 4e04 0fbe 2e84 0a3e
00000030: bdea bd3f be46 7fbe a401 313f ec7f b9be
00000040: 5654 9c3e 3ced 0e3f 969c 883f 36b3 bcbe
00000050: ee3a 6b3e 7699 1b3f 8bb1 523f e69a 353e
00000060: 4ac1 22be bc56 ce3d aea9 2b3e 9774 babe
00000070: e2d9 a8be 0c79 8e3f 1fca bdbe a996 cf3f
00000080: 2088 e13e 2246 863f 08b7 bfbf dd05 963f
00000090: acfa 10bf fadf 4b3e e0dc 4ebe 5a19 b33e
000000a0: 897b 113f c8de 0d3d a744 853f 36ef 573e
000000b0: b64b 503e 06b3 a33f 9bc6 b2be 8b63 b73e
000000c0: ea39 9d3f b37b 893f 4875 c73f 1c06 a8bd
000000d0: 208a a1bd 0746 9bbe 0aa3 223f 2003 babd
000000e0: 5479 62be bf4e 37be 826a 183e 9207 523f
000000f0: 8132 bf3e ea32 7e3e 808a 323c da63 02be
00000100: d054 b0bd 590a 8b3e 0ce1 753f 5443 99be
00000110: c0f9 e03b e712 97be b060 233f 81a9 b53f
00000120: ab25 c3bf 1368 513e 4df2 d2bf 6085 5a3d
00000130: 5dd9 44be 457b 693f 5827 cabd 86e4 db3f
00000140: 470c 9abf c09f d93f f0af c0bd 01f5 49be
00000150: db7e 90be 4dd9 b43e 884c 67bd 1cc0 aa3f
00000160: 8008 11be ca1a 3d3f 409f b5be 9f0b 873e
00000170: b9c4 cb3f 800e 0d3b adf6 b43f 6120 76be
00000180: ef8f 4a3f dcac aabd 5101 3f3e 8366 b8bf
00000190: 7b58 59be 8040 abbb e92d 153f 3a6b f1bd
000001a0: fcea 97bd 9212 0abf f7ba 34be ce77 80be
000001b0: 1353 bd3e 7c66 b7be e692 253f 51ba c73f
000001c0: 6b3e 993e 9ed4 b3bf dd28 ab3e dd6f a43e
000001d0: 00b5 333b 2dd2 6fbe 7f30 bb3e a30d d13f
000001e0: 57f2 8f3f be3b e9bf 9d86 32be 2e3d d83f
000001f0: 5135 0c3d 908e b73f c11d c23d 4b7f 9f3f
00000200: 94fd f1bd 7ab1 32be 48f4 b73e a043 34bd
00000210: 2ac6 133e fc91 eb3d 5452 c43f 5d7a db3f
00000220: 2fa5 b33f 33e1 68bf cb08 29be d4ab e0bf
00000230: 6104 db3d 1504 1dbe 659a 29be ac38 adbd
00000240: 40f0 89bd d029 dbbc 688b 1b3d 60f6 a1bd
00000250: 9bb4 b73e 009b 723b d00b 81bd 151e 993f
00000260: 0d0b b03e a72a a9bf 500d 3f3d ca3a 393e
00000270: 8baa ce3f ca3d 053e c82f a8bd a072 f7bd
00000280: ef96 923f 2cc8 aabe 4b93 f3be 521e 043f
00000290: dc98 e4bd 3ece 443f 6564 22be 0ce6 a93f
000002a0: 783d 45bd 125c 0a3e 3822 b13f f3b3 edbf
000002b0: 0417 e5be 9ad4 223e efed 3fbe 781c d1bf
000002c0: 5fc0 bbbf 5f84 813f b0fb bcbe c3a5 45be
000002d0: b0aa b33c e0db e8bf 0463 a03d 9890 973d
000002e0: 1be4 8c3f 2834 a4be d744 cd3c e278 c6bf
000002f0: 1654 2bbe d5a4 bd3e 46b4 db3f c99a 2d3f
00000300: 38a8 ca3f d29b 7c3e 79ef f5be 4918 103f
00000310: 9739 0d3f 1169 71be 30f5 d7bd 8582 363f
00000320: 0719 573f d4e5 cf3f ccf6 b2bd e0f1 21bd
00000330: 9b6e 293f 2fcf e23f 73cb e73c 68ed 253f
00000340: 0b70 3dbe 794f 9a3e 6347 bb3f 6d31 b23e
00000350: 7e95 2d3e 2886 743d 62b5 0a3e 532d 813e
00000360: daa5 26be 6cb4 fd3d 6b32 0fbe 5bde 803e
00000370: 4d57 983e 8206 a93f 6cf1 f73d 24eb a9bf
00000380: 61f1 8dbd 72c0 53bf 83ef 9c3e 4965 b53f
00000390: 9425 c5bd 32ed 083e e96c bfbe 689e 0dbd
000003a0: 20f9 42be d22f 343e f28f 573e 6ba2 afbe
000003b0: 18f1 7b3d 04eb a4bf 8058 3abe 6a2e 42be
000003c0: d9a0 09be bf93 03be c281 073e 7f55 b33f
000003d0: 9169 8dbe d6d6 483e 4d85 ac3f 7bc5 1ebf
000003e0: f329 3e3f a277 033e a4b3 ce3d a6d7 293c
000003f0: 9620 2dbe ebd4 873e 4028 e53b e274 473e
-1.2977662 0.31307107 0.13865092 0.16187173 0.34998772 1.2094662 0.032544583 0.2943054
1.7455436 -0.14085302 -0.13966486 0.13526985 1.4837261 -0.2492933 0.6914313 -0.3623041
0.30533093 0.5583074 1.0672786 -0.36855477 0.22971699 0.6078104 0.8230216 0.1773487
-0.15894046 0.10075137 0.16763946 -0.36417076 -0.3297873 1.113069 -0.3706827 1.6217853
0.44049168 1.0490153 -1.4977732 1.1720539 -0.56632495 0.19909659 -0.20201445 0.3498028
0.56829125 0.03463629 1.0411576 0.21087345 0.20341381 1.2789009 -0.3491715 0.35818133
1.2283299 1.0740875 1.5582666 -0.0820429 -0.078876734 -0.30326864 0.6353003 -0.09082627
-0.22116596 -0.17901133 0.1488438 0.820428 0.3734322 0.2482411 0.010897279 -0.12733403
-0.08609927 0.27156332 0.9604652 -0.2993418 0.00686571 -0.2950661 0.6381941 1.4192353
-1.524587 0.20449857 -1.6480194 0.053349853 -0.19223543 0.9120372 -0.098707855 1.7179115
-1.2034997 1.7001877 -0.094085574 -0.19722368 -0.28221783 0.35322037 -0.05646947 1.3339877
-0.14163399 0.73869 -0.3547306 0.26376054 1.591941 0.0021523535 1.413778 -0.24035789
0.79125875 -0.083337516 0.18652846 -1.4406284 -0.21225159 -0.005226195 0.5827318 -0.1178803
-0.074178666 -0.53934586 -0.17649446 -0.25091404 0.36977443 -0.35820377 0.64677274 1.5603734
0.29930434 -1.4049261 0.33429614 0.32116595 0.0027421117 -0.2342002 0.36560437 1.6332287
1.1245831 -1.8221357 -0.17434163 1.689367 0.034230534 1.4340382 0.09478331 1.2460722
-0.11815944 -0.17450514 0.3592856 -0.044009805 0.14431062 0.11502454 1.5337625 1.7146717
1.4034785 -0.90968627 -0.1650726 -1.7552438 0.106941946 -0.15333588 -0.16562803 -0.08458075
-0.06735277 -0.026753336 0.037974745 -0.079083204 0.3587998 0.0037018657 -0.06301081 1.1962305
0.3438343 -1.3216141 0.046643555 0.18088832 1.6145796 0.13011852 -0.082122386 -0.1208241
1.1452311 -0.33355844 -0.47573313 0.51608765 -0.11161968 0.768772 -0.1585861 1.327333
-0.048154324 0.13511685 1.3838568 -1.8570541 -0.44744122 0.15901414 -0.18743108 -1.6336813
-1.4668082 1.0118521 -0.36910772 -0.19301514 0.021931976 -1.81921 0.07831386 0.07400626
1.1007112 -0.32071042 0.02505724 -1.550564 -0.16731295 0.3703982 1.716439 0.6781431
1.5832586 0.24668816 -0.48034266 0.56287056 0.55166 -0.23575236 -0.10544813 0.71292907
0.84022564 1.6242013 -0.08738479 -0.03953731 0.66184396 1.7719477 0.028295254 0.6481538
-0.18499772 0.30138758 1.463116 0.34803334 0.16951558 0.059698254 0.13545755 0.25229892
-0.16274205 0.12387928 -0.13984077 0.25169644 0.29754105 1.3205111 0.121065944 -1.3274884
-0.06930805 -0.82715523 0.30651483 1.4171535 -0.09626308 0.13371733 -0.3738778 -0.034574896
-0.19040346 0.17596367 0.21051005 -0.34303603 0.06150922 -1.2884221 -0.18197823 -0.18963018
-0.13440265 -0.1284933 0.13233092 1.4010466 -0.27619603 0.19613203 1.347818 -0.6202008
0.7428276 0.12838605 0.100928575 0.010366356 -0.16906962 0.2652963 0.0069933236 0.19478181

layer_2.weight f4 [300, 400]
00000000: 9824 bcbb f5d0 2ebd 6611 0abd 0009 76bc
00000010: 4df0 1cbd 4ed6 ca3c 93a6 f3bc 9751 3dbd
00000020: 94ff 01bc ba43 fc3c df06 4cbd f613 13bd
00000030: 27de 013d f030 8bbb e3d2 3a3d 1efc f03c
00000040: 96c2 983c f5d8 3d3d 7a8d 25bd dd78 d7bc
00000050: 9397 373d c8ff 2bbc 86b2 943c 50e2 e73b
00000060: a25a a83c b009 363b 2011 f9bc b9dd 373d
00000070: 7e1e 21bd 47c1 363d 8638 88bc 7b52 323d
00000080: 8070 00bb 800a 363b e2d5 8b3c 1d05 b1bc
00000090: 2a93 f5bc 6cd2 7a3c 8031 593b f84b 7bbc
000000a0: 8a11 8a3c e912 283d 8f02 403d 115c 033d
000000b0: 3d31 a8bc 97f4 aabc 922b 873c 026d fd3c
000000c0: 8012 2a3b ad88 b3bc f8d7 61bc b0ec 03bd
000000d0: 3032 f7bb f26f 9e3c f70b 2f3d 303f dfbb
000000e0: 0262 e23c 8820 79bc ca7f ff3c 070f eabc
000000f0: 8a81 cd3c 3dd0 133d 4c77 7c3c 5008 5f3b
00000100: 6b2a 393d d0e4 09bb 4d29 e2bc b209 d93c
00000110: 2719 333d e0e9 5fbc e681 80bc 86a3 d53c
00000120: 8085 053b b0d4 803b e2a0 9c3c 80fc 87bc
00000130: dda8 babc 1a34 fa3c 7543 283d aa42 b2bc
00000140: 867c e43c 9ab9 3dbd 9ff0 1e3d 0a4a a1bc
00000150: 3668 8abc e7d3 183d 23dc f3bc 0283 c73c
00000160: a043 45bc 482d 09bc e836 c1bb 00d2 523a
00000170: e768 cebc b6d3 8f3c 32aa e43c c2cf 8d3c
00000180: d1f6 1f3d d8fa ab3b eb0f 25bd 3199 123d
00000190: 6c51 7e3c 4aa5 d43c c223 f63c c442 8abc
000001a0: 07a1 a6bc 3073 34bd e370 ebbc 1f86 3a3d
000001b0: 0c44 08bd 48fe 64bc 21a8 263d 506c 8abb
000001c0: 181e d03b 05ad 10bd 745b 77bc 151c 003d
000001d0: a07a c2bc 6315 9dbc 920f 34bd abae 463d
000001e0: 3095 953b 6591 193d cdd3 323d 030c ccbc
000001f0: 3e3e cd3c 35eb 2bbd dd78 1cbd 8a0a d03c
00000200: 0020 2bb8 3064 98bc 5787 a8bc 95a2 46bd
00000210: 9a3a f3bc 2354 19bd cb96 033d bdee 25bd
00000220: 2eb8 0ebd d087 283b 756b 0ebd ba45 b0bc
00000230: 6731 2fbd 3bb0 42bd a008 36bc 6b4e 0b3d
00000240: 568f 983c e592 463d 54c9 09bc 807b 69bb
00000250: f4ce 89bc b070 00bb 98fe 1e3c d8ab e3bb
00000260: a02f 133c 54a9 7d3c 720f bf3c 202f 00bb
00000270: 18cb 38bc 90a6 fbbc e857 193c b092 a3bb
00000280: 3bcb 26bd 420f 943c 96e2 a03c 8afe af3c
00000290: 0727 2b3d 98be 48bd 2fa7 083d 021e 14bd
000002a0: decb 04bd 6001 223b a821 9cbb 33f0 46bd
000002b0: 697d 003d 622c 46bd 8253 2dbd 506b d6bc
000002c0: ea38 c43c 735b cebc 7aa7 eebc 9a8f bb3c
000002d0: 5637 8a3c 06b2 13bd c09a b0ba b13b 443d
000002e0: 2e65 b83c 2de5 f5bc 9d2a b0bc f162 003d
000002f0: 046e 96bc 32d6 e83c e605 b43c 6072 97ba
00000300: 8d5e edbc 8fef 173d e8e9 19bc 3051 dcbb
00000310: ecd1 483c 03db 1dbd a81d bdbb a3d0 cdbc
00000320: 75a3 203d 5276 38bd 3811 16bd c08f b5bb
00000330: 2697 af3c d093 51bb 00ff 153c 8878 57bc
00000340: 0845 3bbd ce4b d53c 1a9d 17bd 6e9e 11bd
00000350: 6b52 1c3d be96 ad3c a307 493d 0fbf 053d
00000360: c134 2d3d e0e5 6abb 208f 67bb 1dd4 bfbc
00000370: fadc 35bd 8f7b 163d 7759 2b3d 9a7c 8b3c
00000380: dac6 e9bc 3823 4dbc dd3e d2bc e966 163d
00000390: aff3 223d 85b2 17bd f47f 133c e8b2 36bc
000003a0: 3a86 25bd fa9d f9bc b243 d73c f965 1f3d
000003b0: 0150 163d ca18 d8bc 1efd bb3c 67be c4bc
000003c0: d5b1 0ebd 0e22 a13c cba9 22bd 90fa c4bb
000003d0: c8b3 313c b35a 223d 3bd5 1abd 6241 c73c
000003e0: 4015 d1bc c5bf 1e3d ca86 f7bc 1453 123c
000003f0: 7862 42bd 0246 9a3c 92bc 3abd a006 d33a
-0.005741667 -0.042679746 -0.033708 -0.015016794 -0.038315106 0.024760392 -0.029742515 -0.04622039
-0.00793447 0.030794013 -0.04981124 -0.035907708 0.031706 -0.004247777 0.045611273 0.029417094
0.018647473 0.046349484 -0.040418126 -0.02630275 0.044822287 -0.010497995 0.018151533 0.007076539
0.02055103 0.002777677 -0.030403674 0.044889186 -0.03933572 0.044617917 -0.016628515 0.04353569
-0.0019598305 0.0027777255 0.01706976 -0.021608884 -0.0299774 0.015308958 0.0033141077 -0.015337937
0.016854066 0.04103366 0.04687744 0.032070223 -0.020531291 -0.020868583 0.016500268 0.030935768
0.0025950968 -0.021915758 -0.013784401 -0.032208145 -0.0075438246 0.019340489 0.04273602 -0.0068129525
0.027634624 -0.01520551 0.031188864 -0.028571619 0.025086183 0.036087263 0.015409302 0.0034032054
0.04520647 -0.0021040924 -0.027607584 0.02649388 0.04372516 -0.0136666 -0.01568694 0.02607895
0.0020373762 0.0039316043 0.019119684 -0.016599894 -0.022785598 0.030542422 0.041079957 -0.021760304
0.027891409 -0.04631958 0.038803693 -0.019688625 -0.016895395 0.03731146 -0.029768055 0.024354462
-0.012040049 -0.008372612 -0.005896438 0.00080421567 -0.025196506 0.017557006 0.027913187 0.01731098
0.03905374 0.0052484088 -0.040298384 0.035790626 0.015522342 0.025957722 0.030046348 -0.01687754
-0.020340456 -0.044055164 -0.028740352 0.045538064 -0.03326802 -0.013976641 0.040687684 -0.0042243376
0.0063512437 -0.035321254 -0.015097488 0.03127678 -0.023740113 -0.019175237 -0.04396016 0.04850642
0.0045649037 0.037492175 0.04365902 -0.024908071 0.025054093 -0.041972358 -0.0382012 0.02539565
-4.079938e-05 -0.01860246 -0.020572348 -0.048494894 -0.02969103 -0.037433755 0.03212623 -0.04051088
-0.034843616 0.0025715716 -0.034770448 -0.021517623 -0.042771723 -0.047531348 -0.011110455 0.034010332
0.018623035 0.048479933 -0.008409817 -0.003562659 -0.016822316 -0.0019598417 0.009704255 -0.0069479756
0.008983523 0.0154822655 0.023322795 -0.0019559339 -0.01127889 -0.030719072 0.009359337 -0.0049918517
-0.04072116 0.018073682 0.019639295 0.021483678 0.041785266 -0.04900989 0.033362564 -0.03616143
-0.032420985 0.0024720058 -0.0047647543 -0.048568916 0.0313696 -0.04838217 -0.042315967 -0.026174217
0.02395292 -0.02519009 -0.029132593 0.022895623 0.01687209 -0.03605845 -0.0013473853 0.04790849
0.022509184 -0.030016506 -0.021504695 0.031344358 -0.018363006 0.028422449 0.021975469 -0.0011554472
-0.02897575 0.037093695 -0.0093941465 -0.0067235455 0.0122570805 -0.038538944 -0.0057713576 -0.0251239
0.039218385 -0.045034714 -0.036637515 -0.005540818 0.021434378 -0.0031978972 0.009155035 -0.0131512955
-0.04572013 0.026037123 -0.037015058 -0.03555148 0.038164537 0.021190044 0.04907955 0.03265291
0.04228664 -0.0035842583 -0.0035333112 -0.023416573 -0.044400193 0.03673893 0.041833367 0.017027188
-0.028537203 -0.012520604 -0.025664741 0.036719237 0.039783176 -0.037035484 0.009002674 -0.011151053
-0.04041121 -0.030470837 0.026277397 0.038915608 0.03669739 -0.026379008 0.022947844 -0.024016572
-0.034837563 0.019669559 -0.03971271 -0.0060113147 0.010846086 0.03963728 -0.03780101 0.02432317
-0.025522828 0.038757104 -0.03021564 0.00893094 -0.04745719 0.01883221 -0.04558999 0.0016099997

layer_2.bias f4 [300]
00000000: 7212 c13c e38b e2bc 28ed 9a3b 70fa 203f
00000010: 2fc2 ae3f 8a5f aa3f 1d37 c73c c11a c4bb
00000020: 68b5 c8bb 4892 5e3c 1f8f dfbb f587 04bd
00000030: 1e34 95bd acc2 be3c 5936 463d e9a2 4b3d
00000040: 50a1 ac3b 6f27 82bd ca08 11bd 8f79 e73c
00000050: 426f a33c 3cee a83f ccfa 92bd a9c8 8c3c
00000060: c976 d7bc 3583 c73c aebe a13f a246 c4bc
00000070: 623a 8a3c 77ac aa3f f617 ad3f 9e35 b5bc
00000080: 1595 febc aa91 843d b06f e53c 4d34 23bc
00000090: c4d1 8ebc 1f04 a5bb c95a dcbc bd93 0dbd
000000a0: def3 9fbd 68d7 463c 0a59 0f3f 60d2 42bd
000000b0: 580b ed3b a23a c23c 39c0 e4bc 8d57 18bd
000000c0: e6a7 843c 46bb 67bd 54df ad3f 3c64 263c
000000d0: e0c7 043b 252a bfbc dac4 54bd 6e44 00bd
000000e0: c11b 823c 2d5e a63f 89d7 4fbd 7582 123e
000000f0: 24e5 5cbd 25fc 113d 052d 0ebd f0f3 39bd
00000100: a38c a73f 2347 aa3f 147b d4bc 6858 fbbc
00000110: e6c9 d13c 93ab a23f 07a4 933c e4f9 753b
00000120: c88b 93bd 12e5 3dbd 906b 12bd 7404 a8ba
00000130: 22be ae3f 46c6 10bd 0e05 873c 8ac4 7fbc
00000140: 0c6e 7bbc a000 aebc b623 e33c ac27 3ebd
00000150: 18de abbf 10b6 bd3b da9b 4fbd 56e6 9a3f
00000160: 410b a63f cf09 7abd 8ee6 ac3f ecef 9e3c
00000170: c3df c7bc 9b78 53bc c652 383c c4c1 1d3c
00000180: 8c21 a33f 2f7a 32bd ff9f fc3c 6e43 cf3c
00000190: 9529 e5bc 4685 a93f 05b7 463d 5d80 a33f
000001a0: ffae a03c 189d d8bb fd51 13bd bd12 4c3d
000001b0: f65e ac3f ccc4 633c f0e1 963b 105e 53bc
000001c0: 7721 fabc 601e a63a f90d e8ba bc06 03bd
000001d0: 49e4 a43f d878 edbc f027 1abd cd3e ad3f
000001e0: cb37 0e3d 0451 a83f 73e1 d8bc 2fb9 a23f
000001f0: 4d24 2abd 1546 a33f e6e9 c93c dfe3 c43f
00000200: 7912 ab3f 0eca ad3f a148 79bb 0248 a13f
00000210: b6b6 a63f 4f2a 45bb b039 04bd 6812 a6bb
00000220: 7575 02bc ec4f 69bd ffbf 803d 06ec 16bd
00000230: 6696 3dbd 12e5 5bbd 75d9 23bd dc0d a33f
00000240: 5b51 4fbc fc6d a43f d3d0 733c a83b f4bb
00000250: bb84 3cbc edef 0dbd b057 ab3f ceb6 ae3f
00000260: 73c6 783c 5bd3 aa3f 9447 b03f 2cfc f6bc
00000270: 2e21 ab3f 8724 c9bc cc11 4fbc cf56 b03f
00000280: 3ed1 8bbb 0e34 2bbd 42bd 66bc b27d 48bc
00000290: e08b 083b 5604 50bd e625 a43f 208b ba3f
000002a0: 0003 9bbb 27f4 b1bf 2359 733c 6fcc 60bd
000002b0: b688 b03f b00f 22bb 3bec a33f a667 083b
000002c0: e809 ac3f 9879 e4bc c2c6 d73c 476d 143c
000002d0: 9abe b83c 4528 163d c861 b63f d768 52bc
000002e0: 955a ac3f 9ca8 71bc 0a6a 98bd 65e2 8fbd
000002f0: 251b 163d 798b a73f 96f7 e13c 2644 95bc
00000300: da2b 23bd e822 83bc 2f7f f4bc f942 403d
00000310: 4527 afbd 06dc f03c 5414 083d 4f5f 6d3b
00000320: a65d 4bbd c444 c5bc c403 77bc d5ef 2a3d
00000330: cbc0 ad3f a075 f33a 2b76 3dbd 4f17 b13f
00000340: f30e 3a3d 07f0 a1bc 5b3b 3ebc ee33 23bd
00000350: e3c6 31bd 20e0 b53f b1be acbc e5f7 f0bc
00000360: 88d0 1d3c 2fc9 00bd ebfd a23f 0add d7bc
00000370: 0df3 fdbc 2ef6 8fbc f018 93bd e8bc a63f
00000380: 36f8 aa3f 4170 463c d889 e53b 53a0 a53f
00000390: 1ac9 af3f 3784 4a3b 59f7 46bd 62dd ab3f
000003a0: 732d 353d b28c e53c ce40 f8b9 5d2c 2a3d
000003b0: 537b af3f 13ca b03f ac76 8ebc 006c 433c
000003c0: 261e b13f 4706 46bc 6edd 1c3c 4cd1 a93f
000003d0: 9b9a 2cbd db09 efbc e929 a73f b393 b0bb
000003e0: 3dab 8f3c 3813 a53f be50 753c 4e91 ff3b
000003f0: b57a a93f 549e ab3f 6b65 29bd 0944 0bbc
0.023568366 -0.027654594 0.0047279783 0.6288214 1.365301 1.3310406 0.024318272 -0.0059846346
-0.006125141 0.013584681 -0.0068224813 -0.03235622 -0.07285331 0.023286186 0.048391674 0.04971591
0.0052682534 -0.063551776 -0.035408773 0.028256206 0.019950513 1.3197703 -0.07176742 0.017185526
-0.026301758 0.024354557 1.2636316 -0.023959462 0.016873542 1.3333882 1.3522937 -0.022120293
-0.031076947 0.06473096 0.028007358 -0.0099612 -0.017434008 -0.0050358917 -0.026898758 -0.034564722
-0.07810186 0.012136318 0.5599524 -0.04756391 0.0072340183 0.023709599 -0.02792369 -0.03719287
0.016193341 -0.056575082 1.3583779 0.010155734 0.0020260736 -0.023335526 -0.051945545 -0.03131526
0.015882375 1.299749 -0.05074266 0.14307578 -0.053929463 0.035640854 -0.034710903 -0.045398653
1.3089794 1.3302959 -0.025937594 -0.030681804 0.025608968 1.270861 0.01802255 0.003753298
-0.072043955 -0.046361037 -0.03574711 -0.001281871 1.3651774 -0.03534534 0.016481902 -0.015610823
-0.015346061 -0.021240532 0.02772699 -0.046424553 -1.3427153 0.005789526 -0.05068574 1.2101543
1.2972184 -0.06104451 1.350786 0.019401513 -0.02439869 -0.012907173 0.0112502035 0.009628717
1.2744613 -0.043573555 0.03083801 0.025300708 -0.02797393 1.3243797 0.048514385 1.2773548
0.019614695 -0.006610524 -0.035966862 0.049822558 1.346648 0.0139019005 0.0046045706 -0.012900844
-0.030533535 0.0012673847 -0.001770436 -0.031988844 1.2882167 -0.028988287 -0.037635744 1.353479
0.034721177 1.3149724 -0.02647469 1.2712764 -0.041538525 1.2755762 0.024647664 1.5382041
1.3365012 1.3577287 -0.0038037675 1.26001 1.3024509 -0.0030085032 -0.032281578 -0.005068112
-0.007962574 -0.056960985 0.0628662 -0.036846183 -0.04628601 -0.053685255 -0.040002305 1.2738605
-0.012653674 1.2846065 0.014881331 -0.0074534006 -0.011506255 -0.03465264 1.3386135 1.3649538
0.015184033 1.334575 1.3771844 -0.030149542 1.3369501 -0.02455355 -0.01263852 1.3776492
-0.004266887 -0.04179769 -0.0140832085 -0.012236999 0.0020835325 -0.050785385 1.2824066 1.4573708
-0.0047305822 -1.3902634 0.014852795 -0.054882463 1.3791721 -0.0024728589 1.2806467 0.0020813732
1.3440523 -0.027890012 0.026339892 0.009059257 0.022551823 0.036659498 1.424859 -0.012842379
1.3465143 -0.014749672 -0.074421 -0.07025603 0.03664698 1.3089439 0.027583878 -0.018220972
-0.039836742 -0.016007856 -0.029845802 0.04693887 -0.08552412 0.02940179 0.03322251 0.0036220138
-0.049649857 -0.024080642 -0.015076581 0.041732628 1.3574461 0.0018574484 -0.046255272 1.3835238
0.045424413 -0.019767774 -0.011610831 -0.039844446 -0.043402564 1.4209023 -0.021087022 -0.02941508
0.009632237 -0.031441864 1.273374 -0.026350517 -0.030999685 -0.017573442 -0.07182491 1.30264
1.3356998 0.012111724 0.0070049576 1.2939552 1.3733246 0.003090156 -0.048575733 1.3426936
0.044232797 0.02802119 -0.0004735053 0.041546214 1.370951 1.3811668 -0.017390572 0.011927605
1.3837326 -0.012086458 0.009574277 1.3266997 -0.04213963 -0.029179504 1.3059665 -0.005388701
0.017537707 1.289649 0.014972864 0.007799304 1.3240572 1.3407693 -0.041356485 -0.008500108

layer_3.weight f4 [1, 300]
00000000: a0d0 5b3b 2c75 c13c fede d4bc 0045 0abf
00000010: 71fd ef3d 16e2 983d e02c 47bc e27a 6ebb
00000020: 0066 3f3c 7f6d 93bc bcd0 3ebd 03ff ceba
00000030: d6cb 0dbb 2844 96bb 0029 043d 0c2c 053d
00000040: 4cec f43c bf7f afbc fc6e e33c d74a 0cbd
00000050: b5b7 f1bc 56d8 993d 90da c63c d02c 06bd
00000060: 62f1 27bd 15f2 20bd 9529 f03d 4cd0 af3b
00000070: a8b9 f1bc d6f9 ce3d d856 bd3d 6591 35bd
00000080: 7a31 4b3c 81d9 8a3b 6af5 05bd 77bd 3bba
00000090: 4831 373c 1fac 58bc 637e 17bd 1fd9 2cbc
000000a0: ab62 43bb a062 6a3b f4e4 3b3f 7496 683d
000000b0: 448a 3fbd 3752 4fbc 1d61 053b 8ee8 3abb
000000c0: 346d cabc 2315 04bc 1b4a e73d 4ce6 d8bc
000000d0: f0f2 5e3d 13a2 c6bb 83e4 71bb 3e9c 523c
000000e0: 3009 1fbd bc2e af3d 1f65 3ebc 79b0 8cb8
000000f0: 70f6 92bb ea8d 373d aeb9 bb3a 9d02 033c
00000100: d7a8 b53d c774 943d 91e1 9a3c 761c 8ebb
00000110: f8d9 d5bb a6d5 a73d 94b7 b4bc da9e 60bf
00000120: a8a8 e9bc 4cf9 24bc e19b 80bc dcd8 5abb
00000130: 1d6d 8c3d 0698 aaba b773 63bd 9d39 e0bc
00000140: 2230 5c3d b23a babc 002c 7ab8 d7ce 963c
00000150: 1626 a1bd 64dd 243d b86d a8bb ad20 a63c
00000160: 8ebd ad3d f699 62bc f497 cb3d 105b e6bc
00000170: fcc5 0b3b a178 5bb9 930a 7ab9 3071 763b
00000180: 6b75 eb3d b851 be3c 9fd2 3dbc c00a c1bb
00000190: 8398 72bc 5799 b43d fbf2 5bbd 3167 e73d
000001a0: 0f00 333b 209e d53b 76d4 10bb 3893 09bd
000001b0: 241c 5f3d 54f5 1ebc 7ac2 ebbc a33a 243b
000001c0: 0c9c bf3c 3fb0 33bd 18ab bfbb ce39 3abd
000001d0: 430e df3d ceed a43c 8a8d 86bc 4cef e53d
000001e0: 8804 0c3c 1233 de3d 7e6c debc afdb c23d
000001f0: 885c d2bb 94db ca3d 80fa cabb 45d0 363e
00000200: 139a b33d 3ca8 933d eaaa b83c 00f7 e53d
00000210: 2eca 9b3d a80f 303b dfb6 763c 7036 2b3c
00000220: 303a e3bc 42e5 17bd b56b 36be 68fa dabc
00000230: 932b 8c3c 181a b1bc 5803 9ebb 69c5 b43d
00000240: 9eda 31bd aa39 d03d f7fc aabc b461 5e3c
00000250: f09d a73c afe4 ebbc 7793 c43d 3a09 b53d
00000260: a19b ffbc b348 e73d c340 a53d 94a1 19bc
00000270: b4f7 5a3d c081 cabc 5dcb eabb cd43 a63d
00000280: 8481 f6bb 6731 49bd a6ce 0abd f298 cfbc
00000290: 2691 103d 445f 2ebb f4dc a63d 70a5 f53d
000002a0: d42e d63c be0c 98be 15ad c5bc b778 8b3c
000002b0: ee8f a43d 1cd0 e13c 80a5 b93d 3afd 073b
000002c0: c22e f43d 7716 11bd 9f68 f2bc 53db 7b3c
000002d0: b4ee 7cbc fb8a 1bbd d4cf af3d 848a bf3b
000002e0: bbf2 a73d 82de e2bb 5345 eabb 6705 5f3a
000002f0: a955 22b8 72c3 ca3d 88c0 873c 360d d9ba
00000300: 0055 853c b168 49bd b6f1 513b b497 31bc
00000310: 1b1c a9bc 72b3 9abc 2f8b c33c 3d11 bb39
00000320: 721a f0bc d372 d0bc 2e96 93bc 5bc0 37bb
00000330: 335e fd3d 20fd 4dbc 22fa 603d b6c7 cc3d
00000340: ae80 4d3d 50b7 2e3b 24cb 38bc e05e 933c
00000350: 75da 9bbc b73e dd3d 5f5e b6bc c442 293c
00000360: 8bc8 ce3a c757 af3b 019e 4a3d db60 28bd
00000370: 18b8 e03b 2b03 34bd 99ad edbb 17a5 ae3d
00000380: b6a1 943d 686f 8a3c 7fa5 40bd 5d63 9a3d
00000390: 35cc a43d 89a5 a3bb 4cd7 d9bc 6a64 b53d
000003a0: dc1b 12bd 441a c3bc 006d b93c 78c0 bf3c
000003b0: 9f13 ad3d 0c65 a33d 10bc 3c3c daf8 273d
000003c0: 72e4 cf3d f2da e9bc ae19 b1bc 7331 d03d
000003d0: c8c8 3dbc d4be e33c f105 e33d 1ef5 ecbb
000003e0: f987 c93c 01c3 ca3d 1dd1 51bb 6edf 713c
000003f0: 2a16 923d 33c2 e43d 1c6d d63c 56b6 383c
0.0033541098 0.023615442 -0.025985237 -0.54011536 0.11718262 0.074649975 -0.012156695 -0.0036389162
0.011682034 -0.017996548 -0.046585783 -0.0015792552 -0.0021636388 -0.0045857616 0.032265663 0.03251271
0.029897831 -0.021423219 0.027762882 -0.03425106 -0.029506544 0.07511966 0.02427414 -0.03275758
-0.041001685 -0.039293367 0.11726681 0.005365407 -0.029507473 0.10106246 0.0924508 -0.044328112
0.012401933 0.0042373543 -0.03270475 -0.00071617163 0.011181183 -0.013224631 -0.036985766 -0.010549813
-0.002981345 0.0035764351 0.7339623 0.05678411 -0.04676272 -0.012653879 0.0020352073 -0.002851996
-0.024710275 -0.00806168 0.11293431 -0.026477002 0.054430902 -0.006061801 -0.0036909885 0.012854634
-0.03882712 0.08553836 -0.011620789 -6.708591e-05 -0.004484944 0.044813074 0.0014322305 0.0079962285
0.08870094 0.07248836 0.018906387 -0.004336889 -0.006526228 0.08195047 -0.022060193 -0.8774239
-0.028522804 -0.010069203 -0.015699329 -0.0033393418 0.06856749 -0.0013015277 -0.055530276 -0.027371222
0.05375684 -0.022733066 -5.9645623e-05 0.018409176 -0.078685924 0.040250197 -0.0051400326 0.020279253
0.0848342 -0.013830652 0.09941092 -0.028119594 0.0021327725 -0.00020930405 -0.00023845797 0.0037604086
0.11497005 0.023232326 -0.0115858605 -0.005891174 -0.014806869 0.0881831 -0.05369852 0.11298979
0.0027313267 0.006519094 -0.0022099293 -0.033587664 0.054470196 -0.0097020455 -0.028779257 0.0025059364
0.023389839 -0.043869253 -0.0058492534 -0.045465283 0.10891392 0.020132925 -0.016424913 0.11227283
0.008546002 0.10849585 -0.027151342 0.095145576 -0.006419722 0.099051625 -0.0061944127 0.17852886
0.08769622 0.072098225 0.022542436 0.11228752 0.07606922 0.00268648 0.015058248 0.010449991
-0.027737707 -0.03708387 -0.17814524 -0.026730731 0.017110622 -0.021618888 -0.004822176 0.088267155
-0.04342138 0.101672485 -0.020872576 0.013573099 0.020461053 -0.028795568 0.09598439 0.088396505
-0.03120214 0.11293163 0.08068993 -0.009376902 0.053458884 -0.024720073 -0.007165356 0.08118401
-0.0075227637 -0.04911938 -0.03388848 -0.025341485 0.035294674 -0.0026607076 0.08147612 0.11994445
0.026145376 -0.29697222 -0.024130384 0.017025335 0.08035265 0.027565055 0.0906477 0.00207503
0.11922981 -0.035421815 -0.029590903 0.015372115 -0.015437771 -0.03797434 0.08584562 0.00584537
0.08200594 -0.0069234977 -0.0071493774 0.000850758 -3.8703587e-05 0.099005595 0.016571298 -0.0016559723
0.016275883 -0.049172107 0.003203494 -0.0108393915 -0.020643285 -0.018884394 0.023870079 0.00035680263
-0.029309485 -0.025445377 -0.018015947 -0.0028038237 0.12371483 -0.012572557 0.054926045 0.09999029
0.050171547 0.0026659556 -0.011278901 0.017989576 -0.019025067 0.108029775 -0.022261797 0.01033086
0.0015776319 0.00535104 0.04946709 -0.041107994 0.006857883 -0.043948334 -0.0072533605 0.08527582
0.072574064 0.016898826 -0.04703283 0.07538483 0.08046762 -0.0049940986 -0.02659192 0.08857043
-0.0356711 -0.023816235 0.022634983 0.023407206 0.08451008 0.079782575 0.011519447 0.041008808
0.10150994 -0.028546784 -0.02161869 0.10165682 -0.0115835145 0.027800955 0.110851176 -0.0072313687
0.02460097 0.09900475 -0.003201551 0.014762742 0.07133134 0.11169853 0.026175074 0.011273941

layer_4.weight f4 [400, 7]
00000000: 84e7 8dbe 602f 753c bc4c 8cbe 64a3 ad3d
00000010: cbe3 24be 2e0d 2b3e 008b f83b 57eb 16be
00000020: 7a93 c1bd df4d a93e 149f 6ebe 4273 023e
00000030: 0166 dbbc d216 6fbe 58de 9c3e f2ba 06be
00000040: ef9a 4e3e 393c aebe 181f 793e 7247 49bd
00000050: 7a6f 90bf 073e 0ebe 66d8 853e 5c5f 1b3e
00000060: d9e8 7fbe e250 dd3c 9a9d b7be cc31 40bf
00000070: b18b a8be e09e 943d f87d 3bbe 0a77 243e
00000080: 5006 c3bd af63 b03e 4fe3 16be 2aef b7be
00000090: e55e 9bbc ddbc bfbc 7454 113e 1345 943e
000000a0: b185 bcbf cfbc 27bf 5525 98be c96e 973e
000000b0: 90c2 cd3d c10e 7bbe 6e19 223e a40c abbd
000000c0: 0852 46be 3184 0cbe 08f3 813d ac4d 283d
000000d0: d1be 383d 22a7 4e3e 6a00 f6be 0458 493f
000000e0: 2c9b a63d f5e1 96be f8e4 493e 67c0 62bd
000000f0: 8ce6 c5bc 6b94 47bf 27cd e63e d489 5c3e
00000100: 8d47 04be 7f02 abbe 738d 8b3e 40d4 8e3e
00000110: 19cb bdbe 07f5 90bf 84c0 b83d ceda 6dbe
00000120: d7d3 3ebe 6a47 a33e e935 85bc 9b68 72be
00000130: 0765 023f 6aba 533e 50b3 5e3d eeab bdbe
00000140: ca43 98be e024 c8bc 5f7f 9bbe fb3e 64be
00000150: ddf2 98be c22d 18bd 9113 ee3d e5c8 413e
00000160: 2729 42be 5703 973e 4dd6 2c3e b623 69bd
00000170: 68c6 7b3e 5f56 6abe a602 38be cc45 f23e
00000180: a4d5 fdbe f746 6dbf 9b78 a1be 1e64 563e
00000190: 3db8 a03e 5060 77be 6dfb 9fbc 181b aebd
000001a0: c4b4 b03e 96ad 3b3e de99 43be f068 adbe
000001b0: 00d1 9bbd d162 a3be be9f 0f3e 8e81 583e
000001c0: e1ac f33d f519 c3be 3169 333e 3b94 083d
000001d0: 442c b0bc a41c d5be 1541 d43e 0643 66bc
000001e0: 311c 93be 67d8 203e fc34 4d3d 02fd 263e
000001f0: 1cfb 0fbf 709a 5f3e 948d 01be 101d 463d
00000200: c0f3 fcbd 0f59 50be 6117 adbe 0054 7c3a
00000210: f0f3 88be 9b63 6abe 4b3f 87be fb9b 9c3e
00000220: 12cd 66be bc60 a5be 3629 783e 97cf b13e
00000230: 352e 3a3d 23ca a0be 3cfa 8b3d 3822 d73d
00000240: 259f 403e 6e5d 37bf fce7 883f 5d96 9bbe
00000250: 0448 63be 98f7 84bd c20a 7e3e 2ef8 39be
00000260: 7cf4 bc3d 00d5 6abb 378b 2f3e 66ee 23be
00000270: e38d 083d c3b1 5fbe 8283 293f 5444 f7be
00000280: 90f7 363f a004 bbbe 6687 4b3e 36ac 093e
00000290: 57b2 44be 473d 57be d753 6abe 4111 a2be
000002a0: b94c 543e 6440 193e beb9 86be 6aa6 b0bb
000002b0: c984 4b3e 43b5 fbbd 4f8b 9a3e 9421 a8bd
000002c0: cefb acbd efd1 03bd 22db 0b3e 7a14 82bd
000002d0: 570c d4be 9849 d53d 0e84 313e 40a8 723d
000002e0: 0e2b 65be f862 60be 4313 a13e 69d0 9bbe
000002f0: 6e6c 713e 9a95 96be 0079 9fbb 840b cfbd
00000300: 536a b8be 003a 393a 5a23 49be 13eb 77be
00000310: 7029 ce3c d980 89be 58dc ba3d ba16 76be
00000320: 857b 8b3e 7049 1e3d 9851 5c3d 1feb 8dbe
00000330: 1c33 66be fb16 9a3e 48bf ee3d c0a5 a53d
00000340: 24df a5be e881 00be 508a da3c 9106 61be
00000350: 6e23 8cbe b7fa bbbe d55f 8e3e 66e5 12be
00000360: f158 65be b006 223d f05e 48be 0222 723c
00000370: 3cdf e93d 753f 6f3e f546 99be 3ba4 2d3f
00000380: 6172 a5be f63f 243e 1634 173e 94fb 1fbe
00000390: d936 8d3e 7276 86be fa50 40be 97da 8b3e
000003a0: 593e 10be f69c 2fbe 780f 0bbd eb7e bc3e
000003b0: 5209 753e f75b a13e bd1d 1fbe b8a9 cebd
000003c0: 80f7 b6bc 58fc acbe aea4 473e e0eb 433c
000003d0: 3e27 063e 5208 733e 12ed acbe a365 53be
000003e0: d80f bcbe 3434 dcbd d1cd 6cbe 3eb2 463e
000003f0: a162 edbe 77e1 563e 6edc 163d 4321 073e
-0.27715695 0.014964908 -0.27402294 0.0847843 -0.16102521 0.16704246 0.0075849295 -0.14738213
-0.09451957 0.33067223 -0.23302871 0.1273928 -0.026782038 -0.23348549 0.30638385 -0.13157251
0.2017629 -0.3403032 0.24328268 -0.0491404 -1.128402 -0.13890849 0.2614166 0.15173095
-0.24991168 0.027016107 -0.35862428 -0.75075984 -0.32919076 0.072568655 -0.18309772 0.16061035
-0.095226884 0.34451053 -0.14735149 -0.35924655 -0.018966148 -0.023405487 0.14192373 0.2895895
-1.4728299 -0.65522474 -0.29715982 0.2957671 0.100468755 -0.24517347 0.15830013 -0.083520204
-0.1936723 -0.13722302 0.06345183 0.0410897 0.04510385 0.20180944 -0.4804719 0.78649926
0.081350654 -0.29469267 0.19716251 -0.05535927 -0.024157785 -0.7796084 0.45078394 0.21536952
-0.1291792 -0.33400342 0.27256355 0.2789631 -0.37069014 -1.1324776 0.090210944 -0.23227999
-0.18635498 0.31890422 -0.016261058 -0.23672716 0.50935405 0.2067658 0.054370224 -0.37045234
-0.2973922 -0.024431646 -0.30370614 -0.2228965 -0.2987279 -0.037153013 0.11624826 0.18924291
-0.18961011 0.29494736 0.16878624 -0.056918822 0.24587405 -0.2288451 -0.1796976 0.47318876
-0.49577057 -0.9268641 -0.31537327 0.20936629 0.31390563 -0.24157834 -0.019529069 -0.085012615
0.34512913 0.18327937 -0.19101664 -0.33869123 -0.07608223 -0.31911328 0.1402578 0.21143171
0.118982084 -0.3810574 0.17520596 0.03334449 -0.021505482 -0.41623414 0.41455904 -0.014054066
-0.28732446 0.15707551 0.050099358 0.16307452 -0.5624254 0.21836257 -0.12651664 0.04836756
-0.12351179 -0.20346473 -0.338069 0.0009625554 -0.2674861 -0.22889559 -0.26415476 0.30587754
-0.22539166 -0.32300365 0.2423447 0.3472869 0.045454223 -0.31404218 0.06834838 0.105045736
0.18810709 -0.7162694 1.0695796 -0.30388156 -0.2219544 -0.06492537 0.24808791 -0.1816108
0.09226319 -0.0035832524 0.1714295 -0.1600891 0.03333844 -0.21845154 0.6621629 -0.48294318
0.714715 -0.36526966 0.19875869 0.134446 -0.19208656 -0.21019469 -0.22883545 -0.3165379
0.20732392 0.1496597 -0.26313585 -0.005390932 0.19874872 -0.12290432 0.3018441 -0.082095295
-0.084464654 -0.03218263 0.13657811 -0.06351562 -0.41415665 0.104144275 0.17335531 0.059242487
-0.22379705 -0.21912754 0.31460008 -0.30432442 0.23576519 -0.29411012 -0.0048667192 -0.10109618
-0.3601862 0.00070658326 -0.19642392 -0.24210767 0.025166243 -0.26856115 0.091240585 -0.24032107
0.27242675 0.038644254 0.05378875 -0.27718446 -0.22480434 0.30095658 0.11657578 0.08088255
-0.32396805 -0.12549555 0.02667728 -0.21975161 -0.2737078 -0.36714718 0.2780749 -0.14345321
-0.2239721 0.03955716 -0.19567466 0.014778616 0.11419532 0.2336405 -0.29936948 0.6782872
-0.32313827 0.16040024 0.14765963 -0.15623313 0.27580908 -0.26262242 -0.1878089 0.27315208
-0.14086284 -0.1714972 -0.0339503 0.3681558 0.23929337 0.31515476 -0.15538688 -0.10090965
-0.022334814 -0.33786273 0.19496414 0.011958092 0.13100907 0.23733643 -0.3377462 -0.2064424
-0.36730838 -0.107521445 -0.23125388 0.19403931 -0.4636431 0.20984446 0.036831312 0.13196282

layer_4.bias f4 [400]
00000000: 002f 99bb 1275 a4bd 8c45 dbbf 9aed d5bf
00000010: 8008 1abc a824 93bc 4734 923e 99cf cb3f
00000020: 1280 d53e 0b52 e3bf 3d18 bd3f 4c42 a3bd
00000030: 403c 1dbd e00a 893f 7c3c 9e3e 3750 883e
00000040: 7212 5f3f 0139 0e3f f090 f8bd 758c 85be
00000050: 5766 363f 68e3 64bd 1d31 e33e 29bc 983e
00000060: 34ad bc3f d106 d53e 804c 443d 02a2 323e
00000070: aae3 413e 14ec 9f3d 9a05 123e 2dd6 a93f
00000080: 7ae8 1e3e 6696 573e a0ce ff3c e483 8fbd
00000090: 1a73 cabe bedb 143e 325b 65be 3588 c0be
000000a0: b307 dfbe b879 8c3d f340 ce3f f301 273f
000000b0: a13f dc3f 948d b93f b157 9cbe 7c6f dbbf
000000c0: 089d afbe bd94 a33f 4cc8 5dbe 799d dfbf
000000d0: 2b32 633f 77aa 5dbe 7cfc 3b3f 17f7 203e
000000e0: 86b4 623f ca46 333f ed34 afbe ab22 af3e
000000f0: 5810 61bd 2eed 2abd 3676 5ebe b95a 2e3f
00000100: d9e6 9c3e 20a5 a43d 3921 57bf cba2 b7bf
00000110: 40cd a43f ec98 c43f dee1 7c3f e147 d03f
00000120: 5391 bf3f 2add c43f f3e2 163f ccb9 81be
00000130: 20d6 b7bd e805 4abe 4d1b a73e c837 c1bd
00000140: 1297 4dbf 9332 283f 3e49 073f 34df a83d
00000150: a82b 67be ac8a b03f 61d9 b23f 88c4 e33d
00000160: eb61 a53d e5e5 8a3f 6f94 a53e 1ead 153f
00000170: b24c 01be e45a 91be ae32 b8bf 2641 943f
00000180: d4fd 023f 8e57 0dbf 6546 dd3d c8c1 293d
00000190: 14d6 a4bd 4542 933e 6027 1cbf 22d3 a5bf
000001a0: 028b 183e 3687 693e 30e9 e33f b75d 183f
000001b0: 904a 863f 5135 823e b2fe 4cbe a74d 9fbd
000001c0: d75c c73f 5c15 81be b105 14be 26b8 603f
000001d0: 01b4 7a3f bc17 bc3f 3e97 693e 098b 8fbe
000001e0: 7977 653f f0aa 2c3d 9572 c13e 68a1 fd3e
000001f0: 0a67 b63f 8731 abbf 5ae6 743e e504 ca3f
00000200: 8973 08be e0f3 f9bc 140a c73d aeca d03f
00000210: f13e 52be 0a7b 413e 6601 9a3f 247a e0bd
00000220: 2679 be3f 86f1 c93e 7278 99be da94 bdbe
00000230: f67b aabf 1598 a0bf 392b e7bd d854 aa3d
00000240: b722 893e b0b9 88bc 29c4 ba3e dd91 bbbe
00000250: 07f6 ad3e 6894 a5be bfff 703f 8fbb 9c3e
00000260: e0ee 673c 55c2 ddbf 76c7 853f 3027 643d
00000270: e908 ac3f ec72 f6bd ff67 7e3f 4010 3dbc
00000280: 31c5 653f 06c4 223e 20ee 703f d9af a53f
00000290: 2dee 903e 9091 acbe a0bc e03f 745f ccbf
000002a0: 6cb4 7e3f 9884 093d 0688 ca3f 39b2 c03f
000002b0: 20b8 483d 8237 713f 173c bd3e d8a8 4cbe
000002c0: 30f5 d43d ec4c 493f 836a 913f d485 3c3f
000002d0: e0d8 f83c c5f3 9e3e ffe7 873e 4a51 bcbe
000002e0: 207f 813d a50e a33e ab9a acbe a160 813f
000002f0: 2bf4 a73f 3030 a63f e853 81bf 6c79 2f3e
00000300: 544c 943d 34bf fa3d 7412 713f 7046 83bc
00000310: bedf 013e 982a 57bd a633 bcbf 39ec afbd
00000320: 5a3a 003e ad0f 163f 1b5d 8f3e f239 e13f
00000330: 90e7 b33c ea93 513e 0ad9 213e 28ea cc3f
00000340: ba67 8a3f 0b43 d53f 02df 6f3e b1c8 623f
00000350: 8070 aebe d77c e4bf 94e7 a7bd a043 af3c
00000360: 483d 523f 175e fb3e 5c1c 89bd f6a2 743f
00000370: 5c85 b83d 15ea e0bf 83ed 813e ebd6 af3f
00000380: a7df d0bf dac3 513e bc5d fd3d 41fe d8bf
00000390: b925 62be 90e1 50be db7b ca3f c919 8b3e
000003a0: 1afd 16be 88ca 693d c643 263e 5ea9 293e
000003b0: 1c01 24bf 498f 5a3e 00f3 b1bd 4a6f 213c
000003c0: cc6f 59be 6fa5 9f3f 3c32 b2bd 31f9 e63f
000003d0: 928d 4ebe ca70 3a3e 2604 933f e4ee b73f
000003e0: e8d6 a6bd d00a ea3c 3fab 8c3f f0b4 403f
000003f0: 6823 b1bf f0ac 543f e1a1 43be 8ee6 29be
-0.0046747923 -0.08030142 -1.7130599 -1.6713135 -0.009401441 -0.017961815 0.2855551 1.5922729
0.41699272 -1.7759413 1.4773022 -0.079716295 -0.038387537 1.0706444 0.3090552 0.266237
0.8713752 0.5555573 -0.1213702 -0.26083723 0.7124991 -0.055880934 0.44373408 0.29831055
1.4740357 0.41606763 0.04792452 0.17444614 0.18934503 0.078087 0.1425995 1.3268486
0.1551837 0.21053466 0.031226456 -0.07007578 -0.3954094 0.1453695 -0.2239807 -0.37603918
-0.43560562 0.068591535 1.6113571 0.6523735 1.7206918 1.4496331 -0.30535653 -1.7143397
-0.34299493 1.2779766 -0.21658438 -1.7469932 0.88748425 -0.21647058 0.73432136 0.15719257
0.88556707 0.7002989 -0.34220067 0.34206137 -0.054947227 -0.0417301 -0.21724781 0.6810718
0.30644873 0.080393076 -0.8403507 -1.4346555 1.2875137 1.5359168 0.98782146 1.6271936
1.4966224 1.5379994 0.5894005 -0.25337064 -0.08976388 -0.19728816 0.32638016 -0.094344676
-0.8030864 0.6570217 0.52846134 0.082456976 -0.22575247 1.3792319 1.3972589 0.1112147
0.08075317 1.0851408 0.32339808 0.5846728 -0.12626913 -0.28389657 -1.4390466 1.1582382
0.5116856 -0.5521172 0.10804442 0.04144457 -0.08048645 0.28761497 -0.6099758 -1.2955058
0.14896777 0.22805485 1.7805538 0.59518 1.0491505 0.25431302 -0.20019034 -0.07778483
1.5575207 -0.25211608 -0.14455296 0.8778099 0.97930914 1.4694743 0.228116 -0.28035763
0.89635426 0.042155206 0.37782732 0.49537206 1.4250195 -1.337449 0.23915997 1.5782744
-0.13325323 -0.030511796 0.09718719 1.6311853 -0.20531823 0.18894592 1.2031677 -0.109607965
1.4880722 0.3944208 -0.29974705 -0.37027627 -1.331908 -1.2546412 -0.11287541 0.08316964
0.26784298 -0.016690105 0.36477783 -0.36634722 0.33976766 -0.32339787 0.9414024 0.30611846
0.014156073 -1.732493 1.0451496 0.055701435 1.3440219 -0.12033638 0.99377435 -0.011539519
0.89754015 0.1589509 0.9411335 1.294429 0.28306714 -0.33704805 1.7557564 -1.596663
0.9949405 0.033573717 1.5822761 1.5054389 0.04900372 0.94225323 0.36959907 -0.19986284
0.10398328 0.78633 1.136063 0.73641706 0.030376852 0.31045356 0.26544186 -0.3678077
0.06323075 0.3184711 -0.33711752 1.0107614 1.3121389 1.2983456 -1.0103731 0.17136163
0.07241121 0.122435 0.9416878 -0.016024798 0.12683007 -0.052530855 -1.4703262 -0.08589978
0.1252226 0.5861767 0.2800072 1.7595809 0.021961004 0.20466581 0.1580545 1.6008959
1.0812905 1.6661085 0.23424914 0.8858748 -0.34070206 -1.7850598 -0.08198467 0.02139455
0.8212476 0.49095222 -0.06694862 0.9556116 0.09009811 -1.7571436 0.2537652 1.3737463
-1.6318253 0.20484868 0.12371394 -1.6952592 -0.22084703 -0.20398545 1.5819048 0.2716811
-0.14744988 0.057077914 0.16236791 0.16568515 -0.6406419 0.21343721 -0.08688927 0.009853194
-0.21234053 1.2472361 -0.08700988 1.8044797 -0.20171192 0.18207088 1.1485641 1.4369779
-0.08146459 0.028569609 1.098976 0.7527609 -1.383893 0.8307638 -0.1910472 -0.16591856

layer_5.weight f4 [300, 400]
00000000: 6d0b 3bbd 3899 173c c403 88bd bc4a 43bd
00000010: 122e eb3c 9bc3 65bd c99e 0d3d 13ec 3f3c
00000020: abb1 72bd 75e9 013c 3e07 e03b e303 e4bc
00000030: ce10 18bd d398 943b 2798 f0bc a0c3 2c3b
00000040: b214 f7bc 303e 3dbd ad9d f4bc b612 8e3c
00000050: e177 9b3b 4065 d03a 5b2e 4bbd 980b 4a3c
00000060: d4aa 39bd baac 83bc 80b0 273c 5d1a 183d
00000070: 8a85 8cbc 036b 023d 88aa 64bc 4e59 4f3b
00000080: 3b9f 2f3d 0b31 103d 5e57 e23c 2252 4bbd
00000090: decf 09bd fd01 3fbd 13ed 28bd bdb4 26bd
000000a0: 00cd 89ba 93b7 c0bc 667d 0bbd 1485 50bd
000000b0: f204 06bc f58d 903c 36ed bb3c e6ed 81bd
000000c0: b643 f73c 0f2c 8cbd e652 d73c b2a4 d2bc
000000d0: eefd d5bc 82bd 08bd 6378 6bbd 1087 a53b
000000e0: 5ad4 f53b 9fe6 b5bc 3edd f63c cfbd 30bd
000000f0: 322b bb3c 871d 413d dec5 b33c 9510 4f3b
00000100: 18cf b23b 477b 293d b823 3dbd 1625 b6bc
00000110: 2e2c 88bd 7383 96bd a036 633b 2c35 a5bb
00000120: 0ec8 3d3c 46b7 3d3c e064 9abd d8fe e3bb
00000130: 683e 4fbc 1a28 3dbd ad8a 363d 7372 bfbc
00000140: 3bf2 9fbc 501a 053c 921a d33c 987f 28bc
00000150: 3fbc 45bd bdb7 b83a 19f1 26bb 6a92 47bd
00000160: fb2f 233d c886 a4bd d34e 1a3d 5ff4 6cbd
00000170: 594c 483d 0623 14bd cf80 f3bc e759 69bd
00000180: 63c3 42bc 0f52 38bd ca37 49bd 6b19 22bd
00000190: 0dbe 1f3d a2cb ac3c 5bc0 7cbd fb9b 44bc
000001a0: 9755 473d 17f6 48bd 9d8f e5bb 68b3 8bbc
000001b0: 9491 52bb a43b 7b3c 800c 453a 0ae2 a6bd
000001c0: ba9b b73b 3253 27bd cddb 463d af7e 91bd
000001d0: d95e a2bd 108b c93b 997a 093d cabe 9ebd
000001e0: ef54 97bc 241d 553c 7888 16bc 408c 913c
000001f0: bfcb 35bd e239 7bbd 5382 1fbd 40a7 9fbd
00000200: fdec edbc c550 10bd 9af7 d43c f70f 1fbc
00000210: 3b56 433d 6fc5 033d ddb6 23bd 20c5 13bd
00000220: 66dc 7abd 99da b8bb caee 17bd 0aca 91bc
00000230: 8e92 2b3c 853f a7bc 10b2 8cbb 00e1 fcbb
00000240: aef6 903c eb01 363d b81b 26bc 6159 453d
00000250: a9de 273d ebe5 30bd b004 19bc 003f ce39
00000260: 03e8 3a3d fef1 a3bd 619a 54bd 666b 06bd
00000270: 9ee2 15bc 9d8c 433d 3896 c0bb a697 fb3c
00000280: 15ec 87bd 71e8 3b3d 8d93 94bd 7691 58bd
00000290: 8e8d 11bd 585a e1bb 4013 68ba 9f11 8c3c
000002a0: f04d 1abd b6d0 cd3c 6bdc a3bb be41 18bd
000002b0: 60b8 843a acd2 0d3c 1e64 903c 6209 b93c
000002c0: 60db 1b3c 14a5 4abb c84b 95bd 809e f1bb
000002d0: b280 d03c c843 10bd 9048 f9bc fa25 29bd
000002e0: c09d 9cba 6425 7e3c 1f68 3bbd 6962 3ebd
000002f0: e5e9 943b b60c 76bc 0dc0 1dbd ffc3 203d
00000300: e22a 8f3c 94f6 67bc 599a 56bc 9af0 85bc
00000310: 8def e7bc 3d59 333d 5189 d5bc 88cd 5cbd
00000320: d081 83bb 68c9 80bd c694 113c 2d4c 003d
00000330: 1257 c93c 601b 06bb 0062 f9bb 9c27 9abd
00000340: 8ca4 d23b 7f39 7dbd 00ea 8eb8 37e8 8bbd
00000350: 8753 9ebc d82d f33b 3158 4c3d 609c daba
00000360: a667 50bc 7e79 68bb 8217 c03c 0b5c c1bc
00000370: f798 b5bc f40c 843b 5021 fcbc 9d7c 81bd
00000380: acf2 06bd f2ae b43c 1fd8 433d c9e0 89bd
00000390: 1f31 96bd 0085 f13b 866e a7bd 4cd2 8bbc
000003a0: 92de fa3c 694e 1d3d 27c2 d8bc e076 d2bc
000003b0: 25d8 483c 4321 48bd 42c1 be3c c9e2 313d
000003c0: 72c0 e93c e7d7 4dbc a07e 52bb e143 28bd
000003d0: 7af9 a03c 586b f5bb 46bb 6fbd 2095 20bd
000003e0: a072 a43a d074 f0bb 3ce8 4ebd 5450 cbbc
000003f0: 4e21 95bd ca22 68bb fb9e 44bd 20c1 7f3b
-0.045665193 0.009252839 -0.06641343 -0.047678694 0.028708491 -0.056094747 0.034575257 0.011713999
-0.05925147 0.007929196 0.006836801 -0.027833885 -0.0371254 0.0045348196 -0.029369427 0.0026361719
-0.030161235 -0.046201885 -0.029860342 0.017342906 0.0047445153 0.0015899315 -0.049604755 0.012331866
-0.04532893 -0.016073573 0.010234952 0.037134517 -0.01715352 0.031840336 -0.013956673 0.0031638923
0.042876463 0.03520302 0.02762955 -0.049638875 -0.033645503 -0.046632756 -0.041241717 -0.04069971
-0.0010513365 -0.023525035 -0.034055136 -0.050908163 -0.00817989 0.017645815 0.02294026 -0.06344204
0.030183654 -0.06844341 0.026284646 -0.025713298 -0.02612206 -0.033383854 -0.057487857 0.005051501
0.007502121 -0.022204695 0.030134793 -0.043149766 0.022847746 0.0471473 0.021944936 0.0031595577
0.0054568164 0.041377332 -0.046176642 -0.02223448 -0.066490516 -0.07349291 0.003467001 -0.005041739
0.011583341 0.01157934 -0.07538772 -0.00695787 -0.012649156 -0.046180822 0.044565845 -0.023370003
-0.019524684 0.008123949 0.025769506 -0.010284327 -0.04827523 0.0014092844 -0.0025473295 -0.048723616
0.03984068 -0.0803352 0.03767283 -0.057850238 0.048900936 -0.036166213 -0.029724507 -0.056970503
-0.011887404 -0.045000132 -0.04912547 -0.03957502 0.038999606 0.021093193 -0.061706882 -0.012000079
0.04866561 -0.049062815 -0.0070056454 -0.017053321 -0.0032130228 0.015334044 0.0007516816 -0.08148582
0.005603281 -0.040850826 0.048549462 -0.07104241 -0.07928247 0.0061506107 0.033564184 -0.07751234
-0.018473117 0.013007436 -0.00918781 0.017767072 -0.04438376 -0.0613345 -0.038942646 -0.07795572
-0.029043669 -0.035233278 0.025996972 -0.009708396 0.047689658 0.03217071 -0.039969314 -0.036076665
-0.061245345 -0.0056412932 -0.03709296 -0.017796535 0.010471953 -0.02041603 -0.0042936876 -0.007717252
0.017695751 0.044435423 -0.010138445 0.04818094 0.04098383 -0.043188017 -0.0093394965 0.0003933832
0.04563142 -0.08005141 -0.05190504 -0.032817267 -0.009148268 0.04774152 -0.0058772825 0.03071196
-0.06636826 0.04587597 -0.072547056 -0.052873097 -0.035535388 -0.006877225 -0.0008852966 0.017098246
-0.037671983 0.025123935 -0.005000641 -0.03717207 0.0010125749 0.008656185 0.017625865 0.022587482
0.009512752 -0.0030921148 -0.07289845 -0.007373631 0.025451992 -0.03522089 -0.030430108 -0.041295983
-0.0011948869 0.015511844 -0.045753594 -0.04648057 0.004544484 -0.015017679 -0.038513232 0.039249416
0.017476503 -0.01415791 -0.013098323 -0.01635008 -0.028312469 0.043786276 -0.026066454 -0.053906947
-0.0040132776 -0.06288415 0.008885568 0.031322647 0.024577651 -0.0020463094 -0.0076105595 -0.07527086
0.006428307 -0.06182241 -6.8146735e-05 -0.06831401 -0.019326938 0.0074212365 0.049888793 -0.0016678683
-0.012720024 -0.0035472806 0.02344871 -0.02360346 -0.022167666 0.0040298644 -0.030777603 -0.06322596
-0.032946274 0.022056077 0.04781353 -0.067323275 -0.07333588 0.007370591 -0.081753775 -0.01706805
0.030623708 0.038404856 -0.026459767 -0.02569145 0.012258564 -0.048859846 0.023285512 0.04342917
0.028534148 -0.012563682 -0.0032118931 -0.04108036 0.01965021 -0.007489603 -0.058528207 -0.039204717
0.0012546368 -0.007338144 -0.050514445 -0.024818577 -0.07281743 -0.0035421127 -0.048003178 0.0039025024
