RL/Model_Repository/pytorch_models/TD3_Guest_gp125_actor.pth (torch, 495903 bytes, 5 tensors)

layer_1.weight f4 [400, 6]
0	0x3e8ec832	0.27887112
1	0x3e9c9cb7	0.30588314
2	0xbe039450	-0.12849545
3	0x3eb64ccb	0.35605463
4	0xbdde655f	-0.10859179
5	0x3d816370	0.06317794
6	0xbe68b3f3	-0.22724895
7	0x3e5871e9	0.21137203
8	0x3ea9c29a	0.33156282
9	0xbea4e072	-0.32202488
10	0x3eaa0863	0.33209524
11	0x3d5b87c3	0.05359627
12	0x3e89d4c2	0.26920134
13	0x3cbcd9a0	0.02305299
14	0x3e28a12d	0.16467734
15	0xbda72e15	-0.08163086
16	0x3e94c444	0.2905599
17	0x3d137974	0.0360045
18	0xbe231cfb	-0.15929024
19	0x3e0a6f97	0.1351913
20	0xbe20d9a4	-0.15708023
21	0xbcd99e3d	-0.026564712
22	0xbe13a23f	-0.1441736
23	0x3e95ad82	0.29233938
24	0xbeb574ec	-0.35440767
25	0xbe61777e	-0.22018239
26	0xbe16a7b9	-0.14712419
27	0xbe885493	-0.26627025
28	0x3c8eab0d	0.017415548
29	0xbed92558	-0.42411304
30	0x3eacd454	0.33755744
31	0xbec15aba	-0.3776453
32	0x3e91a1c9	0.28443745
33	0x3d5224c3	0.05130459
34	0xbe19005b	-0.14941542
35	0x3e70eb18	0.23527181
36	0x3db9d465	0.09073714
37	0x3eb69930	0.35663748
38	0x3d9215ff	0.07133102
39	0xbdef8ef9	-0.11697192
40	0x3df9000f	0.12158214
41	0xbdc9a22d	-0.09845386
42	0x3e1e57b6	0.15463147
43	0x3eb1f99b	0.34760746
44	0x3e606a12	0.21915463
45	0xbe3b2ad7	-0.18278061
46	0x3e6ca954	0.23111469
47	0x3d8b770e	0.06809817
48	0x3e35a45c	0.1773848
49	0xbe8eac54	-0.2786585
50	0xbede22b4	-0.4338585
51	0xbe38d26e	-0.18049023
52	0xbeac1cd1	-0.33615735
53	0x3e9fb6b8	0.3119409
54	0x3e1b57d5	0.15170224
55	0x3e4feb94	0.2030471
56	0x3e26de32	0.16295698
57	0x3c8d75ec	0.017268144
58	0x3eb03432	0.34414822
59	0xbe87f45b	-0.26553616
60	0xbb3173f6	-0.0027077175
61	0xbe9d1593	-0.30680522
62	0x3dc85954	0.09782663
63	0xbe1f8e72	-0.15581682
64	0x3de09239	0.1096539
65	0xbdce1474	-0.10062495
66	0x3ebea1f2	0.3723293
67	0xbe557546	-0.20845518
68	0xbe572035	-0.2100838
69	0xbe63966c	-0.2222535
70	0x3ec706d7	0.38872406
71	0x3e214a82	0.15751079
72	0x3edafc49	0.42770603
73	0xbe9abfde	-0.30224508
74	0xbebda675	-0.3704106
75	0xbe987f5b	-0.29784665
76	0xbe8169bb	-0.25275978
77	0x3e3f9130	0.18707728
78	0x3e0bc25e	0.13648364
79	0x3ea8da0d	0.3297886
80	0xbe617ee8	-0.22021067
81	0xbe8d8ca5	-0.27646366
82	0x3e5f7057	0.21820198
83	0xbe27a61d	-0.16371961
84	0x3e5ba91d	0.2145123
85	0xbe0523c0	-0.13001919
86	0x3e4d5278	0.2005099
87	0xbeaeab96	-0.34115285
88	0xbe6bdcc8	-0.2303344
89	0x3dcd598f	0.100268476
90	0x3df63e0d	0.12023554
91	0xbd901b61	-0.07036472
92	0x3e8dca82	0.27693564
93	0x3e9955d8	0.29948306
94	0xbe8c2b6e	-0.27376884
95	0xbe48a227	-0.19593106
96	0x3eaee3de	0.34158224
97	0xbe2dee46	-0.16985425
98	0xbe34efa7	-0.17669545
99	0xbed51211	-0.41615346
100	0xbe82badb	-0.25533184
101	0x3da51c1e	0.080620036
102	0xbdb0c6ff	-0.086317055
103	0xbea8430d	-0.32863656
104	0xbcb91376	-0.022592288
105	0xbe9a68bc	-0.3015803
106	0xbebd2148	-0.36939454
107	0xbe7d9d0a	-0.24766937
108	0xbec684d1	-0.38773206
109	0xbe949bb0	-0.2902503
110	0x3ec17794	0.37786543
111	0x3d5bf3ff	0.05369949
112	0x3dd14bb9	0.10219521
113	0xbecf0093	-0.40430126
114	0xbe9ae150	-0.30250025
115	0xbe2e312d	-0.17010947
116	0x3cf3c9c0	0.029759288
117	0xbec3bf3f	-0.38231847
118	0xbe4c30d0	-0.19940495
119	0xbe89005d	-0.2675809
120	0xbcea2fa6	-0.028587174
121	0xbe39e8ac	-0.18155164
122	0xbd6ce1ec	-0.057832643
123	0xbe995c0e	-0.29953045
124	0xbe9b5675	-0.303394
125	0xbe85bed3	-0.2612215
126	0xbe2ebd9d	-0.17064519
127	0xbeb4b624	-0.35295212
128	0x3e9f9297	0.31166527
129	0xbdd2a5bf	-0.1028552
130	0x3ea885fc	0.32914722
131	0x3dd72c02	0.10506441
132	0xbec14ad1	-0.37752393
133	0x3e806a39	0.2508104
134	0xbe1361af	-0.14392732
135	0xbe38928a	-0.1802465
136	0xbeb9d0b7	-0.3629205
137	0xbedc041f	-0.42971894
138	0x3db819dd	0.08989308
139	0xbded4af7	-0.11586564
140	0x3e0784d2	0.1323426
141	0xbeb2f635	-0.34953466
142	0x3e93a6ab	0.28838095
143	0xbea0fdfb	-0.31443772
144	0xbd1b2bc5	-0.03788354
145	0x3df1149e	0.117715105
146	0x3e78f1a4	0.24310929
147	0x3eb4d569	0.3531907
148	0x3ecaa353	0.39577731
149	0xbe998af6	-0.2998883
150	0x3e0b9ac0	0.13633251
151	0xbe11a617	-0.14223514
152	0xbc3c5faf	-0.011497422
153	0xbe922345	-0.28542534
154	0x3ec8d2d6	0.39223355
155	0xbe8f09d4	-0.27937186
156	0x3e81226b	0.2522157
157	0x3e359500	0.1773262
158	0x3e2a5cd5	0.16636975
159	0xbe4c15c6	-0.19930181
160	0x3ec928f8	0.3928907
161	0x3de40c75	0.111351885
162	0x3dc16017	0.09442156
163	0xbea2dc7b	-0.31808838
164	0x3e5a03be	0.2129049
165	0xbd06fe22	-0.032957204
166	0xbe224711	-0.15847422
167	0x3ec22619	0.3791969
168	0x3dfad8ea	0.12248404
169	0xbe4750e8	-0.19464457
170	0xbe33b99e	-0.17551276
171	0xba2b66f7	-0.0006538475
172	0x3e7cf5fd	0.24703212
173	0xbdae9943	-0.08525326
174	0xbe86ad06	-0.2630388
175	0xbe2ddacc	-0.16977996
176	0xbeab774d	-0.33489457
177	0x3dfa07ba	0.12208505
178	0x3e95a965	0.292308
179	0xbed0e3e3	-0.40798864
180	0x3e0327de	0.12808177
181	0x3e79d7d3	0.24398737
182	0x3ddb2bb8	0.10701698
183	0xbdfa1d3c	-0.12212607
184	0x3e725adb	0.23667471
185	0x3e73c6ba	0.23806277
186	0x3df8bf94	0.12145916
187	0xbdd28487	-0.10279184
188	0xbe0e66f4	-0.13906461
189	0x3ca9c28d	0.020722652
190	0xbdc33396	-0.095313236
191	0xbe1440dc	-0.14477867
192	0x3e6977bf	0.22799586
193	0x3ea2d93e	0.31806368
194	0xbd95b01a	-0.07308979
195	0xbde8e7e1	-0.113723524
196	0xbc88a328	-0.016679361
197	0xbd402ac0	-0.04691577
198	0x3e055068	0.13018954
199	0x3e15c1e5	0.14624746
200	0xbead9994	-0.33906233
201	0xbe04fd9d	-0.12987371
202	0x3ebace7b	0.36485657
203	0x3e38611b	0.18005793
204	0xbd502f58	-0.0508264
205	0xbe8d9300	-0.27651215
206	0xbe8f5ee4	-0.28002083
207	0xbec5a1e2	-0.3860007
208	0xbe1d62f4	-0.15369779
209	0x3df035ee	0.11729036
210	0x3e958e33	0.29210052
211	0x3e616503	0.22011189
212	0xbea8a09d	-0.32935038
213	0xbe64b853	-0.22335939
214	0xbd2c0f72	-0.042006917
215	0x3ed5a927	0.41730615
216	0x3d94a4b1	0.07257975
217	0xbdbd72a0	-0.092503786
218	0x3e3a6e2f	0.18206094
219	0xbe1e661a	-0.15468636
220	0xbe86c8fc	-0.26325214
221	0x3e994e5a	0.2994259
222	0xbe1f1b78	-0.15537822
223	0xbd542562	-0.051793464
224	0xbec09a14	-0.37617552
225	0x3e960a69	0.29304817
226	0x3ea89906	0.32929248
227	0x3e2ce07a	0.16882506
228	0xbe82effd	-0.25573722
229	0xbebf8b0b	-0.3741077
230	0xbe9b0c69	-0.30282906
231	0x3ea7a309	0.32741573
232	0x3e606d5f	0.21916722
233	0x3ebbc8ff	0.36676785
234	0x3e376610	0.17910028
235	0x3d8c9b69	0.0686558
236	0xbd1dc80a	-0.03852085
237	0xbeab6f76	-0.33483475
238	0xbebfc518	-0.37455058
239	0xbecfff96	-0.40624684
240	0x3e0b0b34	0.13578492
241	0xbe6d3985	-0.23166473
242	0xbde80625	-0.11329297
243	0xbe8465c6	-0.25858897
244	0xbdc9508e	-0.09829818
245	0xbe9f4c92	-0.31113106
246	0xbe99c39c	-0.3003205
247	0x3dd0ee78	0.10201734
248	0xbe1e567b	-0.15462677
249	0x3e68fbdf	0.22752331
250	0xbe1f6bd7	-0.15568481
251	0xbea5ede9	-0.32408074
252	0xbdd51565	-0.10404471
253	0xbe6b4e5f	-0.22979115
254	0xbe20746b	-0.1566941
255	0xbed33ab7	-0.41255733

layer_1.bias f4 [400]
0	0xbeabc93c	-0.33551967
1	0xbe8794ad	-0.26480618
2	0xbe464c52	-0.19365051
3	0x3e895b2c	0.2682737
4	0x3de2fe37	0.11083644
5	0xbe34cd76	-0.17656502
6	0x3e976444	0.29568684
7	0xbe85612d	-0.26050702
8	0xbeb69d07	-0.35666677
9	0x3debfefb	0.11523243
10	0xbe789769	-0.24276508
11	0x3e0ef49a	0.13960496
12	0x3ebd459d	0.36967173
13	0xbe462e21	-0.19353534
14	0xbe9ef3d1	-0.31045392
15	0x3e35eaaf	0.17765306
16	0xbec88f23	-0.39171705
17	0x3eae020a	0.3398593
18	0xbe5eba60	-0.21750784
19	0x3e30852d	0.17238303
20	0xbeb287a7	-0.3486912
21	0xbe9990d2	-0.29993302
22	0x3ca2a07c	0.019851916
23	0x3e036d85	0.12834747
24	0x3eaf04f9	0.3418348
25	0x3eba5236	0.36390847
26	0x393a11e9	0.00017745014
27	0xbcb32385	-0.021867523
28	0x3db572ac	0.088597625
29	0xbdf4f69f	-0.11961102
30	0x3d1fb811	0.0389939
31	0xbed279b6	-0.41108483
32	0xbeb7fe00	-0.35935974
33	0x3e9aecb9	0.3025873
34	0xbe85792e	-0.26069015
35	0x3eb0d589	0.34537914
36	0x3d45254d	0.048131276
37	0x3df829f4	0.12117377
38	0x3eca57e1	0.3952017
39	0xbe8190bc	-0.25305736
40	0xbdb72eca	-0.08944471
41	0x3d3d52d5	0.046221573
42	0x3de9aa04	0.11409381
43	0xbed7e059	-0.4216335
44	0x3df4f8c4	0.11961511
45	0xbe5ee095	-0.21765359
46	0x3cee2868	0.029072002
47	0x3e99c1b8	0.30030608
48	0xbd85edcc	-0.06539497
49	0xbd18e88b	-0.037331145
50	0xbd604290	-0.05475098
51	0x3eb043cd	0.34426728
52	0x3e8268e9	0.25470665
53	0x3dbcffa2	0.092284456
54	0xbe88f07d	-0.26745978
55	0xbe7bc665	-0.245874
56	0x3eb30249	0.3496268
57	0x3ea2fa96	0.31831807
58	0x3e8531e5	0.2601463
59	0xbeaad3d7	-0.33364746
60	0x3eab3951	0.33442166
61	0xbc797208	-0.015224941
62	0x3ea5a431	0.3235183
63	0x3ec0e505	0.37674728
64	0x3d8da481	0.06916142
65	0xbe406f99	-0.18792571
66	0x3ed03241	0.4066334
67	0xbe6c177b	-0.23055832
68	0x3e94294b	0.28937754
69	0xbece542a	-0.40298587
70	0xbde31bd5	-0.11089293
71	0xbec1d072	-0.37854344
72	0xbe55299b	-0.20816652
73	0x3e40337d	0.18769641
74	0xbea264ad	-0.31717435
75	0xbebdfb29	-0.37105682
76	0x3ea27f0d	0.31737557
77	0x3e477707	0.19478999
78	0x3ca607ef	0.020267455
79	0xbe9d308c	-0.307011
80	0xbe068cd2	-0.13139656
81	0xbddcaea1	-0.10775495
82	0x3e8e05ae	0.27738708
83	0xbe182217	-0.14856754
84	0xbe0fd2b7	-0.14045225
85	0xbea04f29	-0.31310394
86	0xbe5ed0c1	-0.21759321
87	0x3e75cfbe	0.24005029
88	0x3e924240	0.2856617
89	0x3d86615f	0.06561541
90	0xbe058484	-0.13038832
91	0x3ed51192	0.41614968
92	0x3dd907c1	0.10597182
93	0xbe392793	-0.18081503
94	0xbe23f9d9	-0.16013278
95	0xbd0b825b	-0.034059864
96	0x3e5f8eb0	0.21831775
97	0x3e307340	0.17231464
98	0x3ea3ee4e	0.3201775
99	0xbd26b182	-0.04069663
100	0x3eb9a014	0.36254942
101	0xbe16cc70	-0.14726424
102	0xbe5a584c	-0.21322745
103	0xbe1f8dba	-0.15581408
104	0xbec835a9	-0.3910344
105	0xbe90c49d	-0.28275004
106	0xbec98a30	-0.3936324
107	0xbd314718	-0.04328069
108	0x3cec3531	0.028833957
109	0xbe05b36c	-0.13056725
110	0xbe9a20bc	-0.301031
111	0x3eca5f85	0.39526
112	0xbe2412f1	-0.1602285
113	0x3e607688	0.21920216
114	0x3e84e9f9	0.25959757
115	0xbe798ab9	-0.24369325
116	0xbccf68ed	-0.025318587
117	0x3e84dbd9	0.2594898
118	0x3ed7bb21	0.42134956
119	0xbd9d824d	-0.076908685
120	0x3ea07e76	0.31346482
121	0xbeb0135a	-0.34389764
122	0xbe935720	-0.2877741
123	0x3ea74515	0.32669893
124	0xbd821f5a	-0.06353636
125	0x3eda75ef	0.426681
126	0x3d2ebf35	0.042662818
127	0xbe2ccc6a	-0.16874853
128	0x3ed35d52	0.41282135
129	0x3ec3e271	0.382587
130	0x3c5bf989	0.013426193
131	0xbe6528c3	-0.2237883
132	0xbd303179	-0.04301593
133	0xbe612749	-0.21987642
134	0x3e9dc576	0.30814713
135	0x3d1556f0	0.036459863
136	0x3de26fda	0.1105649
137	0x3e854f62	0.26037127
138	0x3de381c0	0.11108732
139	0xbe808eaa	-0.25108844
140	0x3ea0d6ce	0.31413883
141	0x3e8c3e65	0.27391353
142	0xbe6ecb53	-0.2331975
143	0x3ea94dc4	0.33067143
144	0x3e0c17f5	0.13681014
145	0xbdd46417	-0.10370653
146	0xbea24f0e	-0.3170094
147	0xbd54a449	-0.051914487
148	0xbed659d8	-0.4186542
149	0x3e835523	0.25650892
150	0x3ea3c861	0.31988814
151	0xbe0d872b	-0.13821094
152	0x3ece8509	0.40335873
153	0xbe32266b	-0.17397468
154	0x3dc2e0d6	0.0951554
155	0xbe9dd5c3	-0.3082715
156	0xbc1100e7	-0.008850313
157	0x3e0fe2ec	0.14051408
158	0x3e4c3a43	0.199441
159	0xbbf7aff6	-0.007558818
160	0xbe5906f2	-0.21194056
161	0x3e9a405c	0.30127227
162	0x3e8e36d7	0.27776214
163	0x3db990bf	0.09060811
164	0xbe56b814	-0.20968658
165	0x3d7e7ff8	0.06213376
166	0xbcbcb923	-0.023037499
167	0x3ec9fb24	0.39449418
168	0x3d3a3f3a	0.045470454
169	0x3d6356e6	0.055502795
170	0x3b9addad	0.004726133
171	0x3e78faf6	0.24314484
172	0x3ca3ca5c	0.019993953
173	0x3ebfc41c	0.37454307
174	0x3e722853	0.23648195
175	0xbea32b2d	-0.31868878
176	0xbc7741b3	-0.0150913475
177	0xbebce714	-0.3689505
178	0xbeadb672	-0.33928257
179	0x3d648636	0.055792056
180	0x3de94e79	0.113919206
181	0xbd78c95b	-0.060738903
182	0x3ecfa857	0.4055812
183	0xbe3d5ad3	-0.18491678
184	0xbe31bb25	-0.17356546
185	0xbd2b1ee5	-0.04177751
186	0xbcb32f95	-0.021873275
187	0xbc4cf5ab	-0.012509744
188	0x3ec3ed1b	0.38266835
189	0xbe42cc51	-0.19023253
190	0xbe72ae8b	-0.23699395
191	0x3d604c52	0.054760285
192	0x3ea84545	0.32865348
193	0x3df90224	0.121586114
194	0x3e79b686	0.24386033
195	0x3dcd3f2d	0.100218154
196	0x3ebe0405	0.37112442
197	0x3e8a8f07	0.27062246
198	0x3ea1d47a	0.3160742
199	0xbd85f609	-0.06541068
200	0xbeb9f5d5	-0.36320367
201	0xbe5eadfc	-0.21746057
202	0x3e289503	0.16463093
203	0x3e9f73a2	0.31142908
204	0xbe3b8f9f	-0.18316506
205	0x3eb926d4	0.36162436
206	0x3dad1e63	0.084530614
207	0xbcb6bbf6	-0.022306424
208	0xbb7ef9f3	-0.0038906306
209	0xbdc74b30	-0.09731138
210	0x3ed09efe	0.407463
211	0xbb56fae3	-0.0032803349
212	0x3e89d4c7	0.2692015
213	0xbebc2fb0	-0.36755133
214	0xbe6db25c	-0.2321257
215	0x3d917074	0.07101527
216	0x3eaf672d	0.34258404
217	0x3e609256	0.21930823
218	0x3dc9f1db	0.098605834
219	0xbeda4d89	-0.4263728
220	0xbc8c03b6	-0.017091613
221	0xbe9352ab	-0.28774008
222	0xbebebc20	-0.37252903
223	0x3da286ab	0.07935842
224	0xbe8fa369	-0.2805436
225	0x3ec94531	0.393106
226	0xbe7a4b64	-0.24442822
227	0x3df8768c	0.12131986
228	0x3e87c486	0.26517123
229	0xbea62f73	-0.32458076
230	0x3e6b8307	0.22999202
231	0xbd9c1a2f	-0.076221816
232	0x3e6c596e	0.2308099
233	0x3ecec13f	0.4038181
234	0xbe447c29	-0.19187988
235	0xbe4f035b	-0.20216124
236	0x3eacc621	0.3374491
237	0x3cb0a314	0.021562137
238	0xbc86bf9e	-0.016448792
239	0x3eab7152	0.33484894
240	0xbe60a192	-0.21936634
241	0xbd379d85	-0.044827957
242	0x3e9b72d9	0.3036106
243	0x3e2a82ff	0.16651534
244	0xbe72211d	-0.23645444
245	0x3df0e752	0.11762871
246	0xbeac2ec4	-0.3362943
247	0xbe748dd2	-0.23882225
248	0x3e7f6596	0.24941096
249	0xbdaeded6	-0.08538596
250	0xbe699b2d	-0.22813101
251	0x3d395a39	0.04525206
252	0x3df77522	0.12082888
253	0xbe734b14	-0.23759109
254	0xbe98c505	-0.29837814
255	0xbed4cd6f	-0.41562983

layer_2.weight f4 [300, 400]
0	0x3d3151e9	0.043291006
1	0x3d829c67	0.06377488
2	0x3d645410	0.05574423
3	0xbd62c3ff	-0.055362698
4	0x3bb67fc7	0.0055694315
5	0xbd036bbf	-0.032085177
6	0xbc731345	-0.014836137
7	0xba8e017d	-0.0010834184
8	0x3d767a5a	0.060175277
9	0xbc151553	-0.009099322
10	0x3c8d9dd4	0.017287172
11	0xbd58e91f	-0.052956697
12	0xbd6725b4	-0.05643244
13	0x3cc8c028	0.02450569
14	0xbc049631	-0.008092449
15	0xbd246ee7	-0.040144827
16	0x3d542dcc	0.051801488
17	0xbc1d9694	-0.00961842
18	0xbbaf273b	-0.005345253
19	0x3d61b62b	0.05510537
20	0x3d14a853	0.03629334
21	0xbc37842a	-0.011200944
22	0x3d02b2b7	0.031908717
23	0x3d28dddc	0.041227207
24	0xbd7a6de4	-0.061139956
25	0xbbf47e5b	-0.007461352
26	0xbbb7611f	-0.0055962945
27	0xbc8ed003	-0.017433172
28	0x3d009ac5	0.0313976
29	0xbc811c30	-0.015760511
30	0x3c252b0f	0.010081067
31	0xbc1fa1b3	-0.009743142
32	0xbcd4f04d	-0.02599349
33	0x3c8dd47c	0.017313235
34	0xbbedaf62	-0.0072535733
35	0xbc6f2394	-0.014595885
36	0x3c392f3c	0.011302765
37	0xbd6f0f66	-0.058364294
38	0xbd73dcb3	-0.059536647
39	0x3d0a4fc1	0.033767466
40	0x3d775d73	0.060391854
41	0x3c56bd85	0.013106708
42	0x3d55b265	0.052172083
43	0x3d0cab8d	0.03434329
44	0x3d012ccb	0.03153686
45	0xbd3f326b	-0.04667894
46	0x3d83aebe	0.06429814
47	0x3bbf446e	0.005837015
48	0x3cc88c60	0.024480999
49	0x3d563322	0.052294858
50	0xbcd65bdb	-0.026166847
51	0xbbbfaad9	-0.005849224
52	0xbd251354	-0.040301636
53	0xbcb36703	-0.021899706
54	0x3d07af15	0.033125956
55	0x3d1f6c32	0.038921542
56	0xbbb46e3e	-0.005506306
57	0xbd639b2f	-0.055567916
58	0xbd44b887	-0.04802754
59	0x3c8f8fcd	0.017524624
60	0xbccf6371	-0.025315972
61	0xbd701088	-0.058609515
62	0x3d049b76	0.03237482
63	0xbc2c8c91	-0.0105315605
64	0xbd5b21fb	-0.053499203
65	0x3d1ef450	0.038807213
66	0x3b9efdb7	0.0048520225
67	0xbc005996	-0.007833859
68	0x3c07aaca	0.008280465
69	0xbc6a35a4	-0.0142950155
70	0x3a8f861b	0.0010950001
71	0x3d83fe77	0.0644502
72	0x3d4d56ce	0.05013161
73	0x3c03ac9e	0.008036761
74	0x3be7987b	0.0070677376
75	0x3cd6bcc2	0.026213054
76	0x39c59cb2	0.00037691515
77	0x3cec92e8	0.028878644
78	0xbcdca46d	-0.026933873
79	0x3cc20538	0.02368413
80	0xbb61a87b	-0.0034432698
81	0xbd3865b3	-0.045018863
82	0xbd80f336	-0.06296389
83	0xbcc6e721	-0.024280133
84	0xbc6f928e	-0.014622344
85	0x3d842fd3	0.06454434
86	0x3cded9c6	0.027203452
87	0xbd7e4c3e	-0.06208443
88	0xbd2dcd53	-0.04243214
89	0xbba2afd9	-0.0049648103
90	0xbcfdbb7a	-0.030973185
91	0xbcfe529c	-0.03104525
92	0xbd16185d	-0.03664433
93	0x3baa6fca	0.0052013146
94	0x3cb81b9e	0.022474106
95	0xbc561c9e	-0.013068346
96	0x3c885d55	0.016646067
97	0x3c764fcd	0.015033674
98	0x3cc771f7	0.024346335
99	0x3c7c7bf8	0.015410416
100	0xbd24a60e	-0.040197425
101	0xbc32a844	-0.010904375
102	0xbc851070	-0.01624319
103	0x3d17f193	0.037095618
104	0x3c2ea34a	0.010659048
105	0x3a47545f	0.000760382
106	0xbcd1a080	-0.025589228
107	0x3d26ee65	0.040754694
108	0x3c3194a3	0.01083866
109	0x3d7fb325	0.062426705
110	0xba0a849f	-0.00052840443
111	0xbb01a8f8	-0.001978455
112	0x3ca08dee	0.019598927
113	0xbd484f6e	-0.048903875
114	0xbc7f16a1	-0.01556936
115	0x3c101ef3	0.008796441
116	0xbd3a2804	-0.045448318
117	0x3c9fb1e7	0.01949401
118	0x3a334264	0.0006838201
119	0x3d0a64ab	0.03378741
120	0x3c84e1db	0.016220978
121	0x3d291b1b	0.041285615
122	0x3d1d3f81	0.03839064
123	0x3c17f60b	0.00927497
124	0xbb915b3d	-0.0044359253
125	0xbd314b01	-0.04328442
126	0xbcd0af70	-0.02547428
127	0x3d365397	0.04451331
128	0x3c93d5e9	0.018046336
129	0x3ca37344	0.019952424
130	0x3a99256b	0.0011684125
131	0xbcbc7177	-0.023003323
132	0xbc90338e	-0.017602708
133	0x3d43b257	0.0477775
134	0xbd4b9a9e	-0.049708
135	0xbd17adbe	-0.037030928
136	0x3cc8e959	0.024525331
137	0xbb8f23b0	-0.004368268
138	0xbb87f7ed	-0.004149428
139	0xbc8b09c2	-0.016972426
140	0xbccac93d	-0.024754161
141	0x3cc1a726	0.023639273
142	0xbd669db2	-0.056302734
143	0x3cd84077	0.026397927
144	0x3cc04c94	0.023474015
145	0x3ca32e58	0.01991956
146	0x3c55c443	0.013047281
147	0x3cb7b77c	0.02242636
148	0x3d1edf98	0.038787454
149	0x3cf62631	0.030047508
150	0x3cc0e9be	0.023548957
151	0xbc846ad7	-0.016164226
152	0x3c63b71f	0.01389864
153	0x3d2c8d20	0.042126775
154	0xbd5734ad	-0.05254047
155	0x3d26ffcd	0.040771294
156	0xbc1af74f	-0.009458377
157	0xbc5156d4	-0.012777049
158	0xbc826c39	-0.015920745
159	0xbcad32ff	-0.02114248
160	0x3b4ba0e6	0.0031071245
161	0xbd4acb6c	-0.049510404
162	0x3c2df15a	0.010616625
163	0x3d06ddee	0.032926492
164	0x3bc3de3d	0.0059774206
165	0xbc861d54	-0.016371407
166	0x3c69cdfb	0.014270301
167	0xbd778bf5	-0.060436208
168	0xbcc572c3	-0.024102574
169	0xbd08fb81	-0.033442978
170	0x3d467524	0.048451558
171	0xbd63cd9b	-0.055616003
172	0xbcc9d995	-0.024639884
173	0xbd2f168e	-0.04274612
174	0xbd80d718	-0.06291026
175	0x3bb35fed	0.0054740817
176	0x3c5e172c	0.013555329
177	0x3c0ab867	0.0084668165
178	0x3d5fffae	0.054687195
179	0x3d170be9	0.036876593
180	0x3c87f9da	0.01659863
181	0x3d15ff2c	0.036620304
182	0xbc3cf104	-0.011532072
183	0x3c89263e	0.016741868
184	0xbc80f4e5	-0.015741775
185	0x3c0e7419	0.008694672
186	0x3d26f3df	0.040759917
187	0xbd1c53c5	-0.038165826
188	0xbc964331	-0.018342586
189	0xbcacae5e	-0.021079239
190	0xbcdd1272	-0.026986334
191	0xbc8abb22	-0.016934935
192	0xbbff4167	-0.007789779
193	0xbce19983	-0.02753902
194	0xbafe0e97	-0.001938301
195	0xbd62684a	-0.05527524
196	0xbd357dc8	-0.044309407
197	0x3c8d98fd	0.017284865
198	0xbd85f155	-0.06540171
199	0x3cc8d4e4	0.024515577
200	0x3d62db59	0.055384967
201	0x3d62d9cd	0.055383492
202	0x39a87c73	0.0003213618
203	0xbd7f9b7e	-0.06240415
204	0x3cc991c0	0.024605632
205	0xbd0c93e8	-0.034320742
206	0xbcfe58dc	-0.03104823
207	0x3d6169b4	0.055032447
208	0xb9bc14d4	-0.00035873672
209	0xbc947434	-0.018121816
210	0xbd695123	-0.056962144
211	0x3d45058b	0.04810099
212	0xbc692d25	-0.014231955
213	0x3d877a3f	0.066151135
214	0x3cdca7df	0.026935516
215	0xbd820c75	-0.06350032
216	0xbb8dbbbf	-0.0043253596
217	0x3ced6b33	0.02898178
218	0x3c6bcc1b	0.014391924
219	0x3d023960	0.031793
220	0xbca9fe6e	-0.020751204
221	0xbc598656	-0.013276657
222	0x3d51bdea	0.051206507
223	0xbd50a077	-0.05093428
224	0x3ce6c869	0.028171735
225	0xbcbddbec	-0.023176156
226	0x3d094d07	0.033520725
227	0x3ca25ef0	0.01982066
228	0xbd613d02	-0.054989822
229	0xbb755feb	-0.0037441205
230	0x3cdbbfb6	0.026824813
231	0x3cb8e2bf	0.022569058
232	0x3c0d14b2	0.008610891
233	0xbd2c6dc7	-0.04209688
234	0x3d669507	0.056294467
235	0x3bc771c4	0.00608656
236	0xbd094eed	-0.033522535
237	0x3cdcca6e	0.026951995
238	0xbd0e2bdd	-0.0347098
239	0xbd177619	-0.03697786
240	0x3c1cb003	0.009563449
241	0x3c653430	0.013989493
242	0xbd39d280	-0.045366764
243	0x3a20d8cd	0.00061358215
244	0xbd5d47d7	-0.05402359
245	0x3c6605d9	0.01403948
246	0x3d8173ba	0.06320901
247	0x3ccb6cec	0.024832211
248	0x3b7a4d95	0.0038193215
249	0xbd80025f	-0.06250452
250	0x3d24b292	0.04020936
251	0x3cc6a7e1	0.024249973
252	0x3cd586d0	0.02606526
253	0xbc43ecd7	-0.0119583225
254	0x3d0956db	0.033530097
255	0x3d846afe	0.0646572

layer_2.bias f4 [300]
0	0xbcf3faaa	-0.029782612
1	0xbb39b32a	-0.002833555
2	0x3b8b112e	0.0042439913
3	0xbd695cf2	-0.056973405
4	0x3d71521f	0.058916207
5	0x3c9ea39a	0.01936512
6	0xbc724c1f	-0.0147886565
7	0xbd40bb43	-0.047053587
8	0xbd6c9e48	-0.057768136
9	0x3b7e8653	0.0038837388
10	0x3d517143	0.051133405
11	0xbc25e140	-0.010124505
12	0x3a730cca	0.000927162
13	0xbc524347	-0.012833423
14	0x3b9f4779	0.004860815
15	0x3d09423c	0.03351043
16	0x3be59310	0.0070060566
17	0x3d82db8d	0.06389532
18	0x3c8c8df6	0.017157536
19	0x3d5aa9cc	0.053384587
20	0x3bc774d3	0.0060869246
21	0xbcd94de8	-0.026526406
22	0x3d050a1b	0.03248034
23	0x3ca37153	0.019951498
24	0x3d25370f	0.04033571
25	0x3ba36733	0.0049866675
26	0xbd5488a8	-0.051888138
27	0x3b11a5db	0.0022224102
28	0xbd22d96d	-0.039758135
29	0xbd1a102d	-0.037613083
30	0xbc4a9a3f	-0.012365877
31	0xbc422f8d	-0.011852157
32	0x3d382345	0.04495551
33	0xbd1e9db0	-0.0387246
34	0xbcfc4037	-0.030792339
35	0xbd00a400	-0.031406403
36	0x3d064553	0.032780956
37	0x3ca43487	0.020044578
38	0x3c6766a6	0.014123594
39	0x3c01a2ec	0.007912379
40	0xbcdf40ec	-0.027252637
41	0x3d6357d0	0.055503666
42	0x3d331e28	0.04372993
43	0xbc820bab	-0.015874704
44	0xbcba96a0	-0.022776902
45	0x3cc2a28b	0.023759147
46	0x3c90335d	0.017602617
47	0x3cb2a3c8	0.021806613
48	0x3c991024	0.018684454
49	0xbd26af03	-0.040694248
50	0x3d10a943	0.03531767
51	0x3cc68985	0.024235496
52	0xbc414e4a	-0.011798451
53	0x3cdf430d	0.027253652
54	0xbcbb8f95	-0.022895614
55	0x3ccab511	0.024744542
56	0xbd83b1f6	-0.06430428
57	0xbd133d5c	-0.03594719
58	0x3d5c5f75	0.053801972
59	0x3bc7a666	0.0060928343
60	0xbcb9b1e5	-0.022667835
61	0xbd4291f8	-0.047502488
62	0x3d004110	0.03131205
63	0x3c97d0d3	0.018532192
64	0x3d5ac3d2	0.053409405
65	0xbc21a206	-0.00986529
66	0x3d8f6d6f	0.07003295
67	0x3c1e220b	0.009651671
68	0x3d6383a8	0.05554548
69	0x3cfe228f	0.031022338
70	0xbd45c584	-0.04828407
71	0xbd0d83e4	-0.03454961
72	0xbcfa0017	-0.030517621
73	0xbbe67bde	-0.007033809
74	0xbd3c1223	-0.045915734
75	0x3d78e858	0.060768455
76	0xbcb5191c	-0.0221067
77	0xbd8bf8ac	-0.0683454
78	0x3d8b0d9f	0.067897074
79	0xbb9a03ef	-0.004700176
80	0x3d23265c	0.039831504
81	0xbb95b0b6	-0.0045681847
82	0x3d717a8c	0.05895476
83	0xbd7caa0c	-0.061685607
84	0xbcb2363b	-0.021754375
85	0xbc0353f5	-0.008015622
86	0xbd7b95a8	-0.06142202
87	0x3cdf5350	0.027261406
88	0xbc526c76	-0.012843242
89	0x3ce10810	0.027469665
90	0x3d65d331	0.05610961
91	0xbcdf2c9b	-0.02724295
92	0xbc0518f0	-0.008123621
93	0x3cb02bd3	0.021505272
94	0x3c8cd1b3	0.017189836
95	0x3ae66697	0.0017578182
96	0x3cce41fd	0.02517795
97	0xbc6545ab	-0.013993661
98	0x3d0275d3	0.031850647
99	0xbc4b994a	-0.012426684
100	0xbc0747be	-0.008256851
101	0x3b8e610b	0.0043450645
102	0xbd5053cd	-0.05086117
103	0x3b11611c	0.0022183126
104	0xbd6ec5be	-0.05829405
105	0x3d12d55f	0.035848018
106	0x3cec14ac	0.02881845
107	0xbd3ba76e	-0.04581397
108	0x3a0f9f12	0.00054787204
109	0x3c924f23	0.017860001
110	0xbd24d410	-0.0402413
111	0x3d4ca2b3	0.04995985
112	0xbd138060	-0.0360111
113	0xbcc509ad	-0.024052465
114	0x3d1650eb	0.036698263
115	0x3d2d4303	0.042300235
116	0xbc5aeb60	-0.013361782
117	0x3d239608	0.039938003
118	0x3d3e2b29	0.04642788
119	0xbcc51a63	-0.024060434
120	0x3d27eae5	0.040995497
121	0xbb1efb01	-0.0024258497
122	0xbbe384b2	-0.0069433087
123	0x3b53538b	0.003224584
124	0xbb8a9e5e	-0.0042303046
125	0x3b962cc6	0.004582974
126	0x3bb0417e	0.005378901
127	0x3c63b529	0.013898172
128	0x39e9678f	0.0004451838
129	0xbd17b51f	-0.037037965
130	0x3d64f3b4	0.055896476
131	0x3c60d2a7	0.013722098
132	0x3d24050d	0.04004388
133	0x3c95840a	0.018251438
134	0xbd583fd0	-0.05279523
135	0x3d8f8712	0.070081845
136	0x3d802234	0.06256524
137	0x3a9131e1	0.0011077487
138	0x3c0d3ffa	0.00862121
139	0xbc8c3386	-0.017114412
140	0x3c27347b	0.010205383
141	0x3c8124ed	0.015764678
142	0x3bd05f1e	0.006358995
143	0xbba5a95b	-0.005055589
144	0x39211da0	0.00015365193
145	0xbcd93148	-0.026512757
146	0x3cad0f7b	0.021125546
147	0x3c5a734b	0.013333152
148	0x3d86cf38	0.065824926
149	0x3b50a6f9	0.0031837805
150	0xbca6badf	-0.020352779
151	0xbd78e382	-0.060763843
152	0x3d7b68a6	0.061379097
153	0x3c363016	0.011119863
154	0xbcb4d5c9	-0.022074597
155	0x3d2fb9dc	0.04290186
156	0xbcd0ec2b	-0.025503239
157	0xbc888917	-0.016666932
158	0x3bef5dcc	0.0073048826
159	0x3d8deb20	0.06929612
160	0xbd6cf4ac	-0.057850525
161	0x3c92dce5	0.017927596
162	0x3c925366	0.017862033
163	0xbcb270a5	-0.021782229
164	0x3d280f6d	0.041030336
165	0xbcc2fa4f	-0.023800997
166	0xbc956a26	-0.018239092
167	0xbb8218d3	-0.0039702444
168	0xbbfed950	-0.0077773705
169	0xbb8158a9	-0.0039473367
170	0x3d518486	0.051151775
171	0x3d4db272	0.050219007
172	0xbb05356b	-0.002032603
173	0x3d55b57f	0.05217504
174	0xbc8cefcf	-0.017204193
175	0xbd25f40e	-0.04051595
176	0xbd51eda8	-0.051252037
177	0xbc9c76ae	-0.01909956
178	0x3ce214a2	0.02759773
179	0xbc145c9e	-0.009055285
180	0xbc95a461	-0.018266859
181	0x3be26c67	0.006909895
182	0x3d564711	0.052313868
183	0xbc08ec7e	-0.008357165
184	0x3d8788db	0.066179
185	0xbcebac55	-0.028768698
186	0x3c58daa2	0.01323572
187	0xbc8f5425	-0.017496178
188	0xbd297a9c	-0.041376695
189	0x3d98dc62	0.0746391
190	0x3ccdd77a	0.025127161
191	0x3ccdbfd0	0.025115877
192	0x3b35ceec	0.0027741743
193	0xbd812d50	-0.06307471
194	0xbc8f585b	-0.017498186
195	0x3d8de100	0.06927681
196	0x3d2c298c	0.04203181
197	0x3c9414e2	0.018076364
198	0x3d0c3928	0.034234196
199	0xbc343ba7	-0.01100055
200	0x3cee9e45	0.029128203
201	0x3c66fc25	0.014098202
202	0xba962568	-0.001145524
203	0x3c0fb80f	0.00877191
204	0x3d7d70a4	0.061875
205	0xbd4034b3	-0.046925258
206	0xbd1386c5	-0.036017198
207	0x3d437f6e	0.04772895
208	0x3a13b4a7	0.0005634524
209	0x3d86f53b	0.06589743
210	0xbd8576f5	-0.0651683
211	0xbd35840e	-0.04431539
212	0x3d537cba	0.05163262
213	0xbd598124	-0.053101674
214	0xbb27c536	-0.0025599725
215	0xbd394f7c	-0.045241818
216	0x3c96b8d1	0.018398674
217	0xbcc44ccd	-0.023962403
218	0xbd0da580	-0.03458166
219	0x3d7547c0	0.05988288
220	0xbd2ada64	-0.04171218
221	0xbb44c012	-0.003002171
222	0x3d9a92b9	0.075475164
223	0x3ccbb027	0.02486427
224	0xbc33ca1d	-0.0109734805
225	0x3cec45fd	0.028841967
226	0xbcd917b7	-0.026500566
227	0x3d8891e8	0.066684544
228	0x3d4afd73	0.049558114
229	0xbc912b60	-0.017720878
230	0xbbbe40d8	-0.00580607
231	0xbba6b62b	-0.005087634
232	0x38e864ea	0.00011081419
233	0xbcff9905	-0.031200895
234	0x3b999f4f	0.0046881805
235	0xbc7a14cc	-0.015263747
236	0x3d4d65f1	0.050146047
237	0xbd69bd2c	-0.057065174
238	0x3c16d2f9	0.009205573
239	0x3d1a2044	0.037628427
240	0x3c8a887b	0.016910782
241	0x3cb511e8	0.022103265
242	0xbcc29c0d	-0.023756051
243	0x3d907854	0.07054201
244	0xbc9f1479	-0.019418942
245	0x3c8fe84e	0.017566826
246	0xbd379ddf	-0.044828292
247	0x3d4d7a6f	0.05016559
248	0x3cf31436	0.029672723
249	0xbc400e36	-0.011722138
250	0x3d0e8e66	0.03480377
251	0xbb4de514	-0.0031417059
252	0x3d7e83c7	0.06213739
253	0xbce63cdb	-0.02810519
254	0xbc5bef81	-0.013423801
255	0x3d0ab0c6	0.03385999

layer_3.weight f4 [1, 300]
0	0x3d8dc000	0.06921387
1	0xbcec97d3	-0.02888099
2	0xbcf2d7dc	-0.029643945
3	0x3d84af86	0.06478791
4	0xbd4a75d7	-0.049428787
5	0x3c90a97f	0.017658947
6	0x3d549e91	0.051909033
7	0x3c68c907	0.014208085
8	0x3d2b4b37	0.041819777
9	0x3a94ed6a	0.0011362259
10	0xbd2aa295	-0.041658957
11	0xbd08047b	-0.033207398
12	0x3d0658fe	0.032799713
13	0xbd5ef310	-0.05443102
14	0x3d25c306	0.040469192
15	0x3cd662a8	0.02617009
16	0x3d287ae3	0.04113282
17	0xbd93c3d4	-0.072150856
18	0x3cd28e5f	0.025702653
19	0xbd709ec7	-0.058745172
20	0xbd8b0944	-0.06788877
21	0xbd14f434	-0.036365703
22	0x3d97aa0d	0.074054815
23	0xbd412c8f	-0.047161635
24	0xbda106b5	-0.078626074
25	0x3d8c5ac0	0.06853247
26	0x3d79a1b4	0.060945228
27	0xbd6d39a5	-0.057916302
28	0x3d81b704	0.063337356
29	0x3d00b050	0.031418145
30	0x3ca36f73	0.019950604
31	0xbd785900	-0.060631752
32	0xbd965c95	-0.07341877
33	0x3d8a0df9	0.06740946
34	0x3d598c3b	0.05311225
35	0x3d2d4dda	0.042310573
36	0xbd9d08e7	-0.076677136
37	0xbd8eb488	-0.06968027
38	0x3d84b7b5	0.06480352
39	0xbd885e48	-0.06658608
40	0x3d5e5c54	0.05428727
41	0xbd34db68	-0.044154555
42	0xbd443934	-0.047906116
43	0x3d97edfc	0.07418439
44	0x3d551a85	0.052027244
45	0xbd700cba	-0.058605887
46	0x3d94f3b0	0.07273042
47	0x3d07121e	0.032976262
48	0xbc1c8e71	-0.009555445
49	0x3cb6971f	0.022288857
50	0xbd419dfa	-0.0472698
51	0x3caa75b7	0.020808084
52	0x3d41ddb4	0.047330573
53	0x3cd07bf0	0.025449723
54	0xbcd511ce	-0.026009466
55	0x3d06a5a7	0.032872822
56	0x3d486e1d	0.048933137
57	0x3cbdb9fd	0.023159975
58	0xbd89a6b9	-0.06721253
59	0xbcac9296	-0.021065991
60	0xbd68233c	-0.056674227
61	0x3d2f6c12	0.042827673
62	0x3d29169a	0.04128132
63	0x3d43e210	0.047823012
64	0xbd93f092	-0.072236195
65	0xbd860813	-0.06544509
66	0xbd0dc744	-0.034613863
67	0x3d047c57	0.032345142
68	0xbcf35e0b	-0.02970793
69	0xbd425e43	-0.047453176
70	0x3d8e863d	0.06959198
71	0x3d82ec84	0.06392768
72	0x3d5f757d	0.054555405
73	0xbd415756	-0.04720243
74	0x3d360762	0.044440635
75	0xbd847f60	-0.06469607
76	0x3d02dfe9	0.03195182
77	0x3cc56757	0.024097128
78	0xbd5c6e87	-0.053816345
79	0x3d8d1aa3	0.06889846
80	0xbd9867a0	-0.0744164
81	0x3cce1ad7	0.025159283
82	0xbd39012e	-0.04516714
83	0x3cbb15fc	0.022837631
84	0xbd4a9b2c	-0.04946439
85	0x3d8b7940	0.06810236
86	0x3d16bee4	0.03680314
87	0xbda3f49a	-0.080056384
88	0x3d763b5c	0.060115203
89	0x3d32078e	0.043464236
90	0xbd53c666	-0.05170288
91	0xbc8d7c72	-0.017271254
92	0x3ce372f2	0.027764771
93	0x3d8f1fc7	0.06988483
94	0xbd4b240d	-0.049594928
95	0x3d8f1f98	0.06988448
96	0xbd6f2f42	-0.058394678
97	0x3d21968e	0.03945022
98	0xbd8ae6fa	-0.067823365
99	0x3cc49fd0	0.024001986
100	0xbd2ff08c	-0.042954013
101	0xbd165049	-0.03669766
102	0x3cc19c8d	0.02363422
103	0x3d686b76	0.056743108
104	0x3d5a2a5e	0.05326306
105	0xbd02c41e	-0.031925313
106	0xbd0146e5	-0.03156175
107	0x3d9ff916	0.07811181
108	0xbd86ca9f	-0.06581616
109	0xbda3fb92	-0.080069676
110	0x3c7e535b	0.015522803
111	0xbd21464d	-0.039373685
112	0x3d8ebf74	0.069701105
113	0xbcb93034	-0.022605993
114	0xbd82d3a7	-0.06388026
115	0xbd1413b2	-0.036151595
116	0xbcedf43a	-0.02904712
117	0xbd747f2e	-0.0596916
118	0xbd44c3e2	-0.04803837
119	0xbd6d41e6	-0.057924174
120	0xbd47290d	-0.048623133
121	0x3d47a7c3	0.048743974
122	0xbd913fe6	-0.07092266
123	0xbd53aa87	-0.0516763
124	0xbd51be59	-0.05120692
125	0x3d39dabd	0.04537462
126	0xbd32c357	-0.04364332
127	0xbd976006	-0.07391362
128	0xbd1b6d39	-0.03794596
129	0x3d783f90	0.060607493
130	0xbd1ae878	-0.037819356
131	0xbd810b6b	-0.06301006
132	0xbd02fa31	-0.031976882
133	0xbd8bbb02	-0.06822778
134	0x3d6f0eca	0.058363713
135	0xbd1bf2ea	-0.038073458
136	0xbcfe6b5e	-0.031057056
137	0xbd75ac4b	-0.059978765
138	0x3d11bd11	0.0355807
139	0x3cf45cd1	0.029829415
140	0x3d52253d	0.051305044
141	0xbd87f70b	-0.066389166
142	0x3d29a6d5	0.04141887
143	0xbcfaadb5	-0.030600408
144	0xbd18bf62	-0.037291892
145	0x3d160641	0.036627058
146	0xbd167e94	-0.036741808
147	0x3c93fd0b	0.018064996
148	0xbd1340e3	-0.035950553
149	0xbd7dbf47	-0.061949994
150	0xbd2e16de	-0.042502277
151	0x3d680b52	0.05665142
152	0xbd27ac80	-0.040935993
153	0x3d0f77ba	0.03502629
154	0xbd312ed3	-0.043257546
155	0xbcee3365	-0.029077241
156	0x3d774851	0.0603717
157	0xbd991ef3	-0.07476606
158	0x3d5fa9e4	0.05460538
159	0xbd5bd052	-0.053665467
160	0x3c81d183	0.015846973
161	0x3d990bab	0.074729286
162	0x3cf1c9f3	0.029515242
163	0xbd2a78c0	-0.041619062
164	0xbd94b60d	-0.07261286
165	0x3d7bbbd8	0.06145844
166	0x3d289e26	0.041166447
167	0xbd4bcefe	-0.04975795
168	0x3ccf6f9d	0.025321776
169	0x3d8cdc7d	0.06877992
170	0xbd6f75b0	-0.058461845
171	0xbd1b71ce	-0.03795033
172	0xbcf39178	-0.02973245
173	0xbd7a7414	-0.061145857
174	0x3d86f182	0.06589033
175	0x3d4341eb	0.047670286
176	0x3d0d3478	0.034473866
177	0x3d0e30a3	0.034714352
178	0xbd2e1829	-0.04250351
179	0x3d0faa0b	0.035074275
180	0xbd079c95	-0.033108313
181	0xbd89cb91	-0.0672828
182	0xbd0b17d2	-0.033958264
183	0x3d25d24d	0.04048376
184	0xbd556825	-0.052101273
185	0xbd110687	-0.035406616
186	0xbce03001	-0.02736664
187	0x3d553b67	0.052058604
188	0x3d60e6ee	0.05490773
189	0xbcfd5071	-0.030922147
190	0x3caaa1b6	0.020829063
191	0xbd6c18a1	-0.057640675
192	0x3c8bc921	0.01706368
193	0x3d28108e	0.041031413
194	0x3d16b817	0.036796656
195	0xbd824c16	-0.063621685
196	0xbd80ecdf	-0.062951796
197	0x3d2fc3b3	0.042911243
198	0xbd62e496	-0.055393778
199	0x3d411161	0.047135714
200	0xbd76b1e3	-0.06022824
201	0x3c9f8cab	0.019476255
202	0xbd1a623e	-0.037691347
203	0xbd35025e	-0.04419171
204	0xbd1c8410	-0.038211882
205	0x3d109481	0.035297874
206	0x3d7f53d2	0.062335797
207	0xbcf8fb6d	-0.030393327
208	0xbd7ae45b	-0.061252933
209	0xbcf9b377	-0.030481083
210	0x3d62d6e7	0.055380728
211	0x3c8bc9ca	0.017063994
212	0xbd519442	-0.05116678
213	0x3cc04e28	0.023474768
214	0xbd97419a	-0.073855594
215	0x3d3f3967	0.046685603
216	0x3d5d06a4	0.05396141
217	0x3d3956ae	0.04524868
218	0x3d2aabbc	0.041667685
219	0xbd64fa71	-0.055902902
220	0x3ca06689	0.019580143
221	0xbda3d990	-0.08000481
222	0xbcf24a7a	-0.029576529
223	0xbc2b1f28	-0.01044444
224	0x3d0bd3ad	0.034137417
225	0x3cd7cb91	0.026342185
226	0x3cee91c4	0.02912224
227	0xbd1c0378	-0.038089246
228	0xbd879a2f	-0.06621205
229	0x3d72bd02	0.059262283
230	0x3d16435d	0.036685336
231	0xbd31ad0f	-0.043377932
232	0x3d363abc	0.044489607
233	0x3d399ecc	0.045317456
234	0x3ce4c4ca	0.027925868
235	0xbcf12720	-0.029437602
236	0xbd624afe	-0.0552473
237	0x3d256837	0.04038259
238	0xbd830827	-0.06398039
239	0xbd321b84	-0.043483272
240	0x3d61861d	0.05505954
241	0x3d386194	0.045014933
242	0x3d9c0640	0.076183796
243	0xbd06eaea	-0.032938875
244	0x3ca90b88	0.020635381
245	0x3ca97e79	0.02069019
246	0x3c7fb601	0.015607358
247	0xbd1121e9	-0.03543273
248	0xbd914fdb	-0.07095309
249	0x3d5c4d8a	0.053784885
250	0xbd426240	-0.04745698
251	0xbd667e08	-0.056272537
252	0xbd601b8c	-0.05471377
253	0x3ce501c4	0.027954943
254	0xbd41c764	-0.047309294
255	0xbd20c58c	-0.039250895
