RL/Model_Repository/pytorch_models/TD3_Guest_cool_actor.pth (torch, 516991 bytes, 9 tensors)

layer_1.weight f4 [400, 15]
0	0x3e4c05c7	0.19924079
1	0x3e5d5c57	0.21617256
2	0xbd702887	-0.0586324
3	0x3e74cce1	0.2390628
4	0xbd5f3979	-0.05449817
5	0x3d5daf20	0.05412209
6	0xbdfd5d44	-0.12371305
7	0x3e1d5a19	0.15366401
8	0x3e6b3af5	0.22971709
9	0xbe401b57	-0.1876043
10	0x3e676fd7	0.22601257
11	0x3d4d798b	0.05016474
12	0x3e4543ef	0.19264196
13	0x3d0bf673	0.03417058
14	0x3dfd2fc1	0.12362624
15	0xbd11128b	-0.035418075
16	0x3e4cdf0f	0.20006965
17	0x3d208678	0.03919074
18	0xbdf4c0fe	-0.11950873
19	0x3d88df59	0.06683225
20	0xbdf16b7f	-0.117880814
21	0xbceff6b2	-0.029292438
22	0xbdd4c857	-0.10389774
23	0x3e306bd8	0.17228639
24	0xbe4fa757	-0.20278679
25	0xbdf19a7e	-0.11797045
26	0xbd93ce2b	-0.07217058
27	0xbe1dd99f	-0.15415047
28	0x3cd1d696	0.025615018
29	0xbe8253c3	-0.2545453
30	0x3e6ef9b6	0.23337445
31	0xbe606a1a	-0.21915475
32	0x3e4c4faa	0.19952264
33	0x3d30c02b	0.043152016
34	0xbdabc16f	-0.08386504
35	0x3e234e22	0.15947774
36	0x3d25e869	0.040504847
37	0x3e558d29	0.2085463
38	0x3ce6d090	0.028175622
39	0xbda64f7d	-0.0812063
40	0x3d8d8793	0.06910624
41	0xbd8f7301	-0.07004357
42	0x3ddf090c	0.108903974
43	0x3e681040	0.22662449
44	0x3e1825dc	0.14858192
45	0xbde4b47c	-0.11167237
46	0x3e19dbde	0.15025279
47	0x3d4230df	0.04740989
48	0x3e078309	0.1323358
49	0xbe1fc3fa	-0.15602103
50	0xbe8238a2	-0.25433832
51	0xbdc943b8	-0.098273695
52	0xbe49668d	-0.19668026
53	0x3e5a644b	0.21327321
54	0x3d9b4c95	0.07582966
55	0x3ddde583	0.108347915
56	0x3da9dcf7	0.08294099
57	0xbb454a2f	-0.0030104031
58	0x3e4f7a39	0.20261468
59	0xbe3be0ae	-0.18347427
60	0x3c9887c4	0.018619426
61	0xbe320ce9	-0.17387737
62	0x3da7dc57	0.08196323
63	0xbdb14dcb	-0.08657416
64	0x3da64f11	0.081205495
65	0xbd535e45	-0.051603574
66	0x3e5d5c8f	0.2161734
67	0xbe1a8ff7	-0.1509398
68	0xbe1b9384	-0.15192991
69	0xbe1b9637	-0.15194021
70	0x3e6ff179	0.23431958
71	0x3db4658d	0.08808432
72	0x3e804038	0.25048995
73	0xbe5a3310	-0.21308541
74	0xbe831fb6	-0.2561013
75	0xbe510576	-0.2041224
76	0xbe34097e	-0.17581746
77	0x3dd1d8cc	0.10246429
78	0x3db900c4	0.09033349
79	0x3e5a6185	0.21326263
80	0xbe0a6c9e	-0.13517997
81	0xbe35d197	-0.17755733
82	0x3e0b456c	0.13600701
83	0xbdd86a23	-0.10567119
84	0x3e1eed0a	0.1552011
85	0xbd7a6bf7	-0.06113812
86	0x3e169eff	0.1470909
87	0xbe4f11d4	-0.20221645
88	0xbdfd64e9	-0.12372763
89	0x3da01cc1	0.07817984
90	0x3d6a5b29	0.057215843
91	0xbd817135	-0.06320421
92	0x3e2047d9	0.15652408
93	0x3e366b6b	0.17814414
94	0xbe3d536f	-0.18488859
95	0xbe0a80c9	-0.1352569
96	0x3e74a954	0.23892719
97	0xbdade05f	-0.08490061
98	0xbdb68730	-0.08912504
99	0xbe7d400e	-0.24731466
100	0xbe166009	-0.14685072
101	0x3d871dec	0.06597504
102	0xbd00ce1a	-0.031446554
103	0xbe3f18aa	-0.18661752
104	0x3c3eb4ac	0.011639755
105	0xbe349a92	-0.17637089
106	0xbe604ff9	-0.21905507
107	0xbe1197c2	-0.14218047
108	0xbe6766fc	-0.22597879
109	0xbe2859cc	-0.16440505
110	0x3e842569	0.25809792
111	0x3d47c038	0.0487673
112	0x3da2f3c4	0.07956651
113	0xbe769902	-0.24081805
114	0xbe2da5ed	-0.16957827
115	0xbdb002e2	-0.085943
116	0x3d256018	0.040374845
117	0xbe68a5ba	-0.2271947
118	0xbde3d788	-0.11125094
119	0xbe1e490e	-0.15457556
120	0x3b003e27	0.0019568296
121	0xbdc23af1	-0.094838984
122	0xbc8870c5	-0.016655335
123	0xbe31e4f5	-0.17372496
124	0xbe345fa2	-0.17614606
125	0xbe191db7	-0.14952742
126	0xbdb284a4	-0.087167054
127	0xbe4f9947	-0.20273314
128	0x3e5ed55e	0.2176108
129	0xbd4d051e	-0.05005371
130	0x3e6466a1	0.22304775
131	0x3da6485a	0.08119269
132	0xbe5ec208	-0.21753705
133	0x3e37b450	0.17939878
134	0xbd95c390	-0.07312691
135	0xbdc79cc7	-0.097467
136	0xbe59ee46	-0.212823
137	0xbe82a675	-0.25517622
138	0x3d9a6bc0	0.07540083
139	0xbd5febec	-0.054668352
140	0x3dd0c515	0.101938404
141	0xbe56c9ae	-0.20975372
142	0x3e461311	0.19343211
143	0xbe4048de	-0.18777797
144	0xbd2e0959	-0.042489383
145	0x3d640f97	0.05567893
146	0x3e0a357f	0.1349697
147	0x3e57a172	0.2105768
148	0x3e701d7d	0.23448749
149	0xbe533ea2	-0.20629361
150	0x3d8c936c	0.06864056
151	0xbddbf267	-0.10739594
152	0xbcc9e584	-0.024645574
153	0xbe42244b	-0.18959157
154	0x3e744187	0.23853122
155	0xbe3e359f	-0.18575142
156	0x3e10db6d	0.14146204
157	0x3dc0484e	0.09388791
158	0x3db2bce3	0.087274335
159	0xbe0b52f9	-0.1360587
160	0x3e72a424	0.23695427
161	0x3d738b6c	0.059459135
162	0x3d16d961	0.036828402
163	0xbe684c36	-0.22685322
164	0x3de3aab3	0.11116543
165	0xbd257fc1	-0.04040504
166	0xbdf5aea0	-0.11996198
167	0x3e6160fa	0.2200965
168	0x3d64dc83	0.05587436
169	0xbe14230b	-0.14466493
170	0xbe07901c	-0.13238567
171	0xbc69a5cf	-0.014260723
172	0x3e11ce38	0.14238822
173	0xbd8ae272	-0.06781472
174	0xbe18d14f	-0.14923595
175	0xbdb89487	-0.09012704
176	0xbe4721aa	-0.19446436
177	0x3db88584	0.09009841
178	0x3e4ca8f9	0.19986333
179	0xbe7674b0	-0.2406795
180	0x3d6a9957	0.057275143
181	0x3e05d35b	0.13068907
182	0x3d34bc24	0.044124737
183	0xbdc1ddac	-0.09466109
184	0x3e06f3cc	0.13178939
185	0x3e0803e0	0.13282728
186	0x3dbf86fb	0.09351917
187	0xbd4588bc	-0.048226103
188	0xbd921b3d	-0.071341015
189	0x3cca1990	0.024670392
190	0xbd428c1e	-0.047496907
191	0xbda2575e	-0.0792682
192	0x3e25eab4	0.16202813
193	0x3e63292c	0.22183675
194	0xbcad2cc5	-0.021139512
195	0xbd7ba898	-0.06144008
196	0x39127baf	0.00013969721
197	0xbc9c272d	-0.01906165
198	0x3d6f55e2	0.058431514
199	0x3d8d8b79	0.06911368
200	0xbe73bd0a	-0.23802581
201	0xbdca90cf	-0.09890901
202	0x3e5b735a	0.21430722
203	0x3dc73f26	0.097288415
204	0xbc869bf0	-0.016431779
205	0xbe21b9c9	-0.15793528
206	0xbe245518	-0.16048086
207	0xbe70b2b1	-0.23505665
208	0xbda3b878	-0.07994169
209	0x3dac1581	0.08402539
210	0x3e28959a	0.16463318
211	0x3df4243c	0.11920974
212	0xbe69b602	-0.22823337
213	0xbe1eff64	-0.15527111
214	0xbd26e778	-0.04074809
215	0x3e7fc356	0.24976858
216	0x3d18fcc0	0.037350416
217	0xbd88f104	-0.06686595
218	0x3ddac4e0	0.10682082
219	0xbdc96828	-0.09834319
220	0xbe2b21b0	-0.1671207
221	0x3e40faa2	0.18845609
222	0xbdf0713e	-0.11740349
223	0xbd540298	-0.051760286
224	0xbe8382cf	-0.25685737
225	0x3e3330a4	0.17499024
226	0x3e4a8b88	0.1977979
227	0x3dc53201	0.09628678
228	0xbe361ee9	-0.17785229
229	0xbe8146fa	-0.25249463
230	0xbe546930	-0.20743251
231	0x3e4795ca	0.19490734
232	0x3e01527e	0.12629125
233	0x3e60de91	0.21959902
234	0x3e0ceec6	0.1376296
235	0x3d8a6aa6	0.06758623
236	0xba102dd3	-0.00054999924
237	0xbe46aa00	-0.19400787
238	0xbe6286e0	-0.22121763
239	0xbe774d58	-0.24150598
240	0x3dd87790	0.1056968
241	0xbe01cf4f	-0.12676738
242	0xbd54d75c	-0.051963195
243	0xbe18293e	-0.14859483
244	0xbd40b76c	-0.047049925
245	0xbe3a1744	-0.18172938
246	0xbe2cc2a1	-0.1687112
247	0x3daf67e4	0.085647374
248	0xbd9d27a6	-0.07673578
249	0x3e23390e	0.15939733
250	0xbda9a412	-0.08283247
251	0xbe41f3b6	-0.18940625
252	0xbd3a9948	-0.045556337
253	0xbe002a45	-0.12516125
254	0xbda1c77e	-0.07899378
255	0xbe79e691	-0.2440436

layer_1.bias f4 [400]
0	0xbe16571b	-0.14681666
1	0xbd68aa57	-0.056803074
2	0x3e6e69cf	0.2328255
3	0xbe3880f5	-0.18017943
4	0xbe46fb91	-0.19431902
5	0xbe58c772	-0.21169832
6	0x3e79f244	0.24408823
7	0xbd073fc4	-0.033019796
8	0xbd8a493c	-0.067522496
9	0x3e1313fa	0.14363089
10	0xbe189901	-0.14902116
11	0xbd8fb3fb	-0.070167504
12	0x3e6f3df4	0.23363477
13	0x3e093089	0.13397421
14	0xbe4d19a4	-0.20029312
15	0xbd8c70b3	-0.06857433
16	0x3ccfb570	0.02535507
17	0x3dc35815	0.09538285
18	0xbdf256da	-0.11832972
19	0x3e3ba45e	0.1832442
20	0x3a9c0330	0.0011902805
21	0xbe649a3d	-0.22324462
22	0x3d8cedf5	0.06881324
23	0xbe809d40	-0.25119972
24	0x3c8ae1b6	0.01695333
25	0xbe82f490	-0.2557721
26	0xbd96d9f2	-0.073657885
27	0xbd7624ab	-0.060093563
28	0xbe6d30a0	-0.2316308
29	0xbd9c821a	-0.076420024
30	0x3c49b161	0.012310357
31	0xbe168449	-0.146989
32	0x3d240a5e	0.04004895
33	0x3e0c0e95	0.13677438
34	0x3d07a63b	0.033117514
35	0xbe807c84	-0.25094998
36	0xbb586685	-0.003302009
37	0xbdf7639e	-0.12079547
38	0x3d8f91b8	0.070102155
39	0xbe534af6	-0.20634064
40	0xbe39e6f4	-0.18154508
41	0xbbb32be7	-0.00546788
42	0x3e1a1136	0.15045628
43	0xbd92620e	-0.07147609
44	0xbc36899e	-0.011141209
45	0xbcd2b643	-0.025721675
46	0xbe4b7dc8	-0.198722
47	0xbc989163	-0.018624013
48	0xbc2ad6a4	-0.010427151
49	0x3d2880c9	0.041138444
50	0x3dead62d	0.11466632
51	0x3da05725	0.078291215
52	0x3e14d510	0.14534402
53	0xbd4e187d	-0.050316323
54	0xbde5d845	-0.11222891
55	0x3e6295f2	0.22127512
56	0x3e50e000	0.20397949
57	0x3e126199	0.14295043
58	0x3e3d6c6f	0.18498395
59	0x3e04078d	0.12893505
60	0x3e66884e	0.22512934
61	0x3e691641	0.22762395
62	0xbe56f85e	-0.20993182
63	0xbe7b5725	-0.24544962
64	0xbe063931	-0.13107754
65	0x3e49150b	0.19636934
66	0x3e706096	0.23474345
67	0x3c6349f6	0.013872614
68	0xbe4400fd	-0.19141002
69	0xbdfd83fe	-0.12378691
70	0x3dff766d	0.1247376
71	0x3e73aa6a	0.23795477
72	0x3d50f28d	0.051012564
73	0xbe2beaee	-0.16788837
74	0x3e7a23e9	0.24427761
75	0x3e660285	0.22461899
76	0xbde86ebf	-0.11349248
77	0xbe0dc152	-0.13843277
78	0x3e16e8d6	0.14737257
79	0xbe3f0f94	-0.18658286
80	0x3e5df29c	0.2167458
81	0xbd4e5503	-0.050374042
82	0xbabfaad7	-0.0014623058
83	0xbe0e0a03	-0.13871007
84	0xbe82ecd9	-0.25571325
85	0x3d6ecce0	0.058300853
86	0xbdb9fb78	-0.09081167
87	0xbe170e93	-0.14751653
88	0x3e50435b	0.20338194
89	0x3d48ccb0	0.04902333
90	0xbd934024	-0.07189968
91	0xbe76f6ca	-0.2411758
92	0xbe17344f	-0.14766048
93	0xbda0e1ee	-0.07855593
94	0x3dd9f0b5	0.10641614
95	0xbe7692b1	-0.24079396
96	0x3e15352a	0.14571062
97	0x3e72facf	0.23728488
98	0x3da2026f	0.079106204
99	0xbe8435a7	-0.25822183
100	0x3d14d619	0.036336992
101	0xbdd1c2db	-0.10242244
102	0x3da329c7	0.07966953
103	0xbc2d9e35	-0.0105968015
104	0x3dffbaee	0.12486826
105	0xbcc85359	-0.024453806
106	0x3d39b6cc	0.045340344
107	0x3dcccc5a	0.099999145
108	0xbe427a30	-0.18991923
109	0x3d2edd8b	0.04269175
110	0x3e6dc6ce	0.23220369
111	0x3e370040	0.17871189
112	0x3c93e6a9	0.018054323
113	0xbd37e3a8	-0.044894844
114	0x3dd4b63d	0.10386322
115	0xbe65cec6	-0.22442159
116	0xbda06613	-0.07831969
117	0x3e67ba31	0.2262962
118	0x3d127006	0.035751365
119	0xbb809542	-0.003924043
120	0xbe525e2f	-0.2054374
121	0xbe274a73	-0.16336994
122	0x3d0f1fab	0.03494231
123	0xbe48a7ef	-0.19595312
124	0xbd95995c	-0.073046416
125	0xbe012d6e	-0.12614986
126	0x3da9837b	0.08277031
127	0x3d191b80	0.03737974
128	0xbe7ea479	-0.24867429
129	0x3db262f3	0.08710279
130	0xbcbeb470	-0.023279399
131	0xbdf99ca2	-0.121880785
132	0x3e44c31e	0.19215056
133	0xbe2e0fcc	-0.16998214
134	0xbe6d19bf	-0.23154353
135	0x3ce3dd96	0.027815621
136	0xbe10d48c	-0.1414358
137	0xbddb8ee4	-0.107206136
138	0xbe644265	-0.22290953
139	0xbd8337bc	-0.06407115
140	0x3e53ee3f	0.20696352
141	0xbe72b9b0	-0.23703647
142	0xbe360192	-0.17774037
143	0xbd5f3e42	-0.054502733
144	0xbe4f5f46	-0.20251188
145	0x3d3ec7bc	0.0465772
146	0xbd53c396	-0.051700197
147	0x3e48a9f3	0.1959608
148	0xbe836226	-0.2566082
149	0x3be6ebe6	0.0070471643
150	0x3de2ae0b	0.11068352
151	0x3d00df92	0.031463213
152	0xbd8ea998	-0.06965941
153	0x3e7afe05	0.24510963
154	0xbe4f3432	-0.20234755
155	0x3e7929a6	0.24332294
156	0x3d8c55b8	0.06852287
157	0x3df4797a	0.11937232
158	0x3e37fbe3	0.17967181
159	0x3ce1589a	0.027508069
160	0x3cecdae6	0.028912973
161	0xbd4f5d2a	-0.050625958
162	0xbe6cf74c	-0.23141211
163	0x3ddae9a4	0.10689095
164	0x3e47351d	0.19453855
165	0x3dd6be83	0.10485556
166	0xbd299040	-0.041397333
167	0xbe6f76a8	-0.23385108
168	0xbb7f2797	-0.003893351
169	0x3d86e3bd	0.065864064
170	0xbe4dcabd	-0.2009687
171	0x3e635eeb	0.22204177
172	0xbb758f0c	-0.0037469296
173	0x3d8d14eb	0.068887554
174	0x3e6b82d4	0.22999126
175	0x3de71655	0.11283556
176	0xbe0f4418	-0.1399082
177	0x3dc4d03b	0.09610029
178	0x3e1c6511	0.15272929
179	0x3e06aced	0.13151903
180	0xbdf38877	-0.11891263
181	0x3ce6278c	0.02809503
182	0xbe3d07e9	-0.18460049
183	0xbcdc9413	-0.026926076
184	0xbe388872	-0.180208
185	0x3e13fcdf	0.14451931
186	0x3e82f97b	0.25580963
187	0xbe7da5c8	-0.24770272
188	0xbdfa1271	-0.12210549
189	0xbdd9835a	-0.106207564
190	0xbe3969f6	-0.18106827
191	0x3e72c4d8	0.23707902
192	0xbe48a7bc	-0.19595236
193	0xbe084eb0	-0.13311267
194	0xbe5d320f	-0.21601127
195	0xba195ecf	-0.00058506144
196	0xbe417dd9	-0.18895663
197	0xbe321995	-0.17392571
198	0x3e84962d	0.25895825
199	0x3dedf25a	0.116184905
200	0x3dd98398	0.10620803
201	0x3e3bddc5	0.18346317
202	0x3d2ee612	0.04269988
203	0x3d2c92fd	0.042132366
204	0xbe469ec5	-0.19396503
205	0x3d9b7f01	0.075925834
206	0xbe4b6b4b	-0.19865148
207	0xbb5f23d3	-0.0034048453
208	0xbe0fcccd	-0.14042969
209	0xbe15dd3c	-0.14635175
210	0xbe1932de	-0.1496081
211	0xbe017afc	-0.12644571
212	0xbe1bd69a	-0.15218583
213	0xbe134509	-0.14381804
214	0xbdc0e653	-0.09418931
215	0xbe723bdb	-0.23655646
216	0x3e5577bc	0.20846456
217	0x3db68fee	0.08914171
218	0xbe838ad7	-0.25691864
219	0xbe84c756	-0.2593333
220	0xbe04eb12	-0.12980297
221	0x3dc895e1	0.09794212
222	0x3e73525b	0.23761885
223	0xbd2c820d	-0.042116214
224	0x3e20220b	0.15637986
225	0xbe0e6c61	-0.13908531
226	0xbd556eb3	-0.052107524
227	0xbd23f394	-0.040027216
228	0xbe813d40	-0.25242043
229	0x3b16a3c1	0.0022985789
230	0x3d92f7dd	0.071761824
231	0x3e23ae84	0.15984541
232	0xbe50590a	-0.20346466
233	0xbda228d4	-0.079179436
234	0x3c1f9720	0.009740621
235	0x3cccfaef	0.025021998
236	0x3d29cb80	0.04145384
237	0xbe46f23e	-0.19428346
238	0x3e4ebbb1	0.20188786
239	0xbe6ebf34	-0.23315126
240	0xbdbac761	-0.0912006
241	0x3e02e712	0.12783459
242	0xbd85996c	-0.065234035
243	0xbe004a29	-0.1252829
244	0xbe814437	-0.25247356
245	0x3e387a80	0.1801548
246	0xbc322d1c	-0.010875013
247	0x3e024f3c	0.12725538
248	0x3d2fc93a	0.042916514
249	0xbe47a4d7	-0.19496475
250	0xbdc04199	-0.09387512
251	0x3e3b4334	0.18287355
252	0xbe0179f1	-0.12644173
253	0xbdf8e799	-0.12153549
254	0x3e0e5e44	0.13903147
255	0xbdde2ee6	-0.10848789

ln1.weight f4 [400]
0	0x3f7fd149	0.9992872
1	0x3f8007cc	1.000238
2	0x3f7f49e1	0.99722105
3	0x3f7fa98f	0.998681
4	0x3f804be5	1.0023161
5	0x3f7fb8d3	0.99891394
6	0x3f7ff041	0.99975973
7	0x3f800b25	1.0003401
8	0x3f800a79	1.0003196
9	0x3f7ff6ca	0.99985945
10	0x3f801488	1.0006266
11	0x3f8049d8	1.0022535
12	0x3f7f9f41	0.9985238
13	0x3f7f67cc	0.99767756
14	0x3f801ba3	1.0008434
15	0x3f8005d8	1.0001783
16	0x3f800c10	1.0003681
17	0x3f7ff3bb	0.9998128
18	0x3f7f17c3	0.9964563
19	0x3f8000fc	1.00003
20	0x3f80024d	1.0000702
21	0x3f7f4e33	0.997287
22	0x3f7f5fda	0.9975563
23	0x3f7f2cb7	0.99677604
24	0x3f805277	1.0025166
25	0x3f801482	1.0006258
26	0x3f7f24c3	0.9966547
27	0x3f7fd133	0.9992859
28	0x3f800f10	1.0004597
29	0x3f7fb7a0	0.99889565
30	0x3f802043	1.0009845
31	0x3f7fb667	0.998877
32	0x3f802f8a	1.0014508
33	0x3f7f695c	0.9977014
34	0x3f7fd95c	0.9994104
35	0x3f7f890e	0.99818504
36	0x3f7fcf25	0.9992545
37	0x3f80eaf4	1.0071702
38	0x3f80c112	1.005892
39	0x3f7f6d70	0.99776363
40	0x3f807933	1.0036987
41	0x3f808915	1.0041834
42	0x3f809869	1.0046512
43	0x3f7fc309	0.99906975
44	0x3f8050f0	1.00247
45	0x3f800e6d	1.0004402
46	0x3f80f45b	1.0074571
47	0x3f7fc664	0.99912095
48	0x3f803d5b	1.0018724
49	0x3f7fce44	0.9992411
50	0x3f7fac9d	0.9987276
51	0x3f7e7e59	0.9941154
52	0x3f804fb6	1.0024326
53	0x3f7ee78a	0.9957205
54	0x3f7fa641	0.9986306
55	0x3f801f34	1.0009522
56	0x3f7ffaf7	0.99992317
57	0x3f7fee99	0.99973446
58	0x3f7fa23f	0.9985694
59	0x3f7f86ba	0.9981495
60	0x3f7f793b	0.9979436
61	0x3f801705	1.0007025
62	0x3f7fa940	0.9986763
63	0x3f80a9c9	1.0051814
64	0x3f7fdc46	0.99945486
65	0x3f7ee14b	0.9956252
66	0x3f8014a5	1.00063
67	0x3f80450a	1.0021069
68	0x3f7ff6da	0.9998604
69	0x3f802aea	1.0013096
70	0x3f801777	1.0007161
71	0x3f800ddd	1.0004231
72	0x3f7eca2d	0.99527246
73	0x3f8048a4	1.0022168
74	0x3f8007bd	1.0002362
75	0x3f7f8b1e	0.9982165
76	0x3f8015fe	1.0006711
77	0x3f7fd51c	0.99934554
78	0x3f8040c9	1.0019771
79	0x3f7e8e39	0.99435765
80	0x3f7f7da3	0.9980108
81	0x3f8041c9	1.0020076
82	0x3f800aa2	1.0003245
83	0x3f80302f	1.0014704
84	0x3f803bfa	1.0018303
85	0x3f80447d	1.0020901
86	0x3f7fc676	0.999122
87	0x3f804519	1.0021087
88	0x3f7fc807	0.9991459
89	0x3f7f8b9f	0.9982242
90	0x3f806608	1.0031137
91	0x3f801be4	1.0008512
92	0x3f800254	1.000071
93	0x3f7efdbe	0.9960593
94	0x3f7ff472	0.9998237
95	0x3f7f706c	0.9978092
96	0x3f807194	1.0034661
97	0x3f7fb200	0.9988098
98	0x3f801299	1.0005676
99	0x3f803ab1	1.0017911
100	0x3f80517d	1.0024868
101	0x3f802a39	1.0012885
102	0x3f804607	1.0021371
103	0x3f80697e	1.0032194
104	0x3f7ee5fd	0.99569684
105	0x3f7efb28	0.99601984
106	0x3f7fc2e2	0.9990674
107	0x3f7ff92d	0.9998959
108	0x3f7f909b	0.99830025
109	0x3f800c8c	1.0003829
110	0x3f80131a	1.0005829
111	0x3f80193f	1.0007704
112	0x3f7fd24d	0.9993027
113	0x3f7feb35	0.9996827
114	0x3f803167	1.0015076
115	0x3f7fe711	0.99961954
116	0x3f7f6dc3	0.9977686
117	0x3f7fbf27	0.9990105
118	0x3f7f37fb	0.99694794
119	0x3f801e42	1.0009234
120	0x3f8087ce	1.0041444
121	0x3f803816	1.0017116
122	0x3f800633	1.0001892
123	0x3f7ef605	0.99594146
124	0x3f802a44	1.0012898
125	0x3f8007b2	1.0002348
126	0x3f801664	1.0006833
127	0x3f7fe95c	0.99965453
128	0x3f803b8d	1.0018173
129	0x3f800255	1.0000712
130	0x3f803993	1.001757
131	0x3f7fbb2c	0.99894977
132	0x3f7fc24e	0.9990586
133	0x3f804db5	1.0023714
134	0x3f806d48	1.003335
135	0x3f7fca28	0.9991784
136	0x3f803e04	1.0018926
137	0x3f808237	1.0039738
138	0x3f802135	1.0010134
139	0x3f800814	1.0002465
140	0x3f7f66dd	0.9976633
141	0x3f804ba2	1.0023081
142	0x3f80179e	1.0007207
143	0x3f7fabdf	0.9987163
144	0x3f802d3a	1.0013802
145	0x3f7fa298	0.99857473
146	0x3f7f7804	0.99792504
147	0x3f7fa462	0.99860203
148	0x3f806dc4	1.0033498
149	0x3f804672	1.0021498
150	0x3f7f40e5	0.99708396
151	0x3f7f4205	0.9971011
152	0x3f8024b1	1.0011197
153	0x3f801d41	1.0008928
154	0x3f8026f0	1.0011883
155	0x3f800882	1.0002596
156	0x3f8011d0	1.0005436
157	0x3f7ea52f	0.994708
158	0x3f800c64	1.0003781
159	0x3f7ffbc3	0.9999353
160	0x3f8036f4	1.001677
161	0x3f803030	1.0014706
162	0x3f808251	1.003977
163	0x3f80063f	1.0001906
164	0x3f800c00	1.0003662
165	0x3f803e6a	1.0019047
166	0x3f8010a5	1.000508
167	0x3f801e7a	1.0009301
168	0x3f7f3a12	0.99697983
169	0x3f7f5684	0.9974139
170	0x3f7fb39e	0.9988345
171	0x3f80d5a4	1.0065198
172	0x3f7fedf7	0.9997248
173	0x3f80292d	1.0012566
174	0x3f800a93	1.0003227
175	0x3f7e88e4	0.9942763
176	0x3f801848	1.000741
177	0x3f7f9c7c	0.9984815
178	0x3f803c32	1.001837
179	0x3f7f1e14	0.9965527
180	0x3f7f7fa1	0.9980412
181	0x3f800aec	1.0003333
182	0x3f7f995d	0.9984339
183	0x3f7fafef	0.9987783
184	0x3f802492	1.001116
185	0x3f802a2b	1.0012869
186	0x3f8038a0	1.001728
187	0x3f806963	1.0032161
188	0x3f808248	1.0039759
189	0x3f7fc379	0.9990764
190	0x3f7fe72c	0.99962115
191	0x3f8060f4	1.0029588
192	0x3f7e6d42	0.99385464
193	0x3f7ee21f	0.99563783
194	0x3f802978	1.0012655
195	0x3f80e281	1.0069124
196	0x3f8005f4	1.0001817
197	0x3f7fbadd	0.99894506
198	0x3f80218c	1.0010238
199	0x3f7fd6d1	0.9993716
200	0x3f8086a8	1.0041094
201	0x3f7f7cc4	0.9979975
202	0x3f801d6e	1.0008981
203	0x3f7fe93d	0.9996527
204	0x3f801d43	1.000893
205	0x3f802ce2	1.0013697
206	0x3f802d5a	1.001384
207	0x3f802483	1.0011142
208	0x3f801110	1.0005207
209	0x3f80126a	1.000562
210	0x3f7f520f	0.99734586
211	0x3f804bd8	1.0023146
212	0x3f7f2507	0.99665874
213	0x3f7fbb78	0.9989543
214	0x3f7ff77c	0.99987006
215	0x3f7eaa31	0.9947844
216	0x3f80558f	1.002611
217	0x3f801560	1.0006523
218	0x3f7ebb2e	0.99504364
219	0x3f7e3910	0.9930582
220	0x3f7fa344	0.998585
221	0x3f801ed0	1.0009403
222	0x3f8010ae	1.000509
223	0x3f804af9	1.002288
224	0x3f80456a	1.0021183
225	0x3f807bcd	1.0037781
226	0x3f801268	1.0005617
227	0x3f8061aa	1.0029805
228	0x3f7f084a	0.99622023
229	0x3f7fbed6	0.9990057
230	0x3f7ff702	0.9998628
231	0x3f7fb3d2	0.9988376
232	0x3f7ff860	0.99988365
233	0x3f80412d	1.001989
234	0x3f8022d6	1.0010631
235	0x3f7ffa75	0.9999154
236	0x3f8016b1	1.0006925
237	0x3f7fecda	0.9997078
238	0x3f7fc7fe	0.9991454
239	0x3f80433a	1.0020516
240	0x3f7f8c06	0.99823034
241	0x3f7fe864	0.99963975
242	0x3f7faf1d	0.99876577
243	0x3f80324e	1.0015352
244	0x3f8077a4	1.0036511
245	0x3f7fe1f5	0.9995416
246	0x3f80611c	1.0029635
247	0x3f7fcee1	0.9992505
248	0x3f7fe548	0.9995923
249	0x3f8049c9	1.0022517
250	0x3f8027bc	1.0012126
251	0x3f7f78e8	0.99793863
252	0x3f7fb73f	0.99888986
253	0x3f80443c	1.0020823
254	0x3f7f8e9a	0.9982697
255	0x3f8017c7	1.0007256

ln1.bias f4 [400]
0	0xb9592291	-0.0002070761
1	0xb9c2ba3e	-0.00037141325
2	0xbb296f28	-0.0025853608
3	0x3a158108	0.0005703126
4	0xbb142753	-0.0022606447
5	0xba6fd84a	-0.0009149356
6	0x3aa2c86d	0.0012419351
7	0xb9bba254	-0.00035788363
8	0xb9a9f536	-0.00032416888
9	0xbae2697d	-0.001727387
10	0x3b464302	0.0030252342
11	0xbae72fc6	-0.0017638139
12	0xba66fb47	-0.0008811247
13	0xbb2d43f0	-0.00264382
14	0xba670282	-0.00088123244
15	0xb94d0e05	-0.00019555546
16	0xb9bfedfd	-0.00036607674
17	0x3a4f715e	0.00079133164
18	0x3b72a3e8	0.0037023965
19	0x38f89328	0.000118529715
20	0xbaad2222	-0.0013209025
21	0x3b353db3	0.0027655184
22	0x3b1e6d33	0.0024173975
23	0xbb5bc20e	-0.0033532414
24	0xbb21e752	-0.0024704528
25	0x3af477f5	0.0018651473
26	0x3b6164a9	0.0034392274
27	0x3a465d34	0.0007566989
28	0xbb36e4a6	-0.0027907281
29	0xba47344b	-0.000759904
30	0x3aa4f1a5	0.0012584223
31	0x394c118e	0.00019461496
32	0x3a3f03de	0.0007286648
33	0x3abec962	0.0014555866
34	0x3913f525	0.00014110336
35	0x3afa39cf	0.0019090715
36	0x39b8a1d8	0.00035215798
37	0xbbed6f91	-0.007245966
38	0xba5286d3	-0.00080309546
39	0x39e1389b	0.0004295752
40	0xbad6a23d	-0.0016375255
41	0xb9dda8e5	-0.0004227824
42	0xbb8b57e1	-0.0042524193
43	0xb9b5120c	-0.00034536456
44	0xb9869aa7	-0.00025673697
45	0xb9e1a271	-0.00043036373
46	0xb8438965	-4.661958e-05
47	0x3a6cda27	0.0009035193
48	0x387e5756	6.0639657e-05
49	0xb9d5c63b	-0.0004077422
50	0x3a956114	0.0011396729
51	0x3bae56ac	0.0053203907
52	0x39d08d4a	0.0003977812
53	0x3b468348	0.0030290652
54	0x3aaff5b2	0.0013424663
55	0x3a2f7e1a	0.0006694511
56	0xbaa61811	-0.0012671967
57	0x3b1ca80b	0.0023903872
58	0xbaa09c49	-0.0012253608
59	0x3b0ad905	0.0021186483
60	0xbacda9c0	-0.0015690848
61	0x3af8406c	0.0018940098
62	0x3ab4550f	0.001375826
63	0xba59755d	-0.00082953816
64	0xba1f6972	-0.0006081081
65	0x3b5f15f8	0.0034040194
66	0x3a0e0d17	0.00054188207
67	0xb7f81616	-2.9574188e-05
68	0x393d26f3	0.00018038954
69	0xba9747bf	-0.0011541768
70	0x381f21f8	3.794019e-05
71	0xbad57cfc	-0.0016287859
72	0xbb71525c	-0.0036822772
73	0x3b3adf7e	0.002851456
74	0xba3bd99e	-0.00071659114
75	0x39bf519a	0.00036491157
76	0xb9c11840	-0.00036829896
77	0x3a35273f	0.000691045
78	0xbb140c01	-0.0022590163
79	0x3bbb5a28	0.0057175346
80	0x3b098e3e	0.0020989324
81	0xbacde2f3	-0.0015707895
82	0xb9f7b5f0	-0.00047247065
83	0xbac0f196	-0.0014720436
84	0xbadaf243	-0.001670428
85	0x3a5aee66	0.0008351564
86	0x3992f991	0.00028033232
87	0x399cbafc	0.00029893953
88	0xbb278cc2	-0.0025566076
89	0x3adfbe12	0.0017070195
90	0xb9b1f5cb	-0.000339432
91	0xba75595c	-0.0009359324
92	0x39ce5099	0.00039351432
93	0x3b8b5915	0.0042525628
94	0xbb215e4b	-0.0024622853
95	0xbbc05f8e	-0.005870766
96	0xba69feb0	-0.0008926196
97	0xba5043a9	-0.00079446525
98	0xba0c4c41	-0.0005351939
99	0xba485cde	-0.0007643233
100	0xbaf53657	-0.0018708211
101	0xba218bec	-0.00061625126
102	0x398ce992	0.00026876904
103	0xbb5482fa	-0.00324267
104	0x38965c3e	7.169739e-05
105	0xbb7b1120	-0.0038309768
106	0x3a47bf15	0.0007619721
107	0xbaa80f90	-0.0012822021
108	0x3aa82135	0.0012827279
109	0xb96090d9	-0.00021416265
110	0x3ab16136	0.0013533
111	0x3a91da4a	0.0011127677
112	0x3ab09b06	0.0013473935
113	0xb84bd6a7	-4.8598882e-05
114	0xbac5537b	-0.0015054786
115	0xba13b4cd	-0.00056345464
116	0xbb3554bd	-0.0027668916
117	0xba14ccee	-0.0005676289
118	0x3b479e72	0.003045943
119	0xbafbd74b	-0.0019213943
120	0x39a669cd	0.00031740815
121	0x38a9e790	8.10168e-05
122	0xb9232426	-0.00015558358
123	0xbb4829ff	-0.003054261
124	0xb9aaa0b3	-0.00032544657
125	0x3af14f76	0.0018410522
126	0x3a3eda59	0.0007280461
127	0xbae1b5f4	-0.0017220364
128	0xbacea28d	-0.0015764997
129	0x3a39bf7f	0.0007085725
130	0xbaf5d85e	-0.0018756499
131	0x3a6d5afe	0.00090543914
132	0x3af15b7e	0.0018414108
133	0xbb1af369	-0.002364362
134	0xb98cb967	-0.00026841016
135	0x38bce068	9.0063375e-05
136	0xbaf98bc8	-0.001903885
137	0xba4268ea	-0.0007416146
138	0xb9db321f	-0.00041808278
139	0xb9a7b5ba	-0.0003198812
140	0xbb244f92	-0.0025071842
141	0xb9988968	-0.00029094075
142	0xbab46c4b	-0.0013765184
143	0x3aba6e7f	0.0014223604
144	0xba9c21bf	-0.0011911913
145	0x3abb7b1f	0.0014303661
146	0x3b078edb	0.0020684514
147	0xba23e26e	-0.0006251697
148	0xbaf0d73a	-0.0018374689
149	0xbaafca84	-0.0013411795
150	0xbaa9060c	-0.0012895479
151	0x3aa38190	0.0012474526
152	0xbab0a444	-0.0013476689
153	0x3a114982	0.00055422646
154	0xb9b84c60	-0.0003515212
155	0x3ab5ae71	0.0013861192
156	0xbae42dc3	-0.0017408658
157	0xbb3edd27	-0.0029123516
158	0xbaa6f12f	-0.0012736673
159	0x3879fbf5	5.960088e-05
160	0xbab756a4	-0.0013987613
161	0xba8f16fb	-0.0010916883
162	0xbad2a193	-0.0016069881
163	0xbab67ead	-0.001392325
164	0x3a021e68	0.00049636373
165	0xba6c9753	-0.00090252346
166	0xba1c45d7	-0.00059613347
167	0xba81e65f	-0.0009910575
168	0xb9cf9e41	-0.00039600025
169	0x39ce5848	0.00039357156
170	0x3a6b003d	0.0008964574
171	0xba6d4e63	-0.0009052513
172	0x39b0d374	0.0003372688
173	0xbad13eec	-0.0015964187
174	0x3a762504	0.0009389671
175	0xbb2728e8	-0.002550656
176	0xba1b1013	-0.0005915176
177	0x3ae10c82	0.0017169865
178	0xbb19898a	-0.0023427927
179	0x3b96d38a	0.004602854
180	0x38a15c1c	7.694235e-05
181	0x39bc94a1	0.00035968891
182	0xba884a70	-0.0010398161
183	0x3b6b07d0	0.003586281
184	0xba949b5d	-0.0011337806
185	0xbacb18cb	-0.001549506
186	0x3a2fb1e5	0.00067022286
187	0x398cf642	0.00026886357
188	0xbb4c5247	-0.003117697
189	0xb86ecd67	-5.6934918e-05
190	0x3a24ac73	0.00062818005
191	0xba2e2139	-0.0006642524
192	0x3bcdb297	0.006277393
193	0xbafe1636	-0.0019385281
194	0xb9e19742	-0.0004302804
195	0xbbe1fec7	-0.006896827
196	0x3a71a07f	0.0009217336
197	0x3a841977	0.001007839
198	0x39e654c3	0.0004393217
199	0x398b499e	0.00026566995
200	0xbac38777	-0.0014917691
201	0x3af6bf29	0.0018825281
202	0xba5fb401	-0.00085335976
203	0xbafe636d	-0.0019408293
204	0xba1c146b	-0.000595397
205	0x39ec6dc3	0.00045095207
206	0xb9fb951b	-0.00047985543
207	0xbaae6415	-0.0013304973
208	0xba13a408	-0.00056320475
209	0xba2590fa	-0.00063158537
210	0x3b2ab900	0.002605021
211	0x3a6177fb	0.00086009473
212	0x3b321467	0.0027172805
213	0x39fa7d29	0.00047776967
214	0x3842ad49	4.641459e-05
215	0x3ba9e9cd	0.005185342
216	0xbaa26d14	-0.0012392127
217	0xba3d4b6f	-0.00072210183
218	0x3b187f96	0.0023269407
219	0x3be1d84e	0.0068922406
220	0x3ac10aaf	0.0014727915
221	0xba885798	-0.0010402082
222	0xb9100c1d	-0.00013737423
223	0xbad86114	-0.0016508424
224	0x38bf7ccd	9.130836e-05
225	0xbb72fc81	-0.0037076774
226	0xbae58bcd	-0.0017512977
227	0xbb41e59e	-0.0029586325
228	0xba9fc5e8	-0.0012189718
229	0x3a724c25	0.0009242914
230	0x3a4edacc	0.00078908796
231	0x3aa9c619	0.0012952714
232	0xb86f27c2	-5.7019068e-05
233	0x39b1e8f3	0.00033933631
234	0xba90a770	-0.0011036228
235	0xbaf89efc	-0.001896828
236	0xba4872a3	-0.0007646477
237	0xb9b2097d	-0.00033957875
238	0x3b1606b3	0.0022892177
239	0xbb0b3bfd	-0.0021245473
240	0x3a8a3f78	0.001054748
241	0xbaaf2920	-0.0013363697
242	0x3a8b7535	0.0010639789
243	0x3994c8d1	0.0002837838
244	0xbadd5e57	-0.0016889077
245	0x3a8d2641	0.0010768847
246	0xbb3c647c	-0.0028746417
247	0xbad049d6	-0.0015891145
248	0x3a34a77e	0.00068914134
249	0x3a3e82f6	0.00072674395
250	0xba9ff02f	-0.0012202318
251	0xba513c9f	-0.00079817505
252	0x3a9d3d9c	0.001199651
253	0xbac0bb12	-0.0014704189
254	0x3a412734	0.00073682074
255	0x3a447241	0.0007493832

layer_2.weight f4 [300, 400]
0	0x3c84ffb2	0.016235206
1	0xbceec927	-0.029148651
2	0x3ce6fe3a	0.028197397
3	0xbc832e9d	-0.016013438
4	0x3c6e5528	0.01454667
5	0x3b98860b	0.004654651
6	0x3d16e993	0.036843847
7	0xbc1be5b8	-0.009515218
8	0xbc8e0753	-0.017337477
9	0xbc30037e	-0.01074302
10	0x3a676795	0.00088273856
11	0xbcb6299e	-0.022236641
12	0x3d04903d	0.03236412
13	0xbcd00ef7	-0.02539776
14	0x3c1cac77	0.009562603
15	0xbd1679ba	-0.03673718
16	0xbb954d09	-0.0045563024
17	0xbc24b1a4	-0.010052118
18	0xbc966972	-0.018360827
19	0x3ce2be66	0.02767868
20	0xbd332122	-0.04373277
21	0x3be1f44f	0.006895579
22	0xbb464996	-0.0030256263
23	0xbcd59b34	-0.026074983
24	0x3d25e653	0.040502857
25	0x3d0cb677	0.0343537
26	0x3c89c37c	0.016816847
27	0x3b2c0279	0.002624659
28	0x3cf90ce3	0.030401653
29	0xbcbc9d61	-0.023024263
30	0xbd232073	-0.039825868
31	0x3d4ac6ec	0.049506113
32	0xbcaba9e0	-0.020955026
33	0x3c310793	0.0108050285
34	0x3a38bf67	0.0007047564
35	0x3d2d95a6	0.042379044
36	0x3d49e98c	0.049294993
37	0xbd030329	-0.031985436
38	0xba8f7dd5	-0.0010947535
39	0xbd185450	-0.03718978
40	0x3d103767	0.035209086
41	0x3d4944c1	0.049137834
42	0xbca08bce	-0.019597914
43	0x3c16025f	0.009155839
44	0xbc3f091b	-0.011659886
45	0xbc2b61ed	-0.010460359
46	0x3d22ff2b	0.03979413
47	0xbd380ebc	-0.044935927
48	0xbbb8b464	-0.0056367386
49	0xba258dc6	-0.00063153764
50	0xbd2eae9c	-0.04264699
51	0x3ca3b038	0.019981489
52	0x3cfe2ad7	0.031026287
53	0xbd1f3147	-0.038865354
54	0x3caba348	0.020951882
55	0xbb7f02f7	-0.003891168
56	0x3d3cfe31	0.046140853
57	0xbd45c232	-0.048280902
58	0x3d255f14	0.040373877
59	0xbc92a784	-0.017902143
60	0x3d257478	0.040394276
61	0xbce0b2f5	-0.027429083
62	0x3c25d05c	0.0101204775
63	0x3c75e7ac	0.015008848
64	0x3cfcf05e	0.030876335
65	0x3cb43407	0.021997465
66	0x3ce07d99	0.02740364
67	0xbc1ba6f4	-0.009500254
68	0xbd1b4346	-0.037905954
69	0x3b0cecef	0.0021503528
70	0x3d379a54	0.044824913
71	0x3d2fa26d	0.04287951
72	0xbcec00e7	-0.028809024
73	0x3d0cdd8c	0.03439097
74	0x3cafcdd7	0.021460457
75	0xbc2b76bf	-0.010465323
76	0x3cef9370	0.029245108
77	0xb9fd91f9	-0.00048364679
78	0x3be29214	0.0069143865
79	0xbcfedf36	-0.031112295
80	0xbc0300b6	-0.007995775
81	0x3d44d034	0.04805012
82	0x3cf54bb2	0.02994332
83	0xbd1d4982	-0.03840018
84	0xba229403	-0.0006201865
85	0x3d06a83a	0.032875277
86	0xbc9f6fec	-0.019462548
87	0xbba0b081	-0.0049038534
88	0x3cc109a3	0.023564165
89	0x3d32c1a1	0.04364169
90	0x3d4415c8	0.047872335
91	0xbd12ea46	-0.03586795
92	0xbd3cf853	-0.046135258
93	0x3d177ea2	0.036986
94	0xbb806835	-0.0039186724
95	0x3d3eef16	0.04661473
96	0x3d0c2225	0.03421225
97	0xbcac91df	-0.02106565
98	0x3c82e095	0.01597623
99	0x3c97dbb8	0.018537387
100	0xbca25c08	-0.019819275
101	0x3d3536c8	0.044241697
102	0x3b362abc	0.0027796468
103	0xbc70a802	-0.014688494
104	0xbd3b6db6	-0.045758925
105	0x3d270495	0.040775854
106	0xbd444706	-0.047919296
107	0x3d17091f	0.036873933
108	0xbc7e2b67	-0.015513278
109	0xbbef72e5	-0.0073073977
110	0x3badfcf9	0.0053096977
111	0x3d44afd2	0.048019238
112	0xbd080ca9	-0.0332152
113	0xbd15c40e	-0.036563925
114	0x3d01da6d	0.031702448
115	0xbcc7c90d	-0.02438786
116	0xbca35fee	-0.019943204
117	0x3cdf0ba9	0.02722724
118	0xbc983b3c	-0.018582933
119	0x3d06e1ec	0.0329303
120	0xbc848b5e	-0.016179737
121	0x3d1d5e71	0.038420144
122	0x3d5296a0	0.05141318
123	0x3bfa3d37	0.007636692
124	0xbc8ec838	-0.017429456
125	0x3cfa2c7b	0.030538788
126	0x3c65a8e7	0.01401732
127	0x3aed3189	0.0018096428
128	0x3d40a38d	0.047030974
129	0xbb4b0702	-0.0030979519
130	0x3c9d8495	0.01922826
131	0xbc618a6b	-0.013765912
132	0xbc13ebd0	-0.00902839
133	0xba02f1fe	-0.0004995166
134	0x3b9a841a	0.0047154548
135	0x3cbab51a	0.022791434
136	0x3d2141eb	0.039369505
137	0x3d0aaca3	0.033856045
138	0xbc9e3db5	-0.019316534
139	0x3d3e5514	0.046467856
140	0x3d01eef0	0.03172201
141	0x3c981dbc	0.018568866
142	0x3bbdaf2f	0.005788706
143	0xbcdaeb9d	-0.026723677
144	0xbce7c4b7	-0.028292043
145	0x3af60f79	0.0018772922
146	0xbd1191f5	-0.035539586
147	0x3c894c1b	0.016759923
148	0xbd331bab	-0.043727558
149	0xbd29f07b	-0.041489106
150	0xbcb1bc42	-0.021696214
151	0x3cea00a4	0.028564759
152	0x3d26db3b	0.04073642
153	0xbd2c17c3	-0.04201485
154	0xbcf3d4f1	-0.029764624
155	0x3c21ea12	0.009882467
156	0xbc1a0cd9	-0.009402477
157	0xbd314ecd	-0.04328804
158	0x3c7ea799	0.015542888
159	0xbd23b495	-0.03996714
160	0x3b925b8c	0.0044664796
161	0x3cb2461f	0.021761952
162	0x3d436c91	0.04771096
163	0xbd33f0b7	-0.043930735
164	0x3d152dd6	0.036420666
165	0x3bcb7724	0.006209271
166	0x3d390927	0.045174744
167	0x3d4e8d2e	0.05042761
168	0xbc578c41	-0.013155998
169	0xbc0bbf8e	-0.008529557
170	0xbc274ecc	-0.010211658
171	0x3d1f3563	0.038869273
172	0xbcb1e8dc	-0.021717481
173	0x3d05c988	0.0326629
174	0x3ca15b3d	0.019696826
175	0x3d3babbe	0.045818083
176	0x3d17d43b	0.037067633
177	0x3d2c0cd6	0.04200443
178	0xbd2471a1	-0.040147427
179	0xbcda08c9	-0.026615517
180	0xbd0fb7dd	-0.035087455
181	0x3cc56559	0.024096178
182	0x3c2b74d3	0.010464865
183	0x3c8e021b	0.017334988
184	0x3ca74661	0.020419301
185	0x3b65a36e	0.0035040039
186	0x3c860000	0.016357422
187	0xbccfd85e	-0.025371727
188	0x3d1060e5	0.035248656
189	0xbd2f137f	-0.042743202
190	0xbd34b16a	-0.044114508
191	0x3c642ae7	0.013926244
192	0x3d470dfc	0.04859732
193	0xbc91dd15	-0.017805615
194	0x3d4b52bf	0.04963946
195	0xbc83dce0	-0.016096532
196	0xbd1e79b2	-0.038690276
197	0xbbc89be4	-0.0061220992
198	0x3cd7732d	0.026300037
199	0xbccbb968	-0.024868682
200	0x3d3c9a9f	0.046045896
201	0xbcaa6f8e	-0.020805147
202	0xbca67d0b	-0.020323297
203	0xbcb5de6b	-0.022200784
204	0xbd1484ff	-0.036259647
205	0x3d38429d	0.044985402
206	0xbcd940eb	-0.026520213
207	0xbcabbd19	-0.020964192
208	0xbc5d6d62	-0.013514848
209	0x3d332b8c	0.0437427
210	0x3cd4a091	0.02595547
211	0x3cadde34	0.021224119
212	0xbc29c798	-0.010362528
213	0x3cc87323	0.024468964
214	0x3c2d8a87	0.0105921095
215	0x3d29eefc	0.04148768
216	0x3c27900c	0.010227215
217	0x3d15671f	0.036475297
218	0x3d19e2e0	0.03756988
219	0x3c29ad3f	0.0103562465
220	0xbd3d7d2a	-0.046261944
221	0x3c35095b	0.011049594
222	0xbd1e71bd	-0.038682688
223	0x3c2103b8	0.009827547
224	0xbbc5878c	-0.0060281213
225	0x3d29b9c8	0.04143694
226	0xbd156d3c	-0.036481127
227	0xbd247149	-0.0401471
228	0x3cbc1863	0.022960847
229	0x3d0dfbe8	0.034664065
230	0xbc3fdf46	-0.011710947
231	0x3c76eec5	0.0150715755
232	0x3d2afc95	0.041744787
233	0x3bddc6bb	0.0067680753
234	0xbc49e283	-0.012322071
235	0x3cebff3a	0.028808225
236	0x3d3f5734	0.046714023
237	0xbbfb9a4f	-0.007678307
238	0x3d0715c5	0.032979745
239	0x3bbedefe	0.0058249226
240	0xbc07f40c	-0.008297931
241	0xbba8696b	-0.00513952
242	0xbd41c819	-0.04730997
243	0x3ccbd092	0.024879728
244	0xbcd1638f	-0.025560169
245	0xbd310d89	-0.0432258
246	0xbbacf80b	-0.0052785925
247	0xbcbc5212	-0.022988353
248	0xbcfe8d04	-0.0310731
249	0xbc1863f9	-0.009301179
250	0xbb73180f	-0.0037093197
251	0x3c6213fa	0.013798708
252	0x3c0b5876	0.008504977
253	0xbb9c0abe	-0.0047620228
254	0x3c2b55c3	0.010457459
255	0xbd0d7f22	-0.03454507

layer_2.bias f4 [300]
0	0xbcd70f82	-0.026252512
1	0x3cb15edc	0.021651678
2	0x3b3ee871	0.0029130245
3	0x3d20b960	0.039239287
4	0xbd1c8a88	-0.03821805
5	0x3c0dff0d	0.008666766
6	0xbd33019c	-0.043702707
7	0xbd341112	-0.043961592
8	0x3cba7ce9	0.02276464
9	0xbd42c008	-0.047546417
10	0x3d28bf01	0.04119778
11	0x3c44476c	0.011979919
12	0x3cd61c77	0.02613662
13	0xbc6ef694	-0.014585156
14	0xbc285471	-0.010274039
15	0xbacf3094	-0.0015807324
16	0x3ca911da	0.020638395
17	0x3b85b8c2	0.0040808627
18	0xbce735d2	-0.028223906
19	0x3c484e56	0.012225708
20	0xba5103d7	-0.00079732895
21	0x3c967de3	0.018370574
22	0xbd1042b1	-0.035219852
23	0x3cfe3f4e	0.031036045
24	0x3c9f3130	0.019432634
25	0x3bc3702e	0.0059643006
26	0x3ca96eb2	0.020682666
27	0xbd0acb2f	-0.033885177
28	0xbc9b38f8	-0.018948063
29	0xbcd2cf07	-0.025733484
30	0x3cc21127	0.02368982
31	0xbd37e4cf	-0.044895943
32	0x3c9a9cdb	0.018873623
33	0x3d4a4cc6	0.049389623
34	0xbcd8aeba	-0.026450504
35	0x3c429c94	0.011878151
36	0xbc5a8979	-0.01333844
37	0xbc54406e	-0.012954814
38	0xbce27f83	-0.027648693
39	0xbcee3291	-0.029076846
40	0x3d28a15e	0.041169517
41	0xbd0f4cd3	-0.034985375
42	0xbd038b10	-0.032115042
43	0x3ce01f04	0.02735854
44	0xbc273fee	-0.010208113
45	0x3a924abe	0.0011161191
46	0x3d05be13	0.032651972
47	0xbd4ba10d	-0.049714137
48	0xbcc7f054	-0.02440659
49	0x3cac4002	0.021026615
50	0x3c92154a	0.017832417
51	0x3d51b229	0.051195297
52	0xbc188cc6	-0.009310907
53	0xbd3332eb	-0.04374973
54	0xbc985ba1	-0.01859838
55	0xbd236de4	-0.03989972
56	0xbd2e903b	-0.042618018
57	0xbd07cab9	-0.033152316
58	0xbc62275c	-0.013803329
59	0x3ce18a3b	0.027531734
60	0xbd08aa43	-0.0333655
61	0xbd253e91	-0.04034287
62	0x3cae850b	0.021303674
63	0x3d318ee4	0.04334916
64	0x3d3d2e68	0.046186835
65	0xbce4eff7	-0.027946455
66	0xbc13533d	-0.0089920135
67	0x3a09d279	0.0005257498
68	0xbd00c1e1	-0.031434897
69	0x3d2b0bf9	0.041759465
70	0x3c0218e1	0.007940502
71	0xbcf2cbdb	-0.029638221
72	0xbd2875c4	-0.041127935
73	0x3cdf79cf	0.027279763
74	0x3d3615e5	0.044454474
75	0x3ba6dadb	0.0050920076
76	0xbb2b5c8c	-0.0026147692
77	0xbb8beb3a	-0.0042699846
78	0x3ce0cd82	0.027441744
79	0xbd01f780	-0.031730175
80	0x3c971e93	0.018447196
81	0x3d039a5d	0.032129634
82	0xbcf60951	-0.03003374
83	0xbc99baff	-0.018765924
84	0xbc9f472b	-0.019443115
85	0xbcf384d1	-0.029726418
86	0x3d2167c9	0.039405618
87	0xbce15439	-0.02750598
88	0xbbe7859a	-0.007065487
89	0x3d3eac24	0.046550885
90	0x3b8eb908	0.0043555535
91	0x3d3c581d	0.04598247
92	0x3c0e6420	0.008690864
93	0x3d243c7e	0.040096752
94	0x3aa7a086	0.0012788929
95	0x3cf05688	0.029338136
96	0x3d024c22	0.031810887
97	0xbcae827c	-0.021302454
98	0xbd3fbe72	-0.046812482
99	0xbd27e0f4	-0.040986016
100	0x3d4411d9	0.047868583
101	0xbc871b97	-0.016492648
102	0xbc9a1cd7	-0.01881258
103	0xbcabce62	-0.020972434
104	0x3ca6a531	0.020342441
105	0x3d228051	0.039673153
106	0x3d0083f4	0.03137584
107	0x3d0a7434	0.033802226
108	0x3d429b7d	0.047511566
109	0xbca016e2	-0.019542161
110	0xbc337233	-0.01095252
111	0x3d0022c7	0.031283166
112	0xbcaa8d66	-0.020819377
113	0xbca1bae8	-0.019742444
114	0xbc2bb568	-0.010480262
115	0x3ca94344	0.020661958
116	0xbccf13b7	-0.025277955
117	0x3c6a1d2c	0.014289182
118	0x3a4514bf	0.0007518045
119	0xbcd41a73	-0.025891518
120	0xbcabffce	-0.020996
121	0x3cf7b43f	0.030237315
122	0xbd17bb1e	-0.037043683
123	0x3d3842b8	0.044985503
124	0xbc1df40d	-0.009640706
125	0x3d3d6339	0.046237204
126	0x3c9366b6	0.017993312
127	0xbd177d0e	-0.036984496
128	0xbb8ff5e5	-0.0043933266
129	0x3c676b90	0.014124766
130	0x3c808b43	0.015691405
131	0x3c19677a	0.00936305
132	0x3cab1185	0.020882377
133	0x3cbed9df	0.023297248
134	0xbbc0f905	-0.0058890604
135	0x3c441031	0.011966751
136	0x3c089809	0.008337029
137	0x3d335870	0.043785512
138	0xbd1b984f	-0.03798705
139	0x3d18aa0b	0.03727154
140	0x3c98240f	0.018571882
141	0x3b803c08	0.0039134063
142	0x3cd09b5c	0.025464706
143	0xbb60f1a9	-0.0034323728
144	0xbd2ddd04	-0.042447105
145	0x3d202fb5	0.039107997
146	0x3c0d7b90	0.008635417
147	0x3d198011	0.03747565
148	0x3d34e714	0.044165686
149	0xbd2ebb2b	-0.042658966
150	0x3cab415e	0.020905193
151	0x3d312958	0.04325232
152	0xbcea7b1e	-0.02862316
153	0x3ca1557b	0.01969408
154	0xbd218e42	-0.03944231
155	0x3cd36dc9	0.025809186
156	0xbd3b9c67	-0.045803454
157	0x3cffbbb0	0.031217426
158	0x3b9ca578	0.0047804676
159	0xbd4a949b	-0.049458127
160	0x3d2e9ec1	0.04263187
161	0xbc2a3944	-0.01038963
162	0x3d21c33a	0.039492823
163	0xbd0b515f	-0.03401315
164	0x3cb3e11c	0.021957926
165	0x3d35f983	0.044427406
166	0xbd38f431	-0.045154754
167	0x3d439bd0	0.047756016
168	0x3c6457ee	0.01393698
169	0xbd3f417c	-0.04669331
170	0xbd23d445	-0.039997358
171	0xbd45384c	-0.048149392
172	0x3cbdcd13	0.023169076
173	0x3c8bad6c	0.017050467
174	0xbcca8304	-0.024720676
175	0x3cf03605	0.029322634
176	0xbd17f6c7	-0.03710058
177	0x3d247cc3	0.040158045
178	0xb9b20c21	-0.00033959842
179	0x3c9be829	0.019031601
180	0xbcd6cd69	-0.026220994
181	0xbd3e472c	-0.046454594
182	0x3d4ca7c6	0.04996469
183	0x3d44cde8	0.04804793
184	0xbbf8f0b7	-0.007597055
185	0x3c8cffff	0.017211912
186	0xbd2dae37	-0.042402472
187	0x3ceab723	0.02865178
188	0xbd3ad36e	-0.04561179
189	0xbd255399	-0.040362928
190	0x3c208898	0.0097981915
191	0x3cb0b05c	0.02156847
192	0xbcba4461	-0.022737684
193	0x3d46f4b2	0.048573203
194	0xbc6191ab	-0.01376764
195	0x3c371334	0.011174012
196	0x3caa2286	0.020768415
197	0x3ca805be	0.02051055
198	0xbce8f545	-0.028437266
199	0xbc194cdc	-0.009356704
200	0x3d0c979b	0.03432427
201	0x3b2a7949	0.0026012233
202	0x3d43606a	0.04769937
203	0x3cb66d8f	0.022269038
204	0x3bb98f04	0.0056628007
205	0x3cd51184	0.026009329
206	0x3ceb1faf	0.028701631
207	0xbcc94395	-0.024568358
208	0x3d3f8e1e	0.046766393
209	0xbc7de17a	-0.015495652
210	0xbc238106	-0.009979492
211	0xbcf3ca30	-0.029759496
212	0xbc7446b7	-0.014909438
213	0xbd169be8	-0.036769778
214	0xbcac83cc	-0.02105894
215	0xbc80f2d6	-0.015740793
216	0x3a3690f0	0.00069643464
217	0x3cccb1b1	0.024987074
218	0x3c95c6ce	0.018283274
219	0xbccc5b67	-0.024945928
220	0x3c6246cd	0.0138108255
221	0xbd0fc585	-0.03510048
222	0xbca8003c	-0.020507924
223	0x3ca65da1	0.020308318
224	0x3c8252c5	0.015908608
225	0x3c7acf4a	0.015308211
226	0x3c9bbc62	0.019010726
227	0xbc6c1eb4	-0.014411617
228	0x3d2a7d54	0.04162343
229	0xbd29a874	-0.041420415
230	0x3d12fd89	0.03588632
231	0x3c9524ba	0.01820599
232	0xbcb02e33	-0.021506405
233	0xbc40cfbc	-0.011768278
234	0x3b642f7e	0.0034818347
235	0xbca759e1	-0.0204286
236	0x3d0a6993	0.03379209
237	0x3ce5d20c	0.02805426
238	0xbd0ffeaf	-0.035154995
239	0x3c3b0f46	0.011417216
240	0x3d32c099	0.043640707
241	0x3cbac278	0.022797808
242	0x3d271beb	0.04079811
243	0x3ce86a84	0.028371103
244	0x3d38d6ce	0.04512673
245	0x3c3f19be	0.011663852
246	0xbc327d8b	-0.01089419
247	0x3d1bf46a	0.03807489
248	0xbca77d30	-0.020445436
249	0xbd044cfd	-0.032299984
250	0xbce82b26	-0.028340887
251	0x3d1830e9	0.03715602
252	0xbcfc8845	-0.030826697
253	0xbd1febf4	-0.03904338
254	0xbcefc5d9	-0.029269146
255	0xbcdf95dd	-0.02729314

ln2.weight f4 [300]
0	0x3f7fed7e	0.9997176
1	0x3f801488	1.0006266
2	0x3f801ea8	1.0009356
3	0x3f80381a	1.0017121
4	0x3f7fb1e1	0.99880797
5	0x3f7fd29c	0.9993074
6	0x3f7fe3ab	0.9995677
7	0x3f800f30	1.0004635
8	0x3f7fc691	0.99912363
9	0x3f7ffb96	0.99993265
10	0x3f7fb424	0.9988425
11	0x3f8040ec	1.0019813
12	0x3f7fb473	0.9988472
13	0x3f7fc392	0.9990779
14	0x3f8071e3	1.0034755
15	0x3f8013c3	1.0006031
16	0x3f800209	1.0000621
17	0x3f80a7ea	1.0051243
18	0x3f803ffa	1.0019524
19	0x3f801570	1.0006542
20	0x3f807008	1.0034189
21	0x3f802d97	1.0013913
22	0x3f80d935	1.0066286
23	0x3f80a923	1.0051616
24	0x3f806bc7	1.0032891
25	0x3f801dbd	1.0009075
26	0x3f80984d	1.0046479
27	0x3f7fdf28	0.99949884
28	0x3f8063ce	1.0030458
29	0x3f80ce60	1.0062981
30	0x3f8012ce	1.0005739
31	0x3f80ac3e	1.0052564
32	0x3f7fa7fb	0.9986569
33	0x3f7fdb39	0.9994388
34	0x3f802833	1.0012268
35	0x3f800c45	1.0003744
36	0x3f801561	1.0006524
37	0x3f801827	1.0007371
38	0x3f7fd62a	0.99936163
39	0x3f800a69	1.0003177
40	0x3f800a8e	1.0003221
41	0x3f800b26	1.0003402
42	0x3f80a904	1.005158
43	0x3f80da7d	1.0066677
44	0x3f8009b7	1.0002965
45	0x3f7f95f0	0.9983816
46	0x3f800d09	1.0003978
47	0x3f801562	1.0006526
48	0x3f80253c	1.0011363
49	0x3f7febe5	0.9996932
50	0x3f8013a2	1.0005991
51	0x3f800f42	1.0004656
52	0x3f8021b1	1.0010282
53	0x3f7fe79a	0.9996277
54	0x3f800f39	1.0004646
55	0x3f80144b	1.0006193
56	0x3f7fd4a8	0.9993386
57	0x3f804ef3	1.0024093
58	0x3f80ad14	1.0052819
59	0x3f80f408	1.0074472
60	0x3f800418	1.0001249
61	0x3f804516	1.0021083
62	0x3f801618	1.0006742
63	0x3f8049e0	1.0022545
64	0x3f7fd5fb	0.99935883
65	0x3f801d2b	1.0008901
66	0x3f7fd9e9	0.9994188
67	0x3f807cc6	1.0038078
68	0x3f80b89d	1.005634
69	0x3f800a74	1.000319
70	0x3f80151b	1.0006441
71	0x3f806a70	1.0032482
72	0x3f7ff864	0.9998839
73	0x3f806ee6	1.0033844
74	0x3f80fd29	1.0077258
75	0x3f801ab2	1.0008147
76	0x3f8017a3	1.0007213
77	0x3f804dd1	1.0023748
78	0x3f8014d7	1.000636
79	0x3f800f64	1.0004697
80	0x3f7fd8f3	0.99940413
81	0x3f8015a9	1.000661
82	0x3f80a90e	1.0051591
83	0x3f800f88	1.000474
84	0x3f7fd65f	0.9993648
85	0x3f8032f4	1.001555
86	0x3f80534f	1.0025424
87	0x3f808c8b	1.004289
88	0x3f7ff88c	0.9998863
89	0x3f801cee	1.0008829
90	0x3f8040c8	1.001977
91	0x3f7f879d	0.99816304
92	0x3f80af75	1.0053545
93	0x3f804398	1.0020628
94	0x3f7fb8a8	0.9989114
95	0x3f7fbfc6	0.99902
96	0x3f7fd5fa	0.9993588
97	0x3f80261c	1.001163
98	0x3f80b835	1.0056216
99	0x3f809342	1.004494
100	0x3f80401a	1.0019562
101	0x3f801a92	1.0008109
102	0x3f80ac76	1.0052631
103	0x3f80a969	1.00517
104	0x3f80812b	1.0039419
105	0x3f804578	1.00212
106	0x3f80bba3	1.0057262
107	0x3f802da5	1.001393
108	0x3f8010ca	1.0005124
109	0x3f80e312	1.0069296
110	0x3f7ffb20	0.9999256
111	0x3f805935	1.0027224
112	0x3f80b6b8	1.0055761
113	0x3f80123a	1.0005562
114	0x3f7feb04	0.9996798
115	0x3f80a4ad	1.0050255
116	0x3f7fea7b	0.99967164
117	0x3f7fd4c7	0.9993405
118	0x3f80b53e	1.0055311
119	0x3f80d0d5	1.006373
120	0x3f80144a	1.0006192
121	0x3f7fb0ef	0.99879354
122	0x3f804921	1.0022317
123	0x3f802306	1.0010688
124	0x3f7f849c	0.9981172
125	0x3f806cbd	1.0033184
126	0x3f8006f7	1.0002126
127	0x3f801634	1.0006776
128	0x3f7fed80	0.9997177
129	0x3f805412	1.0025656
130	0x3f7fe991	0.9996577
131	0x3f7fc1ee	0.9990529
132	0x3f8050b4	1.0024629
133	0x3f8048b5	1.0022188
134	0x3f802ebc	1.0014262
135	0x3f801ec9	1.0009395
136	0x3f80370c	1.0016799
137	0x3f7f98bf	0.9984245
138	0x3f7fe380	0.9995651
139	0x3f803cc5	1.0018545
140	0x3f808039	1.003913
141	0x3f8034f9	1.0016166
142	0x3f80bd30	1.0057735
143	0x3f802c6c	1.0013556
144	0x3f8094a0	1.0045357
145	0x3f803aec	1.0017982
146	0x3f802049	1.0009853
147	0x3f7ff81a	0.9998795
148	0x3f8030a2	1.0014842
149	0x3f801666	1.0006835
150	0x3f8018b3	1.0007538
151	0x3f7ff79a	0.99987185
152	0x3f80b88c	1.0056319
153	0x3f803134	1.0015016
154	0x3f803db8	1.0018835
155	0x3f80865d	1.0041004
156	0x3f80128b	1.0005659
157	0x3f8029ae	1.001272
158	0x3f80126b	1.0005621
159	0x3f80c6eb	1.0060705
160	0x3f801598	1.000659
161	0x3f801241	1.0005571
162	0x3f802b77	1.0013264
163	0x3f7f9e33	0.9985077
164	0x3f805d91	1.0028554
165	0x3f7fca99	0.99918514
166	0x3f803b7e	1.0018156
167	0x3f800849	1.0002528
168	0x3f802158	1.0010176
169	0x3f80271c	1.0011935
170	0x3f800736	1.0002201
171	0x3f80d4dc	1.006496
172	0x3f7fe574	0.9995949
173	0x3f8058a2	1.0027049
174	0x3f7fe8d8	0.99964666
175	0x3f80b440	1.0055008
176	0x3f804f1c	1.0024142
177	0x3f7fd5de	0.9993571
178	0x3f8024e1	1.0011255
179	0x3f8016bd	1.0006939
180	0x3f805693	1.002642
181	0x3f80cb03	1.0061954
182	0x3f8013da	1.0006058
183	0x3f807d8e	1.0038316
184	0x3f8008f1	1.0002729
185	0x3f7fb038	0.99878263
186	0x3f801b69	1.0008365
187	0x3f7ff7f6	0.99987733
188	0x3f80eab3	1.0071625
189	0x3f8048a2	1.0022166
190	0x3f802dd9	1.0013992
191	0x3f8006f4	1.0002122
192	0x3f8068aa	1.0031941
193	0x3f807d1f	1.0038184
194	0x3f8099a4	1.0046887
195	0x3f7fd482	0.99933636
196	0x3f80286c	1.0012336
197	0x3f803ef4	1.0019212
198	0x3f8048ac	1.0022178
199	0x3f7f85d9	0.9981361
200	0x3f7fbc48	0.9989667
201	0x3f80c55c	1.0060229
202	0x3f7fd4f2	0.99934304
203	0x3f809a25	1.0047041
204	0x3f7fd66a	0.99936545
205	0x3f803c26	1.0018356
206	0x3f8046d6	1.0021617
207	0x3f802c6e	1.0013559
208	0x3f80db08	1.0066843
209	0x3f802bcf	1.0013369
210	0x3f7f480c	0.9971931
211	0x3f807564	1.0035825
212	0x3f80584d	1.0026947
213	0x3f801176	1.0005329
214	0x3f7ffced	0.9999531
215	0x3f7fd4c9	0.9993406
216	0x3f8067d3	1.0031685
217	0x3f7f6044	0.99756265
218	0x3f7fd5fa	0.9993588
219	0x3f7fdf03	0.99949664
220	0x3f80d2d0	1.0064335
221	0x3f806b7d	1.0032803
222	0x3f800ea8	1.0004473
223	0x3f7f58d4	0.99744916
224	0x3f8015de	1.0006673
225	0x3f7f9a52	0.9984485
226	0x3f8032a3	1.0015453
227	0x3f801094	1.0005059
228	0x3f8036fa	1.0016778
229	0x3f8056a5	1.0026442
230	0x3f7fd506	0.9993442
231	0x3f800c5b	1.000377
232	0x3f804a10	1.0022602
233	0x3f8010f8	1.0005178
234	0x3f80158b	1.0006574
235	0x3f80767c	1.0036159
236	0x3f80308f	1.0014819
237	0x3f804310	1.0020466
238	0x3f8027e5	1.0012175
239	0x3f7fd4fa	0.9993435
240	0x3f801562	1.0006526
241	0x3f7ff9eb	0.9999072
242	0x3f80b53a	1.0055306
243	0x3f8096ae	1.0045984
244	0x3f80747e	1.003555
245	0x3f804989	1.0022441
246	0x3f804845	1.0022055
247	0x3f801710	1.0007038
248	0x3f7fd4ec	0.9993427
249	0x3f7fb9a5	0.99892646
250	0x3f7fc478	0.9990916
251	0x3f802bf4	1.0013413
252	0x3f80b9b9	1.0056678
253	0x3f80766e	1.0036142
254	0x3f8029b0	1.0012722
255	0x3f7ff170	0.9997778
