RL/Model_Repository/pytorch_models/TD3_Guest_testing_actor.pth (torch, 503903 bytes, 5 tensors)

layer_1.weight f4 [400, 11]
000000 75 cb 15 3f b7 02 1b 3f 0d 22 8f 3e 85 f3 20 3f
       0.58513576 0.6055102 0.27955666 0.6287158
000010 6a c8 25 3b c3 6b 46 3e 04 78 b9 bd 09 f6 f5 3d
       0.0025296458 0.19377045 -0.09056094 0.12009818
000020 3a 48 68 3e d0 cc 1b be c5 9d c5 3e 4d a5 7d 3e
       0.22683802 -0.15214849 0.3859693 0.24770088
000030 9e 7b d5 3e a2 88 6f 3e e4 f8 ac 3e cc ca 56 be
       0.41695875 0.23391965 0.33783638 -0.20975798
000040 e9 35 a0 3d 3f 50 9d 3d 37 e5 04 bf b3 47 96 bc
       0.078227825 0.07681321 -0.51912254 -0.018344736
000050 55 8c 61 be 85 c6 14 be bb 32 92 bd 30 98 7d 3e
       -0.22026189 -0.14528854 -0.07138582 0.24765086
000060 f1 10 31 be df 62 a1 bd 49 07 d5 be 3b b3 0f bf
       -0.17291619 -0.07880186 -0.4160712 -0.5613286
000070 8b 0e 9e 3e db 35 4b bf 88 82 26 3f 16 5b cd be
       0.3087047 -0.7937905 0.65042925 -0.40108556
000080 02 7d 43 3e fc 4c e4 bd 2f 50 8a be c3 a1 2d 3c
       0.19090655 -0.11147496 -0.270143 0.010597649
000090 f7 ba 04 be 76 57 09 3f 6e ac a2 3e fb 37 ac be
       -0.12961946 0.5364908 0.31772178 -0.3363646
0000a0 98 c0 88 3e e5 bd 66 be d1 4f 92 3e fb ad ea 3e
       0.26709437 -0.22533377 0.2857652 0.45835862
0000b0 09 ae bb 3e db dd 66 3d 2a f1 af 3e 0b aa 62 3e
       0.36656216 0.05636392 0.3436368 0.22135179
0000c0 db 83 e2 3e ae 34 0f 3e 60 50 e8 be 16 a1 7c bd
       0.44241223 0.1398494 -0.4537382 -0.06167706
0000d0 d9 e5 48 bf c9 1d 6f 3f 1f e8 45 3e 2b 50 43 3e
       -0.7847572 0.93404824 0.19326828 0.1907355
0000e0 4b 23 23 3e 75 bd 3d 3d 67 78 92 3e e9 8f dc bd
       0.15931432 0.04632326 0.28607485 -0.10769636
0000f0 bb bf 28 3e a7 37 0d bf f0 77 92 3e c6 3e 1f bf
       0.1647939 -0.55163044 0.2860713 -0.6220516
000100 0f 60 05 3f f6 cf cf bd d4 8d 86 3d 05 ae b5 be
       0.520997 -0.10147087 0.0657002 -0.3548433
000110 c7 73 ac be c7 11 ac be 0e 73 52 3e 43 8f 68 bd
       -0.3368208 -0.33607313 0.20551702 -0.05677725
000120 aa ab 35 3f 5b d5 df be 86 2e e4 3d 56 2e 2a bf
       0.70965064 -0.43717465 0.11141686 -0.66476953
000130 f4 7d 9d be ae c5 2e 3e a0 e3 20 3e a3 1f 8c 3e
       -0.30760157 0.17067596 0.15711832 0.27367887
000140 87 12 01 be f0 8d fa bc 43 27 c7 3e 59 2f fc be
       -0.12604724 -0.03058526 0.38897142 -0.49254873
000150 61 2c 0c 3f 62 dc a8 be af 60 dc 3e e4 77 40 be
       0.54755217 -0.3298064 0.43042514 -0.18795735
000160 d4 1e 4b 3e 1d 85 e3 3e 23 fc cc 3e 73 30 8d 3e
       0.19835979 0.44437495 0.40036115 0.27576026
000170 f9 9e 4f 3e ac 06 65 3e 52 4a 88 be 57 0d da bd
       0.20275487 0.22365826 -0.26619202 -0.106470756
000180 42 6b 10 3f f3 ef a4 be b3 98 3e 3e 2d 57 f2 be
       0.5641366 -0.32214317 0.18612938 -0.47332135
000190 72 29 c1 be fa f6 02 be 8b 0f 82 be 42 42 aa be
       -0.37726933 -0.12789527 -0.25402483 -0.33253676
0001a0 e3 0d 2b be f9 72 0f bf 83 b2 ca be 6d 56 b2 be
       -0.16704516 -0.5603481 -0.3958932 -0.34831563
0001b0 77 5b e6 bd c4 c4 90 be c2 bd e2 3e c1 7d 4a 3e
       -0.11247914 -0.2827512 0.442854 0.19774534
0001c0 08 69 75 3e 56 85 14 be ce a6 9a be 1b e8 76 be
       0.23965847 -0.14503989 -0.30205387 -0.24111979
0001d0 d1 fa 99 3e c1 9b 11 bf 1d 83 b7 3c 70 d0 a6 3d
       0.3007417 -0.56878287 0.022401387 0.08145225
0001e0 5c bd c1 bd 98 ef ae bd c8 6c 0d 3b 73 20 43 be
       -0.094599456 -0.08541793 0.0021579731 -0.19055347
0001f0 2a 86 42 be f9 79 87 3d 43 fe 2e 3e b5 f6 b5 be
       -0.18996492 0.06615061 0.1708918 -0.35539785
000200 15 a9 36 3f e9 f8 1f 3d da 09 f7 3e f5 76 b6 3e
       0.7135175 0.03905574 0.48249704 0.35637632
000210 38 a6 8d be 07 fd 43 3e 22 76 b4 bd 54 17 f2 bd
       -0.27665877 0.19139491 -0.088115945 -0.11820856
000220 38 27 57 bf 82 56 73 bf 51 d9 af 3d b0 ab 25 bf
       -0.8404422 -0.95053875 0.08586372 -0.647151
000230 96 fa ca 3d 73 7a 48 bf 70 70 94 3b 39 e4 05 3c
       0.09911077 -0.7831184 0.004530005 0.008172088
000240 f1 62 32 3e 81 8f 8e 3e 44 db c0 3e b9 a3 42 3f
       0.17420556 0.2784386 0.37667286 0.7603107
000250 bf 8e 5b 3f d4 54 f6 be aa 28 1b 3f 0c 45 97 be
       0.8576469 -0.48111594 0.60608923 -0.29544866
000260 6a b4 c6 3c 1a d0 16 3e d4 08 87 3e 2a d6 66 be
       0.02425595 0.14727822 0.26373923 -0.22542635
000270 79 5d 20 3e c9 14 d6 3d 77 be ee be 17 54 4d bf
       0.15660657 0.10453183 -0.46629688 -0.80206436
000280 ab 5f 67 3e 35 33 2e bf 16 20 05 be 7e 4b 48 bf
       0.22595088 -0.68046886 -0.13000521 -0.7824019
000290 06 04 47 be 90 75 87 3e 79 ed 34 3e 3d ec 10 3f
       -0.19435129 0.2645688 0.17668714 0.5661047
0002a0 bb fe bf 3e 9a 38 a0 be e1 34 a1 be 64 a8 b7 3d
       0.3749903 -0.31293184 -0.31485656 0.08967665
0002b0 28 71 0f be 3c 37 1b be b0 ec a7 3c 8c 15 2e be
       -0.1400801 -0.15157789 0.020498604 -0.17000407
0002c0 52 68 f8 be d6 5c 1e be cc ea a8 bc 9e 75 09 bf
       -0.4851709 -0.15465102 -0.020619772 -0.53695095
0002d0 2c 3b 0e 3d 8a 85 d0 3d fd 0e f6 3c 56 b7 bd 3d
       0.0347244 0.101817206 0.030036444 0.09263484
0002e0 83 92 81 3e 14 af d2 bd ce cc 28 3e 27 a5 97 bb
       0.25307092 -0.102873 0.16484377 -0.004627842
0002f0 48 07 fa bc 41 3f e6 3d 7e d0 f7 3b 19 80 17 be
       -0.03052105 0.112425335 0.007562696 -0.14794959
000300 10 c8 b2 3d 9a 79 39 3f d6 82 1e be 26 d5 4b 3e
       0.08729565 0.72451174 -0.15479597 0.19905528
000310 ba ba ca 3b be 9c 46 bd fe 48 e4 3e 56 4f e9 3e
       0.0061868103 -0.048489325 0.4458694 0.4556834
000320 26 37 ca 3d fb 43 84 3e a2 4f e1 3e 10 f7 9e 3e
       0.098738 0.25833115 0.44006068 0.3104787
000330 2d ed c6 3d 3c 2e 0c bf 69 69 56 be 51 9e 11 bd
       0.097132064 -0.5475805 -0.20938648 -0.035551373
000340 6a 35 16 3e f3 02 11 bd 5a 67 71 3d 13 65 f3 3c
       0.14668813 -0.035403203 0.058936454 0.029711282
000350 9d 6a c7 be 9d bf d9 be 00 b4 a1 be 3b f4 1d 3f
       -0.38948527 -0.42529002 -0.31582642 0.6170079
000360 00 92 3e 3c 37 ab 0a 3e d7 78 13 3d ec 31 c0 be
       0.011631489 0.13541876 0.036003914 -0.37538087
000370 a1 9a 50 3d f9 b2 f1 3e 7e 7b de 3d cb ea 41 3e
       0.050928716 0.47206858 0.10863398 0.18937223
000380 f9 bf 2b bf a4 45 f7 bd 61 9e ea 3d 57 f2 2f bf
       -0.670898 -0.1207383 0.1145599 -0.68729156
000390 3a c0 14 bf a8 8d f0 be 4f df b6 be 08 cf 18 3f
       -0.58105814 -0.46983075 -0.35717246 0.59690905
0003a0 bf f6 04 3f 12 28 1b 3f c1 64 03 3f be 75 f7 3d
       0.51939005 0.6060802 0.51325613 0.120830044
0003b0 5e 9f 45 3e a9 57 af be d4 8e 0c bf 53 6d 54 bf
       0.19299075 -0.34246567 -0.5490544 -0.82979316
0003c0 ac 4b 1c 3f 21 bd a6 bd 84 e1 c0 3e ee 83 85 3e
       0.61052966 -0.08141542 0.37672055 0.26077217
0003d0 7e 44 b8 3e a6 da 54 3e e6 75 d8 3e 99 7f 52 3f
       0.35989755 0.20786533 0.4227745 0.8222595
0003e0 55 4f 64 be b9 45 ac 3e 47 0d 40 be fd 78 f4 3d
       -0.22295888 0.33646944 -0.18755065 0.11937139
0003f0 9c 30 bb 3e 3a 02 e4 be 48 cc c8 be 8e 07 17 bf
       0.36560524 -0.4453295 -0.39218354 -0.589959

layer_1.bias f4 [400]
000000 b1 31 77 be ea 01 20 be a9 02 a3 bd 8c cc f8 3d
       -0.2414005 -0.1562573 -0.07959492 0.12148389
000010 f3 25 3f be 2f b9 43 3d 3e 93 3f 3e 0a da 87 3e
       -0.1866682 0.047784027 0.18708512 0.26533538
000020 7c 7c c3 3d 65 4c 68 3e 87 a0 8f be 1e 6c d2 3d
       0.09545228 0.22685392 -0.2805216 0.10274528
000030 7e b8 04 3d ad 36 85 3e d3 4c a4 bd b4 71 76 be
       0.032402508 0.26018277 -0.080224656 -0.24066812
000040 04 02 79 3e 7f 58 62 be 27 7a b2 bd 71 63 60 bd
       0.24317175 -0.22104071 -0.08714705 -0.054782335
000050 58 14 e9 be 48 0f 98 be f5 73 db bd c9 d3 35 3e
       -0.45523334 -0.2969916 -0.107154764 0.17756571
000060 48 c8 84 bd 41 a6 ed bd 8c 6e c4 bc ea 56 1c be
       -0.06483513 -0.11603976 -0.023978494 -0.1526753
000070 cf fc 83 be 51 3b 49 be c3 f6 aa be f3 6b 81 3e
       -0.25778815 -0.19651534 -0.3339139 0.2527767
000080 36 b8 39 3d d7 ee 85 bd b2 e9 57 be c7 cb 00 3e
       0.045341693 -0.06539696 -0.21085241 0.12577735
000090 07 a0 37 3d 95 0a 45 be 54 34 8f 3e b6 82 4d 3e
       0.04483035 -0.19242318 0.2796961 0.20069394
0000a0 30 44 b0 bd b3 05 44 3e ba 42 11 bd 61 68 23 be
       -0.08606756 0.19142799 -0.035464026 -0.15957786
0000b0 7a 4f 64 3e 9f a1 07 bc a3 9d 9f 3e 98 5b 3e 3e
       0.22295943 -0.00827828 0.31174955 0.18589628
0000c0 22 c2 5e be f9 91 79 bd 69 14 8e be a6 74 9d 3d
       -0.21753743 -0.060930226 -0.27749947 0.076882645
0000d0 8d 82 09 be c0 16 f8 bd ca ea 75 3c dd 37 ee bd
       -0.13428707 -0.12113714 0.015009591 -0.11631749
0000e0 0a 8b 54 be ac 28 94 3e 48 9c 8e 3e be 94 6d be
       -0.20756164 0.2893728 0.27853608 -0.23201272
0000f0 f4 97 0f bd 49 94 3b be 0e 9f 04 3d 67 61 51 be
       -0.035057023 -0.18318285 0.03237825 -0.20447312
000100 19 ce 4e be 96 ec f3 3c 45 a0 14 3e 73 4f 83 bd
       -0.20195808 0.029775899 0.14514263 -0.06411638
000110 c2 55 3c 3e 13 e8 d6 be 9c a6 80 3e d5 31 0a be
       0.18392089 -0.41973934 0.25127113 -0.13495572
000120 33 ae 2c 3e 39 f7 38 bd 31 f7 63 be 2e ae 70 be
       0.16863327 -0.045157645 -0.22262265 -0.23503944
000130 34 32 28 be 73 fb 92 be 3b dd 0d 3d b2 ee ff 3d
       -0.16425401 -0.28707466 0.03463481 0.124966994
000140 1f ed 46 be 27 54 ac be c7 13 74 3c 51 10 57 3e
       -0.19426392 -0.33657953 0.014897293 0.21002318
000150 75 67 77 be 41 11 48 be 63 5f 82 3e 28 96 36 be
       -0.2416056 -0.19537832 0.254634 -0.17830718
000160 2f b5 99 be 04 9d 74 3d dc dc 33 3d 3e 16 48 3e
       -0.30021045 0.059720054 0.0439118 0.19539735
000170 a3 93 38 be 03 fe 00 3e d0 f9 86 3e 47 37 f2 3b
       -0.18025069 0.12596898 0.26362467 0.0073918435
000180 3a 26 5b 3c 69 ba 8b be d2 13 a1 3d ff 09 9b 3e
       0.013375813 -0.27290657 0.078651085 0.30281064
000190 46 c8 80 be 3d 1e 5a 3d 07 10 ba 3d 50 66 d4 3d
       -0.25152797 0.053251494 0.09085088 0.10371077
0001a0 5f 91 7a 3e 99 58 0f be 84 9d 80 3d fe 1a fb 3c
       0.24469517 -0.13998641 0.06280044 0.03065252
0001b0 01 72 8f be 9f 9e 26 3e 19 7b f4 bc af df 03 be
       -0.28016666 0.16271447 -0.029843854 -0.12878297
0001c0 64 ea 25 be 56 5a b9 3c c4 e1 91 be 64 18 79 be
       -0.16202694 0.022626083 -0.28492558 -0.2432571
0001d0 d5 c6 ad be 17 c6 3f bd 11 15 c8 3c a8 64 49 3e
       -0.3394076 -0.046819773 0.024424108 0.19667304
0001e0 02 61 a4 be 5c d8 09 be c8 e6 01 be 2d f0 00 be
       -0.3210526 -0.13461441 -0.12685692 -0.1259162
0001f0 17 c3 18 3e 51 ce 96 bd e4 48 27 3d 20 15 32 3d
       0.14918171 -0.073635705 0.040841 0.043477178
000200 6b 4f 03 bc 40 e4 19 3e db 1d 62 be a6 0b 5d 3e
       -0.00801454 0.15028477 -0.22081701 0.21586475
000210 e6 89 92 be e0 35 94 3e a6 45 38 3e 70 c5 0f 3e
       -0.28620833 0.28947353 0.17995319 0.1404016
000220 f7 b4 8e 3c e1 0e 20 be 00 ac 6e be 21 39 46 3e
       0.017420275 -0.15630676 -0.233078 0.1935773
000230 02 47 09 be da ae 1d 3e 2d ad 7c bd 21 07 96 bd
       -0.13405994 0.15398732 -0.06168859 -0.073255785
000240 b7 f3 81 3e d2 00 9d bc 14 8b a2 3e b9 21 9b bd
       0.25381252 -0.01916543 0.31746733 -0.075747915
000250 12 39 69 be cb 02 fc 3d e7 83 15 3e 58 65 8b be
       -0.22775677 0.1230522 0.14601098 -0.27225757
000260 d8 5e 86 be 09 0d 0e 3e 63 f8 34 3e f1 e8 3a 3e
       -0.26244235 0.1387216 0.17672877 0.18252923
000270 80 ff c8 bb 94 6f e5 3d 22 5a 2b be c4 5c 1b be
       -0.0061339736 0.112029225 -0.16733602 -0.15172106
000280 8a 0b dc bc b5 ec 30 3e 30 18 99 3e 35 64 a2 be
       -0.026860971 0.17277797 0.29901266 -0.31717077
000290 e2 72 85 3e 71 c4 de 3d d4 ae 1d 3e d5 75 08 3d
       0.2606421 0.10877312 0.15398723 0.0333155
0002a0 70 ed 84 3e 96 b1 67 be b2 af 4d 3e 96 a3 71 be
       0.259624 -0.22626337 0.20086554 -0.2359756
0002b0 97 8d 63 3e 94 0b 65 bd 7c 8f 4c 3e 8a 69 35 be
       0.22221981 -0.055919245 0.1997661 -0.17716041
0002c0 ae e7 66 bd 24 b3 9c bc 42 1a 55 be 91 3d 3a be
       -0.05637329 -0.01912839 -0.20810798 -0.18187548
0002d0 fc 54 cf bd 82 16 3a 3d b1 ac 6a 3e b8 f8 22 bc
       -0.10123631 0.04543162 0.22917439 -0.0099469945
0002e0 6d 9c 2c 3e b7 05 20 3e 89 11 88 be cb 26 42 3e
       0.16856547 0.1562718 -0.26575878 0.18960111
0002f0 b6 df fe bd 79 c1 31 3d e8 63 9d be 29 07 1c 3c
       -0.12445013 0.0433974 -0.30740285 0.0095231915
000300 47 c7 6c be f3 f4 9a be 24 95 36 bd 80 ae 69 be
       -0.23122893 -0.30265006 -0.044575825 -0.22820473
000310 70 98 e3 3d 72 8d 39 3e f7 e3 ce 3d 67 ae 09 3e
       0.111130595 0.18120363 0.101020746 0.13445435
000320 c7 ca 7f 3d 9d c8 65 3c 61 dd 6f bc 61 4f 9d 3e
       0.062449243 0.014024881 -0.014640183 0.30724624
000330 9e 6a aa 3b f9 c1 56 3d 89 8a a5 bd 31 ca c8 3d
       0.005200698 0.05243108 -0.08083064 0.0980419
000340 b7 7e 96 3c 15 36 12 be db 35 bf bc af 87 85 be
       0.01837097 -0.14278443 -0.02334111 -0.2608008
000350 11 74 80 bc fe c4 82 3e 7d 57 9f bd 1b 03 3a be
       -0.015680345 0.25540918 -0.07780359 -0.18165247
000360 4a f1 f1 3c cf 9a 74 39 88 1e 9e 3d df 3c d6 bd
       0.029534 0.00023327324 0.07720667 -0.10460829
000370 b4 b3 87 3e 94 00 b3 bd e8 a0 57 3e e3 e8 32 3e
       0.2650429 -0.08740345 0.21057475 0.17471652
000380 a5 0e 9b bc 34 81 58 3e c4 ae 00 3e 42 6b 39 be
       -0.018927881 0.21143037 0.12566668 -0.18107322
000390 de e2 3d be 64 ae 90 bd 32 94 7d 3d f3 41 6f 3e
       -0.18543574 -0.07064512 0.06190891 0.23365001
0003a0 a4 c6 75 bd e5 2e 00 be e6 05 10 be 7a 0c 29 3e
       -0.06000389 -0.12517889 -0.1406475 0.16508666
0003b0 35 d2 a3 bc be 46 42 3e ee 09 7b 3d 46 67 80 3e
       -0.019997695 0.18972299 0.061288767 0.2507879
0003c0 3a 9c 7f bd 41 14 51 3e 3e 2a 27 3e 2f 64 b2 bd
       -0.06240485 0.20417883 0.16324708 -0.08710515
0003d0 21 76 e2 3b 90 c0 02 3e ff e3 02 be 19 e7 99 3e
       0.0069110547 0.1276877 -0.12782286 0.30059126
0003e0 c9 bf 1a 3e 8d ba a9 3e 7c d6 91 be 70 d3 48 be
       0.15112223 0.3315014 -0.2848395 -0.19611907
0003f0 0a 50 93 bd 97 8f 32 3e 57 8c ef bd 2f e8 93 3e
       -0.071930006 0.17437588 -0.116966896 0.2888808

layer_2.weight f4 [300, 400]
000000 0f da d1 be d6 d9 2e bc ea 27 bc bd fc 50 2b 3d
       -0.40986678 -0.010672053 -0.091873005 0.04182528
000010 8b 1a 04 bf ff 1b 0b bc 54 88 d8 3e 68 2b 68 bd
       -0.51603 -0.0084905615 0.4229151 -0.05668202
000020 c3 5f a4 be ad c2 e7 3e ba 4f 3e be 9e 8c 28 be
       -0.3210431 0.45265713 -0.18585101 -0.16459891
000030 71 95 d8 3e 22 d3 47 be 1d 7b e3 3e 4a 54 6d bd
       0.42301515 -0.19514135 0.44429865 -0.057941712
000040 2a 48 84 3d 68 b4 84 be d5 87 92 3d 89 5c b6 bc
       0.06459077 -0.2591889 0.07154814 -0.022260921
000050 75 e8 37 3e 04 67 c7 be c2 90 76 3c ff 7e b5 3e
       0.17959769 -0.38945782 0.015049161 0.35448453
000060 4a 3f ea 3c a9 26 a6 bd 86 30 20 be 00 aa bd be
       0.028594632 -0.081128426 -0.1564351 -0.37043762
000070 81 39 a3 be c2 c3 1a be d8 0e d9 bd d0 a6 43 3e
       -0.3187981 -0.15113738 -0.10598534 0.19106603
000080 b9 35 e1 be eb 20 95 be 48 47 09 bd ad 64 96 be
       -0.439863 -0.29126677 -0.033515245 -0.29373685
000090 c5 78 00 3e df 82 44 bd 93 e9 d9 3e 67 5b b2 3e
       0.1254607 -0.04797637 0.42561015 0.3483536
0000a0 9a 86 c4 be 50 3e a3 3e fa 8c 45 3e 46 e0 9f 3e
       -0.38383943 0.31883478 0.1929206 0.31225795
0000b0 35 a2 0d 3e 1c 88 bd be f8 eb fd 3e 88 65 84 3e
       0.13831408 -0.37017906 0.49594092 0.25858712
0000c0 29 c5 98 bd 3c ef a6 be d7 10 b8 be 22 55 d8 3e
       -0.0745948 -0.32604396 -0.35950348 0.4225245
0000d0 3b a0 ad be ff c0 9a be 06 c8 85 3d 24 c2 b4 be
       -0.3391131 -0.3022537 0.06532292 -0.35304368
0000e0 14 a5 3c bc a3 df d5 3e ee d0 55 3d 0a cf be 3e
       -0.011513967 0.41772184 0.052201204 0.37267333
0000f0 2a 69 85 be 51 d0 ab be 0f c2 af be 1d 83 09 3e
       -0.26056796 -0.3355737 -0.34327742 0.13428922
000100 3e 7b 48 be 4c 28 fe bd a2 df 86 be 5f 45 40 bd
       -0.19578263 -0.1241003 -0.26342493 -0.046941157
000110 98 20 86 3e ef 6c b7 3e 22 65 57 3e 78 7a 46 be
       0.26196742 0.35825297 0.21034673 -0.19382656
000120 11 13 93 be 9c a2 db be 47 e1 a4 3d 5c 59 70 3d
       -0.28725484 -0.428975 0.08050781 0.05867897
000130 3f bc 0f be 4a a3 82 be 77 c6 14 bf 13 43 54 be
       -0.14036654 -0.25515205 -0.58115333 -0.20728712
000140 6c a1 a5 bc 64 21 e9 be ef a8 99 3e 51 be 5c 3e
       -0.020218574 -0.45533288 0.300117 0.21556975
000150 4b e6 bd 3c 5b 7a 8c 3e 50 3f be 3e 60 a1 71 be
       0.023181101 0.274371 0.3715768 -0.23596716
000160 ac 07 4e be 8a cc 6d bc ff b6 4f 3d 51 84 17 3e
       -0.20120114 -0.014514098 0.050711628 0.14796568
000170 66 a3 2b 3d a3 e8 1d 3e 54 79 9d bd 40 37 8a be
       0.041903876 0.15420775 -0.07689157 -0.26995277
000180 df 7c 14 3d 8b ae 92 be f8 68 57 bd 28 a8 12 be
       0.0362519 -0.2864879 -0.05259034 -0.14321959
000190 b4 55 b4 be 21 0b 7f be 56 67 89 3e 8b 3e 89 be
       -0.35221636 -0.24906589 0.26836652 -0.2680553
0001a0 ba e4 a6 be 5e cd 86 be 16 ab 07 be d2 1a 11 be
       -0.3259638 -0.26328558 -0.13248858 -0.14170387
0001b0 c4 35 47 be f9 68 77 bd 0f 8c 83 be bd 56 cb 3d
       -0.19454104 -0.060402844 -0.25692794 0.099286534
0001c0 ac 15 80 3d fd 6f d0 3e 69 f6 71 3d 38 c7 6e be
       0.062541336 0.4071044 0.059072886 -0.23318183
0001d0 ed 4e 8b be bb b7 f0 be 73 9b c0 be 5a 68 e0 bd
       -0.27208653 -0.47015175 -0.37618598 -0.109574035
0001e0 83 12 9a 3b d9 28 1c be 37 c4 f6 be ad 04 37 be
       0.004701914 -0.15249957 -0.48196575 -0.17872877
0001f0 07 08 2b be b4 57 4c bf 3d f4 3e 3e 78 14 0b 3f
       -0.16702281 -0.79821324 0.18647857 0.5432811
000200 2a 1a 60 be f0 4e 4c bd 4b a9 be 3d 7c ca 19 3f
       -0.21884981 -0.04987997 0.09309634 0.6007459
000210 24 ab 09 3e 95 3f 7b 3c d5 36 6e 3e 0d ea be 3d
       0.13444191 0.015334983 0.23263104 0.093219854
000220 f8 ee 8d 3e 3d cc be be 93 dd d1 be e8 81 18 bc
       0.2772138 -0.37265196 -0.4098936 -0.009308316
000230 39 60 28 3e 23 5f 9d 3e bd ec 10 be ed 26 2e 3e
       0.16442956 0.30736646 -0.14152808 0.17007037
000240 f5 94 e5 bd e1 c6 a4 3e 66 5d 26 3e d7 03 c4 be
       -0.11210052 0.32182983 0.16246566 -0.3828418
000250 bc ad fc bd 0c 01 31 3e 78 9d 99 3e 1f 1d b8 3c
       -0.12337825 0.17285556 0.30002952 0.022474824
000260 a7 a4 13 3e 51 f0 e6 3d ee f9 98 bc 6a 6c ef 3d
       0.14418279 0.112763055 -0.018673863 0.116906
000270 23 3a f2 bd 54 14 c3 be 9f f7 ca be 98 ea 13 bf
       -0.11827495 -0.38101447 -0.39642045 -0.57779837
000280 18 14 47 bd a8 7b 1f 3e 3b ce a2 bd 97 15 4d be
       -0.048603147 0.15574515 -0.079494916 -0.20027767
000290 a2 c0 20 3e 74 ff 2a 3d 12 ad 50 3d 97 28 bd be
       0.15698484 0.041747525 0.050946303 -0.3694503
0002a0 b6 f0 e4 3d b9 10 b3 be 8d 35 dc 3d a4 8e 90 be
       0.111787245 -0.34973696 0.107524015 -0.28233826
0002b0 35 58 a7 3e fa 97 9b bd c5 10 78 3e 6c 43 88 be
       0.32684484 -0.075973466 0.24225147 -0.2661394
0002c0 f5 be 03 be cb e0 78 be 5f 08 d3 be 44 76 be bd
       -0.12865813 -0.24304502 -0.41217324 -0.09299901
0002d0 f3 b8 b5 be 4d 18 13 3e 9d 91 82 3e e5 89 8b 3c
       -0.35492668 0.14364739 0.2550172 0.017033527
0002e0 a5 bb e4 3e c2 cd 8f be 7e 33 d6 bd d8 ad 8a be
       0.4467441 -0.28086668 -0.1045904 -0.27085757
0002f0 08 a5 7b be 07 48 9a 3e 76 83 8b 3e 4f 9d cb 3e
       -0.24574673 0.30133078 0.27248734 0.39768454
000300 8a 35 da be f3 75 08 3e 96 d3 42 3d eb b7 17 bf
       -0.42618972 0.13326244 0.047565065 -0.5926501
000310 87 49 9e 3d e3 5c 8b 3e 44 e1 96 3e 08 84 35 bd
       0.07728868 0.27219304 0.2946874 -0.044315368
000320 dd d2 82 3d 20 44 f3 be d3 12 ad bd 49 6b 04 3e
       0.06387875 -0.47512913 -0.08450856 0.12931551
000330 45 2c cc be 38 26 96 3d 33 e5 7b be 6d 7e 4b 3d
       -0.39877525 0.073315084 -0.24599151 0.049681116
000340 be 18 82 be c8 a4 b1 bd 25 85 3c 3e a1 8c 7d be
       -0.25409502 -0.08674008 0.18410166 -0.24760677
000350 2a fa 16 be 72 8d 32 bd fc c9 a4 3e 50 f9 c8 3c
       -0.14743868 -0.043591924 0.32185352 0.024532944
000360 c7 25 6f be 93 ae db be 89 97 a9 bd 06 93 1d be
       -0.23354255 -0.42906627 -0.08280856 -0.15388116
000370 f7 2d 8e 3e 6e 77 14 3e ef 4c 0d 3a ea 10 9f be
       0.27769443 0.14498684 0.0005390187 -0.31067592
000380 39 9b a3 bc a5 1f c8 3e a8 15 fb 3d c6 9b c6 3d
       -0.019971477 0.39086643 0.1225999 0.0969768
000390 8d 9b 82 be a7 de 8e bd b1 6d b8 3d 5a 0f bd 3a
       -0.255093 -0.06976061 0.09005297 0.0014424131
0003a0 fe 3f 7b be 74 05 ba be f4 89 9b be 33 a1 e9 3d
       -0.2453613 -0.36332285 -0.30378687 0.114076994
0003b0 a4 d5 80 3e 85 c6 c5 bc 9c 97 85 be 3b 4c d0 3d
       0.25162995 -0.024142513 -0.2609223 0.1017079
0003c0 7d 5e aa be 34 ac be 3e ba 35 77 3e b5 d3 52 bd
       -0.33275214 0.37240756 0.24141589 -0.05147143
0003d0 69 2e fa 3c 05 f2 88 3e c4 2f 17 be 00 9b c1 3d
       0.030539708 0.26747146 -0.14764315 0.09453392
0003e0 a2 31 4b bd b6 2e 8e 3d 3c f7 f3 3d 5a 6a db bc
       -0.04960788 0.06942503 0.119123906 -0.02678411
0003f0 7b 16 d3 bd c1 15 d3 3e f1 52 a3 be 95 17 2d 3e
       -0.10307022 0.41227534 -0.31899217 0.16903527

layer_2.bias f4 [300]
000000 a6 79 0d be 26 0a ab bd 00 d0 52 be 02 6b 9b be
       -0.13815936 -0.08351545 -0.20587158 -0.30355078
000010 e2 df eb bb 2b 37 20 bd e7 aa 5c bd 5d 92 8b bd
       -0.00719832 -0.039115112 -0.053873923 -0.06815026
000020 a1 7b 07 be 5a 13 c1 3d d5 a3 77 bd ea 79 43 be
       -0.13230754 0.09427519 -0.060458977 -0.19089475
000030 06 1a ac bd 00 88 3b bd 64 d1 5b be 37 b9 12 be
       -0.08403401 -0.045783997 -0.21466595 -0.14328466
000040 94 90 0b be 20 24 55 be f0 5d 4e be c0 0a 2e be
       -0.13629371 -0.20814562 -0.20153022 -0.16996288
000050 11 72 05 be a4 97 7c bd 9d dd 30 bd b1 1a b8 bd
       -0.13031794 -0.061668053 -0.043180097 -0.08989466
000060 2b 5c 06 be 4d 52 10 be 8b d2 24 be a7 93 85 3d
       -0.13121097 -0.14093895 -0.16095941 0.06522303
000070 4e da 21 3d 09 b4 12 be b7 18 eb bd 27 a3 c5 3b
       0.039514832 -0.1432649 -0.11479323 0.006031412
000080 df 26 ee bd 03 c5 13 be c7 2e 94 bd c9 e4 eb bd
       -0.11628508 -0.14430623 -0.072354846 -0.11518247
000090 fa fd 0a 3e 1d 25 7b be 7d 78 c7 3b cb c5 ce bd
       0.13573447 -0.24525876 0.0060873614 -0.1009632
0000a0 a6 48 9f bd 50 ff 4b be 64 16 09 bd 9c 47 c4 bd
       -0.077775285 -0.19921613 -0.03346862 -0.09583971
0000b0 9b 59 1a bd 4b b8 97 be 60 55 02 be ce 3a c2 bd
       -0.03768311 -0.29632792 -0.1272788 -0.09483872
0000c0 ee 84 b7 bd 08 df 1c be 76 b8 4b be fb 84 05 be
       -0.08960901 -0.15319455 -0.19894585 -0.1303901
0000d0 26 6e b9 bd 96 29 24 3d e0 f8 dd 3d 76 2a 9a bd
       -0.09054212 0.040078722 0.10838485 -0.0752763
0000e0 8b 46 63 be 9d 93 c9 bd c6 d4 2a be 1b 78 8f bd
       -0.22194879 -0.09842608 -0.16682729 -0.0700533
0000f0 08 99 10 be dd af 06 be 3e fb 16 bd 63 63 6f be
       -0.14120877 -0.13153024 -0.036860697 -0.23377757
000100 f5 4a 87 bd 6d 42 9b bc 61 53 35 be ee 35 d3 bd
       -0.06606094 -0.018952573 -0.17707588 -0.10313021
000110 07 98 a7 be fc 8d 10 be fc 66 c4 bd a7 e0 03 be
       -0.32733175 -0.14116663 -0.09589955 -0.12878667
000120 3e ee 4e be 1d 83 fa bc 17 88 7f bc dc dd 2a be
       -0.2020807 -0.030580098 -0.015596411 -0.16686195
000130 61 18 2a bd 4f dc b6 bd 9d 3f 7c be 38 99 da bd
       -0.041527156 -0.08928739 -0.24633642 -0.106737554
000140 f3 5c 9d bd 94 dc f7 bd 63 bb 9a be 3c 12 a5 bd
       -0.07683744 -0.12102619 -0.3022109 -0.080601186
000150 80 18 eb bd ec a0 ad bd 8a 36 1c bd 63 17 78 be
       -0.114792824 -0.08477959 -0.03813795 -0.24227671
000160 e3 fd c7 bd 00 37 aa bd e8 91 cd bd 57 7f a4 bd
       -0.09765222 -0.08311272 -0.10037595 -0.08032101
000170 c4 56 0c be 23 2b 8f bd 5a ab 11 bd db 9b 2c be
       -0.13704973 -0.069906496 -0.035563804 -0.16856329
000180 54 a1 e4 bd bb 1e 0f be 55 cc 6b be 3e ab 60 bb
       -0.111635834 -0.13976566 -0.23027165 -0.0034281756
000190 56 85 07 be f7 0d 19 be d9 5f a2 3c 30 19 5b be
       -0.13234457 -0.14946733 0.019821094 -0.21396327
0001a0 df 36 3a 3d 8a 07 14 be 55 72 64 bd b1 69 13 be
       0.045462485 -0.14456001 -0.055773098 -0.14395787
0001b0 8b ad 26 be 9d a2 83 bd bf 45 df bc cd a0 28 be
       -0.16277139 -0.064275004 -0.027254937 -0.1646759
0001c0 6b f2 47 be 7a cc b9 bd 2e a3 b5 bd f9 f4 4a be
       -0.19526069 -0.09072204 -0.08869015 -0.19820012
0001d0 89 36 f3 bd 8c 06 d0 bd 1c b1 2b bc f0 aa 86 3d
       -0.11875636 -0.10157499 -0.010479238 0.065755725
0001e0 d4 9a c6 bd 46 d6 0c 3d fc 3d 05 be e1 ad 56 3d
       -0.096975 0.034384035 -0.13011926 0.052411918
0001f0 63 ad 10 be 0d b2 04 be 8c 35 14 be 35 9c 0a be
       -0.14128642 -0.12958546 -0.14473552 -0.13536151
000200 9a 00 0d bd e4 b1 fd 3d c6 65 95 bd 31 bf 06 bd
       -0.0344244 0.123874456 -0.07294802 -0.032897178
000210 47 7d 70 bd f5 4e 8f bd c8 be f4 bd 27 e4 0a be
       -0.058713224 -0.06997482 -0.11950451 -0.13563596
000220 db 87 e5 bd ba 9b 4c bd aa 9d e1 bd a2 e0 fb bc
       -0.11207553 -0.0499532 -0.110164 -0.030746762
000230 6c 44 28 bd 21 b4 b1 3c 39 5b 0d be 3d 53 46 bd
       -0.041080877 0.021692337 -0.1380433 -0.048419226
000240 4d ed 01 bd b4 4d 74 bd e8 58 03 bd 36 3d 16 be
       -0.03172045 -0.059644416 -0.03206721 -0.14671788
000250 55 c0 9f bd 5f 4b 21 be a6 82 73 be 2e 47 28 3d
       -0.07800356 -0.15751408 -0.23780307 0.041083507
000260 ad 3a 1b be da 0d 6b bd c2 ab 5a bc 8c 53 1d be
       -0.15159102 -0.057386257 -0.013346614 -0.15363902
000270 41 32 08 be ed 69 30 3c ee bd 32 be 0e 3f 02 be
       -0.1330042 0.010767442 -0.17455265 -0.12719366
000280 42 20 da bd 2d ed 36 be 94 12 4a 3e 25 3a 07 be
       -0.10650684 -0.17863913 0.1973365 -0.13205774
000290 a9 8e df bd b1 3f c1 bd b9 33 67 3d dd b6 75 bd
       -0.10915882 -0.09435976 0.05644581 -0.059988845
0002a0 d1 4b aa bc 31 ea a8 3c ff 92 08 bd 2c ae 19 be
       -0.020788105 0.020619484 -0.03334331 -0.15007848
0002b0 8d 68 9b be 48 85 6b be 04 a3 b3 bd 90 8c 1f bc
       -0.30353203 -0.23000062 -0.08771327 -0.009738103
0002c0 6e 50 1a be 86 f9 6a 3e 34 83 fc bd 42 bd 41 bd
       -0.15069744 0.22946748 -0.123297125 -0.04729963
0002d0 e6 82 0a bd 81 f5 07 be 2b a4 54 be 71 e1 a0 be
       -0.03381624 -0.13277246 -0.2076575 -0.31421998
0002e0 49 7f a0 be 30 59 96 bd 44 1d ac bd d4 23 15 be
       -0.3134711 -0.0734123 -0.084040195 -0.14564449
0002f0 1c 0c 0a be 58 8a 91 bd a4 85 eb bd cf be 18 be
       -0.13481182 -0.07106465 -0.11500099 -0.14916538
000300 54 26 a2 bd 11 a2 5a bd dc 79 d7 bd a9 b9 2b be
       -0.07917467 -0.053377215 -0.1052129 -0.16770042
000310 a9 de 1d be 6f e6 12 be 27 c7 28 be 8c 85 b6 bd
       -0.1541697 -0.14345716 -0.1648222 -0.08912191
000320 93 bf 16 be bc bd b8 bb 03 d4 c7 bd df 59 92 be
       -0.14721517 -0.0056378525 -0.09757235 -0.2858419
000330 c5 15 1a be 35 2d ca bd 3f 82 c9 bd 0a d0 9b 3b
       -0.15047367 -0.09871904 -0.098392956 0.004755025
000340 bc 5e 7b be 3f 4e 66 bd 99 56 ed bd 49 96 04 3d
       -0.24547857 -0.056226965 -0.11588783 0.032369886
000350 92 c5 c3 bd a9 e4 31 be 77 2a 59 bd 4b 49 aa bd
       -0.09559168 -0.17372383 -0.053019013 -0.08314761
000360 ac 30 2f be d0 53 6c bc b7 fb 2e be ef 96 16 be
       -0.1710841 -0.014424279 -0.17088209 -0.14706014
000370 39 be 80 be 42 ef 48 be d6 c5 25 3e d3 16 84 bd
       -0.25145128 -0.1962252 0.1618875 -0.06449666
000380 b5 b3 06 be 46 42 39 be aa 87 15 bd ee 0e 07 be
       -0.1315449 -0.18091688 -0.036506332 -0.13189289
000390 5d 62 b3 bd 04 9e 49 bd 15 79 95 bd c7 4c 3e be
       -0.08758996 -0.04922296 -0.07298485 -0.18583976
0003a0 18 f9 0e be 04 04 0f be 7f 95 7a 3e 73 0b 1b be
       -0.13962209 -0.13966376 0.2447109 -0.15141086
0003b0 0d fa 22 bd 21 5a 54 bd c2 33 a4 be f5 76 45 be
       -0.03978925 -0.051843766 -0.32070738 -0.1928366
0003c0 ab aa b4 bd ed 00 6b 3d e0 8d cc bd 37 40 45 be
       -0.08821615 0.05737393 -0.09987998 -0.19262777
0003d0 56 6b df 3a 7a 45 2e be 97 2a 00 be 65 db 59 bd
       0.0017045538 -0.1701869 -0.12516247 -0.053187747
0003e0 ac e7 84 be cc 86 0c be 10 47 b6 bd 93 ff 9f bd
       -0.25958002 -0.13723296 -0.08900273 -0.07812419
0003f0 22 09 3a be 48 1c 19 be 13 fa bf bd f5 cc c7 3d
       -0.18167546 -0.14952195 -0.0937387 0.09755889

layer_3.weight f4 [1, 300]
000000 ca 54 60 3d d9 97 d2 bd df b4 b7 3c 26 4f cd bc
       0.05476836 -0.10282869 0.022425113 -0.025062155
000010 54 21 a6 3e 62 61 85 bd 80 f6 9e bd e7 d5 36 bd
       0.32447302 -0.06512715 -0.0776186 -0.044637587
000020 48 b8 8d bd 9a 32 56 be 2a 1b ae bc 73 ec f2 bd
       -0.069199145 -0.2091774 -0.021253187 -0.11861505
000030 32 8b 64 bd d2 bd ac bd 80 69 9e bc 79 95 ba bc
       -0.05579681 -0.08434643 -0.019337416 -0.022776352
000040 d2 51 4b bd ea 5a 2e 3c dc 74 aa bd a1 38 c1 be
       -0.049638577 0.010641793 -0.083230704 -0.37738517
000050 9e 79 82 bc da e8 ca bd 92 3b 38 bd b7 a3 d2 be
       -0.015927132 -0.09907694 -0.044978686 -0.4114053
000060 14 9a 9d bc eb 6f 74 bc 26 c8 c0 bd d4 de a7 3d
       -0.01923851 -0.014919261 -0.09413175 0.08196798
000070 39 29 26 bd ba a7 b0 bd 49 37 7d bb aa ca db be
       -0.040566657 -0.08625741 -0.003863769 -0.42928058
000080 1f c8 58 bd ba 05 bd bc 90 16 32 bb a9 67 9d bd
       -0.052925225 -0.02307402 -0.0027174093 -0.07685787
000090 ad b1 1c 3e ca 04 1a 3d fc 4a cf bb d5 89 79 bb
       0.15302153 0.037602223 -0.0063260775 -0.003807654
0000a0 0e 46 1a bc 4d 48 ac bc c6 84 d2 3c 6a e5 46 bd
       -0.009416116 -0.02103057 0.025698077 -0.04855863
0000b0 da 85 c2 3d 79 62 d0 bc 28 c8 cb bb 2e 67 84 bc
       0.094981864 -0.02543758 -0.006218929 -0.016162481
0000c0 c2 42 62 bd af a6 db bd f2 95 bb bd 56 e8 9a bd
       -0.055239446 -0.10725152 -0.09159459 -0.07563846
0000d0 4a 66 f0 bd 79 36 33 3d c8 ee d9 bd cf 16 4d bd
       -0.1173826 0.04375312 -0.10641247 -0.05007058
0000e0 16 fd cd bd 0a e1 e2 be dc 44 07 bd 06 80 86 bd
       -0.10058038 -0.44312316 -0.033024654 -0.06567387
0000f0 be c9 2a 3d 2f 64 39 bd cc 0d 6c bd f8 1d 8c 3d
       0.041696303 -0.04526156 -0.057630345 0.068416536
000100 95 65 4b bc 0b d7 ad bd 40 f8 d4 bd 22 d1 80 bd
       -0.012414356 -0.08488282 -0.103989124 -0.06289889
000110 4f 48 50 3e b1 b6 c3 bd 57 99 83 bc 0e b3 84 bc
       0.20340084 -0.0955633 -0.01606433 -0.016198661
000120 26 22 d1 bd b9 af 95 bd 7f 5b 80 bd ce 87 1b bd
       -0.102115914 -0.07308907 -0.062674515 -0.03797131
000130 05 af a7 bd b0 ee b2 bc 40 14 7f bd f1 1c 99 bb
       -0.08187679 -0.02184233 -0.06227517 -0.0046726395
000140 5d ae d7 bc 14 91 03 3e 66 19 bc 39 ee 21 34 bd
       -0.02632826 0.12848312 0.00035877078 -0.04397767
000150 28 57 9a bc e5 ed ef bb 9b 57 23 3e a5 ff 92 bc
       -0.018840387 -0.0073220604 0.15951388 -0.017944166
000160 2a ff 55 bd fe 9d 9c bd 4f 4f b1 bd ce e8 b1 bd
       -0.052245297 -0.07647322 -0.08657705 -0.08686982
000170 c1 e5 0e bb 4c a5 6f bc ca f5 5e bd 9e ce 62 bd
       -0.0021804424 -0.014626812 -0.05443362 -0.055372827
000180 1d 14 25 bd e2 05 91 bd 99 09 61 bc b0 b3 a5 bd
       -0.040302385 -0.070812 -0.013735198 -0.08090913
000190 c8 13 c1 bc 42 4a e2 3c c0 09 a9 3d 18 5a 7a bc
       -0.023569003 0.0276233 0.08253813 -0.015280269
0001a0 11 d9 0f bd d8 b0 07 be fd 6e 59 3d db b3 29 bd
       -0.03511912 -0.13251054 0.053084362 -0.04143129
0001b0 be ea e0 bb e0 db 41 3c 7b c7 13 bf af 2a 94 bc
       -0.006863921 0.011832207 -0.5772626 -0.01808676
0001c0 86 f1 93 bd cb 6f 6a bd c7 8f 00 be ec bf ad bd
       -0.07223801 -0.05723552 -0.12554847 -0.08483872
0001d0 db d3 c4 bc 7b 9b b3 bd 9d 59 fa b9 a7 27 f1 bd
       -0.024026802 -0.0876989 -0.00047750483 -0.11775141
0001e0 76 59 b2 bd c1 ed 43 be cb 32 ce bc 32 c5 84 3e
       -0.087084696 -0.19133665 -0.025170704 0.25931698
0001f0 fd e0 58 bc 5e 06 6b 3e ef 85 a8 bd d7 dc ac bd
       -0.013237235 0.22951648 -0.08228671 -0.08440559
000200 79 4d a8 bd 4d 64 58 3e 3b 49 f5 bc ce 8d af bd
       -0.08217902 0.21132012 -0.029942146 -0.08571969
000210 03 0a 82 bd 24 11 96 bd 2c 4c d5 bd a1 30 ac bc
       -0.06349566 -0.07327488 -0.10414919 -0.021019282
000220 b7 67 b2 bc 1a ff 20 3e fc 79 a3 3d 92 ce 23 bc
       -0.02177797 0.15722314 0.07982251 -0.009997981
000230 8d d1 88 bd e3 90 ea bd 52 7d b2 bd 54 8e 53 3c
       -0.06680594 -0.11453416 -0.08715309 0.012912352
000240 2c 72 9d 3e 4d fb ad bd ce 0b aa bd ee 36 dc bd
       0.3075117 -0.084951974 -0.08303033 -0.107526645
000250 3f 0a 52 bc 5b f8 99 bd 2b 93 99 bd e0 f2 0d bd
       -0.012819826 -0.07518073 -0.07498773 -0.03465545
000260 48 47 42 bd e7 57 c0 3d 11 83 eb 3b 40 40 36 bc
       -0.04743126 0.09391766 0.007187255 -0.011123717
000270 8f 3b a0 bd f8 88 24 bb bf 6b 96 3b 68 28 7f bc
       -0.0782386 -0.0025106054 0.004590481 -0.015573598
000280 0f 13 af be 28 86 89 bd 37 62 00 be 9e 3f 90 3c
       -0.34194228 -0.067150414 -0.12537466 0.01760846
000290 99 db 88 bd 48 2b 11 bd 6b 36 56 3d 89 fb b6 bc
       -0.0668251 -0.035441667 0.05229799 -0.022336738
0002a0 cb 9d da bb 0d e4 f4 3d 89 4d b6 bd 4a 75 9e bd
       -0.0066716424 0.1195756 -0.089015074 -0.07737215
0002b0 fc 52 bc bd ee 4c f8 bc dd 87 ed bd dc 3f 69 bd
       -0.091955155 -0.03031012 -0.115981795 -0.056945667
0002c0 ff 72 82 3d 4e 3f 84 3e 5b 7c b1 bd 30 a8 aa bd
       0.0636959 0.25829548 -0.08666297 -0.083328605
0002d0 01 0d 93 bd ff f0 c2 bd 69 50 18 bd b9 6a 41 3b
       -0.07180215 -0.095186226 -0.03718606 0.0029513075
0002e0 6c 91 03 3c f0 e7 df bd 3e 21 dc bb cb c4 b7 bd
       0.008030277 -0.109329104 -0.00671783 -0.08973082
0002f0 54 74 a4 bc 69 5d 8c 3d 39 52 9a bd c0 c1 6d bc
       -0.020075 0.06853754 -0.07535214 -0.014511526
000300 f6 aa 9e bc 00 9b 30 3c c2 de f0 3a f7 4c 20 3d
       -0.01936863 0.010779142 0.0018376934 0.0391359
000310 69 ce 88 bd 50 10 52 bd a6 09 a3 bd 54 3b 37 bd
       -0.066799946 -0.051285088 -0.07960825 -0.044734314
000320 90 d0 7c 3e cc 7e 70 3c 4f 1c b9 bd 12 ab cd bd
       0.24688935 0.014678668 -0.090386026 -0.10042395
000330 77 37 0e be 0d 4b 53 bd c1 32 a4 bd 56 30 be bc
       -0.13888346 -0.051585246 -0.08017493 -0.023216408
000340 e3 0b 13 bb a2 b1 8a bc 7f 35 68 bc c7 f9 75 be
       -0.0022437505 -0.016930405 -0.014172911 -0.24021064
000350 43 47 e3 3d 9f 2d 32 bc 00 42 e3 bd 65 cc b6 bd
       0.110975765 -0.010875135 -0.11096573 -0.08925704
000360 13 45 5b bd d3 e4 ca bd 44 1c 05 bd 65 db ce be
       -0.05353267 -0.09906926 -0.03249766 -0.4040176
000370 24 cd ce bc fb 33 c0 bc 3f 56 73 3e ef 03 0f bd
       -0.025244303 -0.023462286 0.23763369 -0.03491586
000380 b1 19 05 bc a9 1a 24 bd 7a a8 b2 bc 7a dd 19 bd
       -0.008123801 -0.040064488 -0.021808852 -0.037564732
000390 88 36 d4 bd 39 3f b0 bd 87 9a f0 be 51 17 01 bd
       -0.103619635 -0.08605809 -0.46992895 -0.031516377
0003a0 9a 36 d8 be fe 5c d1 bd 2a 8f 92 3e 8b 04 7c bd
       -0.42229158 -0.10222815 0.2862485 -0.06152777
0003b0 bc f9 ce bd b8 2d ca bc 9d d4 3d bb c1 c2 a6 bd
       -0.10106227 -0.024680004 -0.0028965839 -0.08142615
0003c0 6e 9e de bd ff 07 e7 bd 96 1c d2 bc 45 a5 9a bd
       -0.10870062 -0.11280822 -0.025648396 -0.07551054
0003d0 3c bd aa bd bf d4 45 bd cb f3 46 3e 07 1b 92 bc
       -0.08336875 -0.048298594 0.19428937 -0.017835153
0003e0 0e 6f 7c bb c2 eb 78 bd ae 14 36 bc d8 cd 16 3e
       -0.0038518342 -0.06077171 -0.011113329 0.1472696
0003f0 8c bb b4 bc 0a b8 00 bf 9b e4 b2 bd 60 6b 6d 3c
       -0.022062086 -0.5028082 -0.08735009 0.014490932
