RL/Model_Repository/pytorch_models/TD3_Guest_set_actor.pth (torch, 516991 bytes, 9 tensors)

layer_1.weight f4 [400, 15]
-0.40308928 -0.38618582 -0.66098094 -0.36330786 -0.65711105 -0.5484484 0.24227297 -0.31232426
-0.3729283 -0.7896449 -0.3761166 -0.5521204 -0.40582007 -0.5645506 -0.47465345 -0.036455363
0.19904187 0.03816411 -0.12053755 0.065814465 -0.11896169 -0.030279726 -0.104869634 0.17128164
-0.2038145 -0.11903235 -0.07290885 -0.15524788 0.024369627 -0.25501764 0.8336864 0.38117307
0.79984075 0.64347386 0.5167028 0.7601046 -0.35421702 0.6941138 0.6287698 0.51886636
0.66991794 0.5304487 0.70604646 0.83025604 0.7486981 -0.11287746 0.1490491 0.046198547
0.13112244 -0.15737352 -0.25559327 -0.099757865 -0.19804445 0.21186224 0.07436937 0.10694948
0.081658274 -0.004491627 0.2020686 -0.18345383 0.016257167 -0.17623112 0.07961613 -0.08891912
0.079116344 -0.053793535 0.21414804 -0.15303499 -0.1539893 -0.15399858 0.23223513 0.08604506
0.24845204 -0.21308541 -0.2561013 -0.20200546 -0.17368758 0.10458091 0.09245479 0.21454376
-0.13334045 -0.17601722 0.13699469 -0.104365155 0.15670705 -0.06127076 0.14770162 -0.20061228
-0.1303 0.07871875 0.05458519 -0.06583007 0.15390447 0.175526 -0.18723896 -0.13784418
0.2364229 -0.08712469 -0.09153573 -0.24983186 -0.14786282 0.06449902 -0.03408049 -0.18742296
0.0060564876 -0.77684146 -0.8195267 -0.74265 -0.8264493 -0.76493925 -0.34245256 0.3787971
-0.34942287 -0.84135634 -0.76966494 -0.6864819 -0.5600296 -0.8223197 -0.71037024 -0.7532095
0.00071552396 -0.09607664 -0.017892092 -0.17496324 -0.17722647 -0.1506337 -0.08838081 -0.20379144
0.216492 -0.051243186 0.22215348 0.08045015 -0.21864204 0.17868271 -0.07104209 -0.69944537
-0.8147949 -0.8571611 -0.5265974 -0.65693575 -0.5000276 0.079880536 -0.23437347 -0.7900698
-0.64473903 -0.54660916 -0.46711054 -0.38650408 -0.36391413 -0.8033915 0.06498021 -0.11105804
-0.028294683 -0.1932593 0.23518267 -0.1895052 0.1379947 0.09074131 0.08390325 -0.13959426
0.23469028 0.0567393 0.033214718 -0.227539 0.10838893 -0.03873515 -0.118287176 0.22177905
0.057565123 -0.14285535 -0.13068451 -0.0123304725 0.14416826 -0.06597854 -0.14732179 -0.088418365
-0.19289389 0.09208211 0.19985631 -0.24307884 0.6604946 0.7339114 0.64734644 0.5085768
0.7353106 0.7362375 -0.37580582 0.49073803 0.5321758 0.628048 0.5549355 0.5235657
0.7640212 0.82204074 0.5744437 -0.05780992 0.003767699 -0.015416607 0.062073916 0.072356015
-0.23451088 -0.09528513 0.21743688 0.10058266 -0.012842193 -0.1556696 -0.15796739 -0.231286
-0.08416313 0.08719483 0.76515615 0.7197328 0.3722888 0.44525132 0.55979675 0.85031927
-0.41636926 0.45686662 0.7073672 0.50205314 0.43342572 0.78895617 0.48123032 0.5482914
0.34302783 0.17280492 0.19562042 0.09410012 -0.18003543 -0.25482678 -0.20970371 0.19253898
0.12396276 0.2172755 0.13526261 0.06534812 -0.0025284588 -0.19636181 -0.22121763 -0.24150598
0.1056968 -0.12676738 -0.051963195 -0.14859483 -0.047049925 -0.18172938 -0.1687112 0.085647374
-0.07673578 0.15939733 -0.08283247 -0.18940625 -0.045556337 -0.12516125 -0.07899378 -0.8462983
00000000: b861 cebe 26ba c5be 0c36 29bf 7d03 babe
00000010: 6e38 28bf 1d67 0cbf 6816 783e f7e8 9fbe
00000020: 75f0 bebe 2b26 4abf 5b92 c0be c357 0dbf
00000030: a6c7 cfbe 6386 10bf c705 f3be 3852 15bd
00000040: a2d1 4b3e f851 1c3d 64dc f6bd bcc9 863d
00000050: 30a2 f3bd 300d f8bc e4c5 d6bd 7464 2f3e
00000060: c0b4 50be 3cc7 f3bd 3c51 95bd 4df9 1ebe
00000070: d0a2 c73c ac91 82be 796c 553f 1e29 c33e
00000080: 5dc2 4c3f b4ba 243f a246 043f 3796 423f
00000090: ef5b b5be 71b1 313f 0ff7 203f 6dd4 043f
000000a0: be7f 2b3f 7ccb 073f 76bf 343f a98b 543f
000000b0: aeaa 3f3f 4c2c e7bd 54a0 183e b03a 3d3d
000000c0: f644 063e 8626 21be 1fdd 82be da4d ccbd
000000d0: 2acc 4abe 6af2 583e f84e 983d 5408 db3d
000000e0: 743c a73d 802e 93bb 12eb 4e3e 52db 3bbe
000000f0: c02d 853c ee75 34be c80d a33d 3a1b b6bd
00000100: c007 a23d 9c56 5cbd a049 5b3e 34b5 1cbe
00000110: 5faf 1dbe ceb1 1dbe 0ccf 6d3e 6438 b03d
00000120: 366a 7e3e 1033 5abe b61f 83be 85da 4ebe
00000130: 28db 31be 842e d63d f058 bd3d 5cb1 5b3e
00000140: 668a 08be dc3d 34be 5648 0c3e 66bd d5bd
00000150: d077 203e 0cf7 7abd 183f 173e 4e6d 4dbe
00000160: 5d6d 05be 4c37 a13d b894 5f3d ead1 86bd
00000170: 2299 1d3e 16bd 333e 92bb 3fbe 0627 0dbe
00000180: d818 723e 6e6e b2bd 1677 bbbd ecd3 7fbe
00000190: 5a69 17be 1018 843d fc97 0bbd ceeb 3fbe
000001a0: 8075 c63b 15df 46bf 80cc 51bf 4f1e 3ebf
000001b0: 2e92 53bf 0fd3 43bf f155 afbe b2f1 c13e
000001c0: 8ee7 b2be 2163 57bf c308 45bf 47bd 2fbf
000001d0: 1a5e 0fbf 8b83 52bf d3da 35bf 56d2 40bf
000001e0: 0092 3b3a d4c3 c4bd 7092 92bc 9029 33be
000001f0: db7a 35be b83f 1abe 0001 b5bd b4ae 50be
00000200: 14b0 5d3e 60e4 51bd 347c 633e 0cc3 a43d
00000210: b3e3 5fbe 9af8 363e 847e 91bd da0e 33bf
00000220: 6696 50bf e96e 5bbf 16cf 06bf f12c 28bf
00000230: cf01 00bf 6898 a33d 99ff 6fbe 0442 4abf
00000240: 9e0d 25bf 94ee 0bbf 1d29 efbe dde3 c5be
00000250: f452 babe 11ab 4dbf 5814 853d 6672 e3bd
00000260: 40ca e7bc c4e5 45be bad3 703e a70d 42be
00000270: 7c4e 0d3e 94d6 b93d 78d5 ab3d ccf1 0ebe
00000280: a652 703e 7867 683d 280c 083d fcff 68be
00000290: 04fb dd3d c0a8 1ebd 8c40 f2bd 0c1a 633e
000002a0: 68c9 6b3d ac48 12be 29d2 05be c005 4abc
000002b0: d8a0 133e c21f 87bd 86db 16be b014 b5bd
000002c0: fa85 45be 8c95 bc3d 22a7 4c3e a9e9 78be
000002d0: 2d16 293f 9ee1 3b3f 7fb8 253f 1732 023f
000002e0: 513d 3c3f 107a 3c3f 9f69 c0be 0442 fb3e
000002f0: ac3c 083f c1c7 203f 4110 0e3f 6708 063f
00000300: e596 433f 4371 523f be0e 133f 18ca 6cbd
00000310: 80eb 763b f095 7cbc 3841 7e3d 642f 943d
00000320: 9f23 70be da24 c3bd c6a7 5e3e 48fe cd3d
00000330: 1068 52bc da67 1fbe 34c2 21be 3dd6 6cbe
00000340: b85d acbd 3493 b23d 46e1 433f 6940 383f
00000350: a39c be3e fbf7 e33e d74e 0f3f 86ae 593f
00000360: 5a2e d5be 6cea e93e 0416 353f 8e86 003f
00000370: fae9 dd3e 08f9 493f d263 f63e d35c 0c3f
00000380: 58a1 af3e c6f3 303e b850 483e 90b7 c03d
00000390: 355b 38be a878 82be 92bc 56be f028 453e
000003a0: 30e0 fd3d 787d 5e3e 4882 0a3e 3cd5 853d
000003b0: 80b4 25bb 1213 49be e086 62be 584d 77be
000003c0: 9077 d83d 4fcf 01be 5cd7 54bd 3e29 18be
000003d0: 6cb7 40bd 4417 3abe a1c2 2cbe e467 af3d
000003e0: a627 9dbd 0e39 233e 12a4 a9bd b6f3 41be
000003f0: 4899 3abd 452a 00be 7ec7 a1bd 01a7 58bf

layer_1.bias f4 [400]
-0.6966834 -0.057858214 0.79045784 -0.18164635 -0.19634381 -0.21019003 0.24155492 -0.5637881
-0.068696305 -0.389508 -0.15255657 -0.06823768 0.8151403 0.13752034 0.37350062 -0.07096411
0.02535507 -0.45575446 -0.11878914 0.18078867 0.42426547 -0.22324462 0.06918678 0.18363321
0.49042577 0.285 -0.07364987 -0.060006797 0.3270292 -0.07303196 -0.5248374 0.3551733
0.036641896 0.13634557 0.030472815 0.31283098 0.57880384 0.4076898 0.07359728 -0.75405514
-0.17860512 -0.008571506 0.14888856 0.5046752 -0.5381727 -0.5522768 0.3246702 -0.020428061
-0.39460886 0.48322546 0.11556369 -0.28244245 0.14399001 -0.0492229 -0.11153938 -0.35431296
0.20586812 -0.41377014 0.18808857 0.1264585 0.76525617 0.22460684 -0.20993182 -0.24331829
0.33880696 0.74221486 0.23313358 -0.5427733 -0.1909062 -0.12135309 -0.18069665 0.8058873
-0.5013118 -0.16981016 0.7727687 0.22672403 -0.11327052 -0.7180169 -0.34620863 -0.18658286
0.21552345 -0.05212158 -0.0035141408 -0.1379386 0.29223135 0.058416277 -0.66572607 -0.67741174
0.20581344 0.04787898 -0.069231406 -0.5635778 -0.14534989 -0.08428271 0.108540386 0.33189672
0.14911988 0.23486164 0.62751913 -0.25635895 0.033685595 0.46177334 0.081674814 -0.009651467
0.1263322 -0.021007001 0.04657224 0.63138616 -0.1912988 0.60577774 0.2300851 0.18029007
-0.51636046 -0.045404553 0.10676193 -0.22705197 -0.5538453 0.22395357 -0.49353862 -0.0033403635
-0.20323193 -0.16734582 0.03570807 0.31093878 -0.6289307 -0.12719597 0.0795708 0.039444387
-0.24929942 -0.4834088 0.46920413 -0.67643183 0.1902068 -0.16998214 -0.23551148 0.5559569
-0.54398847 -0.10485309 0.17714183 -0.4615136 -0.36472964 0.23694202 0.39421868 -0.6263921
-0.20434253 0.04833135 -0.051308945 -0.22308649 -0.25660735 -0.51287365 -0.41848361 0.033517957
-0.07031563 0.24214277 -0.20042092 0.2404843 -0.44408932 0.41664657 0.69199526 0.025697172
0.02737832 -0.0523545 -0.2548071 0.108766735 0.19310921 0.1079582 -0.040287778 -0.2311294
-0.44317698 0.43430212 -0.20209536 -0.33173305 -0.0067992806 0.07052049 -0.30779457 -0.36874655
-0.6885405 0.09521732 0.15181783 -0.3892905 -0.686358 -0.4653518 -0.18552136 -0.59100515
-0.17916931 0.14760298 0.28545514 0.247918 0.44063595 -0.65047675 0.3536361 -0.12408524
0.35343298 -0.13498831 0.11339626 -0.00085663795 0.006581479 -0.17392571 0.25675067 0.11537862
0.10953936 0.18311372 0.044614136 -0.51052463 -0.19392896 -0.4888414 -0.76540124 -0.0011233985
-0.13933462 -0.14635175 0.32807362 0.3922148 0.33410543 -0.14120565 -0.6187361 -0.23591875
-0.060898993 -0.4513257 -0.25681946 -0.2580715 -0.13003342 -0.39550593 -0.26779234 0.44830912
-0.40450507 -0.60703945 0.46923262 -0.040027216 -0.25137958 0.0013470352 -0.49825785 -0.35492688
0.1281228 -0.07774255 0.009740621 0.027389467 0.04354459 -0.7058818 0.69019353 -0.7613495
-0.089636296 0.12866735 -0.06439462 0.44148234 -0.65006423 0.17783314 -0.5538677 -0.35024032
-0.43710035 -0.19201621 -0.5188451 0.184104 -0.12644173 -0.18849152 0.70482594 -0.33541968
00000000: d859 32bf bcfc 6cbd 725b 4a3f 8001 3abe
00000010: 5a0e 49be 0e3c 57be 2c5a 773e 6b54 10bf
00000020: a6b0 8cbd 986d c7be ca37 1cbe 32c0 8bbd
00000030: 09ad 503f 22d2 0c3e 793b bf3e a255 91bd
00000040: 70b5 cf3c a658 e9be b847 f3bd aa20 393e
00000050: 5339 d93e 3d9a 64be ccb1 8d3d 580a 3c3e
00000060: 1619 fb3e 85eb 913e bed5 96bd b0c9 75bd
00000070: 5f70 a73e c891 95bd be5b 06bf 46d9 b53e
00000080: d015 163d 2c9e 0b3e 20a2 f93c 622b a03e
00000090: 7d2c 143f b8bc d03e 2cba 963d c209 41bf
000000a0: 43e4 36be 806f 0cbc 3e76 183e 6532 013f
000000b0: b0c5 09bf 0362 0dbf 2c3b a63e c058 a7bc
000000c0: 2c0a cabe 5469 f73e a8ac ec3d 4c9c 90be
000000d0: 1e72 133e f49d 49bd c26e e4bd 8268 b5be
000000e0: 18cf 523e aed9 d3be 4a9a 403e 567e 013e
000000f0: d4e7 433f 56ff 653e 5ef8 56be 6e28 79be
00000100: 1b78 ad3e cb01 3e3f 92ba 6e3e 31f3 0abf
00000110: ea7c 43be f887 f8bd 8b08 39be a14e 4e3f
00000120: f855 00bf b7e2 2dbe 2bd4 453f 582a 683e
00000130: 60fa e7bd f5cf 37bf 4242 b1be 940f 3fbe
00000140: 2eb2 5c3e 707d 55bd 804d 66bb c73f 0dbe
00000150: 599f 953e e845 6f3d 066d 2abf db6a 2dbf
00000160: c2c0 523e c01c 443d 32c9 8dbd a246 10bf
00000170: 9ad6 14be 6a9c acbd 6c4a de3d 5eee a93e
00000180: e2b2 183e 927f 703e 18a5 203f 7b41 83be
00000190: e8f9 093d 8e6d ec3e 2045 a73d 3021 1ebc
000001a0: 3a5d 013e e016 acbc 88c2 3e3d 86a2 213f
000001b0: d5e3 43be 4014 1b3f 6e9b 6b3e f69d 383e
000001c0: 3330 04bf 20fa 39bd 00a6 da3d 5080 68be
000001d0: cec8 0dbf 1654 653e 18b1 fcbe 00ea 5abb
000001e0: 081c 50be b45c 2bbe a042 123d 5e33 9f3e
000001f0: 9a01 21bf a93f 02be 04f6 a23d 7090 213d
00000200: 5948 7fbe 5c81 f7be 863b f03e a32a 2dbf
00000210: 92c5 423e cc0f 2ebe ec29 71be 3153 0e3f
00000220: d442 0bbf 38bd d6bd ab64 353e 834b ecbe
00000230: d8bd babe eea0 723e 08d7 c93e 3c5b 20bf
00000240: 2b3f 51be 18f7 453d 5429 52bd c970 64be
00000250: 0a62 83be b04b 03bf 7c43 d6be 204a 093d
00000260: a401 90bd 46f4 773e 243b 4dbe 8441 763e
00000270: ad5f e3be b352 d53e 9a26 313f e082 d23c
00000280: 8048 e03c ac71 56bd 1476 82be 18c1 de3d
00000290: 6cbe 453e 3019 dd3d cc04 25bd 2fad 6cbe
000002a0: 18e8 e2be d95c de3e 16f2 4ebe ead8 a9be
000002b0: 80cc debb 0c6d 903d 4097 9dbe 59cc bcbe
000002c0: 3144 30bf 4c01 c33d 2276 1b3e 1651 c7be
000002d0: 28b5 2fbf 9742 eebe 50f9 3dbe 1d4c 17bf
000002e0: 2978 37be 3c25 173e 2d27 923e 37de 7d3e
000002f0: 099b e13e a585 26bf ca0f b53e 6720 febd
00000300: 2bf5 b43e 603a 0abe 4c3c e83d 0090 60ba
00000310: 73a9 d73b 9519 32be d374 833e a04b ec3d
00000320: 2c56 e03d 2a82 3b3e 50bd 363d beb1 02bf
00000330: 5095 46be 6c49 fabe 56f1 43bf 003f 93ba
00000340: bcad 0ebe 3cdd 15be 44f9 a73e 61d0 c83e
00000350: de0f ab3e 3798 10be 7d65 1ebf af94 71be
00000360: 3971 79bd 2a14 e7be d77d 83be f321 84be
00000370: 7b27 05be c17f cabe 141c 89be c688 e53e
00000380: 4a1b cfbe f066 1bbf 423f f03e 94f3 23bd
00000390: d3b4 80be 008f b03a a71b ffbe fab8 b5be
000003a0: a032 033e 7c37 9fbd 2097 1f3c e05f e03c
000003b0: d05b 323d abb4 34bf 86b0 303f cde7 42bf
000003c0: 3c93 b7bd 60c1 033e 54e1 83bd f909 e23e
000003d0: 9c6a 26bf e419 363e 46ca 0dbf b352 b3be
000003e0: 9ecb dfbe e69f 44be 08d3 04bf c285 3c3e
000003f0: f179 01be ec03 41be 796f 343f 21bc abbe

ln1.weight f4 [400]
1.6005481 1.6005496 1.6005498 1.6005496 1.6005492 0.39944994 1.6005496 0.39944947
1.6005495 0.39945003 0.39945006 0.39945033 1.6005497 1.6005496 1.6005502 1.6005496
1.6005496 0.3994496 0.3994496 0.3994499 1.6005493 1.6005497 0.3994497 1.6005458
0.3994596 1.6005499 1.6005492 0.3994508 0.39945006 0.3994497 1.600547 1.6005497
1.6005497 0.39945891 1.6005498 1.6005489 0.3994496 1.6005497 0.39944965 0.39944986
0.3994496 1.6005491 0.39945233 1.6005502 1.6005495 0.3994497 1.6005496 1.6005497
0.39945298 1.6005493 1.6005489 0.3994531 1.6005487 0.3994503 1.6005412 0.39944965
0.39945018 1.6005477 0.39944965 1.6005497 1.6005493 0.39945138 1.6005496 0.39944997
1.6005496 1.6005489 1.6005493 0.39945096 0.39945003 1.6005495 1.6005497 1.6005497
0.3994497 1.600548 1.6005489 0.39944994 0.39945 1.6005497 0.3994499 1.6005496
0.39944994 1.6005495 1.6005491 1.6005496 1.6005498 0.3994501 0.39944947 0.39945033
0.3994501 1.6005489 1.6005498 1.6005465 0.39944965 0.39945018 0.39944986 1.6005502
0.39944965 1.6005497 1.6005496 1.6005492 0.3994501 1.6005498 0.3994501 0.3994498
0.3994497 0.3994499 0.39944965 0.3994499 0.39946666 0.39944974 0.39944994 0.39944986
0.3994497 1.6005489 0.3994498 1.6005496 0.39944997 1.6005496 1.6005493 1.6005495
0.3994498 0.3994551 0.39945087 1.6005495 0.39944947 0.3994499 1.6005496 0.39945117
0.39945078 0.39944953 1.6005486 0.39944953 1.6005497 1.6005496 1.6005484 1.6005502
1.6005481 1.6005487 0.39945117 0.3994531 0.39944953 1.6005483 1.6005486 1.6005498
0.3994508 1.6005496 0.39945015 1.6005483 1.6005489 1.6005495 0.39945003 0.3994499
0.39944977 1.6005498 1.6005473 0.39944977 0.39945078 0.39945212 0.3994499 1.6005496
1.6005495 1.6005492 1.6005479 0.39944953 1.6005493 0.39944965 0.3994497 1.6005495
0.3994499 1.6005493 1.600545 1.6005496 1.6005498 0.39944986 1.6005493 0.39945003
0.39945138 1.6005496 1.6005486 0.3994496 1.6005497 1.6005485 1.6005496 0.3994496
0.3994496 0.3994498 0.3994505 0.39945003 0.39945018 0.39944953 1.6005495 0.39945373
1.60055 1.6005485 1.6005485 0.39945003 0.3994531 1.6005497 1.6005497 0.3994499
0.39947417 1.6005492 0.3994497 0.39944977 1.6005495 1.6005496 0.39945987 0.3994497
0.39944965 0.39944965 1.6005497 1.6005497 0.39945146 0.39944977 0.3994496 0.3994497
0.39945593 1.6005489 1.6005491 0.39944994 0.39944994 0.3994499 0.39945024 1.6005497
0.39944965 0.39945006 0.3994499 0.39945483 0.39945015 1.6005496 1.6005489 0.3994496
1.6005483 0.39945027 0.3994499 0.39944988 0.39944986 0.3994498 1.6005489 0.3994499
0.3994499 0.39945033 0.3994504 1.6005497 1.6005424 1.600548 0.39944947 1.600548
0.3994498 0.39945087 0.39945266 0.3994499 1.6005486 1.6005465 1.6005495 0.39946905
00000000: c3de cc3f cfde cc3f d1de cc3f cfde cc3f
00000010: ccde cc3f b484 cc3e cfde cc3f a484 cc3e
00000020: cede cc3f b784 cc3e b884 cc3e c184 cc3e
00000030: d0de cc3f cfde cc3f d4de cc3f cfde cc3f
00000040: cfde cc3f a884 cc3e a884 cc3e b384 cc3e
00000050: cdde cc3f d0de cc3f ac84 cc3e afde cc3f
00000060: f885 cc3e d2de cc3f ccde cc3f d184 cc3e
00000070: b884 cc3e ac84 cc3e b9de cc3f d0de cc3f
00000080: d0de cc3f e185 cc3e d1de cc3f c9de cc3f
00000090: a884 cc3e d0de cc3f aa84 cc3e b184 cc3e
000000a0: a884 cc3e cbde cc3f 0485 cc3e d4de cc3f
000000b0: cede cc3f ac84 cc3e cfde cc3f d0de cc3f
000000c0: 1a85 cc3e cdde cc3f c9de cc3f 1e85 cc3e
000000d0: c8de cc3f c084 cc3e 89de cc3f aa84 cc3e
000000e0: bc84 cc3e bfde cc3f aa84 cc3e d0de cc3f
000000f0: cdde cc3f e484 cc3e cfde cc3f b584 cc3e
00000100: cfde cc3f c9de cc3f cdde cc3f d684 cc3e
00000110: b784 cc3e cede cc3f d0de cc3f d0de cc3f
00000120: ac84 cc3e c2de cc3f c9de cc3f b484 cc3e
00000130: b684 cc3e d0de cc3f b384 cc3e cfde cc3f
00000140: b484 cc3e cede cc3f cbde cc3f cfde cc3f
00000150: d1de cc3f b984 cc3e a484 cc3e c184 cc3e
00000160: b984 cc3e c9de cc3f d1de cc3f b5de cc3f
00000170: aa84 cc3e bc84 cc3e b184 cc3e d4de cc3f
00000180: aa84 cc3e d0de cc3f cfde cc3f ccde cc3f
00000190: b984 cc3e d1de cc3f b984 cc3e af84 cc3e
000001a0: ac84 cc3e b384 cc3e aa84 cc3e b384 cc3e
000001b0: e586 cc3e ad84 cc3e b484 cc3e b184 cc3e
000001c0: ac84 cc3e c9de cc3f af84 cc3e cfde cc3f
000001d0: b584 cc3e cfde cc3f cdde cc3f cede cc3f
000001e0: af84 cc3e 6185 cc3e d384 cc3e cede cc3f
000001f0: a484 cc3e b384 cc3e cfde cc3f dd84 cc3e
00000200: d084 cc3e a684 cc3e c7de cc3f a684 cc3e
00000210: d0de cc3f cfde cc3f c5de cc3f d4de cc3f
00000220: c3de cc3f c8de cc3f dd84 cc3e 1e85 cc3e
00000230: a684 cc3e c4de cc3f c7de cc3f d1de cc3f
00000240: d184 cc3e cfde cc3f bb84 cc3e c4de cc3f
00000250: c9de cc3f cede cc3f b784 cc3e b384 cc3e
00000260: ae84 cc3e d1de cc3f bcde cc3f ae84 cc3e
00000270: d084 cc3e fd84 cc3e b384 cc3e cfde cc3f
00000280: cede cc3f ccde cc3f c1de cc3f a684 cc3e
00000290: cdde cc3f aa84 cc3e ac84 cc3e cede cc3f
000002a0: b384 cc3e cdde cc3f a9de cc3f cfde cc3f
000002b0: d1de cc3f b184 cc3e cdde cc3f b784 cc3e
000002c0: e484 cc3e cfde cc3f c7de cc3f a884 cc3e
000002d0: d0de cc3f c6de cc3f cfde cc3f a884 cc3e
000002e0: a884 cc3e af84 cc3e c784 cc3e b784 cc3e
000002f0: bc84 cc3e a684 cc3e cede cc3f 3385 cc3e
00000300: d3de cc3f c6de cc3f c6de cc3f b784 cc3e
00000310: 1e85 cc3e d0de cc3f d0de cc3f b384 cc3e
00000320: e187 cc3e ccde cc3f ac84 cc3e ae84 cc3e
00000330: cede cc3f cfde cc3f 0186 cc3e ac84 cc3e
00000340: aa84 cc3e aa84 cc3e d0de cc3f d0de cc3f
00000350: e784 cc3e ae84 cc3e a884 cc3e ac84 cc3e
00000360: 7d85 cc3e c9de cc3f cbde cc3f b484 cc3e
00000370: b484 cc3e b384 cc3e be84 cc3e d0de cc3f
00000380: aa84 cc3e b884 cc3e b384 cc3e 5885 cc3e
00000390: bb84 cc3e cfde cc3f c9de cc3f a884 cc3e
000003a0: c4de cc3f bf84 cc3e b384 cc3e b284 cc3e
000003b0: b184 cc3e af84 cc3e c9de cc3f b384 cc3e
000003c0: b384 cc3e c184 cc3e c384 cc3e d0de cc3f
000003d0: 93de cc3f c2de cc3f a484 cc3e c2de cc3f
000003e0: af84 cc3e d384 cc3e 0f85 cc3e b384 cc3e
000003f0: c7de cc3f b5de cc3f cede cc3f 3587 cc3e

ln1.bias f4 [400]
-0.6005505 -0.60055035 0.6005505 -0.60055035 -0.6005502 0.6005503 -0.60055035 -0.6005503
-0.6005502 -0.6005503 0.6005502 0.60054994 0.60055053 -0.6005504 0.6005505 -0.60055023
-0.6005505 -0.60055053 0.6005504 0.60055035 0.60055 -0.6005505 0.6005505 0.60055006
0.6005501 0.6005504 -0.60055023 0.60054964 0.6005505 0.6005506 -0.60055035 0.6005503
-0.60055053 0.60054386 -0.6005504 0.6005505 0.60055053 0.60055035 0.6005504 -0.60055035
0.6005505 -0.6005501 0.60054874 0.60055035 -0.6005503 -0.60055035 0.60055035 -0.60055053
-0.6005495 0.60055006 -0.60055006 -0.6005491 -0.60055006 0.60055 -0.6005444 -0.6005506
0.60054994 -0.6005504 0.6005504 -0.6005505 0.60055035 0.6005494 -0.60055035 0.60055035
0.6005501 0.6005505 -0.60055023 -0.6005505 0.6005501 -0.60055023 -0.60055035 0.6005505
-0.60055035 -0.60054946 0.60055035 0.6005503 0.60055035 -0.6005506 -0.6005501 -0.6005504
0.6005503 -0.60055035 -0.60055023 -0.60055035 0.60055035 0.6005503 -0.6005505 -0.60055035
0.6005501 -0.6005499 -0.6005504 -0.6005488 0.6005504 0.60055 0.6005503 0.6005505
0.6005504 -0.6005504 0.6005504 -0.6005502 0.6005501 0.6005504 0.60055006 0.60055035
0.60055053 0.6005503 0.6005504 0.60055035 0.6005381 0.6005505 0.60055035 0.6005503
-0.6005503 -0.60055006 0.60055035 -0.60055035 -0.60055 -0.60055035 -0.6005504 -0.6005503
0.60055035 0.6005465 0.6005496 0.6005503 -0.60055035 0.60055035 -0.60055035 0.6005495
0.6005497 -0.6005505 0.60055023 -0.6005504 -0.6005504 -0.60055035 -0.60054976 0.6005503
-0.6005497 -0.60055 0.60054976 -0.60054964 -0.60055035 0.6005501 0.6005505 -0.60055053
0.6005497 -0.6005503 0.60055006 -0.6005497 -0.60055006 -0.6005503 -0.60055035 0.6005503
0.6005505 -0.60055053 -0.60054874 0.6005504 -0.60055035 0.60054916 0.6005503 -0.60055035
-0.6005503 -0.6005502 0.60054743 0.60055053 -0.6005502 0.60055035 0.6005504 -0.60055035
-0.6005499 0.6005497 -0.6005472 -0.6005505 -0.60055035 0.60055035 -0.6005504 -0.6005502
-0.6005504 -0.6005504 -0.60054976 -0.6005503 -0.6005504 -0.60055023 -0.60055035 -0.6005504
0.6005505 0.6005503 0.60054976 0.6005503 0.6005504 -0.6005505 0.60055035 -0.6005493
0.6005504 -0.6005497 0.60054964 0.6005502 0.6005488 -0.6005505 -0.6005504 0.6005503
0.6005329 -0.6005502 0.60055035 -0.6005505 -0.60055035 -0.60055035 -0.6005505 0.6005505
0.6005505 0.6005504 0.6005501 0.60055035 0.60055023 0.6005503 -0.60055035 0.60055035
-0.60054636 -0.6005504 -0.60055006 0.6005501 0.60055035 -0.6005501 -0.6005503 0.60055023
-0.6005505 -0.60055006 0.60055035 0.600547 0.60055006 -0.6005503 -0.6005505 -0.60055023
0.6005495 0.60054994 0.6005503 0.60055035 0.6005504 -0.6005503 0.6005502 -0.60055035
0.6005503 0.60054976 0.6005498 0.6005505 -0.60054964 -0.60054946 -0.60055035 -0.6005501
-0.6005501 0.6005497 -0.6005498 0.60055023 -0.60055 0.60054487 0.6005505 -0.60052246
00000000: adbd 19bf abbd 19bf adbd 193f abbd 19bf
00000010: a8bd 19bf aabd 193f abbd 19bf aabd 19bf
00000020: a8bd 19bf aabd 19bf a8bd 193f a4bd 193f
00000030: aebd 193f acbd 19bf adbd 193f a9bd 19bf
00000040: adbd 19bf aebd 19bf acbd 193f abbd 193f
00000050: a5bd 193f adbd 19bf adbd 193f a6bd 193f
00000060: a7bd 193f acbd 193f a9bd 19bf 9fbd 193f
00000070: adbd 193f afbd 193f abbd 19bf aabd 193f
00000080: aebd 19bf 3ebd 193f acbd 19bf adbd 193f
00000090: aebd 193f abbd 193f acbd 193f abbd 19bf
000000a0: adbd 193f a7bd 19bf 90bd 193f abbd 193f
000000b0: aabd 19bf abbd 19bf abbd 193f aebd 19bf
000000c0: 9dbd 19bf a6bd 193f a6bd 19bf 96bd 19bf
000000d0: a6bd 19bf a5bd 193f 47bd 19bf afbd 19bf
000000e0: a4bd 193f acbd 19bf acbd 193f adbd 19bf
000000f0: abbd 193f 9bbd 193f abbd 19bf abbd 193f
00000100: a7bd 193f adbd 193f a9bd 19bf adbd 19bf
00000110: a7bd 193f a9bd 19bf abbd 19bf adbd 193f
00000120: abbd 19bf 9cbd 19bf abbd 193f aabd 193f
00000130: abbd 193f afbd 19bf a7bd 19bf acbd 19bf
00000140: aabd 193f abbd 19bf a9bd 19bf abbd 19bf
00000150: abbd 193f aabd 193f adbd 19bf abbd 19bf
00000160: a7bd 193f a3bd 19bf acbd 19bf 91bd 19bf
00000170: acbd 193f a5bd 193f aabd 193f adbd 193f
00000180: acbd 193f acbd 19bf acbd 193f a8bd 19bf
00000190: a7bd 193f acbd 193f a6bd 193f abbd 193f
000001a0: aebd 193f aabd 193f acbd 193f abbd 193f
000001b0: ddbc 193f adbd 193f abbd 193f aabd 193f
000001c0: aabd 19bf a6bd 19bf abbd 193f abbd 19bf
000001d0: a5bd 19bf abbd 19bf acbd 19bf aabd 19bf
000001e0: abbd 193f 6abd 193f 9ebd 193f aabd 193f
000001f0: abbd 19bf abbd 193f abbd 19bf 9dbd 193f
00000200: a0bd 193f adbd 19bf a9bd 193f acbd 19bf
00000210: acbd 19bf abbd 19bf a1bd 19bf aabd 193f
00000220: a0bd 19bf a5bd 19bf a1bd 193f 9fbd 19bf
00000230: abbd 19bf a7bd 193f adbd 193f aebd 19bf
00000240: a0bd 193f aabd 19bf a6bd 193f a0bd 19bf
00000250: a6bd 19bf aabd 19bf abbd 19bf aabd 193f
00000260: adbd 193f aebd 19bf 90bd 19bf acbd 193f
00000270: abbd 19bf 97bd 193f aabd 193f abbd 19bf
00000280: aabd 19bf a8bd 19bf 7abd 193f aebd 193f
00000290: a8bd 19bf abbd 193f acbd 193f abbd 19bf
000002a0: a3bd 19bf a0bd 193f 76bd 19bf adbd 19bf
000002b0: abbd 19bf abbd 193f acbd 19bf a8bd 19bf
000002c0: acbd 19bf acbd 19bf a1bd 19bf aabd 19bf
000002d0: acbd 19bf a9bd 19bf abbd 19bf acbd 19bf
000002e0: adbd 193f aabd 193f a1bd 193f aabd 193f
000002f0: acbd 193f adbd 19bf abbd 193f 99bd 19bf
00000300: acbd 193f a0bd 19bf 9fbd 193f a8bd 193f
00000310: 91bd 193f adbd 19bf acbd 19bf aabd 193f
00000320: 86bc 193f a8bd 19bf abbd 193f adbd 19bf
00000330: abbd 19bf abbd 19bf adbd 19bf adbd 193f
00000340: adbd 193f acbd 193f a7bd 193f abbd 193f
00000350: a9bd 193f aabd 193f abbd 19bf abbd 193f
00000360: 68bd 19bf acbd 19bf a6bd 19bf a7bd 193f
00000370: abbd 193f a7bd 19bf aabd 19bf a9bd 193f
00000380: adbd 19bf a6bd 19bf abbd 193f 73bd 193f
00000390: a6bd 193f aabd 19bf adbd 19bf a9bd 19bf
000003a0: 9dbd 193f a4bd 193f aabd 193f abbd 193f
000003b0: acbd 193f aabd 19bf a8bd 193f abbd 19bf
000003c0: aabd 193f a1bd 193f a2bd 193f adbd 193f
000003d0: 9fbd 19bf 9cbd 19bf abbd 19bf a7bd 19bf
000003e0: a7bd 19bf a0bd 193f a2bd 19bf a9bd 193f
000003f0: a5bd 19bf 4fbd 193f adbd 193f d7bb 19bf

layer_2.weight f4 [300, 400]
-0.5842478 -0.63144577 0.6307418 -0.6189645 -0.58765584 -0.597606 -0.5648411 0.5893826
-0.6208665 0.59058994 -0.600096 -0.6241461 0.6349162 -0.6273573 0.6084604 -0.63893896
-0.6067589 0.589777 -0.62055343 -0.57441247 0.555905 -0.5953061 -0.6052278 0.57454675
-0.5616665 0.6319388 -0.5854409 -0.5995778 -0.57283753 -0.62251323 -0.64123666 0.6485305
-0.6192675 -0.59052086 -0.5995519 0.6426437 -0.55081636 0.56691086 -0.6010837 0.5600146
-0.56825656 -0.55281126 -0.6196627 0.60961264 -0.6115595 0.58843756 0.6402522 -0.6470065
0.5937037 0.60034555 -0.64464873 0.62110996 -0.56720716 -0.64026827 -0.5812045 0.5973156
-0.553706 -0.6476684 -0.55810106 -0.6191255 0.6426995 -0.6260556 -0.5920816 -0.58888656
0.63156986 0.62398577 -0.57260704 0.5900249 -0.6401088 -0.59996986 -0.5549442 0.6438007
0.5711309 -0.5661548 0.6230382 -0.609598 -0.5732581 -0.60263586 0.6066387 -0.63331324
-0.6067079 -0.5516046 -0.5695754 -0.64095885 0.5977186 -0.5687011 0.5791534 0.5942876
-0.5756104 -0.5585278 -0.55518645 -0.63667166 -0.64766383 -0.56521505 -0.6044232 0.64569306
-0.56506 -0.6200702 0.6148748 -0.58372855 -0.6184464 0.64547384 -0.59644765 -0.6168923
-0.6462204 -0.5605343 -0.6501304 -0.56249315 -0.618062 -0.609704 -0.59379613 -0.5513999
0.567636 -0.6360605 -0.57049626 -0.62483466 0.5821504 -0.57164556 -0.62127614 -0.57076865
-0.6200511 -0.5620903 -0.5507409 0.60746646 0.583905 -0.5724243 -0.586575 -0.6003334
-0.5559428 0.5976585 0.6181256 0.58565944 -0.6096218 -0.6027027 -0.59718615 0.6224165
-0.56283313 -0.56989866 -0.6215808 0.64536726 0.6343235 0.61857486 0.6060069 -0.6288476
-0.6303926 -0.6002998 -0.6377414 -0.58301026 -0.6459372 -0.6451362 0.5780926 -0.571781
-0.5614005 -0.64257663 -0.632127 -0.58945817 0.5914374 -0.6415258 -0.5866607 -0.64216906
-0.59742117 -0.5801683 0.64667064 -0.6432222 -0.56321555 -0.59359294 -0.5570176 -0.5513331
0.58808035 0.5927634 -0.61263734 -0.56122595 -0.62220246 -0.56753004 -0.57998633 0.64756376
0.6359652 -0.5599719 -0.64164805 0.5742333 -0.6360259 -0.57572347 -0.59037876 0.619609
-0.58178395 -0.59843415 -0.58146983 -0.62766325 -0.5680656 0.5575044 0.55460757 0.61753106
0.6474915 -0.61884236 0.64764935 -0.61829895 -0.638546 -0.60832435 -0.57289815 -0.6265758
-0.5536612 -0.6229105 -0.62268215 0.5797265 -0.6386325 -0.553909 0.5722985 -0.62304604
-0.61570036 -0.55846053 0.6238762 0.6189599 -0.6136984 -0.5752816 0.60962087 -0.56071323
0.61165005 -0.56385225 -0.5660442 -0.59181285 -0.6484638 0.6107241 0.5628253 0.6091411
0.5949513 0.6403339 -0.63644 -0.64235085 -0.5782651 -0.56753725 -0.6114325 0.6140836
0.6406784 -0.59557676 -0.6145254 -0.5716402 -0.55548745 0.5920635 0.63447565 0.6047222
-0.6110198 -0.6049142 -0.64908916 0.62453675 -0.62776506 -0.6431334 0.5936186 -0.6209221
0.56872594 -0.61107683 0.59527355 -0.5853538 -0.5936975 0.59387004 0.611557 0.5681987
00000000: 4491 15bf 6ea6 21bf 4b78 213f 7574 1ebf
00000010: 9d70 16bf b5fc 18bf 6d99 10bf c7e1 163f
00000020: 1bf1 1ebf e730 173f e49f 19bf 0ac8 1fbf
00000030: de89 223f 7d9a 20bf 10c4 1b3f 8191 23bf
00000040: 8d54 1bbf a0fb 163f 97dc 1ebf b20c 13bf
00000050: ca4f 0e3f fb65 18bf 36f0 1abf 7f15 133f
00000060: 60c9 0fbf bec6 213f 74df 15bf ee7d 19bf
00000070: 7ba5 12bf 075d 1fbf 1628 24bf 1806 263f
00000080: 5188 1ebf 602c 17bf 3c7c 19bf 4c84 243f
00000090: 4d02 0dbf 1221 113f 9fe0 19bf 1e5d 0f3f
000000a0: 4379 11bf 0a85 0dbf 37a2 1ebf 930f 1c3f
000000b0: 2a8f 1cbf d8a3 163f 91e7 233f 38a2 25bf
000000c0: f7fc 173f 3fb0 193f b307 25bf 1001 1f3f
000000d0: 7d34 11bf 9fe8 23bf d1c9 14bf ade9 183f
000000e0: adbf 0dbf 99cd 25bf b6df 0ebf 027f 1ebf
000000f0: f487 243f 2e45 20bf a992 17bf 45c1 16bf
00000100: 90ae 213f 88bd 1f3f 6096 12bf df0b 173f
00000110: 2cde 23bf a097 19bf d310 0ebf 1fd0 243f
00000120: a235 123f 85ef 10bf 6e7f 1f3f 9d0e 1cbf
00000130: 0bc1 12bf 5846 1abf ad4c 1b3f d120 22bf
00000140: 3551 1bbf f635 0dbf b2cf 11bf e115 24bf
00000150: 1604 193f 6596 11bf 6643 143f 3b23 183f
00000160: 345b 13bf aefb 0ebf b320 0ebf eafc 22bf
00000170: 4ccd 25bf efb1 10bf 7bbb 1abf 244c 253f
00000180: c6a7 10bf ecbc 1ebf 6f68 1d3f 3c6f 15bf
00000190: 8152 1ebf c63d 253f cbb0 18bf a7ec 1dbf
000001a0: b36e 25bf 2d7f 0fbf f26e 26bf 8dff 0fbf
000001b0: 5039 1ebf 9015 1cbf 0603 18bf 8b28 0dbf
000001c0: 9850 113f dcd4 22bf 0b0c 12bf 2af5 1fbf
000001d0: cf07 153f 5d57 12bf f40b 1fbf e51d 12bf
000001e0: abbb 1ebf 26e5 0fbf 5bfd 0cbf ec82 1b3f
000001f0: cc7a 153f 668a 12bf c729 16bf 73af 19bf
00000200: 4452 0ebf 2600 193f 7b3d 1e3f c7ed 153f
00000210: 2d10 1cbf b94a 1abf 31e1 18bf b056 1f3f
00000220: d515 10bf e1e4 11bf eb1f 1fbf ca36 253f
00000230: 0663 223f ec5a 1e3f 4523 1b3f 28fc 20bf
00000240: 6961 21bf 3fad 19bf 0543 23bf 2940 15bf
00000250: 245c 25bf a527 25bf e0fd 133f 3d60 12bf
00000260: f1b7 0fbf e77f 24bf 13d3 21bf bbe6 16bf
00000270: 7168 173f 093b 24bf 652f 16bf 3165 24bf
00000280: 98f0 18bf e985 14bf 358c 253f 36aa 24bf
00000290: e52e 10bf b5f5 17bf b598 0ebf 2b24 0dbf
000002a0: 6f8c 163f 58bf 173f cdd5 1cbf 81ac 0fbf
000002b0: a948 1fbf a649 11bf fc79 14bf bdc6 253f
000002c0: 9ece 223f 525a 0fbf 0c43 24bf f400 133f
000002d0: 98d2 22bf 9d62 13bf 1023 17bf b29e 1e3f
000002e0: cbef 14bf fb32 19bf 35db 14bf 8aae 20bf
000002f0: bf6c 11bf 9cb8 0e3f c3fa 0d3f 8416 1e3f
00000300: 01c2 253f 746c 1ebf 59cc 253f d748 1ebf
00000310: c077 23bf 25bb 1bbf 74a9 12bf 4667 20bf
00000320: bebc 0dbf 1077 1fbf 1968 1fbf f568 143f
00000330: 6b7d 23bf fbcc 0dbf 2882 123f f27f 1fbf
00000340: 8a9e 1dbf 45f7 0ebf 5ab6 1f3f 2874 1e3f
00000350: 571b 1dbf a845 13bf 1d10 1c3f e78a 0fbf
00000360: 1995 1c3f 9f58 10bf 46e8 10bf 0c81 17bf
00000370: b901 26bf 6a58 1c3f 5215 103f acf0 1b3f
00000380: ba4e 183f ecec 233f bbed 22bf 1b71 24bf
00000390: 2e09 14bf 1f4a 11bf d786 1cbf 9534 1d3f
000003a0: 8003 243f b877 18bf 8951 1dbf 0357 12bf
000003b0: 6d34 0ebf 7991 173f ff6c 223f 13cf 1a3f
000003c0: cb6b 1cbf a8db 1abf b52a 26bf a4e1 1f3f
000003d0: 36b5 20bf 64a4 24bf 63f7 173f c0f4 1ebf
000003e0: 0698 113f 886f 1cbf d963 183f bfd9 15bf
000003f0: 8ffc 17bf de07 183f 008f 1c3f 7875 113f

layer_2.bias f4 [300]
0.5760068 0.6231534 0.0021216348 0.6402029 -0.63832134 0.61102265 -0.042091466 -0.041214287
0.024513263 -0.046379834 -0.5591733 0.012864698 0.6296505 -0.014831223 -0.612198 -0.00062817335
-0.58074766 0.6043338 -0.62787426 0.6135471 -0.0015423223 0.017678503 -0.037512578 -0.57057667
-0.5801817 -0.59560543 0.6228174 0.5678648 -0.62020975 -0.028099036 0.62538064 -0.043584406
0.6210454 -0.55176055 -0.62727445 0.6135899 0.5871899 -0.61478174 -0.027648693 0.57229847
0.042323243 -0.6359573 0.5673265 -0.57447034 0.5917649 0.603094 0.032651972 0.5515674
-0.023733038 -0.5819628 0.019018542 -0.551299 -0.0093919635 0.55872554 -0.61718947 0.5616541
-0.042618018 -0.63325655 -0.6134932 0.02860574 -0.63237506 -0.6423272 -0.580576 0.043318685
-0.5564175 -0.026707364 -0.0075458772 3.8586557e-05 -0.031650037 -0.55820185 0.008485667 -0.02925585
-0.041889716 -0.5737531 0.045286436 0.0056410357 -0.60551345 -0.0033619516 0.63013256 -0.033910595
0.02031925 0.632928 -0.63121146 -0.6191111 -0.021695256 -0.0294423 -0.5605713 0.57241
-0.60842013 0.04741692 0.0053838715 0.6492822 0.008910317 0.040716413 -0.600063 0.02884164
-0.5697886 -0.6225263 -0.045771927 0.56039894 0.04615559 -0.6181612 -0.61933756 0.5799199
0.021908734 0.03933033 0.03012519 0.63566357 0.046695117 0.58184457 -0.0104235 0.031853918
0.5816597 -0.018685639 -0.61234456 0.021202799 -0.02731058 0.014289182 0.6012996 0.5747632
-0.019116044 0.028666649 -0.6363653 -0.5547984 -0.009703286 0.04577819 0.62059945 -0.036984496
-0.0037007742 0.013817709 0.01661786 -0.5901268 0.020578694 -0.57822186 -0.603651 -0.5858097
0.6085645 0.043584336 -0.035343617 0.63858634 0.018979821 0.004902698 -0.57705045 0.5966481
-0.04326206 0.03883267 0.01101337 0.64041084 0.0450402 0.5578914 0.6222826 -0.56060207
0.5712793 -0.58038694 0.5610672 0.62662035 -0.043410834 0.029030848 0.0035056993 0.5510497
0.04263187 -0.008712031 -0.56356525 -0.6336406 -0.57979846 -0.5562752 -0.04744233 0.045730975
0.6163986 -0.04540644 -0.039245732 0.551164 -0.57864845 0.016853485 0.57779413 -0.5720339
-0.6383753 -0.5609767 -0.6038693 0.019137386 0.57582784 -0.04664711 0.049627993 0.04692206
-0.008679241 0.018375125 -0.041958965 0.02745052 -0.045296796 -0.6409169 -0.59004843 0.020392518
0.5784714 0.048533093 0.58717436 0.011174012 0.022207294 0.6225382 0.57134277 -0.006222017
0.036451314 0.0010470338 -0.5548134 0.021287251 0.0036857799 -0.573004 -0.5696635 -0.023662925
0.64824975 -0.01768158 -0.010164775 -0.63036895 -0.61599153 -0.034018088 -0.021444201 -0.015740793
-0.6005159 0.62811035 0.018283274 -0.6275167 0.61417323 -0.03582882 0.58109444 0.021037843
0.61911553 0.016935196 0.018882591 -0.013328601 0.04451107 0.5579525 0.038506735 0.6200695
-0.021542763 -0.010332704 0.0041184016 -0.019221384 0.03434215 0.025294375 -0.03471904 0.009122878
0.6449217 0.021908943 0.040038038 -0.57247055 0.04596943 -0.59208137 0.59080356 -0.562426
-0.6209959 -0.029380525 0.5733055 0.03612863 -0.03131306 0.5630582 -0.6275498 0.5739722
00000000: 2f75 133f fb86 1f3f 200b 0b3b 56e4 233f
00000010: 0769 23bf fb6b 1c3f 1a68 2cbd 50d0 28bd
00000020: 0ad0 c83c c8f8 3dbd fb25 0fbf 74c6 523c
00000030: c630 213f a8fe 72bc 02b9 1cbf 00ac 24ba
00000040: e1ab 14bf 9fb5 1a3f 5ebc 20bf 6c11 1d3f
00000050: c027 caba 82d2 903c caa6 19bd 5011 12bf
00000060: ca86 14bf 9979 18bf f670 1f3f 965f 113f
00000070: 11c6 1ebf f32f e6bc f218 203f 9085 32bd
00000080: d5fc 1e3f 2e40 0dbf 0f95 20bf 3a14 1d3f
00000090: 1452 163f 5662 1dbf 837f e2bc 2782 123f
000000a0: 235b 2d3d 19ce 22bf 4f3c 113f 7d10 13bf
000000b0: e87d 173f 5e64 1a3f 13be 053d 8533 0d3f
000000c0: ca6b c2bc 84fb 14bf c6cc 9b3c ee21 0dbf
000000d0: c0e0 19bc a308 0f3f 2100 1ebf 90c8 0f3f
000000e0: 3b90 2ebd 1a1d 22bf e40d 1dbf 9656 ea3c
000000f0: 55e3 21bf 8e6f 24bf a1a0 14bf ef6e 313d
00000100: 6171 0ebf 67c9 dabc 6843 f7bb 00d8 2138
00000110: 78a3 01bd 51e6 0ebf 7807 0b3c f7a9 efbc
00000120: 8d94 2bbd 7ce1 12bf 457e 393d 70d8 b83b
00000130: ee02 1bbf 3054 5cbb 5e50 213f d6e5 0abd
00000140: 8e74 a63c 9207 223f 1397 21bf 117e 1ebf
00000150: 40ba b1bc fa30 f1bc 9a81 0fbf 7689 123f
00000160: 6cc1 1bbf 3f38 423d 306b b03b 5c37 263f
00000170: 94fc 113c 41c6 263d bb9d 19bf 4e45 ec3c
00000180: aadd 11bf e25d 1fbf 587b 3bbd 4e76 0f3f
00000190: a50d 3d3d d03f 1ebf e88c 1ebf a175 143f
000001a0: f279 b33c d718 213d 1ac9 f63c d9ba 223f
000001b0: 6143 3f3d c4f3 143f 54c7 2abc 4179 023d
000001c0: a6e7 143f a012 99bc 9dc2 1cbf 7eb1 ad3c
000001d0: 70ba dfbc 2c1d 6a3c c5ee 193f ae23 133f
000001e0: 4099 9cbc 52d6 ea3c d6e8 22bf 4507 0ebf
000001f0: 88fa 1ebc e981 3b3d 9bdf 1e3f 0e7d 17bd
00000200: b088 72bb ac63 623c 2e22 883c 8d12 17bf
00000210: a694 a83c 5906 14bf df88 1abf a0f7 15bf
00000220: e2ca 1b3f 7d85 323d 78c4 10bd 657a 233f
00000230: 927b 9b3c d0a6 a03b 94b9 13bf eebd 183f
00000240: 8f33 31bd 010f 1f3d 6c71 343c f7f1 233f
00000250: 137c 383d f9d1 0e3f ea4d 1f3f 9e83 0fbf
00000260: 5c3f 123f 3d94 14bf 1aa2 0f3f 316a 203f
00000270: 8fcf 31bd 1ad2 ed3c e0bf 653b 9811 0d3f
00000280: c19e 2e3d e8bc 0ebc d045 10bf 4536 22bf
00000290: ac6d 14bf 0d68 0ebf e352 42bd 6750 3b3d
000002a0: 4ccc 1d3f 1afc 39bd 22c0 20bd 1519 0d3f
000002b0: 4e22 14bf 5210 8a3c 51ea 133f d070 12bf
000002c0: 906c 23bf 2b9c 0fbf 2e97 1abf 02c6 9c3c
000002d0: 7469 133f 0a11 3fbd b946 4b3d 5931 403d
000002e0: 6033 0ebc 6e87 963c 2add 2bbd eadf e03c
000002f0: 2289 39bd 2113 24bf 6a0d 17bf 360e a73c
00000300: b416 143f a3ca 463d 0f51 163f 3413 373c
00000310: 12ec b53c aa5e 1f3f 8543 123f 10e2 cbbb
00000320: f94d 153d a03c 893a 4008 0ebf 9a62 ae3c
00000330: 208d 713b 64b0 12bf 78d5 11bf c0d8 c1bc
00000340: b2f3 253f f6d8 90bc 288a 26bc dc5f 21bf
00000350: 9fb1 1dbf 8d56 0bbd c0ab afbc d6f2 80bc
00000360: 69bb 19bf d7cb 203f cec6 953c efa4 20bf
00000370: 753a 1d3f 3ec1 12bd 9bc2 143f 8e57 ac3c
00000380: 5b7e 1e3f aebb 8a3c aaaf 9a3c 3460 5abc
00000390: 3d51 363d fad5 0e3f 3db9 1d3d e0bc 1e3f
000003a0: 737a b0bc 804a 29bc a8f3 863b 2a76 9dbc
000003b0: 5baa 0c3d 2636 cf3c 8d35 0ebd 2078 153c
000003c0: 9719 253f 627a b33c edfe 233d 6e8d 12bf
000003d0: 714a 3c3d a592 17bf e73e 173f 26fb 0fbf
000003e0: 96f9 1ebf 6daf f0bc 26c4 123f 9dfb 133d
000003f0: 2042 00bd 9524 103f 1ba7 20bf d8ef 123f

ln2.weight f4 [300]
1.6005496 1.6005497 1.6005492 0.3994497 1.6005486 0.39945117 1.6005452 0.39944974
0.39944977 0.3994499 1.6005489 0.39945006 1.6005483 1.6005498 0.39944953 0.39945015
0.39944953 1.6005486 0.39945024 1.6005495 1.6005496 1.6005496 0.3994499 1.6005489
0.3994623 0.39944953 1.6005483 0.3994497 1.600548 0.39945057 1.6005495 0.39945003
0.39945036 1.6005477 0.39945066 0.3994531 1.6005448 0.3994497 1.6005484 1.6005495
0.39944977 1.6005498 0.3994501 1.600548 1.6005486 1.6005497 1.6005263 0.3994525
0.39944994 0.39945003 0.3994498 0.3994496 0.39945325 1.6005491 0.3994498 1.6005497
1.6005496 1.6005491 1.6005464 0.39945343 1.6005496 1.6005495 1.6005492 0.39945117
0.39945143 0.39944977 0.39944986 1.6005499 0.3994498 0.3994496 0.39944986 0.39944994
1.6005497 0.39944977 0.39945018 0.3994496 1.6005481 1.6005489 0.3994505 1.6005495
0.39944968 1.6005497 0.3994497 0.39944953 1.6005492 1.6005497 0.39944953 1.6005492
0.39944947 0.39944953 0.3994499 1.6005491 0.3994499 1.6005492 0.3994497 1.6005492
1.6005496 0.39944986 0.39945176 1.6005464 1.6005496 0.39944947 1.600547 1.6005458
0.39945018 1.6005497 0.39944965 0.39944977 1.6005496 1.6005486 0.39945158 1.6005484
1.6005462 0.3994497 1.6005493 0.39944974 1.6005497 1.6005496 1.6005497 1.6005343
0.3994496 1.6005497 1.6005491 0.3994498 1.6005496 1.6005496 1.6005497 0.3994508
1.6005452 1.6005496 0.3994497 0.39945033 1.600549 0.3994501 1.6005489 0.3994504
1.6005496 1.6005491 0.3994497 1.6005492 0.39944977 0.39944965 0.39944953 1.6005497
0.3994497 0.3994497 0.3994521 0.3994549 1.6005496 1.6005493 0.39945063 0.39945084
1.6005498 1.6005465 1.6005497 1.6005497 0.39944997 0.39945003 1.6005497 1.6005497
0.39945006 0.3994498 0.39944947 1.6005497 0.3994499 0.39945066 1.6005496 1.6005496
1.6005499 0.39944997 0.3994497 0.39945117 0.3994496 1.6005495 1.6005495 0.39945003
1.6005495 0.39945015 0.39944965 0.39945164 0.3994504 0.39944965 0.3994497 1.6005493
1.6005498 1.6005496 0.39944965 1.6005495 0.3994498 1.6005483 0.39944953 1.6005493
1.6005491 1.6005486 1.6005493 1.6005497 0.3994498 1.6005495 0.39945096 0.3994499
0.39944974 0.39944986 0.39944947 1.6005496 1.6005496 0.39944965 0.39944953 0.39945003
1.6005493 0.3994497 1.6005492 1.6005493 1.6005491 0.3994528 1.6005495 1.6005495
0.39944947 1.6005487 1.6005486 0.39945018 1.6005499 1.6005496 1.6005479 1.6005495
1.6005481 1.6005496 1.6005489 0.3994497 0.3994529 0.3994513 0.39945003 0.39945233
1.6005486 0.39944997 0.3994499 0.3994496 1.6005473 1.6005497 0.3994497 1.6005495
1.6005496 1.6005496 0.3994501 0.39944997 1.6005486 0.3994501 0.3994501 0.39945152
0.3994499 0.39945018 1.6005491 0.39944953 0.39945003 1.6005495 0.39945006 1.6005497
00000000: cfde cc3f d0de cc3f ccde cc3f ac84 cc3e
00000010: c7de cc3f dd84 cc3e aade cc3f ad84 cc3e
00000020: ae84 cc3e b384 cc3e c9de cc3f b884 cc3e
00000030: c4de cc3f d1de cc3f a684 cc3e bb84 cc3e
00000040: a684 cc3e c7de cc3f be84 cc3e cede cc3f
00000050: cfde cc3f cfde cc3f b384 cc3e c9de cc3f
00000060: 5386 cc3e a684 cc3e c4de cc3f ac84 cc3e
00000070: c2de cc3f c984 cc3e cede cc3f b784 cc3e
00000080: c284 cc3e bfde cc3f cc84 cc3e 1e85 cc3e
00000090: a7de cc3f ac84 cc3e c5de cc3f cede cc3f
000000a0: ae84 cc3e d1de cc3f b984 cc3e c2de cc3f
000000b0: c7de cc3f d0de cc3f 0cde cc3f 0a85 cc3e
000000c0: b484 cc3e b784 cc3e af84 cc3e a884 cc3e
000000d0: 2385 cc3e cbde cc3f af84 cc3e d0de cc3f
000000e0: cfde cc3f cbde cc3f b4de cc3f 2985 cc3e
000000f0: cfde cc3f cede cc3f ccde cc3f dd84 cc3e
00000100: e684 cc3e ae84 cc3e b184 cc3e d2de cc3f
00000110: af84 cc3e a884 cc3e b184 cc3e b484 cc3e
00000120: d0de cc3f ae84 cc3e bc84 cc3e a884 cc3e
00000130: c3de cc3f c9de cc3f c784 cc3e cede cc3f
00000140: ab84 cc3e d0de cc3f ac84 cc3e a684 cc3e
00000150: ccde cc3f d0de cc3f a684 cc3e ccde cc3f
00000160: a484 cc3e a684 cc3e b384 cc3e cbde cc3f
00000170: b384 cc3e ccde cc3f ac84 cc3e ccde cc3f
00000180: cfde cc3f b184 cc3e f184 cc3e b4de cc3f
00000190: cfde cc3f a484 cc3e b9de cc3f afde cc3f
000001a0: bc84 cc3e d0de cc3f aa84 cc3e ae84 cc3e
000001b0: cfde cc3f c7de cc3f eb84 cc3e c5de cc3f
000001c0: b3de cc3f ac84 cc3e cdde cc3f ad84 cc3e
000001d0: d0de cc3f cfde cc3f d0de cc3f 4fde cc3f
000001e0: a884 cc3e d0de cc3f cbde cc3f af84 cc3e
000001f0: cfde cc3f cfde cc3f d0de cc3f d184 cc3e
00000200: aade cc3f cfde cc3f ac84 cc3e c184 cc3e
00000210: cade cc3f b984 cc3e c9de cc3f c384 cc3e
00000220: cfde cc3f cbde cc3f ac84 cc3e ccde cc3f
00000230: ae84 cc3e aa84 cc3e a684 cc3e d0de cc3f
00000240: ac84 cc3e ac84 cc3e fc84 cc3e 5a85 cc3e
00000250: cfde cc3f cdde cc3f cb84 cc3e d284 cc3e
00000260: d1de cc3f b5de cc3f d0de cc3f d0de cc3f
00000270: b584 cc3e b784 cc3e d0de cc3f d0de cc3f
00000280: b884 cc3e af84 cc3e a484 cc3e d0de cc3f
00000290: b384 cc3e cc84 cc3e cfde cc3f cfde cc3f
000002a0: d2de cc3f b584 cc3e ac84 cc3e dd84 cc3e
000002b0: a884 cc3e cede cc3f cede cc3f b784 cc3e
000002c0: cede cc3f bb84 cc3e aa84 cc3e ed84 cc3e
000002d0: c384 cc3e aa84 cc3e ac84 cc3e cdde cc3f
000002e0: d1de cc3f cfde cc3f aa84 cc3e cede cc3f
000002f0: af84 cc3e c4de cc3f a684 cc3e cdde cc3f
00000300: cbde cc3f c7de cc3f cdde cc3f d0de cc3f
00000310: af84 cc3e cede cc3f d684 cc3e b384 cc3e
00000320: ad84 cc3e b184 cc3e a484 cc3e cfde cc3f
00000330: cfde cc3f aa84 cc3e a684 cc3e b784 cc3e
00000340: cdde cc3f ac84 cc3e ccde cc3f cdde cc3f
00000350: cbde cc3f 1485 cc3e cede cc3f cede cc3f
00000360: a484 cc3e c8de cc3f c7de cc3f bc84 cc3e
00000370: d2de cc3f cfde cc3f c1de cc3f cede cc3f
00000380: c3de cc3f cfde cc3f c9de cc3f ac84 cc3e
00000390: 1785 cc3e e184 cc3e b784 cc3e 0485 cc3e
000003a0: c7de cc3f b584 cc3e b384 cc3e a884 cc3e
000003b0: bcde cc3f d0de cc3f ac84 cc3e cede cc3f
000003c0: cfde cc3f cfde cc3f b984 cc3e b584 cc3e
000003d0: c7de cc3f b984 cc3e b984 cc3e e984 cc3e
000003e0: b384 cc3e bc84 cc3e cbde cc3f a684 cc3e
000003f0: b784 cc3e cede cc3f b884 cc3e d0de cc3f

ln2.bias f4 [300]
0.6005505 0.60055053 -0.6005502 0.6005505 -0.60055006 0.6005496 -0.60054743 0.60055035
0.6005504 0.60055035 -0.60055035 0.6005502 0.60055006 -0.6005505 -0.6005504 0.60055006
-0.6005505 0.6005504 -0.60055035 0.6005501 -0.6005504 -0.6005504 0.6005503 -0.6005504
-0.6005501 -0.6005504 0.6005492 0.6005505 -0.60055035 0.6005499 0.6005505 0.6005503
0.6005505 -0.60055035 -0.6005495 0.60055035 0.60054845 -0.6005501 -0.6005497 0.60055035
0.6005504 -0.6005504 0.6005505 -0.60055006 0.6005503 0.60055035 -0.60053384 0.6005503
0.6005503 -0.6005505 0.6005503 -0.60055035 0.6005479 0.6005496 -0.60054994 0.60055035
-0.6005503 -0.6005504 -0.60054964 0.6005479 -0.60055053 -0.60055035 -0.6005505 0.6005496
-0.60055035 0.60055035 0.6005504 -0.6005504 0.60055035 -0.6005504 0.60055035 0.60055023
-0.6005504 -0.60055035 0.6005501 0.6005505 -0.6005502 -0.60055 0.6005501 -0.60055035
0.60055035 0.6005503 -0.6005503 -0.6005503 -0.6005502 -0.6005504 -0.6005504 0.6005504
-0.60055035 0.6005504 0.60055035 0.60055035 0.6005504 -0.6005501 -0.60055035 -0.60055023
-0.6005505 -0.6005502 0.60054916 0.60055023 -0.6005504 -0.6005505 -0.6005503 0.60055
0.6005501 -0.6005505 0.6005505 0.60055035 -0.6005504 0.6005498 0.6005493 -0.6005497
0.6005483 0.60055035 -0.60055035 0.6005503 -0.6005504 -0.60055035 0.6005504 0.60053915
0.6005504 -0.6005504 -0.60055035 -0.60055035 -0.60055035 -0.60055035 0.6005505 0.6005497
-0.60054743 -0.60055035 0.60055053 -0.60055023 -0.6005501 -0.60055035 -0.6005502 -0.60054964
0.60055035 -0.6005502 0.60055035 0.6005504 0.60055035 0.6005505 -0.6005504 0.60055035
0.60055035 0.6005505 0.60054886 0.6005502 -0.6005504 0.6005495 0.6005503 -0.6005505
0.6005503 -0.6005487 0.60055023 0.6005505 0.60055023 0.60055023 -0.6005504 0.60055035
0.6005503 0.60055035 -0.6005505 -0.6005504 -0.60055035 -0.6005505 -0.60055035 -0.6005503
0.6005505 0.6005503 0.6005505 0.6005496 -0.6005504 -0.6005504 0.6005504 -0.60055023
-0.60055035 -0.60054994 -0.6005505 0.6005493 0.6005505 0.60055053 0.6005505 -0.6005503
-0.6005504 -0.6005505 0.6005504 -0.60055035 0.60055035 -0.60055053 -0.60055035 -0.60055023
0.60055035 -0.6005498 0.6005503 -0.6005505 0.60055035 0.60054946 -0.6005493 0.6005503
0.6005503 0.60055035 -0.6005504 -0.6005504 -0.6005503 -0.6005503 -0.6005503 0.6005502
0.60054976 0.6005504 -0.60055023 -0.6005503 -0.60055035 0.6005486 -0.6005504 -0.60055035
-0.6005504 0.6005491 -0.60054976 -0.60055023 0.60055035 -0.60055035 0.6005497 -0.6005503
0.6005497 -0.6005504 -0.60055 0.60055035 0.6005484 -0.6005491 0.6005503 0.6005503
-0.60054976 0.6005503 0.6005505 0.6005504 -0.60054874 -0.6005505 0.6005503 -0.60055023
0.60055035 -0.6005503 0.6005502 -0.6005503 -0.60055 -0.60055035 0.6005505 -0.6005501
-0.60055035 0.6005502 0.6005504 0.6005504 0.6005503 0.6005503 -0.6005505 0.6005504
00000000: adbd 193f aebd 193f a8bd 19bf adbd 193f
00000010: a6bd 19bf 9ebd 193f 7abd 19bf abbd 193f
00000020: acbd 193f abbd 193f abbd 19bf a8bd 193f
00000030: a6bd 193f adbd 19bf acbd 19bf a6bd 193f
00000040: adbd 19bf acbd 193f abbd 19bf a7bd 193f
00000050: acbd 19bf acbd 19bf aabd 193f acbd 19bf
00000060: a7bd 19bf acbd 19bf 98bd 193f adbd 193f
00000070: abbd 19bf a3bd 193f adbd 193f aabd 193f
00000080: adbd 193f abbd 19bf 9dbd 19bf abbd 193f
00000090: 8bbd 193f a7bd 19bf a0bd 19bf abbd 193f
000000a0: acbd 193f acbd 19bf adbd 193f a6bd 19bf
000000b0: aabd 193f abbd 193f 96bc 19bf aabd 193f
000000c0: aabd 193f adbd 19bf aabd 193f abbd 19bf
000000d0: 82bd 193f 9ebd 193f a4bd 19bf abbd 193f
000000e0: aabd 19bf acbd 19bf 9fbd 19bf 82bd 193f
000000f0: aebd 19bf abbd 19bf adbd 19bf 9ebd 193f
00000100: abbd 19bf abbd 193f acbd 193f acbd 19bf
00000110: abbd 193f acbd 19bf abbd 193f a9bd 193f
00000120: acbd 19bf abbd 19bf a7bd 193f adbd 193f
00000130: a8bd 19bf a5bd 19bf a7bd 193f abbd 19bf
00000140: abbd 193f aabd 193f aabd 19bf aabd 19bf
00000150: a8bd 19bf acbd 19bf acbd 19bf acbd 193f
00000160: abbd 19bf acbd 193f abbd 193f abbd 193f
00000170: acbd 193f a7bd 19bf abbd 19bf a9bd 19bf
00000180: adbd 19bf a8bd 19bf 97bd 193f a9bd 193f
00000190: acbd 19bf adbd 19bf aabd 19bf a5bd 193f
000001a0: a7bd 193f adbd 19bf adbd 193f abbd 193f
000001b0: acbd 19bf a2bd 193f 99bd 193f a0bd 19bf
000001c0: 89bd 193f abbd 193f abbd 19bf aabd 193f
000001d0: acbd 19bf abbd 19bf acbd 193f efbc 193f
000001e0: acbd 193f acbd 19bf abbd 19bf abbd 19bf
000001f0: abbd 19bf abbd 19bf adbd 193f a0bd 193f
00000200: 7abd 19bf abbd 19bf aebd 193f a9bd 19bf
00000210: a7bd 19bf abbd 19bf a8bd 19bf 9fbd 19bf
00000220: abbd 193f a8bd 19bf abbd 193f acbd 193f
00000230: abbd 193f adbd 193f acbd 19bf abbd 193f
00000240: abbd 193f adbd 193f 92bd 193f a8bd 193f
00000250: acbd 19bf 9dbd 193f aabd 193f adbd 19bf
00000260: aabd 193f 8fbd 19bf a9bd 193f adbd 193f
00000270: a9bd 193f a9bd 193f acbd 19bf abbd 193f
00000280: aabd 193f abbd 193f adbd 19bf acbd 19bf
00000290: abbd 19bf adbd 19bf abbd 19bf aabd 19bf
000002a0: adbd 193f aabd 193f adbd 193f 9ebd 193f
000002b0: acbd 19bf acbd 19bf acbd 193f a9bd 19bf
000002c0: abbd 19bf a4bd 19bf adbd 19bf 99bd 193f
000002d0: adbd 193f aebd 193f adbd 193f aabd 19bf
000002e0: acbd 19bf adbd 19bf acbd 193f abbd 19bf
000002f0: abbd 193f aebd 19bf abbd 19bf a9bd 19bf
00000300: abbd 193f a2bd 19bf aabd 193f adbd 19bf
00000310: abbd 193f 9cbd 193f 99bd 19bf aabd 193f
00000320: aabd 193f abbd 193f acbd 19bf acbd 19bf
00000330: aabd 19bf aabd 19bf aabd 19bf a8bd 193f
00000340: a1bd 193f acbd 193f a9bd 19bf aabd 19bf
00000350: abbd 19bf 8ebd 193f acbd 19bf abbd 19bf
00000360: acbd 19bf 96bd 193f a1bd 19bf a9bd 19bf
00000370: abbd 193f abbd 19bf a0bd 193f aabd 19bf
00000380: a0bd 193f acbd 19bf a5bd 19bf abbd 193f
00000390: 8abd 193f 96bd 19bf aabd 193f aabd 193f
000003a0: a1bd 19bf aabd 193f adbd 193f acbd 193f
000003b0: 90bd 19bf adbd 19bf aabd 193f a9bd 19bf
000003c0: abbd 193f aabd 19bf a8bd 193f aabd 19bf
000003d0: a5bd 19bf abbd 19bf adbd 193f a7bd 19bf
000003e0: abbd 19bf a8bd 193f acbd 193f acbd 193f
000003f0: aabd 193f aabd 193f adbd 19bf acbd 193f
