RL/Model_Repository/pytorch_models/TD3_Guest_maybe_actor.pth (torch, 510303 bytes, 5 tensors)

layer_1.weight f4 [400, 15]
00000000: ddfa 4e3e ea16 603e e416 64bd 9ae4 773e
00000010: 363a 64bd 6a49 563d 36c2 f3bd 4226 1c3e
00000020: 46f9 693e 71fa 3abe 914c 6d3e f313 703d
00000030: 8ca6 493e 91f3 373d d9e7 fd3d 7666 f0bc
00000040: b008 533e eb99 393d 513e e8bd 81e3 913d
00000050: fde8 edbd a224 b9bc bca5 cbbd 8278 353e
00000060: 1ddd 48be 3e1b e4bd 766d 86bd ee31 17be
00000070: b025 1c3d 478e 78be 6eff 693e 9f7a 65be
00000080: 828d 473e a21a 1e3d 5399 b7bd 61a2 1e3e
00000090: 4c5b 1a3d c3aa 4f3e 5bb9 a63c 6238 acbd
000000a0: 87fd 8f3d d675 89bd 15c8 d63d cce5 713e
000000b0: e37b 093e 491e ecbd 742a 163e d386 333d
000000c0: 07d8 033e ba98 22be b92e 83be c181 d0bd
000000d0: db3e 4cbe f569 563e ae21 943d d13b d43d
000000e0: 955e a33d e591 d7bb b6f3 4c3e 65c2 3dbe
000000f0: a144 853c 3e73 34be 6b14 a33d 2e15 b6bd
00000100: 4d08 a23d 4156 5cbd 6454 5b3e edb4 1cbe
00000110: 0eaf 1dbe 14a7 1dbe 21d0 6d3e 7e39 b03d
00000120: 2e71 7e3e 757c 59be da13 83be 8973 41be
00000130: 4ca4 24be 7879 f13d 6e63 d83d baf6 663e
00000140: e5bf 00be 6d9a 23be 1e93 173e 77b6 bebd
00000150: a7c1 303e f3bb 4cbd 467a 223e cb98 3dbe
00000160: eba5 e6bd c833 c33d 8397 5f3d 9bd0 86bd
00000170: f199 1d3e d2bd 333e 81bb 3fbe ff26 0dbe
00000180: 781b 723e 4b6e b2bd ed76 bbbd 4fd1 7fbe
00000190: 1769 17be 5618 843d 3091 0bbd dabd 3fbe
000001a0: 353e c73b 999a 34be 0050 60be c997 11be
000001b0: 0367 67be cc59 28be 6925 843e d9bf 473d
000001c0: c4f3 a23d 0299 76be 05a6 2dbe e802 b0bd
000001d0: 1260 253d caa5 68be ccda e3bd 4249 1ebe
000001e0: 1f46 1cbb 0afd cabd b0a0 acbc 7454 36be
000001f0: f3df 37be 98d1 1cbe c2a3 bcbd 6313 53be
00000200: 608e 5a3e 1e82 60bd c571 5f3e 3041 ab3d
00000210: 3219 63be 12c5 343e 6dd3 96bd ed69 d0bd
00000220: 774f 5ebe bdd4 84be bdb1 913d 7d7c 6dbd
00000230: cf6e cc3d 3249 5bbe 39ad 423e 8e32 45be
00000240: 77d3 3fbd c68b 4d3d 8a79 063e c414 533e
00000250: 03e3 6e3e de91 53be 50b6 923d 834a d6bd
00000260: e534 aebc cfe2 3ebe 03eb 743e bf9f 40be
00000270: 255a 193e f20f c23d 6fa0 b43d a287 03be
00000280: 89e0 743e 0f50 823d 38b1 313d 4096 5abe
00000290: 21ce f63d 08a4 51bd c1b0 05be 1500 563e
000002a0: 2701 383d 755d 1abe 9d88 09be 8927 dabc
000002b0: 7885 0b3e 5248 97bd 1e8f 25be 5910 ccbd
000002c0: add7 51be ccac 9f3d 2c70 3e3e ab88 83be
000002d0: f835 853d 04ae 0d3e 47b7 533d 3a60 b2bd
000002e0: a991 0e3e 7e68 0d3e 052d d03d a987 27bd
000002f0: 3ec5 7abd 92eb 043d 29ef 1ebd b2ff 97bd
00000300: 2fb7 2e3e ad38 673e 7769 a2bb dd95 35bd
00000310: 4fff 8b3c ec03 e3ba d0f1 9a3d 1d45 ac3d
00000320: e3a9 67be 1927 a2bd f3b7 6a3e cd90 e63d
00000330: 9d95 3b3b 353c 13be d601 16be e30c 5dbe
00000340: b410 88bd 5ea3 d43d b685 283e 6206 f43d
00000350: 6fc8 69be 3210 1fbe 96ed 26bd d7c2 7f3e
00000360: 880f 183d 18f4 88bd 4ec1 da3d 52de c9bd
00000370: b427 2bbe 93f7 403e 62be f0bd 304d 61bd
00000380: 40c3 83be b9e7 303e 6545 483e 9a9b c03d
00000390: f667 38be 3d79 82be f2bc 56be d5fb 443e
000003a0: d9dd fd3d 1e7c 5e3e 5755 0a3e 1ccc 853d
000003b0: f148 26bb 5f30 49be 842c 65be c6af 77be
000003c0: 298f d83d 3ac4 01be 9ca0 54bd c41c 18be
000003d0: e0b2 40bd e516 3abe 7796 2cbe 2e6a af3d
000003e0: 0025 9dbd 0d65 233e 249b a9bd 72f1 41be
000003f0: 8d26 3abd 9d21 fbbd bd06 a1bd 097f 7bbe
0.20212884 0.21883741 -0.055685893 0.24208298 -0.055719577 0.052316107 -0.11902277 0.15248969
0.22848997 -0.18259598 0.23173739 0.058612775 0.19692439 0.044910017 0.12397737 -0.029345732
0.20608783 0.045312803 -0.11340011 0.07123471 -0.116167046 -0.022600476 -0.09943721 0.17721751
-0.19615598 -0.111380085 -0.06563847 -0.1476514 0.03812188 -0.24273024 0.22851345 -0.22410057
0.19487575 0.038599618 -0.08964791 0.1549163 0.037684724 0.20279984 0.020352056 -0.08409192
0.070307784 -0.067119285 0.10487381 0.23622817 0.13426165 -0.11529214 0.14664632 0.04382975
0.12875377 -0.15878573 -0.25621584 -0.101809986 -0.19945852 0.20938857 0.072329864 0.103629716
0.079770245 -0.0065786713 0.20014843 -0.18531187 0.016268076 -0.17622086 0.07962879 -0.088907585
0.079117395 -0.053793196 0.21418911 -0.15303393 -0.1539881 -0.15395766 0.23223926 0.08604716
0.24847862 -0.21238883 -0.25601083 -0.1889173 -0.160783 0.117907465 0.1056584 0.22555056
-0.12573202 -0.15976878 0.14802215 -0.09312146 0.17261373 -0.04998393 0.15866956 -0.18515317
-0.11262115 0.09531361 0.054587852 -0.06582757 0.15390755 0.1755288 -0.18723871 -0.13784407
0.23643291 -0.08712443 -0.09153543 -0.24982189 -0.14786182 0.06449954 -0.03407401 -0.18724766
0.0060804137 -0.176371 -0.21905518 -0.14218058 -0.2259789 -0.16440505 0.25809792 0.048766945
0.07956651 -0.24081805 -0.16957863 -0.08594304 0.040374823 -0.22719494 -0.111257166 -0.15457633
-0.0023845506 -0.099115446 -0.021072716 -0.17805654 -0.17956524 -0.15314329 -0.09210922 -0.20612864
0.21343374 -0.05481159 0.21820743 0.08362043 -0.2217758 0.17653301 -0.07364545 -0.10176454
-0.21710001 -0.25943556 0.07113979 -0.05798005 0.099820726 -0.2141464 0.19011392 -0.19257566
-0.046832528 0.050182126 0.13132301 0.2061339 0.23328786 -0.20661113 0.071636796 -0.10463431
-0.021265456 -0.18641208 0.23917775 -0.18810938 0.14975794 0.094756976 0.08819663 -0.12844709
0.23913778 0.06362926 0.0433819 -0.21346378 0.12051035 -0.051181823 -0.13055708 0.20898469
0.044922974 -0.15074714 -0.1343102 -0.02663018 0.13625133 -0.07386841 -0.16167876 -0.099640556
-0.2049243 0.0779663 0.18597478 -0.25690207 0.06504434 0.13835913 0.05168846 -0.0870976
0.13922752 0.13809392 0.10164837 -0.04090086 -0.06122326 0.03245122 -0.0388023 -0.07421817
0.17062066 0.22580214 -0.00495642 -0.044332374 0.017089514 -0.0017319894 0.07565653 0.0841162
-0.226234 -0.079176135 0.22921734 0.11258087 0.0028623112 -0.14378436 -0.14649138 -0.21586947
-0.06643811 0.10382722 0.16457257 0.1191528 -0.22830366 -0.15533522 -0.040753923 0.24976669
0.037124187 -0.06687182 0.10681401 -0.09856857 -0.16714364 0.18844442 -0.11755063 -0.055005252
-0.257349 0.17275895 0.19557722 0.09404679 -0.18008408 -0.25483122 -0.20970514 0.19236691
0.1239583 0.21727034 0.13509117 0.065330714 -0.0025373066 -0.19647358 -0.22380263 -0.24188146
0.10574181 -0.1267251 -0.05191098 -0.14854723 -0.04704559 -0.18172796 -0.16854273 0.08565174
-0.07673073 0.15956517 -0.08281544 -0.1893976 -0.04544692 -0.122622706 -0.07862613 -0.24560179

layer_1.bias f4 [400]
00000000: b513 12be 2659 4dbd 2b8e 693e 7612 3cbe
00000010: a2f6 48be b354 46be f75f 773e 9440 07bd
00000020: 2917 95bd 2ead 0e3e cf5f 0fbe 22c4 a9bd
00000030: 7a28 783e 0465 1d3e 889a 4dbe 7d1a 92bd
00000040: 78b8 d23c 8c38 c23d f185 f3bd ffcf 383e
00000050: 25fd feba 7f34 65be 88bf 8d3d 5b04 76be
00000060: 3a97 893c 5e6d 8cbe b777 a0bd f375 76bd
00000070: a7ce 70be 51d7 b5bd 66a7 973b 5ab6 03be
00000080: 4b35 063d 2143 0c3e 5cc3 6c3c c1ff 71be
00000090: 2b95 8cbc 3790 f7bd fe81 823d 9ad6 5bbe
000000a0: 0673 31be 2680 78bc 4967 093e 4161 85bd
000000b0: 4680 e1bc 0763 d2bc 2d83 50be 616d a5bc
000000c0: a732 2b3a 8a4a 743d d5a5 ec3d aafd 803d
000000d0: ee9b 243e 8f4e 68bd 851b e4bd d580 5e3e
000000e0: ffea 433e 483a 113e 3e54 483e 5832 033e
000000f0: 03b3 713e 0b04 673e 24f8 56be 835f 80be
00000100: 6400 06be b09d 373e 2b74 623e 56d9 573c
00000110: 6457 43be 5791 0abe 744c f73d 63b7 763e
00000120: a256 523d 61a7 1dbe 846f 853e 9457 683e
00000130: 4948 02be f144 0fbe 8b86 1f3e af48 3cbe
00000140: 07a5 553e 2d2e 5ebd f9f9 4e3c b27d 04be
00000150: 8b09 8abe 92bd 7e3d 1c62 c0bd 578c 20be
00000160: e217 4d3e 9b49 433d 620f 7dbd dbc7 7cbe
00000170: fceb 04be 73bf acbd a797 003e af1e 63be
00000180: 8aff 113e c370 6b3e 8661 a33d 12a3 82be
00000190: ddf8 c93c 66d7 d9bd 8283 9d3d 14a4 17bc
000001a0: c977 0c3e ae2e 71bc 7695 7f3d 17fc ce3d
000001b0: a053 49be 1dce 4e3d 688b 693e 06e3 333e
000001c0: 01c1 123c 4b8f 0fbd b1de db3d 0379 63be
000001d0: 4b10 abbd a8e0 6b3e 056a f63c a4b0 45bc
000001e0: 0c24 5ebe 7b7b 25be e03e 123d 21a6 35be
000001f0: cd5a 8ebd cba2 11be 0f9c c43d b912 d03c
00000200: ee11 81be c9ee 9f3d 97a1 c9bc 41c1 04be
00000210: 5d23 433e 46a3 2ebe a476 72be bdaa 053d
00000220: dd02 0fbe 3c06 b9bd b87d 66be e861 83bd
00000230: c190 4f3e 4c0f 79be 4b82 34be 8edc 67bd
00000240: bed0 42be d7b8 443d 9f02 53bd 4028 583e
00000250: 11e9 83be dfb2 49bc 75bc f23d 5047 063d
00000260: eadc 83bd 02a4 813e 82f1 57be 8137 7a3e
00000270: 35c2 7b3d adde 0d3e ade2 413e 720b d13c
00000280: 658a e23c 5c2b 62bd fc0d 6ebe 5423 c13d
00000290: 587e 433e 4b27 e03d 12a9 25bd adc6 79be
000002a0: c5c5 3a3c 4c09 9a3d e923 51be 6c9c 5a3e
000002b0: 06e7 5bbc 0deb 9d3d 58f3 703e ea09 e93d
000002c0: 29e9 0ebe 3298 d23d fa47 0d3e c16d 043e
000002d0: 85ca 03be 3b42 a03c a061 47be f7cf 45bd
000002e0: 7a78 37be 76c7 163e 8b57 813e 6fea 75be
000002f0: df42 0bbe 1c38 debd f272 31be 497a 803e
00000300: d6bb 3bbe 8dc9 11be 1014 5ebe 1817 87ba
00000310: 703b 46be 4ed0 32be a750 823e 452c fd3d
00000320: 983c b93d e259 3b3e a55a 0c3d 1666 603d
00000330: 65bb 45be 0b16 b53d 505f 4cbe b7e7 1ebb
00000340: 7419 0fbe d52e 17be 99cf 1cbe ad84 f1bd
00000350: fd04 24be 2a92 1ebe d4b4 c0bd 1ed5 71be
00000360: 14ec 443e 0683 c93d 6e3b 88be ede9 83be
00000370: 6357 04be b23a b03d 3cb4 723e e61d 55bd
00000380: f676 163e 2434 0ebe d780 18bd 194c 22bd
00000390: 3c1d 7bbe f744 893a 5bc5 6f3d 9cab 203e
000003a0: 0d8c 4dbe c476 95bd 580e 293c 827f 583c
000003b0: de92 353d 57fd 4fbe 2a5d 3f3e 1970 6ebe
000003c0: 3d3a cbbd 5fb2 113e 453d 85bd 45b0 04be
000003d0: 4b99 85be ebf2 343e 9e53 babb e701 093e
000003e0: c786 2d3d 26e4 40be 6bab abbd 2165 2e3e
000003f0: 14e2 01be a66e 09be 69c6 0e3e fc4f f6bd
-0.1426533 -0.050133847 0.22808139 -0.18366417 -0.19625333 -0.19368248 0.24157701 -0.03302057
-0.07279808 0.1393325 -0.14001392 -0.082893625 0.2423419 0.15370566 -0.2007848 -0.071339585
0.025722727 0.09483442 -0.11890782 0.18048094 -0.0019454105 -0.22383307 0.06921297 -0.24025099
0.016795743 -0.2742719 -0.07835334 -0.06017108 -0.23516332 -0.08878959 0.0046281097 -0.1286253
0.032765668 0.13697483 0.014450874 -0.23632719 -0.017160973 -0.12088054 0.0637245 -0.21468583
-0.17329034 -0.015167272 0.13418306 -0.0651269 -0.027526986 -0.025681986 -0.2036254 -0.020193757
0.000653068 0.0596414 0.115550674 0.062983826 0.16075107 -0.056715544 -0.111380614 0.21728833
0.19132613 0.14182389 0.19563386 0.12812173 0.23603444 0.22560136 -0.20993096 -0.2507287
-0.13086087 0.17931247 0.22114627 0.0131743755 -0.19076306 -0.13532005 0.12075129 0.24093394
0.05135215 -0.15395881 0.26061642 0.22689658 -0.12722887 -0.13991143 0.15578668 -0.18387102
0.20863734 -0.054243255 0.01263284 -0.12938574 -0.26960406 0.062192507 -0.09393713 -0.15678535
0.20028642 0.047677618 -0.06178225 -0.24685614 -0.12980646 -0.084349535 0.12557851 -0.22179674
0.14257637 0.22992234 0.079775855 -0.25515038 0.0246548 -0.10636787 0.07691099 -0.009255428
0.1371757 -0.014720602 0.062398396 0.10106676 -0.19660807 0.050489534 0.22807086 0.17567071
0.0089571485 -0.035048764 0.107358344 -0.22214131 -0.08352717 0.23034918 0.03007985 -0.01206604
-0.21693438 -0.16160385 0.035704494 -0.17739154 -0.069509126 -0.14222257 0.09600078 0.025399553
-0.25208992 0.078092165 -0.024613185 -0.12964346 0.19056459 -0.17054471 -0.2367807 0.03263353
-0.13965936 -0.09034392 -0.22508895 -0.064151585 0.20270063 -0.24322242 -0.17627828 -0.05660682
-0.19024941 0.04802784 -0.05151617 0.21109104 -0.25763753 -0.012310713 0.118523516 0.032782853
-0.064386204 0.2532044 -0.21088222 0.24435236 0.061464507 0.13854475 0.18934126 0.025518153
0.027653882 -0.055217132 -0.23247522 0.094305664 0.19091165 0.109449945 -0.04044444 -0.24392195
0.011399691 0.075213045 -0.20423855 0.21348733 -0.0134217795 0.07710848 0.23530328 0.11378844
-0.13956131 0.10282935 0.13796988 0.12932493 -0.12870224 0.019562831 -0.19470835 -0.048294034
-0.17917052 0.14724526 0.25262102 -0.2401521 -0.13599728 -0.10850546 -0.17329004 0.25093296
-0.18333372 -0.14237042 -0.2168734 -0.0010306565 -0.19358611 -0.17462274 0.25452158 0.12361959
0.090447605 0.18296006 0.034266133 0.054784857 -0.19309767 0.08842095 -0.19958234 -0.0024247
-0.13974553 -0.14763959 -0.15313567 -0.11792884 -0.16017528 -0.15485445 -0.0940949 -0.23616454
0.19230682 0.09839444 -0.2660784 -0.2576441 -0.1292396 0.08604945 0.23701566 -0.052030466
0.14693817 -0.13887078 -0.037232246 -0.039623354 -0.24522871 0.0010472824 0.058537822 0.15690464
-0.20072956 -0.07298043 0.010318361 0.013213994 0.044329517 -0.20311485 0.18687883 -0.2328495
-0.099232174 0.142282 -0.06505827 -0.12957866 -0.26093516 0.17670791 -0.0056862375 0.13379632
0.04236486 -0.18837032 -0.08382305 0.17030765 -0.12683898 -0.13421115 0.13942875 -0.120269746

layer_2.weight f4 [300, 400]
00000000: 1f92 e83c f491 94bc 08a9 1c3d 6e56 87bc
00000010: 3b35 8d3c 513c 7b3c 5a7f 263d 6106 ccbb
00000020: 2a6f 7fbc e731 04bc 6f57 0e3c 78c7 b1bc
00000030: 5d04 253d 2db9 3ebc 41da 4f3c a4e4 0abd
00000040: 2766 abba 39a2 d6bb 9437 77bc 0a64 f73c
00000050: 0b6b 0bbd f953 1e3c 566f b6b9 256c 33bc
00000060: 769d 2e3d 5597 103d 652b 533c b512 bd3b
00000070: 239f f23c ec71 a4bc 28f5 05bd e667 803d
00000080: 3752 6ebc 3ff5 533c 4460 223c 403b 6a3d
00000090: 3b4a 583d 5946 f2bc 6f1c d63b 7180 09bd
000000a0: db70 233d 8c25 643d aafc 8cbc 6b5c cc3c
000000b0: 6647 15bc 22d5 01bc bd41 433d d6f1 2bbd
000000c0: 723c ee3a 434d 753c f173 20bd e8be b73c
000000d0: 8396 423d e2ef 1abd 8c77 c63c fc9b abba
000000e0: cfa1 473d 18c7 2fbd 3592 513d 0f38 77bc
000000f0: 2291 563d 56c9 b6bc 44b9 5b3c 60c9 973c
00000100: bc09 3c3d 4ba0 d53c a59e f43c 30da fbba
00000110: f57a 10bd 10ad 233b 408b 423d 650d 453d
00000120: 134c 9abc 8bce 4a3d 1c32 1a3d edbf 88bb
00000130: a178 f03c cf40 323b 1f28 783c 1a65 efbc
00000140: bbec 42bb 365b 503d 9b88 3c3d 3a0a dbbc
00000150: e2b6 6dba 1117 283d 088c 9fbc 323d bf3a
00000160: 6cd1 db3c 0849 3f3d c2ed 623d 2b66 e3bc
00000170: e329 03bd 9211 253d 868c e33b 1169 5a3d
00000180: 7d47 2e3d 2898 2bbc 7cbf 9d3c 7bc4 d73c
00000190: 3f1f 33bc dad6 3f3d dcaa 393c 5d3a 3dbc
000001a0: baec 19bd d960 513d 0800 0bbd 591d 313d
000001b0: 41e1 7ebc fb29 8c3b 9a35 0e3c 12aa 5b3d
000001c0: 8371 f7bc 897c 81bc f31a 0e3d 743b 1cbc
000001d0: 66d5 30bc d0d3 193d 9313 52bc 52ba 0f3d
000001e0: ce3c 57bc 02a4 5a3d 3f43 603d e836 993c
000001f0: d694 4ebb 56fa f93c 3181 f63c 50ba 093b
00000200: ba92 3e3d 312a feb8 3dc4 b23c a119 96bb
00000210: f42a 90bb 083b b53a 9f1b 3d3c 9f7d 023d
00000220: 1aee 2b3d 47cc 1b3d 2534 36bc c40b 483d
00000230: 18ac 353d d01d d73c f7fd 643c 1164 bfbc
00000240: bbed 73bc a35e 993b 9325 07bd 558c 053d
00000250: ab49 19bd 0467 1fbd b605 f4bb c976 fb3c
00000260: a322 423d e1bb dbbc 33f1 bfbc 16af d03c
00000270: fdb8 92bb a401 d4bc a645 b93c 63aa 16bd
00000280: 7b5d 023c f29a b63c e7d1 5d3d 6c05 27bd
00000290: d4be 203d 7871 673c 0d1a 463d b15a 603d
000002a0: d2d3 2e3b cd4a 2f3a a12e 26bc dcbb 413d
000002b0: ee52 37bc f770 3b3d 565a 0b3d 608f 813d
000002c0: e689 243d 42a1 5c3d 7c76 20bd ae49 b1bc
000002d0: e97a dcbc 87b6 da3c c529 993c a08a bb3c
000002e0: 0f37 c23c 7ea6 df3b 7ac6 c43c 0358 46bc
000002f0: 9fc6 0c3d d1a6 f6bc 685f 05bd 0ae2 033d
00000300: 70db 753d ac07 0ebc 2eac 483d d7ac 52bc
00000310: a1d5 13bd 6366 66bb 0613 f23c 4cc6 8ebc
00000320: f6b6 5c3d 832d 8fbc 5d7d a5bc e929 4fbc
00000330: 3703 13bd 50e2 823d c36e 5ebc 0d14 98bc
00000340: f8ed 27bc e276 3c3d 23a0 ce3c 53cf c73c
00000350: 38e4 1ebc fd75 de3c 6a71 633c c403 343d
00000360: 1c51 553c c1ca 533d 860c 223d f651 523c
00000370: 3db3 37bd 0da1 453c 9cea 0abd 187b 2b3c
00000380: ae5c 323b 0182 343d 99f2 acbc b2cc 20bd
00000390: e3ba 103d 5000 1b3d 1c4d 00bb 232d 943c
000003a0: 2050 373d 01ca 663c 5353 1cbc 524e fc3c
000003b0: 0c24 4b3d bb3f 4a3a d4ad 123d cd2a 093c
000003c0: bdf6 dabb 2877 843b bd78 38bd 9c01 f13c
000003d0: e8a1 9dbc 0b1d 22bd d55a 10bb 1e3d 70ba
000003e0: 3b03 e3bc 3dee ad3a 4a77 893b 66f3 8b3c
000003f0: 6909 383c a9b8 d23a eccf 3d3c a901 ddbc
0.028389988 -0.018136002 0.03824714 -0.016520705 0.017237296 0.015334205 0.040648796 -0.0062263464
-0.015590468 -0.008068538 0.008687838 -0.02170156 0.040287364 -0.011640829 0.012686313 -0.033909455
-0.0013076708 -0.0065501 -0.015088934 0.03019907 -0.03403763 0.009663575 -0.00034796697 -0.010951077
0.042630635 0.03530057 0.012888764 0.0057700523 0.029616898 -0.020073853 -0.032704502 0.06269817
-0.014545969 0.012936889 0.009910647 0.05718541 0.052805167 -0.02957456 0.0065341513 -0.033569757
0.03990255 0.05569987 -0.017210323 0.024946412 -0.009111261 -0.00792435 0.047670115 -0.04197868
0.0018175973 0.014972034 -0.03917307 0.022429898 0.04750682 -0.037826426 0.024226926 -0.0013092752
0.048738297 -0.04291448 0.051164825 -0.015089049 0.052384503 -0.022312801 0.01341087 0.01852864
0.04590772 0.02607741 0.029860804 -0.0019214805 -0.03527351 0.002497498 0.04749608 0.048108477
-0.018835103 0.04951338 0.037645444 -0.00417327 0.029354395 0.0027199273 0.015146284 -0.029223014
-0.0029743153 0.050868236 0.046028715 -0.026738275 -0.0009068084 0.041037623 -0.019475952 0.0014590381
0.026833259 0.046700507 0.055402525 -0.027758678 -0.03202237 0.04029996 0.006944242 0.053322855
0.042548645 -0.010473289 0.019256346 0.026338806 -0.010932743 0.046835758 0.01133224 -0.011549559
-0.037579276 0.05111775 -0.033935577 0.04324088 -0.015556634 0.0042774654 0.008679772 0.05362899
-0.030205494 -0.015806453 0.03469367 -0.009535659 -0.010793066 0.037555516 -0.01282205 0.0350898
-0.013137056 0.053379066 0.05475163 0.01870294 -0.0031521819 0.030514877 0.0300909 0.0021015592
0.046526648 -0.000121195226 0.02182209 -0.004580692 -0.0043996517 0.0013826797 0.01154223 0.031858083
0.04197512 0.03803661 -0.011120831 0.048839346 0.044353575 0.026259333 0.013976566 -0.023363145
-0.014888222 0.004680471 -0.032994818 0.032604534 -0.03742377 -0.038916603 -0.00744697 0.03069629
0.047396313 -0.026822986 -0.023430442 0.025474112 -0.0044776187 -0.025879689 0.022616219 -0.036783587
0.007956858 0.02229068 0.054155257 -0.040776655 0.039244488 0.014126174 0.048364688 0.05477399
0.0026676548 0.00066868664 -0.010142953 0.047298297 -0.011189206 0.04576203 0.034021698 0.06326175
0.040170573 0.053864725 -0.039175496 -0.021641579 -0.026914077 0.026698364 0.018696675 0.02289325
0.023707895 0.0068252673 0.024020422 -0.012105945 0.034369107 -0.030108841 -0.03256169 0.03219799
0.060023725 -0.008668821 0.04899233 -0.012858591 -0.036092404 -0.0035156242 0.029550087 -0.01742854
0.053885423 -0.017477756 -0.02020138 -0.0126442695 -0.035891738 0.06390822 -0.013576212 -0.018564248
-0.010249607 0.046011813 0.025222844 0.024390852 -0.009697966 0.02715587 0.0138820205 0.043948904
0.013019826 0.051707033 0.039562725 0.012836924 -0.04484867 0.012062323 -0.033915147 0.01046636
0.0027215886 0.044069294 -0.021111773 -0.039257713 0.03533448 0.037842095 -0.001957721 0.01808793
0.044754148 0.014086247 -0.00954135 0.030799065 0.049594924 0.0007715185 0.035810307 0.008372021
-0.0066822455 0.004042525 -0.04503702 0.029419713 -0.019242242 -0.03957848 -0.0022026796 -0.00091643806
-0.027711501 0.0013269853 0.0041951286 0.017083835 0.011232712 0.0016076762 0.011585217 -0.02697833

layer_2.bias f4 [300]
00000000: c960 88bc 4466 9c3c 8e3b a4bb 4cee 793d
00000010: f9f5 3cbd 807a c63c c6c2 52bd 1498 08bd
00000020: d121 933c 4d45 47bd cfd0 0b3d 7916 fc3b
00000030: 4866 bb3c 6fda bfbc 5780 22bc 0820 37bb
00000040: 633a 4e3c dbfe ce3a c6b1 13bd 5288 0c3d
00000050: f224 1cbc ecc1 1c3c 27e2 32bd 0225 163d
00000060: b4a2 3e3c 4a95 15bb 9337 c33c 2422 1ebd
00000070: eca7 e8bc d19c 09bd 5945 9b3c 7fd3 2dbd
00000080: 49a5 663c 0c95 243d 7316 10bd 335f 023c
00000090: 252e 7ebc d505 babc b01f 11bd 0258 d6bc
000000a0: a4ac 323d 431e 34bd 5675 1ebd de81 e33c
000000b0: e9e0 6ebb f225 2a3c 73e0 053d 12cd 61bd
000000c0: 0849 f6bc 0c57 b83c a3cc 1e3d 732f 263d
000000d0: 2b8c 70bc 376f debc 1104 c6bc 77ea 25bd
000000e0: 84a9 24bd f980 21bd 439b 9fbc e38d bf3c
000000f0: e3d8 25bd 1f75 29bd 8096 543c 6c23 843d
00000100: ce2c 413d 50af fdbc 8aa3 35bc c347 0dbc
00000110: 43ae f7bc 983a 0a3d 1a20 f13c a347 12bd
00000120: abce 4cbd d2d7 bc3c da4f 3f3d 834e 5e3a
00000130: ade5 2bbb a8e0 49bc 85ce 173d 7a81 2cbd
00000140: a29d 263d 4169 013d f429 13bd 9c45 e0bc
00000150: d959 b7bc ad0c 1cbd 1e43 043d 9634 a4bc
00000160: 9a0b f1bb 968c 343d 23f0 cb3b 61df 4f3d
00000170: b5f0 223b 9fd1 093d fb6a 07bc 36ce a43c
00000180: ad69 b43c 16dc fcbc ac6c 52bd f68e 10bd
00000190: 1178 283d 1540 cabc c388 78bc b4ec dabc
000001a0: fe0f ef3c 4652 103d 933f 533d ac97 303d
000001b0: 6ec5 213d a5c9 53bc 742e 37bc 167c d83c
000001c0: 072d e4bc 98e4 86bc 80a2 9cbc d643 713c
000001d0: bb1e dabc c705 4a3c b261 0d3c c9b9 d8bb
000001e0: 6ae2 b1bc 105f a83c 4d13 2ebd f1c5 253d
000001f0: 797a 8abc 7f16 433d 450c 143d 665d 81bc
00000200: 3252 37bc b86f a93b ad63 963c a805 0f3b
00000210: a84b 3f3c 474b 5e3c 2024 3bbc c018 ba3b
00000220: f6be e13a c1fa 0d3d 0bfe 1dbd 77bc 023d
00000230: 0732 a73c a912 543c 14a8 ef3c 3e9d 27bc
00000240: 60d5 29bd ff73 053d a2fe 003d e989 7a3d
00000250: ff72 143d 5873 31bd 9f27 7c3c 08e3 303d
00000260: 284a 12bd 4836 303c 0561 3bbd 2725 0b3d
00000270: 8da6 12bd 8425 373d ca27 8dbb f4bd 60bd
00000280: 0e68 283d b4be 3dbc 5d8d 263d dc0a 2abd
00000290: 11f6 433c 45a3 113d ab96 31bd 4b3a 173d
000002a0: 44a4 c33c 0c5b 40bd 3fb1 93bc e1f5 61bd
000002b0: 77c8 613c 25fa 213c f050 eebc 2955 a13c
000002c0: 8030 3dbd 2fed 273d c85a f7bb 6c19 673c
000002d0: 0ba6 bfbc 816b 1ebd 2792 393d 60a8 4d3d
000002e0: c090 8ebc 0871 1e3c 4667 3fbd c933 a53c
000002f0: b47f 19bd 8897 48bd c95e f53a 795c 913c
00000300: 55b8 67bc 1148 263d e100 aebb d7cb 813c
00000310: 31a9 723c 5256 2e3d 49da 1cbd c02c 95bb
00000320: eec6 6c3d f268 313b 9df1 2c3d 80eb 853c
00000330: e0be 8f3b 4212 b53c 32a7 c13c c06a f6bc
00000340: ef63 3e3d ff0f aebc fdf2 9bbc a782 13bd
00000350: 60e8 c5bc 68c1 56bc b8bb f6bc b230 51bc
00000360: c4b6 dabb 330c 473d ce26 953c 8e28 c6bc
00000370: 9797 783c 2442 34bd cb6c a2bc 39f3 473c
00000380: b9f7 9f3c 23cf 073c a7eb 213c 2a98 a3bc
00000390: 9d9e 853d 24da 44bd 3622 753d 4d28 673c
000003a0: 42c3 edbc 227c 333c a603 893a 253e 38bc
000003b0: a2db 163d 4970 fc3c cbf2 27bd 612f 433c
000003c0: eb50 823d e35c 6f3c 12a6 0e3d ddb5 023d
000003d0: 1501 193d b0d5 aa3b 386e eaba 2221 ef3c
000003e0: e60f 01bd cb86 0ebd 3472 9dbc a8c8 573d
000003f0: 09f7 09bd 32c7 fabc d1bf 10bd 15ff 03bd
-0.016647713 0.019091733 -0.0050119823 0.061018273 -0.046133015 0.024228334 -0.05145528 -0.033348158
0.01796046 -0.048650075 0.034134682 0.0076931086 0.02287592 -0.023419587 -0.009918294 -0.0027942676
0.012587163 0.0015792506 -0.03605821 0.034309693 -0.009530293 0.009567719 -0.043672707 0.036656387
0.011635471 -0.002282458 0.02383021 -0.038606778 -0.028400384 -0.033596817 0.018953966 -0.042438027
0.014077493 0.040181205 -0.03517766 0.007957268 -0.015513931 -0.022707859 -0.03543061 -0.026165012
0.043621674 -0.043974172 -0.03868612 0.027771886 -0.0036449975 0.010385023 0.032684755 -0.05512721
-0.03006412 0.022502445 0.038769376 0.040572595 -0.014681856 -0.02715264 -0.02417186 -0.040506806
-0.040200725 -0.03942964 -0.019483214 0.023383087 -0.040490042 -0.04137146 0.012975335 0.06452069
0.04716187 -0.030967385 -0.011086354 -0.008623066 -0.030234462 0.033747286 0.029434253 -0.03571285
-0.05000178 0.02305213 0.04670701 0.0008480327 -0.0026229427 -0.012321629 0.037062187 -0.042115666
0.040677674 0.03159452 -0.03592868 -0.027376942 -0.02238171 -0.038098026 0.03229057 -0.020044606
-0.0073561193 0.044079386 0.006223695 0.05075014 0.002486271 0.033647176 -0.008265252 0.02011786
0.022023046 -0.030866664 -0.05137317 -0.03529259 0.04113013 -0.02468876 -0.015169325 -0.026724197
0.02918243 0.035234712 0.0515743 0.043113396 0.039494924 -0.012926494 -0.011180509 0.026426356
-0.027853502 -0.016466424 -0.019120455 0.014725646 -0.026625982 0.012330479 0.008629249 -0.006613944
-0.021714408 0.020553142 -0.042498875 0.040471975 -0.016904103 0.047628876 0.036144514 -0.015791606
-0.0111890305 0.0051707886 0.018358076 0.002182344 0.011675753 0.013567752 -0.011422187 0.00567922
0.0017223048 0.034662966 -0.038572352 0.031918015 0.020409597 0.012943902 0.02925495 -0.010230361
-0.041463256 0.032581326 0.031492837 0.061166678 0.03624248 -0.04332289 0.015390306 0.043185264
-0.035715252 0.010755129 -0.045746822 0.033970978 -0.035803366 0.044713512 -0.0043077217 -0.054868653
0.04111486 -0.011581112 0.04066216 -0.041514263 0.011960522 0.035556097 -0.04335658 0.036920827
0.023882039 -0.04696183 -0.018028853 -0.05516613 0.013780705 0.009886299 -0.029091328 0.019693928
-0.04618883 0.04099768 -0.0075486638 0.014105182 -0.023394605 -0.038676742 0.045305397 0.050209403
-0.017403007 0.009670503 -0.04672935 0.020166295 -0.037475303 -0.048972636 0.0018720265 0.01774429
-0.014143069 0.04059607 -0.0053101634 0.015844269 0.014810846 0.04256279 -0.03829411 -0.0045524538
0.0578069 0.002707061 0.042222608 0.016347647 0.0043867677 0.022103433 0.023639295 -0.0300802
0.046482023 -0.021247862 -0.019036764 -0.03601327 -0.024158657 -0.013107635 -0.030118808 -0.0127679575
-0.0066746194 0.04859562 0.01820698 -0.02418926 0.015172861 -0.04400839 -0.019827267 0.012203985
0.019527303 0.008289131 0.009882844 -0.019970018 0.06524394 -0.048059598 0.05984708 0.01410873
-0.02902377 0.010954889 0.0010453358 -0.011245285 0.036830552 0.03081526 -0.04100303 0.0119131515
0.0636309 0.014609548 0.034826346 0.03191172 0.037354548 0.005213462 -0.0017885631 0.029190604
-0.031509303 -0.034796517 -0.019219495 0.052681595 -0.033682857 -0.030612562 -0.03533918 -0.032225687

layer_3.weight f4 [1, 300]
00000000: 638a 613d be9a 813d 56a0 ebbb 8d21 943d
00000010: ca72 a0bb 5309 ac3c ec01 cb3b bbbc 183d
00000020: 3ba0 153d 3d22 173d f83b a1bc b521 1b3c
00000030: 5810 ea3b 79e9 3bbd 90fd 9abc 32b0 bd3c
00000040: 4772 49bd cf01 0e3d a1dc ffbc c1bd 133d
00000050: 84d6 bebc 4e6f 02bd 685a 803c 8802 56bd
00000060: 75e8 59bb 07ec 18bd 338a 6c3c 6811 283d
00000070: add8 0ebd 03bc 6e3c d568 5f3d fbe7 9a3c
00000080: 4dbe 513d 4f97 d8bb e834 323b c635 ad3c
00000090: 49bc 8f3c b58c 6c3a a69f 073b b456 453d
000000a0: ca41 523d 1f05 4ebd ec79 753d 44d8 4a39
000000b0: 066f 8f3c 2fa4 313d 745a 5b3c 1ddb e73c
000000c0: 6f2d 6b3c ff75 1fbd 412e 713d 3ba2 15bd
000000d0: 30bd 7cbb ea53 df3c 5e7e 0d3b f8c0 553d
000000e0: 31e8 a9bc af5b 3abd d64d ab3a 62c5 7dbb
000000f0: 34ba 30bd c63c 19bc 3d01 d4bc 5e5d f03c
00000100: 3c7a 9fbc 78a2 3e3d 26ec 093d 0b01 48bd
00000110: 4679 2b3d 6ed3 11bd 7040 583d 8dc8 453c
00000120: 4ad0 2fbd 285a 30bd 8143 943c 2383 0e3d
00000130: e035 02bc 7d9b 02bb 7690 b83c ff1f 9dbc
00000140: 3dc3 693d c567 003d 6280 59bc 2c0f 5dbc
00000150: 9607 d63b 386e 1cbd 5467 40bd d89f 783d
00000160: 0de7 43bc df48 903d da86 d03c c180 323d
00000170: 4cf2 cb3c ce6b 6d3b 3b77 0dbd 1a15 f4bb
00000180: d81c f9bc af4b 1ebc d80b 19bb 8572 833c
00000190: d1f7 e0bc 36dd 31bd 3c23 81bc 6609 b43b
000001a0: 2eb3 9f3c b8a0 02bd 52b3 a03d 6ef2 863d
000001b0: e44e 41bd 1bdc 5b3c 0502 413c bf8e b4ba
000001c0: e6d7 d23b e4e5 323d a5bf 0abd 24d3 ca3c
000001d0: 8bbb 05bd bfc1 d0bc 2922 2c3d 07d2 c23c
000001e0: 407c 8b3d 8c0f 3ebd 56b0 a5bc befd 39bc
000001f0: 46d0 0cbd 74eb 56bc 9afb 9e3d c74b f83c
00000200: afaa be3b c430 07bd 5744 813d 8802 65bc
00000210: 225c edbb 14b4 1bbd f929 79b9 b68e 563b
00000220: d707 5d3c 208d eabb 6c84 593d c64e 673d
00000230: 186c 2d3d f027 703d 92f7 16bd 0fc4 173d
00000240: 0dad 243d 9daa 353d 5562 d83c 7965 243d
00000250: ace6 82bc 020e 963c 1956 a83c 7bf3 98bc
00000260: 7c35 7e3c 7f60 a43b c5e0 5d3c d7b0 4d3d
00000270: 54d0 e53c 7b71 2c3d cb76 33bd 172f 823d
00000280: 7ae4 0c3d af43 203d 3dad 24bd 5811 e8bc
00000290: 4716 bcbc ebe7 14bd 1f99 9dbc 4c3b d0bc
000002a0: 2c3a 863d 6340 f03c fdb9 953d b3ef 97b8
000002b0: d22d f6bc 54ab b9bc 714f 0a3d 304b 82bc
000002c0: 50af 9bbc 2136 163b c5ae 03bd 156a 2f39
000002d0: e09b 3b3d 994f 643d dbc9 403d 2bb3 44bc
000002e0: f403 2ebd 708e 2fbd 4336 7c3d 8438 ddbc
000002f0: 62d2 1a3d 724a 1fbd 049c 0dbd c20d de39
00000300: 9b72 693d 3ac7 9d3b a907 d83c 0ce0 2cbd
00000310: 4761 a33c bdf3 e33c a2f3 8a3b 6b44 003d
00000320: 682b 643d 9086 073d 6049 14bd 2e60 20bd
00000330: 86d2 dbbb 6a87 88bc 8092 05bc e47a 3b3c
00000340: 0d1c dc3b 6bfc 8c3d 7241 15bc 7bc1 bdbc
00000350: 57f6 d3bc 1955 d53c c918 c4bc 0783 58bc
00000360: fa92 49bd 4bba df3c 8499 3c3c 1f38 13bc
00000370: f9f2 1e3d c9ea 09bc c44a a33c 6de6 3dbc
00000380: f0cb 4f3c 94fa 07bd 6ac5 88bb c3e1 2c3d
00000390: 256b d13c 8bb2 743b fd6d 373d a5bc d03c
000003a0: f1ff 86b7 db84 343d 841f 2b3d 444b 6a3d
000003b0: 0882 263c 0513 0fbd 6d0b 2d3d 2516 16bc
000003c0: c690 5c3d 2f2b ecbc 2c4f 2b3c 21fa 8abc
000003d0: 2072 063b dfdc f2bc 607b 693d e781 a6bb
000003e0: 4457 29bc da6c 1f3c 2871 533d 0d05 893d
000003f0: 52cf 013d 8359 303d 1898 88bc 5b6b 2a3d
0.055063616 0.06328343 -0.0071907444 0.07232962 -0.0048964964 0.02100054 0.0061952975 0.037289362
0.03652976 0.036897887 -0.019681916 0.009468486 0.0071430616 -0.045876954 -0.018919736 0.023155306
-0.04918125 0.034669694 -0.031233134 0.036069635 -0.023295648 -0.03184443 0.015668109 -0.052248508
-0.0033250127 -0.03733447 0.014437246 0.041032225 -0.034874607 0.014571193 0.054543335 0.018909445
0.051206876 -0.0066098343 0.002719218 0.021143805 0.017545836 0.00090236525 0.0020694523 0.04817839
0.051332273 -0.050297853 0.059930727 0.00019344786 0.017508995 0.04336947 0.013388265 0.028302724
0.014354094 -0.03893089 0.058882 -0.03653167 -0.0038564913 0.027261693 0.0021590213 0.052185982
-0.0207406 -0.045497593 0.0013069462 -0.0038722386 -0.043146327 -0.009352868 -0.025879497 0.029341396
-0.019467466 0.04654166 0.033672474 -0.04882912 0.041863702 -0.035602026 0.052795827 0.012071741
-0.04292325 -0.04305473 0.018098595 0.03479303 -0.007947415 -0.0019929104 0.022529822 -0.019180296
0.05707096 0.031348962 -0.013275238 -0.013492387 0.006531666 -0.03819105 -0.04697354 0.060699314
-0.011956942 0.07045149 0.025454927 0.04357982 0.02489581 0.0036227587 -0.034537535 -0.0074488046
-0.030409262 -0.009661599 -0.0023353007 0.016045818 -0.027461918 -0.043423854 -0.015763871 0.0054942844
0.01949462 -0.031891555 0.07846703 0.065892085 -0.047194377 0.013419176 0.011780267 -0.0013775452
0.0064344285 0.043676272 -0.033874173 0.024758883 -0.032649558 -0.02548301 0.042024765 0.02378179
0.06810808 -0.046401545 -0.020225685 -0.011352001 -0.034378313 -0.01311766 0.07762833 0.030309571
0.005818687 -0.03300549 0.06311863 -0.013977654 -0.007243649 -0.038013533 -0.00023762127 0.003273887
0.013490639 -0.0071579367 0.053104803 0.05647161 0.042339414 0.058631837 -0.036857195 0.03705221
0.040204097 0.044352163 0.026414076 0.040135834 -0.015979134 0.018317226 0.020548867 -0.018670788
0.015515681 0.005016386 0.013542359 0.050217476 0.02805344 0.04210041 -0.04381446 0.06356638
0.03439758 0.039127048 -0.040204275 -0.028328583 -0.022959841 -0.036353987 -0.019238053 -0.0254189
0.06554064 0.029327577 0.07310865 -7.2448885e-05 -0.030051146 -0.022664703 0.033767167 -0.015904993
-0.019004494 0.0022920447 -0.032149095 0.00016728819 0.04580295 0.055739973 0.047067504 -0.012005608
-0.04248424 -0.04286045 0.061575186 -0.027004488 0.037798293 -0.038889356 -0.034572616 0.0004235339
0.056994062 0.0048150094 0.02637084 -0.042205855 0.019943846 0.027826184 0.004240469 0.03131525
0.055705458 0.033087313 -0.03620279 -0.039154224 -0.006708446 -0.016666133 -0.008152604 0.011442874
0.006717211 0.068840824 -0.009109842 -0.023163548 -0.0258743 0.026041554 -0.0239376 -0.013214833
-0.049212433 0.027310511 0.01151121 -0.008985548 0.038805936 -0.008417794 0.019933112 -0.011590582
0.0126829 -0.033197954 -0.004173924 0.04220749 0.025563786 0.0037337865 0.044782627 0.025480578
-1.6093227e-05 0.044072013 0.041778103 0.057200685 0.010162838 -0.034930248 0.042247225 -0.009160553
0.053849004 -0.028829185 0.010455888 -0.016964974 0.00205148 -0.029646335 0.057002425 -0.0050814035
-0.010335747 0.009730542 0.051621586 0.066904165 0.031691857 0.043054115 -0.016674086 0.04160629
