RL/Model_Repository/pytorch_models/TD3_Guest_get_actor.pth (torch, 495903 bytes, 5 tensors)

layer_1.weight f4 [400, 6]
0	0x3ef276cc	0.4735626
1	0x3efee691	0.49785283
2	0x3d8ecf54	0.069731385
3	0x3f0c1b02	0.5472871
4	0x3e1cd407	0.15315257
5	0x3e5226d5	0.20522626
6	0xbe5a64c9	-0.21327509
7	0x3e6796ac	0.2261607
8	0x3eaf666c	0.3425783
9	0xbe9dab3f	-0.30794713
10	0x3f0a803f	0.5410194
11	0xbdad4343	-0.08460095
12	0x3ea9a230	0.33131552
13	0x3dbdd35f	0.092688315
14	0x3e650f03	0.22369008
15	0xbcf03fac	-0.029327236
16	0x3ebd66f5	0.36992612
17	0xbd26c5cd	-0.04071598
18	0xbe1e9a85	-0.15488632
19	0x3e0ea137	0.13928686
20	0xbe1a7bc9	-0.15086283
21	0xbc630d39	-0.013858133
22	0xbe691e7c	-0.22765535
23	0x3ee39475	0.444492
24	0xbe9c7833	-0.30560455
25	0xbe2c3d29	-0.16820206
26	0xbdca0727	-0.098646455
27	0xbe663dac	-0.22484463
28	0x3e0b1e6c	0.13585824
29	0xbf0e888f	-0.5567712
30	0x3ec64de8	0.38731313
31	0xbeab6b8c	-0.3348049
32	0x3eac90cb	0.33704218
33	0x3db7dde4	0.08977869
34	0xbdf67919	-0.12034816
35	0x3ece05a8	0.4023869
36	0xbcabbbcc	-0.020963572
37	0x3e7d025e	0.24707934
38	0xbd2286a8	-0.0396792
39	0xbe5cf2fa	-0.21577063
40	0x3cbc3f90	0.022979528
41	0xbe4af082	-0.19818309
42	0x3e0f9f5d	0.14025636
43	0x3ea9c1f6	0.33155793
44	0x3e4fee8c	0.20305842
45	0xbe56834b	-0.20948522
46	0x3ea08bef	0.3135676
47	0xbd99f02f	-0.075165145
48	0x3e788a5f	0.24271534
49	0xbe623dd8	-0.22093904
50	0xbebc5605	-0.36784378
51	0xbdf6eb97	-0.12056654
52	0xbe8313f7	-0.2560117
53	0x3ef0448c	0.46927297
54	0x3e187f45	0.148923
55	0x3e56d7fa	0.20980826
56	0x3e20a23d	0.15686889
57	0x3ca836be	0.020533916
58	0x3eba077e	0.3633384
59	0xbecbcd48	-0.39805055
60	0x3d2655d0	0.04060918
61	0xbe86427f	-0.26222607
62	0x3e0e32c9	0.1388656
63	0xbe008f1b	-0.1255459
64	0x3e40a8fc	0.18814462
65	0xbe7b5ad3	-0.24546365
66	0x3e9ff8ce	0.3124451
67	0xbe846af7	-0.25862858
68	0xbe8ac62c	-0.27104318
69	0xbe8b0611	-0.27153066
70	0x3e8c5e70	0.274158
71	0x3cbc03fc	0.022951119
72	0x3ed3539a	0.4127472
73	0xbea42b15	-0.3206412
74	0xbec4d829	-0.38446167
75	0xbe9b44cb	-0.30325922
76	0xbeaad8ae	-0.33368438
77	0x3eaa7a2e	0.3329634
78	0x3e055c5b	0.13023512
79	0x3ea4b6c3	0.32170686
80	0xbe69ad55	-0.22820027
81	0xbe96d537	-0.29459545
82	0x3e972196	0.29517812
83	0xbea1555a	-0.3151043
84	0x3ea87461	0.3290129
85	0xbca30776	-0.019901019
86	0x3ea23078	0.31677604
87	0xbe6d0eb6	-0.23150143
88	0xbde25f85	-0.11053375
89	0x3e8a3299	0.26991728
90	0xbd932bef	-0.07186114
91	0xbe8fafa0	-0.2806368
92	0x3dbc45b2	0.09192981
93	0x3df8f15d	0.121554114
94	0xbea0bcfc	-0.31394184
95	0xbe3fca8b	-0.18729608
96	0x3ee4c33d	0.44680205
97	0xbd797e18	-0.060911268
98	0xbd92cd02	-0.071680084
99	0xbea1d3e3	-0.3160697
100	0xbdfd7a73	-0.12376871
101	0x3e14d9f0	0.14536262
102	0xbd6e348d	-0.058155585
103	0xbe9c92d9	-0.30580786
104	0x3bbb01ed	0.0057070167
105	0xbe943d24	-0.28952897
106	0xbedd7d8d	-0.4325985
107	0xbda88327	-0.0822814
108	0xbebc327f	-0.36757275
109	0xbe8dc517	-0.2768943
110	0x3ecb8fa8	0.3975804
111	0x3d8c54ae	0.06852089
112	0x3e874abe	0.2642421
113	0xbf064b2f	-0.5245847
114	0xbe63b8c5	-0.22238453
115	0xbdaaa107	-0.08331495
116	0x3de3e9af	0.11128556
117	0xbe9c6e83	-0.30553064
118	0xbe2005d0	-0.15627217
119	0xbec02598	-0.37528682
120	0x3d22b97b	0.03972767
121	0xbdf7ba65	-0.12096099
122	0x3c2381b2	0.009979652
123	0xbe726269	-0.23670353
124	0xbe447247	-0.19184218
125	0xbe8935a4	-0.26798737
126	0xbe145e03	-0.14488988
127	0xbea630a1	-0.32458976
128	0x3eab1397	0.33413383
129	0xbdac25e4	-0.084056646
130	0x3ee7427e	0.45167917
131	0xbcec1f1d	-0.02882343
132	0xbea200b8	-0.31641173
133	0x3e9d979b	0.30779728
134	0xbdaaeeb1	-0.08346308
135	0xbe008b04	-0.1255303
136	0xbe9c1d52	-0.3049112
137	0xbef8776e	-0.48528618
138	0x3e27feae	0.16405746
139	0xbcf9befe	-0.03048658
140	0x3e4eaef4	0.20183927
141	0xbe95b123	-0.29236707
142	0x3eabc07d	0.33545294
143	0xbed1e5fd	-0.4099578
144	0xbd9c0a28	-0.07619125
145	0x3db50845	0.08839468
146	0x3e4fcc90	0.20292878
147	0x3ea43ea9	0.32079056
148	0x3eb38ed9	0.35069922
149	0xbee77e55	-0.4521357
150	0x3dd27199	0.10275573
151	0xbe2cb177	-0.16864572
152	0xbd3dde9b	-0.04635487
153	0xbe9d98ec	-0.30780733
154	0x3eb17b97	0.34664604
155	0xbee06f62	-0.43834978
156	0x3e651c53	0.22374086
157	0x3e2255b7	0.1585301
158	0x3e0b6d17	0.13615833
159	0xbe5d4cd6	-0.21611342
160	0x3eb3a5a5	0.35087314
161	0xbcfcb9de	-0.030850347
162	0x3e11196b	0.14169852
163	0xbe8cc84f	-0.27496573
164	0x3e86c6e2	0.2632361
165	0x3c961201	0.018319132
166	0xbe9dac6d	-0.30795613
167	0x3f1563c8	0.5835538
168	0x3ddce3a7	0.10785609
169	0xbe512b1e	-0.20426604
170	0xbe453c3b	-0.19261257
171	0xbbee0606	-0.0072639016
172	0x3e6951db	0.22785132
173	0xbe701f22	-0.23449376
174	0xbe6354cc	-0.22200316
175	0xbe07bfa2	-0.13256696
176	0xbe9757cc	-0.2955917
177	0x3e232ccf	0.15935062
178	0x3ef9a9d3	0.48762378
179	0xbf062c5b	-0.5241143
180	0x3d805192	0.06265558
181	0x3e3bd46f	0.18342756
182	0x3d29a3be	0.041415922
183	0xbe36950c	-0.17830294
184	0x3e379bb5	0.17930491
185	0x3e853007	0.26013204
186	0x3e568a19	0.20951118
187	0xbc867017	-0.01641087
188	0xbd4f512e	-0.05061453
189	0x3dd53068	0.104096234
190	0x3bd1d11a	0.0064031007
191	0xbe7fa989	-0.24967016
192	0x3e7c23a7	0.24622975
193	0x3ea95f62	0.33080584
194	0xbd638a99	-0.0555521
195	0xbdd79352	-0.10526146
196	0x3ddc433f	0.10755014
197	0xbe2fbf90	-0.17162919
198	0x3d50ced6	0.050978504
199	0x3d95a820	0.07307458
200	0xbed68aa8	-0.4190266
201	0xbe4d3537	-0.20039831
202	0x3e65ed8e	0.22453901
203	0x3dc071a6	0.09396677
204	0x3cb96185	0.022629509
205	0xbe51d433	-0.20491104
206	0xbe549c5e	-0.20762774
207	0xbea40e01	-0.32041934
208	0xbda82030	-0.08209264
209	0x3e84fcf8	0.2597425
210	0x3e9b197b	0.30292878
211	0x3e6c0ec3	0.23052506
212	0xbea1f40b	-0.31631503
213	0xbe514b0b	-0.20438783
214	0xbdf63d6a	-0.120234326
215	0x3f13a1f0	0.5766897
216	0x3de478ed	0.11155877
217	0xbd627df3	-0.055295896
218	0x3e6546a3	0.22390227
219	0xbdd5810b	-0.104250036
220	0xbe9b6754	-0.3035227
221	0x3ef622a8	0.48073316
222	0xbe582fb7	-0.21111952
223	0xbdcca167	-0.099917226
224	0xbedf27c5	-0.4358503
225	0x3e7650ff	0.24054335
226	0x3e43f624	0.19136864
227	0x3d887caa	0.06664403
228	0xbe8ed9b5	-0.27900472
229	0xbecabde4	-0.39598
230	0xbea6d3a2	-0.32583338
231	0x3e9d190a	0.30683166
232	0x3db72eb2	0.08944453
233	0x3efdafe7	0.49548265
234	0x3e83c726	0.25737876
235	0x3e10a09f	0.14123772
236	0x3d266565	0.04062404
237	0xbe8704a3	-0.26370725
238	0xbe895c85	-0.268284
239	0xbef876f1	-0.48528245
240	0x3e2d24f1	0.16908623
241	0xbe4cd0c5	-0.20001514
242	0xbda09797	-0.078414135
243	0xbe68f67b	-0.22750275
244	0x3d4e30c8	0.05033949
245	0xbee2228e	-0.44166988
246	0xbe9da8bd	-0.307928
247	0x3db66a56	0.08907001
248	0xbe255802	-0.16146854
249	0x3e5ac117	0.2136272
250	0xbd00b0b1	-0.031418506
251	0xbeebaafe	-0.46028894
252	0xbc31f96d	-0.01086269
253	0xbe03657f	-0.12831686
254	0xbd89d798	-0.06730574
255	0xbea91c00	-0.33029175

layer_1.bias f4 [400]
0	0xbe1cd0cd	-0.15314026
1	0xbe6a0233	-0.22852401
2	0xbe2a85dd	-0.16652627
3	0x3e8d21bd	0.27564803
4	0x3e0c8bd4	0.13725215
5	0xbdf92df7	-0.1216697
6	0x3e5fa59f	0.21840523
7	0xbe86c71e	-0.2632379
8	0xbe8a259a	-0.26981813
9	0x3dca664c	0.09882793
10	0xbe67abbe	-0.22624108
11	0x3cb3a899	0.02193098
12	0x3ec29b95	0.38009325
13	0xbe41d93c	-0.18930525
14	0xbe4f7ccc	-0.2026245
15	0x3e363fde	0.17797801
16	0xbea075b4	-0.313398
17	0x3ec289b1	0.37995675
18	0xbe26942c	-0.1626746
19	0x3e47f482	0.19526866
20	0xbe7e8cbe	-0.24858376
21	0xbe937ea5	-0.2880756
22	0x3d99526a	0.07486422
23	0x3e18f759	0.14938106
24	0x3e94b821	0.2904673
25	0x3e9d1361	0.30678847
26	0xbd80585c	-0.06266853
27	0x3c9139e9	0.017727809
28	0x3d3b9c90	0.045803607
29	0xbd723373	-0.059131097
30	0xbd06d20e	-0.032915168
31	0xbeae8c81	-0.3409157
32	0xbe9c1395	-0.3048369
33	0x3e300053	0.17187624
34	0xbe3b48f0	-0.18289542
35	0x3eb644ef	0.35599467
36	0x3dca4b3a	0.098776296
37	0xbc415389	-0.0117997015
38	0x3eb4fc85	0.35348907
39	0xbe27723f	-0.16352175
40	0xbd063088	-0.032761127
41	0x3d98f058	0.07467717
42	0x3e1aa491	0.1510184
43	0xbec2ed40	-0.38071632
44	0x3e1129ba	0.14176074
45	0xbe773461	-0.24141075
46	0x3d5408c5	0.051766176
47	0x3ea823af	0.32839724
48	0x3c01b3a6	0.007916367
49	0x3cc5f5d8	0.024165079
50	0x3cb72494	0.022356309
51	0x3e71e1f2	0.23621348
52	0x3e76783f	0.24069308
53	0xbd17910d	-0.037003566
54	0xbe497cfe	-0.19676587
55	0xbe4a991f	-0.19784974
56	0x3e7471a7	0.2387148
57	0x3e83e9b1	0.2576423
58	0x3e103407	0.14082347
59	0xbe7d307a	-0.24725524
60	0x3e8ddd9c	0.27708137
61	0xbdec3c80	-0.11534977
62	0x3e977395	0.2958037
63	0x3eb82897	0.35968468
64	0x3d036028	0.032074124
65	0xbe23aff1	-0.15985085
66	0x3ed36c45	0.4129354
67	0xbe0bd9fb	-0.13657372
68	0x3e265559	0.16243495
69	0xbe9b3b88	-0.30318856
70	0xbe012ef0	-0.12615561
71	0xbeaa1c7a	-0.3322485
72	0xbd99c81e	-0.075088724
73	0x3e502f3e	0.20330521
74	0xbe84db03	-0.25948343
75	0xbe8d2eed	-0.27574864
76	0x3e964415	0.29348817
77	0x3e6082f0	0.21924949
78	0xbd3d12a5	-0.04616036
79	0xbe5b4b73	-0.214155
80	0xbd5a59fe	-0.05330848
81	0xbdf8da34	-0.12150994
82	0x3e8798c8	0.2648375
83	0xbdb82110	-0.08990681
84	0xbd9355aa	-0.071940735
85	0xbe640f4e	-0.22271463
86	0xbe190bf7	-0.1494597
87	0x3e0ed43a	0.13948146
88	0x3e9674e4	0.29386055
89	0x3dea9c30	0.11455572
90	0xbdefda05	-0.11711506
91	0x3ecd02ec	0.40041292
92	0xbca0a48e	-0.019609716
93	0xbe165650	-0.14681363
94	0xbd8b79e0	-0.06810355
95	0xbd4eed3a	-0.050519206
96	0x3e4e085a	0.20120373
97	0x3e399e86	0.18126878
98	0x3ea5ba94	0.3236891
99	0xbd7bdc74	-0.061489537
100	0x3ea294eb	0.3175424
101	0xbe1dc444	-0.154069
102	0xbe289552	-0.16463211
103	0xbd56d75e	-0.052451484
104	0xbe942f20	-0.28942204
105	0xbe5827cb	-0.2110893
106	0xbe9e1ffe	-0.30883783
107	0xbd228589	-0.03967813
108	0xbcf1c807	-0.029514326
109	0xbd50b94d	-0.050957967
110	0xbe84fef1	-0.25975755
111	0x3ec53e22	0.38523966
112	0xbdf0330e	-0.11728488
113	0x3e6cdea3	0.23131804
114	0x3ea14cac	0.31503808
115	0xbe68fd02	-0.22752765
116	0xbd544aef	-0.051829275
117	0x3e5c1cf3	0.21495418
118	0x3ebead96	0.3724181
119	0xbc77e176	-0.015129438
120	0x3ea1a8dc	0.31574142
121	0xbe92096b	-0.2852281
122	0xbe48cb11	-0.19608714
123	0x3eac800c	0.33691442
124	0x3dd4b185	0.10385422
125	0x3eb5d665	0.35515133
126	0x3d986ff3	0.074432276
127	0xbe14a630	-0.1451652
128	0x3eaa6eb7	0.33287594
129	0x3e82a41c	0.2551583
130	0x3d8baa94	0.068196446
131	0xbe3fc940	-0.18729115
132	0x3d2990fe	0.04139804
133	0xbe167a93	-0.14695196
134	0x3e807c3e	0.2509479
135	0x3c179f64	0.00925431
136	0x3db41978	0.0879392
137	0x3e54ece8	0.20793498
138	0x3e31f5a0	0.17378855
139	0xbe746b0f	-0.23868965
140	0x3eae161e	0.3400125
141	0x3e5566b5	0.20839961
142	0xbe87962e	-0.26481766
143	0x3e853d85	0.26023498
144	0x3dfbf8cc	0.123033136
145	0xbd959cf8	-0.0730533
146	0xbe9475e4	-0.28996193
147	0xbd8fdb72	-0.07024278
148	0xbe98fbef	-0.2987971
149	0x3e2f48e8	0.17117655
150	0x3e80a169	0.25123146
151	0xbdb2170c	-0.08695802
152	0x3ec1cda0	0.37852192
153	0xbda3f4bb	-0.08005663
154	0x3ddc51d8	0.10757798
155	0xbe7e4b38	-0.24833381
156	0x3d772c5b	0.060345035
157	0x3e42bf60	0.19018316
158	0x3dac6ea6	0.08419542
159	0xbd7d2fa8	-0.061813027
160	0xbe18bdc2	-0.14916137
161	0x3e8c2931	0.27375177
162	0x3e9b5f75	0.30346265
163	0x3d2f5d16	0.042813383
164	0xbe445eae	-0.19176742
165	0x3db5bc22	0.08873774
166	0x3b26c064	0.0025444264
167	0x3ea723ba	0.32644445
168	0x3d990430	0.07471502
169	0x3b32b138	0.0027266275
170	0x3cc3f934	0.02392254
171	0x3e379bf5	0.17930587
172	0xbc25bca3	-0.010115775
173	0x3ea9aee9	0.33141258
174	0x3e26471a	0.1623806
175	0xbea0d37b	-0.31411347
176	0x3c91d3d6	0.017801207
177	0xbe8fde85	-0.28099456
178	0xbe803e89	-0.2504771
179	0x3de147ba	0.11000009
180	0x3e024647	0.12722121
181	0xbcb7c3a9	-0.022432165
182	0x3ed86750	0.4226632
183	0xbe338a76	-0.17533287
184	0xbdf1d72e	-0.118086204
185	0xbcd8cbfb	-0.026464453
186	0x3d0d5ace	0.034510426
187	0xbc5af7f8	-0.013364784
188	0x3eaaa3f0	0.333282
189	0xbe0dbc21	-0.13841297
190	0xbe46d646	-0.19417676
191	0x3dce339a	0.10068436
192	0x3e57858d	0.2104704
193	0x3db3b4f1	0.08774746
194	0x3e7cec2a	0.24699464
195	0xbc256605	-0.010095124
196	0x3e992ead	0.29918423
197	0x3e5ecf16	0.21758685
198	0x3e88e050	0.26733637
199	0xbc4e4b83	-0.012591246
200	0xbe7cff60	-0.24706793
201	0xbe3a0b95	-0.1816848
202	0x3da74676	0.08167736
203	0x3e788986	0.24271211
204	0xbe1b9d52	-0.15196732
205	0x3e9272ff	0.2860336
206	0x3d80d9d4	0.062915474
207	0x3d324a70	0.04352802
208	0x3d163338	0.03666994
209	0xbd6fa16b	-0.05850355
210	0x3e8f4e29	0.2798932
211	0x3d2f1162	0.042741187
212	0x3e0cfed3	0.13769083
213	0xbe9d7df3	-0.30760154
214	0xbe0b3f13	-0.1359828
215	0x3bbd2ef1	0.005773418
216	0x3eb0e574	0.3455006
217	0x3e36bfc0	0.17846584
218	0x3d2ce8e4	0.04221429
219	0xbe981193	-0.29700908
220	0x3d6c8674	0.057745412
221	0xbe31fd15	-0.173817
222	0xbeb42ab2	-0.35188824
223	0x3d784a54	0.06061776
224	0xbe2a775a	-0.16647092
225	0x3e970749	0.29497746
226	0xbe1c8b01	-0.15287401
227	0x3e36d39a	0.17854157
228	0x3e49fa3b	0.19724362
229	0xbea54221	-0.32277015
230	0x3e14ad8b	0.14519326
231	0xbcc65fec	-0.024215661
232	0x3e38b9ad	0.1803958
233	0x3ed3ff69	0.414058
234	0xbe0405bb	-0.12892811
235	0xbd9faf31	-0.07797087
236	0x3eaa9a2b	0.33320746
237	0x3cf739f8	0.030179009
238	0xbba5043e	-0.005035906
239	0x3eb20089	0.34766033
240	0xbe0a6e5a	-0.13518658
241	0x3ab00919	0.0013430446
242	0x3e747d3c	0.23875898
243	0x3dd7d55a	0.105387405
244	0xbe66b62e	-0.22530434
245	0x3e2191bd	0.15778251
246	0xbe7cf908	-0.24704373
247	0xbe4694c7	-0.19392692
248	0x3e756b42	0.23966697
249	0xbdacd742	-0.08439495
250	0xbe3b6e75	-0.18303855
251	0x3da01c24	0.078178674
252	0x3d2eb340	0.042651415
253	0xbe609d24	-0.21934944
254	0xbe89b92f	-0.26899096
255	0xbeb6c4d8	-0.35697055

layer_2.weight f4 [300, 400]
0	0x3daa8548	0.08326203
1	0xbd44aae8	-0.04801455
2	0x3d358547	0.044316556
3	0x3d98f7ff	0.074691765
4	0xbe425820	-0.1897893
5	0x3de0d740	0.10978556
6	0x3ac01f76	0.0014657814
7	0xbd39bd50	-0.045346558
8	0x3d739cad	0.05947559
9	0xbd53c2da	-0.051699497
10	0xbd81461a	-0.06312199
11	0xbc1d5763	-0.009603354
12	0x3d9809f0	0.074237704
13	0xbdce0add	-0.10060666
14	0xbcb63811	-0.022243531
15	0xbdb19a00	-0.08671951
16	0x3c552bb4	0.013010908
17	0xba8fa5df	-0.0010959468
18	0xbe0823b3	-0.13294868
19	0xbd925efc	-0.07147023
20	0xbce302c8	-0.027711287
21	0xbde3eff7	-0.11129754
22	0xbd7ff53d	-0.062489737
23	0xbd50d17a	-0.050981022
24	0xbd9e2e66	-0.077236935
25	0xbd1fe9a6	-0.039041184
26	0x3d1aadef	0.037763532
27	0x3e8f763a	0.28019887
28	0xbbaac447	-0.0052113864
29	0xbe63c685	-0.22243698
30	0x3dbd3d4f	0.09240209
31	0xbd94a573	-0.072581194
32	0xbda98666	-0.082775876
33	0x3d89a6a5	0.06721238
34	0xbce06156	-0.027390163
35	0x3dd52dfc	0.104091614
36	0x3e7386c9	0.23781885
37	0xbc9e158e	-0.019297387
38	0x3d18f106	0.037339233
39	0xbd2c8b97	-0.04212531
40	0xbd5694c4	-0.052387968
41	0xbe2b52ab	-0.16730754
42	0xbdba7e52	-0.09106125
43	0xbd85d85f	-0.0653541
44	0xbe0fbf33	-0.1403778
45	0xbe177860	-0.14792013
46	0xbd800f41	-0.062529095
47	0x3e3053b6	0.17219433
48	0xbd8adfa7	-0.067809395
49	0xbcab380c	-0.020900749
50	0x3e3bbaab	0.18332927
51	0x3d48a78f	0.04898792
52	0x3d5ed408	0.054401428
53	0x3cfcbb11	0.030850919
54	0xbc7accfa	-0.015307659
55	0xbda20af7	-0.07912248
56	0x3c878e2e	0.016547289
57	0xbd8bc326	-0.06824331
58	0x3c67fa07	0.014158732
59	0x3d775cac	0.060391113
60	0x3d12b25f	0.03581464
61	0x3be658af	0.007029615
62	0x3e037771	0.12838532
63	0x3daa8bc6	0.08327441
64	0xbd943611	-0.07236875
65	0xbdb19f5e	-0.08672975
66	0x3de7800f	0.11303722
67	0xbd899864	-0.06718519
68	0x3d678d50	0.05653125
69	0xbda2f656	-0.07957141
70	0x3b14eaa0	0.0022722855
71	0xbc0c76ce	-0.008573247
72	0x3ceca7d3	0.028888619
73	0x3e03b5be	0.12862298
74	0xbe1116b5	-0.14168818
75	0xbbf5bea6	-0.0074995337
76	0x3da1c189	0.07898242
77	0xbd65ad70	-0.056073606
78	0x3badbbc5	0.005301925
79	0xbc2d4ac9	-0.010576912
80	0xbdab0d60	-0.083521605
81	0x3d7505c7	0.059819963
82	0x3d2b4a11	0.041818682
83	0x3e05c480	0.1306324
84	0xbd9276a8	-0.07151538
85	0xbbbc5c8b	-0.0057483367
86	0x3e1081b6	0.14111981
87	0xbc5f5513	-0.013631123
88	0x3d9ff396	0.07810132
89	0x3e5e50fb	0.21710579
90	0xbe1cbfef	-0.15307592
91	0x3d5e6704	0.054297462
92	0xbd04a616	-0.032384954
93	0xbddccad8	-0.10780877
94	0xbd33b08b	-0.043869536
95	0xbe56139a	-0.20905915
96	0xbd8bb9b6	-0.06822531
97	0x3dedfb18	0.11620158
98	0x3df5c81e	0.1200106
99	0x3b071f19	0.00206179
100	0xbe167376	-0.14692482
101	0xbe1414d5	-0.14461072
102	0xbe0b5afa	-0.13608924
103	0xbcdd853c	-0.02704107
104	0xbca879fa	-0.020565975
105	0xbd880eb5	-0.0664343
106	0xbdd650ac	-0.10464606
107	0xbe2a0d85	-0.1660672
108	0x3d137745	0.036002416
109	0x3eb3dd4c	0.35129774
110	0xbd5f3daf	-0.054502185
111	0x3db91b2a	0.09038384
112	0xbd214048	-0.039367944
113	0x3dcff73b	0.10154577
114	0x3d8e9ebe	0.069638714
115	0x3df191d6	0.11795394
116	0xbe2d05b3	-0.16896705
117	0x3dbd4ee6	0.09243564
118	0xbd1ac6b9	-0.037787173
119	0xbc80c7a7	-0.015720202
120	0x3ddf306a	0.10897906
121	0xbd7750bb	-0.060379725
122	0xbd009742	-0.03139425
123	0x3dcda64b	0.100414835
124	0x3eae8067	0.34082338
125	0xbd3f739a	-0.046741106
126	0xbd4e8bd4	-0.05042632
127	0xbd85173a	-0.06498571
128	0x3d3aaeef	0.045576986
129	0x3d53a148	0.05166748
130	0xbe182a0e	-0.14859793
131	0x3df0698e	0.11738883
132	0xbd87ed20	-0.06637025
133	0x3d8812f7	0.06644242
134	0xbd9e9b23	-0.07744434
135	0xbd4f6b76	-0.050639592
136	0x3e033779	0.1281413
137	0xbd686712	-0.05673892
138	0xbdba89cc	-0.09108314
139	0xbdd41bde	-0.10356878
140	0xbbf0e7a8	-0.0073518343
141	0x3cf9141f	0.030405102
142	0xbdae4de8	-0.08510953
143	0x3cdea3b6	0.027177673
144	0xbe0cbc13	-0.1374362
145	0xbd916f90	-0.07101357
146	0x3a096ae9	0.0005242066
147	0x3cd5c746	0.026095998
148	0xbbabb461	-0.0052400087
149	0x3c82db3c	0.01597368
150	0x3db95f73	0.090514086
151	0x3d1bf952	0.038079567
152	0x3dbe8728	0.09303123
153	0x3c19484a	0.009355614
154	0x3dd26d8f	0.10274803
155	0xbce58775	-0.028018693
156	0xbd779f4e	-0.06045466
157	0xbde48a49	-0.11159188
158	0x3d4fa96d	0.050698686
159	0xbc3cca3f	-0.011522829
160	0x3d744a81	0.059641365
161	0x3caf23fa	0.02137946
162	0x3e00bf2b	0.12572925
163	0x3e0dd782	0.13851741
164	0xbd9f41c3	-0.07776215
165	0xbdd48da6	-0.1037858
166	0xbe646688	-0.22304738
167	0xbd2434af	-0.040089305
168	0xbd1e7e9e	-0.03869497
169	0x3d5ea6cb	0.054358285
170	0xbc910f7e	-0.017707583
171	0xbd936c86	-0.071984336
172	0xbe6ccd85	-0.23125274
173	0x3cf93578	0.030421004
174	0xbddd7706	-0.108137175
175	0xbded5f69	-0.11590464
176	0x3d8fede8	0.07027799
177	0x3d0fad39	0.035077307
178	0x3dcfbecf	0.10143816
179	0xbc826228	-0.015915945
180	0x3e201367	0.15632401
181	0x3e0e45bb	0.13893788
182	0x3dd9f869	0.106430836
183	0x3e2b99b2	0.16757849
184	0x3d939ed8	0.072080314
185	0x3d87887a	0.06617828
186	0xbdc06dbb	-0.093959294
187	0x3df178ec	0.11790642
188	0xbd86e022	-0.06585719
189	0xbdc94dcb	-0.09829291
190	0xbde38e53	-0.111111306
191	0x3e756fde	0.23968455
192	0x3d686ed8	0.056746334
193	0x3d86e644	0.065868884
194	0x3dd9b483	0.10630133
195	0x3bea40ca	0.0071488367
196	0x3c822cb4	0.015890457
197	0x3d13f776	0.03612467
198	0xbdab7b23	-0.08373096
199	0xbcec7fb8	-0.028869495
200	0xbc948aa9	-0.018132525
201	0xbdcb3d3d	-0.0992379
202	0x3d105df0	0.035245836
203	0xbde02738	-0.109449804
204	0xbdf591a7	-0.119906716
205	0xbcd9a812	-0.0265694
206	0x3b7793db	0.0037777338
207	0x3d114cd0	0.035473645
208	0xbd4e8d43	-0.050427686
209	0xbe4d0f30	-0.20025325
210	0x3c403bd0	0.01173301
211	0x3e23b476	0.15986809
212	0x3d2f4701	0.042792324
213	0xbc070ba0	-0.008242518
214	0x3d8e7afc	0.06957051
215	0x3cf7821a	0.030213404
216	0x3db57a0f	0.088611715
217	0xbc01582d	-0.007894558
218	0x3ca055a5	0.019572088
219	0xbbc9a48e	-0.0061536497
220	0xbdec88e8	-0.1154955
221	0xbd205264	-0.039141074
222	0xbd0b7e15	-0.034055788
223	0x3d46b06c	0.048508093
224	0xbc98cb72	-0.018651698
225	0x3be73d43	0.0070568635
226	0x3c5d954a	0.013524363
227	0xbdbef765	-0.093245305
228	0xbd5fe0ef	-0.054657873
229	0x3d57e0b7	0.05270454
230	0x3d4b305b	0.049606662
231	0xbaee5f3e	-0.0018186343
232	0x3d958394	0.07300487
233	0x3d718b24	0.058970585
234	0x3c91ec7d	0.017812962
235	0xbcb0d65b	-0.021586588
236	0x3d7e85c5	0.06213929
237	0xbdad4a07	-0.08461385
238	0x3e02558f	0.1272795
239	0x3dbab7f6	0.09117119
240	0xbd5b2ad6	-0.05350765
241	0xbe22091f	-0.15823792
242	0x3cb8e333	0.022569275
243	0xbd760f38	-0.060073107
244	0x3e2b14dd	0.16707177
245	0x3e6eba5c	0.23313278
246	0x3d82c7a8	0.06385738
247	0x3d4ceb4b	0.05002908
248	0xbda5a6c8	-0.080884516
249	0x3d9aa100	0.075502396
250	0xbdb63a4a	-0.088978365
251	0x3e54e166	0.20789108
252	0x3db5a8f9	0.088701196
253	0x3e57cf6e	0.21075222
254	0xbd3b133b	-0.045672636
255	0xbc4ee75f	-0.012628405

layer_2.bias f4 [300]
0	0x3cee296e	0.02907249
1	0xbdf6a5e2	-0.120433584
2	0x3d4db79f	0.050223943
3	0xbbf9b39d	-0.0076202885
4	0x3d4e6c8d	0.05039649
5	0x3d972e67	0.073818974
6	0x3d0dde63	0.034635913
7	0x380452ba	3.1548298e-05
8	0xbb88326c	-0.0041564014
9	0x3d330f3b	0.043715697
10	0x3d57efca	0.052718915
11	0xbdf9781a	-0.12181111
12	0x3d58fab6	0.05297347
13	0xbc2ffa34	-0.010740805
14	0x3d483a8c	0.04888396
15	0x3da6e5dc	0.08149311
16	0x3d55e03e	0.052215807
17	0x3d8a73f3	0.06760397
18	0x3da5f33e	0.081030354
19	0x3d76577e	0.060142033
20	0x3c102b20	0.008799344
21	0xbe0b14fa	-0.1358222
22	0x3da24d2f	0.07924878
23	0x3c65f528	0.014035501
24	0x3d3cad36	0.046063624
25	0x3d6348b4	0.055489257
26	0x3be7da2f	0.00707557
27	0x3bcdd3e3	0.0062813624
28	0x3c741a99	0.0148989195
29	0x3cbc367b	0.022975197
30	0x3d44e3ec	0.048068926
31	0xbbc5391c	-0.006018771
32	0x3d51891b	0.051156145
33	0x3c69a70b	0.014261018
34	0x3c67d4b2	0.014149832
35	0x3c9fcbf5	0.019506434
36	0x3d304734	0.043036655
37	0x3ca34951	0.01993242
38	0x3d74f2fd	0.059802044
39	0x3c3ebd23	0.011641773
40	0x3ce24461	0.027620496
41	0xbd6e4e10	-0.058179915
42	0x3d3a25e0	0.045446277
43	0x3d0855fa	0.03328512
44	0x3ccf43da	0.025300909
45	0x3cc2d97f	0.02378535
46	0x3d90f75a	0.070784286
47	0x3da20d3b	0.0791268
48	0x3d4fe189	0.050752196
49	0x3cec7a52	0.02886692
50	0x3d18ddeb	0.037321012
51	0x3da81f66	0.08209114
52	0x3d4d6132	0.05014152
53	0x3da83e78	0.0821504
54	0xbe0af2a3	-0.13569121
55	0x3d98d728	0.07462913
56	0xbc2972eb	-0.01034234
57	0xbc4ef287	-0.012631065
58	0x3d5f710a	0.05455116
59	0xbdd80e5e	-0.10549615
60	0xbc93ee8a	-0.01805808
61	0x3bffe9d9	0.0078098592
62	0x3d9d8185	0.076907195
63	0x3d9ec746	0.07752852
64	0x3d815ac7	0.063161425
65	0xbc84dcc5	-0.016218552
66	0x3d50171a	0.05080328
67	0x3d857cd8	0.06517953
68	0x3dd2dc07	0.10295873
69	0x3d1e3813	0.038627695
70	0x3c500048	0.01269538
71	0x3cb109ad	0.02161106
72	0x3cf0d5c2	0.029398803
73	0xbc1a7881	-0.009428144
74	0x3bab48df	0.005227193
75	0x3d803e07	0.06261831
76	0x3d1998fb	0.03749941
77	0x3c5a65be	0.013329921
78	0x3d958762	0.07301213
79	0x3d37ae73	0.044844102
80	0x3d1e764f	0.038687047
81	0x3d51fd32	0.051266856
82	0x3d5714de	0.052510135
83	0xbbe13fd8	-0.006874066
84	0xbc84ac54	-0.016195454
85	0x3d298ec5	0.04139592
86	0xbb923870	-0.0044622943
87	0x3d1e211d	0.038605798
88	0x3d2bf686	0.04198315
89	0x3d9f44d3	0.07776799
90	0xbd6d9483	-0.05800296
91	0xbe0bbd18	-0.13646352
92	0x3d35a3b6	0.04434558
93	0x3d949466	0.07254867
94	0x3c3c5b3f	0.011496364
95	0x3d57ab98	0.05265388
96	0x3cdbf6a3	0.026851004
97	0x3d290b40	0.041270494
98	0x3d1ff4e8	0.03905192
99	0x3d883123	0.06649997
100	0xbc8c8a68	-0.017155841
101	0xba9bccbe	-0.001188658
102	0x3bc69bf3	0.006061071
103	0x3d749a81	0.05971766
104	0xba2ef968	-0.00066747377
105	0x3b5c45d4	0.0033610957
106	0xbb9c3635	-0.004767204
107	0x3c2b8636	0.01046901
108	0x3bef95b7	0.0073115486
109	0x3cce99e9	0.025219874
110	0x3c64ccd6	0.013964852
111	0x3d1e3ebe	0.038634054
112	0x3c22a082	0.009925963
113	0xbe0ba2e3	-0.13636355
114	0xbd85396a	-0.065050915
115	0x3cd90229	0.026490288
116	0xbde5e2cc	-0.11224899
117	0x3d1f505a	0.03889499
118	0x3d3186bd	0.043341387
119	0xbe011fa6	-0.12609729
120	0x3d3073e1	0.04307926
121	0x3d33cfe6	0.04389944
122	0xbaa2acd8	-0.0012411131
123	0x3b44116d	0.0029917613
124	0xbde50ae3	-0.11183717
125	0x3d6112c2	0.05494953
126	0x3a2d1791	0.0006602938
127	0x3cc42b6a	0.023946483
128	0xbc9871e3	-0.018608993
129	0x3ca306c8	0.019900694
130	0x3d3f2183	0.04666282
131	0x3cb0a70e	0.021564033
132	0x3bc6a70a	0.006062393
133	0x3c9d3cce	0.019194033
134	0x3b4d0d79	0.0031288548
135	0xbd564ac9	-0.052317414
136	0x3d094138	0.033509463
137	0xbc11f776	-0.008909097
138	0x3d8e8386	0.0695868
139	0x3d59eac0	0.05320239
140	0x3d584aad	0.05280559
141	0x3cb21184	0.021736868
142	0x3d597be0	0.053096652
143	0xbcfbaa2c	-0.030720793
144	0xbc91de32	-0.017806146
145	0x3cca4964	0.024693199
146	0x3b841d2e	0.004031799
147	0x3d98bf71	0.074583896
148	0x3d2cc61e	0.042181127
149	0x3c5b3694	0.013379712
150	0xbcbf1c64	-0.023328967
151	0xbba6463d	-0.005074291
152	0x3d357e75	0.044310052
153	0x3d9525ae	0.072825775
154	0xbd17c3e6	-0.037052058
155	0x3c310b71	0.0108059505
156	0x3cb42cfb	0.021994105
157	0xbc5eb508	-0.013592966
158	0x3d7b8755	0.06140836
159	0x3d8ec28f	0.06970703
160	0x39da04eb	0.00041583864
161	0x3d897a7b	0.067128144
162	0x3d7f0dc0	0.062268972
163	0xbcf2b68b	-0.029628059
164	0x3d44dea0	0.048063874
165	0x3cefde72	0.029280875
166	0x3d0abb03	0.033869755
167	0x3b1248d2	0.0022321236
168	0x3d485af1	0.048914853
169	0x3d40f16b	0.047105234
170	0x3d5df3a9	0.05418745
171	0x3d2cfb04	0.042231575
172	0xbced0a5e	-0.028935608
173	0x3d5394ea	0.051655687
174	0x3d115981	0.03548575
175	0x3c50691b	0.012720372
176	0x3a6a8faf	0.0008947802
177	0x3d07eee2	0.0331868
178	0x3cc4ac67	0.02400799
179	0x3d502797	0.050819006
180	0xbe0310e1	-0.12799408
181	0xbdc60973	-0.09669771
182	0xbd88ff55	-0.06689326
183	0x3d1db04f	0.03849822
184	0x3d7cda02	0.061731346
185	0xbd3e2c6c	-0.046429083
186	0xbdc14eda	-0.09438868
187	0x3d10e3b2	0.035373397
188	0x3c29b95e	0.010359136
189	0x3df129e3	0.117755674
190	0x3d881a8d	0.06645689
191	0x3cbbddf0	0.022932976
192	0x3d501034	0.050796703
193	0xbc41141c	-0.01178458
194	0x3d0760cd	0.0330513
195	0x3d8d92ba	0.069127515
196	0x3d2f1b38	0.042750567
197	0x3d8ca9d0	0.06868327
198	0x3cff0f50	0.031135231
199	0x3d3578e8	0.04430476
200	0x3d007742	0.031363733
201	0x3d96a02e	0.073547706
202	0xbb977861	-0.0046225046
203	0x3c385e1a	0.011252904
204	0x3d2a69e7	0.041604903
205	0x3c552534	0.013009358
206	0x3c6375cd	0.013883066
207	0x3c33e0af	0.010978862
208	0xbba2875a	-0.004959983
209	0x3d5e6d11	0.054303233
210	0xbc09c557	-0.008408866
211	0xbae69d2f	-0.0017594452
212	0x3d658281	0.05603266
213	0x3cb54817	0.022129102
214	0xbdddbb28	-0.10826713
215	0x3c42652a	0.01186494
216	0x3d921285	0.071324386
217	0x3d02f5f8	0.031972855
218	0x3cb521c5	0.02211083
219	0x3d52694b	0.051369946
220	0xbde6b737	-0.11265414
221	0x3b05ce57	0.0020417178
222	0x3dc2fb46	0.09520583
223	0xbda42cc2	-0.080163494
224	0x3d35cec2	0.044386633
225	0x3dbe04c6	0.09278254
226	0x3d0aff16	0.033934675
227	0x3d6c7f03	0.057738315
228	0x3d652262	0.055940993
229	0x3ceef483	0.029169327
230	0x3d52d0d1	0.051468674
231	0xbc433625	-0.0119147645
232	0x3d43c38b	0.047793906
233	0x3c8fca4f	0.017552523
234	0x3d56c0a4	0.05242981
235	0xbe025ba0	-0.12730265
236	0x3d436d05	0.04771139
237	0xba7059c2	-0.00091686484
238	0x3c593b9f	0.013258844
239	0x3cd7ed94	0.026358403
240	0x3d8c5abf	0.06853246
241	0x3d9671ec	0.073459476
242	0x3d008d3d	0.031384695
243	0x3d54faa7	0.051996853
244	0x3d0c9fa8	0.034331948
245	0x3d7abbe3	0.06121434
246	0x3c033f03	0.008010629
247	0x3c96ae30	0.018393606
248	0x3ccd061c	0.025027327
249	0x3d33c4d3	0.043888878
250	0x3d1d8338	0.038455218
251	0xbbd6997c	-0.0065490585
252	0x3d7ca75c	0.061683044
253	0x3d358687	0.04431775
254	0xbca20812	-0.019779239
255	0x3cc1c056	0.023651283

layer_3.weight f4 [1, 300]
0	0x3e5b68dd	0.21426721
1	0x3c8fbbc9	0.017545598
2	0x3e172085	0.14758499
3	0x3e4ebfe1	0.20190383
4	0xbd04be0a	-0.032407798
5	0x3e27d339	0.16389169
6	0x3e3ba766	0.18325576
7	0x3e25b8b7	0.16183744
8	0x3e245958	0.16049707
9	0x3e137bcf	0.14402698
10	0xbd7c233d	-0.061557043
11	0x3b34bc2b	0.0027577977
12	0x3e2592a8	0.16169226
13	0xbd7bbb2b	-0.061457794
14	0x3e40695b	0.1879019
15	0x3e3aa629	0.18227448
16	0x3e3bcc5d	0.18339677
17	0xbd7c1e9c	-0.06155263
18	0x3e27a87c	0.16372865
19	0xbd9302c3	-0.07178261
20	0xbd6d1150	-0.05787784
21	0x3b0fa594	0.002191876
22	0x3e51be6c	0.20482796
23	0xbcfa6c23	-0.030569142
24	0xbd9e917f	-0.07742595
25	0x3e52908e	0.20562956
26	0x3e4ded2f	0.2011001
27	0xbd861b77	-0.06548207
28	0x3e45f0d6	0.19330153
29	0x3e31892e	0.17337486
30	0x3e28dd4e	0.16490671
31	0xbd8c794a	-0.068590716
32	0xbd850022	-0.06494166
33	0x3e5d67a7	0.21621571
34	0x3e3a268c	0.18178767
35	0x3e43cd5a	0.19121304
36	0xbdaf7ad9	-0.08568353
37	0xbd64da25	-0.0558721
38	0x3e4487d5	0.19192441
39	0xbd4a7062	-0.049423583
40	0x3e407ec0	0.18798351
41	0x39cc10b0	0.00038922345
42	0xbd5c8290	-0.05383545
43	0x3e54ebf4	0.20793134
44	0x3e41e039	0.1893319
45	0xbd534dab	-0.05158774
46	0x3e5ebb9a	0.21751252
47	0x3e38cf0a	0.18047729
48	0x3e16cda6	0.14726886
49	0x3e2ce0fc	0.168827
50	0xbd7e18e8	-0.06203547
51	0x3e21e840	0.15811253
52	0x3e448446	0.19191083
53	0x3e265da0	0.16246653
54	0x3c693161	0.014232964
55	0x3e2d2f08	0.16912472
56	0x3e41671d	0.18886991
57	0xbccb73ca	-0.024835486
58	0xbd3ef6f5	-0.046622235
59	0x3ca93cbf	0.020658849
60	0xbd5b5567	-0.053548243
61	0x3e386eea	0.1801106
62	0x3e29a9af	0.16568635
63	0x3e40af87	0.18816958
64	0xbdb74cae	-0.08950172
65	0xbd179196	-0.037004076
66	0xbcad872f	-0.021182625
67	0x3e326d26	0.1742445
68	0x3e0820af	0.13293718
69	0xbda01bdd	-0.078178145
70	0x3e57c9f8	0.21073139
71	0x3e4fe609	0.20302595
72	0x3e4bb5c1	0.19893552
73	0xbd3ca4c6	-0.046055578
74	0x3e371e59	0.1788267
75	0xbd7260ed	-0.059174467
76	0x3e2fada9	0.1715609
77	0x3e4348c9	0.19070734
78	0xbd8c6d9c	-0.06856844
79	0x3e51be1c	0.20482677
80	0xbd69f618	-0.05711946
81	0x3e368b7f	0.17826651
82	0xbd2af82d	-0.041740585
83	0x3e2aeabe	0.1669111
84	0xbd8905d8	-0.06690568
85	0x3e4eab14	0.20182449
86	0x3e3c282d	0.18374701
87	0xbdd31806	-0.103073165
88	0x3e4aba40	0.19797611
89	0x3e395155	0.18097432
90	0xbb6cd8d5	-0.0036139984
91	0x3c232dac	0.0099596195
92	0x3e3858bf	0.18002604
93	0x3e58a159	0.21155299
94	0xbd1ba49d	-0.037998784
95	0x3e54024b	0.20704
96	0xbd7ada8a	-0.06124357
97	0x3e3483b9	0.17628373
98	0xbda34f13	-0.079740666
99	0x3e3f347c	0.18672365
100	0xbd06a70f	-0.032874163
101	0xbd3a3e0a	-0.04546932
102	0x3e2bc0a3	0.16772704
103	0x3e442e70	0.1915834
104	0x3e3c5a0f	0.1839373
105	0xbc5f2ddd	-0.0136217745
106	0xbc6bca7a	-0.014391536
107	0x3e56361d	0.2091908
108	0xbd96230c	-0.073309034
109	0xbd9e7db1	-0.077388175
110	0x3e30e942	0.17276481
111	0xbd077c56	-0.03307756
112	0x3e590b45	0.21195705
113	0x3cabd243	0.020974284
114	0xbcd20bf5	-0.025640467
115	0xbcc209ff	-0.023686407
116	0x3d1e9d8d	0.03872447
117	0xbd4fa2b9	-0.050692294
118	0xbd3cc9eb	-0.046091
119	0xbcc1a794	-0.023639478
120	0xbd8b6a1d	-0.06807349
121	0x3e488d6e	0.19585201
122	0xbda4b6d1	-0.08042682
123	0xbd446fd0	-0.047958195
124	0xbbe7acaa	-0.0070701437
125	0x3e3c6f56	0.18401846
126	0xbd18dbf4	-0.03731914
127	0xbdc94ea6	-0.09829454
128	0xbcb4a86e	-0.02205297
129	0x3e4b6bcb	0.19865339
130	0xbcfd3baf	-0.030912248
131	0xbd961126	-0.073274896
132	0xbc6bcb38	-0.014391713
133	0xbd705504	-0.058674827
134	0x3e369591	0.17830493
135	0x3c8c42ae	0.01712164
136	0xbc8bcdfe	-0.017065998
137	0xbd05255b	-0.032506328
138	0x3e3aeb69	0.18253864
139	0x3e38f0ac	0.18060559
140	0x3e49084f	0.19632076
141	0xbd98cc74	-0.07460871
142	0x3e2e481f	0.170197
143	0x3bd0d615	0.006373177
144	0xbcc06845	-0.02348722
145	0x3e347bb8	0.1762532
146	0xbcad830a	-0.021180648
147	0x3e2a6958	0.16641748
148	0xbcc97075	-0.024589757
149	0xbd95ad72	-0.07308473
150	0xbd2f1f8f	-0.042754706
151	0x3e3ce929	0.18448319
152	0xbcde8ab6	-0.027165752
153	0x3e3f1276	0.18659386
154	0xbcb42462	-0.021990005
155	0xbcad0738	-0.021121606
156	0x3e46ffc3	0.19433503
157	0xbd70c36c	-0.05878012
158	0x3e48d13c	0.19611067
159	0xbd611338	-0.05494997
160	0x3e265709	0.16244139
161	0x3e56d39d	0.20979162
162	0x3e252225	0.16126306
163	0xbd02a60f	-0.031896647
164	0xbd906273	-0.07050028
165	0x3e55be9c	0.20873493
166	0x3e3c32e5	0.1837879
167	0xbd8f7e54	-0.07006517
168	0x3e27ad48	0.16374695
169	0x3e5630c2	0.20917037
170	0xbd686d0f	-0.05674463
171	0xbd1ea31d	-0.038729776
172	0x3be7a743	0.0070694997
173	0xbd67b8e3	-0.056572806
174	0x3e54daa7	0.20786534
175	0x3e3bd0a5	0.1834131
176	0x3e40bb0d	0.18821354
177	0x3e39a900	0.18130875
178	0xbd310e90	-0.04322678
179	0x3e3854b2	0.18001059
180	0x3a8ed8f8	0.0010898402
181	0xbcbf2ba9	-0.023336248
182	0x3c1abec2	0.009444894
183	0x3e302ed6	0.17205366
184	0xbd292dfe	-0.041303627
185	0xbca365f8	-0.019946083
186	0x3cd47a98	0.025937364
187	0x3e4f1cc0	0.20225811
188	0x3e51462f	0.20436929
189	0x3df64b8b	0.120261274
190	0x3e25152a	0.16121355
191	0xbd38bf5f	-0.04510438
192	0x3e2d3359	0.16914119
193	0x3e40465c	0.1877684
194	0x3e32e873	0.17471485
195	0xbd4aac90	-0.049480975
196	0xbd5784fd	-0.052617062
197	0x3e431825	0.19052179
198	0xbd214d94	-0.039380625
199	0x3e44f012	0.19232205
200	0xbd5261cd	-0.0513628
201	0x3e2969dc	0.16544288
202	0xbd1ef51f	-0.038807984
203	0xbd7cd4c5	-0.06172635
204	0xbcb1fe87	-0.021727813
205	0x3e354a3c	0.177041
206	0x3e59c909	0.21268095
207	0xbc339544	-0.010960881
208	0xbd1bcdc7	-0.03803804
209	0x3cbdea8a	0.023183126
210	0x3e3e7683	0.18599896
211	0x3e1848a4	0.1487146
212	0xbd834ed5	-0.064115204
213	0x3e37e8d2	0.17959908
214	0xbcc217a1	-0.023692908
215	0x3e3c3c26	0.1838232
216	0x3e3f39c8	0.18674386
217	0x3e3e5365	0.185865
218	0x3e3c6695	0.18398507
219	0xbd0ca800	-0.034339905
220	0x3cb5ce3a	0.022193063
221	0xbda464a4	-0.08027008
222	0x3d72b3e4	0.05925359
223	0x3caabf4d	0.020843172
224	0x3e31696f	0.17325376
225	0x3e3387a9	0.17532219
226	0x3e318bca	0.17338482
227	0xbd23c656	-0.03998407
228	0xbd99e204	-0.07513812
229	0x3e421e1b	0.18956797
230	0x3e3c6224	0.18396813
231	0xbcdf278c	-0.027240537
232	0x3e46f58a	0.19429603
233	0x3e3b8e9f	0.18316124
234	0x3e326df8	0.17424762
235	0x3c0878b7	0.008329562
236	0xbd2a8ade	-0.04163634
237	0x3e2cda24	0.16880089
238	0xbd89b0fb	-0.067232095
239	0xbce4ee02	-0.027945522
240	0x3e4a1879	0.19735898
241	0x3e3c3d98	0.18382871
242	0x3e527a73	0.20554523
243	0xbccb36ce	-0.024806406
244	0x3e275929	0.16342606
245	0x3e29a623	0.16567282
246	0x3e3812b0	0.17975879
247	0xbc541cca	-0.012946317
248	0xbd21197d	-0.03933095
249	0x3e425b38	0.1898011
250	0xbd8d5b9c	-0.06902239
251	0xbd157ce0	-0.036496043
252	0xbd2e78fb	-0.042595845
253	0x3e3bf87b	0.18356507
254	0xbd11a5b2	-0.03555841
255	0xbd0a8f11	-0.033827845
