RL/Model_Repository/pytorch_models/TD3_Guest_ang(seed_42)_actor.pth (torch, 500703 bytes, 5 tensors)

layer_1.weight f4 [400, 9]
0	0x3e76b54a	0.24092594
1	0x3e868318	0.26271892
2	0xbdbc2f25	-0.091886796
3	0x3e95b2d2	0.29237992
4	0xbdd6f300	-0.10495567
5	0x3d11598d	0.035485793
6	0xbe47ba00	-0.19504547
7	0x3e28a614	0.16469604
8	0x3e85ff0a	0.26171142
9	0xbea4d165	-0.32191005
10	0x3e597f87	0.21240054
11	0xbc753b0d	-0.014967692
12	0x3e2d011c	0.16894954
13	0xbd016b6a	-0.03159658
14	0x3dac6c07	0.08419042
15	0xbe001f4a	-0.12511936
16	0x3e38ccb2	0.18046835
17	0xbcfcb1a2	-0.03084642
18	0xbe24dd53	-0.16100053
19	0x3da2f0dc	0.079560965
20	0xbe22fc56	-0.15916571
21	0xbd36fac3	-0.04467274
22	0xbdf6780a	-0.120346144
23	0x3e71b146	0.2360278
24	0xbe7c3e88	-0.24633229
25	0xbe0f84a8	-0.14015448
26	0xbd953f39	-0.072874494
27	0xbe6a9789	-0.22909369
28	0x3b357700	0.0027689338
29	0xbeb74cd2	-0.35800797
30	0x3e8b642c	0.27224863
31	0xbe972673	-0.29521522
32	0x3e7b25ce	0.2452614
33	0x3d340d81	0.04395819
34	0xbdf9a370	-0.12189376
35	0x3e4b2b27	0.1984068
36	0x3d573178	0.05253741
37	0x3e8a2cfc	0.26987445
38	0x3d184e6d	0.037184168
39	0xbdd5d7b6	-0.10441534
40	0x3d8912d4	0.06693044
41	0xbde732b1	-0.112889655
42	0x3deee00c	0.11663827
43	0x3e8d63c7	0.27615187
44	0x3e2caa1e	0.1686177
45	0xbe224ae7	-0.15848885
46	0x3e37e98b	0.17960183
47	0x3d3f8963	0.04676188
48	0x3e201715	0.15633805
49	0xbe3d2a6e	-0.18473217
50	0xbe9f8dcc	-0.3116287
51	0xbde5b1d0	-0.11215556
52	0xbe749cd0	-0.23887944
53	0x3e94f430	0.2909255
54	0x3dfa1c5a	0.12212439
55	0x3e282935	0.16421969
56	0x3e06c719	0.13161887
57	0x3ca751b8	0.020424709
58	0x3e8b846a	0.2724946
59	0xbe6681ad	-0.22510405
60	0x3d045f3a	0.032317378
61	0xbe5b9a09	-0.21445478
62	0x3de36daf	0.11104905
63	0xbdab51fa	-0.08365245
64	0x3e08845d	0.13331743
65	0xbd1c83b7	-0.03821155
66	0x3e9d8ea6	0.30772895
67	0xbe3cdecc	-0.18444365
68	0xbe3dfe4f	-0.18554042
69	0xbe3de617	-0.18544804
70	0x3ea1078a	0.31451064
71	0x3df8bdc9	0.12145574
72	0x3ea779f5	0.32710233
73	0xbe899649	-0.2687247
74	0xbea6234c	-0.32448804
75	0xbe825c9e	-0.25461286
76	0xbe53277a	-0.20620528
77	0x3e1c8470	0.15284896
78	0x3e103880	0.14084053
79	0x3e967fdc	0.29394424
80	0xbe1797be	-0.14803979
81	0xbe830791	-0.2559171
82	0x3e17b30a	0.14814392
83	0xbe277535	-0.16353305
84	0x3e31a6c0	0.17348766
85	0xbdb586bc	-0.08863589
86	0x3e395964	0.18100506
87	0xbe894ed3	-0.2681795
88	0xbe37a363	-0.17933421
89	0x3dc4172d	0.09574733
90	0x3c381900	0.011236429
91	0xbe13a0ad	-0.14416762
92	0x3e0ed5f7	0.13948809
93	0x3e2b7583	0.16744046
94	0xbe967871	-0.29388765
95	0xbe6b65b1	-0.22988011
96	0x3e7f6d0d	0.24943943
97	0xbe284c57	-0.16435371
98	0xbe35d1d0	-0.17755818
99	0xbeb20c73	-0.34775123
100	0xbe5d5a0c	-0.21616381
101	0x3d6cee74	0.057844594
102	0xbd8e3727	-0.06944113
103	0xbe865bdd	-0.2624196
104	0xbc4e33df	-0.012585609
105	0xbe7c3823	-0.2463079
106	0xbe9bd4fa	-0.30435926
107	0xbe45c8eb	-0.19314925
108	0xbea1f008	-0.31628442
109	0xbe7280c6	-0.23681936
110	0x3e9e0088	0.3085978
111	0x3d1d0708	0.038336784
112	0x3dabfcf8	0.08397859
113	0xbea8dc5e	-0.32980627
114	0xbe710ded	-0.23540469
115	0xbe05deab	-0.13073222
116	0x3d1bfffe	0.03808593
117	0xbe8d1794	-0.2755705
118	0xbe00eb24	-0.12589699
119	0xbe3a68b9	-0.18204011
120	0x3c97445e	0.018465217
121	0xbdcfb1b5	-0.10141317
122	0xba3222bd	-0.00067953375
123	0xbe4be2d7	-0.19910751
124	0xbe540bcc	-0.20707625
125	0xbe287d29	-0.16453995
126	0xbe13fc9b	-0.1445183
127	0xbe9649d4	-0.293532
128	0x3e7ef252	0.24897125
129	0xbdc5fb36	-0.09667055
130	0x3e874116	0.26416844
131	0x3da6005f	0.081055395
132	0xbe9a944b	-0.30191264
133	0x3e53a4d5	0.20668347
134	0xbddc6e22	-0.10763194
135	0xbde00fbd	-0.10940502
136	0xbe844222	-0.25831705
137	0xbea062f7	-0.31325504
138	0x3de88b15	0.11354653
139	0xbd58293e	-0.052773707
140	0x3e193521	0.14961673
141	0xbe7e5bea	-0.2483975
142	0x3e8879e6	0.266555
143	0xbe5d2023	-0.2159429
144	0xbd42480d	-0.047431994
145	0x3da34a4a	0.07973154
146	0x3e3ac3a8	0.182387
147	0x3e8f0a6b	0.27937636
148	0x3e91ea2d	0.28498974
149	0xbe90df12	-0.2829519
150	0x3d86603b	0.06561323
151	0xbe246bc0	-0.16056728
152	0xbd6709aa	-0.0564057
153	0xbe7f553c	-0.24934858
154	0x3e9b8338	0.3037355
155	0xbe7a2ee6	-0.24431953
156	0x3e36b9b1	0.17844273
157	0x3dc05a55	0.093922295
158	0x3dae98e8	0.08525258
159	0xbe516e14	-0.20452148
160	0x3e8fd957	0.28095505
161	0x3d46c8d1	0.048531357
162	0x3d8053bb	0.0626597
163	0xbe8c407e	-0.27392954
164	0x3e23697a	0.15958205
165	0xbcf848ee	-0.030308213
166	0xbdf500eb	-0.11963066
167	0x3ea37205	0.31922927
168	0x3ddfaae6	0.10921268
169	0xbe1bbccf	-0.15208744
170	0xbe0969ce	-0.13419268
171	0xbca58174	-0.02020333
172	0x3e3a40f6	0.18188843
173	0xbdb7a4d6	-0.08966987
174	0xbe4749a0	-0.1946168
175	0xbdbe3e2a	-0.092892006
176	0xbe69508b	-0.22784631
177	0x3e105a54	0.14096957
178	0x3e8e63dc	0.27810562
179	0xbe94d9bb	-0.29072365
180	0x3d9178c7	0.071031146
181	0x3e29cf13	0.16582899
182	0x3d5cc7c6	0.053901456
183	0xbe003c3d	-0.12522979
184	0x3e4567c1	0.1927786
185	0x3e467303	0.19379811
186	0x3e137bf4	0.14402753
187	0xbd2877c9	-0.04112986
188	0xbd8b29d8	-0.067950904
189	0x3d7fc92b	0.062447708
190	0xbd035268	-0.03206101
191	0xbd94628b	-0.07245358
192	0x3e75b941	0.2399645
193	0x3e9b11bb	0.30286965
194	0xbc86591d	-0.016399914
195	0xbd789d49	-0.060696874
196	0x3cbb3772	0.022853587
197	0xbc23a31d	-0.00998762
198	0x3e073dce	0.1320717
199	0x3e14c8ee	0.14529774
200	0xbe806d86	-0.2508356
201	0xbd91b0ca	-0.07113798
202	0x3ea88bd2	0.32919174
203	0x3e365e8e	0.17809507
204	0x3d0cbcb9	0.034359667
205	0xbe1c7b2e	-0.15281364
206	0xbe1a3381	-0.1505871
207	0xbe84cf1d	-0.25939265
208	0xbd8e30ca	-0.069428995
209	0x3e1b79ea	0.15183225
210	0x3e80ef11	0.25182393
211	0x3e394703	0.18093495
212	0xbe88eedf	-0.26744744
213	0xbe32fce8	-0.17479289
214	0xbcc66b90	-0.024221212
215	0x3eb0f0a1	0.34558585
216	0x3d48aa75	0.048990685
217	0xbdaf2a7f	-0.08553027
218	0x3e0dc9bb	0.13846485
219	0xbe016608	-0.12636578
220	0xbe44d7f3	-0.19223003
221	0x3e888ddd	0.26670733
222	0xbe0270d0	-0.12738347
223	0xbd35c116	-0.044373594
224	0xbe9caa38	-0.30598617
225	0x3e7a7b21	0.24461032
226	0x3e8c56eb	0.27410063
227	0x3e12831b	0.14307825
228	0xbe57db04	-0.21079642
229	0xbea6136a	-0.32436687
230	0xbe883918	-0.2660606
231	0x3e8235a4	0.2543155
232	0x3e2a2358	0.16615045
233	0x3e90ffc7	0.28320143
234	0x3e17a8cb	0.14810483
235	0x3d6cceb9	0.057814334
236	0xbcf4f499	-0.02990179
237	0xbe8f7257	-0.28016922
238	0xbe9271af	-0.2860236
239	0xbe9fd4ab	-0.3121694
240	0x3e08d1f8	0.13361347
241	0xbe299b24	-0.16563088
242	0xbd885309	-0.06656463
243	0xbe585eb7	-0.21129881
244	0xbda4553d	-0.080240704
245	0xbe8221d3	-0.2541643
246	0xbe730f22	-0.23736241
247	0x3dad0672	0.08448495
248	0xbe004fe6	-0.12530479
249	0x3e3bb3b1	0.18330266
250	0xbe094b00	-0.13407516
251	0xbe85386c	-0.2601961
252	0xbda184dd	-0.0788667
253	0xbe3a06cb	-0.18166654
254	0xbdfa135d	-0.122107245
255	0xbeacc923	-0.33747205

layer_1.bias f4 [400]
0	0x3e56a02d	0.2095954
1	0xbe902341	-0.28151897
2	0x3e60c7e1	0.21951248
3	0xbe4691c7	-0.19391547
4	0xbd8e5470	-0.06949699
5	0xbe11625f	-0.14197682
6	0x3e91ef3e	0.2850284
7	0x3e782d5c	0.24236053
8	0x3d19a91d	0.037514795
9	0x3a3bbaad	0.0007161301
10	0xbe3a19b6	-0.1817387
11	0xbe494378	-0.19654644
12	0xbe115324	-0.14191872
13	0x3e0ae6b8	0.13564575
14	0xbda24241	-0.07922793
15	0x3e803629	0.2504132
16	0x3ce75ca4	0.028242417
17	0xbcaf98ce	-0.021435168
18	0xbe3033b7	-0.17207228
19	0x3e2115d0	0.15730977
20	0xbe9343f6	-0.28762788
21	0x3dba2850	0.0908972
22	0x3e2f502e	0.1712043
23	0x3dada9ee	0.08479677
24	0x3e8501e2	0.25978
25	0x3daaec02	0.08345796
26	0xbdbcd8cd	-0.09221039
27	0xbe831c91	-0.25607732
28	0xbea54187	-0.32276556
29	0x3e03250f	0.12807105
30	0x3e26f744	0.16305262
31	0xbe85f38c	-0.26162374
32	0x3db3e037	0.08783
33	0xbe11c4a3	-0.14235167
34	0x3e9acdf5	0.30235258
35	0xbe1c34ef	-0.15254568
36	0x3ea09ce4	0.31369698
37	0x3e92a14f	0.28638694
38	0x3e717253	0.23578767
39	0x3e61104f	0.21978877
40	0x3e10f389	0.14155401
41	0x3db49999	0.08818359
42	0xbe9ec0a5	-0.3100635
43	0xbdc83b7f	-0.09776973
44	0xbd05d97a	-0.032678105
45	0x3e53e201	0.20691682
46	0xbe183954	-0.14865619
47	0x3ddfd112	0.10928549
48	0x3e681f39	0.2266816
49	0x3de4404c	0.11145076
50	0x3e66dcda	0.22545186
51	0xbd240645	-0.04004504
52	0x3e010d85	0.12602814
53	0xbe003c98	-0.12523115
54	0x3e771e41	0.24132635
55	0xbd8d15ab	-0.068888985
56	0xbc63afcb	-0.013896893
57	0xbe867529	-0.2626126
58	0x3e95ef78	0.29284263
59	0xbdccd04a	-0.100006655
60	0x3e63f750	0.22262311
61	0xbe6cd0bb	-0.231265
62	0xbeb3a4a6	-0.35086554
63	0xbd0c3b91	-0.034236494
64	0xbe95d432	-0.29263455
65	0x3daeaeca	0.08529432
66	0x3cdc889e	0.026920613
67	0xbd817d91	-0.06322778
68	0x3e630ea5	0.22173555
69	0x3e888ebb	0.26671395
70	0xbe9fb37b	-0.3119162
71	0xbe96171e	-0.29314512
72	0x3e564d2b	0.20927875
73	0xbe5fd8d0	-0.21860051
74	0x3cce8727	0.02521093
75	0xbdd94e2b	-0.106106125
76	0x3dcbfcd1	0.0996033
77	0xbe692196	-0.22766718
78	0xbc57db15	-0.013174792
79	0xbe2ec6cd	-0.17068024
80	0xbdcebc5c	-0.100945204
81	0xbe3106a2	-0.17287686
82	0x3d3103f4	0.04321666
83	0x3e4ffa1e	0.20310256
84	0xbb30011e	-0.0026856135
85	0x3d97772c	0.07395777
86	0x3e8cd14b	0.27503428
87	0x3e74933c	0.2388429
88	0xbd3bca51	-0.04584724
89	0xbe8b1200	-0.2716217
90	0x3da661b5	0.08124105
91	0x3d90562a	0.070476845
92	0xbe87bdd0	-0.26512003
93	0xbea4b9a3	-0.3217288
94	0xbc91e1e9	-0.017807918
95	0x3e8fc52a	0.28080112
96	0xbeb4a45f	-0.35281655
97	0xbe6ff6e1	-0.2343402
98	0xbe3ed4b1	-0.18635823
99	0xbe9f4bab	-0.31112418
100	0xbe84500e	-0.25842327
101	0x3e8468f3	0.2586132
102	0x3e98cb58	0.2984264
103	0xbe86a0ae	-0.26294464
104	0x3bc65ccd	0.006053543
105	0xbe8a6f91	-0.27038243
106	0x3e3a3cc2	0.1818724
107	0xbe9040bc	-0.28174388
108	0xbe504654	-0.20339328
109	0xbe2e42b4	-0.17017633
110	0x3dceae91	0.1009189
111	0x3e81f40a	0.253815
112	0xbe25f54a	-0.16206852
113	0x3d39996e	0.045312338
114	0x3ea23111	0.3167806
115	0xbd415957	-0.04720434
116	0x3db31f93	0.08746257
117	0x3d254b7e	0.040355198
118	0xbc4021ce	-0.01172681
119	0x3e23fc68	0.16014254
120	0x3e68ee55	0.22747166
121	0xbdfb25f8	-0.12263101
122	0x3e8c9084	0.27454007
123	0x3e5e7127	0.21722852
124	0xbdd8e553	-0.10590615
125	0x3e8e56ac	0.278005
126	0xbd1e7536	-0.038686
127	0x3e87636e	0.26443046
128	0xbea0463e	-0.3130359
129	0x3e9d7cfd	0.3075942
130	0x3e9c64d7	0.30545685
131	0xbe820b34	-0.25399172
132	0xbe87a544	-0.26493275
133	0xbdaf00a4	-0.08545044
134	0xbe77a89b	-0.24185412
135	0x3d0f316d	0.034959245
136	0x3e208d48	0.15678895
137	0xbd1e1454	-0.038593605
138	0x3e7a8a79	0.24466886
139	0x3d81ffec	0.06347641
140	0xbe123ade	-0.14280269
141	0xbe88761b	-0.26652607
142	0x3e23f457	0.16011177
143	0xbeb5641a	-0.35427934
144	0x3c1880e8	0.009308077
145	0x3ce486c4	0.027896293
146	0xbe494424	-0.196549
147	0x3e38f032	0.18060377
148	0x3d8dbb99	0.06920547
149	0x3e8ff858	0.2811916
150	0x3e46cc57	0.19413887
151	0xbe946168	-0.28980565
152	0xbe99e1dc	-0.3005513
153	0xbe361fb3	-0.1778553
154	0xbe756dab	-0.23967616
155	0x3dcde5d3	0.10053601
156	0xbe6d87de	-0.2319636
157	0xbe71c3c2	-0.23609832
158	0x3e3456a1	0.17611171
159	0x3e5881b5	0.2114323
160	0xbdb7b375	-0.089697756
161	0xbeaacc6e	-0.33359092
162	0x3dc5b4b9	0.09653611
163	0x3e23258b	0.1593229
164	0x3e915372	0.28383976
165	0x3d83ed9e	0.06441806
166	0x3e4e9575	0.20174201
167	0xbe94c42f	-0.29055926
168	0x3e92bbd7	0.28658935
169	0xbe90ff09	-0.28319576
170	0xbe55c094	-0.20874244
171	0x3e7ce08d	0.24695034
172	0xbc73d925	-0.014883314
173	0x3e80e300	0.25173187
174	0xbe86a950	-0.2630105
175	0x3e811316	0.25209874
176	0x3e9d38b3	0.3070732
177	0x3e15892f	0.14603113
178	0x3e916b9f	0.2840242
179	0xbe5938fc	-0.21213144
180	0xbddfebe9	-0.10933668
181	0x3db1c449	0.086800165
182	0x3e4379b2	0.19089392
183	0xbe3c41c6	-0.18384466
184	0x3e6f3b22	0.23362401
185	0xbd8e7ab3	-0.06956997
186	0xbe6c5fad	-0.23083372
187	0x3dc35b18	0.09538859
188	0xbe74a765	-0.23891981
189	0xbeb2830b	-0.34865603
190	0x3d9136b6	0.070905134
191	0x3e1ab324	0.15107399
192	0x3e1000fe	0.14062878
193	0xbd78038c	-0.060550258
194	0xbe87d643	-0.26530656
195	0xbe7a660f	-0.24452995
196	0x3e9cc4df	0.3061895
197	0xbe865f81	-0.2624474
198	0x3dc8de2e	0.098080024
199	0x3ea506c5	0.32231727
200	0x3e92c101	0.28662875
201	0xbe47cc89	-0.19511618
202	0xbdbfbb1c	-0.0936186
203	0xbe934176	-0.2876088
204	0x3e56b598	0.2096771
205	0xbebb4806	-0.36578387
206	0xbea06413	-0.3132635
207	0xbe7d40a1	-0.24731685
208	0x3e837439	0.25674608
209	0x3e5ce46c	0.21571511
210	0x3e774010	0.24145532
211	0x3e998416	0.29983586
212	0xbe32c6e6	-0.17458686
213	0xbe199598	-0.14998472
214	0xbe5041d6	-0.20337614
215	0x3dfd4dfe	0.123683915
216	0x3e18eb34	0.14933473
217	0x3e11c20f	0.14234184
218	0xbe84907d	-0.25891486
219	0x3dc62018	0.0967409
220	0xbe7a6a85	-0.24454696
221	0xbdeedd76	-0.11663334
222	0xbc9d3c3d	-0.019193763
223	0x3cb1f086	0.021721136
224	0xbe9d84b3	-0.30765304
225	0x3e7ea402	0.24867252
226	0xbe24e74d	-0.16103859
227	0x3df877c8	0.121322215
228	0x3e9d24ab	0.30692038
229	0x3ddc678d	0.10761938
230	0x3e4fc1b5	0.20288737
231	0x3e2eafe1	0.1705928
232	0x3e61d7b9	0.22054948
233	0x3d949d87	0.072566085
234	0x3e54eb4f	0.20792888
235	0xbe3fc570	-0.1872766
236	0xbe5b6599	-0.21425475
237	0x3dbb5420	0.09146905
238	0x3d490bc4	0.049083486
239	0x3d1e7320	0.03868401
240	0xbe83d438	-0.25747848
241	0x3e091feb	0.13391082
242	0x3e958043	0.29199418
243	0xbd19a824	-0.037513867
244	0x3c96a8db	0.018391063
245	0x3dde93d6	0.10868041
246	0xbea1154a	-0.31461555
247	0xbd836d71	-0.06417359
248	0xbdd2655b	-0.10273238
249	0xbe441d5e	-0.19151828
250	0x3e7f3c10	0.24925256
251	0x3ec8b414	0.3919989
252	0x3c9d963e	0.01923668
253	0x3e7184f1	0.2358587
254	0xbe7def52	-0.24798325
255	0x3dc9c445	0.098518886

layer_2.weight f4 [300, 400]
0	0xbb6a5988	-0.0035758931
1	0x3db1e4cb	0.08686217
2	0x3cc12107	0.023575319
3	0x3d7238f6	0.059136353
4	0xbdd21a13	-0.102588795
5	0x3d4ca7de	0.049964778
6	0xbc7d878a	-0.01547421
7	0xbd48805f	-0.04895055
8	0x3d873031	0.06600989
9	0x3b91f27d	0.0044539557
10	0x3d8fe8f2	0.07026853
11	0x3da9019e	0.082522616
12	0x3c84c760	0.01620835
13	0x3cf1db33	0.029523468
14	0x3dbdd0ce	0.09268342
15	0x3d86668a	0.065625265
16	0xbcf88fe7	-0.030342055
17	0xbdc64d9c	-0.096827716
18	0x3dade2cb	0.08490523
19	0x3d20d96d	0.039269853
20	0x3d776e3d	0.060407866
21	0xbc4c8619	-0.012483143
22	0xbdfa8ec9	-0.12234265
23	0xbd1808b9	-0.037117694
24	0x3b8081b7	0.003921713
25	0xbc90c018	-0.017669722
26	0x3d88fc0d	0.066887
27	0x3d724149	0.059144292
28	0x3d0be9f4	0.034158662
29	0xbcc76582	-0.024340395
30	0xbda19ee3	-0.07891633
31	0x3d7ffff8	0.06249997
32	0x3dbf9afe	0.09355734
33	0x3c7a8347	0.015290088
34	0xbd88f962	-0.06688191
35	0xbd221119	-0.039567087
36	0x3d686d95	0.05674513
37	0xbd9f7669	-0.07786257
38	0xbc7f7bd3	-0.015593487
39	0xbd87bb91	-0.06627572
40	0x3d881c24	0.066459924
41	0xbceb2e93	-0.028708732
42	0x3d43fd14	0.047848776
43	0x3db34e40	0.087551594
44	0x3db59f1a	0.08868237
45	0xbd23b7ef	-0.039970335
46	0x3d2602a7	0.040529873
47	0xbc26a746	-0.010171717
48	0xbda7d190	-0.08194268
49	0xbd174e6e	-0.03694003
50	0xbd8dfa66	-0.06932525
51	0x3db434c7	0.08799129
52	0xbdbfe89a	-0.09370537
53	0x3d7c250d	0.061558772
54	0xbda74396	-0.08167188
55	0x3be34235	0.0069353827
56	0x3d8b1385	0.067908324
57	0x3c67ce61	0.014148326
58	0xbd64c90a	-0.05585579
59	0x3d93a5a4	0.07209328
60	0xbcfb8e81	-0.0307076
61	0x3dc945d1	0.098277695
62	0x3dd215ea	0.10258086
63	0x3d803ebf	0.06261968
64	0x3da5f1ab	0.08102735
65	0xbdce5c3c	-0.10076186
66	0x3db2642a	0.08710511
67	0xbc6f4635	-0.014604141
68	0xbcd860f1	-0.026413413
69	0xbd485538	-0.048909396
70	0x3d4e2cf6	0.050335847
71	0x3db54a76	0.08852093
72	0xbda66920	-0.0812552
73	0x3d8a5b06	0.067556426
74	0xbcf15d3e	-0.029463407
75	0x3d217b6f	0.039424356
76	0x3ced0fe9	0.02893825
77	0xbdcc4173	-0.09973421
78	0x3cea3124	0.028587885
79	0x3ddd6b11	0.10811437
80	0x3d823a08	0.06358725
81	0x3c15f752	0.009153204
82	0xbd1283a1	-0.035770062
83	0xbd3dd3af	-0.046344455
84	0x3dce810f	0.1008321
85	0xbe0423d8	-0.12904298
86	0xbd77f5ea	-0.060537256
87	0xbda63c28	-0.08116943
88	0x3cba3d43	0.02273429
89	0x3d38b64a	0.04509572
90	0xbdc9655e	-0.098337874
91	0xbc5084c8	-0.01272697
92	0x3d0f4a64	0.034983054
93	0x3d9039b2	0.070422545
94	0x3d3df9f5	0.046380956
95	0xbd56ab40	-0.05240941
96	0x3d3a14dc	0.04543005
97	0x3dcbed43	0.099573635
98	0x3ddeb3ae	0.10874115
99	0x3dbd4853	0.092423104
100	0x3d66b133	0.056321334
101	0xbcafa871	-0.021442624
102	0xbdeb7670	-0.114971995
103	0x3d9a9866	0.07548599
104	0x3d3eb717	0.046561327
105	0x3c437e31	0.011931942
106	0x3c58181d	0.013189343
107	0x3d147ff1	0.036254827
108	0xbd2e5050	-0.04255706
109	0x3d0eb504	0.0348406
110	0xbdc0de8f	-0.0941745
111	0x3dcd2e90	0.10018647
112	0x3d1d9aa6	0.038477562
113	0x3d86b378	0.065772
114	0xbdc1be41	-0.09460116
115	0xbcc236b6	-0.023707729
116	0xbd14c537	-0.03632089
117	0x3da27cf5	0.0793399
118	0xbd23fb3b	-0.040034514
119	0xbd8444d9	-0.06458444
120	0xbd0df952	-0.0346616
121	0xbd8167cb	-0.06318625
122	0xbda9651e	-0.0827124
123	0xbd235009	-0.03987125
124	0x3d702ec5	0.058638353
125	0xbdb8ba7f	-0.09019946
126	0x3d7fe2ce	0.062472157
127	0xbdbbc56b	-0.09168514
128	0x3d1cc6c0	0.03827548
129	0xbd9f2f5e	-0.077727064
130	0xbd96b56b	-0.073588215
131	0x3d06213d	0.032746542
132	0x3d6a117e	0.057145588
133	0x3dd00250	0.10156691
134	0xbd9f735d	-0.07785676
135	0xbd19388f	-0.037407454
136	0xbdb2a976	-0.08723728
137	0xbd62a0a8	-0.055328995
138	0xbd64ce32	-0.055860706
139	0xbda1a65e	-0.0789306
140	0xbc00a871	-0.00785266
141	0x3c143721	0.009046347
142	0xbd0c2764	-0.034217253
143	0xbd277e72	-0.040892072
144	0x3d461e82	0.04836894
145	0xbd8fe2e3	-0.07025697
146	0x3d99d230	0.07510793
147	0xbd371c3d	-0.044704664
148	0xbdafc85b	-0.08583137
149	0xbd98924e	-0.074497804
150	0xbc7a9318	-0.015293859
151	0x3d33ba97	0.043879118
152	0xbd1111f4	-0.035417512
153	0x3d535260	0.05159223
154	0x3d637021	0.055526856
155	0x3d2fe675	0.04294439
156	0x3c9c7134	0.019096948
157	0x3cb81716	0.022471946
158	0xbd8f2325	-0.06989125
159	0xbc9b7bb1	-0.01897988
160	0x3dc9dff1	0.098571666
161	0x3d44f810	0.048088133
162	0xbd30b454	-0.043140724
163	0xbdbeeb93	-0.09322276
164	0xbcd74062	-0.026275817
165	0x3dc72c70	0.09725273
166	0xbb912952	-0.0044299746
167	0x3d0ab57b	0.03386448
168	0xbc457d53	-0.012053805
169	0x3cfcdbbd	0.030866498
170	0x3d3d44b5	0.046208102
171	0xbd85499a	-0.06508179
172	0xbdf6a643	-0.12043431
173	0xbdd975fd	-0.106182076
174	0x3c8d611d	0.017258221
175	0xbd2b6af2	-0.041850038
176	0xbd688b29	-0.05677334
177	0x3d866edc	0.065641135
178	0xbd83a660	-0.06428218
179	0x3dc08f1d	0.09402297
180	0xbd38f5e8	-0.04515639
181	0x3dbbffe5	0.091796674
182	0xbc6406b3	-0.013917613
183	0x3c337542	0.010953249
184	0xbdb19c23	-0.08672359
185	0x3d94e156	0.07269542
186	0x3dadcf6b	0.084868275
187	0x393b8a5a	0.0001788525
188	0x3d5b2de3	0.053510558
189	0xbd9012fb	-0.0703487
190	0xbbcb823d	-0.006210594
191	0x3dbdc146	0.092653796
192	0xbc897407	-0.016778959
193	0xbccdb5a4	-0.025111027
194	0xbd6683ab	-0.056277912
195	0x3dc93ab7	0.09825652
196	0xbd9a413f	-0.07531976
197	0x3d6023d8	0.054721683
198	0x3d2875ba	0.041127898
199	0xbcf02b79	-0.029317604
200	0xbd9f36d6	-0.07774131
201	0x3d88f6c4	0.06687692
202	0xbd6b40e4	-0.05743493
203	0x3ca65bc3	0.020307427
204	0xbd730d30	-0.05933875
205	0x3db25858	0.087082565
206	0x3c928296	0.017884534
207	0xbcb425c4	-0.021990664
208	0xbdc0cd1d	-0.09414122
209	0xbd5bc84d	-0.05365782
210	0xbdc26561	-0.09491993
211	0xbdf96543	-0.12177517
212	0x3d40aa94	0.047037676
213	0x3dc90e3e	0.098171696
214	0x3dcb85f3	0.09937658
215	0xbd0d72db	-0.034533363
216	0x3dbd9333	0.09256592
217	0xbddd1a14	-0.1079599
218	0x3da86835	0.08223001
219	0xbd375857	-0.04476198
220	0x3d09f524	0.03368105
221	0x3d2a2462	0.041538604
222	0x3d98edec	0.07467255
223	0x3d6aa164	0.05728282
224	0x3c9be217	0.019028706
225	0xbdb5bfe8	-0.08874494
226	0x3db8bd06	0.09020428
227	0xbd41337e	-0.047168247
228	0xbda75862	-0.081711546
229	0xbdce56ad	-0.10075126
230	0xbc0d90b1	-0.008640454
231	0xbdb01300	-0.08597374
232	0xbcf92242	-0.030411843
233	0xbd61a0cd	-0.055084992
234	0xbd52a331	-0.051425163
235	0xbce651a6	-0.028115105
236	0xbd6100e1	-0.05493248
237	0x3d674dcb	0.056470674
238	0xbc554fcb	-0.013019512
239	0xbdee653c	-0.11640403
240	0x3d97f9b5	0.07420675
241	0xbd850f08	-0.064970076
242	0xbdcc1646	-0.09965186
243	0x3db1c031	0.08679236
244	0x3dab66a4	0.083691865
245	0xbdcc7d36	-0.099848196
246	0x3dc985c4	0.09839967
247	0x3d073584	0.03301002
248	0x3dc6a002	0.09698488
249	0x3d18b3d8	0.037280887
250	0x3cbdc7f0	0.023166627
251	0xbd87042a	-0.06592591
252	0xbd5f5431	-0.05452365
253	0x3d9323bc	0.0718455
254	0x3d4c789a	0.049919702
255	0x3ce15f19	0.027511166

layer_2.bias f4 [300]
0	0xbdc48c1a	-0.09597035
1	0xbda99e8b	-0.08282193
2	0x3c1d1962	0.009588571
3	0xbc2bded4	-0.010490138
4	0xbc3d5c18	-0.011557601
5	0xbcfc2b42	-0.030782346
6	0xbcaffac5	-0.02148188
7	0x3dc554a1	0.09635282
8	0xbd8219f5	-0.06352607
9	0x3c5fbb55	0.013655503
10	0xbd4f8783	-0.050666343
11	0x3d11e91b	0.035622697
12	0xbd539bc6	-0.05166223
13	0xbd48063d	-0.048834074
14	0x3d142727	0.03617015
15	0x3d843da1	0.06457067
16	0x3d8afceb	0.067865215
17	0x3d9d4f1b	0.07681104
18	0x3c9463a2	0.018113915
19	0xbda663a4	-0.08124474
20	0xbd0d27b2	-0.034461685
21	0x3d376dd1	0.044782463
22	0xbd8353f7	-0.064124994
23	0x3b9aa58b	0.0047194413
24	0xbdba60f4	-0.091005236
25	0xbd32932a	-0.043597378
26	0x3d5e7281	0.05430842
27	0x3ce57cae	0.028013553
28	0xbdb2c03f	-0.08728074
29	0x3c201b4f	0.009772136
30	0xbdcbf1df	-0.099582426
31	0xbd725738	-0.05916521
32	0xbcb842cd	-0.02249279
33	0xbd3a3795	-0.045463163
34	0x3dd01ab4	0.10161343
35	0x3d084d89	0.03327707
36	0x3d6fcfb3	0.058547687
37	0xbdc2d402	-0.095130935
38	0xbbb85310	-0.005625136
39	0x3d9c48a3	0.07631042
40	0x3c34cd93	0.011035341
41	0x3d191c50	0.037380517
42	0xbd83e275	-0.064396776
43	0x3b6b682b	0.0035920243
44	0xbd62f3f7	-0.055408444
45	0xbd836988	-0.06416613
46	0xbd0c228a	-0.034212627
47	0x3db6633b	0.089056455
48	0xbd139200	-0.03602791
49	0x3d3693fe	0.04457473
50	0x3db03e39	0.08605618
51	0xbd9191ef	-0.07107913
52	0x3d39205a	0.04519687
53	0x3d8601ff	0.065433495
54	0x3bd8a99d	0.0066120164
55	0xbd8ce633	-0.068798445
56	0x3dbe751d	0.09299681
57	0xbd8f5a95	-0.06999699
58	0x3dc74097	0.097291164
59	0x3d44f646	0.048086427
60	0x3d0130dd	0.03154074
61	0x3dd2d669	0.10294802
62	0xbdea1f5f	-0.11431765
63	0xbb006985	-0.0019594145
64	0x3cd50696	0.026004117
65	0xbda51fcf	-0.08062708
66	0x3c851276	0.016244154
67	0x3d324fb3	0.04353304
68	0x3db05b8b	0.086112104
69	0xbd635c05	-0.05550768
70	0xbdd03376	-0.101660654
71	0x3c367456	0.011136135
72	0x3d6724c6	0.056431554
73	0xbc1e7a84	-0.009672765
74	0x3dc8d644	0.09806493
75	0x3c035ad9	0.008017265
76	0xbd853747	-0.06504684
77	0xbd132d2a	-0.035931744
78	0x3ba68d25	0.0050827437
79	0x3d007d77	0.031369653
80	0xbb2bd8f4	-0.0026221843
81	0x3d028034	0.031860545
82	0x3d96b369	0.073584385
83	0xbd0fe8f6	-0.03513428
84	0x3d8cc59b	0.06873628
85	0xbd6ff287	-0.0585809
86	0xbd7a04be	-0.06103968
87	0xbdd0eeeb	-0.1020182
88	0x3dc40f76	0.095732614
89	0x3da89006	0.08230595
90	0xbdc769cf	-0.09736978
91	0xbd1004e8	-0.03516093
92	0xbd63c453	-0.05560715
93	0x3d6df2fa	0.05809305
94	0x3ce20abd	0.027593011
95	0xbcac5b4a	-0.021039624
96	0x3dc6a576	0.09699528
97	0x3dc78466	0.0974205
98	0x3da22740	0.079176426
99	0x3dc785e5	0.09742335
100	0x3cd5112d	0.026009167
101	0xbd69a964	-0.05704631
102	0xbd7bf2b0	-0.06151074
103	0x3d18bbe7	0.037288573
104	0x3d8e2510	0.06940663
105	0x3d6dc42b	0.05804841
106	0x3dba6342	0.09100963
107	0xbdc3eca3	-0.09566619
108	0xbd8b5725	-0.06803731
109	0x3d774fd2	0.060378857
110	0xbc7ac439	-0.015305572
111	0x3d119e5b	0.03555141
112	0x3c7c1fca	0.0153884385
113	0xbd6b7d62	-0.05749262
114	0xbc51d5d9	-0.012807333
115	0xbde9c1c8	-0.11413914
116	0x3ba4814e	0.005020297
117	0xbc06a764	-0.00821862
118	0x3d158757	0.036506023
119	0xbd9599fa	-0.07304759
120	0x3cb69f93	0.022292888
121	0x3cfe83c7	0.031068696
122	0x3d7baa04	0.061441436
123	0x3c718a90	0.0147425085
124	0x3c5749bf	0.013140141
125	0xbd6c6da1	-0.057721738
126	0xbd1a99e9	-0.037744436
127	0x3c7a9e97	0.0152966
128	0x3cf8c816	0.030368846
129	0x3d75da63	0.060022723
130	0x3dcf5c6e	0.101250514
131	0xbccbe314	-0.024888553
132	0x3d8e3a25	0.06944684
133	0xbdaf7825	-0.085678376
134	0xb9e2889a	-0.00043207855
135	0x3d19c484	0.037540928
136	0xbda40bc1	-0.080100544
137	0xbd8e1604	-0.06937793
138	0xbd9adf5c	-0.07562134
139	0x3d829769	0.063765354
140	0xbd2a9d60	-0.04165399
141	0x3d984fdf	0.07437109
142	0xbc718e0d	-0.01474334
143	0xbc7dbe34	-0.0154872425
144	0x3d5c4d11	0.053784434
145	0x3d8e2312	0.06940283
146	0xbd44395e	-0.047906272
147	0x3dc31ec7	0.09527355
148	0x3c97f605	0.018549928
149	0xbd4a3301	-0.049365047
150	0xbd16cf9e	-0.036819093
151	0x3c89ce9e	0.016822156
152	0xbcea166a	-0.028575141
153	0xbc1f77ef	-0.009733184
154	0xbdb9c5c9	-0.09070928
155	0xbd83bb99	-0.06432266
156	0x3db47df6	0.08813088
157	0xbd3323ee	-0.043735437
158	0x3dab6353	0.08368554
159	0xbda71d7f	-0.08159923
160	0x3c542605	0.012948518
161	0x3cc90903	0.02454043
162	0xbc9eeb0b	-0.019399187
163	0x3db695ce	0.08915292
164	0x3db0abb0	0.08626497
165	0x3d91b5f0	0.0711478
166	0xbda8aa55	-0.08235613
167	0x3c2a9713	0.010411995
168	0xbd7043dc	-0.058658466
169	0x3d264e81	0.04060221
170	0x3d962f6b	0.07333263
171	0xbd956746	-0.072950885
172	0x3bb7c459	0.0056081233
173	0x3dc67238	0.09689754
174	0x3ccb3b82	0.024808649
175	0xbdc42999	-0.095782466
176	0x3dc549d7	0.096332245
177	0x3d96c4bb	0.07361742
178	0xbdcf3d8a	-0.101191595
179	0xbd25207d	-0.040314186
180	0xbdc211d1	-0.094760545
181	0xbdaf5a09	-0.08562095
182	0x3d9a4698	0.07532996
183	0x3da33c8b	0.07970532
184	0xbd55ef4c	-0.052230164
185	0xbd8e183e	-0.069382176
186	0x3d8aaad9	0.06770868
187	0xbb3cb1f6	-0.0028792596
188	0x3cb8b2b2	0.022546146
189	0xbdc4f24d	-0.09616528
190	0x3d21178b	0.039329093
191	0x3d6734c7	0.056446817
192	0x3d22f1b9	0.039781306
193	0xbdcc055a	-0.09961958
194	0xbc4b7d47	-0.012420005
195	0xbca7e10e	-0.020493057
196	0x3d1d8c28	0.03846374
197	0x3db66dbf	0.08907651
198	0x3d401a70	0.046900213
199	0x3d8b97c9	0.0681606
200	0x3dbc1e0b	0.09185418
201	0x3de34be6	0.11098461
202	0x3d65266e	0.055944853
203	0x3ddad377	0.10684865
204	0xbcbbdae7	-0.02293153
205	0xbc3f2145	-0.011665647
206	0x3d9587ec	0.07301316
207	0x3d7c4d76	0.06159731
208	0x3dbd969f	0.09257244
209	0x3d4ba88d	0.04972129
210	0xbd0b40a5	-0.033997197
211	0x3dc4a3ed	0.09601579
212	0x3d0961d4	0.03354056
213	0x3daae805	0.083450355
214	0xbc9eb296	-0.019372266
215	0xbd8732c3	-0.06601479
216	0x3dd019f0	0.10161197
217	0xbc1b2e56	-0.009471497
218	0xbda337c7	-0.07969623
219	0xbd7fbae0	-0.062434077
220	0x3db64534	0.08899918
221	0x3d21404d	0.039367963
222	0xbcb8744a	-0.022516388
223	0xbdbae1ae	-0.09125076
224	0x3dc56b57	0.09639614
225	0xbd6fbe1f	-0.058530923
226	0x3dca21b2	0.09869708
227	0xbb47492e	-0.0030408609
228	0xbd8a34aa	-0.06748326
229	0xbcc67e3d	-0.024230117
230	0xbd876842	-0.066116825
231	0xbc6041ca	-0.01368756
232	0x3bc54e4c	0.0060212966
233	0x3ce231c8	0.027611628
234	0xbbffd641	-0.0078075235
235	0xbda3d723	-0.080000184
236	0x3cdd8c1e	0.027044352
237	0xbd242031	-0.040069763
238	0xbc0c9439	-0.008580261
239	0xbd9c10ab	-0.07620367
240	0x3cb96342	0.022630338
241	0xbd3251c2	-0.043535
242	0xbbdb9731	-0.006701373
243	0xbc28cbf3	-0.0103025315
244	0x3cd85ed4	0.026412405
245	0xbd4a96eb	-0.049460333
246	0xbd83b03e	-0.064301
247	0xbd9666c0	-0.07343817
248	0x3ce1eac8	0.027577773
249	0xbd488beb	-0.04896156
250	0x3c7b0b0c	0.015322458
251	0xbd931630	-0.07181966
252	0xbdbae863	-0.091263555
253	0x3d4199a7	0.047265675
254	0x3dc08c59	0.09401769
255	0x3dbebae8	0.09312993

layer_3.weight f4 [1, 300]
0	0x3db605f2	0.08887853
1	0x3db5c0fe	0.08874701
2	0xbd7deeb2	-0.061995216
3	0x3d613993	0.054986548
4	0x3c5112f1	0.012760864
5	0x3d05c8c3	0.032662164
6	0x3d1aebf8	0.037822694
7	0xbd620a73	-0.055185746
8	0x3d5978d4	0.053093746
9	0xbd82bba0	-0.06383443
10	0xbca0f542	-0.019648198
11	0xbd834bdf	-0.06410956
12	0x3d160a50	0.03663093
13	0x3cd6a1bc	0.026200168
14	0xbcf417c5	-0.02979649
15	0xbd702e44	-0.058637872
16	0xbd75cc92	-0.060009547
17	0xbd8a98fa	-0.06767459
18	0xbd3f8bd0	-0.046764195
19	0x3d61910d	0.05506997
20	0x3d7a1592	0.061055727
21	0xbd8a08ad	-0.06739936
22	0x3d135280	0.03596735
23	0xbd183fa6	-0.037170075
24	0x3d89b6f1	0.067243464
25	0x3d55bfd6	0.052184902
26	0xbcdb12cd	-0.026742363
27	0xbc29cf3a	-0.010364348
28	0x3d7e267a	0.062048413
29	0xbd0bf39b	-0.034167867
30	0x3ccca730	0.024982065
31	0x3d9679aa	0.07347424
32	0x3d3f706d	0.046738077
33	0x3d848c1a	0.06472035
34	0xbd81440b	-0.06311806
35	0xbd62dd61	-0.055386905
36	0xbd8b403e	-0.067993626
37	0x3d89e178	0.06732458
38	0x3d2de7e4	0.042457476
39	0xbd3c5c6f	-0.04598659
40	0xbcf2d1d5	-0.029641071
41	0xbd4ba07f	-0.049713608
42	0x3d977c2e	0.07396732
43	0xbcf9a2d8	-0.030473158
44	0x3d709578	0.058736295
45	0x3c83d9a3	0.016094988
46	0x3d5cf80c	0.053947493
47	0xbcfa1b36	-0.030530553
48	0x3cba140f	0.022714643
49	0xbd3f788f	-0.046745833
50	0x396df883	0.00022694659
51	0x3d87dc47	0.066338114
52	0xbd76164f	-0.06007987
53	0xbd79392c	-0.06084554
54	0xbd55eae4	-0.052225962
55	0x3d31edf5	0.043439824
56	0xbc9c6bb8	-0.019094333
57	0x3d96a194	0.07355037
58	0xbd4eb758	-0.05046782
59	0xbdab51b5	-0.08365194
60	0xbd4f2e9f	-0.05058157
61	0xbd879bf3	-0.06621542
62	0x3d8b7c3c	0.06810805
63	0xbb9fd405	-0.0048775696
64	0xbd8e36ea	-0.06944068
65	0x3c8b372c	0.016994081
66	0xbd865150	-0.06558478
67	0xbd6b7760	-0.05748689
68	0xbd94956d	-0.07255063
69	0x3d898143	0.06714108
70	0x3d759c50	0.059963524
71	0xbd8b0cc0	-0.06789541
72	0xbcdcffc4	-0.026977427
73	0x3c5d5020	0.013507873
74	0xbda80611	-0.08204282
75	0xbd7679fa	-0.06017492
76	0x3d82efc3	0.06393387
77	0x3d3859cc	0.045007512
78	0xbd986f7b	-0.07443138
79	0xbda0f0de	-0.07858442
80	0x3ca3807c	0.019958727
81	0xbd2ea5e6	-0.04263868
82	0xbdb46977	-0.08809178
83	0x3d1272e7	0.03575411
84	0xbd842702	-0.06452753
85	0x3cd9287c	0.026508562
86	0x3d7e6191	0.062104765
87	0x3da491b5	0.08035604
88	0xbd8f14f6	-0.0698642
89	0xbda6ab98	-0.08138198
90	0x3d769cda	0.06020818
91	0x3d882e2a	0.0664943
92	0x3d4511c2	0.04811264
93	0xbd5b8a07	-0.05359843
94	0xbc0b2578	-0.00849282
95	0x3d09ce64	0.033644095
96	0xbda9fa2f	-0.08299672
97	0xbd3fc7f9	-0.04682157
98	0xbd900019	-0.070312686
99	0xbd7b3910	-0.061333716
100	0xbd5d869b	-0.054083448
101	0x3d63f586	0.05565407
102	0x3c02b08b	0.007976661
103	0xbd97dd79	-0.074152894
104	0xbd9006c1	-0.07032538
105	0xbd88a7d5	-0.066726364
106	0xbd4eeead	-0.050520588
107	0x3d637900	0.055535316
108	0x3d9441fd	0.07239149
109	0xbd8b28f5	-0.06794921
110	0x3ca54fef	0.020179717
111	0xbd3dea20	-0.046365857
112	0xbd91473c	-0.07093665
113	0x3d88b087	0.06674295
114	0x3d626d88	0.05528024
115	0x3d915922	0.07097079
116	0xbcfeb7d4	-0.031093515
117	0xbcdf5f4f	-0.027267126
118	0xbd1368bc	-0.035988554
119	0x3d8828c6	0.06648402
120	0xbaa9a868	-0.0012943866
121	0x3ca0b809	0.019619005
122	0xbd356830	-0.044288814
123	0xbd375f5c	-0.044768676
124	0xbdbcd037	-0.09219401
125	0x3d5af384	0.05345489
126	0x3d98cd5d	0.07461045
127	0xbcf25f42	-0.029586438
128	0xbd62ace0	-0.055340648
129	0xbdaf8165	-0.08569602
130	0xbd981981	-0.074267395
131	0x3d7385d5	0.059453804
132	0xbcfffa8c	-0.0312474
133	0x3d961d62	0.07329823
134	0x3baba2e0	0.005237922
135	0xbd6471db	-0.055772644
136	0x3d6d6189	0.057954345
137	0x3d798294	0.060915545
138	0x3d204558	0.03912863
139	0xbd1c3388	-0.03813508
140	0x3d4959ed	0.049158026
141	0xbd6aceeb	-0.05732624
142	0x3d372923	0.044716965
143	0x3d8e2783	0.0694113
144	0xbce321c8	-0.02772607
145	0xbd46ada1	-0.04850543
146	0x3cd05439	0.025430785
147	0xbdabc69e	-0.083874926
148	0xbd15de2b	-0.03658883
149	0x3d87360b	0.06602105
150	0x3d9dabcc	0.07698783
151	0xbc635861	-0.013876052
152	0xba65c797	-0.0008765398
153	0x3d41e9ec	0.047342226
154	0x3d0deb1c	0.034648046
155	0x3d7e39d5	0.06206687
156	0xbdba8b7c	-0.09108636
157	0x3d1e7f35	0.038695533
158	0xbd8cac7d	-0.06868837
159	0x3c510346	0.012757128
160	0x3bf2523c	0.007395057
161	0xbd386260	-0.045015693
162	0x3ceb60c9	0.028732674
163	0xbd90d4f2	-0.07071866
164	0xbd3e5832	-0.04647083
165	0xbd0b4bc8	-0.034007818
166	0x3dc83909	0.097765036
167	0xbcd5be59	-0.026091741
168	0x3d73b4a5	0.059498448
169	0xbda6f5a5	-0.08152322
170	0xbd83658e	-0.064158544
171	0x3d9a16b4	0.075238615
172	0xbcfec52c	-0.031099878
173	0xbd1f09a4	-0.038827553
174	0xbd5f44a2	-0.054508813
175	0x3d746b24	0.05967249
176	0xbd9b49c8	-0.07582432
177	0xbdb5ce10	-0.08877194
178	0x3d90f6d6	0.0707833
179	0x3cb0197b	0.021496525
180	0x3da6bd76	0.081416056
181	0x3d8a978c	0.067671865
182	0xbd303c3d	-0.043026198
183	0xbdaf3f58	-0.08557004
184	0xbc81fe47	-0.01586832
185	0x3d80c3b0	0.062873244
186	0xbda5cc54	-0.08095613
187	0xbc3f1a18	-0.011663936
188	0xbcf778c0	-0.030208945
189	0x3d45d600	0.04829979
190	0xbd7eba23	-0.062189233
191	0xbd5904cb	-0.052983087
192	0xbc47f4f2	-0.012204396
193	0x3d3842c1	0.044985536
194	0xbae144fe	-0.0017186699
195	0x3cacbedf	0.021087108
196	0xbd45fc5a	-0.048336364
197	0xbd8feac9	-0.070272036
198	0xbd4979dd	-0.049188484
199	0xbd7094a7	-0.058735516
200	0xbd5ae230	-0.053438365
201	0xbd901717	-0.07035654
202	0xbda20870	-0.079117656
203	0xbd581b3c	-0.052760348
204	0x3d2c76ed	0.042105604
205	0xba6b1a75	-0.0008968481
206	0xbd5ac65e	-0.053411834
207	0xbd59ece4	-0.053204432
208	0xbd4f028a	-0.05053953
209	0xbce570ba	-0.028007854
210	0x3d1d1242	0.03834749
211	0xbd918d7d	-0.07107065
212	0xbd577f0f	-0.052611407
213	0xbdab1bfc	-0.08354947
214	0x3d806e26	0.06271009
215	0x3d94d312	0.07266821
216	0xbd0af354	-0.033923462
217	0x3d925f6d	0.07147107
218	0x3d9ae2c4	0.07562783
219	0x3d57b0dc	0.0526589
220	0xbd8fce5c	-0.07021782
221	0x3c8e6713	0.017383134
222	0x3cc97682	0.024592642
223	0x3c61d9c1	0.013784827
224	0xbc287925	-0.010282789
225	0x3ce1d079	0.027565228
226	0xbd9d0122	-0.07666232
227	0x3d1dacd7	0.03849491
228	0x3c4fdbde	0.012686698
229	0x3d6fc563	0.058537852
230	0x3cd58682	0.026065115
231	0x3cee5eda	0.029097963
232	0xbd82c04b	-0.06384333
233	0x3d1510e6	0.03639307
234	0x3d104acb	0.035227578
235	0x3d4a6bed	0.049419332
236	0xbd038959	-0.032113407
237	0x3d2cc1eb	0.042177122
238	0x3d1b3c27	0.037899163
239	0x3d74ea98	0.05979404
240	0xbdae7040	-0.08517504
241	0x3c5bcaa8	0.013415016
242	0x3bf9b559	0.0076204953
243	0x3d8cb508	0.068704665
244	0x3d16b461	0.036793116
245	0x3d034951	0.03205234
246	0x3cce35a4	0.025172062
247	0x3d1e1328	0.038592488
248	0xbcaa76ea	-0.020808656
249	0x3d671770	0.056418836
250	0xbbb1e399	-0.005428743
251	0x3d89c8fa	0.06727786
252	0x3d93a519	0.07209224
253	0xbcc0dc70	-0.023542613
254	0xbd9ded95	-0.07711331
255	0xbd327729	-0.04357067
