RL/Model_Repository/pytorch_models/TD3_Guest_jean_actor.pth (torch, 495903 bytes, 5 tensors)

layer_1.weight f4 [400, 6]
000000 86 e1 a2 3e c8 90 b0 3e 17 93 b7 bd f2 15 c3 3e
       0.31812686 0.3448546 -0.08963602 0.3810268
000010 99 f0 aa bd 8a df b4 3d 6c ad 51 be 9e 5c 6f 3e
       -0.083466716 0.08831699 -0.20476311 0.23375174
000020 2a 30 b5 3e 82 6b 9c be e9 9d b2 3e c2 4a 90 3d
       0.3538831 -0.30550772 0.348861 0.07045509
000030 7a 5a 97 3e de dd 49 3d 6e 6d 43 3e 0d 59 82 bd
       0.29561216 0.049283855 0.19084713 -0.06364641
000040 58 10 9e 3e 96 b2 5e 3d 31 6b 44 be 24 98 d2 3d
       0.30871844 0.05436953 -0.19181515 0.10282925
000050 22 dd 41 be 8d 23 49 bd 85 cc 29 be d2 a8 8a 3e
       -0.18932012 -0.04910617 -0.16581924 0.27081925
000060 23 ff a4 be 41 b9 40 be 68 17 ec bd 16 5c 7b be
       -0.32225904 -0.18820669 -0.11527902 -0.24546847
000070 78 d3 1d 3d a2 72 ce be 6c d8 bf 3e da 7b ae be
       0.03853175 -0.40321833 0.37469804 -0.34078866
000080 40 72 a4 3e d0 70 97 3d 36 9f 01 be cd 32 84 3e
       0.32118416 0.07394564 -0.1265839 0.25820008
000090 60 03 6c 3d ee ce a5 3e 60 34 1e 3d 76 fd 09 be
       0.057620406 0.32384437 0.038624167 -0.13475594
0000a0 0f 62 d4 3d 47 eb ee bd 5f 16 36 3e f8 b1 bd 3e
       0.10370266 -0.11665969 0.17781971 0.37049842
0000b0 1b ce 77 3e e0 9b 30 be 24 73 77 3e bd c4 a1 3d
       0.24199717 -0.17246962 0.24165016 0.07898853
0000c0 6c 4c 54 3e 23 cd 7e be ed e9 ce be 3e 84 21 be
       0.20732278 -0.24882941 -0.40412846 -0.15773103
0000d0 55 53 a0 be f8 82 ab 3e 9e 1e fd 3d 4c 4f 33 3e
       -0.31313577 0.3349836 0.123593554 0.17510718
0000e0 74 5c 0a 3e 03 ba 8f ba f8 a2 a6 3e 98 80 91 be
       0.1351183 -0.001096547 0.3254621 -0.28418422
0000f0 88 27 b2 3c 1c b2 90 be e3 b6 f9 3d bb 05 14 be
       0.021747366 -0.28260887 0.12193086 -0.14455311
000100 c8 04 00 3e 6f 32 ae bd 87 5b ad 3e 3e c9 77 be
       0.12501824 -0.08505713 0.33858892 -0.24197862
000110 c5 54 79 be a3 58 79 be 1d 01 bc 3e 7c 50 0b 3e
       -0.24348743 -0.24350218 0.367196 0.13604921
000120 f6 21 c9 3e 78 80 ac be 37 53 cf be 3a 88 a3 be
       0.39283723 -0.33691764 -0.40493175 -0.3193987
000130 8a 9b 8c be 54 53 29 3e 74 d7 1b 3e d2 c1 b0 3e
       -0.27462417 0.16535693 0.15218908 0.34522873
000140 87 bd 51 be 3a 6b 8b be 5e ed 63 3e ca fb 22 be
       -0.20482455 -0.27230245 0.22258517 -0.15916362
000150 a8 92 77 3e 3e b4 d2 bd 08 fe 68 3e 9d 7a a5 be
       0.24177039 -0.10288285 0.22753155 -0.3232011
000160 90 13 59 be de da f2 3d 18 75 a4 3d d0 77 e1 bd
       -0.21198869 0.11858152 0.08030146 -0.110091805
000170 04 09 73 3e 6a 05 8b 3e 28 a3 9a be 73 3f 65 be
       0.23733908 0.27152568 -0.30202603 -0.22387485
000180 28 0f c0 3e ac ba 0b be f4 e0 12 be b3 95 c9 be
       0.37511563 -0.13645428 -0.14343625 -0.39372024
000190 71 66 6f be 49 dc d0 3d 90 b7 5c bd 1a ba 97 be
       -0.23378922 0.10198266 -0.053885996 -0.29634172
0001a0 40 e5 1c 3c a4 c7 8e be a4 55 b1 be d4 33 66 be
       0.009576142 -0.2788669 -0.3463565 -0.22480708
0001b0 a5 e1 b3 be e2 08 82 be dc ff d3 3e 5b 26 aa 3d
       -0.3513309 -0.25397402 0.41406143 0.08308097
0001c0 35 58 04 3e 31 b2 c2 be ea 47 89 be 2e 26 0b be
       0.12924273 -0.38026574 -0.2681268 -0.13588783
0001d0 a0 bd 82 3d 85 ec b7 be f7 1f 34 be 6b 45 7a be
       0.06383824 -0.35922638 -0.17590319 -0.24440543
0001e0 aa ed 94 3a 29 8d 1b be 04 b6 e7 bc 48 a3 8d be
       0.0011362333 -0.15190567 -0.028285034 -0.27663636
0001f0 f4 78 8f be 92 e3 73 be b8 6c 09 be 26 24 a2 be
       -0.28021967 -0.2381728 -0.13420379 -0.31668204
000200 3c 18 b2 3e d7 96 9a bd 99 26 b4 3e b5 52 02 3e
       0.34784114 -0.07548302 0.35185698 0.12726863
000210 3f 9f b0 be de 07 91 3e fd 89 e4 bd c9 7d 1f be
       -0.34496495 0.28326315 -0.11159132 -0.15575327
000220 cc 80 ad be 7b cd cf be f6 0e e3 3d e4 cb c2 bd
       -0.33887327 -0.40586457 0.11086838 -0.09511545
000230 56 ad 1c 3e aa 93 ae be d1 fd 99 3e bb 96 99 be
       0.15300497 -0.34097034 0.3007646 -0.2999781
000240 77 ab 9c bd e5 55 a2 3d f1 aa 51 3e ff ab a5 3e
       -0.07649892 0.07926539 0.20475365 0.32357785
000250 31 5a bb 3e a5 c4 a8 be 37 6e d2 3d 4b ce 33 be
       0.36592248 -0.32962528 0.10274928 -0.17559163
000260 27 38 37 bd cd 72 9c be fb 63 be 3e a2 69 99 be
       -0.044731285 -0.30556336 0.37185654 -0.29963404
000270 a5 46 59 3e c5 c4 0c 3e 7d b2 01 3e 1e 2a 68 be
       0.21218355 0.13746937 0.12665744 -0.22672316
000280 23 ef ba 3e cb 9e ab 3d a7 31 3f 3d 41 31 bb be
       0.36510572 0.08379897 0.04667821 -0.36561015
000290 3d 83 29 3e ad 63 89 bd 21 37 40 be ed 61 b3 3e
       0.1655397 -0.06708465 -0.1877103 0.3503565
0002a0 44 4f bb 3d 60 d7 66 be 8f 23 53 be 2b 17 9c bc
       0.09145978 -0.22543097 -0.20619033 -0.019054016
0002b0 97 6c 69 3e 6b a6 d5 bd d1 86 6e be 29 28 0f be
       0.2279533 -0.10432132 -0.23293616 -0.13980164
0002c0 e8 27 9c be c5 16 15 3e d4 ca a1 3e 66 c8 c4 be
       -0.30499196 0.14559467 0.31600058 -0.38434142
0002d0 af e2 b5 3d 7f cf 51 3e 7f 4f 8b 3d 7d 06 1b be
       0.08881127 0.2048931 0.06802272 -0.15139194
0002e0 94 3a 54 3e 49 0c 56 3e 9e 77 22 3e 64 9f 86 bd
       0.20725471 0.20903124 0.15865943 -0.0657337
0002f0 06 1a d1 bd 3e 7c 4b 3d 14 fe 87 bd fc 46 ee bd
       -0.10210042 0.049679033 -0.066402584 -0.11634633
000300 d5 88 82 3e 52 8f b0 3e 98 23 3e bd 3d 7f c7 bd
       0.2549502 0.34484345 -0.046420664 -0.09741066
000310 64 d3 0e 38 c6 3f f7 bc e7 23 c7 3d 8c 6d e8 3d
       3.405231e-05 -0.030181777 0.09723645 0.113490194
000320 db 4f be be a7 35 1b be 31 05 b0 3e 04 da 22 3e
       -0.371703 -0.15157185 0.3437896 0.15903479
000330 40 57 a6 bc e1 0a 7c be 49 c3 7f be 6a 3c bb be
       -0.020305276 -0.24613525 -0.24976839 -0.3656953
000340 72 44 08 be 0c 2d 0d 3e 04 43 82 3e 77 fa 3a 3e
       -0.1330736 0.13786715 0.25441754 0.18259607
000350 cc c7 bb be ef b6 80 be 68 d2 85 bd a6 fb c9 3e
       -0.3667587 -0.25139567 -0.065342724 0.39449805
000360 8c 3e 85 3d e9 39 cc bd c8 19 33 3e d6 13 19 be
       0.065060705 -0.09971983 0.17490304 -0.14948973
000370 4d 41 84 be 60 16 9b 3e 0a 1c 3e be cc a7 a7 bd
       -0.2583107 0.30290508 -0.18565384 -0.081863016
000380 d8 f2 cf be a7 e1 8b 3e f4 5c 9e 3e 30 5b 18 3e
       -0.40614963 0.27320597 0.30930293 0.14878535
000390 17 bf 91 be 14 4b ce be a2 c3 a9 be 5c de 9b 3e
       -0.28466102 -0.40291655 -0.33157068 0.30443084
0003a0 d8 b4 48 3e d6 e4 af 3e 8a da 54 3e e7 4f c7 3d
       0.19600236 0.34354275 0.20786491 0.09732037
0003b0 38 df 23 bc 94 09 a2 be 44 a0 b0 be 96 0b c6 be
       -0.01000195 -0.31647933 -0.34497273 -0.38680714
0003c0 15 42 2b 3e f6 1e 4d be c4 03 a8 bd 37 76 70 be
       0.16724427 -0.20031342 -0.08203843 -0.23482595
0003d0 d1 5a 98 bd 26 1e 93 be 4d a7 8b be 73 85 04 3e
       -0.07439197 -0.2873394 -0.27276078 0.12941532
0003e0 1b 64 02 be c5 ed 7b 3e d2 2c 0c be 97 3f 9c be
       -0.127335 0.2460242 -0.13688973 -0.30517265
0003f0 f0 84 93 bd 98 a5 4a be a4 cb ff bd 36 fd c6 be
       -0.0720309 -0.19789732 -0.12490013 -0.3886506

layer_1.bias f4 [400]
000000 97 b7 9d be ce 02 7d be 27 2c 32 be ed 09 7b 3e
       -0.3080413 -0.24708101 -0.17399655 0.24515505
000010 f0 ce 08 3e c9 f5 1a be 4d d3 8c 3e 3c 8f 7d be
       0.1336019 -0.15132822 0.2750496 -0.24761671
000020 e4 49 aa be 1e c2 c2 3d 9c cc 66 be 98 d9 ed 3d
       -0.332595 0.09509681 -0.2253899 0.11613768
000030 86 17 b1 3e 42 8e 3f be d6 ed 94 be 9b 35 17 3e
       0.3458826 -0.18706611 -0.29087704 0.14766543
000040 78 c2 bc be 5c 7c ba 3e 83 79 40 be cc 1b 4a 3e
       -0.36867118 0.36423004 -0.18796353 0.19737166
000050 92 35 a6 be fa c1 8c be 57 46 38 3d 64 7c 10 3e
       -0.32462746 -0.27491742 0.044988956 0.14109951
000060 14 01 9f 3e 47 d0 ae 3e 78 7b f1 bc a4 5d 62 bd
       0.3105551 0.34143278 -0.02947782 -0.055265084
000070 91 3a 8a 3d 7c 37 c2 bd 2f e0 01 3c d0 e8 c2 be
       0.06749452 -0.09483239 0.007926985 -0.38068247
000080 d9 a7 ae be 3a 39 8f 3e c2 49 74 be 4d e8 a2 3e
       -0.34112433 0.27973348 -0.23856261 0.31817856
000090 3a ef 4f 3d 9a a8 cb 3d f8 f9 bd 3e c5 98 6e be
       0.050765254 0.099442676 0.37104774 -0.23300464
0000a0 78 fa 83 bd da dd 87 3d 74 d2 0e 3e a2 61 c8 be
       -0.064442575 0.06634112 0.13947469 -0.39136988
0000b0 26 6f 0e 3e 5d 66 70 be 64 a4 5b 3d 1e 6a 8d 3e
       0.13909587 -0.23476548 0.053623572 0.27620023
0000c0 af 28 3f bd 2f 73 53 bc 62 dd f9 bc 83 0b b1 3e
       -0.04666966 -0.01290588 -0.030501071 0.34579095
0000d0 f5 bb 73 3e 8c 9d 8c 3d 2c 96 7b be c8 ff 62 be
       0.23802169 0.06865987 -0.24569005 -0.22167885
0000e0 91 85 a3 3e 24 60 96 3e 85 30 78 3e e6 63 a5 be
       0.3193784 0.29370224 0.24237259 -0.3230278
0000f0 24 c9 a2 3e f0 d8 1f bd d0 ff 99 3e ed 8f b8 3e
       0.31794083 -0.039025247 0.30077982 0.36047307
000100 00 52 4c 3d f6 d0 27 be a9 9f c4 3e 45 da 59 be
       0.04988289 -0.16388306 0.3840306 -0.2127467
000110 3d 94 88 3e 9c 5b c5 be 74 ed 01 be e0 3c b6 be
       0.26675597 -0.38546455 -0.12688237 -0.3559332
000120 d5 69 35 be 3a 5d 2b 3e a1 d7 98 be 99 c3 b4 be
       -0.17716153 0.16734782 -0.29852012 -0.3530548
000130 b9 86 98 3e be fa 5b 3e 34 ca c1 3a 66 5a 93 be
       0.29790285 0.2148237 0.0014784993 -0.28779906
000140 38 82 d2 bd 84 38 01 be 2d 28 84 3e c0 bc 08 be
       -0.102787435 -0.12619215 0.25811902 -0.13353252
000150 77 98 e4 bd 00 2b 94 be c1 09 4b be 1f 37 5c 3e
       -0.11161893 -0.28939056 -0.1982794 0.21505402
000160 5e 9c 83 3e ac 7d 85 3d 16 02 1d be af d4 cb 3e
       0.25705236 0.06518111 -0.15332827 0.39810702
000170 8e f2 a4 3d 9e 54 27 be c8 e4 10 be 18 06 6a bd
       0.08054076 -0.16340873 -0.14149773 -0.057134718
000180 36 11 46 3e 60 c9 12 3e 9d 76 94 3e e0 af 96 bc
       0.19342503 0.14334631 0.28996745 -0.01839441
000190 ac e1 ac 3e 06 f2 2f be c8 ab 46 be 82 3e 14 be
       0.33765924 -0.17182168 -0.19401467 -0.1447697
0001a0 ca 98 c6 be e9 25 86 be c8 23 bd be 1f 89 94 bc
       -0.38788444 -0.26200798 -0.3694136 -0.01813179
0001b0 98 de 1a 3c 20 b8 cc bd aa d7 8e be 86 b7 c0 3e
       0.009452485 -0.099960566 -0.27898914 0.37640017
0001c0 d8 5e 04 be 3f 0d 4d 3e f5 b3 91 3e c6 54 86 be
       -0.12926805 0.20024584 0.2845761 -0.26236552
0001d0 41 7a 38 bd f8 9d 71 3e f1 ad c7 3e cf 88 6b bd
       -0.045038465 0.23595417 0.38999894 -0.057503518
0001e0 e8 63 94 3e 21 0e a4 be 2e e2 8a be 5a d0 a8 3e
       0.28982472 -0.3204203 -0.27125686 0.3297146
0001f0 68 52 1e bd 09 70 cb 3e 6f 05 c2 3c 1a 5e 2d be
       -0.038652807 0.39733914 0.023684232 -0.16930428
000200 6d 95 c9 3e 1f c9 b6 3e 26 a0 02 3d f4 48 77 be
       0.39371815 0.35700318 0.03189101 -0.24148923
000210 f8 0d 8e bc 35 30 4f be bf c2 9a 3e c6 8a 53 3c
       -0.017340645 -0.20233233 0.30226704 0.012911504
000220 ca 4a bc 3d c8 87 7d 3e 05 9c 10 3e b7 7c 82 be
       0.091939524 0.24758828 0.14122017 -0.25485775
000230 fe a3 ad 3e dd af 7a 3e 6a a4 80 be 74 0c 9b 3e
       0.3391418 0.24481149 -0.25125438 0.30282938
000240 a0 e9 e0 3d 8e 4c 98 bd 0b 6d 92 be 1d 04 97 bd
       0.109820604 -0.07436477 -0.28598818 -0.073738314
000250 a7 ef cc be d1 75 68 3e 51 6c 9a 3e 9c b5 f0 bd
       -0.4002659 0.22701193 0.30160764 -0.11753389
000260 dc d8 c4 3e ef ca 1a be 4f eb 82 3d 7f aa 91 be
       0.384467 -0.15116476 0.06392538 -0.2845039
000270 6b 9b bd bc a0 fc 28 3e 24 11 34 3e 40 4a 60 bc
       -0.023145398 0.16502619 0.17584664 -0.013689578
000280 13 ce 52 be 39 08 8f 3e 48 50 87 3e ac 78 92 3d
       -0.20586424 0.2793596 0.26428437 0.071519226
000290 da 3f 40 be 44 d1 b2 3d 58 0b 8f 3a d2 f6 be 3e
       -0.18774357 0.087313205 0.0010913415 0.37297684
0002a0 40 ce 77 3d 6d e1 d0 3c 90 9e e4 3c ea 8e 5d 3e
       0.06049943 0.025498116 0.02790764 0.21636549
0002b0 1b b5 32 bc af 1c b0 3e f3 e7 53 3e ac f4 a0 be
       -0.010907437 0.34396884 0.2069395 -0.3143667
0002c0 05 00 9d b6 3f 7e b4 be 2e 8d a3 be 13 4e ae 3d
       -4.678967e-06 -0.35252568 -0.3194365 0.08510985
0002d0 b8 e2 bb 3d 21 c1 2a bd b6 99 c3 3e d1 b8 66 be
       0.091741025 -0.04168809 0.3820321 -0.2253144
0002e0 c7 0c 29 be 8e e4 85 bd 36 33 67 bb 73 2c 0d bd
       -0.1650878 -0.06537734 -0.0035278327 -0.03446622
0002f0 47 22 b9 3e 8b 6a 2a be ea 80 5a be f9 3d 10 3d
       0.36158964 -0.16642205 -0.2133824 0.03521535
000300 ae 0f a0 3e db be d2 3d 30 17 62 3e 8d 19 ad 3d
       0.31261963 0.10290309 0.22079158 0.08452139
000310 e6 13 af 3e a4 16 7b 3e cb a4 98 3e 08 3a 61 bd
       0.3419487 0.24520355 0.29813227 -0.054986984
000320 cd 08 aa be 6a 2b 40 be d4 8d 14 3e e0 2a 93 3e
       -0.3320984 -0.18766561 0.14507228 0.2874365
000330 21 7a 29 be a9 05 b0 3e d6 40 84 3d 27 9e f9 3b
       -0.16550495 0.34379318 0.06457679 0.00761773
000340 e0 60 82 3c 52 71 87 bd 3d a4 c0 3e e9 42 91 3c
       0.015915334 -0.06613411 0.37625304 0.0177321
000350 d2 0e 83 3e a1 52 b1 be 4b a0 5c be 59 99 54 3d
       0.25597245 -0.34633353 -0.21545522 0.051904056
000360 ad e7 a6 3e e2 2b 4d 3e 00 f6 92 3d 1d 96 d1 be
       0.3259863 0.20036271 0.07175827 -0.4093484
000370 9e 36 59 3c d0 ea 86 be 42 8d b5 be 76 8d 4c 3d
       0.013257651 -0.26351023 -0.35459334 0.049939595
000380 3a 1c 84 be fc a5 ba 3e 18 5c 5d be 09 b9 06 3e
       -0.25802785 0.3645476 -0.21617162 0.13156523
000390 52 86 7b 3e 1d 63 9f be 95 e8 5b 3e 28 e6 5f bd
       0.24562958 -0.31130305 0.21475442 -0.054662853
0003a0 ef 77 52 3e 68 47 ca 3e 29 28 32 be f6 83 3a be
       0.20553564 0.39507604 -0.17398132 -0.18214402
0003b0 46 0a a9 3e f3 f3 39 3d 66 32 0e bd 1d a6 a1 3e
       0.3301565 0.045398664 -0.034716032 0.31572047
0003c0 00 fa 49 be c8 84 6c bc 8f a4 92 3e fb 2b 29 3e
       -0.19724274 -0.014435954 0.28641173 0.16520683
0003d0 f0 1c 8a be db 07 cd 3d 9a 54 9c be a2 07 63 be
       -0.26975203 0.10011264 -0.30533296 -0.2217088
0003e0 0c 5c 83 3e 34 d4 de bd fe d1 4e be 1e e5 bb 3c
       0.25656164 -0.10880318 -0.20197293 0.0229364
0003f0 0b 08 c0 3d 53 01 85 be c0 04 90 be 64 62 c7 be
       0.09376534 -0.25977573 -0.28128624 -0.38942254

layer_2.weight f4 [300, 400]
000000 02 08 a6 3c 9c 2c 27 3d f7 8c 0f 3d be a2 1c bd
       0.02026749 0.040814027 0.035046544 -0.03824114
000010 34 b0 37 bc e1 1e 5e bd bd cd 86 bb fc dc c1 bc
       -0.011211444 -0.054228667 -0.0041138814 -0.023664944
000020 d3 bf 31 3d 75 03 f9 3a a6 2b c8 3a 60 1b 14 bd
       0.04339583 0.0018998223 0.0015271797 -0.03615892
000030 80 b6 20 bd e4 29 63 3c 53 b7 fc bc 73 4e ed bc
       -0.039236546 0.013864968 -0.030849135 -0.028968072
000040 e6 85 10 3d 3a 88 d5 bc 07 2a 86 bc 3b 3f 1d 3d
       0.035283946 -0.026065934 -0.016377462 0.03839038
000050 4b 08 a0 3c 61 45 c4 bc 17 b4 79 3c 0a 4c fe 3c
       0.019535204 -0.023958864 0.015240691 0.031042118
000060 76 80 4e bd d1 12 19 3c 3c 8a b1 3b 0d a1 35 3b
       -0.05041548 0.009342865 0.00541809 0.0027714402
000070 d7 7b 44 3d 2b 5e 07 bd d2 da ac 3c 6f 5e 05 bd
       0.047969665 -0.03304879 0.021100435 -0.032560762
000080 c8 ed 47 bd d8 17 0d 3d 87 7e c4 bc 30 b8 05 3c
       -0.04881075 0.034446567 -0.023986114 0.0081615895
000090 b5 48 04 3d da e9 2a bd 7a 4e 2f bd 03 80 bc 3c
       0.0322959 -0.041726924 -0.04279945 0.02301026
0000a0 7d b9 32 3d fc 7d 38 bc 81 39 10 3d 75 79 3d 3c
       0.043633927 -0.011260506 0.03521109 0.011564602
0000b0 a7 53 07 3c 42 2c 1b bd 1c eb 42 3d 10 9d bb 3c
       0.00825969 -0.037884004 0.0475875 0.022902042
0000c0 05 3f e2 3a d2 ef 10 3d 49 f5 2f bd db 9b 87 3c
       0.0017261213 0.03538496 -0.04295853 0.01655381
0000d0 c0 01 f2 bc 69 4c a4 bb d2 32 86 3c c5 bb b8 3c
       -0.02954185 -0.0050139916 0.016381655 0.022550473
0000e0 92 0a 8f 3c 6d 81 1e bd b1 c4 18 bd 4e a4 d4 3b
       0.017461095 -0.03869765 -0.037296955 0.006489313
0000f0 d8 e0 0d bc a8 6b 2b bd 17 c3 49 3d f1 57 49 3c
       -0.008659564 -0.041850716 0.049258318 0.012289033
000100 21 67 f2 bc df 72 82 3c ac 5c b2 3c 47 ec c8 bc
       -0.029590191 0.015923915 0.021772705 -0.024526728
000110 09 bf cd 3c a1 a4 17 bd a3 dd a6 3c 6c 8a 42 3d
       0.025115507 -0.037022237 0.020369356 0.04749529
000120 c6 b6 1f 3d f5 04 99 3c 9b 87 84 bc d4 ca 19 3c
       0.038992666 0.018679122 -0.016177943 0.009386737
000130 c4 7b 3b 3c 12 0b 8b 3c ba 2d 84 bc 2e 9a e4 3b
       0.011443082 0.016973052 -0.016135085 0.0069763875
000140 8c 65 6b bc 75 5d 0c bd 13 98 55 bd aa f9 26 bd
       -0.014367472 -0.034268815 -0.052146982 -0.040765442
000150 da f5 cf bc 2e c4 43 3d 5c 15 83 3b 36 dd 51 bd
       -0.025385786 0.047794513 0.004000349 -0.051236354
000160 c0 48 01 bd 32 93 90 3c 86 24 6e bc 65 23 a5 bc
       -0.03156352 0.017648313 -0.014535075 -0.020158479
000170 fa 16 94 bc ca 3c 95 bc e8 75 bc 3b d0 0b 42 3b
       -0.018077362 -0.018217463 0.00575136 0.0029609092
000180 40 ec 05 3d 92 ec d4 3c 4a f3 0f 3d 40 7a d0 ba
       0.03269601 0.025991712 0.035144128 -0.0015905574
000190 fa e4 b6 bc 00 32 bf bb 34 38 20 bd f4 c2 6c 3c
       -0.022325981 -0.005834818 -0.0391161 0.014450777
0001a0 4f 1d 96 b9 cc 4d b4 bc c2 a1 2d bd f1 35 94 3c
       -0.00028632066 -0.022009753 -0.042390592 0.018092128
0001b0 e8 89 0a 3d 06 3a 22 3d 10 12 91 bc cd 71 14 3c
       0.033822924 0.039606117 -0.017708808 0.009060335
0001c0 40 07 87 bb dc dc d3 bc 36 c8 e7 bc 9f 8d a0 3c
       -0.0041207373 -0.02586215 -0.02829371 0.01959878
0001d0 44 38 0e bd c9 21 15 3d 7b 2c c0 3c d4 5e 35 3c
       -0.034721628 0.036409173 0.02345871 0.011069972
0001e0 48 8e dc 3c fe 76 c8 3c db e9 7e 3c 22 52 a3 3c
       0.026923314 0.024470802 0.015558685 0.019936625
0001f0 d8 d0 ad bc ef 32 05 bd ab 78 78 bc a0 65 e3 3c
       -0.021217749 -0.032519277 -0.015165488 0.02775842
000200 e2 73 ed 3c f5 e0 16 3d 05 66 b2 bc 56 56 4a bc
       0.028985921 0.03683563 -0.021777162 -0.012349686
000210 8e 97 04 bd a5 5c cb 3c 04 61 e2 bc c8 bd d9 bc
       -0.032371096 0.02482445 -0.027634151 -0.026579753
000220 b9 84 10 3d 91 13 47 3c f4 aa dc bc e5 e3 09 bd
       0.035282824 0.012150661 -0.026936986 -0.033664603
000230 ed d5 0c bd 39 ae 0c 3d a7 30 2e bd 18 60 18 3d
       -0.034383703 0.03434584 -0.042526867 0.037201017
000240 0e 3c 0b 3d 0b 89 3e bb 5f 0e 24 bc da ad 06 3d
       0.03399282 -0.0029073383 -0.010013192 0.03288064
000250 69 af b4 3c 0e 0b 29 3d 72 d7 0c 3d b0 4c 06 bd
       0.022056298 0.04127031 0.034385152 -0.03278798
000260 4a 93 cb 3c 6d ac ce 3c 3b 02 2a bd ce 6c c6 3c
       0.024850506 0.025228703 -0.041506033 0.024221804
000270 8d e7 a3 bc 53 09 f4 bc 66 87 74 3a 30 54 c9 bb
       -0.020007873 -0.029789602 0.0009328037 -0.006144069
000280 8c 44 5c bc 08 e5 1e bd dc de ae 3c 02 9a 33 3d
       -0.013444077 -0.03879264 0.021346502 0.043848045
000290 14 85 35 bc a4 41 03 bd a1 cc 28 bb a5 ee 31 bd
       -0.011079092 -0.03204502 -0.0025756734 -0.04344048
0002a0 14 4f 26 bd 6f a4 b9 bc 45 ad 00 3d 9f ea 13 bd
       -0.04060276 -0.022661416 0.031415243 -0.036112424
0002b0 b1 00 02 bb 56 89 a3 bc 52 6b 24 bd 31 65 ad bb
       -0.0019836838 -0.019962948 -0.04014141 -0.005291604
0002c0 80 e0 3e bb 75 22 6c bc b3 46 fa 3c 5f f9 d4 3c
       -0.0029125512 -0.014412512 0.03055129 0.025997816
0002d0 ce 03 ff 3c aa 82 d1 3c c0 17 47 ba 1e 1e ad 3c
       0.031129744 0.025575 -0.00075947866 0.021132525
0002e0 09 40 1b bd 25 c1 d0 3c c4 e6 91 3c 53 28 a8 bc
       -0.037902866 0.025482723 0.017810233 -0.02052704
0002f0 4a 04 fd bb 53 86 33 bd c0 12 29 bd 81 9a 2f 3a
       -0.0077214586 -0.043829273 -0.041277647 0.0006698743
000300 7a 38 41 3b a7 8c 89 bc 55 0c a5 3c 73 9c 05 bd
       0.0029483126 -0.016790701 0.020147482 -0.032619905
000310 5d 2c 09 bd 21 5a 0d 3d 69 e7 5f bd c8 a1 00 3c
       -0.033489574 0.03450978 -0.05466405 0.007851072
000320 3b 2e 36 3d 08 f0 00 3d f7 0c 35 3c b3 d2 25 bd
       0.044477683 0.03147891 0.011050454 -0.04048414
000330 78 2b e2 39 65 3c c1 bc ca 56 a4 bc 6e 51 04 3d
       0.00043138466 -0.023588369 -0.020060915 0.03230422
000340 10 33 8b bc 1e 45 2b bd 25 df 0b bd b2 4f 01 3d
       -0.016992122 -0.041813962 -0.034148354 0.031570144
000350 aa d7 09 3c e4 c1 5d 3d 74 57 84 3c 91 74 57 bd
       0.008413235 0.054139987 0.016154982 -0.0526014
000360 8a be 4a 3c ae cd 22 3d 72 d9 cc 3c 77 71 13 3c
       0.01237453 0.039746933 0.02500603 0.00899922
000370 9d d8 01 bd 3f 67 13 bd 75 ed e4 3c fa c3 e0 bc
       -0.03170072 -0.035987135 0.02794526 -0.027437199
000380 99 30 5d 3c b4 44 4b bc 66 68 ba 3c b5 77 56 3b
       0.013500356 -0.012406517 0.02275486 0.003272516
000390 a5 96 34 bd 73 77 d4 bc c8 f9 4a 3d 90 dd c0 3b
       -0.04408898 -0.025935864 0.049554616 0.0058857873
0003a0 3c 7e 9e 3c f3 a4 ce bc c5 20 22 3d 73 02 9d bb
       0.019347303 -0.025225138 0.039582033 -0.0047915517
0003b0 e3 03 32 bc 5b 3a 26 3c 23 f6 c3 bc 32 cb d5 bc
       -0.0108651845 0.010145749 -0.023921078 -0.026097868
0003c0 80 72 ea bb ff ff 46 3b 37 14 0d bd 95 18 bd 3c
       -0.0071547627 0.0030364988 -0.034443107 0.02308301
0003d0 9a 3b 2e bd eb 3d ca 3c d9 85 56 3d 54 88 04 3c
       -0.04253731 0.024687728 0.05237374 0.008089144
0003e0 7b 3e ba bb 95 93 3b bd 4d 27 8f 3c f7 35 0f 3d
       -0.005683718 -0.045795042 0.017474795 0.034963574
0003f0 8b 7d 16 3d 39 c3 ca ba 09 09 2e 3c ab a4 2b 3d
       0.03674082 -0.0015469558 0.010622271 0.041905086

layer_2.bias f4 [300]
000000 53 e6 9b bc fb 6e 02 bd 6b 52 8d bc 8a 9e 3d bd
       -0.019030726 -0.03184412 -0.017251214 -0.046293773
000010 67 b6 1a 3d 31 a9 f2 3c 2d 2c 83 bb ca 98 17 bd
       0.03777161 0.029621692 -0.004003069 -0.037010945
000020 f0 50 27 bd 7f a4 57 3c 0c 1b d7 3c 64 ca 11 bd
       -0.040848672 0.0131617775 0.026258014 -0.035593405
000030 11 03 98 3c e3 fc df bc 7b bb 7d 3c 31 21 34 3d
       0.01855615 -0.027342265 0.015486593 0.043976966
000040 c8 f5 8f 3c 3d 66 4b 3d cf 7d 12 3d 5e c2 1f 3d
       0.017573252 0.04965805 0.03576451 0.039003722
000050 f5 e7 06 bc c3 90 55 bd 31 08 4a 3d 51 d7 cd bb
       -0.008234014 -0.05214001 0.04932422 -0.006281771
000060 6d 43 a5 3c 93 f5 81 3c 0d af ee bc aa fe 47 bc
       0.020173753 0.01586417 -0.029136205 -0.012206713
000070 ac 34 ee bc c3 ad 7d bc ee b9 37 3c e2 60 1c bd
       -0.02907785 -0.015483323 0.011213763 -0.038178332
000080 a2 db 9b 3c 19 9d e5 bc 8a e4 55 bc 2b 5e aa bc
       0.019025628 -0.028029012 -0.013054976 -0.020796856
000090 48 51 98 3c 6e 4e ea b9 ad 6c 17 3d 95 d5 8e bc
       0.018593445 -0.00044690393 0.036968876 -0.017435828
0000a0 a7 2e 28 bc 99 5c 09 3d 2b ac ea 3c 02 2a c7 3a
       -0.010265029 0.033535574 0.02864655 0.0015195014
0000b0 b6 44 44 b9 0f e1 17 3c 50 80 e8 3c 7a 1b 08 3d
       -0.00018717613 0.009269967 0.028381497 0.03322933
0000c0 d6 4d a1 3c 72 ed 9d bc 19 80 a8 3c 2c b7 31 3d
       0.019690435 -0.019278262 0.020568894 0.043387577
0000d0 3c f9 51 ba b4 af 4f 3d c3 83 16 bd ae 0d 44 3d
       -0.0008009856 0.050704673 -0.03674675 0.04786461
0000e0 cc 17 5a bd 4e 1c 15 bc 87 de e2 3c 9d b8 a8 bc
       -0.05324535 -0.009100987 0.027694 -0.020595843
0000f0 db 59 15 bd 9a 26 15 bd ed d2 5d 3d ae a3 28 3d
       -0.036462646 -0.036413766 0.054156233 0.041171722
000100 de 75 20 3d e0 b1 0b bd 73 6b 58 3d 3a 90 ac 3c
       0.039174907 -0.03410518 0.052836847 0.021064866
000110 b4 db 17 3d 0a 6f 82 3c 5e 14 d2 bc 59 19 7e bc
       0.03707476 0.015922088 -0.025644477 -0.015508973
000120 2e 63 a0 bc 90 ac b4 bc 89 fb bf bc 4b 37 3e 3d
       -0.019578543 -0.02205494 -0.023435371 0.04643945
000130 91 6b c0 3a 54 6f 63 bd c8 26 5a 3d c4 18 ca 3b
       0.0014680495 -0.055526093 0.05325964 0.006167503
000140 24 d3 60 3c 0b d7 ce 3b 8e 26 35 3d 9f 81 4d bd
       0.013722215 0.006312256 0.04422622 -0.050172444
000150 cd 21 47 bd d9 4d 71 3c 9a d5 4d bd 68 37 5b 3c
       -0.04861622 0.014728033 -0.050252534 0.013379909
000160 72 c4 ff ba fe 51 1c 3d ea 73 f6 3c cb ce 23 bd
       -0.0019513501 0.03816413 0.030084569 -0.039992135
000170 a5 b4 17 3b 14 24 04 3d 2b 62 1f 3b cd 13 c9 3c
       0.0023148444 0.03226097 0.0024319987 0.024545575
000180 8e f0 32 3c ce e5 61 3b db 5f 8f 3c a5 cd 4f 3c
       0.0109216105 0.003446925 0.017501762 0.012683307
000190 57 37 c2 bc 03 bd a1 bc cc 9c e6 bc 2a a7 55 3c
       -0.023708029 -0.019743448 -0.028150938 0.013040343
0001a0 a0 e4 11 bd b4 db 8b 3c fd 79 1a 3c ff 57 ee bc
       -0.035618424 0.017072536 0.009428498 -0.029094694
0001b0 99 62 62 bc 90 39 74 3b 7d df f7 bc db 61 0d 3d
       -0.013817453 0.0037265755 -0.030257935 0.03451715
0001c0 ad ba ce bc 49 d3 50 bd 09 37 bc 3c 2e ba d4 3c
       -0.025235498 -0.050982747 0.022975462 0.025967684
0001d0 f6 ca 05 bd f5 fc cf 3c 29 02 01 3d 4b 27 4b bd
       -0.03266426 0.025389174 0.0314962 -0.04959802
0001e0 28 c9 da 3c 8f 86 06 3c 18 37 07 bd 17 be b4 bc
       0.026707247 0.008210792 -0.033011526 -0.022063298
0001f0 f6 f6 f5 bc 30 71 e1 3c 8f 7a b3 bc fd 01 0d b9
       -0.030024987 0.027519792 -0.021909026 -0.00013447549
000200 61 3b 7d bc 31 f8 67 bc 7c 0e 24 3d b5 6f 2d ba
       -0.015456052 -0.014158295 0.040052876 -0.0006616072
000210 0a a1 25 3c 6e a0 87 3b 31 12 f7 bc 12 1e 2f 3d
       0.0101091955 0.0041389978 -0.030160042 0.042753287
000220 5f c1 2d 3d 23 9f ae bc 66 1c a4 3c 00 a5 af bb
       0.04242074 -0.021316117 0.020033073 -0.0053602457
000230 c8 d4 aa 3c a8 4b c1 3a 35 80 bd 3c 60 ef 1a bd
       0.020853415 0.0014747279 0.023132423 -0.037825942
000240 a8 05 82 bc 7b fa 7f bc 2b 06 ad 3b f9 d4 15 3d
       -0.015871838 -0.015623684 0.0052802763 0.03658006
000250 a4 66 24 3d 7b 34 2d bc cd a0 43 bd d2 98 34 bd
       0.04013695 -0.010571594 -0.047760773 -0.044091053
000260 40 a8 3d 3d a9 bb b9 3c 8c f8 17 bd b5 e3 83 3c
       0.046303034 0.022672491 -0.037102267 0.01609979
000270 3d d2 2e bb d3 47 fc bc af 05 96 3c 30 14 60 3d
       -0.0026675605 -0.030795967 0.018313257 0.054706752
000280 0c ad 46 bd 7c 2b 25 3d 31 4c 25 3d c8 30 19 bd
       -0.048504874 0.040324673 0.040355865 -0.037400037
000290 c1 8b dc 3c 64 57 53 bc fb 0a e8 bb af 1c fc bc
       0.026922109 -0.0128992535 -0.007081387 -0.030775396
0002a0 76 f6 21 3c 94 ac e0 3b 6b cd 15 3d 26 a4 e1 3c
       0.009885421 0.0068565104 0.036572855 0.027544092
0002b0 16 c2 21 bd 01 e1 1b 3d bd ac cf bb dc 63 f1 bc
       -0.039491735 0.038056377 -0.0063377307 -0.029466562
0002c0 2e e1 26 bd 10 3d fe bb 25 23 45 3c 91 72 66 3c
       -0.04074209 -0.007758744 0.012032305 0.014065401
0002d0 30 16 33 bd 7e 97 e2 bb 93 c2 da 3c 67 da 72 3c
       -0.04372233 -0.006915032 0.026704108 0.014822579
0002e0 81 58 21 3d 0d 5c 60 bd 16 04 8a bc 13 97 da bb
       0.039391045 -0.054775286 -0.016847651 -0.0066708415
0002f0 bf d5 f9 bc 8f fd 45 3d 01 45 11 3d 3e 21 04 ba
       -0.03049743 0.048337515 0.035466198 -0.0005040354
000300 52 c0 cb 3c 20 56 56 bd 30 7e c7 bb ff 61 30 3d
       0.024871979 -0.05232823 -0.006088041 0.043062206
000310 49 1b b0 3c c4 fb ea 3c d9 2a a1 3c 1f 24 9a 38
       0.021497386 0.028684504 0.019673752 7.35002e-05
000320 32 37 78 3c 11 90 c2 3c 7a d1 c2 bc 3b ac d6 bb
       0.015149878 0.023750337 -0.023781527 -0.006551293
000330 4c 59 1b 3d c9 8b c2 bc a2 6b cf bc 5e 75 e1 3c
       0.037926957 -0.023748295 -0.025319878 0.027521785
000340 92 3c 62 bc d0 7b 3f 3d 86 de 41 bd 42 20 0c bd
       -0.013808386 0.046748936 -0.047331356 -0.03421045
000350 4b be 16 3d eb 82 03 bd 75 a9 b8 bc 6a 92 0c bd
       0.03680257 -0.032107275 -0.02254174 -0.03431932
000360 57 a5 f0 3c 3e d1 52 bc 11 47 3d bc a8 c7 39 3d
       0.029375715 -0.01286727 -0.011552588 0.045356423
000370 f2 0a bd bc 24 d7 8a bc 57 3e 5d 3d d7 a2 2d 3b
       -0.023076508 -0.01694829 0.05401453 0.0026494765
000380 0e 8c 4b 3c 5d 6a 28 3d 8c ca 29 bb 20 df 50 3d
       0.012423528 0.04111706 -0.002590808 0.05099404
000390 34 cb 10 3d 04 ad a2 3b 3a 13 ab 3b 7f 95 de bc
       0.03535004 0.0049644727 0.005220798 -0.027170895
0003a0 4f 5d 2f 3c f3 2e a8 bc a8 b3 77 3c f9 c2 ed bc
       0.010703399 -0.0205302 0.015118517 -0.029023634
0003b0 0f 85 11 3d e5 24 24 bd 5e 92 aa bb 2b 59 71 3c
       0.035527285 -0.040074248 -0.0052054366 0.014730732
0003c0 d9 55 e4 3c bb df 38 3d 7b 3d a0 bb e4 18 56 3d
       0.027872967 0.04513524 -0.0048901415 0.05226983
0003d0 a5 e8 51 3b 6c 61 e4 3c ba 20 0e bd 7d 79 0a 3d
       0.0032029536 0.027878486 -0.03469918 0.033807267
0003e0 2e 80 7e 3c 74 05 3d ba 41 32 a5 3c 0b 5d 90 bc
       0.01553349 -0.00072105904 0.020165564 -0.017622491
0003f0 90 73 29 3d a4 dc 84 bc 38 38 e9 bc 79 a0 93 3c
       0.041369975 -0.01621849 -0.02846919 0.018020855

layer_3.weight f4 [1, 300]
000000 51 63 2d 3d 15 1b 12 bb 92 ce 10 bc c9 c3 4b 3d
       0.042331044 -0.0022293974 -0.008838313 0.049747262
000010 53 d8 ba bc 13 8e 03 3a 49 ce fb 3c 5d de 25 3c
       -0.02280823 0.0005018424 0.030738013 0.010123816
000020 48 80 af 3c 05 0d c8 3b 26 52 37 bc 9f 76 9e bc
       0.021423474 0.0061050677 -0.011189019 -0.019343672
000030 3b 10 55 3c 1f 24 13 bd e0 ac 2e 3d 4c 3a d7 3c
       0.013004358 -0.03592312 0.042645335 0.026272915
000040 70 fa 17 3d 30 0c 5f bd c9 26 07 3c d4 8f 24 bd
       0.03710407 -0.054454982 0.008248993 -0.040176228
000050 a2 75 51 bd 80 fb b4 bc 54 de 69 3d 45 7b b0 bc
       -0.051137574 -0.02209258 0.057096794 -0.021543154
000060 81 68 56 bd c5 25 35 3d e2 30 3d 3d d7 76 20 bd
       -0.052345756 0.044225473 0.046189196 -0.039175835
000070 5d 29 17 3d 65 66 99 3c e0 7f 1f 3c d6 18 02 bd
       0.03690468 0.018725583 0.009735078 -0.031761967
000080 0b 8d 4b bd 55 ed 4d 3d 3e 41 24 3d ef 0b 03 3d
       -0.049695056 0.050275166 0.040101282 0.031993803
000090 f7 ab 42 bd 3e c1 34 bd e0 d6 55 3d f6 cc 3f bd
       -0.04752728 -0.044129603 0.052206874 -0.046826325
0000a0 0c 98 11 3d ae 36 cb bc ea 6b fa bc b1 bc 77 3d
       0.035545394 -0.024806347 -0.030569036 0.060482685
0000b0 55 55 4f 3d db e8 22 bd e4 b0 4a 3d f3 fb 06 3c
       0.05061849 -0.03977285 0.049485102 0.00823878
0000c0 28 76 06 3c f6 7f 14 3c 01 7f ee bc 03 f0 74 3b
       0.008206882 0.009063711 -0.029113295 0.0037374503
0000d0 5b 46 a7 3c 91 d2 69 3c 12 c9 af bc aa 3d b0 3c
       0.02041929 0.014271394 -0.021458182 0.021513779
0000e0 68 a7 cb 3c c9 67 e9 bb 1d 2a 28 bd 88 a5 5a ba
       0.024860099 -0.007122968 -0.041055787 -0.0008340706
0000f0 57 12 52 bd 4e 22 f5 3c ec 11 ee 3c 05 e5 07 3d
       -0.05128702 0.029923584 0.02906128 0.033177394
000100 06 a1 5e bd c7 0a 32 bd 96 bb 82 bc a5 14 af 3c
       -0.054352783 -0.04346731 -0.015958589 0.021372149
000110 c3 a6 2a bc 7d e1 f5 bc 71 db 61 3d 33 7b 58 3d
       -0.010415736 -0.030014748 0.055140916 0.052851867
000120 6e 7c fa 3c cd 0f e6 bc 4d 4d 04 3d 7d ba 3c bd
       0.03057691 -0.028083706 0.032300282 -0.046076287
000130 29 6a 8b 3c 1a d8 4a bb d8 c3 0f bd 51 10 6a 3d
       0.017018395 -0.003095156 -0.03509888 0.057144467
000140 6c 1f 33 bd e4 47 a7 3b fd 6d e2 bc d3 fe 33 3a
       -0.043731138 0.0051050056 -0.027640337 0.000686628
000150 ee eb a3 bc a5 c5 68 3d c3 6b 55 3c 25 53 7f bd
       -0.020009961 0.056829114 0.013026181 -0.062335152
000160 fb 58 14 3d d6 fc 1f 3d ad 87 e5 bc bd 18 c7 bc
       0.03621767 0.039059483 -0.028018797 -0.024303788
000170 0e 17 a2 3c 1b ba 47 3d 8f 65 fd bc 25 6b 6a 3d
       0.019786384 0.04876147 -0.030932216 0.057231087
000180 e3 12 26 bd f7 f6 d2 3c df 29 4e bd 71 5d c5 bb
       -0.040545356 0.025752528 -0.0503329 -0.006023102
000190 70 ae d4 bc e9 ee c5 bb 5f 94 7f 3c 39 d7 f4 3c
       -0.025962085 -0.006040443 0.015599339 0.029887782
0001a0 af de 1e 3d b5 65 63 bc 80 78 61 bc ee 9c 6b 3d
       0.038786586 -0.013879229 -0.01376164 0.057522707
0001b0 75 9b 44 bd a3 2b 82 bd c4 cf c6 3b 92 1c ac bc
       -0.047999818 -0.06355979 0.006067248 -0.021009717
0001c0 95 b6 45 3d ab dc 05 bb 60 26 78 bd b6 d5 98 bc
       0.048269827 -0.0020425718 -0.060583472 -0.018656593
0001d0 dc 65 18 bc 63 fc 2d bd e2 3f ee bc 06 bc 45 bd
       -0.009301629 -0.042477023 -0.029083196 -0.048275016
0001e0 f9 e9 03 bd 06 e7 11 3d eb 3a 26 bd c9 48 c2 bc
       -0.032205556 0.03562071 -0.040583532 -0.023716347
0001f0 e5 ee 07 bd a5 2d 07 3d 06 9f 7e bc 61 eb 63 bd
       -0.033186812 0.033002514 -0.015540844 -0.055644397
000200 a6 7e aa bc 57 c3 3f 3d b1 95 12 bc 41 d2 03 bd
       -0.020812344 0.04681715 -0.008946822 -0.032182936
000210 16 20 10 bb c8 b7 4c bd f1 52 34 3d 62 5f 03 bc
       -0.002199178 -0.049979955 0.04402441 -0.0080183465
000220 e6 19 4d bc 81 e6 fc bc ab 56 2d 3c f9 2c 3a 3b
       -0.012518382 -0.030871632 0.010579745 0.0028408153
000230 a1 3f 46 3d 00 69 11 bd 10 d8 e0 3c de d0 39 b9
       0.048400525 -0.035500526 0.027446777 -0.00017720784
000240 ae 91 94 bc 68 68 83 3c 64 e1 a6 bc 73 2d 07 3c
       -0.018135872 0.016040996 -0.020371147 0.008250582
000250 d9 4e b6 bb 9e d8 3a bd 63 6c 51 bc be c3 15 3d
       -0.0055635986 -0.04561674 -0.012782189 0.036563627
000260 b5 7e be bc 7a ff 1a 3c 8a 22 e0 bc 6c 3c d6 3b
       -0.023253778 0.009460324 -0.02736022 0.0065379646
000270 dd 6b 4a 3d 11 1d 72 bd 5f b9 fb 3c b6 3c 0f bd
       0.049419273 -0.05910975 0.03072804 -0.034970008
000280 10 f4 81 bb 3d 4d 80 3d 54 1c e6 3c 01 08 ca bc
       -0.003965862 0.06264732 0.02808968 -0.02466202
000290 b5 09 6c bd 11 94 17 3d 5d 93 8f 3c a1 8a ac bc
       -0.057626445 0.03700644 0.017526323 -0.021062197
0002a0 45 cd 0a 3c ef 89 3c 3d 0b ae fa bc ec 45 28 bc
       0.008471792 0.04602998 -0.030600568 -0.010270577
0002b0 f4 45 3c 3b 28 25 33 bd 27 73 2c 3d 80 1c b4 3c
       0.0028728219 -0.043736607 0.042102005 0.021986246
0002c0 50 11 02 3d 19 e7 39 3c 7d 9a 3d bc 1f 5d a5 3c
       0.03175479 0.011346602 -0.011572477 0.020186005
0002d0 e9 f1 b3 bc 7d ba 76 bd 70 2f 8d bc c0 1a e1 3c
       -0.021965938 -0.060236443 -0.017234534 0.027478576
0002e0 9d b0 b5 bc e6 3d 79 bc b5 3d f3 3a fb 76 fa 3c
       -0.022178942 -0.015212512 0.0018557819 0.030574312
0002f0 8c 6e 03 3d 2d 58 74 3a 4f 80 aa 3c a4 c6 e5 bc
       0.032087848 0.00093210005 0.020813135 -0.02804882
000300 f6 5c ba 3c aa 1f b3 3c 91 74 3f 3c 93 ca 06 bd
       0.022749405 0.021865685 0.011685506 -0.032908034
000310 9c 52 1a bd 32 dc 19 3d 1d e4 15 bd 13 ac bc 3c
       -0.03767644 0.03756351 -0.0365945 0.02303127
000320 4a f7 1a bd c0 3c c4 bb 67 f4 1c bc f7 99 d3 bc
       -0.03783349 -0.0059886873 -0.009579754 -0.025830252
000330 81 36 14 bc 5f e9 a7 3c b7 f8 43 3d 06 45 3d bc
       -0.009046198 0.020497022 0.047844615 -0.011552101
000340 59 ce 2e bd f9 15 27 bc 16 2d 22 3d 69 78 84 3b
       -0.042677257 -0.01019811 0.03959378 0.0040426743
000350 f3 85 06 bd 25 48 b7 3b 78 0f 66 bd e0 0b a5 3c
       -0.032842588 0.005593317 -0.056167096 0.020147264
000360 93 9b e1 3c e4 7b 97 3c 73 c2 da 3c 91 27 18 bd
       0.027540004 0.018491693 0.026704049 -0.03714711
000370 1e 11 ea bb 32 67 7d bd 1a 62 09 bc ec 9f 84 3a
       -0.007143154 -0.061865993 -0.008385206 0.0010118461
000380 fc c8 ac 3c f3 98 16 3b 5f 8a 81 3c 97 9a 9f bc
       0.02109193 0.0022979348 0.01581305 -0.019482894
000390 69 14 43 bd c0 31 5f 3d 29 4b 5f 3c 82 c7 ca bc
       -0.047626887 0.054490805 0.013628759 -0.024753336
0003a0 fd 27 22 3d f3 80 ea 3c f1 4f 9a 3c 9c c0 d0 bc
       0.039588917 0.02862594 0.018836947 -0.025482468
0003b0 e2 21 14 bd 21 8e a4 3c 5a 9b 3e bd 3f 2b 80 bc
       -0.036165126 0.020087304 -0.046534874 -0.015645621
0003c0 cf a0 fe 3c fd 54 09 3d 5d f4 79 3d 55 ca 6e bc
       0.031082539 0.033528317 0.06102406 -0.014574607
0003d0 9e a8 53 3c c5 c3 8b 3c 62 83 50 3c 8c 6b 96 bc
       0.012918619 0.017061124 0.012726637 -0.01836183
0003e0 0b 97 63 bd 30 51 ea 3c 61 9f f3 bc cd 6b 24 bd
       -0.055563968 0.028603166 -0.029739084 -0.04014187
0003f0 8b 15 03 bd 92 07 88 3a 81 5d e8 bc fb 3f a3 bc
       -0.032002967 0.0010378233 -0.028364899 -0.01992797
