RL/Model_Repository/pytorch_models/TD3_Guest_alan_actor.pth (torch, 513791 bytes, 9 tensors)

layer_1.weight f4 [400, 13]
0	0x3de9f90e	0.114244565
1	0x3e070e53	0.13189058
2	0xb8f4cda3	-0.000116731295
3	0x3e1fa854	0.15591556
4	0xb7d29065	-2.510119e-05
5	0x361d8c9e	2.3476673e-06
6	0xbd2b2bda	-0.041789867
7	0x3d89cc69	0.06728441
8	0x3e1558f4	0.14584714
9	0xbdd8fed1	-0.10595477
10	0x3e11eb4c	0.14249915
11	0x35be21e0	1.4165962e-06
12	0x3ddbb064	0.10727003
13	0x254d1892	1.778924e-16
14	0x3d267918	0.040642828
15	0xa806cc5e	-7.482809e-15
16	0x3ded775a	0.1159503
17	0x2aa35f4a	2.9020737e-13
18	0xbd1727d2	-0.03690321
19	0x3a0c756e	0.00053580746
20	0xbd112097	-0.03543147
21	0x9916618a	-7.774516e-24
22	0xbcbaaacb	-0.022786519
23	0x3db2ae83	0.08724692
24	0xbdf7a748	-0.12092453
25	0xbd116597	-0.035497274
26	0xbb07e36a	-0.0020734915
27	0xbd9140c9	-0.07092435
28	0x2ef8bd30	1.1311341e-10
29	0xbe32eb6b	-0.17472617
30	0x3e1b57d6	0.15170226
31	0xbe0c7252	-0.13715485
32	0x3dee1833	0.116257094
33	0x3027ad32	6.100037e-10
34	0xbbe86fc0	-0.0070933998
35	0x3d9a2e02	0.075283065
36	0xac02ba0f	-1.8577394e-12
37	0x3e00176e	0.12508938
38	0x3622bd3e	2.4250035e-06
39	0xbbbbe79e	-0.005734398
40	0x3a957687	0.0011403122
41	0xbaa85ebd	-0.0012845617
42	0x3cd5af31	0.026084514
43	0x3e187b55	0.14890797
44	0x3d84e70c	0.06489381
45	0xbcf47f6e	-0.02984592
46	0x3d847b4d	0.0646883
47	0x32c4004c	2.2817538e-08
48	0x3d408116	0.046998106
49	0xbd95a75e	-0.073073134
50	0xbe338abc	-0.17533392
51	0xbc97a60f	-0.0185118
52	0xbdeb56f5	-0.11491195
53	0x3e046fa9	0.1293322
54	0x3b27e3a3	0.002561786
55	0x3cc96098	0.024582192
56	0x3bbff676	0.005858238
57	0xad132514	-8.364216e-12
58	0x3df3ecaa	0.119103745
59	0xbdcc581b	-0.09977742
60	0xacb0c032	-5.023559e-12
61	0xbdbd177e	-0.092329964
62	0x3b9d3d97	0.004798602
63	0xbc286368	-0.010277607
64	0x3b9e294c	0.0048267003
65	0xb6d3a4c2	-6.3074704e-06
66	0x3e06e2a1	0.1317239
67	0xbd8cae8b	-0.06869229
68	0xbd8ea6d4	-0.06965414
69	0xbd8eabc6	-0.06966357
70	0x3e1a52c1	0.1507063
71	0x3c0a5489	0.008443006
72	0x3e2bd1cd	0.16779251
73	0xbe05bf1e	-0.13061187
74	0xbe34173a	-0.17586985
75	0xbdf3ca24	-0.1190379
76	0xbdb7c06a	-0.08972247
77	0x3cb9dd3c	0.0226885
78	0x3c525dcb	0.012839745
79	0x3e074f50	0.13213849
80	0xbd4953c7	-0.049152162
81	0xbdbca41a	-0.092109874
82	0x3d57f6ac	0.05272548
83	0xbcb72321	-0.022355618
84	0x3d9445de	0.072398886
85	0xb91eb592	-0.00015135694
86	0x3d81b82c	0.06333956
87	0xbdf0d0e3	-0.11758592
88	0xbd3d3e76	-0.046202146
89	0x3b9f80cc	0.0048676487
90	0x37e91b74	2.7788548e-05
91	0xba0cfb09	-0.00053779833
92	0x3d8e7a0c	0.06956872
93	0x3dbb9b3f	0.0916047
94	0xbdd45cf5	-0.10369293
95	0xbd5b61c6	-0.05356004
96	0x3e1ed61d	0.15511365
97	0xbc15b1cf	-0.009136631
98	0xbc476954	-0.012171108
99	0xbe2d4fdc	-0.16924995
100	0xbd820cba	-0.06350084
101	0x39ca8b15	0.00038632067
102	0xa382d483	-1.418463e-17
103	0xbdd4c0da	-0.10388346
104	0x80000004	-6e-45
105	0xbdbd62df	-0.09247374
106	0xbe0c264c	-0.13686484
107	0xbd6ceb7c	-0.057841763
108	0xbe1396de	-0.1441302
109	0xbda44875	-0.080216326
110	0x3e364072	0.17798021
111	0x346edf3b	2.2246688e-07
112	0x3b9c6f6d	0.004774025
113	0xbe2393b8	-0.15974319
114	0xbdaf1b8e	-0.085501775
115	0xbc08e2b2	-0.00835483
116	0x2e10a9b4	3.2892536e-11
117	0xbe14e58b	-0.14540689
118	0xbce8818e	-0.028382089
119	0xbd8fdce8	-0.070245564
120	0x2ec25b62	8.8383315e-11
121	0xbc7f3eab	-0.015578906
122	0xab19422e	-5.444836e-13
123	0xbdba6be9	-0.091026135
124	0xbdbf3089	-0.09335429
125	0xbd87bca0	-0.06627774
126	0xbc2355bc	-0.009969171
127	0xbdf79aa6	-0.12090044
128	0x3e09ca53	0.13456087
129	0xb5abb30a	-1.27926e-06
130	0x3e0f7a36	0.14011464
131	0x3bab077f	0.0052193995
132	0xbe0bb4d1	-0.13643195
133	0x3dc242d8	0.09485406
134	0xbac97b3b	-0.0015371809
135	0xbc927170	-0.017876357
136	0xbe0712c1	-0.13190748
137	0xbe34ba6c	-0.1764924
138	0x3b1c9477	0.0023892203
139	0xb7c2f3ba	-2.3240096e-05
140	0x3c9cc682	0.019137625
141	0xbe046497	-0.12928997
142	0x3dde586d	0.1085671
143	0xbdd93a97	-0.10606878
144	0xb190996a	-4.2083927e-09
145	0x36e3fcbe	6.7945502e-06
146	0x3d49261c	0.04910861
147	0x3e00c77c	0.12576097
148	0x3e1d86ea	0.15383497
149	0xbdf99cfb	-0.12188145
150	0x39e50d20	0.00043688063
151	0xbce71781	-0.02820945
152	0x2d06cb0b	7.662103e-12
153	0xbde12689	-0.10993678
154	0x3e1cf5f2	0.15328196
155	0xbdd9872e	-0.106214866
156	0x3d5bfd05	0.053708095
157	0x3c3e18cc	0.011602592
158	0x3be9b0dd	0.0071316794
159	0xbd627183	-0.055284034
160	0x3e1cf7c8	0.15328896
161	0x37e2dba5	2.704358e-05
162	0x2ed006a4	9.4599245e-11
163	0xbe154476	-0.14576897
164	0x3cd3b18e	0.0258415
165	0x2df4ffc6	2.7853175e-11
166	0xbd0e8f57	-0.03480467
167	0x3e0e9c50	0.13926816
168	0x37dce837	2.6334177e-05
169	0xbd6fa947	-0.058511045
170	0xbd3ec48f	-0.04657417
171	0xaf33231e	-1.6292431e-10
172	0x3d750157	0.05981573
173	0xba1204a8	-0.0005570152
174	0xbd80f101	-0.06295968
175	0xbc23bfa8	-0.009994425
176	0xbde05f8c	-0.10955724
177	0x3c4de6a3	0.012567195
178	0x3def341f	0.11679863
179	0xbe260417	-0.16212498
180	0x390ea4b8	0.00013603538
181	0x3d4ca84b	0.049965184
182	0x333177a3	4.1319833e-08
183	0xbc4c554b	-0.012471507
184	0x3d4f0500	0.050541878
185	0x3d52b695	0.051443655
186	0x3c82a1eb	0.01594635
187	0xb2296f13	-9.86235e-09
188	0xba75dd65	-0.00093789987
189	0x2d175819	8.602918e-12
190	0xb2598e36	-1.2663397e-08
191	0xbb69c9d5	-0.003567328
192	0x3da59d60	0.080866575
193	0x3e101e91	0.1407416
194	0x364ed8a4	3.0822493e-06
195	0xb8333d86	-4.2734224e-05
196	0x00000002	3e-45
197	0x80000002	-3e-45
198	0x394c5614	0.00019487023
199	0x3af99b71	0.0019043518
200	0xbe1cc63b	-0.15309994
201	0xbc7537ec	-0.014966946
202	0x3e0a69a3	0.1351686
203	0x3c9d2dad	0.019186819
204	0x80000002	-3e-45
205	0xbd92200c	-0.07135019
206	0xbd96e2b3	-0.07367458
207	0xbe194cf9	-0.14970769
208	0xbbeebf7f	-0.0072860117
209	0x3c1671d2	0.00918241
210	0x3da4c260	0.080448866
211	0x3d1212f4	0.035662606
212	0xbe1603cd	-0.14649887
213	0xbd914d09	-0.070947714
214	0xadea65e3	-2.6647967e-11
215	0x3e2d3e52	0.16918305
216	0x297718a1	5.486638e-14
217	0xba32dba0	-0.0006822888
218	0x3cc875cc	0.024470232
219	0xbc8e48d4	-0.017368712
220	0xbda9f5ae	-0.08298813
221	0x3dd6f208	0.104953825
222	0xbd0b34a8	-0.033985764
223	0xb5fe0e71	-1.8928678e-06
224	0xbe34e87b	-0.1766681
225	0x3db5e1ab	0.088809334
226	0x3de62cdd	0.11239026
227	0x3c666e14	0.014064331
228	0xbdc51dfc	-0.0962486
229	0xbe32b689	-0.17452444
230	0xbe021fee	-0.12707493
231	0x3ddf9e56	0.10918872
232	0x3d27180e	0.040794425
233	0x3e0a6900	0.13516617
234	0x3d5102ec	0.051028177
235	0x39faf9c0	0.00047869794
236	0x00000004	6e-45
237	0xbde7c118	-0.113161266
238	0xbe0e78cd	-0.1391327
239	0xbe24519e	-0.1604676
240	0x3cc07cf7	0.023497088
241	0xbd2f53e7	-0.042804625
242	0xb610730b	-2.1524636e-06
243	0xbd838cbf	-0.064233296
244	0xb35b81c3	-5.110793e-08
245	0xbdc8b24d	-0.09799633
246	0xbdad4a55	-0.08461443
247	0x3c063ae5	0.0081927525
248	0xbb640a89	-0.0034796319
249	0x3d99daae	0.07512413
250	0xbbd558e9	-0.006510843
251	0xbdd8f64a	-0.10593851
252	0xb24d7c6f	-1.1960863e-08
253	0xbd290c4f	-0.041271504
254	0xbb934fb6	-0.0044955863
255	0xbe28f594	-0.1649993

layer_1.bias f4 [400]
0	0xbdb45b78	-0.08806509
1	0x3d4e7f9d	0.05041467
2	0x3e03bbf7	0.12864672
3	0x00000003	4e-45
4	0x3b95032a	0.0045474963
5	0xbe27a80c	-0.16372699
6	0xbca7b3b3	-0.02047143
7	0xbca301bc	-0.019898288
8	0xbe231e05	-0.1592942
9	0xb729373d	-1.0086046e-05
10	0x3dc593f4	0.096473604
11	0xad80a916	-1.4627004e-11
12	0x3e330f02	0.17486194
13	0xbe1a86de	-0.1509051
14	0x3cad7b42	0.021176938
15	0x3e10ac7a	0.14128295
16	0x3e2e87a3	0.17043929
17	0xbc9a54d1	-0.018839272
18	0xbe1b49e1	-0.15164901
19	0xbc706055	-0.014671405
20	0x3ddd352b	0.108011566
21	0x00000005	7e-45
22	0x3e2a0553	0.16603594
23	0xbdd71af4	-0.10503188
24	0xbd9e9a03	-0.07744219
25	0x3d4258cf	0.047447976
26	0x3c24fcdc	0.010070052
27	0xbdab454b	-0.08362826
28	0x3e22ead0	0.15909886
29	0xbc96737e	-0.018365618
30	0xbe075bb4	-0.13218576
31	0x3ae2cdcf	0.0017303767
32	0xbd76f996	-0.060296617
33	0xbd20262f	-0.039098915
34	0xbd754b34	-0.059886172
35	0x3aaed29a	0.0013337911
36	0x3d18cbb1	0.03730363
37	0x3db7abce	0.08968316
38	0xbd7ce961	-0.061746005
39	0xb8e8e307	-0.00011104909
40	0x3e23c84b	0.15994374
41	0xbd4683fd	-0.048465718
42	0xbc5cf7bd	-0.0134868
43	0xb4ec102f	-4.39702e-07
44	0xbe167137	-0.14691626
45	0xbddc02aa	-0.10742696
46	0x3e17f1f8	0.14838398
47	0x33bda6c1	8.831331e-08
48	0x341b915b	1.448838e-07
49	0x3ca93e38	0.020659551
50	0x3d94ed5b	0.072718345
51	0x3db7352e	0.0894569
52	0x3dcf78fe	0.10130499
53	0x3cb6117a	0.02222513
54	0x3de41ab4	0.11137906
55	0x3dad44cd	0.08460388
56	0xb0821f4c	-9.46764e-10
57	0xaddff036	-2.545884e-11
58	0xbd50f436	-0.051014148
59	0xbde35599	-0.11100311
60	0x3e27faf9	0.16404332
61	0xbddf0caf	-0.10891091
62	0xbd9e0e76	-0.07717602
63	0xbe2cda68	-0.1688019
64	0xbdeac7a4	-0.1146386
65	0x387edd50	6.0764432e-05
66	0x3d244277	0.04010245
67	0xbe080822	-0.13284352
68	0xade2d97d	-2.578981e-11
69	0xbddb8820	-0.10719323
70	0x348348e3	2.4453684e-07
71	0x3d8f224c	0.069889635
72	0xbc930b86	-0.01794983
73	0xbcf80aa3	-0.03027851
74	0x3dac2c34	0.084068686
75	0xbda87457	-0.08225315
76	0xb66c16e3	-3.5180062e-06
77	0xbe07c538	-0.13258827
78	0x3dc70137	0.097170286
79	0x3bcc716c	0.006239107
80	0xbcaab9e7	-0.020840598
81	0x3dccf4a2	0.100075975
82	0x3e2785c2	0.16359618
83	0x3cbe56d4	0.023234762
84	0xbdc9fa68	-0.09862214
85	0xb7ba319c	-2.2196029e-05
86	0x3dfff317	0.124975376
87	0x3dd535bf	0.10410642
88	0xbbfd0b19	-0.00772227
89	0x3db1cac9	0.08681256
90	0xbdadb1d2	-0.08481182
91	0x3a925055	0.0011162857
92	0x3e15564f	0.14583705
93	0x3338c159	4.3016687e-08
94	0xbdfa8bfa	-0.1223373
95	0x3b77e360	0.0037824735
96	0x3d73e7fa	0.059547402
97	0x3dc4230b	0.095769964
98	0xbdafaa14	-0.08577362
99	0xb2e28a54	-2.6372767e-08
100	0x3045c88a	7.1953166e-10
101	0xb205127a	-7.74582e-09
102	0xb810e7c7	-3.4548135e-05
103	0xbc596176	-0.013267865
104	0x3c2955e7	0.010335422
105	0x3d1f79d4	0.038934544
106	0xb52a98ac	-6.35521e-07
107	0x3df5b212	0.11996855
108	0x00000008	1.1e-44
109	0x39844262	0.0002522646
110	0x39d0f026	0.00039851776
111	0xbc1e35eb	-0.00965641
112	0xb02f60cb	-6.380218e-10
113	0xaf883420	-2.4775293e-10
114	0x3c89b8a5	0.016811678
115	0xbd5ee5a5	-0.054418225
116	0xbd0f760c	-0.035024688
117	0xbe2ca887	-0.16861163
118	0xbcf06339	-0.029344188
119	0x3bcb84d8	0.0062109046
120	0x3e010c37	0.12602316
121	0xbe326991	-0.17423083
122	0xbc57948c	-0.013157975
123	0x3da031b5	0.07821981
124	0xbd629445	-0.055317182
125	0x3db91789	0.09037692
126	0xad980110	-1.7280871e-11
127	0xbe25ac32	-0.16178969
128	0x30c4fb90	1.4332375e-09
129	0xbd90409c	-0.07043573
130	0x352ec841	6.511146e-07
131	0xbe195e5e	-0.14977404
132	0x3e258559	0.1616415
133	0xbce08f32	-0.02741203
134	0x3da5cda8	0.080958664
135	0xbda0361e	-0.07822822
136	0xbe094c0d	-0.13407917
137	0x3ca3f4cb	0.020014187
138	0x3d9136c4	0.07090524
139	0xb017a495	-5.5167365e-10
140	0xbe0b6761	-0.13613655
141	0xbac220be	-0.0014810783
142	0xbdc2c606	-0.09510426
143	0x3b0caf62	0.002146684
144	0x2e3fe077	4.3627737e-11
145	0x3dc3d5b3	0.09562244
146	0x3e35dd0c	0.17760104
147	0xbd12a410	-0.035800993
148	0x3df80b93	0.121115826
149	0x3dc3bfdd	0.095580794
150	0x2ca76302	4.7574176e-12
151	0xbe30e5bc	-0.17275137
152	0xbdc319e8	-0.095264256
153	0x3cf1beb7	0.029509885
154	0x3dde2df7	0.10848611
155	0x3d5bf74b	0.053702634
156	0x2f8f18fa	2.6029295e-10
157	0xbd94ed71	-0.07271851
158	0xbe148f36	-0.14507756
159	0xbd8169a8	-0.063189805
160	0xafea5abe	-4.2628828e-10
161	0x2e96fb1d	6.865817e-11
162	0x3deab56c	0.11460385
163	0xbdd23636	-0.10264246
164	0x3d50203c	0.05081199
165	0x3e0bcaf3	0.13651638
166	0xbe1b8ca7	-0.15190373
167	0xbd5a4c0b	-0.053295176
168	0xbaee2554	-0.0018169084
169	0x34d9b955	4.0554247e-07
170	0x3e194b9a	0.14970246
171	0x3661cc43	3.3646509e-06
172	0x3db9df12	0.090757504
173	0x3e01482f	0.12625192
174	0x3df54567	0.11976128
175	0xbe1dd32f	-0.15412591
176	0xbdad3ed1	-0.08459247
177	0xaf8537ab	-2.4232114e-10
178	0xaf465fc9	-1.8042025e-10
179	0xacf76719	-7.0316084e-12
180	0x3e09d8e0	0.13461637
181	0x3e1c12a3	0.15241484
182	0xbb447ac0	-0.0029980391
183	0xbd12aa45	-0.035806913
184	0x2e195ffb	3.487342e-11
185	0xae139517	-3.355635e-11
186	0x3d998513	0.07496085
187	0x3c49ba8c	0.012312543
188	0x3bab287c	0.005223332
189	0x3bfa9d26	0.007648128
190	0x3ddef9c8	0.10887486
191	0x3d8e34b0	0.06943643
192	0xaaeca912	-4.2039338e-13
193	0xbdc56410	-0.09638226
194	0x3db89c31	0.09014166
195	0xad4ec6b3	-1.1753864e-11
196	0xbdcf9197	-0.10135191
197	0xb02b2257	-6.225824e-10
198	0x3dda2fa5	0.10653619
199	0xbd1011d1	-0.03517324
200	0xafdb3907	-3.9876388e-10
201	0x3c157973	0.009123194
202	0x3dd106e8	0.102063954
203	0xaa8b2c9e	-2.472232e-13
204	0xbdd09867	-0.101853184
205	0xbcd06e23	-0.025443142
206	0xbbdefabe	-0.006804793
207	0xae28f47a	-3.8415916e-11
208	0xbdbb29eb	-0.091388546
209	0x3e153b32	0.14573362
210	0x3a675033	0.00088239013
211	0xbdd1bbe6	-0.10240917
212	0x3d68247a	0.05667541
213	0x00000002	3e-45
214	0x3e305438	0.17219627
215	0xaef7a851	-1.12621586e-10
216	0x307d164e	9.207256e-10
217	0xbe2c9f0b	-0.16857545
218	0xbe05f1ac	-0.13080472
219	0x1d2542e3	2.1872148e-21
220	0x3e0c3762	0.13693002
221	0xbd9a6c18	-0.075401485
222	0x3563347b	8.464046e-07
223	0xbdc0b02c	-0.09408602
224	0xbdefc356	-0.11707179
225	0xbc70e277	-0.014702431
226	0xbdb5fea0	-0.088864565
227	0xbe0654da	-0.13118306
228	0xbb976710	-0.0046204403
229	0x2c9718d2	4.2944337e-12
230	0x3d36540d	0.04451375
231	0x3d102aeb	0.03519718
232	0xaf41521b	-1.7582417e-10
233	0xb88ddc96	-6.764491e-05
234	0xb73939b1	-1.1040292e-05
235	0xbe04ab7f	-0.12956046
236	0x3dc3f461	0.09568096
237	0x3e19a56c	0.1500451
238	0xbe1fdf04	-0.15612417
239	0xbe29bf03	-0.16576771
240	0xbe24c59b	-0.16091006
241	0xae92d24c	-6.6766676e-11
242	0xb08764da	-9.851207e-10
243	0xbdad0b13	-0.08449378
244	0x3d6eed9c	0.05833207
245	0xae8836cd	-6.1942985e-11
246	0xbd3eccd9	-0.046582077
247	0xbe2d4212	-0.16919735
248	0x3df1c6d0	0.118054986
249	0x3e3413ce	0.1758568
250	0x2efd49f6	1.1518246e-10
251	0xbd23343a	-0.03984473
252	0x3da3c20c	0.07995996
253	0x3d8ae4ff	0.06781959
254	0xa901498e	-2.8707553e-14
255	0x3e24fdea	0.16112486

ln1.weight f4 [400]
0	0x3f65e0b9	0.89796025
1	0x3f65e165	0.8979705
2	0x3f65df1b	0.89793557
3	0x3f65e254	0.89798474
4	0x3f65dfde	0.8979472
5	0x3f65e101	0.89796454
6	0x3f65e14c	0.897969
7	0x3f65e199	0.8979736
8	0x3f65e0d6	0.897962
9	0x3f65e2d0	0.89799213
10	0x3f65e12d	0.89796716
11	0x3f65e021	0.8979512
12	0x3f65df89	0.8979421
13	0x3f65e250	0.8979845
14	0x3f65e357	0.8980002
15	0x3f65e088	0.8979573
16	0x3f65df64	0.8979399
17	0x3f65e294	0.89798856
18	0x3f65e03e	0.8979529
19	0x3f65e035	0.8979524
20	0x3f65df9e	0.8979434
21	0x3f65e0d9	0.89796215
22	0x3f65df91	0.8979426
23	0x3f65dc5c	0.89789367
24	0x3f65e0a9	0.8979593
25	0x3f65e1e6	0.8979782
26	0x3f65e03c	0.8979528
27	0x3f65e05d	0.89795476
28	0x3f65e20c	0.89798045
29	0x3f65e00e	0.89795005
30	0x3f65e15e	0.8979701
31	0x3f65e076	0.89795625
32	0x3f65e16c	0.8979709
33	0x3f65e102	0.8979646
34	0x3f65e10b	0.89796513
35	0x3f65dfd6	0.8979467
36	0x3f65e128	0.89796686
37	0x3f65dff1	0.8979483
38	0x3f65e11a	0.897966
39	0x3f65e248	0.897984
40	0x3f65e247	0.89798397
41	0x3f65e08d	0.8979576
42	0x3f65e0a4	0.897959
43	0x3f65e163	0.8979704
44	0x3f65dfb6	0.8979448
45	0x3f65e170	0.89797115
46	0x3f65e3d3	0.8980076
47	0x3f65dedb	0.89793175
48	0x3f65dfbf	0.89794534
49	0x3f65e0d2	0.89796174
50	0x3f65e326	0.89799726
51	0x3f65e0d5	0.8979619
52	0x3f65e061	0.897955
53	0x3f65e111	0.8979655
54	0x3f65e1b6	0.8979753
55	0x3f65e2c2	0.8979913
56	0x3f65dcf8	0.89790297
57	0x3f65e39a	0.8980042
58	0x3f65e2dd	0.8979929
59	0x3f65e29e	0.89798915
60	0x3f65e3f2	0.8980094
61	0x3f65e16e	0.89797103
62	0x3f65e049	0.89795357
63	0x3f65df8a	0.8979422
64	0x3f65e3db	0.89800805
65	0x3f65e041	0.8979531
66	0x3f65e0e0	0.89796257
67	0x3f65e0c6	0.897961
68	0x3f65e068	0.8979554
69	0x3f65de60	0.8979244
70	0x3f65e042	0.89795315
71	0x3f65e07f	0.8979568
72	0x3f65e0f2	0.89796364
73	0x3f65e070	0.8979559
74	0x3f65e1af	0.8979749
75	0x3f65e369	0.89800125
76	0x3f65e017	0.8979506
77	0x3f65e2d9	0.8979927
78	0x3f65e030	0.8979521
79	0x3f65e1db	0.89797753
80	0x3f65dfb3	0.8979446
81	0x3f65e1b1	0.897975
82	0x3f65e0fd	0.8979643
83	0x3f65e02e	0.89795196
84	0x3f65dfc1	0.89794546
85	0x3f65e0fc	0.89796424
86	0x3f65e0f3	0.8979637
87	0x3f65e04f	0.8979539
88	0x3f65e080	0.89795685
89	0x3f65e05f	0.8979549
90	0x3f65e0af	0.89795965
91	0x3f65e0e1	0.8979626
92	0x3f65e10b	0.89796513
93	0x3f65e0f6	0.8979639
94	0x3f65df6c	0.8979404
95	0x3f65e03b	0.89795274
96	0x3f65dfd0	0.89794636
97	0x3f65e07f	0.8979568
98	0x3f65de39	0.8979221
99	0x3f65e26d	0.89798623
100	0x3f65df30	0.8979368
101	0x3f65e113	0.8979656
102	0x3f65e0d1	0.8979617
103	0x3f65e009	0.89794976
104	0x3f65e22e	0.8979825
105	0x3f65e459	0.89801556
106	0x3f65e24f	0.89798445
107	0x3f65e335	0.89799815
108	0x3f65e341	0.89799887
109	0x3f65e026	0.8979515
110	0x3f65e12e	0.8979672
111	0x3f65e139	0.8979679
112	0x3f65e0b8	0.8979602
113	0x3f65e0e8	0.89796305
114	0x3f65e19f	0.89797395
115	0x3f65e1cc	0.89797664
116	0x3f65e17c	0.89797187
117	0x3f65dfa1	0.89794356
118	0x3f65e0d8	0.8979621
119	0x3f65e178	0.89797163
120	0x3f65e08b	0.8979575
121	0x3f65e187	0.8979725
122	0x3f65e1bb	0.8979756
123	0x3f65e13a	0.89796793
124	0x3f65de85	0.8979266
125	0x3f65e244	0.8979838
126	0x3f65e1d7	0.8979773
127	0x3f65df20	0.89793587
128	0x3f65e266	0.8979858
129	0x3f65e1b0	0.89797497
130	0x3f65e2b4	0.89799047
131	0x3f65e09f	0.8979587
132	0x3f65e3e6	0.8980087
133	0x3f65e0c9	0.8979612
134	0x3f65dfff	0.89794916
135	0x3f65e1bd	0.89797574
136	0x3f65dfa7	0.8979439
137	0x3f65e0a3	0.89795893
138	0x3f65e3e1	0.8980084
139	0x3f65e057	0.8979544
140	0x3f65de21	0.89792067
141	0x3f65e101	0.89796454
142	0x3f65dff3	0.89794844
143	0x3f65e347	0.8979992
144	0x3f65e3f3	0.8980095
145	0x3f65e175	0.89797145
146	0x3f65e19b	0.8979737
147	0x3f65df78	0.8979411
148	0x3f65e0b3	0.8979599
149	0x3f65e3f8	0.8980098
150	0x3f65e10a	0.8979651
151	0x3f65e06f	0.89795583
152	0x3f65e29a	0.8979889
153	0x3f65df9f	0.89794344
154	0x3f65e31d	0.8979967
155	0x3f65e0e0	0.89796257
156	0x3f65e0f6	0.8979639
157	0x3f65e189	0.89797264
158	0x3f65e0c3	0.89796084
159	0x3f65e11d	0.8979662
160	0x3f65df2d	0.89793664
161	0x3f65e1ac	0.8979747
162	0x3f65e312	0.89799607
163	0x3f65e1b5	0.89797527
164	0x3f65dced	0.8979023
165	0x3f65e3a9	0.89800507
166	0x3f65e2a2	0.8979894
167	0x3f65df46	0.89793813
168	0x3f65e1ce	0.89797676
169	0x3f65e061	0.897955
170	0x3f65e00b	0.8979499
171	0x3f65dfbb	0.8979451
172	0x3f65dfb8	0.8979449
173	0x3f65e05a	0.8979546
174	0x3f65e189	0.89797264
175	0x3f65e1ab	0.89797467
176	0x3f65dfdb	0.897947
177	0x3f65e03a	0.8979527
178	0x3f65e09e	0.89795864
179	0x3f65e00a	0.8979498
180	0x3f65e120	0.8979664
181	0x3f65dd3b	0.89790696
182	0x3f65dff2	0.8979484
183	0x3f65df41	0.89793783
184	0x3f65e2b8	0.8979907
185	0x3f65e05b	0.89795464
186	0x3f65df51	0.8979388
187	0x3f65df9e	0.8979434
188	0x3f65e0d7	0.89796203
189	0x3f65e0c9	0.8979612
190	0x3f65e038	0.89795256
191	0x3f65e000	0.8979492
192	0x3f65e03e	0.8979529
193	0x3f65e1a3	0.8979742
194	0x3f65e1bc	0.8979757
195	0x3f65de7d	0.89792615
196	0x3f65e191	0.8979731
197	0x3f65e0c3	0.89796084
198	0x3f65e05d	0.89795476
199	0x3f65e15b	0.8979699
200	0x3f65e057	0.8979544
201	0x3f65e0be	0.89796054
202	0x3f65df12	0.89793503
203	0x3f65e0b4	0.89795995
204	0x3f65def6	0.89793336
205	0x3f65e18e	0.89797294
206	0x3f65e267	0.8979859
207	0x3f65e1ab	0.89797467
208	0x3f65dec3	0.8979303
209	0x3f65e090	0.8979578
210	0x3f65e2db	0.8979928
211	0x3f65e02b	0.8979518
212	0x3f65e071	0.89795595
213	0x3f65dff7	0.8979487
214	0x3f65e149	0.8979688
215	0x3f65e391	0.89800364
216	0x3f65e570	0.8980322
217	0x3f65e092	0.8979579
218	0x3f65e2ce	0.897992
219	0x3f65dff1	0.8979483
220	0x3f65e4dd	0.8980234
221	0x3f65e08b	0.8979575
222	0x3f65e2bc	0.89799094
223	0x3f65e079	0.89795643
224	0x3f65e1a4	0.89797425
225	0x3f65dea0	0.89792824
226	0x3f65e51c	0.8980272
227	0x3f65e081	0.8979569
228	0x3f65e059	0.8979545
229	0x3f65e166	0.89797056
230	0x3f65ddaa	0.8979136
231	0x3f65e14e	0.8979691
232	0x3f65e1a0	0.897974
233	0x3f65e14d	0.89796907
234	0x3f65e14e	0.8979691
235	0x3f65e1d0	0.8979769
236	0x3f65e2ab	0.8979899
237	0x3f65e10c	0.8979652
238	0x3f65df51	0.8979388
239	0x3f65e16a	0.8979708
240	0x3f65de0a	0.8979193
241	0x3f65e0dd	0.8979624
242	0x3f65df57	0.89793915
243	0x3f65e163	0.8979704
244	0x3f65e14a	0.8979689
245	0x3f65e181	0.89797217
246	0x3f65e17b	0.8979718
247	0x3f65e0d0	0.8979616
248	0x3f65dd51	0.8979083
249	0x3f65e14d	0.89796907
250	0x3f65e137	0.89796776
251	0x3f65e0cb	0.8979613
252	0x3f65dd93	0.8979122
253	0x3f65dee8	0.8979325
254	0x3f65e0ae	0.8979596
255	0x3f65e128	0.89796686

ln1.bias f4 [400]
0	0x3608ac9b	2.0366049e-06
1	0xb59d3d5c	-1.171527e-06
2	0xb48b8027	-2.598401e-07
3	0xb593e274	-1.101826e-06
4	0xb58b1a8b	-1.0364032e-06
5	0xb5056767	-4.969683e-07
6	0xb585cbc4	-9.968576e-07
7	0xb59b28cb	-1.1560272e-06
8	0xb58fd7e2	-1.071716e-06
9	0xb480616c	-2.3912742e-07
10	0x35f52331	1.8264165e-06
11	0xb4195ee3	-1.4283755e-07
12	0xb43c1cf0	-1.7519392e-07
13	0x3513bb14	5.5034e-07
14	0xb3342797	-4.1945523e-08
15	0xb5a07f78	-1.1958027e-06
16	0xb57d799e	-9.442682e-07
17	0x364af887	3.0245008e-06
18	0xb5ba6b25	-1.3889263e-06
19	0x3485e148	2.4937094e-07
20	0x358205e0	9.687465e-07
21	0xb5888a75	-1.0173086e-06
22	0xb598dafc	-1.1388615e-06
23	0x3599ccc1	1.145898e-06
24	0xb55a0cb5	-8.122982e-07
25	0x33a4fa42	7.682367e-08
26	0xb565fd73	-8.5677965e-07
27	0xb594d868	-1.1089842e-06
28	0xb5c81df0	-1.4909874e-06
29	0xb51a4f29	-5.7484664e-07
30	0xb51dd9c6	-5.880396e-07
31	0xb4c0611b	-3.583344e-07
32	0xb5a058d4	-1.1946781e-06
33	0x35ec386b	1.759979e-06
34	0xb557ebca	-8.043686e-07
35	0xb591beed	-1.0858909e-06
36	0x350b0d47	5.1800856e-07
37	0xb558899b	-8.066651e-07
38	0xb587926f	-1.0100902e-06
39	0xb4314a52	-1.6511447e-07
40	0xb59807c8	-1.1327147e-06
41	0xb19b8b3c	-4.526923e-09
42	0xb44b3dff	-1.8928402e-07
43	0xb598f0a8	-1.1394923e-06
44	0xb45d0795	-2.0584987e-07
45	0xb58e7c50	-1.0616004e-06
46	0x3620d17b	2.3963792e-06
47	0xb55ccbe9	-8.2253115e-07
48	0xb599c850	-1.1457687e-06
49	0xb594e7e8	-1.1094353e-06
50	0xb53e9c44	-7.100791e-07
51	0x35fcf48b	1.8846634e-06
52	0xb59abfc3	-1.1529704e-06
53	0xb5299e88	-6.31881e-07
54	0x36417fa0	2.8833529e-06
55	0xb54573b4	-7.355659e-07
56	0x36052b6a	1.9843815e-06
57	0xb561293a	-8.3879024e-07
58	0xb52306c4	-6.0732077e-07
59	0xb58eaae3	-1.0629559e-06
60	0x35704473	8.9506574e-07
61	0xb5853a3a	-9.926218e-07
62	0xb4f1c3a7	-4.5032104e-07
63	0xb4d6e14c	-4.002453e-07
64	0xb56d5950	-8.8419347e-07
65	0xb37a5082	-5.8280882e-08
66	0xb58af492	-1.035298e-06
67	0x359412ff	1.1032388e-06
68	0xb58db032	-1.0556598e-06
69	0xb5586790	-8.0616974e-07
70	0xb5814d3d	-9.633728e-07
71	0xb59db3a4	-1.1749694e-06
72	0xb5ae2e3d	-1.2977467e-06
73	0xb5987cd2	-1.136121e-06
74	0x360317be	1.953434e-06
75	0xb55e3091	-8.277212e-07
76	0xb31b30e5	-3.613322e-08
77	0xb590f0c7	-1.0798911e-06
78	0xb4b29aff	-3.3267858e-07
79	0xb5a1cba7	-1.2054705e-06
80	0xb5985a6c	-1.1351199e-06
81	0x351c43a2	5.821295e-07
82	0xb5a3ccac	-1.2204014e-06
83	0x355722f1	8.014459e-07
84	0x31aba685	4.995686e-09
85	0x3602bee9	1.9482634e-06
86	0xb59764d1	-1.1279718e-06
87	0xb5bd6f9a	-1.4114078e-06
88	0x368d89b9	4.2181605e-06
89	0xb599069a	-1.140131e-06
90	0xb59ea969	-1.1821222e-06
91	0xb59ce602	-1.1689847e-06
92	0x36105124	2.1504902e-06
93	0xb588c341	-1.0189616e-06
94	0x360125dc	1.9244535e-06
95	0xb59ccdb4	-1.1682773e-06
96	0xb5928434	-1.0916324e-06
97	0xb5868f15	-1.002542e-06
98	0x360b8fc0	2.0796288e-06
99	0x34f24498	4.512592e-07
100	0x333a4513	4.3369322e-08
101	0xb59ae81e	-1.1541449e-06
102	0x3680bb9d	3.8365383e-06
103	0xb5c98544	-1.5014452e-06
104	0x34871bf9	2.5166062e-07
105	0xb30506ed	-3.0972775e-08
106	0xb594d91c	-1.1090046e-06
107	0xb56d9d53	-8.8518317e-07
108	0xb5587d8f	-8.064898e-07
109	0xb5977047	-1.1283054e-06
110	0xb5a9d2c4	-1.2652822e-06
111	0xb59d50a2	-1.1720879e-06
112	0x35e263b2	1.6867327e-06
113	0x3517a477	5.649121e-07
114	0xb59a205d	-1.1483313e-06
115	0xb55efce0	-8.3069426e-07
116	0x35afb9aa	1.3092551e-06
117	0xb59111c9	-1.0808518e-06
118	0xb50193c6	-4.8271284e-07
119	0xb58cfc50	-1.0504245e-06
120	0xb598a7ab	-1.137368e-06
121	0x3583a29f	9.80759e-07
122	0xb5be0639	-1.4157914e-06
123	0xb540ec51	-7.186946e-07
124	0x362f3906	2.6110224e-06
125	0xb5a35876	-1.2170192e-06
126	0xb5bfbf62	-1.4286309e-06
127	0xb4a38179	-3.045532e-07
128	0xb52bfca8	-6.407013e-07
129	0xb595c191	-1.11577e-06
130	0x367cd991	3.7677567e-06
131	0xb4d42108	-3.951211e-07
132	0xb53bb8af	-6.993168e-07
133	0xb4c2b571	-3.6267332e-07
134	0x34a38f14	3.046522e-07
135	0x35b20fc0	1.3266617e-06
136	0x361cbbc0	2.3355096e-06
137	0x363d1538	2.8175546e-06
138	0xb543c203	-7.2925485e-07
139	0x364797d7	2.9741693e-06
140	0xb55916df	-8.087208e-07
141	0xb58b08e3	-1.0358893e-06
142	0xb5b7fa20	-1.3707358e-06
143	0x3611cd01	2.1726012e-06
144	0x3524733c	6.126245e-07
145	0xb58a2314	-1.029201e-06
146	0xb5915bf7	-1.0830107e-06
147	0xb598cc89	-1.138441e-06
148	0x364335f8	2.9088678e-06
149	0x32b5c3d3	2.1160224e-08
150	0xb59c967f	-1.1666706e-06
151	0xb567e225	-8.638329e-07
152	0xb5936678	-1.0982176e-06
153	0xb59274b2	-1.091181e-06
154	0xb5618187	-8.400752e-07
155	0xb598d75c	-1.138756e-06
156	0xb503439f	-4.8899705e-07
157	0xb5a06e2e	-1.1952995e-06
158	0x35e72a22	1.7223103e-06
159	0x35a5e9b9	1.236148e-06
160	0xb52bee3e	-6.404915e-07
161	0x349980dd	2.859223e-07
162	0xb4dec6b5	-4.14953e-07
163	0xb5371cc6	-6.8214683e-07
164	0x355737bd	8.017485e-07
165	0x3618db8a	2.2777554e-06
166	0xb52e15ed	-6.485196e-07
167	0xb5815cf8	-9.638306e-07
168	0xb5c7e45b	-1.4893116e-06
169	0xb541ed0b	-7.2243046e-07
170	0xb54a1b14	-7.529027e-07
171	0xb55bea20	-8.1924554e-07
172	0x33a27361	7.5647e-08
173	0xb5ba01ab	-1.3858565e-06
174	0x355a4ebc	8.13259e-07
175	0xb5302da1	-6.563151e-07
176	0xb590e06f	-1.0794155e-06
177	0xb509fbac	-5.140271e-07
178	0xb59b88df	-1.1588235e-06
179	0xb59c2b86	-1.1635573e-06
180	0xb581c2dd	-9.667962e-07
181	0x3681dd8b	3.8702906e-06
182	0xb599db7f	-1.146327e-06
183	0xb55e25a7	-8.2756236e-07
184	0xb4e2b5f8	-4.222818e-07
185	0x36094237	2.0453133e-06
186	0xb566ff88	-8.6053524e-07
187	0xb53d154e	-7.043899e-07
188	0x360f4ec8	2.1354517e-06
189	0xb5178136	-5.643991e-07
190	0x3582269c	9.696992e-07
191	0xb596f06b	-1.1245842e-06
192	0xb59ca2cb	-1.1670285e-06
193	0xb4cf50aa	-3.8615445e-07
194	0x3607a0dd	2.0210202e-06
195	0xb54ed6ee	-7.7053744e-07
196	0xb590baf8	-1.0783251e-06
197	0x3609b07c	2.0517318e-06
198	0xb5c6a6ea	-1.4800728e-06
199	0xb4fa184f	-4.6583816e-07
200	0x357e94ec	9.4839083e-07
201	0x366b9c38	3.510866e-06
202	0xb572741f	-9.0321004e-07
203	0xb5a2f25c	-1.2140476e-06
204	0xb55f50ee	-8.319174e-07
205	0xb58e3465	-1.0595073e-06
206	0x362e63ae	2.5986042e-06
207	0xb5c59f06	-1.4723926e-06
208	0x35d06b2a	1.5528396e-06
209	0xb58634f1	-9.999186e-07
210	0xb583ae94	-9.81107e-07
211	0xb54e59b8	-7.687154e-07
212	0xb5a24581	-1.2090169e-06
213	0xb58c44e2	-1.045086e-06
214	0xb5826f1b	-9.718091e-07
215	0xb555665d	-7.949764e-07
216	0x3440cf6c	1.7956853e-07
217	0x35db29f9	1.6328987e-06
218	0x36480603	2.9805822e-06
219	0xb59f457c	-1.1866646e-06
220	0x3609a5f2	2.0511184e-06
221	0x364842c0	2.9841176e-06
222	0x3646dfa8	2.9634484e-06
223	0xb5883a39	-1.0149735e-06
224	0xb562b142	-8.4449505e-07
225	0xb31ad12b	-3.6046156e-08
226	0x36595f5d	3.2391029e-06
227	0x3698e7b0	4.556925e-06
228	0xb59d5688	-1.1722595e-06
229	0xb5a0b9e9	-1.1975036e-06
230	0xb310850c	-3.3648618e-08
231	0xb591602d	-1.0831333e-06
232	0xb59ddf22	-1.1762352e-06
233	0xb59fd272	-1.1907671e-06
234	0xb5739764	-9.0744857e-07
235	0xb5320482	-6.6316727e-07
236	0xb59abf63	-1.1529595e-06
237	0x35d82767	1.6104722e-06
238	0xb442a295	-1.8126805e-07
239	0xb5988d54	-1.1366014e-06
240	0x364e4da5	3.0741587e-06
241	0xb59a923a	-1.1516452e-06
242	0x36888e35	4.069671e-06
243	0x3625ab17	2.4686503e-06
244	0x35e16700	1.6793783e-06
245	0xb4a0c30d	-2.994424e-07
246	0x35e30b03	1.6916023e-06
247	0xb5a14923	-1.201672e-06
248	0x35ef55b2	1.7831828e-06
249	0xb4bbb226	-3.4961084e-07
250	0x3685207d	3.967491e-06
251	0xb5ab3f96	-1.2758999e-06
252	0x35aaa840	1.2714954e-06
253	0xb56bda17	-8.7861685e-07
254	0xb5a538e1	-1.2310012e-06
255	0xb5ae685e	-1.2994385e-06

layer_2.weight f4 [300, 400]
0	0x38892fa3	6.541542e-05
1	0xb852d8b3	-5.026972e-05
2	0xb7b31cf0	-2.1351938e-05
3	0xb803f6ee	-3.1462805e-05
4	0xb850e873	-4.980755e-05
5	0xb737587f	-1.0928255e-05
6	0xb7e95cf8	-2.7819056e-05
7	0xb7fcbd5f	-3.0128924e-05
8	0xb866e788	-5.5051903e-05
9	0xb73ee983	-1.1379251e-05
10	0x387200d4	5.7698067e-05
11	0xb78ec064	-1.7017308e-05
12	0xb71415ff	-8.826609e-06
13	0x37c150ef	2.304508e-05
14	0xb79337c4	-1.7549733e-05
15	0xb8258dc8	-3.947111e-05
16	0xb80676a3	-3.205858e-05
17	0x38ccb785	9.761661e-05
18	0xb804308f	-3.1516476e-05
19	0x372f5dd9	1.0452663e-05
20	0x38122ba8	3.484977e-05
21	0xb8434dfb	-4.6564248e-05
22	0xb804f626	-3.1700496e-05
23	0x38046c9b	3.15724e-05
24	0xb80ccabb	-3.356741e-05
25	0x3694736f	4.424182e-06
26	0xb820f975	-3.8379298e-05
27	0xb7eeafe5	-2.8453718e-05
28	0xb83ad8c1	-4.4547724e-05
29	0xb81e09af	-3.7679154e-05
30	0xb7fcbaa7	-3.0127658e-05
31	0xb79051e4	-1.7204271e-05
32	0xb8064297	-3.2010106e-05
33	0x3886f940	6.436044e-05
34	0xb80055bc	-3.0597424e-05
35	0xb8009055	-3.0651998e-05
36	0x3780044a	1.5260786e-05
37	0xb7f2cb0b	-2.8943197e-05
38	0xb8356601	-4.324876e-05
39	0xb7cf972c	-2.4746718e-05
40	0xb805b002	-3.187359e-05
41	0xb734a43b	-1.0767074e-05
42	0xb7057b17	-7.956077e-06
43	0xb8050b26	-3.1720054e-05
44	0xb7892d38	-1.635273e-05
45	0xb7ed1903	-2.8264249e-05
46	0x388f0cf6	6.8211855e-05
47	0xb80124bc	-3.079021e-05
48	0xb813969f	-3.5187808e-05
49	0xb8681ab0	-5.5337965e-05
50	0xb805fb61	-3.1943786e-05
51	0x387d73bb	6.0427683e-05
52	0xb866f7cb	-5.506705e-05
53	0xb7b1cd9b	-2.1195787e-05
54	0x38c3bbe8	9.333325e-05
55	0xb7fe1121	-3.0287136e-05
56	0x385348fb	5.037429e-05
57	0xb80655d1	-3.2028012e-05
58	0xb8197ada	-3.6592457e-05
59	0xb8059414	-3.184758e-05
60	0x37dc8a9b	2.6290587e-05
61	0xb80587c0	-3.1836098e-05
62	0xb7d1c4e7	-2.5006431e-05
63	0xb7a50da0	-1.9675877e-05
64	0xb80cbd2d	-3.3554785e-05
65	0x357e3860	9.470441e-07
66	0xb8067a80	-3.2062177e-05
67	0x38579a6a	5.1403804e-05
68	0xb7f50ca7	-2.9212168e-05
69	0xb8622d08	-5.3924537e-05
70	0xb849e92e	-4.81393e-05
71	0xb85b99a9	-5.2356776e-05
72	0xb7f05787	-2.8650988e-05
73	0xb85681f0	-5.114259e-05
74	0x38b1f207	8.485099e-05
75	0xb7ed6e16	-2.8303864e-05
76	0xb5b9523f	-1.3807511e-06
77	0xb7f14ae0	-2.8764305e-05
78	0xb6f3f614	-7.2706116e-06
79	0xb82daff6	-4.141029e-05
80	0xb863a0cd	-5.4270775e-05
81	0x3765cd52	1.36972685e-05
82	0xb8065116	-3.2023607e-05
83	0x38270947	3.9824543e-05
84	0xb6100053	-2.145786e-06
85	0x387120f5	5.748957e-05
86	0xb857cb0b	-5.1449093e-05
87	0xb7efa955	-2.8569872e-05
88	0x38d93f33	0.00010359138
89	0xb868199a	-5.5336954e-05
90	0xb8572cec	-5.130183e-05
91	0xb7ecf1af	-2.8245935e-05
92	0x38930cd5	7.0118964e-05
93	0xb80432b6	-3.151848e-05
94	0x3882a28c	6.22916e-05
95	0xb804bc6a	-3.1646727e-05
96	0xb8456ab6	-4.7067842e-05
97	0xb7b1d471	-2.119897e-05
98	0x387b565f	5.9923503e-05
99	0x38148e68	3.5418576e-05
100	0xb60bf897	-2.0857312e-06
101	0xb804fb7c	-3.1705466e-05
102	0x38db1e80	0.00010448415
103	0xb8061071	-3.1963402e-05
104	0x371a3d40	9.193376e-06
105	0xb6fde884	-7.567056e-06
106	0xb80694e8	-3.208677e-05
107	0xb85b0f1b	-5.2227737e-05
108	0xb8068260	-3.206951e-05
109	0xb8061d4d	-3.1975378e-05
110	0xb867de1d	-5.528155e-05
111	0xb8052019	-3.1739564e-05
112	0x388ac40b	6.6168686e-05
113	0x3802f35a	3.1221054e-05
114	0xb806441f	-3.2011532e-05
115	0xb83824b0	-4.3903186e-05
116	0x38240a8a	3.9110462e-05
117	0xb7f22a60	-2.886838e-05
118	0xb7294bac	-1.0090804e-05
119	0xb806814d	-3.206851e-05
120	0xb7f6cdf2	-2.9421386e-05
121	0x3812abc8	3.4969096e-05
122	0xb8024e57	-3.1067375e-05
123	0xb7e7d09b	-2.7634485e-05
124	0x38ab6f42	8.174639e-05
125	0xb8586a70	-5.159754e-05
126	0xb8047058	-3.157588e-05
127	0xb7401620	-1.1449243e-05
128	0xb77cab41	-1.5060244e-05
129	0xb7b41a9c	-2.1470063e-05
130	0x38e99ff8	0.00011140102
131	0xb802511d	-3.1069958e-05
132	0xb7f0df53	-2.8714223e-05
133	0xb70a7ef8	-8.255003e-06
134	0x36c4082a	5.8422056e-06
135	0x38783898	5.9180515e-05
136	0x3891ced0	6.9526606e-05
137	0x38b8fa8f	8.820474e-05
138	0xb82feae2	-4.1942003e-05
139	0x38d0d455	9.957763e-05
140	0xb803b310	-3.13996e-05
141	0xb81f7954	-3.802155e-05
142	0xb7f7778b	-2.9500361e-05
143	0x38a60f33	7.918328e-05
144	0x382e1ed4	4.1513544e-05
145	0xb8191fd7	-3.6507696e-05
146	0xb82e43d6	-4.154801e-05
147	0xb819a81c	-3.6634607e-05
148	0x38e9b7d5	0.00011144547
149	0xb5deeb1b	-1.6608714e-06
150	0xb806970e	-3.208877e-05
151	0xb80bd59f	-3.3339133e-05
152	0xb825fa4a	-3.9572165e-05
153	0xb83b95f6	-4.4723936e-05
154	0xb83fcfb3	-4.5731384e-05
155	0xb80fed83	-3.4315057e-05
156	0xb7cf9ee6	-2.4750316e-05
157	0xb81efcf5	-3.790572e-05
158	0x387fdcd6	6.1002407e-05
159	0x382a8f79	4.0664778e-05
160	0xb7f5aa73	-2.9285648e-05
161	0x36d950a5	6.476492e-06
162	0xb7848bcd	-1.5800726e-05
163	0xb808cf9d	-3.261828e-05
164	0x3804bda0	3.1647854e-05
165	0x388f3e66	6.830394e-05
166	0xb74a613d	-1.2062778e-05
167	0xb7f0b511	-2.8694545e-05
168	0xb836d650	-4.3591775e-05
169	0xb84adacf	-4.8364334e-05
170	0xb7fa5080	-2.9839808e-05
171	0xb80028dd	-3.0555635e-05
172	0x36711334	3.5922976e-06
173	0xb7f0443f	-2.8642009e-05
174	0x379ba657	1.8554898e-05
175	0xb7d3b604	-2.5237918e-05
176	0xb8671977	-5.5098408e-05
177	0xb79b9535	-1.854692e-05
178	0xb8061631	-3.1968757e-05
179	0xb7f56d4f	-2.9257177e-05
180	0xb7fb13ed	-2.993081e-05
181	0x3907dc8c	0.00012956763
182	0xb8682b32	-5.535334e-05
183	0xb804d64b	-3.167083e-05
184	0xb7b7eb38	-2.1924832e-05
185	0x38b48392	8.607576e-05
186	0xb866df9a	-5.504452e-05
187	0xb7f431b0	-2.9110204e-05
188	0x38906114	6.884537e-05
189	0xb7aa1567	-2.0275545e-05
190	0x38011a9f	3.078079e-05
191	0xb86584a2	-5.472138e-05
192	0xb804b0ff	-3.1636093e-05
193	0xb7d48e05	-2.5338502e-05
194	0x386ddd6f	5.671143e-05
195	0xb7ecd7f1	-2.8233948e-05
196	0xb7ff4542	-3.043062e-05
197	0x38af9acf	8.3734856e-05
198	0xb8614d2b	-5.371605e-05
199	0xb7a2da02	-1.9413423e-05
200	0x38003e39	3.0575527e-05
201	0x38df372d	0.00010643746
202	0xb8059fc8	-3.185848e-05
203	0xb7f51593	-2.9216322e-05
204	0xb8047f42	-3.158977e-05
205	0xb8019965	-3.0898856e-05
206	0x38ac6938	8.221198e-05
207	0xb81149d3	-3.4639448e-05
208	0x386d6184	5.659602e-05
209	0xb7edf8ac	-2.8368398e-05
210	0xb80584dc	-3.1833406e-05
211	0xb7aabaeb	-2.035262e-05
212	0xb803a399	-3.1385196e-05
213	0xb810d711	-3.453257e-05
214	0xb7bc40ab	-2.244146e-05
215	0xb8051b8b	-3.1735322e-05
216	0x36d67a50	6.391936e-06
217	0x387b40d7	5.990345e-05
218	0x38daa58d	0.00010425886
219	0xb80513ec	-3.1728225e-05
220	0x38970664	7.2014314e-05
221	0x38f65057	0.000117451586
222	0x38c23271	9.260036e-05
223	0xb7de6f0b	-2.651617e-05
224	0xb7bf3dbc	-2.2797722e-05
225	0xb746402f	-1.1816664e-05
226	0x38d5c1c3	0.000101927224
227	0x38f9ed88	0.00011917489
228	0xb8501dfe	-4.9618997e-05
229	0xb8051c77	-3.173618e-05
230	0xb646165e	-2.9517319e-06
231	0xb8048b17	-3.160079e-05
232	0xb8064fbc	-3.2022348e-05
233	0xb8657304	-5.470497e-05
234	0xb7b740f9	-2.1845555e-05
235	0xb7d0f5fe	-2.4910081e-05
236	0xb7f660cb	-2.9370558e-05
237	0x38464be4	4.7277557e-05
238	0xb7cb3586	-2.422441e-05
239	0xb8351d38	-4.3180975e-05
240	0x38b6cbeb	8.716419e-05
241	0xb85f08e4	-5.3175623e-05
242	0x38d99aad	0.00010376177
243	0x388f3a4c	6.82963e-05
244	0x3888822e	6.509233e-05
245	0xb7a58095	-1.9729408e-05
246	0x389472b2	7.0785536e-05
247	0xb806086e	-3.195594e-05
248	0x384aa58f	4.831474e-05
249	0xb7605d42	-1.3373154e-05
250	0x38f68226	0.00011754436
251	0xb803256a	-3.126768e-05
252	0x3888d967	6.52548e-05
253	0xb801b7a7	-3.0927036e-05
254	0xb8048742	-3.159722e-05
255	0xb85d3d03	-5.2747328e-05

layer_2.bias f4 [300]
0	0x3864f748	5.4589735e-05
1	0x38240c11	3.9111885e-05
2	0x31b95efb	5.3950067e-09
3	0xb7cd8532	-2.4499928e-05
4	0xb6c977be	-6.0042066e-06
5	0x226929a2	3.1599429e-18
6	0x00000004	6e-45
7	0x3912cadc	0.00013999216
8	0x38c2747f	9.27234e-05
9	0xb7920f41	-1.741166e-05
10	0x957279f6	-4.896772e-26
11	0x9c366779	-6.0352484e-22
12	0x3873e889	5.815228e-05
13	0xb461e214	-2.1037005e-07
14	0xae00a553	-2.9250668e-11
15	0x395606fc	0.00020411232
16	0x134d05b2	2.5877446e-27
17	0x388f882e	6.844137e-05
18	0x00000003	4e-45
19	0x37d1088a	2.4918718e-05
20	0xb6ae6ffb	-5.1986403e-06
21	0x3847055f	4.74503e-05
22	0xa4218d45	-3.503097e-17
23	0xb7dcda43	-2.632768e-05
24	0xb19b33e2	-4.516992e-09
25	0x239356cd	1.5974533e-17
26	0x37b974c6	2.2108095e-05
27	0x36f0708f	7.165661e-06
28	0x80000007	-1e-44
29	0xb5d0a7c0	-1.5546029e-06
30	0x38f216a9	0.0001154368
31	0xb87aee5c	-5.9826634e-05
32	0xb2a37c27	-1.9032155e-08
33	0xb5a420c5	-1.2228489e-06
34	0x3129cd7a	2.4709537e-09
35	0x80000002	-3e-45
36	0x28233589	9.059926e-15
37	0x38bf32e0	9.117066e-05
38	0x382cde7b	4.1215197e-05
39	0x1a680d48	4.7987204e-23
40	0xb883513c	-6.261698e-05
41	0x2eb544ec	8.24317e-11
42	0xb5167545	-5.6050004e-07
43	0xb2fa7109	-2.9155233e-08
44	0x38aa69a2	8.125907e-05
45	0xb6cbb216	-6.0706034e-06
46	0xafa002a9	-2.910572e-10
47	0x389eb7c4	7.568256e-05
48	0x3822e84c	3.8840153e-05
49	0x3823792c	3.897508e-05
50	0x80000005	-7e-45
51	0x04acb3b7	4.0602048e-36
52	0x049b8441	3.656178e-36
53	0x3819d50d	3.667646e-05
54	0x00000002	3e-45
55	0xb58576b4	-9.943819e-07
56	0x29177c36	3.363647e-14
57	0x38c95905	9.601008e-05
58	0x380d210d	3.36478e-05
59	0x80000002	-3e-45
60	0x38ab68e9	8.1734564e-05
61	0x3905063b	0.0001268619
62	0x38a8567e	8.026975e-05
63	0x383c1550	4.484254e-05
64	0x390341db	0.00012517667
65	0x38dcfd92	0.000105376486
66	0xb8c8a75c	-9.567916e-05
67	0x388ffd6e	6.865976e-05
68	0x80000004	-6e-45
69	0x38c41d51	9.351469e-05
70	0x22e73386	6.266723e-18
71	0x24719a4d	5.2389243e-17
72	0x00000003	4e-45
73	0x00000003	4e-45
74	0x386cf50f	5.6495013e-05
75	0x37c62206	2.3619283e-05
76	0x38a5ad73	7.9001205e-05
77	0x00000002	3e-45
78	0xb45608d5	-1.9933516e-07
79	0x386d296b	5.6543777e-05
80	0xab9ef2b6	-1.1293941e-12
81	0x36ca1cde	6.0234297e-06
82	0xb48bc238	-2.603208e-07
83	0x2db81ce3	2.0931206e-11
84	0xb6c21676	-5.7842653e-06
85	0xb61a83a2	-2.3024409e-06
86	0xb3e33e85	-1.05818835e-07
87	0x381ea2a3	3.7821603e-05
88	0xb824c280	-3.928179e-05
89	0xb52d135d	-6.44757e-07
90	0xb58bbb6e	-1.0410856e-06
91	0x00000013	2.7e-44
92	0x38b7b8da	8.760551e-05
93	0xb40de8be	-1.321632e-07
94	0xb48e6fff	-2.653105e-07
95	0xb5d1ff49	-1.5646011e-06
96	0xb5bdc03d	-1.4137546e-06
97	0xb8a0018e	-7.629684e-05
98	0x391cc0fa	0.00014949209
99	0xa27938fb	-3.3775958e-18
100	0x38150e39	3.5537614e-05
101	0xb188e15e	-3.9837422e-09
102	0x385c2d9e	5.249457e-05
103	0x3851821e	4.9950664e-05
104	0x387e69ec	6.0656967e-05
105	0x383ee871	4.5516008e-05
106	0x38ef5bdc	0.00011413518
107	0x1c95a84c	9.903497e-22
108	0x1a6b1750	4.8615693e-23
109	0xb873f4fb	-5.816387e-05
110	0x0000050f	1.815e-42
111	0x80000002	-3e-45
112	0x393c532c	0.00017960061
113	0x39097377	0.00013108352
114	0x32acaac7	2.0101096e-08
115	0xaf67ab54	-2.1070196e-10
116	0xb5f663b2	-1.8357443e-06
117	0x00000002	3e-45
118	0x28c24c9b	2.1571549e-14
119	0x359bcf1c	1.1608677e-06
120	0x39423244	0.00018520007
121	0xb500f464	-4.803935e-07
122	0xb524a40a	-6.133347e-07
123	0xb0e3f277	-1.6585336e-09
124	0x3816720d	3.5869005e-05
125	0xb31ae1fa	-3.6061444e-08
126	0xa1073aa0	-4.581737e-19
127	0x38add6dd	8.289304e-05
128	0x3388fa01	6.378469e-08
129	0x30454e9b	7.177989e-10
130	0x00000005	7e-45
131	0x37ca10e6	2.4088145e-05
132	0xb1c8ea49	-5.8474012e-09
133	0xb06182eb	-8.204057e-10
134	0x38b2c047	8.523516e-05
135	0xb52ef6a2	-6.517895e-07
136	0x10455e42	3.8924013e-29
137	0x38d0f7f9	9.9644014e-05
138	0x391020ae	0.00013745084
139	0x00000002	3e-45
140	0xa3a46f40	-1.7828032e-17
141	0xb5271963	-6.224929e-07
142	0x342b9728	1.5980606e-07
143	0x2fc08861	3.50215e-10
144	0x3898971d	7.276072e-05
145	0xb61249b9	-2.1798608e-06
146	0x37049ec6	7.90478e-06
147	0x37f37557	2.9022498e-05
148	0xb108d3db	-1.991103e-09
149	0x38c523be	9.4003495e-05
150	0x3838dcd4	4.407468e-05
151	0x38053a66	3.176406e-05
152	0xb086d01e	-9.808934e-10
153	0xb30ca7ca	-3.2748893e-08
154	0x00000002	3e-45
155	0x384ec493	4.92973e-05
156	0x37f2e8e3	2.8957094e-05
157	0x261b5385	5.388962e-16
158	0x00000004	6e-45
159	0xb60d68e2	-2.1071687e-06
160	0xa2329e89	-2.4207426e-18
161	0xb13df678	-2.764322e-09
162	0x9a7d5b7d	-5.2393077e-23
163	0xb5b091b2	-1.3155425e-06
164	0x19ecd670	2.4488439e-23
165	0xb689a0fd	-4.1016597e-06
166	0xa31a01e9	-8.348761e-18
167	0x3810741b	3.4440407e-05
168	0xb02213a3	-5.896316e-10
169	0x80000005	-7e-45
170	0x37224393	9.671686e-06
171	0x80000006	-8e-45
172	0x391f522b	0.00015194032
173	0x380d6206	3.370831e-05
174	0x38a40f17	7.82294e-05
175	0xb841f90c	-4.624673e-05
176	0x38654c86	5.4669123e-05
177	0x38e5277b	0.00010926925
178	0x386df211	5.6730645e-05
179	0x38257a59	3.945301e-05
180	0xb54af1dd	-7.560282e-07
181	0xb61b5479	-2.314597e-06
182	0x388bff6c	6.6756125e-05
183	0xb8c26ccd	-9.2709066e-05
184	0xb19c3971	-4.546728e-09
185	0x38109854	3.4474142e-05
186	0xb1fbed86	-7.3320647e-09
187	0x388e487d	6.78459e-05
188	0xacb2632d	-5.070075e-12
189	0x223176f2	2.4050942e-18
190	0x38018afc	3.0885436e-05
191	0xa80c813f	-7.799587e-15
192	0x2dda1f0e	2.4797522e-11
193	0x80000002	-3e-45
194	0xb104f879	-1.9349768e-09
195	0x3919a3c6	0.00014652227
196	0x392a7d55	0.00016259153
197	0x80000002	-3e-45
198	0x80000002	-3e-45
199	0xb5b3780a	-1.3371475e-06
200	0x36e588a5	6.8406393e-06
201	0x38ab069d	8.155147e-05
202	0xae8b12e8	-6.3243466e-11
203	0xa82f1a97	-9.720217e-15
204	0xb74cdb83	-1.2210457e-05
205	0x3833cb37	4.2866184e-05
206	0xa4b1cefe	-7.711217e-17
207	0x392f7946	0.00016734478
208	0xb2f86912	-2.891878e-08
209	0x386fb262	5.7148172e-05
210	0x2a3a8850	1.6567412e-13
211	0xb2610524	-1.30978925e-08
212	0x00023c5d	2.05325e-40
213	0x80000002	-3e-45
214	0x00000002	3e-45
215	0x383de990	4.5278633e-05
216	0x22cdfb13	5.5831197e-18
217	0x38be4dcc	9.074397e-05
218	0x80000002	-3e-45
219	0x35e3e0a9	1.6978203e-06
220	0x00000002	3e-45
221	0x38b601e9	8.678792e-05
222	0xa1a63459	-1.1262454e-18
223	0x32f1090c	2.8060207e-08
224	0x38494dc2	4.7994552e-05
225	0x00000002	3e-45
226	0x2aa35590	2.9013987e-13
227	0xb5994ae4	-1.1421184e-06
228	0xb4e25af0	-4.2161946e-07
229	0x85579550	-1.0136676e-35
230	0x122f5e96	5.533685e-28
231	0x3912d8e3	0.00014004442
232	0x9f23429c	-3.457169e-20
233	0xb958fa28	-0.00020692556
234	0xb4e627e1	-4.2869854e-07
235	0x36c5b53c	5.892156e-06
236	0x378d62e8	1.6854567e-05
237	0x38af42a3	8.357062e-05
238	0x371e33ac	9.429565e-06
239	0x170db6e3	4.5790393e-25
240	0xb7adb117	-2.0705671e-05
241	0x85dcb582	-2.0755376e-35
242	0xa5490284	-1.7434823e-16
243	0xb332b810	-4.161126e-08
244	0xb4b6c288	-3.4041682e-07
245	0x37758707	1.46345765e-05
246	0xb7cbde94	-2.4303132e-05
247	0x38c09ba8	9.184267e-05
248	0xb3285c38	-3.919942e-08
249	0xb92aebc3	-0.00016300291
250	0x37ee7951	2.8428303e-05
251	0x80000002	-3e-45
252	0xb1363dbb	-2.6519575e-09
253	0x38c2ed96	9.294895e-05
254	0x37eaf1f5	2.8007644e-05
255	0x37ee09a0	2.8376293e-05

ln2.weight f4 [300]
0	0x3f65e102	0.8979646
1	0x3f65e0bd	0.8979605
2	0x3f65e2e6	0.89799345
3	0x3f65e12b	0.89796704
4	0x3f65e16d	0.897971
5	0x3f65dfd8	0.89794683
6	0x3f65df7d	0.8979414
7	0x3f65e26e	0.8979863
8	0x3f65e21c	0.8979814
9	0x3f65e19a	0.89797366
10	0x3f65e22f	0.89798254
11	0x3f65e1b6	0.8979753
12	0x3f65e10d	0.89796525
13	0x3f65e11e	0.89796627
14	0x3f65e334	0.8979981
15	0x3f65e269	0.897986
16	0x3f65e344	0.89799905
17	0x3f65e08a	0.89795744
18	0x3f65df7e	0.89794147
19	0x3f65e0a3	0.89795893
20	0x3f65e0dc	0.89796233
21	0x3f65e08a	0.89795744
22	0x3f65e231	0.89798266
23	0x3f65e342	0.8979989
24	0x3f65e337	0.8979983
25	0x3f65dee0	0.89793205
26	0x3f65deee	0.8979329
27	0x3f65e1be	0.8979758
28	0x3f65de19	0.8979202
29	0x3f65e006	0.8979496
30	0x3f65e242	0.8979837
31	0x3f65dffe	0.8979491
32	0x3f65e203	0.8979799
33	0x3f65e046	0.8979534
34	0x3f65df92	0.89794266
35	0x3f65e1bc	0.8979757
36	0x3f65dc44	0.89789224
37	0x3f65df51	0.8979388
38	0x3f65e10d	0.89796525
39	0x3f65e1df	0.89797777
40	0x3f65e3ec	0.89800906
41	0x3f65dfa4	0.89794374
42	0x3f65e083	0.897957
43	0x3f65e341	0.89799887
44	0x3f65e149	0.8979688
45	0x3f65e020	0.8979511
46	0x3f65dfd1	0.8979464
47	0x3f65dff8	0.89794874
48	0x3f65dfaa	0.8979441
49	0x3f65e2c6	0.89799154
50	0x3f65e1ab	0.89797467
51	0x3f65e27e	0.89798725
52	0x3f65e16c	0.8979709
53	0x3f65e104	0.8979647
54	0x3f65e105	0.8979648
55	0x3f65e0cb	0.8979613
56	0x3f65dc2f	0.897891
57	0x3f65e25c	0.8979852
58	0x3f65e1d8	0.89797735
59	0x3f65ddac	0.8979137
60	0x3f65e042	0.89795315
61	0x3f65e1da	0.8979775
62	0x3f65e273	0.8979866
63	0x3f65e115	0.8979657
64	0x3f65e082	0.89795697
65	0x3f65e1a1	0.8979741
66	0x3f65e394	0.8980038
67	0x3f65dfc7	0.8979458
68	0x3f65e1c2	0.89797604
69	0x3f65df68	0.89794016
70	0x3f65e1a8	0.8979745
71	0x3f65df3f	0.8979377
72	0x3f65e24d	0.8979843
73	0x3f65e13a	0.89796793
74	0x3f65e136	0.8979677
75	0x3f65e0e4	0.8979628
76	0x3f65df71	0.8979407
77	0x3f65e1cc	0.89797664
78	0x3f65e106	0.89796484
79	0x3f65e147	0.8979687
80	0x3f65e03f	0.897953
81	0x3f65e006	0.8979496
82	0x3f65dfea	0.8979479
83	0x3f65dfef	0.8979482
84	0x3f65e06e	0.8979558
85	0x3f65dfda	0.89794695
86	0x3f65e0fc	0.89796424
87	0x3f65e10a	0.8979651
88	0x3f65e0c1	0.8979607
89	0x3f65e102	0.8979646
90	0x3f65dfb6	0.8979448
91	0x3f65e20d	0.8979805
92	0x3f65e1ce	0.89797676
93	0x3f65e1c8	0.8979764
94	0x3f65e0f5	0.8979638
95	0x3f65e1ba	0.89797556
96	0x3f65e1af	0.8979749
97	0x3f65e17e	0.897972
98	0x3f65e2f6	0.8979944
99	0x3f65e294	0.89798856
100	0x3f65e1b6	0.8979753
101	0x3f65dff5	0.89794856
102	0x3f65dfe6	0.89794767
103	0x3f65e0e0	0.89796257
104	0x3f65e0e9	0.8979631
105	0x3f65e0ec	0.8979633
106	0x3f65df47	0.8979382
107	0x3f65e240	0.89798355
108	0x3f65deef	0.89793295
109	0x3f65e25b	0.89798516
110	0x3f65e341	0.89799887
111	0x3f65e0ea	0.89796317
112	0x3f65deda	0.8979317
113	0x3f65e05e	0.8979548
114	0x3f65e10e	0.8979653
115	0x3f65e032	0.8979522
116	0x3f65e285	0.89798766
117	0x3f65df60	0.8979397
118	0x3f65e08f	0.89795774
119	0x3f65e17c	0.89797187
120	0x3f65df0a	0.89793456
121	0x3f65e0de	0.89796245
122	0x3f65e121	0.89796644
123	0x3f65e024	0.89795136
124	0x3f65e06c	0.89795566
125	0x3f65e228	0.8979821
126	0x3f65e030	0.8979521
127	0x3f65e29e	0.89798915
128	0x3f65e051	0.89795405
129	0x3f65e2c8	0.89799166
130	0x3f65df91	0.8979426
131	0x3f65e182	0.8979722
132	0x3f65df86	0.89794195
133	0x3f65e0e0	0.89796257
134	0x3f65df6a	0.8979403
135	0x3f65df8f	0.8979425
136	0x3f65e33b	0.8979985
137	0x3f65df9d	0.8979433
138	0x3f65df83	0.89794177
139	0x3f65df7a	0.89794123
140	0x3f65e125	0.8979667
141	0x3f65e0eb	0.8979632
142	0x3f65e1cd	0.8979767
143	0x3f65dc17	0.89788955
144	0x3f65e0c3	0.89796084
145	0x3f65e31e	0.8979968
146	0x3f65e0c7	0.8979611
147	0x3f65e0ee	0.8979634
148	0x3f65e1b4	0.8979752
149	0x3f65e2ac	0.89799
150	0x3f65e0c2	0.8979608
151	0x3f65e12c	0.8979671
152	0x3f65e171	0.8979712
153	0x3f65e286	0.8979877
154	0x3f65e2a3	0.89798945
155	0x3f65e092	0.8979579
156	0x3f65e0ef	0.89796346
157	0x3f65dfb4	0.8979447
158	0x3f65e225	0.89798194
159	0x3f65e33f	0.89799875
160	0x3f65df26	0.8979362
161	0x3f65df28	0.89793634
162	0x3f65e241	0.8979836
163	0x3f65dfd9	0.8979469
164	0x3f65e1eb	0.8979785
165	0x3f65dee0	0.89793205
166	0x3f65e17e	0.897972
167	0x3f65e0f2	0.89796364
168	0x3f65e2e4	0.8979933
169	0x3f65e0c4	0.8979609
170	0x3f65e334	0.8979981
171	0x3f65e05c	0.8979547
172	0x3f65e1b2	0.8979751
173	0x3f65e01e	0.897951
174	0x3f65dfed	0.8979481
175	0x3f65e373	0.89800185
176	0x3f65e1b8	0.89797544
177	0x3f65e276	0.89798677
178	0x3f65e02b	0.8979518
179	0x3f65e0d2	0.89796174
180	0x3f65e294	0.89798856
181	0x3f65e1a1	0.8979741
182	0x3f65e18a	0.8979727
183	0x3f65e02c	0.89795184
184	0x3f65e032	0.8979522
185	0x3f65e0fd	0.8979643
186	0x3f65df01	0.897934
187	0x3f65e0ad	0.89795953
188	0x3f65e317	0.89799637
189	0x3f65e094	0.89795804
190	0x3f65e10e	0.8979653
191	0x3f65e25c	0.8979852
192	0x3f65de15	0.89791995
193	0x3f65d74d	0.8978165
194	0x3f65e0c3	0.89796084
195	0x3f65e04b	0.8979537
196	0x3f65dedd	0.8979319
197	0x3f65e272	0.89798653
198	0x3f65df55	0.897939
199	0x3f65e10a	0.8979651
200	0x3f65e12f	0.8979673
201	0x3f65df9c	0.89794326
202	0x3f65e276	0.89798677
203	0x3f65e0b9	0.89796025
204	0x3f65e115	0.8979657
205	0x3f65e100	0.8979645
206	0x3f65e2ab	0.8979899
207	0x3f65e263	0.89798564
208	0x3f65dfe7	0.8979477
209	0x3f65e18b	0.89797276
210	0x3f65e01d	0.89795095
211	0x3f65e052	0.8979541
212	0x3f65e023	0.8979513
213	0x3f65dd45	0.89790756
214	0x3f65e2eb	0.89799374
215	0x3f65df93	0.8979427
216	0x3f65e015	0.8979505
217	0x3f65e00c	0.89794993
218	0x3f65e2da	0.89799273
219	0x3f65e028	0.8979516
220	0x3f65e1dd	0.89797765
221	0x3f65df8c	0.8979423
222	0x3f65e129	0.8979669
223	0x3f65e032	0.8979522
224	0x3f65df9d	0.8979433
225	0x3f65e30f	0.8979959
226	0x3f65da93	0.8978664
227	0x3f65e194	0.8979733
228	0x3f65e201	0.8979798
229	0x3f65e006	0.8979496
230	0x3f65df9a	0.89794314
231	0x3f65e049	0.89795357
232	0x3f65def1	0.89793307
233	0x3f65e473	0.8980171
234	0x3f65e189	0.89797264
235	0x3f65e0c9	0.8979612
236	0x3f65e25f	0.8979854
237	0x3f65e0eb	0.8979632
238	0x3f65e00e	0.89795005
239	0x3f65e302	0.8979951
240	0x3f65e1af	0.8979749
241	0x3f65e1dd	0.89797765
242	0x3f65dfaa	0.8979441
243	0x3f65e036	0.89795244
244	0x3f65e13f	0.89796823
245	0x3f65e13f	0.89796823
246	0x3f65e2d2	0.89799225
247	0x3f65e21a	0.8979813
248	0x3f65e267	0.8979859
249	0x3f65e408	0.89801073
250	0x3f65e091	0.89795786
251	0x3f65e1bc	0.8979757
252	0x3f65e0cf	0.89796156
253	0x3f65df66	0.89794004
254	0x3f65e19b	0.8979737
255	0x3f65e10c	0.8979652
